classification/model_rnafm/13_final/120Epoch/rna_type_checkpoint_fold_10.pt (torch, 252034 bytes, 24 tensors)

layer1.conv1.weight f4 [30, 30, 5]
00000000: 9af5 e3be 5017 d43a 028e 6f3f b0fc 53bf
00000010: 2368 c3be eb75 ad3d 642d c2be cd6b c0be
00000020: 96b1 d8bd 1e00 833d b698 933e 1566 103e
00000030: e10d bdbe 383c ad3e eddc 6dbd d3da 473e
00000040: ae3f 4f3f c643 463e efb0 8c3e 9e0a 5f3c
00000050: f415 61bd 8a52 c6be 464d e43d 6f24 42bd
00000060: 45c7 91bd 4b5f 043f 3985 6b3e 4c74 09bf
00000070: 4cfb 4ebe 7fd2 ff3e 866c 35be 4637 123f
00000080: 40cc 08bf e269 f43d bd59 143f a2e7 95bc
00000090: dd42 cc3e cdf2 80bd 751b 7cbe 1308 443e
000000a0: 7c3a 91be f351 893c f5d0 053f a5b5 7ebe
000000b0: fa06 d4bc 957c adbd 0ee2 18bd 431e fdbd
000000c0: e97b adbc a6c4 58bc 4c7f 08bd 4285 92be
000000d0: 60ee 0a3e 9df5 bc3e 0172 2abd fd79 a9bd
000000e0: 66af e0bd fffd c73d 5755 25be 8f8d 723d
000000f0: 2523 623e b6ab e2bd 298b 6fbe ba41 4f3e
00000100: 433d 8a3e b997 803c 7cbd 50be 6592 b4bd
00000110: 8428 f73e 1c14 473e 286e 303e dd5a 46be
00000120: b1b3 fdbd ba61 c93e 4c31 90be f74c a93e
00000130: 2791 bcbe cc88 89bd b882 c93e 6073 d4bd
00000140: 74f4 fd3d 74e9 d2bd ed54 05be ac31 60bd
00000150: b6b9 7cbe dfc3 27bc bf60 22bd daf0 53be
00000160: 6691 583c bf4b a3be 6d8a 45bd d0ad d83c
00000170: c007 6abe f9fb 9b3e 0e8e c5bd 0a19 8e3d
00000180: 39a2 683c b65b 753d 4208 e23e 82c7 973d
00000190: d86d bf3d e263 0d3d f6f7 053e ae30 243d
000001a0: e7fe 4c3e cc00 f4bc 6201 8d3d c255 26be
000001b0: 2573 04bd 9bff b13e 1efb a0bd 82ab 5d3e
000001c0: a432 1fbd b488 f43d c3d0 2c3e d156 afbb
000001d0: afe8 b23d f6bf a63c 2d3c cebd 1210 993e
000001e0: 6a49 c53d 904c 3ebc 1565 b0bd 627c b13c
000001f0: 3b9f e73e 83b9 27be f750 d63d 3959 553d
00000200: 7032 6b3e 6936 853e 2ab2 8cbd a5b6 423e
00000210: d52c a03d db7c 1d3e efd8 b0bd 3d2b 8cbd
00000220: 5082 653e bae8 173e 5ffa 1abb 3289 cc3c
00000230: 81bf 0f3d b61a 57bc 6f15 e53d 1b56 70be
00000240: b414 313d bdb0 20be e580 70bd 2f93 8b3d
00000250: 0b5f 89be fef2 693e db41 7b3e 51f3 33bf
00000260: 9637 3fbe 0bc7 933e 42e9 c33e 6a46 9a3e
00000270: c587 003c d113 61be 4b83 8f3d de3a 11bf
00000280: a8a0 5abe a6c3 c5be 85ad f3be 1932 b63c
00000290: cdbc 4b3e 7683 06bf 8369 0ebf 2b73 ddbe
000002a0: b23f ddbc d8f1 26bd 05fa b03e 7d3f 06be
000002b0: acd6 f0ba 29d9 ce3e a7b9 b53e f6a0 f6bd
000002c0: 8ed0 57be e8e9 d3be a984 4ebe 3ab0 8f3e
000002d0: 43fc 3dbf 65c8 4ebe 8517 9f3e 0458 033d
000002e0: 6d3d 8dbd 7990 17be b706 053f 637e 82bc
000002f0: 0d55 023e 7038 163f 3c92 ba3e abdd 72be
00000300: f6fe 47bd 18f9 793e 3d22 18be 8a21 903d
00000310: 5d77 efbd 97cb 453e e0da bd3d 8e54 9fbe
00000320: 063b e9bd aff6 1fbe 041d 823e 616c b0bd
00000330: 62fd 62be 3468 9fbd e868 38be 7428 0a3e
00000340: 71bd 8b3c 6dc0 c6be 572e 8dbe e59a 113f
00000350: ebc9 cd3e fd05 ccbe 71af 2f3d 3fe4 b4be
00000360: b8c5 e03e 78ec 5abe 2a8c cd3c 855f a13e
00000370: 5af6 10be 9061 833e 3e49 07be 5860 3d3e
00000380: 5846 dc3e f3d7 65be 8e08 9b3d c7ec 54bd
00000390: 5b36 48be 5c7b 1d3a ae99 52bd 9f7d 393e
000003a0: aa5a f3bd 798b dd3c bb7c 19bd 707e 133e
000003b0: 486b 64bd f35b 7fbe 32eb 973e 19d6 05be
000003c0: e77f 95bd 435f 0cbe 73f2 49be 5264 cbbd
000003d0: d34e 59be 6309 82be 7792 9ebe 00d0 6a3d
000003e0: abf5 6f3d 8e84 4d3d e936 03be 5468 b4be
000003f0: e4ac ebbc 58da 963c 818a 233e 97d9 983e
-0.44523317 0.0016181264 0.9357606 -0.82807446 -0.38165388 0.08469757 -0.37925255 -0.37582245
-0.10580747 0.06396507 0.28827447 0.14101441 -0.3692465 0.33835006 -0.05807202 0.19517069
0.8095654 0.19361791 0.2747874 0.013613371 -0.054952577 -0.38734847 0.11147551 -0.047398027
-0.07118086 0.51707906 0.23000039 -0.5369308 -0.2021305 0.49965283 -0.1771718 0.5711559
-0.5343666 0.11934258 0.5794943 -0.018298928 0.39894763 -0.062963106 -0.24619849 0.19143705
-0.28364933 0.01676271 0.5227197 -0.2487398 -0.025882233 -0.08471028 -0.037324958 -0.123592876
-0.021177249 -0.013230478 -0.033324525 -0.28617293 0.13567495 0.36906138 -0.04161263 -0.082752205
-0.109709546 0.09765243 -0.16145836 0.059217032 0.22083719 -0.110679075 -0.23392929 0.20239916
0.26999864 0.015697347 -0.20384783 -0.08816985 0.48273098 0.19441265 0.17229521 -0.19370599
-0.12387789 0.39332372 -0.2816261 0.33066532 -0.36829492 -0.06715545 0.39357543 -0.103735685
0.12400141 -0.10298434 -0.13020678 -0.05473487 -0.24680218 -0.01023957 -0.039643046 -0.20697346
0.013218259 -0.31893727 -0.048227716 0.026450068 -0.22854519 0.30465677 -0.096462354 0.069383696
0.014198833 0.059901915 0.44146925 0.074111 0.09347123 0.034519084 0.13082871 0.040085487
0.20019113 -0.029785536 0.068850294 -0.16243652 -0.032336373 0.34765324 -0.07860397 0.21647456
-0.038866654 0.119401366 0.16876511 -0.0053509255 0.08735787 0.020355206 -0.10070071 0.29895073
0.09633143 -0.011614934 -0.0861303 0.021665756 0.4523867 -0.16379361 0.104646616 0.052087042
0.22968459 0.26018074 -0.068699196 0.19014986 0.07821051 0.1537966 -0.08635127 -0.068441845
0.22412992 0.14834872 -0.0023647768 0.024967764 0.03509474 -0.013128927 0.11185729 -0.23470347
0.043232635 -0.1569242 -0.058716673 0.068151824 -0.26830325 0.228466 0.2453684 -0.70293146
-0.18673548 0.28862795 0.382639 0.30131847 0.00784487 -0.21980216 0.07007464 -0.5673045
-0.21350348 -0.3862583 -0.47593322 0.022240685 0.1989624 -0.52544343 -0.5562975 -0.4325193
-0.027007911 -0.040757984 0.3456575 -0.13110156 -0.0018374524 0.40400055 0.35493204 -0.120424196
-0.21075651 -0.41389394 -0.20167793 0.28064138 -0.74213046 -0.20193632 0.3107263 0.03206636
-0.06896482 -0.14801206 0.5196337 -0.015929407 0.12727757 0.58679867 0.36439693 -0.23717372
-0.048827134 0.24411428 -0.14856811 0.07037647 -0.116926886 0.19315945 0.09270263 -0.31119198
-0.11388211 -0.15621446 0.25412762 -0.08614422 -0.2216697 -0.07783547 -0.18008769 0.13491994
0.017058106 -0.38818684 -0.27574417 0.56876975 0.40193114 -0.3984832 0.042891923 -0.35330388
0.43900847 -0.21379268 0.02509125 0.31518188 -0.14156476 0.25660372 -0.13211533 0.18493783
0.43022418 -0.2244566 0.07569991 -0.05198362 -0.19551985 0.00060074567 -0.05141609 0.18114327
-0.11882527 0.027044045 -0.037472468 0.14403701 -0.055766374 -0.2493742 0.29671627 -0.13069953
-0.07299786 -0.13708214 -0.19721393 -0.09931244 -0.21221475 -0.25397786 -0.3097112 0.05732727
0.058583897 0.050175242 -0.12813915 -0.35235846 -0.028768964 0.018414661 0.15970804 0.29853508

layer1.conv1.bias f4 [30]
00000000: d953 7f3d c85a 60bc fcd9 ae3c f038 2e3d
00000010: d6b1 973c e346 1a3d f896 e9bc 982c f23c
00000020: e58f b4bd 93f6 29bd 71e3 1e3d 581d a23b
00000030: 8841 f03d 746c 90bb a211 07bd ad06 52bd
00000040: f987 22bd 70bf 013e d5f2 6f3d ff13 213d
00000050: 04d0 543e 46e8 8b3d 287d b13d f01f 9f3c
00000060: 0707 d1bd 6250 c6bc 3382 c43d 4eea 52bd
00000070: 5493 7b3d 331b e7bc
0.062335823 -0.013693519 0.021344177 0.04253477 0.018517416 0.03766526 -0.02851437 0.02956228
-0.08816508 -0.041494917 0.038791124 0.0049473457 0.11731249 -0.00440746 -0.0329758 -0.051275898
-0.039680455 0.12670684 0.058581192 0.03932571 0.20782477 0.06831412 0.0866645 0.019424409
-0.102064185 -0.024208251 0.09595146 -0.05149298 0.0614198 -0.028211212

layer1.bn1.weight f4 [30]
00000000: cbdd 5f3f 93f7 803f e879 773f 8bbd 7e3f
00000010: 6273 443f 9bb6 343f 10c5 463f 4513 163f
00000020: 70e8 0e3f aa9c 683f f288 423f 9862 4f3f
00000030: d768 943f 1489 8c3f 3f70 843f c636 2c3f
00000040: a393 f63e 177b 3a3f a4aa 983f 6515 733f
00000050: a2d3 9a3f 0752 083f 496c 753f 26b1 563f
00000060: c795 893f 31ef 723f 95ec 803f 3818 183f
00000070: 6e57 603f f473 273f
0.87447804 1.0075554 0.9667039 0.9950797 0.7673856 0.70591134 0.77644444 0.5862315
0.5582342 0.9086405 0.7599021 0.8100982 1.1594495 1.0979333 1.0346755 0.6727108
0.48159513 0.7284407 1.1927075 0.9495452 1.2095835 0.53250164 0.95868355 0.8386406
1.0748833 0.9489623 1.0072199 0.59411955 0.8763341 0.65411305

layer1.bn1.bias f4 [30]
00000000: 71e1 3cbe ee03 493e 334f 1c3e a061 b43d
00000010: 05f0 103e d8da 9d3d 6e9b 153d f746 af3d
00000020: 1e59 00bd 7e43 9cbc a38d 653c 3929 113e
00000030: a659 6d3d 6a78 b23d bd00 213e 6057 3d3d
00000040: e5da 233d 7a74 d63d f80f adbd f501 f43c
00000050: 9a36 1fbe de06 303d 7380 ad3c af73 c63d
00000060: 2f1d 073e 37ee 153e 16ec c2bc ce78 6f3c
00000070: 20c4 9b3e 0614 473c
-0.18445374 0.19630405 0.15264587 0.08807683 0.1415406 0.07707757 0.036525182 0.08558457
-0.03133499 -0.019075152 0.01401082 0.14175881 0.057946824 0.087143734 0.15722938 0.046225905
0.040003676 0.10471435 -0.084503114 0.02978609 -0.15548173 0.0429753 0.021179413 0.09690034
0.13194726 0.14641653 -0.023794215 0.014616204 0.3042307 0.01215077

layer1.bn1.running_mean f4 [30]
00000000: 44ca 8d3d 96a0 aebc 49ee 983c 6659 253d
00000010: ffba 3e3c df03 293d 380b 06bd 6b2e d73c
00000020: 868b c8bd a428 59bd 218a f43c 93fb 8f3b
00000030: 9900 d53d 2c21 c2bc 0dd0 11bd c8ab 70bd
00000040: cd2d 30bd b422 f33d dac7 7b3d d5d9 303d
00000050: 5cab 4c3e b323 893d ba9b b53d 8c5d 1d3d
00000060: fa73 dfbd 228c 08bd 3dcd a13d 75c3 5ebd
00000070: 28a8 673d bd20 fabc
0.06923345 -0.021316808 0.01866831 0.04036846 0.011641263 0.041263457 -0.032725543 0.026267251
-0.09792237 -0.053017274 0.029851021 0.0043940037 0.104005046 -0.023697458 -0.035598803 -0.058757573
-0.04301243 0.118718535 0.06146989 0.04317649 0.19987243 0.06696262 0.08867593 0.03841929
-0.10910793 -0.033336766 0.07900474 -0.05438562 0.05655685 -0.030533189

layer1.bn1.running_var f4 [30]
00000000: 5b07 0f40 9f71 6b40 ca61 403f ff8c 5b3f
00000010: 7643 3540 b1ba 2e40 4935 6a3f 715e 9b3f
00000020: 1973 a03f 0daa 9940 41e4 4e40 92a2 1840
00000030: 884e 2a40 18c8 dc40 cbf6 653f c6e3 ba3f
00000040: d987 0540 7b95 913f 0a0b 573f b83d 7840
00000050: c382 7240 6428 813f 61b6 7940 d3a3 8b40
00000060: b5f3 e23f f38a b93f ea33 4d40 a1c4 203f
00000070: 66d4 993f 93d1 cf3f
2.234824 3.67881 0.75149214 0.8576202 2.8322425 2.7301447 0.91487557 1.2138196
1.2535125 4.802008 3.2326815 2.3849225 2.6610432 6.8994255 0.898297 1.4600761
2.0864165 1.1373743 0.8400122 3.878767 3.789231 1.0090451 3.9017565 4.363748
1.7730623 1.4495529 3.2062936 0.6280003 1.2017944 1.6235832

conv1.weight f4 [30, 30, 5]
00000000: 2e84 a33c 7acd 0f3f fffb 2abd 1227 d1be
00000010: ebf3 94bd d305 2cbd 91e9 23be 8b71 c6be
00000020: 6994 b9bd 4751 b43d eab2 023e 4f72 1a3f
00000030: f3d5 a73e 80e7 a2bb b133 1fbe 875e e4bd
00000040: 87ec 47be b7b8 9e3d dc3a f43e 6535 c23e
00000050: 82dc 383e 2ef0 ef3d 2329 2abf c04e ecbc
00000060: cf58 8fbd 03e1 74be cd39 47be 9dc6 c7be
00000070: f8ae 0e3f d46e c83c 4620 e83e 7300 0f3e
00000080: b904 56be ef8a a3be fd18 41bd c692 793c
00000090: d1af d73e 1f5e 6dbb b86f 04be 634a 36bc
000000a0: 55e1 833e d5f9 36be 119e e83d f9fa a5bd
000000b0: 38bd 58be 10f9 5a3e 081c dbbd a84a 58be
000000c0: a82d 75be dac5 0f3e 3363 a8be c085 debc
000000d0: 441d 7cbe d882 8bbe 75e2 8fbe 3d8b acbe
000000e0: a537 6abd a7ee 963e ab19 913d 26d2 66be
000000f0: aaaa 43bd bb8f f2be f8be 68be 31d3 98bd
00000100: f7d4 1d3e b451 64be 4a06 9abe 0414 81be
00000110: 821b 1abd 91b6 9b3e b32d d53e eaac bebd
00000120: 3f4d cebd e41d b83c e65e 2a3e 966f d2bd
00000130: 7f58 b53e 8817 89bd da81 05be 96b4 833e
00000140: 9780 dfbc 3bce f53d 5bf8 9c3d badd 7a3c
00000150: ed7d 33bd 8ae0 4bbe cf83 a9be 6344 ee3d
00000160: 4f23 993d cca6 6e3e abcd e6be efca 9cbe
00000170: dd91 e7bd 85c3 933d 4098 2d3e 1427 84be
00000180: 99cb 23be 3f5b 243d 0a01 25bc 034c 61be
00000190: 00ba e23e a8b7 72be ab94 8bbe 76e8 a7be
000001a0: 49ce 5c3e 4d6d eb3d 5bb9 1ebe 6aa0 083c
000001b0: 7175 dbbd 6098 21be 5eff 11be 68fb a5bd
000001c0: 9af8 f5be c210 88be 7e09 02be 6b42 64be
000001d0: 864e 41be 74cc 323e 5277 e5bd 0963 96be
000001e0: b50d 08be b555 623e 59a1 30be e335 a7be
000001f0: 8d1b 86be b62a 07bd 966e f33e 4498 fabd
00000200: 6919 adbe e992 9dbd 180f 8cbe bc35 06be
00000210: 18a3 7cbe 15db 8c3d 2317 6fbe 2ebd bcbe
00000220: 41dc 6dbd a59f 3a3e f853 b53d a948 5ab9
00000230: a50c d1bb 1304 4d3e 3898 17bd 086d 07bf
00000240: 9122 8abe 7225 753e 62d6 1a3d b162 16bd
00000250: 4eec a6be a77f a6bd d028 933a 6da4 0f3f
00000260: dda6 97bc efba e8be 7dfb 60bd 950c 05bd
00000270: d030 11be 1184 e6be 81f6 b6bd 39f3 7d3d
00000280: 3fcc 103e fddf 183f 4355 b03e cc2d 8cbc
00000290: 29ef 1dbe 400b 0bbe ec69 5fbe 2468 843d
000002a0: 8d14 ee3e cba9 b03e 94b0 393e 613b 1a3e
000002b0: 2f8c 27bf b032 89bd cd12 52bc 0921 62be
000002c0: 96a4 57be 4b94 c8be e11d 083f 83d2 7eba
000002d0: c9d8 e73e 35b1 1f3e c085 7cbe 32a0 a1be
000002e0: ab10 ddbc 8ca6 963c 7f9b ec3e a02e d83c
000002f0: 4a2d 27be 071d 4d3c 2d75 a53e 3da4 29be
00000300: bfac c63d 6a57 60bd fe47 98be af98 673e
00000310: 5d68 27be d576 63be f823 8cbe 79cf fa3d
00000320: 97dc a1be 68fc 613c 13da 6ebe 847e 84be
00000330: 9b58 8dbe ebeb aabe 33bd 50bd 0d1f a43e
00000340: 2922 9e3d bff7 65be a733 16bd 23a2 f9be
00000350: ea9d 76be 8c1f 35bd 8ab3 0b3e ee58 70be
00000360: 28a2 87be 1804 6dbe b93d b2bd b1c7 893e
00000370: 66df d83e bcfc a8bd 2a5c bbbd 0d63 413d
00000380: 9c88 133e b95e c6bd fbec b13e b484 95bd
00000390: f9a0 e3bd 19a5 613e 205b 99bc f7dc 173e
000003a0: 59a8 8a3d e1bd 8d3c 200d bdbc 2373 50be
000003b0: cfde 8cbe 8b8b ff3d cc86 823d 396c 6e3e
000003c0: a00c e9be 6446 a0be cbc0 05be a90c d03d
000003d0: 6e24 383e b8cf 6ebe 4750 49be b9ce 323d
000003e0: b577 a23b b492 67be 15a4 d93e e69a 46be
000003f0: f3a1 8abe f576 adbe 02a3 6f3e 523e cf3d
0.01996049 0.5617291 -0.04174423 -0.4085012 -0.07273086 -0.041997742 -0.16007067 -0.387585
-0.0906151 0.08804565 0.12763563 0.6033067 0.32780418 -0.0049714446 -0.15547062 -0.11150842
-0.19523822 0.07750075 0.47701156 0.37931362 0.18052867 0.117157325 -0.6646902 -0.028846145
-0.06999361 -0.2391396 -0.19455643 -0.39018717 0.5573573 0.02446691 0.45337123 0.13965015
-0.20900239 -0.31941935 -0.04714297 0.015232747 0.42126325 -0.003621943 -0.12933242 -0.011126134
0.25757852 -0.17868741 0.11358274 -0.0810451 -0.21165931 0.21384072 -0.10698706 -0.21122229
-0.23943198 0.14040318 -0.32888183 -0.027163386 -0.24620539 -0.27248263 -0.2810246 -0.3369998
-0.057181973 0.29478952 0.07084974 -0.22541103 -0.04777018 -0.47375283 -0.22729099 -0.074621566
0.15413271 -0.22296792 -0.30082923 -0.25210583 -0.03762389 0.30412725 0.41636428 -0.093103245
-0.10073327 0.02247519 0.16637763 -0.102751896 0.3541908 -0.06693941 -0.13037816 0.25723714
-0.027282996 0.12002226 0.076645575 0.015311653 -0.043821264 -0.19909874 -0.33108374 0.116341375
0.07477438 0.23305815 -0.45078787 -0.30623576 -0.11307118 0.07215027 0.1695261 -0.25811064
-0.15995635 0.04012608 -0.0100710485 -0.22001652 0.44282532 -0.23702872 -0.27261862 -0.3279454
0.21563067 0.11495457 -0.15500395 0.008339027 -0.107157595 -0.15780783 -0.14257571 -0.081045926
-0.4804123 -0.26575285 -0.12698933 -0.22290961 -0.1887761 0.17460805 -0.11204399 -0.29372433
-0.13286479 0.22103007 -0.17249049 -0.326583 -0.26192895 -0.032999717 0.47545308 -0.122360736
-0.3380845 -0.076940365 -0.27355266 -0.13106436 -0.2467159 0.06877724 -0.2334867 -0.36863083
-0.05807138 0.18224962 0.088539064 -0.00020817168 -0.006379681 0.20021085 -0.0370104 -0.52900743
-0.26979497 0.23940066 0.037802108 -0.036715213 -0.3260216 -0.081298165 0.0011227373 0.5611027
-0.018512184 -0.4545512 -0.054927338 -0.032482702 -0.14178777 -0.45022634 -0.08933736 0.061999533
0.14140414 0.5971678 0.3444005 -0.017111681 -0.15423264 -0.1357851 -0.2181775 0.06465176
0.46500054 0.34504542 0.18133765 0.15061714 -0.6544828 -0.06699121 -0.012821865 -0.22082914
-0.21058878 -0.3917564 0.5317059 -0.00097207 0.4528258 0.15594943 -0.24660397 -0.31567532
-0.026985487 0.018389963 0.46212384 0.02638942 -0.1632587 0.012519128 0.3231596 -0.16566558
0.097009175 -0.054770865 -0.29742426 0.22616838 -0.16348405 -0.222133 -0.27371192 0.122466035
-0.3161361 0.0137930885 -0.23325376 -0.25877774 -0.27606663 -0.33383116 -0.050961684 0.3205494
0.07721359 -0.22457789 -0.036670353 -0.48756513 -0.24083677 -0.04421954 0.13642707 -0.23471424
-0.26490903 -0.23146093 -0.08703179 0.26910165 0.4235794 -0.0825133 -0.09148438 0.047213603
0.14407581 -0.09686036 0.34751114 -0.07300702 -0.111146875 0.22035636 -0.01872021 0.14830385
0.06770391 0.017302455 -0.023077548 -0.20356421 -0.2751374 0.124777876 0.06373367 0.23283471
-0.45517445 -0.31303704 -0.13061826 0.10158665 0.17982647 -0.23321426 -0.1965953 0.043654177
0.004958118 -0.22614557 0.42507997 -0.19395027 -0.27076682 -0.3387982 0.23402026 0.101193085

conv1.bias f4 [30]
00000000: 157f e63d 49ca 913d 6ef1 bebc a69a bebd
00000010: 63e1 00bd 03ac 0e3d 32dd 6a3d 8720 d3bd
00000020: 3b32 8dbd 2d84 dbbb ea70 3dbd 03fc 033d
00000030: a28d 34bc 1394 2ebd 1807 923d 28ab 43bc
00000040: 7542 a63d 5382 b2bd e3d7 27bd b26a 83bd
00000050: e289 72bc fbb1 56bd f3ea aa3d 719c 253d
00000060: 9a41 72bd 081a 6e3d 85aa 163d cc9d b8bc
00000070: 1d6d 2c3c da04 0c3d
0.11254708 0.07118661 -0.023308482 -0.093068406 -0.031464946 0.034832012 0.057339855 -0.103089385
-0.06894346 -0.006699106 -0.04625026 0.03222276 -0.011020096 -0.042621683 0.07130259 -0.011942662
0.081181444 -0.087162636 -0.04097737 -0.06416835 -0.014803382 -0.05241583 0.08345594 0.040432397
-0.059144594 0.058130294 0.036783714 -0.02253618 0.0105240615 0.034184314

bn1.weight f4 [30]
00000000: e578 9e3f 2d51 9f3f da98 a03f 83a7 a03f
00000010: 1aa6 9f3f 8869 943f 988e 9a3f 1e45 8f3f
00000020: efee 8f3f b847 893f 2218 803f a910 803f
00000030: 1272 723f 7bd6 633f 5d2b 5f3f cdaa 5e3f
00000040: 7ff9 4c3f d1ab 4b3f a9c6 413f cd8e 353f
00000050: d062 303f 34f1 bf3f 453a 213f ec91 1f3f
00000060: c8e7 1c3f 4971 053f 4f51 f23e 02b3 053f
00000070: 5ae4 1c3f 452b 2a3f
1.2380644 1.2446648 1.2546647 1.255112 1.2472565 1.1594706 1.2074766 1.1192968
1.1244792 1.0725012 1.0007365 1.0005084 0.9470531 0.88999146 0.8717554 0.8697937
0.800682 0.79559046 0.75693756 0.7092102 0.68900776 1.4995484 0.6297954 0.62332034
0.6129117 0.52125984 0.4732766 0.5222627 0.61285937 0.66472274

bn1.bias f4 [30]
00000000: e04d b73c fff3 9c3c 630f e53c fe7a 253d
00000010: 9846 f73c 377d 423d e70f 643d dcfb a93d
00000020: 6801 be3d 7562 b13d 4f27 9e3d 93e9 bb3d
00000030: 0bd3 a23d 02b9 ef3d d63e e43d 23c9 fa3d
00000040: bcd4 0c3e b325 f63d bbfb 103e a398 183e
00000050: c461 3a3e 68d6 9a3e 2d47 4b3e bdba 653e
00000060: 34f0 603e 1058 853e 0042 8f3e faa8 8f3e
00000070: 2bd8 733e a996 7c3e
0.022376 0.019159315 0.027961439 0.040400498 0.030185029 0.047482695 0.05567923 0.082999915
0.09277612 0.08661357 0.07722341 0.0917541 0.079504095 0.11705209 0.111447975 0.12245395
0.13753027 0.12018909 0.14158528 0.14901976 0.18201357 0.30241704 0.1985137 0.22434516
0.2196663 0.2604375 0.27980042 0.28058606 0.2381293 0.24666847

bn1.running_mean f4 [30]
00000000: 9bc5 d7bf cd63 e1bf 16f7 dbbf 7609 efbf
00000010: e346 debf 2cdb d1bf 06bb cabf 9362 bebf
00000020: b2b2 e0bf 7431 e7bf b2bf d4bf 9503 c0bf
00000030: 0c4d bbbf 6823 e7bf 1dc6 d6bf f95b d1bf
00000040: 53b3 bfbf b21e c9bf 5779 c3bf 1f9a c0bf
00000050: 2a59 8bbf 50ce d0bc 5b45 6fbf 52b3 4fbf
00000060: 15e2 95bf de78 35bf 3fac b4be 7941 37bf
00000070: 1bbd 52bf 69cc a0bf
-1.6857179 -1.7608582 -1.718478 -1.8674762 -1.7365383 -1.6395011 -1.5838325 -1.4873832
-1.7554533 -1.8061967 -1.6621001 -1.5001093 -1.4632888 -1.805768 -1.6779209 -1.6356193
-1.49766 -1.5712492 -1.5271405 -1.5047034 -1.0886586 -0.025489002 -0.93465203 -0.81132996
-1.170962 -0.70887554 -0.35287663 -0.7158428 -0.823198 -1.2562381

bn1.running_var f4 [30]
00000000: 8acf e140 d88b e940 1fac e140 e352 cc40
00000010: 3176 dd40 796f ea40 8ce4 d640 d489 cd40
00000020: f037 f740 c3e8 f740 ea8c ec40 2abd f140
00000030: 3899 dc40 3ef1 eb40 8f99 f640 3a70 f640
00000040: 7c59 fb40 c0e0 f440 63e2 c840 1d09 db40
00000050: 5040 c240 0d86 c13f 0948 c840 2bfe b340
00000060: a821 df40 9bd7 eb40 9fe6 c740 6bdc e640
00000070: cadc 0741 0ef9 2d41
7.0565844 7.298321 7.052261 6.385118 6.9206777 7.3261075 6.715399 6.4230747
7.7255783 7.7471633 7.3922014 7.5543413 6.8937035 7.3731985 7.706245 7.7011995
7.8546734 7.6524353 6.277635 6.8448625 6.0703506 1.5119034 6.2587934 5.6247764
6.9728584 7.370069 6.246902 7.2144065 8.491404 10.873304

dense1.dense.weight f4 [96, 512]
00000000: e6b2 4e3e c6cc abbe 1801 49bf 3228 db3d
00000010: 72b6 0b3e dd7e 98be a0fc f5be f15e 233e
00000020: 5d6b 3f3d b3c7 ce3c f63c 8e3e 6970 653d
00000030: 3dc3 613d 7e8b f4be 4129 5dbe f631 abbc
00000040: 0ef4 9abe dc8a 253e d0b3 9ebd 5b30 97be
00000050: 1eee d93d db2f e9bd 5783 94be b9f3 043d
00000060: 67d3 cc3d 815b bbba 6af2 9c3d fa52 a0be
00000070: 0224 33be 03a6 e43b e230 7b3e cca5 5f3d
00000080: c0c5 d83e 56f6 c43e 1a6f b3be 9726 05be
00000090: f58b 153e 17c0 aebd 975d 89be 6724 793d
000000a0: 9400 47bc 8105 2b3c 8cc0 53bd ba86 17bd
000000b0: 90fc ec3d c3a5 603d b4f0 a7be b180 f23d
000000c0: d4b5 1ebf afe1 fc3d ea0f 31bd 0906 ad3c
000000d0: 509b de3e 91e1 27bd 352f bd3e b720 803e
000000e0: fae8 27bd 0dca 7ebe 78db 543c 9b31 04be
000000f0: 61c6 43be 6f94 3f3d d298 6a3c d1c6 fcbe
00000100: 9165 873d c719 ef3e ede2 173f d288 883e
00000110: b8c6 f23d b88b ed3d 9c43 5f3d 191c 13bc
00000120: 3abb 7b3c a94b 78bd abea 1ebe d70d 9abc
00000130: 1443 3cbd f88a 2cbe ce80 fe3d 9ec3 a4bd
00000140: 1f40 97bd 0c89 c93d 6cfd 103e df48 053e
00000150: 3d2b 0cbe 9920 0ebe 4bde afbe 3d2f 88be
00000160: 3d4a a33e 6ee5 453d aac6 993d ecdc 853e
00000170: ff05 3cbe 38a0 b63d 870a 7f3e 437f 8f3e
00000180: c89d 21bd cfd9 cdbe dbac 20be 3a73 313e
00000190: 35fc aa3d 5486 bcbe faa7 61bc b6d8 f83e
000001a0: 4cae d8be e9a4 193e 94f0 0a3e e2fa 06be
000001b0: d3f4 a4be 7a59 f6bd 3d5c 41be 16b6 a8bd
000001c0: ea72 a23e 3de7 803e 611e c93e 8b0e 483e
000001d0: a90a a9be 2cfb aabd 2038 8e3a b5c8 b03d
000001e0: 1a6d f9bd 3e51 b5be ef0c 1ebf 410d 2d3d
000001f0: 98f6 283f 7f94 c4bd 1c1c 6bbd b4b6 a43d
00000200: 0fc3 64bd 571d 7abe 7b69 12bf 6af4 9ebe
00000210: e6ab 61bc d8dd 87be 5d71 babb 4c32 183f
00000220: 5208 903d b373 c63e 44ee fe3e ac79 89bd
00000230: e434 63bd d0f7 2abd b56a f33d 03ff 843d
00000240: 88a8 c4bd 1faf 9f3e 08aa be3e c1fb 493e
00000250: 1b65 2a3e 7a49 e7be 6580 3ebe 776b 3fbe
00000260: 59f9 1a3d 9173 83be 77b8 1fbe d65a 1abd
00000270: c4c5 1cbf cab6 093f 135d 2c3d 1e11 6f3e
00000280: 7496 ee3a 2389 73bc dfbf 9ebd 1c1f e9bd
00000290: d6af e6bd a621 033f 42c6 bfbe 19ef 3c3e
000002a0: 9d1e 2cbe 9118 31be e6f1 3f3f 849e 0d3e
000002b0: 892e 1e3f 161a 09bf 9d4a a6be ba49 1dbe
000002c0: c310 4fbe 3c9b 17be be27 81be e67e f3bc
000002d0: 668b 053e 00ab 453c 3e83 2cbe 5540 8a3e
000002e0: 55e0 1abe 0038 403c 1e38 ba3c 0d58 9fbe
000002f0: f548 f13a ed82 6d3d 144f 1abe d332 7fbe
00000300: 0c28 38be 8acb 773e 44f7 213f bd76 bd3e
00000310: a2c8 84be b98d b5be c6cc 233e b00a ff3d
00000320: e99a d73e a720 89be 79ae 1fbf 3292 e6be
00000330: 8a1f b9be 016d 91be 48d2 48bd 25f6 9ebd
00000340: b41a bd3c 2a24 82bd 5676 28be bf2f febe
00000350: 20c3 37be 2fda 0cbc 1a08 6c3e 46f9 2d3d
00000360: e53a d43e 166d 9cbe 675f 8b3d accd 3bbe
00000370: 015f 293d 44d4 55bd b0bb 323e d0ad 983e
00000380: 4832 afbc a666 abbe bf7a 053e c27b 4b3e
00000390: 693f 02bd 0675 0a3f a691 033f 1cc6 973d
000003a0: 10c0 bbbb b053 abbe 687e b4bd ccad a13e
000003b0: ea47 9fbe 3d04 05bf f282 723c 2302 9e3e
000003c0: 5cdb 413e 7a9b 873e dff1 913d 9d1b 073d
000003d0: e997 dbbe 2f0e cbbe de78 5bbe e951 96bd
000003e0: a2bf ef3e fd37 873e cf93 53be c732 d7be
000003f0: da00 123e e2eb 8c3e f88b 503e a1aa 4b3e
0.20185432 -0.33554667 -0.78517294 0.10701026 0.13643816 -0.2978429 -0.480443 0.15954186
0.04673325 0.025241708 0.27780885 0.056015406 0.055117834 -0.47762674 -0.21597768 -0.020897847
-0.30264324 0.16166252 -0.0774914 -0.2952908 0.106411204 -0.11386081 -0.29006454 0.032458995
0.10001259 -0.0014294238 0.07663424 -0.31313306 -0.17494205 0.006977798 0.24530366 0.054601476
0.4233837 0.3846919 -0.350457 -0.13003002 0.1460417 -0.08532732 -0.26829216 0.06082573
-0.012146134 0.010438324 -0.0516973 -0.03699372 0.1157161 0.054845583 -0.3280083 0.11840952
-0.619962 0.12347733 -0.043228067 0.021121042 0.4347787 -0.0409866 0.3695008 0.2502496
-0.04099367 -0.24881764 0.012991779 -0.12909548 -0.19118644 0.046772417 0.014318662 -0.49370435
0.06611169 0.46699354 0.59330636 0.26666886 0.11854309 0.11598915 0.054507837 -0.008978867
0.0153644625 -0.06061903 -0.15519206 -0.018805427 -0.04596241 -0.16849887 0.12426911 -0.080451235
-0.07385277 0.09840593 0.14159173 0.1301608 -0.13688369 -0.13879623 -0.34349284 -0.2659854
0.31892577 0.048314504 0.07508595 0.26145113 -0.18361662 0.08917278 0.2490636 0.2802678
-0.039457113 -0.40205237 -0.15690939 0.17329112 0.08348886 -0.36821234 -0.013772959 0.48602837
-0.42320478 0.15004314 0.13568336 -0.13181642 -0.32218036 -0.12028785 -0.18882842 -0.08237855
0.31728297 0.2517642 0.3928099 0.19536798 -0.33015946 -0.083486885 0.0010850467 0.08632032
-0.121790126 -0.35413545 -0.61738485 0.042248968 0.6600127 -0.09598636 -0.057399854 0.0804266
-0.055850085 -0.24425255 -0.571922 -0.31045848 -0.013773894 -0.2653644 -0.0056897835 0.59451747
0.07032837 0.38760146 0.49791157 -0.0671266 -0.055470362 -0.04174024 0.11885587 0.06493952
-0.09602457 0.31188294 0.372391 0.19724943 0.16640131 -0.45173246 -0.18603666 -0.18693338
0.037835453 -0.25674108 -0.15597712 -0.037684284 -0.61239266 0.5379454 0.04208095 0.23346373
0.0018202798 -0.014864239 -0.0775144 -0.11382887 -0.11264007 0.5122322 -0.37455946 0.18450584
-0.16808553 -0.17294528 0.7497848 0.1383 0.61789757 -0.5355543 -0.324788 -0.15360156
-0.20221238 -0.14805311 -0.25225633 -0.029723596 0.13041458 0.012064695 -0.1684694 0.27002206
-0.15124638 0.011732101 0.022731837 -0.31121865 0.0018408584 0.05798619 -0.15069228 -0.24921732
-0.17984027 0.24198738 0.6326792 0.37004653 -0.2593432 -0.35459688 0.15996084 0.1245321
0.42110375 -0.26782724 -0.623756 -0.45033413 -0.36156875 -0.28403476 -0.049028665 -0.07761792
0.023084022 -0.06354554 -0.16451392 -0.49645802 -0.17945528 -0.008596941 0.23049966 0.042474054
0.41451183 -0.30551976 0.06805306 -0.18340176 0.04135037 -0.052204385 0.1745441 0.29820108
-0.02138628 -0.33476752 0.13035105 0.19871429 -0.031798754 0.54084814 0.51394117 0.07410833
-0.0057296827 -0.33462286 -0.088131726 0.3157791 -0.31109554 -0.5195959 0.014801728 0.30861005
0.18931335 0.26485807 0.071262114 0.03298532 -0.42889336 -0.3965926 -0.21432826 -0.07339842
0.46825892 0.26409903 -0.20661853 -0.42030928 0.14258137 0.27523714 0.20365894 0.19889309

dense1.dense.bias f4 [96]
00000000: e233 793e 58aa 553e 227c c93d 62c7 733e
00000010: 66e5 373e a662 613e 7852 d03e 2311 793d
00000020: 8824 953d cd05 2ebc ce20 703e 5ddd f23d
00000030: d96c b43e e7d2 0a3e 5186 193e 6920 973e
00000040: a1eb 303e 8b9b 4c3e c125 583e 3ed3 773e
00000050: 3e2a 693e cb69 863e d231 523e 5745 973d
00000060: bf5a 113e 875d 693e 647f 3c3e 1b99 803e
00000070: 593d 5f3e b6a5 913e ec72 7c3e 0370 343d
00000080: 683e 6fbe 6da5 f53d fc0c 433e 45c9 db3e
00000090: 484a c13d e70c 713e 1f86 963e 7238 2c3e
000000a0: bea4 3e3e ac39 3c3e 592a a43e 57a9 823e
000000b0: 933e b23d 9841 a53d b522 1e3e a063 ac3e
000000c0: ba92 d73e c715 863e ea4f 863e 1487 183e
000000d0: d88c 213e 0f9e 053d 479c a93e a715 613e
000000e0: 2242 303e 9d56 6f3e 282a b23e ffe9 88bf
000000f0: b9e8 65bd f1a1 973e 4e90 8d3d c944 833e
00000100: 63d7 f03d 4ef6 a33e 0fc4 f43d fa2c cd3d
00000110: 4ff7 053e 023b 823e da72 5a3e 0d58 b43e
00000120: c64d 803e 85cf d33b 1a9f ac3e ad8c bb3e
00000130: cbe2 5a3e 36ac e63e 2e63 833e dc0b 8b3e
00000140: 7a73 bebc 6321 5c3e 8f07 1d3e 1b5b 243e
00000150: dcb0 753e 2b4e ab3e 4ec5 fa3d 4726 5e3e
00000160: 3ce8 8b3e 38b9 163e 85ec 2d3e 7336 aa3e
00000170: fe0d 823e 7401 df3d 626a 2a3d a092 083e
0.24336198 0.20865762 0.098381296 0.23806527 0.17958602 0.22010288 0.4068792 0.06080736
0.072823584 -0.0106215 0.23450014 0.11858628 0.35239294 0.13557015 0.14992644 0.29516914
0.17277385 0.1998121 0.21108152 0.24201676 0.2277002 0.2625259 0.20526817 0.073862724
0.14194773 0.22789584 0.1840797 0.2511681 0.21800746 0.2844674 0.24653214 0.044052135
-0.2336365 0.11994443 0.19047922 0.42926994 0.09437996 0.23540078 0.293992 0.16818407
0.18617532 0.18381375 0.3206356 0.2551982 0.08703341 0.08069152 0.15442927 0.33669758
0.4210413 0.2618849 0.26232845 0.14895278 0.15776384 0.03262144 0.33127043 0.21980916
0.17212728 0.23372884 0.34797788 -1.069641 -0.056130145 0.2961574 0.069122896 0.25638416
0.11759832 0.32023853 0.11951458 0.10018344 0.13082622 0.25435644 0.21332875 0.35223427
0.25059336 0.0064639472 0.33715135 0.36630765 0.21375577 0.45053262 0.25661606 0.27157485
-0.023248423 0.21497111 0.15334915 0.16050379 0.23993248 0.33458075 0.12244664 0.21694289
0.27325618 0.14719093 0.16984756 0.33244666 0.254013 0.10888949 0.04160536 0.13337183

dense1.batch_norm1.weight f4 [96]
00000000: 2edf 713f 12eb 553f 3f83 673f ba15 743f
00000010: 395f 723f fb4d 5e3f 6d1f 4f3f 1976 4a3f
00000020: e689 653f 80e3 ca3e bdf4 733f 0468 5c3f
00000030: de88 803f 0dfc 683f 992c 793f ad23 563f
00000040: 7f78 6b3f 91fa 743f f747 7b3f 0e77 753f
00000050: a96e 753f 38eb 653f a767 5f3f 300f 613f
00000060: 718d 663f baa9 6e3f 5a4e 673f 8478 5f3f
00000070: adfe 6c3f ee29 763f 1d73 683f c473 bb3e
00000080: 9fa8 843f 76c2 703f 027b 7d3f 3358 753f
00000090: 40d6 683f cd45 433f 9e4e 5f3f 2841 4e3f
000000a0: 26d0 6b3f 8fb1 643f 5b1d 583f 0506 843f
000000b0: bae5 613f 41e2 283f c4b8 4e3f c1fc 523f
000000c0: 1037 693f 7c67 573f 8f8a 803f c03f 543f
000000d0: 16df 633f 8b93 c93e c650 773f 3634 7f3f
000000e0: 3e1c 6c3f 4606 5a3f 39b3 663f 7f5b 913f
000000f0: cf76 0d3f 0f3e 6e3f 66df 343f e064 6e3f
00000100: 800e 7c3f 60e8 443f 7909 6b3f ac56 5a3f
00000110: 5c66 153f fb80 653f 101b 4c3f b33f 303f
00000120: 4e4e 683f 9dc5 fe3e 0c45 5b3f 017e 6b3f
00000130: 7b6e 7b3f a0f7 7f3f 257f 8f3f ce8c 593f
00000140: a23c 853f e693 613f 6e0a 603f 7838 2c3f
00000150: f72c 633f 6af8 503f 6cf8 533f 86d1 873f
00000160: 9435 663f a303 723f 2036 453f 1cff 5e3f
00000170: 1046 693f a848 763f de20 4c3f 560a 853f
0.9448117 0.83561814 0.9043464 0.9534565 0.9467655 0.8683774 0.80907327 0.7908645
0.8966354 0.39626694 0.95295316 0.86096215 1.0041769 0.910096 0.97333676 0.83648187
0.9198074 0.95694834 0.98156685 0.9588479 0.9587198 0.8981204 0.87267536 0.879138
0.9005957 0.9322773 0.9035393 0.8729327 0.92576104 0.9615773 0.9080065 0.3661176
1.0363959 0.94046724 0.9901582 0.95837706 0.9095192 0.7627838 0.87229335 0.8056817
0.92114484 0.8933343 0.8441979 1.0314337 0.8824116 0.65970236 0.8075068 0.8241692
0.91099644 0.8414228 1.0042285 0.82909775 0.8901228 0.3937038 0.96607625 0.9968904
0.92230594 0.8516582 0.9011722 1.1356047 0.5525941 0.93063444 0.7065338 0.93122673
0.98459625 0.76917076 0.9181133 0.852885 0.58359313 0.89649934 0.79728794 0.688472
0.90744483 0.49760142 0.8565223 0.9198914 0.98215455 0.9998722 1.1210676 0.84980476
1.0409129 0.881163 0.87515914 0.67273664 0.88740486 0.8162905 0.82800937 1.0610816
0.89925504 0.945368 0.77035713 0.87108016 0.9112253 0.96204615 0.7973765 1.0393779

dense1.batch_norm1.bias f4 [96]
00000000: 5d23 23bf d94f 07bf 2602 21bf 6d66 27bf
00000010: 35ec 66bf bf07 08bf 08e0 00bf 20e6 35bf
00000020: 1b04 14bf c028 4cbd cba0 36bf 180c 09bf
00000030: c141 4dbf 4c09 06bf be2f 2abf 18ff 11bf
00000040: 62c1 30bf 800c 4dbf 0007 39bf fd70 2fbf
00000050: 6ffa 5abf 77f9 30bf 1c3e 2ebf 0b99 3fbf
00000060: 10de 40bf 0e89 21bf 1513 41bf 5d47 1cbf
00000070: 3d7a 24bf caaa 03bf 1c2f f1be 7a64 34bc
00000080: b33f 63bf f99b 29bf 386a 43bf 9e01 36bf
00000090: fdc6 31bf 0737 f3be 2fdc 4dbf af59 ffbe
000000a0: 7785 2abf 655b 34bf 8ab5 0fbf 0410 56bf
000000b0: 0dfe 43bf 291d 82be 8468 01bf 0a2a 01bf
000000c0: 6210 25bf d26f 13bf 096f 71bf 876e ecbe
000000d0: 9038 2ebf 0f5e 01be dacf 4dbf 6652 31bf
000000e0: 8b51 3abf 6dd1 32bf 52da 2bbf ee02 e1bf
000000f0: 48ad 92be 33ea 36bf c122 f4be 4b45 46bf
00000100: 49dc 5bbf e367 d3be 46a5 3ebf 4790 18bf
00000110: 23fb 68be c17c 2abf ef4b 04bf 5d1c a0be
00000120: ed6b 3ebf 1799 42be 1d02 23bf 9d61 30bf
00000130: 5dac 39bf 1332 3fbf d22d 66bf ceae 05bf
00000140: df93 6dbf 2a5d 36bf 763d 0cbf dc52 b3be
00000150: 6b76 1fbf f779 22bf 6e8d 08bf 301b 4fbf
00000160: c3a9 18bf 08e2 38bf 01fd 2dbf 93e4 28bf
00000170: acb9 29bf 7640 39bf b61b 1ebf a3f1 61bf
-0.63725835 -0.5285621 -0.62893903 -0.65390664 -0.90204173 -0.5313682 -0.50341845 -0.7105427
-0.57818764 -0.04984355 -0.713391 -0.5353408 -0.8017846 -0.52357936 -0.664791 -0.5702987
-0.6904508 -0.800972 -0.72276306 -0.6853178 -0.8553838 -0.69130653 -0.6806352 -0.748429
-0.7533884 -0.63099754 -0.7541974 -0.6104639 -0.6424902 -0.5143248 -0.47106254 -0.011010284
-0.8876907 -0.6625362 -0.7633395 -0.7109622 -0.6944426 -0.4750292 -0.804141 -0.4987311
-0.666099 -0.70451957 -0.5613638 -0.8361819 -0.76559526 -0.25412872 -0.50550103 -0.5045477
-0.64478123 -0.575925 -0.9431005 -0.46178076 -0.6805506 -0.12633537 -0.8039528 -0.69266355
-0.72780675 -0.6985081 -0.67130005 -1.7579019 -0.28647828 -0.7145111 -0.47682765 -0.7744948
-0.85883003 -0.41290197 -0.7447094 -0.5959515 -0.22752051 -0.6659661 -0.51678365 -0.3127164
-0.7438343 -0.19003712 -0.636751 -0.68898946 -0.7252863 -0.7468578 -0.89913666 -0.52219856
-0.9280376 -0.7123591 -0.5478128 -0.35024154 -0.62290066 -0.63467354 -0.53340805 -0.8090086
-0.59634036 -0.72219896 -0.6796418 -0.65973777 -0.6629894 -0.72363985 -0.61761034 -0.88259333

dense1.batch_norm1.running_mean f4 [96]
00000000: badb 2fc0 6b17 1dc0 fe8a 13c0 f1b2 3bc0
00000010: d2e3 22c0 1e49 4dc0 1a8a c6bf ab12 7bc0
00000020: 1c1c 13c0 4e68 c8bf 4199 1bc0 2d16 18c0
00000030: ddf5 3cc0 2712 eebf f00e 3ac0 d590 cfbf
00000040: 2d1d 1ac0 5a3b 82c0 8481 43c0 45a4 23c0
00000050: 0dae 43c0 4443 e3bf 069e 42c0 f8b4 d5bf
00000060: 86b0 23c0 f366 debf 2c81 4dc0 d162 0ec0
00000070: d655 3ac0 f49f 91c0 7766 adbf 7265 b0bf
00000080: 9650 86bf 34b9 07c0 2aa9 2ec0 06bf 40c0
00000090: b272 1bc0 fc9b 8ac0 c912 8ec0 4782 0cc0
000000a0: 8116 33c0 cd32 4cc0 005e 49c0 84c2 29c0
000000b0: b679 07c0 ba82 c3bf 49dd 0bc0 d2e9 43c0
000000c0: ed82 a7bf c322 04c0 7b5d 41c0 dff3 21c0
000000d0: fdb4 0ac0 ba9f 33c0 adc2 1ac0 185a c6bf
000000e0: 83c2 27c0 9131 e7bf 6f8a 29c0 3bca 843c
000000f0: 4cab 11c0 37d9 fdbf 578c dbbf c999 11c0
00000100: 0111 1ac0 6388 febf bcb9 25c0 a414 09c0
00000110: 9621 0ac0 e5db 3dc0 a551 06c0 f9d4 7cbf
00000120: 4627 3ec0 fc56 c1bf 4d8c b6bf a24f 36c0
00000130: fb39 27c0 5e96 febf 71ee 28c0 b7ce 19c0
00000140: 8295 61c0 7fb8 24c0 244e aabf ab59 91c0
00000150: 5ce5 3cc0 0863 62c0 4e26 1cc0 6572 23c0
00000160: 9c99 21c0 2316 c4bf dbd3 65c0 08cb 3dc0
00000170: efc3 3fc0 13ba e4bf d5ef 32c0 4b1f 5ac0
-2.747786 -2.4545543 -2.3053584 -2.9327967 -2.545155 -3.2075877 -1.5510895 -3.9230144
-2.2985907 -1.5656831 -2.4312289 -2.3763535 -2.9525063 -1.859929 -2.9071617 -1.6216074
-2.4080307 -4.069745 -3.05478 -2.5569012 -3.0574982 -1.7754903 -3.040895 -1.6695852
-2.5576491 -1.7375168 -3.211009 -2.2247813 -2.911489 -4.5507755 -1.3546895 -1.3780959
-1.0493343 -2.120679 -2.729075 -3.0116591 -2.4288754 -4.331541 -4.439793 -2.1954515
-2.7982485 -3.1906006 -3.1463623 -2.6524973 -2.1168036 -1.527427 -2.1853812 -3.0611463
-1.308683 -2.0646217 -3.0213306 -2.5305097 -2.1672966 -2.806624 -2.418132 -1.5496244
-2.621247 -1.8062001 -2.6490743 0.016209712 -2.2760801 -1.9831914 -1.7152203 -2.2750113
-2.4072878 -1.9885372 -2.5894613 -2.1418848 -2.1583 -2.9665463 -2.0987332 -0.9876247
-2.971147 -1.510467 -1.4261566 -2.8486104 -2.6129138 -1.9889638 -2.6395533 -2.4032419
-3.5247502 -2.5737607 -1.3305097 -4.542196 -2.951499 -3.5372944 -2.439838 -2.553857
-2.5250006 -1.5319256 -3.5910556 -2.965517 -2.9963338 -1.7869285 -2.7958882 -3.40816

dense1.batch_norm1.running_var f4 [96]
00000000: a97f 5c40 c27b 2240 3001 8f40 091d 7140
00000010: c5ec 6440 21d7 a540 5fda 6040 6a0d 8740
00000020: 4a0d 7140 350f 3b40 69e5 6940 d392 ab40
00000030: 1673 6440 e17e a640 2dd4 9740 0adb 2840
00000040: 5b76 5140 8ded 8e40 1a48 9840 88f8 6140
00000050: e124 6040 1979 6740 f316 7e40 02b7 4540
00000060: 313f 7440 91ad 7e40 fd6c 5440 2c77 5740
00000070: 0a74 b140 0644 1241 b010 7140 120f 4440
00000080: a976 f03f a4bb 6440 e311 9340 717c 7940
00000090: d688 7b40 2ddf 9840 531d 8e40 6a33 a340
000000a0: 629f 9f40 140c 4c40 d263 8140 1ce7 9040
000000b0: df59 9040 2ddb 8040 5fa2 5640 7807 8840
000000c0: d34f 2540 a929 5f40 55d7 7f40 400d 8d40
000000d0: ab25 7e40 54ed cf40 fd78 8240 86bc 7c40
000000e0: 7391 5540 c368 7040 d9fa 5b40 0cce 2340
000000f0: 8f3c 8140 62a5 7540 1663 2b40 6a47 4240
00000100: 4f2b 4640 692d 4f40 2a64 9d40 02a7 5240
00000110: 03e6 5040 9bc1 5d40 374f 3740 28bd 1340
00000120: 8694 5940 7efc 2e40 6939 0a40 dacb 7140
00000130: fb9b 8940 a85b 4840 7d8b 7a40 2a07 9840
00000140: 6397 7340 6676 6940 0941 8b40 8593 fa40
00000150: 772a 7e40 adad 8c40 c63e 8c40 d581 8e40
00000160: c07e 6440 8dc4 5340 44bd 9140 ab97 7740
00000170: ce8e 5240 2401 5d40 8552 4540 0971 8e40
3.4452918 2.5388036 4.468895 3.7673972 3.5769513 5.182511 3.5133283 4.2203875
3.766436 2.9228032 3.654627 5.361673 3.5695243 5.202988 4.7446504 2.638369
3.2728488 4.466498 4.7588015 3.5307941 3.502251 3.6167662 3.9701507 3.089295
3.816357 3.9793437 3.319152 3.3666487 5.545415 9.141607 3.7666435 3.0634198
1.8786212 3.5739527 4.5959334 3.8982203 3.9302268 4.777243 4.4410796 5.100026
4.988206 3.1882372 4.043435 4.5282116 4.5109706 4.026755 3.3536603 4.2509117
2.582997 3.4869177 3.9975178 4.4078674 3.971049 6.4977207 4.077269 3.9490066
3.3370025 3.7563941 3.4371855 2.559451 4.0386424 3.8382192 2.6779227 3.0356088
3.0963933 3.2371466 4.918477 3.2914433 3.2640388 3.4649417 2.86421 2.3084202
3.3996902 2.734161 2.159754 3.778067 4.3002906 3.1305943 3.9147637 4.7508745
3.806115 3.6478515 4.351689 7.8305078 3.9713418 4.3962007 4.382663 4.4533486
3.5702362 3.3088715 4.5543537 3.868632 3.289966 3.4531946 3.0831616 4.451298

dense2.dense.weight f4 [15, 96]
00000000: 80b0 a6be 9dfc 02bf 38ce 123e 5c12 8b3d
00000010: 37a3 833d 8b52 3abe b1d5 69bd fc5c e9bd
00000020: e27d 2c3d 483c 55bd d33c 3cbd 9b2a 01bf
00000030: 079a c6be f4fe b1be fab7 e7be 9313 333e
00000040: 1910 333e 1775 0abe e071 163d caeb 79be
00000050: 2827 10bf 98f9 813d cae6 c03d 2411 693e
00000060: c16f ca3d 5fd4 9bbd c306 6cbe 6fdd 09bd
00000070: d1c6 8f3e 884d 96be d1e6 133e b10d 04bd
00000080: 3f33 f5bd 0f70 bebe 78b7 b8be a5e2 3bbd
00000090: 2bef d03d 2767 c53d ba86 45be ff2d 613e
000000a0: b22a 3fbe 84ff 94be bc95 a5be 5eb6 9d3e
000000b0: 0050 763e a771 0a3e 89cb 43be 1c64 afbe
000000c0: 7d21 11be 8a2d a1be 2f68 78bd 5fe0 5ebe
000000d0: 3cc7 803e a9d9 413e 2d38 04bf 935b e7be
000000e0: bab0 d6be 1ce4 3bbe 9065 fdbe c3be 043c
000000f0: 2ebb 993d 6eb9 98be 6ccc 15bf 1110 6ebe
00000100: 6040 f5bd 868b 28be 1128 0dbf 3d22 1dbf
00000110: 32a1 13be f218 d63d e103 6b3e 9e7c 08be
00000120: 29dd 723e 8528 cabd ae18 debd 0a5e 9dbe
00000130: 523c ecbe e2e5 c1be 026b 8dbe 2640 2f3e
00000140: a2f4 6e3b f5a5 9dbe 6110 293e 1581 893d
00000150: cf50 7a3e c804 52be e753 2cbe 3fea 793e
00000160: 002e c7be 57ee 01be 3aec 9abe d0f1 ecbd
00000170: 21d6 a7bd 2665 aabe 02a2 9dbe 67a4 c23e
00000180: 8f86 793e 4a95 89bd 32bc c2be d2e5 e0bd
00000190: 4583 4dbe 8a0b b6be a646 c7bd 06da 213e
000001a0: cb36 373e fc04 bbbd 437b df3d 6377 493e
000001b0: 2152 90bd 3c29 323e f424 8dbe 50f6 62be
000001c0: 837d 723e 0028 8d3e 944c 01bb 4993 0bbd
000001d0: a9bc 61bc e579 4ebe ad2c 44be 4207 92be
000001e0: 60b8 9bbe dc29 123e 70fa e0be 229b 443e
000001f0: b639 25be 0331 9ebe df3b 243e 9ae8 86bd
00000200: e9a3 f3bb 1100 fabe ea69 513e a60e cc3d
00000210: 833e 6ebd 2c6f 9cbd 6cd1 61bb 9146 c8be
00000220: 9371 613e 9f41 6fbe 802a 4a3e 606f a5be
00000230: 3799 63be ffe5 aabe 1e1b e8be e137 aabe
00000240: e990 20be 8afe 72bd d22a 933e d13d 40be
00000250: ea65 20be 1bca 383e f08d 233e 0119 1bbe
00000260: dcc4 343c a5d0 4c3a 7145 96be 2302 babb
00000270: b81c 8c3d 965d ff3d 5a4f 873d 8070 94bb
00000280: d63d 7dbf d201 433e 9927 a4be fedc d4be
00000290: 199a 39be 18c1 96be 6ace cd3d 507d 3dbe
000002a0: ef0b cfbe 1b8f 7ebd 66b0 42be f782 48be
000002b0: b2d4 323e 4e50 74be 5e73 6cbe 6975 a3be
000002c0: af1a 19be 57cc ccbe 151c 043e 4286 31bf
000002d0: 2827 a5bd 01f1 0ebe 4ea9 1f3e 28c3 843e
000002e0: ea95 2cbd 6900 f4be f052 2d3e f916 54be
000002f0: 2b07 3a3d 08b5 6a3e 62dc 373e 450f d3bd
00000300: 85f3 a6be 2e70 9abd 7484 03bf edd9 8b3e
00000310: 6235 95be c882 933d b8d8 6abe c3ac d5be
00000320: e31f da3d 72cb 0fbe 4a7c 34be 53df 6abe
00000330: 57e0 3bbe eeac 00be 19bd 6b3e a463 37bd
00000340: 780e 06bf ff45 55bd bcee b8be 2a5e 4c3e
00000350: dd88 b33e f6e7 66be 5cd7 c0ba 5cb2 2d3e
00000360: fdb8 babe fd79 aebd 99cd bebe e267 203e
00000370: 7137 dbbc 6c46 5dbe 745c b5bd 57ab 8ebc
00000380: b491 bdbc f278 04bf 6f89 febd d6fb b9bd
00000390: 36ba d5be cc6e 5fbe 02fc 8a3d 2174 243e
000003a0: 5101 b8be d027 f5be bb94 b5bc 6bc4 a6be
000003b0: baea b8be 6a9b d5be 3fd8 debd e7b3 65be
000003c0: e931 473e 1e4c 43be 8ee1 373e 6390 12be
000003d0: 1b29 1fbe 52bd 3c3e 09a3 4e3e af6b e5be
000003e0: 6517 a93e e41e 99be ec9c 20be e8a2 e9bc
000003f0: 5c4f 383e 81c2 533e bd6f a93d 2a6e a53e
-0.32556534 -0.5116671 0.14336479 0.06790611 0.06427615 -0.1819555 -0.057088558 -0.113946885
0.04211224 -0.05205944 -0.045956444 -0.50455636 -0.3878939 -0.34764826 -0.4525755 0.17487936
0.1748661 -0.13521229 0.036729693 -0.24406353 -0.5630975 0.06346434 0.094190195 0.22760445
0.098845966 -0.07608866 -0.23049454 -0.03365844 0.28081372 -0.29356027 0.14443518 -0.03223962
-0.11972665 -0.3719487 -0.36077476 -0.045870442 0.10201868 0.096388154 -0.19289675 0.21990202
-0.1866863 -0.29101193 -0.323408 0.30803198 0.24053955 0.13519917 -0.19120611 -0.34256065
-0.14172931 -0.31480056 -0.060646232 -0.21765278 0.25152004 0.18930687 -0.5164822 -0.45187053
-0.41931707 -0.18348736 -0.4949155 0.008102122 0.07506405 -0.29828972 -0.5851505 -0.23248316
-0.11975169 -0.16459474 -0.5513926 -0.6138037 -0.1441696 0.10453977 0.22950698 -0.13328788
0.23717178 -0.0987101 -0.10844551 -0.3073581 -0.4613977 -0.378707 -0.27620703 0.17114314
0.003646173 -0.30790678 0.16510154 0.067140736 0.24444889 -0.20509636 -0.16828881 0.24405764
-0.38902283 -0.12688576 -0.30258352 -0.115695596 -0.08195139 -0.33280295 -0.30787665 0.38016054
0.24367736 -0.06717928 -0.38034207 -0.10981335 -0.20069607 -0.3555568 -0.09730272 0.15805826
0.17891996 -0.0913181 0.10912182 0.19674449 -0.07046915 0.17398542 -0.27567255 -0.22164273
0.23680691 0.2756958 -0.0019729482 -0.03407601 -0.01377789 -0.20163687 -0.19157667 -0.28521162
-0.30414104 0.1427378 -0.4394107 0.19199803 -0.16135296 -0.30896768 0.16038464 -0.06587334
-0.007435311 -0.48828176 0.2045056 0.099637315 -0.058165085 -0.07638392 -0.00344571 -0.39116338
0.22015981 -0.23364876 0.19742775 -0.32311535 -0.22226416 -0.33378598 -0.4533319 -0.33245757
-0.15680279 -0.05932478 0.28743607 -0.18773581 -0.15663877 0.18045847 0.15972114 -0.15146257
0.011033263 0.0007813073 -0.29349855 -0.0056765242 0.06841415 0.12469022 0.06606932 -0.0045300126
-0.9892248 0.19043663 -0.3206146 -0.41574854 -0.1812519 -0.29444194 0.10049136 -0.18504834
-0.40438792 -0.062148195 -0.19012603 -0.19581209 0.1746395 -0.23858759 -0.23090884 -0.31925514
-0.14951585 -0.3999965 0.12901337 -0.69345486 -0.08064109 -0.13959123 0.15591928 0.25930142
-0.042135157 -0.47656563 0.1692617 -0.20711888 0.045416992 0.2292062 0.17955163 -0.10305647
-0.32607666 -0.07540928 -0.5137398 0.27314702 -0.2914229 0.07202679 -0.22934234 -0.4173337
0.10650613 -0.14042452 -0.17625538 -0.22936754 -0.18347298 -0.12565967 0.23021354 -0.04477276
-0.5236583 -0.052068707 -0.3611964 0.19957796 0.35065356 -0.22549424 -0.001471262 0.1696257
-0.3646926 -0.08519361 -0.37266234 0.15664628 -0.026759835 -0.21608895 -0.08855525 -0.017415686
-0.023140766 -0.5174705 -0.12428557 -0.09081237 -0.4174363 -0.2181961 0.06786348 0.16059925
-0.35938504 -0.47881937 -0.022165647 -0.3257173 -0.36116582 -0.41720134 -0.108810894 -0.22431909
0.19452633 -0.19072005 0.17957136 -0.14312892 -0.15543024 0.18431595 0.2017938 -0.4480872
0.3302566 -0.2990638 -0.15684861 -0.028520063 0.17999023 0.20679666 0.082732655 0.3231061

dense2.dense.bias f4 [15]
00000000: 50dc f43e 690f f73e 64ab ce3e da98 eb3f
00000010: 4e23 d03e aa49 b73e d58f 1940 a25c e33e
00000020: 8a12 f63e 6a9d de3e bc97 f03e b2b6 f43e
00000030: c4ff 043f 3caf c7bc 1e9a 26c1
0.47824335 0.48253945 0.40365136 1.8406022 0.40651935 0.3579839 2.3994038 0.4440661
0.4806102 0.43479472 0.46990764 0.47795635 0.5195277 -0.02437555 -10.412626

dense2.batch_norm1.weight f4 [15]
00000000: 7fee 9340 215c a140 d024 6f40 0a75 b940
00000010: a69e 7540 beae 6b40 41fb c940 d8fa 8140
00000020: 1675 9340 cdd0 8240 76c1 8c40 75a1 9940
00000030: 4ce4 8c40 b146 d33e 6f65 6641
4.6228633 5.042496 3.7366219 5.795537 3.8378081 3.6825404 6.3119206 4.0618706
4.6080427 4.0879884 4.398616 4.800959 4.4028683 0.4126487 14.399764

dense2.batch_norm1.bias f4 [15]
00000000: 97b2 41c0 8fc7 53c0 cc81 2bc0 8aed 34c0
00000010: 150b 16c0 7ac4 14c0 3acc 26c0 2837 34c0
00000020: 3b5e 2ec0 dc90 1dc0 59bb 26c0 8b43 35c0
00000030: addf 32c0 c1f5 29bf 2ec6 bb40
-3.0265253 -3.309055 -2.6797972 -2.8269982 -2.3444264 -2.324492 -2.606215 -2.8158665
-2.7245014 -2.4619665 -2.6051848 -2.8322475 -2.794902 -0.66390616 5.867942

dense2.batch_norm1.running_mean f4 [15]
00000000: 5fbe 6a3e 95f0 823e 9956 173e 720d cb3f
00000010: 262c 493e f96c cf3d 54b7 0a40 747c 303e
00000020: 3039 7f3e 20e3 5e3e fd45 8d3e 4ff7 7c3e
00000030: d834 893e 22d3 13be 504d 28c1
0.22924183 0.25574175 0.14779128 1.5863478 0.19645748 0.10128207 2.1674395 0.17234975
0.24924159 0.21766329 0.2759246 0.24703716 0.2679813 -0.1443601 -10.518875

dense2.batch_norm1.running_var f4 [15]
00000000: c848 963e c02f 873e f8a8 473e 41d7 cf3e
00000010: 5c74 3b3e 3a03 573e 8ae8 113f 9db8 7f3e
00000020: 50ac 553e c870 5e3e 1a91 5d3e d647 833e
00000030: 8f07 893e 2c85 8f3e ec5c 443f
0.29352403 0.26403618 0.1949805 0.40593913 0.18306106 0.20997325 0.5699545 0.24972768
0.20866513 0.2172271 0.21637383 0.25640744 0.2676358 0.2803129 0.7670429
