classification/model_rnafm/13_final/120Epoch/rna_type_checkpoint_fold_6.pt (torch, 252002 bytes, 24 tensors)

layer1.conv1.weight f4 [30, 30, 5]
0	0xbe25debe	-0.1619825
1	0x3e7245ce	0.23659441
2	0x3f9888c3	1.1916736
3	0x3e98fe75	0.29881635
4	0x3e7380a4	0.23779541
5	0xbe527c7d	-0.20555301
6	0xbf27e4c4	-0.65583444
7	0xbea42d51	-0.32065824
8	0xbf1c7712	-0.61119187
9	0x3e4f56e0	0.20247984
10	0xbbbdcca7	-0.0057922187
11	0xbcfa8305	-0.030580053
12	0xbf8bb72c	-1.0915275
13	0xbe8175ad	-0.25285092
14	0x3e2cf800	0.1689148
15	0xbe4cb32d	-0.19990225
16	0x3f1501f3	0.582061
17	0xbe6b7e2d	-0.22997351
18	0xbef22afd	-0.47298422
19	0xbefd49ab	-0.49470267
20	0x3d00cc54	0.031444862
21	0xbd867afe	-0.06566428
22	0xbd157fc2	-0.036498792
23	0xbe98f013	-0.29870662
24	0xbe1c1cae	-0.15245315
25	0xbe8f68a1	-0.28009513
26	0x3eee3be4	0.46530068
27	0xbeac156c	-0.33610094
28	0xbeb677d3	-0.35638294
29	0x3e2d2cc9	0.16911615
30	0x3ef04ab0	0.46931982
31	0x3dd1c833	0.10243263
32	0xbeae7060	-0.3407011
33	0x3eb7ad4e	0.35874408
34	0x3e37a361	0.17933418
35	0x3ee2f491	0.44327214
36	0x3e374624	0.1789785
37	0xbd8a8280	-0.06763172
38	0x3d9c84f2	0.07642545
39	0x3f04e07b	0.5190503
40	0xbc8b1d89	-0.016981857
41	0x3dd61752	0.10453667
42	0x3de65065	0.11245803
43	0x3cc3bccc	0.023893736
44	0x3e7d370e	0.24728033
45	0xbdebcfc7	-0.1151424
46	0x3ba16557	0.0049254107
47	0xbdeed7dd	-0.116622664
48	0x3de60a03	0.11232378
49	0xbe413ce9	-0.18870892
50	0x3e970308	0.294945
51	0x3c327dfa	0.010894293
52	0xbd9ef6c9	-0.07761914
53	0x3d989cf5	0.07451812
54	0x3d296139	0.041352484
55	0xbdfa9dfa	-0.12237163
56	0xbd9d6f84	-0.076872855
57	0xbdc42d9a	-0.0957901
58	0xbdc56edf	-0.096402876
59	0xbdbc00a1	-0.091798075
60	0xbbf8a412	-0.007587918
61	0xbe8f4244	-0.27980244
62	0xbe508763	-0.20364146
63	0xbeabc33a	-0.33547384
64	0xbde96e8e	-0.1139804
65	0x3d42a6ae	0.04752224
66	0x3d91c5ae	0.071177825
67	0xbe78ee10	-0.24309564
68	0xbe4c195a	-0.19931546
69	0x3d9a88cf	0.075456254
70	0x3d978993	0.07399287
71	0x3eaa6edd	0.33287707
72	0xbde5b620	-0.11216378
73	0xbd5f1e87	-0.054472473
74	0x3e19b525	0.15010507
75	0xbd4e2055	-0.050323803
76	0x3dcbbdd6	0.09948318
77	0x3e171249	0.14753069
78	0x3d748aaf	0.05970257
79	0xbd9a44b9	-0.07532639
80	0xbd6ba0f4	-0.057526544
81	0xbee05141	-0.43811992
82	0x3e989e5c	0.2980832
83	0x3de58e51	0.11208785
84	0x3de5c575	0.112193026
85	0x3da703eb	0.08155044
86	0x3dc8c8f6	0.09803955
87	0x3e255d4f	0.16148876
88	0x3cbb5a60	0.022870243
89	0x3cca7868	0.024715617
90	0x3e83b2c5	0.25722328
91	0x3eb8ccdd	0.36093798
92	0x3c949f19	0.01814227
93	0xbe78b436	-0.24287495
94	0x3b68e780	0.0035538375
95	0xbabb3e40	-0.001428552
96	0x3e4f1aaf	0.20225023
97	0x3e03310b	0.12811677
98	0xbe0638a7	-0.13107549
99	0x3d9f3618	0.077739894
100	0x3dbb425c	0.091435164
101	0x3ebedacc	0.37276304
102	0x3e50c03c	0.20385832
103	0x3dbe2d63	0.092860006
104	0x3d1b33d2	0.037891217
105	0xbdf6e294	-0.12054935
106	0x3eb3ec15	0.35141054
107	0x3d26c0eb	0.040711325
108	0x3e384a8c	0.17997187
109	0xbd955aa2	-0.072926775
110	0xbe9a6a11	-0.30159047
111	0x3ea696c7	0.3253691
112	0xbd1c6a6a	-0.03818742
113	0x3df201b3	0.1181673
114	0x3d2f02b2	0.04272718
115	0x3c8f3cff	0.01748514
116	0x3e1d12d9	0.15339221
117	0xbe8a3481	-0.26993182
118	0xbe70a83d	-0.23501678
119	0x3e3b9571	0.18318726
120	0x3c34999f	0.011022954
121	0x3d0e2714	0.034705237
122	0xbe1a80a3	-0.15088134
123	0xbd74424e	-0.059633546
124	0x3e640f90	0.22271562
125	0x3e459388	0.1929456
126	0x3e3b85aa	0.18312708
127	0xbd3c2483	-0.045933258
128	0x3e532d58	0.20622766
129	0x3dce43f4	0.10071555
130	0x3dc9b61e	0.09849189
131	0x3ea49029	0.32141235
132	0xbe837b5e	-0.2568006
133	0xbd284a91	-0.041086737
134	0x3d65fa5d	0.05614697
135	0x3d08f42d	0.03343599
136	0x3e2ce64e	0.1688473
137	0xbdb8664b	-0.09003886
138	0xbe152f31	-0.14568783
139	0x3e9dc904	0.30817425
140	0x3e264bb0	0.1623981
141	0xbe2a2504	-0.16615683
142	0xbcd097c4	-0.025462992
143	0xbe18456c	-0.14870232
144	0x3e2f8354	0.17139941
145	0x3e8d3e7b	0.2758673
146	0xbea14d6a	-0.31504375
147	0xbc88822f	-0.016663639
148	0xbe763613	-0.24044065
149	0x3e5fcfa1	0.21856548
150	0x3eb28c67	0.34872743
151	0xbc3e8377	-0.011628023
152	0xbe86103a	-0.26184255
153	0xbf3da429	-0.74078614
154	0xbe6d0554	-0.23146564
155	0xbf5df537	-0.86702293
156	0x3e277f99	0.16357268
157	0x3f9899f9	1.1921989
158	0x3e0f2a35	0.13980944
159	0xbe45d07a	-0.19317809
160	0xbda189c5	-0.078876056
161	0x3de4b1c4	0.111667186
162	0xbda50fa2	-0.08059622
163	0xbe30c123	-0.17261176
164	0x3e84eaf1	0.25960496
165	0x3e2eb498	0.17061079
166	0xbeccdc35	-0.40011755
167	0xbe0a5cfb	-0.13512032
168	0xbdd64a4f	-0.10463392
169	0x3dd680a6	0.104737565
170	0xbf1bfca1	-0.60932356
171	0x3e9933a9	0.29922226
172	0x3ebc4657	0.36772415
173	0xbe7cd1cb	-0.24689405
174	0x3f020d53	0.5080158
175	0xbe815ccb	-0.25266108
176	0xbe92faf6	-0.28707093
177	0x3dc477b4	0.09593144
178	0x3e72c509	0.23707975
179	0x3e855ca4	0.26047242
180	0xbec2385e	-0.3793363
181	0x3ddc888f	0.10768234
182	0x3e1d0cd0	0.15336919
183	0x3f1399bb	0.5765645
184	0xbe0e7547	-0.13911925
185	0x3d1b34d9	0.037892196
186	0x3ba286ef	0.004959933
187	0xbd9b6611	-0.07587827
188	0x3e969cd2	0.2941652
189	0x3e477d60	0.1948142
190	0xbeb13812	-0.3461309
191	0x3e856daf	0.26060244
192	0xbdcc9836	-0.099899694
193	0xbed4520f	-0.41468856
194	0x3e348992	0.17630604
195	0xbc86fa69	-0.016476827
196	0x3e83c8e6	0.2573921
197	0xbd830b90	-0.0639869
198	0x3d54bcbd	0.051937807
199	0xbe1b29ee	-0.15152714
200	0x3e8f7ff5	0.2802731
201	0xbd94d7c6	-0.07267718
202	0x3ea17a41	0.31538585
203	0x3d1b23a2	0.03787578
204	0xbe231f85	-0.15929992
205	0x3cf34405	0.02969552
206	0x3e635cd7	0.22203384
207	0x3f00e908	0.5035558
208	0xbe6f157d	-0.23348041
209	0xbb317fcf	-0.0027084236
210	0x3e6d12bf	0.23151682
211	0x3d4937a2	0.04912532
212	0xbe10bef2	-0.1413534
213	0xbd44fd60	-0.0480932
214	0xbe11b352	-0.14228562
215	0x3c1731d8	0.009228192
216	0x3e6e5e2d	0.23278113
217	0xbe11107b	-0.14166443
218	0x3d43046d	0.047611643
219	0xbe0abf30	-0.13549495
220	0xbc95bd26	-0.01827867
221	0x3e30c311	0.17261912
222	0xbe98f7f9	-0.29876688
223	0x3e78e6fd	0.24306865
224	0x3e4147d9	0.18875064
225	0x3ddabb18	0.106802166
226	0xbca5ec5f	-0.020254312
227	0xbe0f195f	-0.13974522
228	0x3e61e1fc	0.22058862
229	0xbdae923f	-0.08523988
230	0x3d981464	0.07425764
231	0xbe64a7ee	-0.22329685
232	0x3e0e912e	0.13922569
233	0x3dcdac7d	0.10042665
234	0x3d6cf186	0.057847522
235	0xbe1108bc	-0.14163488
236	0xbefb9821	-0.49139503
237	0x3dadc939	0.08485646
238	0xbcdb1630	-0.026743978
239	0x3e26bacc	0.16282195
240	0xbe8f504c	-0.2799095
241	0xbd174f81	-0.036941055
242	0x3d56ee23	0.0524732
243	0xbd6e9cfe	-0.05825519
244	0x3da16335	0.0788025
245	0xbe6fd861	-0.23422386
246	0x3d049cce	0.032376103
247	0x3e12001d	0.14257856
248	0x3e1c25a8	0.1524874
249	0xbe911509	-0.2833636
250	0xbebe0def	-0.37120005
251	0x3cad711f	0.021172104
252	0x3d09d343	0.03364874
253	0xbe230820	-0.15921068
254	0xbe61f9f4	-0.22068006
255	0xbf218427	-0.63092273

layer1.conv1.bias f4 [30]
0	0x3d8d4c0e	0.06899272
1	0x3d4381f9	0.047731373
2	0xbe0625fd	-0.13100429
3	0x3e15eac7	0.14640342
4	0xbd6e1be6	-0.058132075
5	0xbd8fca51	-0.07021011
6	0x3d348745	0.044074316
7	0xbaa3fe73	-0.0012511745
8	0x3c838415	0.016054193
9	0xbda05002	-0.0782776
10	0x3d8061e5	0.06268672
11	0xbdd6e16c	-0.104922146
12	0x3d145684	0.03621532
13	0xbcaca0b9	-0.021072732
14	0x3d12420a	0.03570751
15	0x3d940649	0.07227761
16	0xbcb07cff	-0.021543978
17	0xbba049b7	-0.0048916
18	0x3c38cdc9	0.011279532
19	0xbdbb88ad	-0.09156928
20	0xbd8c8aa0	-0.06862378
21	0xbb955edf	-0.0045584287
22	0x3c2e628f	0.010643615
23	0xbd827261	-0.06369472
24	0x3eac66c8	0.33672166
25	0x3d3b087f	0.0456624
26	0xbe0f6ad5	-0.14005597
27	0xbcb4f37d	-0.02208876
28	0x3d880f16	0.066435024
29	0xbd409938	-0.04702112

layer1.bn1.weight f4 [30]
0	0x3f4e4cd4	0.8058598
1	0x3f8a5194	1.0806146
2	0x3f80e4cc	1.0069823
3	0x3f58ea82	0.8473283
4	0x3f0d9a0f	0.553132
5	0x3f07ff5b	0.53124017
6	0x3f2accee	0.6671895
7	0x3f424a08	0.7589421
8	0x3f3bcc35	0.7335847
9	0x3f87b1ee	1.0601175
10	0x3f0f54c0	0.55988693
11	0x3f531464	0.8245299
12	0x3f33e428	0.70270014
13	0x3f3b7ebf	0.73240274
14	0x3f8e7479	1.1129295
15	0x3f2a1a7b	0.66446656
16	0x3f030b79	0.5118938
17	0x3f1716ad	0.59018975
18	0x3f214755	0.6299947
19	0x3f61cd7a	0.8820416
20	0x3f13bc9d	0.57709676
21	0x3f826669	1.0187503
22	0x3f61a268	0.8813844
23	0x3f1e5e61	0.6186276
24	0x3fbb41ae	1.4629419
25	0x3f3b714f	0.7321977
26	0x3f44e4c5	0.76911575
27	0x3f76add8	0.96359015
28	0x3f579428	0.84210443
29	0x3ef3ea0f	0.4763951

layer1.bn1.bias f4 [30]
0	0xbdba8cbc	-0.09108874
1	0x3e283c59	0.16429271
2	0xbdeaaf86	-0.1145926
3	0xbe1e3928	-0.15451491
4	0xbcde0235	-0.027100662
5	0x3decd94e	0.11564885
6	0xbd55963b	-0.052145224
7	0x3dc42b70	0.095785975
8	0x3e55fbfc	0.20896906
9	0x3e140928	0.14456618
10	0x3dcd0944	0.10011533
11	0xbccab77a	-0.024745692
12	0x3d35e87f	0.04441118
13	0x3dd7c145	0.1053491
14	0xbcb113f8	-0.021615967
15	0x3d872bb8	0.066001356
16	0x3e1ee120	0.15515566
17	0x3c49e218	0.012321971
18	0x3c35d45e	0.011097996
19	0x3da86387	0.08222108
20	0x3c382a19	0.011240506
21	0x3dc35bd4	0.09538999
22	0x3e86b115	0.26306978
23	0x3e1a0138	0.15039527
24	0x3dafad08	0.08577925
25	0x3d50edf0	0.051008165
26	0x3d1c2a1b	0.038126092
27	0xbdf5d7ef	-0.12004077
28	0x3dbb44c5	0.09143976
29	0x3cb38107	0.021912111

layer1.bn1.running_mean f4 [30]
0	0x3d91dfc4	0.07122758
1	0x3d2ca57a	0.04215
2	0xbdefadce	-0.117030725
3	0x3e1e4e10	0.15459466
4	0xbd9271c1	-0.07150603
5	0xbda64b09	-0.081197806
6	0x3d25dca2	0.040493615
7	0xbb829e3c	-0.003986148
8	0x3b3e2584	0.002901406
9	0xbdc06ae0	-0.09395385
10	0x3d3f700f	0.046737727
11	0xbdcfee47	-0.1015287
12	0x3d0558a7	0.03255525
13	0xbcb3a4c1	-0.021929147
14	0x3cb6b8c4	0.0223049
15	0x3d633575	0.055470902
16	0xbce51cc4	-0.027967818
17	0xbc66889b	-0.014070655
18	0x3c18943c	0.009312686
19	0xbdca93d5	-0.09891478
20	0xbda5b022	-0.08090235
21	0xbc3e6a86	-0.011622077
22	0x3bdaf598	0.006682109
23	0xbd93005b	-0.07177802
24	0x3eaa79ac	0.33295953
25	0x3d041afb	0.032252293
26	0xbe1ac69a	-0.15114823
27	0xbd26ba32	-0.040704913
28	0x3d707be6	0.05871191
29	0xbd52f90b	-0.051507037

layer1.bn1.running_var f4 [30]
0	0x40ab5831	5.3545156
1	0x406e0695	3.7191517
2	0x40a4ad02	5.146119
3	0x4056e314	3.3576097
4	0x4106a8d2	8.416216
5	0x4081688b	4.0440116
6	0x3fd668a5	1.6750685
7	0x3fa55f15	1.2919642
8	0x407becd3	3.9363296
9	0x40889fd1	4.269509
10	0x408824f8	4.254513
11	0x408e362f	4.444114
12	0x408dab39	4.427151
13	0x4000ce81	2.012604
14	0x3ff3af80	1.9037933
15	0x408a6ff3	4.3261657
16	0x40056d2b	2.084788
17	0x403e9e58	2.9784145
18	0x3fa1caab	1.2639974
19	0x3fb7922d	1.4341484
20	0x401102a1	2.2657855
21	0x40945be4	4.636217
22	0x3f5f5675	0.872413
23	0x404459ed	3.0679886
24	0x3ed44c3b	0.4146441
25	0x406b7096	3.6787467
26	0x40069b3e	2.1032252
27	0x40e514e6	7.158801
28	0x40a13b52	5.0384912
29	0x3f6fa323	0.936083

conv1.weight f4 [30, 30, 5]
0	0xbe0ad3f7	-0.1355742
1	0xbd8858af	-0.0665754
2	0xbf1999de	-0.6000041
3	0xbf1261b8	-0.57180357
4	0x3c870cd1	0.016485604
5	0xbdffdef2	-0.12493695
6	0x3e5dc7dd	0.21658273
7	0x3f1024b9	0.56306034
8	0xbe832819	-0.2561653
9	0xbee67ff9	-0.4501951
10	0xbd954993	-0.07289424
11	0xbe66ebd5	-0.225509
12	0xbe8d17e5	-0.27557293
13	0xbea05d11	-0.31321004
14	0xbdd3eb59	-0.103476234
15	0x3e5d460f	0.21608756
16	0x3e4d2457	0.20033394
17	0x3f08b007	0.53393596
18	0xbe2d626a	-0.16932073
19	0x3d371024	0.044693127
20	0xbe86e198	-0.2634399
21	0xbe5fad29	-0.21843399
22	0x3e999f73	0.30004463
23	0x3de281a1	0.11059881
24	0x3d0bd0ba	0.034134604
25	0xbc5ec87d	-0.013597605
26	0xbc8a9448	-0.01691641
27	0x3e052a28	0.13004363
28	0x3e4d3fed	0.20043917
29	0x3d9e8fef	0.07742297
30	0xbde01e94	-0.10943332
31	0xbeba8cf8	-0.36435676
32	0xbd70718f	-0.058702048
33	0xbe8de80a	-0.27716094
34	0x3e7ca8cd	0.24673767
35	0x3e0efe9a	0.1396431
36	0x3f0e8997	0.55678695
37	0x3dd2815c	0.102785796
38	0x3db2c2f8	0.087285936
39	0x3c6df601	0.014523984
40	0xbee28bb4	-0.4424721
41	0x3e2286bc	0.1587171
42	0x3c6da4ed	0.014504653
43	0x3d1f3594	0.038869455
44	0xbe0f1ae4	-0.13975102
45	0xbe541e1a	-0.20714608
46	0xbe85ad75	-0.261089
47	0xbed03924	-0.40668595
48	0xbeb6f832	-0.35736233
49	0xbd6dbe28	-0.058042675
50	0xbe698f2b	-0.2280852
51	0xbe4b3e9a	-0.198481
52	0xbdecf179	-0.11569495
53	0x3da0e112	0.07855429
54	0xbc9c189b	-0.019054702
55	0x3d9e67c0	0.077346325
56	0xbcea18be	-0.028576251
57	0xbeb2e987	-0.34943792
58	0xbe4c39e1	-0.19943954
59	0xbe0e10f6	-0.13873658
60	0x3e4ee19d	0.20203252
61	0x3e9e27b5	0.3088967
62	0x3dd3bc08	0.103385985
63	0xbe0e6956	-0.1390737
64	0xbd941fde	-0.07232641
65	0xbe09a465	-0.13441618
66	0x3e248ae7	0.16068612
67	0x3db7deab	0.089780174
68	0xbe944bb1	-0.28963998
69	0xbea96be2	-0.3309012
70	0x3dd5e268	0.10443574
71	0x3eb2f4ba	0.34952337
72	0x3e026b2d	0.12736197
73	0x3eac72ef	0.33681437
74	0x3ec506b3	0.38481674
75	0x3e0aaa2d	0.1354148
76	0x3cb3134e	0.021859791
77	0x3e4956e6	0.19662055
78	0x3d96fd6a	0.07372554
79	0xbeb197c2	-0.34686095
80	0x3e893269	0.26796272
81	0x3d0bb98e	0.034112506
82	0xbe212ab8	-0.15738952
83	0x3d5a106c	0.053238317
84	0xbdd31f7c	-0.103087395
85	0xbd55e46d	-0.052219797
86	0x3d80765f	0.062725775
87	0xbe8b468d	-0.27202263
88	0x3cdbefed	0.026847804
89	0xbe30dba1	-0.17271282
90	0x3e301097	0.17193829
91	0xbae0cd21	-0.0017150977
92	0x3e0df232	0.13861921
93	0x3e641edd	0.22277398
94	0xbeb9abfb	-0.36264023
95	0x3eb57471	0.354404
96	0xbdc55d92	-0.09636988
97	0xbe81e826	-0.25372428
98	0xbe77052b	-0.24123065
99	0xbea05aec	-0.31319368
100	0x3c1ea316	0.009682437
101	0x3e9bc1dd	0.30421343
102	0xbe0e1099	-0.13873519
103	0x3e63f084	0.22259718
104	0xbdb559fa	-0.08855052
105	0xbde4acab	-0.11165746
106	0xbe8d3eca	-0.27586967
107	0xbe04aa8e	-0.12955686
108	0xbeb1075c	-0.34575927
109	0xbe87faa9	-0.26558426
110	0x3d7946c0	0.060858488
111	0x3dc454f1	0.09586514
112	0xbee331bd	-0.44373885
113	0x3e26d24d	0.16291161
114	0xbe9625b0	-0.29325628
115	0x3d072534	0.032994464
116	0xbd80dd2d	-0.06292186
117	0xbe2a9c81	-0.16661264
118	0xbe7ecd9e	-0.24883124
119	0xbe51bf56	-0.20483145
120	0xbeb2fed4	-0.34960043
121	0xbecbea87	-0.39827368
122	0x3e6452f1	0.22297265
123	0x3e2358df	0.1595187
124	0x3ec8e196	0.39234608
125	0x3e1cf218	0.15326726
126	0x3c87a0e5	0.016556213
127	0x3e630813	0.22171049
128	0x3dee69e9	0.116412945
129	0x3ecb51f9	0.39710978
130	0x3e8da2bd	0.27663222
131	0xbd0130fd	-0.03154086
132	0xbd9731dc	-0.07382557
133	0x3e05424c	0.13013572
134	0x3e91c59c	0.28471076
135	0x3e5b59c2	0.21420959
136	0xbb78c210	-0.0037957467
137	0x3ebf7e00	0.37400818
138	0x3eb10324	0.3457271
139	0xbd5081c3	-0.050905
140	0xbec56b84	-0.3855859
141	0xbe5fe3c8	-0.21864235
142	0x3e4532bf	0.1925764
143	0xbe199877	-0.14999567
144	0x3dd7c317	0.10535257
145	0x3d84de02	0.06487657
146	0x3d0e58f4	0.0347528
147	0x3d779418	0.060443968
148	0xbdb59aa5	-0.08867387
149	0xba70fc64	-0.00091928826
150	0xbdf39df6	-0.11895363
151	0xbdd7c47b	-0.105355226
152	0xbf1726ed	-0.5904377
153	0xbf1644a2	-0.58698475
154	0x3c6cee62	0.014461132
155	0xbde1d741	-0.110273845
156	0x3e5b43ce	0.21412584
157	0x3f1826e8	0.59434366
158	0xbe8eeb0b	-0.279137
159	0xbef1cec5	-0.47228065
160	0xbdb079a6	-0.086169526
161	0xbe86e70c	-0.2634815
162	0xbe8d8128	-0.276376
163	0xbea111e9	-0.31458977
164	0xbd8bce3b	-0.06826445
165	0x3e679b42	0.2261782
166	0x3e55ae8f	0.2086737
167	0x3f10ddaf	0.5658826
168	0xbe1934ab	-0.14961497
169	0x3d751c75	0.059841592
170	0xbe53465b	-0.20632307
171	0xbe47c332	-0.19508055
172	0x3e94c023	0.2905284
173	0x3dbdc08c	0.09265241
174	0x3d74a3ad	0.059726406
175	0xbbb8f5f8	-0.005644556
176	0xbc3749cd	-0.011187029
177	0x3e0cc64a	0.13747516
178	0x3e41eb19	0.18937339
179	0x3d552666	0.052038573
180	0xbdab827d	-0.08374498
181	0xbed71543	-0.4200841
182	0xbdb9c31d	-0.09070418
183	0xbe7eed70	-0.24895263
184	0x3e8769b1	0.26447824
185	0x3e000028	0.1250006
186	0x3f0d76ce	0.55259407
187	0x3da7af67	0.08187752
188	0x3dd97237	0.10617488
189	0x3d1e3609	0.03862575
190	0xbef068b6	-0.46954888
191	0x3e3567aa	0.17715326
192	0xbc252ecc	-0.010081958
193	0x3d74ecd5	0.059796173
194	0xbe0cd00f	-0.13751243
195	0xbe4a5a23	-0.19760947
196	0xbe6b3fa2	-0.22973493
197	0xbecf1c72	-0.4045139
198	0xbeb4c786	-0.35308474
199	0xbd6ac685	-0.05731823
200	0xbe87cda5	-0.26524082
201	0xbe71841f	-0.23585556
202	0xbd8128e2	-0.06306626
203	0x3def7fd8	0.11694306
204	0xbd0305ba	-0.031987883
205	0x3c66f6e2	0.014096947
206	0xbc134514	-0.0089886375
207	0xbeb0c6b7	-0.34526607
208	0xbe6d0e30	-0.23149943
209	0xbe070381	-0.1318493
210	0x3e4c92cd	0.19977875
211	0x3ea263c6	0.31716746
212	0x3dac56a8	0.08414966
213	0xbe05b06c	-0.13055581
214	0xbdbeac13	-0.09310164
215	0xbe2aca0c	-0.16678637
216	0x3e0c1d39	0.13683023
217	0x3da5e285	0.08099846
218	0xbe8db8a1	-0.27679923
219	0xbea45a29	-0.32100037
220	0x3d96eca1	0.07369352
221	0x3eb147c2	0.3462506
222	0x3df7395d	0.12071488
223	0x3eb8a352	0.36062104
224	0x3ed114c3	0.40836152
225	0x3db392ed	0.08768258
226	0x3bcf7d77	0.0063320952
227	0x3e79d499	0.24397506
228	0x3dc5411e	0.09631561
229	0xbebb9e21	-0.3664408
230	0x3e7c9cad	0.24669142
231	0x3d02dec6	0.031950735
232	0xbe201289	-0.1563207
233	0x3d0a6ac7	0.033793237
234	0xbdbe03ec	-0.09278092
235	0xbd89d286	-0.06729607
236	0x3d6246d1	0.055243317
237	0xbe70e902	-0.23526385
238	0x3cc5189a	0.024059583
239	0xbe55a44d	-0.20863457
240	0x3e1abc04	0.15110785
241	0x3d1e3afc	0.03863047
242	0x3e066f5b	0.13128416
243	0x3e2be07c	0.16784853
244	0xbec1ec30	-0.3787551
245	0x3ec03364	0.37539208
246	0xbd968578	-0.07349676
247	0xbe8774c3	-0.2645627
248	0xbe5f12fb	-0.21784584
249	0xbea4795f	-0.3212385
250	0x3cdfda01	0.027325632
251	0x3e774bf3	0.24150066
252	0xbe28d44b	-0.16487233
253	0x3e83312c	0.25623453
254	0xbdab9848	-0.08378655
255	0xbdc958e0	-0.09831405

conv1.bias f4 [30]
0	0x3c8cde49	0.017195838
1	0x3e052ef7	0.13006197
2	0xbdebb444	-0.11508992
3	0x3cecb47f	0.028894661
4	0x3d0a3244	0.033739343
5	0xbd81453b	-0.06312033
6	0x3d47554b	0.048665326
7	0x3da2a22b	0.07941087
8	0xbc1dad86	-0.009623891
9	0x3d0f17d7	0.034934845
10	0xbe2428b2	-0.16031149
11	0x3dbd8cac	0.09255347
12	0xbc5b2095	-0.013374467
13	0x3d9256a8	0.071454346
14	0x3d8a6a39	0.067585416
15	0xbcdfa724	-0.027301379
16	0x3ca42df2	0.02004144
17	0xb9b92f09	-0.00035320994
18	0xbce2789c	-0.027645402
19	0xbd5b53a2	-0.053546555
20	0x3d25ea2e	0.040506534
21	0xbce5dfea	-0.028060872
22	0x3db95118	0.090486705
23	0x3cdb5c16	0.026777308
24	0x3c90675e	0.017627414
25	0xbcde8b84	-0.027166136
26	0x3d0b33ab	0.03398482
27	0xbd99e923	-0.075151704
28	0xbd8dc93d	-0.06923149
29	0xbceaa440	-0.028642774

bn1.weight f4 [30]
0	0x3f9c5841	1.2214433
1	0x3f99970b	1.199922
2	0x3f998846	1.1994712
3	0x3f9511e4	1.1646085
4	0x3f902d5c	1.1263843
5	0x3f91f3e9	1.140256
6	0x3f8b1c20	1.0867958
7	0x3f8280a8	1.0195513
8	0x3f80dfbc	1.0068278
9	0x3f7ead95	0.99483615
10	0x3fc5a4ac	1.5440879
11	0x3f68c3f7	0.9092402
12	0x3f6deb02	0.9293672
13	0x3f626d78	0.88448286
14	0x3f60cd1d	0.8781298
15	0x3f6860d9	0.9077278
16	0x3f51089d	0.8165377
17	0x3f4bfc08	0.79681444
18	0x3f561d95	0.8363889
19	0x3f540acb	0.8282897
20	0x3f47ad57	0.7799887
21	0x3f32c9a1	0.6983891
22	0x3f2f329d	0.68436605
23	0x3f09d019	0.53833157
24	0x3f0fb969	0.5614229
25	0x3eddd4ea	0.43326503
26	0x3f0f1c29	0.55902344
27	0x3efe9181	0.49720386
28	0x3ed46800	0.41485596
29	0x3eb151ec	0.34632814

bn1.bias f4 [30]
0	0x3de034fd	0.10947607
1	0x3ddcbc6c	0.10778126
2	0x3dee6e94	0.11642185
3	0x3dfbb5cf	0.122905366
4	0x3dfeb413	0.1243669
5	0x3dfaa097	0.12237661
6	0x3e206395	0.15662988
7	0x3e1ec7dd	0.1550593
8	0x3e141620	0.14461565
9	0x3e1abcc2	0.15111068
10	0x3ea60b76	0.3243062
11	0x3e2ff49e	0.17183158
12	0x3e309cfb	0.17247383
13	0x3e24aa9a	0.16080704
14	0x3e28d4da	0.16487446
15	0x3e2808be	0.16409585
16	0x3e3ca280	0.18421364
17	0x3e472066	0.19445953
18	0x3e4a089c	0.19729847
19	0x3e5b9307	0.21442805
20	0x3e619e39	0.22033013
21	0x3e6cfe56	0.23143896
22	0x3e6e09c0	0.23245907
23	0x3e891af5	0.2677838
24	0x3e849d1a	0.2590111
25	0x3e9c62a8	0.3054402
26	0x3e8890a0	0.2667284
27	0x3e91d86a	0.28485423
28	0x3e9f9885	0.3117105
29	0x3eab416e	0.33448356

bn1.running_mean f4 [30]
0	0xbf4609d7	-0.77358764
1	0xbf2209a1	-0.6329594
2	0xbf657fba	-0.8964802
3	0xbf4155c9	-0.7552152
4	0xbf44b1a8	-0.7683358
5	0xbf65d96b	-0.8978488
6	0xbf543cc7	-0.8290524
7	0xbf3df781	-0.74205786
8	0xbf42ce16	-0.7609571
9	0xbf4a30a5	-0.78980476
10	0xbef397cb	-0.47576746
11	0xbf2e6199	-0.6811767
12	0xbf2db5a1	-0.6785527
13	0xbf41c369	-0.756888
14	0xbf3dbb53	-0.7411396
15	0xbf4f11e6	-0.80886686
16	0xbf67f61b	-0.906099
17	0xbf6b6250	-0.9194689
18	0xbf4a12f9	-0.789352
19	0xbf8455d4	-1.0338693
20	0xbf461952	-0.77382386
21	0xbf2d284d	-0.6763962
22	0xbf41bfa9	-0.75683075
23	0xbf14e973	-0.58168715
24	0xbf11db6c	-0.56975436
25	0xbe94c7e2	-0.29058748
26	0xbf1d56c8	-0.6146054
27	0xbeef684d	-0.46759263
28	0xbe1a2a5b	-0.1505522
29	0xbd047eba	-0.03234742

bn1.running_var f4 [30]
0	0x4080f476	4.0298414
1	0x40724fa9	3.786112
2	0x407a2327	3.9083955
3	0x407ed027	3.9814546
4	0x40706794	3.756322
5	0x4078232b	3.8771465
6	0x406aa51c	3.6663275
7	0x40625f2e	3.5370593
8	0x40637ab3	3.554364
9	0x406275d1	3.538441
10	0x3fc92dcf	1.5717105
11	0x407b5715	3.92719
12	0x4081a140	4.050934
13	0x4080f4ae	4.029868
14	0x40947d76	4.640315
15	0x40a09e2c	5.019308
16	0x40922d74	4.5680485
17	0x40b82a48	5.7551613
18	0x40a5db46	5.183017
19	0x40c8fd3d	6.280913
20	0x40be6a53	5.950479
21	0x40a285ff	5.078857
22	0x40a8996c	5.2687283
23	0x408a74e1	4.3267674
24	0x4095d669	4.682423
25	0x40278510	2.6174965
26	0x40e96018	7.29298
27	0x40bc1b0f	5.878303
28	0x405c7154	3.444417
29	0x4023c2bb	2.5587604

dense1.dense.weight f4 [96, 512]
0	0xbf234d69	-0.63789994
1	0xbf16b8e3	-0.58875865
2	0x3ed53e14	0.41648924
3	0xbe97d8cc	-0.2965759
4	0x3e77b2f6	0.24189362
5	0x3eb3a1b9	0.35084322
6	0xbf0fb462	-0.5613462
7	0xbe826f8a	-0.25475723
8	0xbf2b2d96	-0.66866434
9	0xbea8eb01	-0.32991794
10	0xbd11e32c	-0.03561704
11	0x3de2fc1a	0.11083241
12	0xbe0fe507	-0.14052211
13	0x3e3b3f0b	0.18285768
14	0x3e238220	0.15967607
15	0xbed55a27	-0.41670343
16	0x3e0e8f3b	0.13921826
17	0x3d3c93aa	0.04603926
18	0x3e0031eb	0.12519042
19	0x3e0545f4	0.13014966
20	0xbe2b17c2	-0.16708282
21	0xbce3ad50	-0.027792603
22	0x3d71f1a4	0.059068337
23	0xbdff5b0e	-0.12468539
24	0xbee5916a	-0.44837505
25	0x3e1ef03d	0.15521331
26	0x3e90e943	0.28302965
27	0x3de200a5	0.11035279
28	0xbdc34e47	-0.095364146
29	0xbd1a2745	-0.037635107
30	0x3c8ad838	0.016948804
31	0x3e5e6fa8	0.21722281
32	0xbd834269	-0.06409151
33	0xbc28e4d1	-0.01030846
34	0x3ceb44bc	0.028719299
35	0x3e25ea7e	0.16202733
36	0xbe9befa1	-0.3045626
37	0xbccbb378	-0.02486585
38	0x3e4fb81a	0.20285073
39	0x3f105f1a	0.56395113
40	0x3e94e2fa	0.2907942
41	0x3f1781db	0.5918252
42	0x3ebe20f2	0.3713451
43	0x3e13bd38	0.1442765
44	0xbcabb264	-0.020959087
45	0xbe1a5fab	-0.15075557
46	0x3ee04f6d	0.43810597
47	0x3e1e2ea9	0.15447487
48	0x3e0af224	0.13568932
49	0x3e2b2fd6	0.16717467
50	0xbcccfa4a	-0.02502169
51	0xbe867ad5	-0.26265588
52	0x3dd90786	0.10597138
53	0xbed31538	-0.41227126
54	0xbe0b25f5	-0.13588698
55	0x3dbe4f7d	0.09292505
56	0x3a606602	0.0008560122
57	0x3d824b64	0.06362036
58	0xbdec824d	-0.115482904
59	0x3cbedfc3	0.023300057
60	0x3c21defa	0.009879822
61	0x3e93befa	0.2885664
62	0x3d80573a	0.06266637
63	0xbf44ff99	-0.7695251
64	0xbf110c66	-0.56659544
65	0xbcd60fb0	-0.026130527
66	0x3e95b316	0.29238194
67	0x3e70c383	0.23512082
68	0x3d8e03a7	0.069342904
69	0xbe2aa7aa	-0.16665521
70	0x3e5982f9	0.21241368
71	0x3e98216c	0.29713
72	0x3e2a6e0a	0.16643539
73	0xbd7c2553	-0.061559033
74	0xbdb6913f	-0.08914422
75	0x3f0f2211	0.55911356
76	0x3cef0946	0.029179227
77	0x3ea52b4f	0.32259604
78	0xbeebc699	-0.46049955
79	0xbd32921d	-0.043596376
80	0x3db01695	0.08598057
81	0xbdda610f	-0.10663044
82	0xbe8a875c	-0.27056396
83	0xbec0eccc	-0.37680662
84	0x3e20127a	0.15632048
85	0xbe946148	-0.2898047
86	0x3eaa6a3b	0.33284172
87	0x3df2e003	0.11859133
88	0x3ea2c288	0.3178904
89	0x3ce32868	0.027729228
90	0x3cdb3355	0.026757875
91	0x3dac37d0	0.08409083
92	0xbca1f7cb	-0.019771477
93	0x3e66afe6	0.22528037
94	0xbeb3831b	-0.35060963
95	0x3ec60ed5	0.3868319
96	0x3dbaae37	0.0911526
97	0x3e9ce11d	0.30640498
98	0x3cce97bc	0.025218837
99	0xbe67433d	-0.22584243
100	0x3ebd7a88	0.37007546
101	0xbee96413	-0.45584163
102	0xbefba61b	-0.49150166
103	0x3e24f048	0.16107285
104	0xbdadecee	-0.084924564
105	0xbe7ab083	-0.24481396
106	0x3e19d702	0.15023425
107	0x3e86d037	0.2633073
108	0x3e357aab	0.17722575
109	0x3ddabf1b	0.10680982
110	0x3e12b704	0.14327627
111	0x3ed370e3	0.41297063
112	0xbdc85dd7	-0.097835235
113	0x3e236532	0.15956572
114	0x3d46a992	0.04850156
115	0x3d48bf35	0.049010474
116	0x3ec016b9	0.37517336
117	0xbddb3f25	-0.10705403
118	0xbe94e364	-0.29079735
119	0x3f081152	0.5315143
120	0xbeb22452	-0.34793335
121	0xbed46442	-0.4148274
122	0x3d03082b	0.03199021
123	0x3f2590ea	0.64674246
124	0x3e9daaba	0.30794317
125	0xbde20218	-0.110355556
126	0x3de04d91	0.109522946
127	0x3eacab25	0.33724323
128	0xbdb601c2	-0.08887054
129	0x3d480344	0.04883124
130	0x3db51c54	0.08843294
131	0x3e48b265	0.19599302
132	0x3d44a30a	0.04800705
133	0xbe20665c	-0.15664047
134	0x3dcb96a6	0.09940843
135	0x3ede197d	0.4337882
136	0x3e59e4a8	0.21278632
137	0xbe71ed46	-0.23625669
138	0x3edd594b	0.43232188
139	0x3e612b04	0.21989065
140	0x3ec3c103	0.38233194
141	0x3e5be7ed	0.21475191
142	0x3d7c51cf	0.061601456
143	0x3ebae9a0	0.36506367
144	0xbd1b8851	-0.0379718
145	0xbd7ec46e	-0.06219905
146	0xbf0bff8b	-0.546868
147	0xbe17e523	-0.14833502
148	0xbe8d89e8	-0.27644277
149	0x3eb25cd2	0.3483644
150	0xbe4e6d5c	-0.20158905
151	0x3de9a3ad	0.11408172
152	0x3de982d4	0.114019066
153	0xbd693a28	-0.056940228
154	0x3ded89b0	0.115985274
155	0xbd01350a	-0.031544723
156	0xbe8faf03	-0.2806321
157	0x3cb66b04	0.022267826
158	0x3e2158ec	0.15756577
159	0x3ca52574	0.02015946
160	0xbedcd1db	-0.43128857
161	0x3e5c47a6	0.21511707
162	0x3ec3f707	0.38274404
163	0x3d9b6ffb	0.07589718
164	0xbeec198a	-0.46113235
165	0xbd24b59a	-0.04021225
166	0xbd00d836	-0.031456195
167	0x3c94a379	0.018144356
168	0x3d2947f2	0.041328378
169	0x3e86ca03	0.26325998
170	0x3e96305b	0.29333767
171	0x3ec6ee1a	0.38853532
172	0x3dd1c2a2	0.102422014
173	0x3d5668bb	0.052345973
174	0x3dd2595e	0.10270952
175	0x3ef4cd0e	0.47812694
176	0x3d9dcc0a	0.07704933
177	0xbdb9067b	-0.09034439
178	0xbeaca9a2	-0.3372317
179	0xbbd84d7e	-0.0066010347
180	0xbefe82a3	-0.49709043
181	0x3ec0f4be	0.37686723
182	0x3ef9421a	0.48683244
183	0xbe7bf4dd	-0.24605127
184	0xbd57e961	-0.0527128
185	0x3e296366	0.16541824
186	0x3ec30e36	0.3809678
187	0x3e02a1d4	0.12757045
188	0xbe32bb61	-0.17454292
189	0x3d2478dc	0.040154323
190	0xbdca8927	-0.09889441
191	0xbe062ab8	-0.13102233
192	0x3ed0de0f	0.40794417
193	0xbda23582	-0.07920362
194	0xbed4e66d	-0.4158205
195	0xbe5ef784	-0.21774107
196	0xbe13541f	-0.14387558
197	0xbe31eded	-0.17375918
198	0xbd8b015d	-0.067873694
199	0xbe0cb009	-0.13739027
200	0x3e706254	0.23475009
201	0xbe816056	-0.2526881
202	0xbe4f85da	-0.20265904
203	0x3d8dc5c3	0.06922486
204	0x3e1b48a4	0.15164429
205	0x3dd22d04	0.10262492
206	0xbe7ef414	-0.24897796
207	0xbdbd8437	-0.092537336
208	0xbebcef3c	-0.3690127
209	0xbdaec324	-0.08533314
210	0xbef58534	-0.47953188
211	0xbbf08be4	-0.007340895
212	0xbe7c1ebc	-0.24621099
213	0xbeb8a091	-0.36060002
214	0xbdadbd31	-0.08483351
215	0x3e31f9ed	0.17380495
216	0x3dde4ca3	0.10854461
217	0x3e0a9400	0.1353302
218	0x3e9872ba	0.2977503
219	0x3df1b9f2	0.118030444
220	0x3c77764c	0.015103888
221	0xbe68aa60	-0.22721243
222	0xbe3d5d13	-0.18492536
223	0xbe20914d	-0.15680428
224	0x3eff6cef	0.49887797
225	0xbdcbcd19	-0.09951229
226	0x3e9e8eff	0.30968472
227	0x3dc868d5	0.0978562
228	0x3d56693f	0.052346464
229	0xbe7c7fca	-0.24658123
230	0x3c665236	0.014057687
231	0x3d0ffcb1	0.035153095
232	0x3e0835e7	0.13301812
233	0xbe94eb13	-0.29085597
234	0x3e8cac73	0.27475318
235	0xbc70c04b	-0.014694284
236	0xbe8a3550	-0.269938
237	0xbd9d64c8	-0.07685238
238	0x3df9bf03	0.12194636
239	0xbee60ef3	-0.4493328
240	0x3e39184a	0.18075672
241	0xbe5f2bef	-0.21794103
242	0x3e5a5a68	0.2132355
243	0x3d9b4d31	0.075830825
244	0xbe1fe750	-0.15615582
245	0xbe1bb404	-0.1520539
246	0x3e608ff0	0.21929908
247	0xb9834262	-0.00025035726
248	0x3e98848d	0.29788628
249	0xbe841f14	-0.2580496
250	0xbe1cc0c3	-0.15307908
251	0xbe17a756	-0.14809927
252	0xbec35f1f	-0.3815851
253	0xbd53edda	-0.051740505
254	0xbe6ea663	-0.23305659
255	0xbe32a6c6	-0.17446432

dense1.dense.bias f4 [96]
0	0x3e5cdaee	0.2156789
1	0x3e6ba01b	0.23010294
2	0x3e5e71eb	0.21723144
3	0x3e5b1132	0.21393278
4	0x3e28d69f	0.16488121
5	0x3e9e34d7	0.3089969
6	0x3ed0a274	0.40748942
7	0x3e81d308	0.25356317
8	0x3ddd0b80	0.10793209
9	0xbf078acf	-0.5294618
10	0x3e33e568	0.1756798
11	0x3e05d3cd	0.13069077
12	0x3eb6d7d5	0.35711542
13	0x3e47bdf9	0.19506063
14	0x3e63fce2	0.22264436
15	0x3dfe48f6	0.1241626
16	0x3e34b0be	0.17645547
17	0x3e26e48f	0.16298126
18	0x3e5644b9	0.20924653
19	0x3e0fbf8d	0.14037915
20	0x3e27c236	0.1638268
21	0x3e7f572c	0.24935597
22	0x3e5e453f	0.21706103
23	0x3e89948f	0.26871154
24	0x3e4ff696	0.20308909
25	0x3dfc690a	0.12324722
26	0x3e7b3ebf	0.24535654
27	0x3e82cb1e	0.2554559
28	0x3e6bc188	0.23023045
29	0x3c81550f	0.01578763
30	0x3e30fb57	0.17283379
31	0x3e2b51b5	0.16730388
32	0x3e3b99c0	0.1832037
33	0x3e36d88b	0.17856042
34	0x3e91edf1	0.28501847
35	0x3dde7561	0.10862232
36	0x3d4dc1f4	0.050233796
37	0x3de6bf78	0.112669885
38	0x3d453e74	0.048155263
39	0x3dc83163	0.09775045
40	0x3e527313	0.2055171
41	0x3e40fb48	0.18845856
42	0x3dd8f5e3	0.10593774
43	0x3e83109d	0.25598612
44	0x3e18f2a3	0.14936309
45	0x3e7106fc	0.2353782
46	0x3e858113	0.26075038
47	0x3df3d537	0.11905902
48	0x3e58b33a	0.2116212
49	0x3e62ca13	0.22147398
50	0x3e91be66	0.28465575
51	0x3e83b641	0.25724986
52	0x3e5ffe24	0.2187429
53	0x3dce46e4	0.10072115
54	0xbe8d0e49	-0.2754996
55	0x3eb97d2f	0.3622832
56	0x3dde2df6	0.1084861
57	0x3de34542	0.11097194
58	0x3e5bc057	0.2146009
59	0x3e42ef68	0.19036639
60	0x3e48e353	0.19617967
61	0x3d693d57	0.056943264
62	0x3e71c217	0.23609196
63	0x3e8d0808	0.2754519
64	0x3e5be593	0.21474294
65	0x3e005309	0.12531675
66	0x3e582968	0.21109545
67	0x3ebc0b44	0.36727345
68	0x3e2b00a1	0.16699459
69	0x3e7c12bf	0.24616526
70	0x3daf2a96	0.085530445
71	0x3e9dff6e	0.3085894
72	0x3eb2dbd5	0.34933344
73	0x3e177f57	0.1479467
74	0x3e7cc3e0	0.24684095
75	0x3e08bccd	0.13353272
76	0x3e98fa7b	0.298786
77	0x3e05bc73	0.13060169
78	0x3e69f0ea	0.22845808
79	0x3e716e09	0.23577131
80	0x3d04aced	0.032391477
81	0x3e8f6a87	0.2801096
82	0x3e3e081d	0.18557782
83	0x3e8ea9a3	0.27863798
84	0x3d9d04c4	0.076669246
85	0x3d1095e7	0.035299208
86	0x3d71ed7a	0.059064366
87	0x3def51bf	0.11685514
88	0x3e666d97	0.22502743
89	0x3df61d68	0.120173275
90	0x3d90e1ff	0.07074355
91	0x3e6105b5	0.21974833
92	0x3e4d53c3	0.20051484
93	0x3e35b754	0.17745715
94	0x3e312676	0.17299828
95	0x3dda9960	0.10673785

dense1.batch_norm1.weight f4 [96]
0	0x3f3d5801	0.7396241
1	0x3f666666	0.9
2	0x3f60dfd1	0.87841517
3	0x3f662bf4	0.8991082
4	0x3f4b7d08	0.7948766
5	0x3f38acef	0.72138876
6	0x3f725026	0.94653547
7	0x3f6ccfaa	0.9250437
8	0x3f7be6cd	0.9839905
9	0x3f7349a0	0.9503422
10	0x3f528cc4	0.8224604
11	0x3f6a457c	0.91512275
12	0x3f6677ef	0.90026754
13	0x3f6259c2	0.8841821
14	0x3f404adf	0.75114244
15	0x3f830557	1.0236005
16	0x3f6b0211	0.9180003
17	0x3f6d62ed	0.92729074
18	0x3f626e6a	0.8844973
19	0x3f11e6f3	0.56993026
20	0x3f87125f	1.0552481
21	0x3f664ee1	0.8996411
22	0x3f78d42e	0.9719876
23	0x3f627ddb	0.8847329
24	0x3f813d0c	1.0096755
25	0x3f36e1c1	0.71438223
26	0x3f71a9ab	0.9439952
27	0x3f748f34	0.9553101
28	0x3f5b46c8	0.8565488
29	0x3f2cdc0d	0.6752327
30	0x3f1272a5	0.57206184
31	0x3f469c9f	0.77582735
32	0x3f7b6bf0	0.98211575
33	0x3f42a7aa	0.76037085
34	0x3f83e464	1.0304074
35	0x3f6c779d	0.92370015
36	0x3eb8d6e8	0.3610146
37	0x3f4864a9	0.78278595
38	0x3f264934	0.6495545
39	0x3f4a11cd	0.7893341
40	0x3f82a1a7	1.0205582
41	0x3f5f4ac4	0.8722346
42	0x3f186d00	0.5954132
43	0x3f67313f	0.9030952
44	0x3f45e696	0.7730497
45	0x3f7fdabf	0.99943155
46	0x3f5f92cb	0.87333363
47	0x3f3dee61	0.7419186
48	0x3f81af79	1.0131675
49	0x3f712917	0.94203323
50	0x3f75175a	0.95738757
51	0x3f622007	0.8833012
52	0x3f567d86	0.83785284
53	0x3f4be384	0.79644036
54	0x3f672c2c	0.90301776
55	0x3f821212	1.0161765
56	0x3f64b7dd	0.89343053
57	0x3f363808	0.71179247
58	0x3f6cb226	0.9245933
59	0x3f803051	1.0014745
60	0x3f7f10a9	0.99634796
61	0x3f1fd8b2	0.62440026
62	0x3f4cd18e	0.80007255
63	0x3f4d3ec2	0.80173886
64	0x3f6c2e45	0.922581
65	0x3f8b4bd4	1.0882516
66	0x3f5309dc	0.8243692
67	0x3f619232	0.881137
68	0x3f5af055	0.8552297
69	0x3f816202	1.0108035
70	0x3f56fc39	0.8397861
71	0x3f6df71b	0.9295518
72	0x3f875ed1	1.0575811
73	0x3f60e47c	0.8784864
74	0x3f6a0faa	0.9143015
75	0x3f68383f	0.90710825
76	0x3f75af2e	0.9597043
77	0x3f591d4d	0.84810334
78	0x3f5cdc3c	0.8627355
79	0x3f888611	1.0665914
80	0x3f38631b	0.7202622
81	0x3f683ff0	0.9072256
82	0x3f7e8139	0.9941593
83	0x3f4a82e7	0.7910599
84	0x3f388341	0.7207528
85	0x3f16fe83	0.58982104
86	0x3eb1e445	0.34744468
87	0x3f81309c	1.009296
88	0x3f682d40	0.90694046
89	0x3f06d27d	0.5266493
90	0x3f6df353	0.9294941
91	0x3f4cc7fe	0.79992664
92	0x3f5a44d4	0.85261273
93	0x3f5657ea	0.83727896
94	0x3f633081	0.88745886
95	0x3f49f57d	0.7889021

dense1.batch_norm1.bias f4 [96]
0	0xbe9ab469	-0.30215767
1	0xbf48efcb	-0.78490895
2	0xbf1bb2cd	-0.60819703
3	0xbf2f1234	-0.6838715
4	0xbf110f4e	-0.5666398
5	0xbf008693	-0.50205344
6	0xbf384887	-0.7198567
7	0xbf290a7a	-0.6603161
8	0xbf742a3a	-0.9537693
9	0xbfd05d31	-1.627844
10	0xbf1a66e4	-0.6031325
11	0xbf320cfd	-0.6955107
12	0xbf1ea14a	-0.6196486
13	0xbf3ae3fa	-0.73004115
14	0xbec859be	-0.39130968
15	0xbf85ab2e	-1.0442865
16	0xbf19c03e	-0.60058963
17	0xbf180963	-0.59389323
18	0xbf1df4ec	-0.61701846
19	0xbf5951d5	-0.8489049
20	0xbf70c054	-0.9404347
21	0xbf2c4985	-0.6729968
22	0xbf58a54e	-0.84627235
23	0xbf2673c6	-0.65020406
24	0xbf4df502	-0.8045198
25	0xbee06940	-0.438303
26	0xbf4fc4c8	-0.8115964
27	0xbf2849fb	-0.65737885
28	0xbf0d2776	-0.5513834
29	0xbed1bc60	-0.4096403
30	0xbe530589	-0.2060758
31	0xbeda0e83	-0.42589197
32	0xbf335db8	-0.7006488
33	0xbecceb07	-0.40023062
34	0xbf5278cb	-0.82215565
35	0xbf1d6c44	-0.61493325
36	0xbd9cba13	-0.07652678
37	0xbf2eea8b	-0.68326634
38	0xbebe03fd	-0.37112418
39	0xbf18d857	-0.5970511
40	0xbf5c23e1	-0.85992247
41	0xbf1f177f	-0.6214523
42	0xbde409c9	-0.11134679
43	0xbf213ce0	-0.6298351
44	0xbef2c5fb	-0.47416672
45	0xbf5c3dfe	-0.8603209
46	0xbf280997	-0.6563963
47	0xbf022d53	-0.5085041
48	0xbf4c5924	-0.7982352
49	0xbf3f8678	-0.7481456
50	0xbf42a3d2	-0.7603122
51	0xbf420dfd	-0.75802594
52	0xbf403e96	-0.750955
53	0xbf2c5324	-0.6731436
54	0xbfd4b2eb	-1.6617101
55	0xbf6066b8	-0.87656736
56	0xbf2e36bc	-0.6805227
57	0xbe30978a	-0.17245308
58	0xbf258c47	-0.6466717
59	0xbf536e64	-0.8259032
60	0xbf4a64fd	-0.79060346
61	0xbf1618a3	-0.5863134
62	0xbebf6a7a	-0.37385923
63	0xbf096cea	-0.53681815
64	0xbf0fa47d	-0.56110364
65	0xbf7e68c1	-0.9937859
66	0xbf0c549e	-0.54816616
67	0xbf2f808d	-0.6855553
68	0xbf1a516a	-0.6028048
69	0xbf86972c	-1.0514884
70	0xbf1d153f	-0.61360544
71	0xbf3af41f	-0.7302875
72	0xbf2ef1a0	-0.6833744
73	0xbf218d4b	-0.6310622
74	0xbf4b1d13	-0.7934124
75	0xbf4fe34a	-0.8120619
76	0xbf4a3ca9	-0.7899881
77	0xbf326e5f	-0.6969966
78	0xbf161bea	-0.58636343
79	0xbf50d380	-0.81572723
80	0xbe4d1522	-0.20027593
81	0xbf279c3b	-0.65472764
82	0xbf4d6d15	-0.8024457
83	0xbf1ffdcc	-0.6249664
84	0xbec2d944	-0.38056386
85	0xbe3f8a75	-0.18705161
86	0x3b7cda10	0.0038582124
87	0xbf36fe75	-0.7148202
88	0xbf385f2f	-0.7202024
89	0xbea3a09e	-0.3195848
90	0xbf33d9fa	-0.7025448
91	0xbeeff2d4	-0.4686495
92	0xbf2120dc	-0.62940764
93	0xbf421dbc	-0.7582662
94	0xbf132819	-0.5748306
95	0xbf004817	-0.5011

dense1.batch_norm1.running_mean f4 [96]
0	0xbffb963b	-1.9655222
1	0xc01a77be	-2.4135585
2	0xc04e8c52	-3.2273145
3	0xc0629a2c	-3.54066
4	0xc037b640	-2.8704987
5	0xbffea06e	-1.9892709
6	0xc01f73ee	-2.4914508
7	0xc037eb1f	-2.8737257
8	0xc0a43f95	-5.1327615
9	0x3f40074e	0.75011146
10	0xc069124e	-3.6417422
11	0xc0422af5	-3.033872
12	0xc05228f2	-3.283749
13	0xc0413106	-3.0186172
14	0xbffc6000	-1.9716797
15	0xc0620ecc	-3.5321531
16	0xbff358f3	-1.901152
17	0xc0163574	-2.3470125
18	0xc077ed93	-3.8738754
19	0xc05422d7	-3.3146265
20	0xc05d2812	-3.4555707
21	0xc03f8d98	-2.9930172
22	0xc06437e1	-3.5659106
23	0xc053548d	-3.3020356
24	0xc0836880	-4.1065063
25	0xc001b881	-2.0268862
26	0xc036d6e7	-2.8568666
27	0xc02b6849	-2.67824
28	0xbfdaadda	-1.7084305
29	0xc0805cfa	-4.0113497
30	0xbfb44a18	-1.4085112
31	0xc0614809	-3.5200217
32	0xc0446c1c	-3.0690985
33	0xbffae51d	-1.960117
34	0xc00a2299	-2.1583617
35	0xc0553272	-3.331204
36	0xc0090748	-2.1410694
37	0xc046d84c	-3.1069517
38	0xbfb56a57	-1.4173077
39	0xc05512c9	-3.3292716
40	0xc02a110b	-2.6572902
41	0xc04cc15e	-3.1993022
42	0xc0d3802a	-6.609395
43	0xc03854ad	-2.8801682
44	0xbfde4a15	-1.7366358
45	0xc05c3639	-3.4408095
46	0xc0603d65	-3.5037472
47	0xc0214f60	-2.5204697
48	0xc0088126	-2.1328826
49	0xc05b3f69	-3.4257452
50	0xc056ae85	-3.3544018
51	0xc02bcc0f	-2.6843297
52	0xc0695c3d	-3.6462548
53	0xc0823965	-4.069506
54	0x3faf7cb5	1.3709933
55	0xc096dba3	-4.714311
56	0xc02b459c	-2.6761236
57	0xc09b9b16	-4.8626814
58	0xbfe6ada9	-1.8021747
59	0xc05ca75b	-3.4477146
60	0xc02a1373	-2.657437
61	0xc04f0ec6	-3.2352767
62	0xc02be01c	-2.6855536
63	0xbfc11634	-1.5084901
64	0xc00c8910	-2.1958656
65	0xc06237ae	-3.5346484
66	0xbfa0a0ec	-1.254911
67	0xc01087c0	-2.2582855
68	0xc00d415b	-2.207114
69	0xc02d4cba	-2.707808
70	0xc0369d1f	-2.85334
71	0xc08e121a	-4.4397097
72	0x3f7785fd	0.96688825
73	0xc0362048	-2.8457203
74	0xc04d5044	-3.208024
75	0xc0801390	-4.002388
76	0xc00ace25	-2.168832
77	0xc08e774b	-4.452062
78	0xc000d3d4	-2.012929
79	0xc04624ee	-3.096004
80	0xc10cdee5	-8.804418
81	0xc01dec19	-2.4675353
82	0xc02225e9	-2.5335639
83	0xc02bfb1f	-2.6872022
84	0xc0785d31	-3.880688
85	0xc04c74d6	-3.194631
86	0xc05a1eb6	-3.4081244
87	0xc0122457	-2.283468
88	0xc0800517	-4.0006213
89	0xbfa5bda3	-1.2948498
90	0xc010b3c1	-2.2609713
91	0xc0200667	-2.5003908
92	0xc0142886	-2.3149734
93	0xc08739c9	-4.225804
94	0xc06e3750	-3.722126
95	0xbfcf519f	-1.6196784

dense1.batch_norm1.running_var f4 [96]
0	0x4073398a	3.800387
1	0x407ce26a	3.9513192
2	0x40831d9b	4.097364
3	0x406b249a	3.674109
4	0x40763d1c	3.8474798
5	0x403dcd51	2.9656565
6	0x404a55d7	3.1614892
7	0x4087c291	4.242501
8	0x40847723	4.139543
9	0x4047468e	3.1136813
10	0x404e9107	3.2276018
11	0x4059b9f2	3.4019742
12	0x4077ba96	3.8707633
13	0x404f26b1	3.2367365
14	0x40396455	2.8967488
15	0x403fd2f3	2.9972503
16	0x404e39d4	3.2222795
17	0x402cd7d4	2.700673
18	0x408b5306	4.3538847
19	0x3f908c05	1.129273
20	0x4048a706	3.1351943
21	0x404406cd	3.062915
22	0x4044ce3e	3.075088
23	0x404bbc40	3.1833649
24	0x4060e2d6	3.513845
25	0x401eadef	2.479366
26	0x40545e4f	3.3182561
27	0x404b0fc1	3.1728365
28	0x406812e9	3.6261542
29	0x40c1167f	6.033996
30	0x401eb033	2.4795043
31	0x408dc9a7	4.430866
32	0x4047ab15	3.119817
33	0x4028203d	2.6269677
34	0x40542f14	3.3153734
35	0x408412dd	4.1273026
36	0x41729a69	15.162698
37	0x403d5e2b	2.9588726
38	0x4014354b	2.3157527
39	0x40a33e76	5.1013746
40	0x4068bae4	3.636407
41	0x403f8d1b	2.9929874
42	0x40b2645d	5.5747514
43	0x405dbbdd	3.4645913
44	0x402c32e1	2.6906054
45	0x405b549e	3.4270396
46	0x406c1028	3.688486
47	0x401fe194	2.4981432
48	0x40640506	3.5628066
49	0x408b4ed5	4.353373
50	0x40864558	4.195965
51	0x406a662c	3.662486
52	0x405f0efe	3.48529
53	0x408b42ec	4.351919
54	0x4049c319	3.1525328
55	0x40908da8	4.517292
56	0x405c709c	3.4443731
57	0x40f01c35	7.5034432
58	0x40775b04	3.8649302
59	0x40687737	3.6322763
60	0x40663c41	3.5974276
61	0x404c300f	3.1904333
62	0x40977ebc	4.7342205
63	0x400ed3cb	2.2316768
64	0x405d9932	3.4624753
65	0x4049342c	3.1438093
66	0x401add41	2.4197543
67	0x40509a70	3.259426
68	0x40228003	2.5390632
69	0x40332b25	2.7995083
70	0x405ae82f	3.4204214
71	0x407d4561	3.9573596
72	0x4017ab8d	2.3698456
73	0x405c581c	3.4428778
74	0x402e64bb	2.724898
75	0x403537b6	2.8315253
76	0x4038ad34	2.8855715
77	0x406294d0	3.5403328
78	0x40654b04	3.5827036
79	0x406323e6	3.549066
80	0x419b52d1	19.415438
81	0x4066aa45	3.6041424
82	0x404986bd	3.1488488
83	0x4035bb44	2.8395548
84	0x405d9530	3.4622307
85	0x40bb4455	5.8520913
86	0x4076fe76	3.859281
87	0x40624d21	3.5359576
88	0x405a1302	3.4074101
89	0x4033eca7	2.811319
90	0x409eda4d	4.964148
91	0x4041dfb0	3.0292778
92	0x404813b0	3.1262016
93	0x40327bfe	2.788818
94	0x4087eea8	4.247883
95	0x405ebc77	3.480253

dense2.dense.weight f4 [15, 96]
0	0xbd8921ba	-0.06695886
1	0xbd59321d	-0.053026307
2	0xbe55e0ee	-0.20886585
3	0x3db75e63	0.0895355
4	0xbef04d39	-0.46933916
5	0xbe013e8b	-0.12621514
6	0xbddeacee	-0.108728275
7	0xbd77d6fe	-0.060507767
8	0xbf292355	-0.6606954
9	0xbc2cd301	-0.010548354
10	0x3e5a45a3	0.21315627
11	0xbf10ca08	-0.56558275
12	0xbe966669	-0.29375008
13	0xbdadd46b	-0.08487781
14	0xbea14ad6	-0.31502408
15	0x3dde6e90	0.10860932
16	0xbceabc82	-0.02865434
17	0xbeca8a67	-0.39558718
18	0x3dbd71c7	0.09250217
19	0xbe93ed46	-0.28891963
20	0xbef80b8e	-0.48446316
21	0xbcbf043e	-0.023317453
22	0x3e2729b3	0.163245
23	0x3c5813fa	0.0131883565
24	0x3e96fd34	0.29490054
25	0xbcfda4e9	-0.030962424
26	0x3e036a7b	0.12833588
27	0x3d356262	0.04428328
28	0x3d4ce38c	0.050021693
29	0x3df16fff	0.1178894
30	0xbdcbe19c	-0.09955141
31	0x3dd1ff46	0.10253768
32	0xbe7a36e9	-0.24435009
33	0xbe05a517	-0.13051258
34	0x3e905816	0.28192204
35	0xbea7ced7	-0.32774994
36	0x3e111575	0.14168341
37	0x3e95c46d	0.29251423
38	0x3e53c631	0.20681073
39	0xbf01e77b	-0.50743836
40	0xbe5fd856	-0.2185987
41	0xbea21b30	-0.31661367
42	0x3c9afad7	0.018918438
43	0x3d38007a	0.04492233
44	0xbddbc36a	-0.10730632
45	0xbe90844a	-0.2822593
46	0xbedcd3bb	-0.43130288
47	0xbe55058c	-0.20802897
48	0xbe83357b	-0.2562674
49	0x3e702acb	0.23453824
50	0xbefeaade	-0.49739736
51	0xbe0af699	-0.13570632
52	0xbd039665	-0.03212585
53	0xbe486592	-0.19569996
54	0xbc2de15d	-0.010612813
55	0x3ea2ba44	0.31782734
56	0x3e68282d	0.22671576
57	0xbf216ce6	-0.6305679
58	0xbecc39d9	-0.39887884
59	0x3e4b64cb	0.19862668
60	0x3db8ecff	0.090295784
61	0xbeaf5d17	-0.3425071
62	0xbd6950a2	-0.056961663
63	0xbe8a6623	-0.2703105
64	0x3e88d31d	0.26723567
65	0xbe903c88	-0.28171182
66	0xbed1e2dc	-0.40993392
67	0xbc8ff864	-0.017574497
68	0xbdd360de	-0.1032121
69	0xbe3f13a3	-0.18659835
70	0xbec5dad9	-0.3864353
71	0x3e046d24	0.12932259
72	0x3a417d25	0.0007381014
73	0xbeff9204	-0.4991609
74	0xbf12d245	-0.57352096
75	0xbe69e2b3	-0.22840385
76	0xbe10855d	-0.14113374
77	0x3e3f1527	0.18660413
78	0x3e62d320	0.2215085
79	0x3e7c4d76	0.24638924
80	0x3e8db571	0.2767749
81	0xbde39947	-0.1111322
82	0xbe431f72	-0.19054964
83	0xbdcec763	-0.10096624
84	0x3d8388eb	0.064225994
85	0xbe93c706	-0.2886278
86	0xbcd80965	-0.026371667
87	0xbefedb62	-0.4977675
88	0x3e4b516e	0.19855282
89	0x3dca8409	0.09888465
90	0xbdff7f47	-0.12475448
91	0x3e0b1b44	0.1358462
92	0x3c8be623	0.017077511
93	0xbe43eda7	-0.19133626
94	0xbed91be3	-0.42404088
95	0xbeb61e21	-0.35569862
96	0x3e0c22bd	0.13685127
97	0xbe50138c	-0.20319957
98	0xbd9eb014	-0.07748428
99	0xbe5bc13b	-0.2146043
100	0x3e4b302e	0.19842598
101	0xbddc4cc3	-0.10756829
102	0x3e176da5	0.1478792
103	0xbeaabf76	-0.33349198
104	0xbee9091a	-0.45514756
105	0xbc934083	-0.017975098
106	0x3dfeee35	0.12447778
107	0xbe80ad46	-0.25132197
108	0xbc2c8b6b	-0.010531287
109	0xbe98f112	-0.29871422
110	0xbe5889fe	-0.2114639
111	0x3c2757c8	0.0102138
112	0xbe37a543	-0.17934136
113	0x3df42665	0.11921386
114	0x3e773e62	0.24144891
115	0xbec52b09	-0.38509396
116	0xbe87f13b	-0.26551232
117	0xbe1840ba	-0.14868441
118	0xbe4b929d	-0.19880147
119	0xbe636bfb	-0.2220916
120	0xbea5ec44	-0.3240682
121	0xbeac7e84	-0.33690274
122	0xbe0c6319	-0.13709678
123	0xbdd6aabc	-0.10481784
124	0xbe4bb8f7	-0.19894777
125	0xbf0e8c37	-0.556827
126	0xbe7dbc25	-0.24778803
127	0x3de3207d	0.11090181
128	0x3e404aee	0.18778583
129	0xbd9a1047	-0.07522636
130	0xbebd030b	-0.36916384
131	0xbdfaf703	-0.12254145
132	0x3e219193	0.15778188
133	0x3d8b8a47	0.06813484
134	0xbf61b3a7	-0.8816475
135	0xbf0b84a6	-0.5449928
136	0xbc6a359f	-0.014295011
137	0x3e3dde63	0.18541865
138	0xbd4188a8	-0.047249466
139	0xbe729845	-0.23690899
140	0xbdd3be5a	-0.10339041
141	0xbed72a1f	-0.42024323
142	0xbe3593c8	-0.17732155
143	0x3e1899b7	0.14902388
144	0x3e42226c	0.18958443
145	0x3e185373	0.14875583
146	0xbe29f940	-0.16598988
147	0xbebdc436	-0.3706376
148	0xbe59441b	-0.21217386
149	0x3b92da7c	0.004481612
150	0xbc803c4f	-0.015653757
151	0xbeb16403	-0.34646615
152	0xbed57a8a	-0.41695052
153	0xbec15527	-0.3776028
154	0x3e82e0d6	0.2556216
155	0xbdf380b8	-0.118897855
156	0xbec4de4d	-0.38450852
157	0x3d864423	0.06555965
158	0xbe6a07cf	-0.22854541
159	0xbebe9020	-0.37219334
160	0x3e515b6e	0.20445034
161	0x3e55f563	0.20894389
162	0x3e39be0a	0.181389
163	0x3d56e8e9	0.052468214
164	0xbe9058c3	-0.2819272
165	0xbe50281e	-0.20327803
166	0x3e304cb9	0.17216767
167	0xbd2b9a73	-0.04189534
168	0xbc1cfcc3	-0.009581747
169	0x3d97f091	0.07418931
170	0x3e538711	0.20656992
171	0xbd7a75df	-0.061147567
172	0xbe8c489d	-0.2739915
173	0xbe02215c	-0.12708038
174	0x3dd6035d	0.1044986
175	0x3e595720	0.21224642
176	0x3e87e590	0.2654233
177	0xbe55b61e	-0.20870253
178	0xbe6129e9	-0.21988644
179	0xbe844072	-0.25830418
180	0x3e10f8f7	0.14157473
181	0x3e7af608	0.24507916
182	0xbd8d237c	-0.06891534
183	0xbe98b9cf	-0.2982926
184	0xbe0aacd2	-0.13542488
185	0xbed29f88	-0.41137338
186	0xbdfc2070	-0.123108745
187	0xbd3272e5	-0.043566603
188	0xbe254b64	-0.1614204
189	0x3db1e097	0.08685415
190	0xbeca4120	-0.3950281
191	0xbeaf8e13	-0.34288082
192	0x3d4c5fff	0.049896237
193	0xbe65f8ec	-0.22458237
194	0xbeb1f425	-0.3475658
195	0x3ea7ff98	0.3281219
196	0x3db14153	0.08655038
197	0xbe555e5c	-0.20836776
198	0xbe89d4e6	-0.2692024
199	0xbe82bbd7	-0.25533935
200	0xbeebf992	-0.46088845
201	0xbce4ed2d	-0.027945125
202	0xbf387c11	-0.7206431
203	0xbea01f43	-0.3127385
204	0x3de5c9a5	0.11220101
205	0xbef51af5	-0.4787213
206	0xbdc52e3a	-0.09627958
207	0xbe095406	-0.13410959
208	0xbeb5a28a	-0.3547557
209	0x3db16e4d	0.08663616
210	0xbe66ad9b	-0.22527163
211	0xbf3178c7	-0.69324917
212	0x3e80ce28	0.25157285
213	0x3e56800c	0.20947284
214	0x3e0970e7	0.13421975
215	0x3deb7fc4	0.11498979
216	0xbe81b939	-0.25336626
217	0xbe5511e3	-0.20807604
218	0x3da8b305	0.0823727
219	0x3e3ad2dd	0.182445
220	0xbde92eee	-0.11385904
221	0xbe91bb96	-0.2846343
222	0xbe88b17d	-0.26697913
223	0xbdc533a1	-0.09628988
224	0xbed5af3e	-0.41735262
225	0xbe41a8b3	-0.1891201
226	0xbe39901d	-0.18121381
227	0x3e5879ea	0.21140257
228	0x3d7b9358	0.061419815
229	0xbe7511c9	-0.23932566
230	0x3da9b0ea	0.08285697
231	0x3e0d6d73	0.13811283
232	0x3e807b3b	0.25094017
233	0xbee208e8	-0.4414742
234	0xbd544557	-0.05182394
235	0x3e3f6180	0.18689537
236	0xbde98d70	-0.1140393
237	0x3c95346a	0.01821347
238	0xbecc1e46	-0.39866847
239	0x3e22b22f	0.15888284
240	0xbe96aadb	-0.29427227
241	0xbe03fbfa	-0.1288909
242	0x3e2c3505	0.168171
243	0xbe3f03d4	-0.18653804
244	0xbe3790f6	-0.17926392
245	0x3eb5173a	0.35369283
246	0xbd3e6c66	-0.046490096
247	0xbec6a4dc	-0.38797653
248	0x3e77572d	0.24154349
249	0xbf17a147	-0.59230465
250	0xbea0ca95	-0.31404558
251	0xbe9fc78f	-0.3120694
252	0xbeebf9fb	-0.46089157
253	0xbd772302	-0.06033612
254	0x3e2dbc2a	0.1696631
255	0xbe87b587	-0.26505682

dense2.dense.bias f4 [15]
0	0x3f0f3fee	0.55956924
1	0x3f1b40a3	0.606455
2	0x3eda3e5d	0.42625704
3	0x3fdaab41	1.7083513
4	0x3ee9af7d	0.456417
5	0x3edf44ee	0.43607277
6	0x401cc51e	2.449531
7	0x3eedb63a	0.4642809
8	0x3efaec74	0.49008524
9	0x3edfad6c	0.43686998
10	0x3ef8c05e	0.48584265
11	0x3ef35f4c	0.47533643
12	0x3f00a617	0.50253433
13	0xbc5bee40	-0.013423502
14	0xc12f0819	-10.939477

dense2.batch_norm1.weight f4 [15]
0	0x40913e34	4.538843
1	0x40a149c5	5.040255
2	0x4075d29f	3.8409803
3	0x40b56b12	5.66932
4	0x407d0295	3.9532826
5	0x4074e832	3.826672
6	0x40c6ac48	6.2085304
7	0x4087c4bc	4.2427654
8	0x4096fd27	4.7184024
9	0x40816ab1	4.044274
10	0x4089f0d9	4.3106503
11	0x409b406a	4.851613
12	0x408eade0	4.458725
13	0x3ee20d7a	0.44150907
14	0x4168bdb1	14.546311

dense2.batch_norm1.bias f4 [15]
0	0xc03c1cfc	-2.939269
1	0xc0530712	-3.2973065
2	0xc0303fd9	-2.753897
3	0xc02d72a9	-2.7101233
4	0xc01eb2ff	-2.479675
5	0xc01854a2	-2.3801656
6	0xc0203bee	-2.5036578
7	0xc03c3b10	-2.941105
8	0xc030dfdf	-2.763664
9	0xc01643af	-2.347881
10	0xc029b6fe	-2.651794
11	0xc036d9a2	-2.8570333
12	0xc0355e44	-2.8338785
13	0xbf2f509c	-0.68482375
14	0x409f3397	4.9750476

dense2.batch_norm1.running_mean f4 [15]
0	0x3e925c8c	0.28586233
1	0x3eb23547	0.34806272
2	0x3df9e2bd	0.1220145
3	0x3fba795b	1.4568285
4	0x3e446b23	0.19181494
5	0x3e2e9daf	0.17052339
6	0x400eeb92	2.233128
7	0x3e3ca783	0.18423276
8	0x3e76ff5c	0.2412085
9	0x3e4c259d	0.19936223
10	0x3e82cace	0.25545353
11	0x3e5fb9ab	0.2184817
12	0x3e86b89b	0.26312718
13	0xbe150a33	-0.14554672
14	0xc133afd1	-11.230424

dense2.batch_norm1.running_var f4 [15]
0	0x3eaf62d5	0.3425509
1	0x3e97f81b	0.29681477
2	0x3e9685ac	0.2939886
3	0x3ed3a278	0.4133489
4	0x3e83470f	0.2564015
5	0x3e668e9e	0.22515342
6	0x3f17fd1f	0.5937061
7	0x3e9b7ad8	0.3036716
8	0x3e96bab0	0.29439306
9	0x3e81d2db	0.25356182
10	0x3e888b0b	0.2666858
11	0x3e8c0214	0.27345335
12	0x3e98720e	0.29774517
13	0x3ec01d1a	0.37522203
14	0x3f7bc0f5	0.98341304
