classification/model_rnafm/13_final/120Epoch/rna_type_checkpoint_fold_7.pt (torch, 252002 bytes, 24 tensors)

layer1.conv1.weight f4 [30, 30, 5]
0.16940089 0.8500841 0.41521105 0.11367473 -0.13918483 0.40635216 -0.5331007 -0.44006136
0.25957578 0.44634315 -0.25954697 -0.17325091 -0.8122326 -0.19528411 0.12406629 -0.6444755
-0.5060616 -1.0175139 -1.1012964 -0.25953707 0.5970834 0.26778886 -0.044850778 -0.015839003
-0.06874191 0.24857922 -0.077575 -0.08133169 0.12847774 0.11565617 0.53013456 0.3003002
0.34596494 0.3188528 0.2126441 -0.48688182 -0.4815437 0.03841711 -0.347193 -0.2897833
-0.07899366 0.17055194 -0.005335375 0.4004795 0.13175525 -0.30238333 -0.41873577 -0.1494011
-0.29372162 -0.16142601 0.045721203 -0.03349541 0.23628138 0.11279563 0.18952817 -0.053438973
0.22636993 0.24978746 0.20026535 0.3724547 -0.23773187 -0.0802028 -0.59703994 -0.5154166
-0.09094069 -0.14004289 -0.05876819 -0.07710542 -0.4039241 -0.24458298 0.112467125 0.16280402
-0.084543794 0.08945197 0.06947274 -0.01677791 -0.0025827778 -0.07512409 0.24053177 -0.13277532
-0.24826458 -0.019394977 0.0038207525 -0.1501682 0.054493796 -0.10143949 0.095935985 0.12229227
0.0072962604 0.0690722 0.06700088 0.07419481 -0.11116128 -0.17310962 -0.053113125 0.1313921
-0.078971684 -0.21416624 -0.055270847 -0.09859584 0.026584253 -0.099469155 -0.04682381 0.16095151
-0.18381298 0.13271007 0.2665264 0.19789286 0.06228769 -0.044591695 0.0066473694 0.13456215
0.24045743 0.08126833 0.10096799 -0.036170565 -0.24272192 0.16658297 -0.029001936 0.1421834
-0.0491641 -0.15794834 -0.024422713 -0.4431366 0.1026582 0.09418349 -0.17671257 0.2266542
-0.0647915 0.12771624 -0.12486449 0.110141076 0.11575847 0.0051023853 -0.09045238 -0.10852017
0.118336625 -0.012309736 0.07469443 -0.04120629 -0.08231338 0.1784412 -0.035940185 0.04553049
0.090518795 -0.038278796 -0.115453556 -0.17549 -0.02777506 0.10825565 0.6717364 -0.12733912
-0.7143585 -0.46572122 0.30632582 -0.3475668 0.119747356 0.6167777 0.25011265 -0.48711553
-0.17935528 0.09474031 0.04369857 0.3887597 0.44528186 -0.4439034 -0.08036709 0.071397975
-0.19996627 0.6291345 -0.0810094 0.3708635 0.23624597 -0.36311677 -0.029732067 -0.009694408
0.3311511 0.3775137 0.69433016 -0.14171746 0.14251238 0.38552198 0.0046259444 0.018283105
-0.00023538798 0.07172953 0.42769825 0.057058275 -0.00059189665 0.05840565 0.01543784 -0.1658735
0.39426678 0.17202775 0.19165908 0.4487338 -0.0131804645 0.23812833 -0.5782679 -0.08166616
0.13308363 -0.13393773 0.0020839775 -0.46040663 -0.0823273 0.24900196 -0.083436064 -0.03194969
-0.15569042 0.12836693 0.09008219 -0.45144942 -0.19076727 -0.11872573 -0.0683267 0.3136788
-0.33010465 -0.09922481 0.1054618 0.029672489 0.5795802 -0.3137398 0.012100045 0.20831846
0.06520812 0.40780285 -0.12794739 0.07404301 -0.52159446 -0.12000543 0.19497846 0.31686786
-0.1481097 -0.59627837 -0.016027037 0.02722182 0.22458681 0.0369061 -0.29132208 0.30475903
-0.21309286 -0.07191461 0.0353776 0.10960869 0.19381714 0.06739306 0.13737772 -0.11000748
-0.21149996 0.07136806 -0.022614188 0.13476548 0.11832078 -0.19124223 -0.1350184 -0.016154852
00000000: 6d77 2d3e 1d9f 593f 8b96 d43e 4cce e83d
00000010: 7886 0ebe 640d d03e 4a79 08bf b94f e1be
00000020: 1ee7 843e 1787 e43e 57e3 84be b068 31be
00000030: 7aee 4fbf 8ff8 47be 7816 fe3d 59fc 24bf
00000040: 418d 01bf e53d 82bf 48f7 8cbf 0be2 84be
00000050: 75da 183f 9f1b 893e 73b5 37bd ccc0 81bc
00000060: 8fc8 8cbd 8d8b 7e3e a4df 9ebd 3b91 a6bd
00000070: ab8f 033e 24dd ec3d e6b6 073f f3c0 993e
00000080: 5122 b13e ad40 a33e 60bf 593e 9348 f9be
00000090: e58c f6be 425b 1d3d 48c3 b1be 7a5e 94be
000000a0: 6ec7 a1bd 2ba5 2e3e 5fd4 aebb a60b cd3e
000000b0: d9ea 063e fdd1 9abe 8964 d6be 9afc 18be
000000c0: ae62 96be dc4c 25be 2846 3b3d 7c32 09bd
000000d0: bff3 713e 6501 e73d ac13 423e d3e2 5abd
000000e0: 85cd 673e 49c8 7f3e 5c12 4d3e 62b2 be3e
000000f0: fc6f 73be 5e41 a4bd 9cd7 18bf 58f2 03bf
00000100: 1d3f babd 6767 0fbe eab6 70bd 72e9 9dbd
00000110: 24cf cebe f673 7abe 2a55 e63d 19b6 263e
00000120: 4c25 adbd 9832 b73d b947 8e3d d471 89bc
00000130: d243 29bb a9da 99bd f64d 763e 41f6 07be
00000140: 1239 7ebe 37e2 9ebc 9765 7a3b b1c5 19be
00000150: e334 5f3d 82bf cfbd 167a c43d 5f74 fa3d
00000160: 7815 ef3b ba75 8d3d c237 893d 73f3 973d
00000170: 86a8 e3bd a643 31be 268d 59bd a78b 063e
00000180: e8bb a1bd 654e 5bbe af63 62bd 9eec c9bd
00000190: 38c7 d93c 7cb6 cbbd 53ca 3fbd 79d0 243e
000001a0: 7839 3cbe 26e5 073e 2676 883e 6da4 4a3e
000001b0: 6021 7f3d c8a5 36bd 2dd2 d93b a9ca 093e
000001c0: 793a 763e 0370 a63d 4ec8 ce3d 9627 14bd
000001d0: 188c 78be ba94 2a3e 7895 edbc 8698 113e
000001e0: 4c60 49bd 36bd 21be 2412 c8bc cde2 e2be
000001f0: 763e d23d 46e3 c03d 24f4 34be 0a18 683e
00000200: 68b1 84bd 0cc8 023e f4b8 ffbd a591 e13d
00000210: c712 ed3d e931 a73b 193f b9bd d33f debd
00000220: 795a f23d c6ae 49bc 65f9 983d edc7 28bd
00000230: eb93 a8bd 4ab9 363e 0436 13bd 2e7e 3a3d
00000240: eb61 b93d 3aca 1cbd ea72 ecbd a7b3 33be
00000250: 8688 e3bc 23b5 dd3d ebf6 2b3f 3065 02be
00000260: 33e0 36bf 0373 eebe bdd6 9c3e 47f4 b1be
00000270: 1a3e f53d 25e5 1d3f c40e 803e 3567 f9be
00000280: e9a8 37be 3507 c23d 46fd 323d 830b c73e
00000290: fcfb e33e 4e47 e3be 8097 a4bd 1a39 923d
000002a0: f5c3 4cbe f50e 213f 42e8 a5bd d2e1 bd3e
000002b0: 77ea 713e 71ea b9be aa90 f3bc 4bd5 1ebc
000002c0: a38c a93e 7a49 c13e 9fbf 313f 621e 11be
000002d0: c4ee 113e 2363 c53e 3c95 973b 73c6 953c
000002e0: 7bd2 76b9 efe6 923d 44fb da3e f0b5 693d
000002f0: 8329 1bba c33a 6f3d feee 7c3c beda 29be
00000300: 56dd c93e 0b28 303e 4742 443e 70c0 e53e
00000310: e0f2 57bc ead7 733e 5d09 14bf 9640 a7bd
00000320: 1347 083e f926 09be 5793 083b 6bba ebbe
00000330: 379b a8bd 5ffa 7e3e 87e0 aabd aedd 02bd
00000340: 4f6d 1fbe 9f72 033e 037d b83d 6124 e7be
00000350: 7f58 43be 7a26 f3bd deee 8bbd 829a a03e
00000360: 7a03 a9be 6136 cbbd 5bfc d73d b813 f33c
00000370: 5e5f 143f 81a2 a0be 443f 463c 6f51 553e
00000380: d68b 853d 89cb d03e a404 03be dda3 973d
00000390: 3787 05bf 68c5 f5bd 6fa8 473e 813c a23e
000003a0: 12aa 17be b3a5 18bf 224b 83bc 4b00 df3c
000003b0: 16fa 653e da2a 173d 2b28 95be 6009 9c3e
000003c0: 0435 5abe f847 93bd 1ae8 103d 857a e03d
000003d0: 0078 463e 5f05 8a3d bfac 0c3e 9a4b e1bd
000003e0: 7293 58be 6b29 923d 6441 b9bc f6ff 093e
000003f0: 2a52 f23d 01d5 43be 4342 0abe 2e57 84bc

layer1.conv1.bias f4 [30]
-0.059097864 -0.05077834 0.1350954 -0.027711526 0.036853567 -0.052756958 0.02735085 0.093613625
0.06493157 -0.06480892 0.1001102 0.055101253 0.018845644 -0.0064903325 -0.03451877 0.051607333
0.064265676 -0.09756836 -0.011236547 0.00989261 0.04483615 -0.23417546 0.0112154875 0.009847248
0.008270071 -0.008826751 -0.08315905 -0.009013195 0.0877343 0.1389411
00000000: 9a10 72bd f3fc 4fbd 7356 0a3e 4803 e3bc
00000010: c4f3 163d ae17 58bd e40e e03c 80b8 bf3d
00000020: d8fa 843d 8aba 84bd 9406 cd3d dab1 613d
00000030: 2e62 9a3c dbac d4bb 8e63 0dbd 3662 533d
00000040: b99d 833d ecd1 c7bd 7e19 38bc 9d14 223c
00000050: 1ca6 373d b1cb 6fbe 2ac1 373c 5a56 213c
00000060: 317f 073c 149e 10bc 4b4f aabd 14ac 13bc
00000070: 0aae b33d 9346 0e3e

layer1.bn1.weight f4 [30]
0.46437442 1.2496872 0.9167328 1.5665114 0.87541074 0.9907379 0.6557295 0.5894547
0.9232942 0.6352015 0.9879192 0.6698525 0.6830739 1.0692244 0.61872697 0.54700094
0.98679376 1.1477358 0.7503743 0.77788085 0.83474284 0.9776653 0.8402759 0.8509638
0.6565662 0.901603 0.7921668 0.9887963 1.0971153 1.2865207
00000000: 7cc2 ed3e c0f5 9f3f 00af 6a3f 7283 c83f
00000010: eb1a 603f 00a1 7d3f e3dd 273f 81e6 163f
00000020: 025d 6c3f 919c 223f 46e8 7c3f 747b 2b3f
00000030: eedd 2e3f 58dc 883f e464 1e3f 4108 0c3f
00000040: 849e 7c3f 02e9 923f 8818 403f 3323 473f
00000050: b5b1 553f 4648 7a3f 521c 573f c3d8 593f
00000060: b914 283f 74cf 663f 72cb 4a3f c121 7d3f
00000070: 466e 8c3f b6ac a43f

layer1.bn1.bias f4 [30]
0.019913314 -0.0046978868 0.20300296 0.23251395 0.033771317 -0.004873449 -0.07004259 0.042957745
0.10624272 0.036876883 0.0820137 -0.18196094 0.09161839 0.033692766 0.021455681 0.032867335
0.083123945 0.10281988 -0.039214164 0.028288428 -0.48097956 0.11790878 0.14637609 0.139977
0.08146418 -0.049571153 0.04837879 0.060754947 0.09810235 0.072010964
00000000: 3f21 a33c bbf0 99bb 02e0 4f3e 2318 6e3e
00000010: cb53 0a3d 74b1 9fbb 7d72 8fbd 76f4 2f3d
00000020: c895 d93d 370c 173d ccf6 a73d f853 3abe
00000030: 6ca2 bb3d 6d01 0a3d d3c3 af3c e69f 063d
00000040: e33c aa3d 3b93 d23d 089f 20bd 22bd e73c
00000050: f442 f6be 297a f13d 9de3 153e 2156 0f3e
00000060: b1d6 a63d 1f0b 4bbd d728 463d 2eda 783d
00000070: e3e9 c83d 7c7a 933d

layer1.bn1.running_mean f4 [30]
-0.07028656 -0.03761779 0.13282079 -0.021480344 0.026280092 -0.05827577 0.017140694 0.081578955
0.044188626 -0.07660323 0.09372813 0.046761498 0.005012539 -0.005239956 -0.04511395 0.04394084
0.060940884 -0.094793886 -0.022933405 -0.0051232744 0.03746716 -0.23872076 0.023597186 0.0021931336
0.0015511113 -0.010477866 -0.092325166 -0.01956032 0.07908074 0.12738083
00000000: 66f2 8fbd 1d15 1abd 2c02 083e 8cf7 afbc
00000010: 5949 d73c 93b2 6ebd a46a 8c3c de12 a73d
00000020: 22ff 343d 27e2 9cbd 89f4 bf3d fc88 3f3d
00000030: 3a40 a43b f0b3 abbb 68c9 38bd 4ffb 333d
00000040: 269d 793d 4c23 c2bd d6de bbbc 24e1 a7bb
00000050: 2a77 193d 3773 74be e34e c13c adba 0f3b
00000060: a94e cb3a 5bab 2bbc fa14 bdbd f73c a0bc
00000070: 15f5 a13d 1f70 023e

layer1.bn1.running_var f4 [30]
1.4957305 4.842239 3.4500487 2.3767793 2.1403072 1.1652555 2.450505 4.4678993
3.4610817 2.2465158 1.8420887 1.0206505 2.494011 1.0751201 2.575531 1.4281664
2.862753 0.6832572 1.6688873 4.599305 0.99807507 1.2490737 6.524364 0.8233485
2.351069 2.448088 3.7651732 1.4693903 1.1182513 1.1847876
00000000: 1974 bf3f 9ff3 9a40 99cd 5c40 271d 1840
00000010: cbfa 0840 1827 953f 13d5 1c40 08f9 8e40
00000020: 5d82 5d40 eac6 0f40 90c9 eb3f ada4 823f
00000030: e09d 1f40 899d 893f 80d5 2440 28ce b63f
00000040: 5837 3740 f2e9 2e3f 199e d53f 822d 9340
00000050: d981 7f3f a6e1 9f3f 97c7 d040 f8c6 523f
00000060: ea77 1640 79ad 1c40 99f8 7040 fb14 bc3f
00000070: dc22 8f3f 1fa7 973f

conv1.weight f4 [30, 30, 5]
0.43215916 0.23750342 -0.109130494 -0.2913837 -0.2185652 -0.6849026 -0.0061740833 0.26659682
0.15316705 -0.25787494 0.0126638645 -0.21915777 -0.5060958 0.074468575 -0.13623954 -0.29205158
-0.5093923 -0.31268466 0.22459853 -0.20146757 0.18130246 0.032003943 -0.41674662 -0.23190053
0.21872643 -0.12721314 -0.19898489 0.123980395 -0.10957576 -0.4371148 0.05954271 -0.2544124
0.117436625 -0.060543317 -0.0057963463 -0.20782776 0.10451694 0.15252581 -0.142902 -0.032146536
0.34844354 0.088958226 -0.15475251 -0.44203278 0.09773217 0.12373127 0.09734054 -0.3735357
-0.0049566464 0.026010238 0.33206767 -0.13285093 -0.07989896 0.21120481 0.49701628 -0.21099415
0.08305627 -0.039824624 0.24949507 -0.23657505 0.024733922 -0.2995661 -0.0064443597 0.11978737
-0.013255508 0.3501968 0.13965696 0.0051493067 -0.060510863 -0.35986337 -0.083259165 -0.13925976
-0.17536469 0.23385717 0.24684274 -0.19786346 0.005365832 0.36246303 0.2450833 -0.27570698
-0.2559426 0.15515456 -0.23707528 0.040978298 0.100328036 0.44285765 0.20957792 0.05713789
0.2764211 -0.13960412 -0.109263465 -0.095262334 0.06515671 0.014769199 0.20974915 -0.24779765
0.03819736 0.20222403 -0.18341406 -0.16449077 -0.37040785 0.038708612 -0.06272736 -0.24588673
-0.23337269 -0.17616645 -0.30552042 -0.08626301 0.21699843 0.40469936 0.06985256 -0.077972904
-0.3221552 -0.46782202 0.102622256 0.04040781 -0.12731664 -0.049750447 -0.2512003 0.3902882
0.03210372 0.15134616 0.08420768 0.014794849 0.08479215 0.17517175 0.2335201 -0.44710118
-0.118002795 0.07667627 0.097977564 0.053626604 -0.03282416 -0.36409226 -0.10702343 -0.3529576
-0.3175571 0.06262417 0.31197375 0.14513178 -0.625883 -0.28294495 -0.06920811 0.16563326
-0.13574068 -0.20700088 -0.26261944 -0.028222928 0.48125923 -0.26935786 0.44001654 0.23013449
-0.045553055 -0.22247308 -0.20611842 -0.67441946 -0.018142832 0.2777012 0.11923572 -0.22200345
0.013522839 -0.15385054 -0.53655815 0.07663494 -0.15749447 -0.30234438 -0.48660678 -0.31802553
0.24951091 -0.18854609 0.17761388 0.109974824 -0.40353155 -0.21950153 0.22934319 -0.15677488
-0.22225095 0.13736618 -0.10681271 -0.38924187 0.021471301 -0.2778536 0.081433535 -0.08335772
0.03096345 -0.2455138 0.09025401 0.10607945 -0.16284451 -0.04496853 0.3763431 0.060425296
-0.19238022 -0.4110755 0.1595489 0.11640761 0.15006368 -0.33457333 -0.03019041 0.014116479
0.32291532 -0.112286314 -0.05762255 0.19816563 0.47907156 -0.22736041 0.115191035 -0.04637184
0.22632925 -0.20070931 -0.028620083 -0.30191338 0.05887546 0.08461814 0.037197866 0.3841604
0.13035242 0.014241679 -0.047929823 -0.37306836 -0.041999277 -0.11017946 -0.12646028 0.22209662
0.22289196 -0.1826688 0.058285743 0.3539569 0.22460614 -0.27180275 -0.2509591 0.17544667
-0.21553375 0.04456632 0.07280539 0.463974 0.2068381 0.06852362 0.26673004 -0.14375637
-0.096300244 -0.12827164 0.075643934 0.012561785 0.19669218 -0.23986104 0.036649037 0.25532517
-0.16545087 -0.17372175 -0.38895974 -0.01833433 -0.09215562 -0.21597931 -0.20229484 -0.18455124
00000000: f743 dd3e 1934 733e cf7f dfbd 3f30 95be
00000010: 8ecf 5fbe c755 2fbf f74f cabb 617f 883e
00000020: d3d7 1c3e 2f08 84be 197c 4f3c e56a 60be
00000030: 7f8f 01bf fb82 983d 6182 0bbe c987 95be
00000040: 8967 02bf 3418 a0be 28fd 653e 844d 4ebe
00000050: 5aa7 393e 9116 033d d05f d5be 5577 6dbe
00000060: d2f9 5f3e 2944 02be b2c2 4bbe 6fe9 fd3d
00000070: 4269 e0bd 83cd dfbe 0fe3 733d 5842 82be
00000080: 9d82 f03d 45fc 77bd 47ef bdbb cdd0 54be
00000090: fa0c d63d ba2f 1c3e e754 12be 16ac 03bd
000000a0: 3167 b23e bb2f b63d 7177 1ebe 1f52 e2be
000000b0: ce27 c83d d266 fd3d 7a5a c73d 1240 bfbe
000000c0: 5d6b a2bb 6c13 d53c c604 aa3e 130a 08be
000000d0: 11a2 a3bd 1346 583e eb78 fe3e da0e 58be
000000e0: 6819 aa3d 251f 23bd a37b 7f3e bb40 72be
000000f0: cb9e ca3c ba60 99be 352b d3bb 1553 f53d
00000100: a12d 59bc ff4c b33e 3c02 0f3e 84bb a83b
00000110: 3dda 77bd 0340 b8be c883 aabd 1c9a 0ebe
00000120: cd92 33be 4178 6f3e 58c4 7c3e b89c 4abe
00000130: dcd3 af3b c194 b93e 1ef7 7a3e 7729 8dbe
00000140: e90a 83be d6e0 1e3e ddc3 72be dcd8 273d
00000150: c978 cd3d 3dbe e23e 989b 563e 6c09 6a3d
00000160: 1187 8d3e 62f4 0ebe 86c5 dfbd e618 c3bd
00000170: e270 853d 83fa 713c 7bc8 563e abbe 7dbe
00000180: d674 1c3d d113 4f3e e5d0 3bbe 4570 28be
00000190: 19a6 bdbe ec8c 1e3d 3477 80bd bbc9 7bbe
000001a0: 40f9 6ebe fa64 34be 2c6d 9cbe a9aa b0bd
000001b0: d634 5e3e c134 cf3e dc0e 8f3d 42b0 9fbd
000001c0: 87f1 a4be 5e86 efbe 9e2b d23d a982 253d
000001d0: 4b5f 02be 20c7 4bbd 539d 80be dbd3 c73e
000001e0: 317f 033d 7dfa 1a3e 1375 ac3d 1866 723c
000001f0: 82a7 ad3d 3960 333e e51f 6f3e 72ea e4be
00000200: 73ab f1bd 7308 9d3d 76a8 c83d 92a7 5b3d
00000210: a072 06bd 4d6a babe 1a2f dbbd dcb6 b4be
00000220: d896 a2be 1a41 803d 06bb 9f3e 6d9d 143e
00000230: de39 20bf 29de 90be fbbc 8dbd c49b 293e
00000240: 9bff 0abe 0af8 53be 0e76 86be c533 e7bc
00000250: 9c67 f63e 46e9 89be d949 e13e 60a8 6b3e
00000260: d795 3abd fccf 63be b510 53be c1a6 2cbf
00000270: 47a0 94bc da2e 8e3e db31 f43d df54 63be
00000280: e68e 5d3c ff8a 1dbe e05b 09bf c8f2 9c3d
00000290: 3b46 21be e2cc 9abe 8624 f9be 3ed4 a2be
000002a0: ca7f 7f3e 3a12 41be 6ae0 353e 7b3a e13d
000002b0: b09b cebe 02c5 60be f1d8 6a3e 9889 20be
000002c0: c195 63be b8a9 0c3e 9fc0 dabd b64a c7be
000002d0: 95e4 af3c d442 8ebe a0c6 a63d 74b7 aabd
000002e0: 10a7 fd3c f867 7bbe 18d7 b83d 2f40 d93d
000002f0: b6c0 26be ec30 38bd 0bb0 c03e 8480 773d
00000300: 52ff 44be 7d78 d2be c960 233e 1d67 ee3d
00000310: 4baa 193e 324d abbe e151 f7bc ce48 673c
00000320: 2855 a53e 5ef6 e5bd 9f05 6cbd eeeb 4a3e
00000330: de48 f53e 2bd1 68be 47e9 eb3d 66f0 3dbd
00000340: dbc2 673e be86 4dbe aa74 eabc 6494 9abe
00000350: 6527 713d 464c ad3d ca5c 183d acb0 c43e
00000360: 1b7b 053e ee55 693c 1052 44bd d102 bfbe
00000370: 6f07 2cbd c5a5 e1bd ce7e 01be 4c6d 633e
00000380: ca3d 643e 880d 3bbe 08bd 6e3d d739 b53e
00000390: 27ff 653e bb29 8bbe b67d 80be 4ba8 333e
000003a0: e1b4 5cbe 2c8b 363d fe1a 953d 008e ed3e
000003b0: 5ecd 533e 1d56 8c3d d790 883e df34 13be
000003c0: 1039 c5bd a459 03be 35eb 9a3d f2cf 4d3c
000003d0: ad69 493e 229e 75be 4d1d 163d fbb9 823e
000003e0: f46b 29be 1de4 31be bb25 c7be e031 96bc
000003f0: 16bc bcbd ae29 5dbe 6126 4fbe 00fb 3cbe

conv1.bias f4 [30]
0.10720044 -0.0746741 0.1940649 0.023167854 -0.10601659 0.120440885 -0.094576605 -0.04585841
0.053584713 0.030571472 0.06790776 -0.060211036 0.07395183 -0.0008784701 0.030169085 -0.06146944
-0.012663267 0.044376552 0.030446364 0.06915604 0.093089454 -0.019378847 -0.0012907056 0.011512403
-0.0064578345 -0.005220348 0.04191795 -0.0025247436 0.046289586 -0.017141398
00000000: e78b db3d bcee 98bd f3b8 463e 83ca bd3c
00000010: 3a1f d9bd b6a9 f63d 61b1 c1bd 07d6 3bbd
00000020: a57b 5b3d 0671 fa3c 3913 8b3d d99f 76bd
00000030: 0f74 973d 2149 66ba 2825 f73c 61c7 7bbd
00000040: 9779 4fbc 30c4 353d a76a f93c afa1 8d3d
00000050: afa5 be3d 63c0 9ebc e52c a9ba 859e 3c3c
00000060: 3e9c d3bb 740f abbb 28b2 2b3d 2b76 25bb
00000070: 269a 3d3d 1e6c 8cbc

bn1.weight f4 [30]
1.2352349 1.2401222 1.2508717 1.1948203 1.1718032 1.134188 1.0928359 1.0401481
1.007609 0.97391427 0.97195506 0.9945609 0.9912654 1.5017446 0.9432663 0.8337957
0.82836956 0.8043105 0.7734862 0.8342811 0.7716078 0.70005757 0.82315004 0.78204066
0.61272144 0.7095727 0.5401467 0.5922034 0.60998636 0.5935781
00000000: 2d1c 9e3f 53bc 9e3f 901c a03f dfef 983f
00000010: a6fd 953f 132d 913f 0ce2 8b3f 9323 853f
00000020: 55f9 803f 7252 793f 0cd2 783f 8b9b 7e3f
00000030: 92c3 7d3f 2b39 c03f e679 713f a373 553f
00000040: 0710 543f 4be7 4d3f 3103 463f 7293 553f
00000050: 1788 453f f936 333f f6b9 523f d133 483f
00000060: 50db 1c3f 8ea6 353f 0e47 0a3f a49a 173f
00000070: 1128 1c3f bcf4 173f

bn1.bias f4 [30]
0.0046033417 0.007942169 0.015438975 0.019867346 0.04673873 0.060550462 0.0661384 0.08723694
0.10613229 0.09431864 0.12325556 0.10829314 0.06920198 0.29193866 0.091295324 0.11424185
0.12894446 0.14516951 0.14233163 0.15685104 0.18248962 0.19549018 0.18100892 0.17957856
0.20807387 0.19273587 0.22139229 0.21491227 0.20844021 0.24391204
00000000: a1d7 963b df1f 023c c1f3 7c3c d8c0 a23c
00000010: 1c71 3f3d c303 783d 9273 873d 48a9 b23d
00000020: e35b d93d 222a c13d 696d fc3d cbc8 dd3d
00000030: c5b9 8d3d fc78 953e 0bf9 ba3d a2f7 e93d
00000040: 040a 043e 51a7 143e 62bf 113e 8f9d 203e
00000050: 8fde 3a3e 942e 483e 675a 393e 71e3 373e
00000060: 5111 553e 8d5c 453e a9b4 623e f611 5c3e
00000070: 5a71 553e 14c4 793e

bn1.running_mean f4 [30]
-1.4374557 -1.4966164 -1.2053947 -1.3670143 -1.5352923 -1.2018247 -1.5061527 -1.1380633
-1.24041 -1.2529329 -1.3604848 -1.3848175 -1.3155133 -0.3869519 -1.1598221 -1.5473545
-1.5340807 -0.8014698 -0.7062727 -1.0028613 -1.103351 -1.0660135 -0.99805015 -1.2809693
-0.73612237 -0.734944 -0.54241544 -0.66381717 -0.49432713 -0.7515996
00000000: 8cfe b7bf 2091 bfbf 604a 9abf 53fa aebf
00000010: 7584 c4bf 64d5 99bf 9dc9 c0bf 0fac 91bf
00000020: c1c5 9ebf 1b60 a0bf 5e24 aebf b341 b1bf
00000030: bd62 a8bf 8f1e c6be 0d75 94bf b60f c6bf
00000040: c25c c4bf 202d 4dbf 4ace 34bf c25d 80bf
00000050: 9b3a 8dbf 2173 88bf 3780 7fbf cdf6 a3bf
00000060: 8472 3cbf 4a25 3cbf bddb 0abf ecef 29bf
00000070: 7218 fdbe d568 40bf

bn1.running_var f4 [30]
6.3166523 6.051336 6.060453 6.0214977 5.477431 5.756296 5.7579427 5.187416
6.765295 6.6309533 6.71589 7.08813 7.7594986 2.6152387 8.352126 7.4493885
9.63456 7.1408463 6.2532377 8.312969 10.113881 7.6723833 10.830826 14.859235
6.0569 11.315634 6.1120224 8.510379 7.5873637 8.274367
00000000: 0422 ca40 8ba4 c140 3bef c140 1cb0 c040
00000010: 1d47 af40 9433 b840 1141 b840 50ff a540
00000020: 4c7d d840 c530 d440 92e8 d640 f6d1 e240
00000030: d04d f840 1260 2740 4fa2 0541 6461 ee40
00000040: 2827 1a41 d081 e440 861a c840 ec01 0541
00000050: 75d2 2141 2a84 f540 104b 2d41 6dbf 6d41
00000060: 20d2 c140 d60c 3541 b095 c340 832a 0841
00000070: afcb f240 cf63 0441

dense1.dense.weight f4 [96, 512]
-0.20814046 0.023661464 -0.16719212 0.18916386 0.16450328 -0.38124296 -0.19317394 -0.20579144
-0.21634664 -0.1376271 0.058828168 0.03379609 -0.2394758 0.08054801 0.18543798 -0.082939304
-0.1623319 0.42564246 0.19372137 -0.21676126 0.04539435 -0.04436335 -0.0003539979 0.3136127
-0.10174674 -0.19564414 0.17970434 0.2229505 -0.45901564 -0.25086418 0.18304431 -0.07185263
-0.27433184 -0.3121745 -0.1942851 0.44187263 0.38967687 -0.14129086 -0.2573718 0.028681044
-0.1890888 -0.1400413 -0.16134515 -0.14326021 0.24191496 0.0013141395 -0.018627502 0.22987099
-0.2865845 0.28375083 0.10090513 -0.03790713 0.093809895 -0.16914877 -0.052021537 0.14014949
-0.61281663 -0.11432695 -0.27279848 0.09755135 -0.16586563 -0.14597516 0.05854556 -0.17890936
0.49415672 0.14954562 -0.03775565 -0.17265722 -0.07898972 -0.09330197 -0.21476361 -0.12680833
0.008857879 0.05118125 0.20333198 0.28690222 0.27934572 0.21649525 -0.16624625 -0.29993898
-0.18565862 -0.8746 0.087290324 -0.16854894 0.065032326 0.050325703 -0.087431945 0.39211187
-0.0080124 0.2124723 -0.17620918 0.019083358 -0.021698019 -0.046703678 0.22353944 0.13361685
0.25739014 0.031086668 -0.23410043 -0.087520406 0.081826106 0.16316698 0.004084346 0.11947143
-0.07297157 -0.40584674 0.016208673 -0.35034403 0.1289157 0.0912266 -0.10064415 0.070613585
-0.46443143 0.14062922 0.2554699 -0.3891817 -0.2554901 -0.013013625 0.11648547 -0.07582361
0.028151631 0.004720668 -0.071624935 0.052258458 0.0063375984 0.16296907 -0.07923403 -0.16115999
0.27841243 0.13826406 0.21995048 0.17878695 0.42221764 0.21707974 -0.24982578 -0.5195326
0.21468036 0.55761755 0.26068324 -0.35976148 -0.06315645 -0.122362226 0.102778465 0.2235382
0.32582685 0.042929444 0.04959175 -0.12680914 0.15153481 -0.1355531 0.039877594 -0.06165818
0.0951552 0.03285216 -0.3950738 -0.09170422 -0.14252645 -0.10647384 -0.102986135 0.48758483
0.35915995 -0.34827358 -0.66626096 -0.035863884 -0.1795585 0.15066856 -0.38370624 -0.26820907
0.12770025 0.1785785 0.15586862 -0.37505797 -0.3011176 0.03397119 -0.4306003 -0.3264891
0.11636673 -0.033472978 -0.27610222 0.46484882 0.33072686 0.20190565 -0.25880384 -0.19790831
0.52278674 0.15568787 -0.06502561 -0.42629972 -0.26880276 -0.0838688 0.25247586 0.38744295
-0.12831272 -0.34492356 0.34232008 -0.044897407 0.14243676 0.34012333 -0.16536568 -0.18645154
-0.042549282 -0.015835991 0.12247742 0.14343886 -0.2618836 -0.32804263 0.1384123 0.2703322
0.2960057 0.10182107 -0.18154925 0.4867027 0.031169185 -0.4270921 -0.099986896 0.15332678
-0.072371826 -0.0059737293 0.11365412 0.25676 -0.40591174 0.11293438 -0.25327274 -0.16303186
-0.06136359 -0.29863054 -0.44995713 0.22549854 0.24516532 -0.036054432 -0.5496219 -0.1379866
-0.25984827 0.045304276 -0.16800828 -0.19842193 0.17984836 -0.059557416 0.035580955 0.046007082
0.72696495 -0.2673726 0.028773932 0.2199564 0.30094066 -0.3159488 -0.29395676 -0.41200477
-0.3359742 -0.33771944 0.0056237215 0.17572303 0.24173324 -0.10143972 0.07457686 -0.1359365
00000000: c622 55be b0d5 c13c 6934 2bbe 2cb4 413e
00000010: 8c73 283e 4732 c3be 64cf 45be feba 52be
00000020: f989 5dbe 1eee 0cbe cef5 703d c56d 0a3d
00000030: 2539 75be 5bf6 a43d 74e3 3d3e 15dc a9bd
00000040: 553a 26be cfed d93e e55e 463e aaf6 5dbe
00000050: 6def 393d 58b6 35bd cb98 b9b9 d891 a03e
00000060: 9860 d0bd f056 48be 6a04 383e 234d 643e
00000070: 1904 ebbe 4571 80be f86f 3b3e 7927 93bd
00000080: 3975 8cbe 56d5 9fbe acf2 46be 213d e23e
00000090: ba83 c73e 8dae 10be 3dc6 83be 82f4 ea3c
000000a0: 7fa0 41be fd66 0fbe aa37 25be ceb2 12be
000000b0: 8eb8 773e 343f ac3a b498 98bc 4d63 6b3e
000000c0: 34bb 92be ca47 913e 59a7 ce3d 8244 1bbd
000000d0: 671f c03d 5635 2dbe 8914 55bd 5983 0f3e
000000e0: 8de1 1cbf 3f24 eabd 3eac 8bbe 01c9 c73d
000000f0: aed8 29be 837a 15be 78cd 6f3d 0434 37be
00000100: 1c02 fd3e 7d22 193e aba5 1abd 0ecd 30be
00000110: 5dc5 a1bd 1a15 bfbd feea 5bbe 0bda 01be
00000120: a320 113c 6ea3 513d 4236 503e d9e4 923e
00000130: 6706 8f3e eeb0 5d3e 753c 2abe 9a91 99be
00000140: 4b1d 3ebe c9e5 5fbf 45c5 b23d 1898 2cbe
00000150: ab2f 853d 5322 4e3d 850f b3bd e3c2 c83e
00000160: 7146 03bc 5792 593e 2e70 34be b454 9c3c
00000170: 0bc0 b1bc 5b4c 3fbd 86e7 643e dbd2 083e
00000180: a4c8 833e 78a9 fe3c 06b8 6fbe e63d b3bd
00000190: 7294 a73d 3f15 273e fad5 853b 70ad f43d
000001a0: 1e72 95bd 25cb cfbe 0dc8 843c 4b60 b3be
000001b0: 7a02 043e 03d5 ba3d 851e cebd db9d 903d
000001c0: f5c9 edbe 1b01 103e f3cc 823e d342 c7be
000001d0: 99cf 82be 1937 55bc ef8f ee3d 6949 9bbd
000001e0: 409e e63c d5af 9a3b 18b0 92bd f70c 563d
000001f0: a1ab cf3b 5de1 263e 7345 a2bd 2007 25be
00000200: 138c 8e3e 1895 0d3e b33a 613e ed13 373e
00000210: e92c d83e 274a 5e3e 54d2 7fbe 1700 05bf
00000220: 2bd5 5b3e 06c0 0e3f 4678 853e a832 b8be
00000230: 2b58 81bd 0c99 fabd 847d d23d 33e7 643e
00000240: c7d2 a63e c9d6 2f3d b820 4b3d 41da 01be
00000250: f12b 1b3e 6fce 0abe b056 233d 4a8d 7cbd
00000260: bbe0 c23d fd8f 063d 1d47 cabe 6ccf bbbd
00000270: 74f2 11be f50e dabd 65ea d2bd b8a4 f93e
00000280: d0e3 b73e ea50 b2be 1490 2abf 02e6 12bd
00000290: 2fde 37be dc48 1a3e 2575 c4be b352 89be
000002a0: dbc3 023e 48dd 363e 069c 1f3e 9907 c0be
000002b0: 162c 9abe 6025 0b3d a477 dcbe 9429 a7be
000002c0: ae51 ee3d f61a 09bd 455d 8dbe aa00 ee3e
000002d0: 0855 a93e 5bc0 4e3e f081 84be 7aa8 4abe
000002e0: 5ad5 053f a46c 1f3e 262c 85bd f543 dabe
000002f0: 84a0 89be 68c3 abbd 8444 813e ec5e c63e
00000300: 6964 03be d299 b0be 9444 af3e 58e6 37bd
00000310: f1da 113e a524 ae3e 9f55 29be 27ed 3ebe
00000320: 2848 2ebd 7bba 81bc 71d5 fa3d a3e1 123e
00000330: 9b15 86be 34f5 a7be f4bb 0d3e fb68 8a3e
00000340: 0f8e 973e 9187 d03d 0ce8 39be 1931 f93e
00000350: 8556 ff3c d1ab dabe eec5 ccbd b201 1d3e
00000360: ae37 94bd 46bf c3bb 7ec3 e83d 0c76 833e
00000370: aad3 cfbe 244a e73d f7ac 81be d3f1 26be
00000380: 6358 7bbd 1ae6 98be c860 e6be 17e9 663e
00000390: 9e0c 7b3e d0ad 13bd 05b4 0cbf 5c4c 0dbe
000003a0: d50a 85be fa90 393d 5d0a 2cbe 1e2f 4bbe
000003b0: 2b2a 383e 7af2 73bd 56bd 113d ec71 3c3d
000003c0: 601a 3a3f 10e5 88be 4fb7 eb3c 403c 613e
000003d0: e514 9a3e 0bc4 a1be 8081 96be 4af2 d2be
000003e0: cf04 acbe 90e9 acbe 3247 b83b bdf0 333e
000003f0: eb88 773e a1bf cfbd c1bb 983d f032 0bbe

dense1.dense.bias f4 [96]
0.27348968 0.18878092 0.31177208 0.12777379 0.2251185 0.13427916 0.10284291 0.21179433
0.10340617 0.25812843 0.2558147 0.12573199 0.08484855 0.19151449 0.11261134 0.066536926
0.21472163 0.22653635 0.032376107 0.034011185 0.18439864 0.10159995 0.17257191 0.14810224
0.046537414 0.09486109 0.1378241 0.14558734 0.31581923 0.19563572 0.27431872 0.16387877
0.02946743 0.13302734 0.24338779 0.07569267 0.22468428 0.13629293 0.4994186 0.10984673
0.06148604 0.066544965 0.20255062 0.1679922 0.24412581 0.18243213 0.15259875 0.26742858
0.14253204 0.14880292 0.12002707 0.09112865 0.33410853 0.20077004 0.30277646 0.13204886
0.09112837 0.15870233 0.13666016 0.118824854 0.20636304 0.22994223 0.18348782 0.23329687
0.22341815 0.24448816 0.21414495 0.22976841 0.20424515 0.10457202 0.29753754 0.20297253
-0.033687994 0.22172582 0.21459861 0.58959746 0.19447069 0.19378695 0.20853044 0.18910141
0.23597832 0.17588422 0.17165907 2.0496633 0.16381976 0.2432765 0.24158932 0.18638481
0.18658802 0.20049696 0.0053986893 0.038651925 0.30686635 0.13981561 0.15008755 0.17931071
00000000: d706 8c3e c94f 413e 97a0 9f3e 22d7 023e
00000010: 7785 663e 7a80 093e 4e9f d23d 9de0 583e
00000020: 9dc6 d33d 6929 843e 25fa 823e e3bf 003e
00000030: 14c5 ad3d 601c 443e c6a0 e63d 8344 883d
00000040: fddf 5b3e 25f9 673e cf9c 043d 504f 0b3d
00000050: ffd2 3c3e a213 d03d b1b6 303e 1da8 173e
00000060: 049e 3e3d 8846 c23d c321 0d3e d914 153e
00000070: 0fb3 a13e bb54 483e 8173 8c3e d6cf 273e
00000080: ae65 f13c 5238 083e a63a 793e c204 9b3d
00000090: a313 663e 6090 0b3e cbb3 ff3e 53f7 e03d
000000a0: c9d8 7b3d ba48 883d 6e69 4f3e 2606 2c3e
000000b0: 1efc 793e 7dcf 3a3e d942 1c3e 66ec 883e
000000c0: ebf3 113e cb5f 183e c1d0 f53d a8a1 ba3d
000000d0: 4610 ab3e a996 4d3e 8405 9b3e d137 073e
000000e0: 83a1 ba3d dd82 223e a4f0 0b3e 725a f33d
000000f0: d550 533e fa75 6b3e 3be4 3b3e 60e5 6e3e
00000100: bac7 643e 1b5b 7a3e d048 5b3e 6948 6b3e
00000110: a425 513e db29 d63d d756 983e 08d8 4f3e
00000120: 6cfc 09bd 180c 633e bdbf 5b3e dcef 163f
00000130: 5323 473e 1670 463e 0189 553e cda3 413e
00000140: 4da4 713e fe1a 343e 65c7 2f3e af2d 0340
00000150: 5ec0 273e 7a1d 793e 3163 773e a9db 3e3e
00000160: ee10 3f3e 134f 4d3e 7de7 b03b 7b51 1e3d
00000170: 961d 9d3e d32b 0f3e 8db0 193e 3a9d 373e

dense1.batch_norm1.weight f4 [96]
0.8818681 0.8549525 0.98550963 0.87162757 0.80136114 0.93342006 0.8508044 0.8500711
0.867497 0.9078573 0.92298615 0.8626713 0.69063175 0.9123656 0.8467504 0.57201046
0.88441527 0.87349147 0.6830973 0.36250833 0.8937817 0.88249445 0.911852 0.88392615
0.48161712 0.87410074 0.84410155 0.93429816 0.9601833 0.9596017 0.8378396 0.5843653
0.85809875 0.9006017 0.8961591 0.9720583 0.9822277 0.7744426 1.0658817 0.9307391
0.7320273 0.8652601 0.9155587 0.94214875 0.9579912 0.8644241 0.90647703 0.76787305
0.8834895 0.8905568 1.1133072 0.7910726 0.9764234 0.8954601 1.0960033 0.9428749
0.85174644 0.8606819 0.8601309 0.8030921 0.9426131 0.91062236 0.9538906 0.85773116
0.97749645 0.8849938 1.024131 0.9499845 0.9477202 0.8988824 0.9442542 0.9853102
0.3330025 0.8370053 0.72906655 1.0539792 0.89568084 0.857313 0.8418945 0.870617
0.8201233 0.8892866 0.87549335 1.1032292 0.86913455 0.9943255 0.73211783 0.7992683
0.9168928 0.92764807 0.6658254 1.0481967 1.0030104 1.0055784 0.8960472 0.8970417
00000000: 1cc2 613f 2bde 5a3f 5c4a 7c3f fc22 5f3f
00000010: 0126 4d3f 9ef4 6e3f 51ce 593f 429e 593f
00000020: 4914 5e3f 5669 683f d248 6c3f 07d8 5c3f
00000030: 3ecd 303f cb90 693f a2c4 583f 476f 123f
00000040: 0a69 623f 239d 5f3f 77df 2e3f b19a b93e
00000050: e1ce 643f 28eb 613f 226f 693f fc48 623f
00000060: 8596 f63e 11c5 5f3f 0a17 583f 2a2e 6f3f
00000070: 93ce 753f 75a8 753f a87c 563f f798 153f
00000080: 5cac 5b3f d58d 663f af6a 653f d0d8 783f
00000090: 4673 7b3f df41 463f d06e 883f eb44 6e3f
000000a0: 2466 3b3f b081 5d3f 0e62 6a3f a930 713f
000000b0: e93e 753f e64a 5d3f e10e 683f 5493 443f
000000c0: 5e2c 623f 88fb 633f da80 8e3f bc83 4a3f
000000d0: e2f6 793f e03c 653f d649 8c3f 4060 713f
000000e0: 0e0c 5a3f a655 5c3f 8a31 5c3f 7297 4d3f
000000f0: 184f 713f 8c1e 693f 2d32 743f 4594 5b3f
00000100: 353d 7a3f f48e 623f b916 833f 2f32 733f
00000110: cb9d 723f 281d 663f a5ba 713f 4a3d 7c3f
00000120: 4e7f aa3e fb45 563f 1ba4 3a3f cae8 863f
00000130: 574b 653f dd78 5b3f 6686 573f c1e0 5e3f
00000140: 9af3 513f 49a8 633f 5520 603f 9d36 8d3f
00000150: 9a7f 5e3f 1e8c 7e3f 136c 3b3f d99c 4c3f
00000160: 7db9 6a3f 587a 6d3f 8973 2a3f 4f2b 863f
00000170: a562 803f cbb6 803f 5963 653f 86a4 653f

dense1.batch_norm1.bias f4 [96]
-0.6207277 -0.6000366 -0.751589 -0.7078103 -0.4775638 -0.79885566 -0.46343967 -0.64878166
-0.50904995 -0.61505383 -0.6439478 -0.40308234 -0.23360716 -0.58317167 -0.60126805 -0.16332157
-0.5433559 -0.59248555 -0.39144146 -0.111502655 -0.45039713 -0.6891569 -0.7041556 -0.64964503
-0.29981786 -0.6391922 -0.618746 -0.55764246 -0.6347116 -0.7501744 -0.6118972 -0.5003339
-0.68129915 -0.66488105 -0.61335015 -0.97014415 -0.5627314 -0.3844224 -1.500843 -0.63001436
-0.6372098 -0.39120746 -0.69805276 -0.7076697 -0.7803136 -0.73228985 -0.726059 -0.44915974
-0.61771244 -0.572224 -1.05327 -0.5360061 -0.71206677 -0.5808406 -0.94460934 -0.63723403
-0.5642291 -0.5949514 -0.8038327 -0.5320521 -0.65376645 -0.7134318 -0.8576905 -0.5366417
-0.7564055 -0.65381867 -0.8033096 -0.7266427 -0.72408634 -0.71417737 -0.8534683 -0.92044
-0.028273616 -0.5270974 -0.27001002 -1.8936841 -0.59737974 -0.56249774 -0.48944873 -0.6765878
-0.39580992 -0.7451404 -0.62814575 -2.3647838 -0.7074915 -0.65826625 -0.3631335 -0.67239046
-0.5679674 -0.6738591 -0.27991733 -0.9125532 -0.8009167 -0.6712682 -0.6161729 -0.6700219
00000000: 03e8 1ebf 009c 19bf 2368 40bf 0e33 35bf
00000010: 3e83 f4be ce81 4cbf f747 edbe 8e16 26bf
00000020: 1951 02bf 2b74 1dbf c3d9 24bf cf60 cebe
00000030: b736 6fbe bd4a 15bf b4ec 19bf c53d 27be
00000040: 5f19 0bbf 22ad 17bf 046b c8be 815b e4bd
00000050: 749a e6be 966c 30bf 8b43 34bf 234f 26bf
00000060: ba81 99be 1aa2 23bf 2366 1ebf a8c1 0ebf
00000070: 767c 22bf 6e0b 40bf 4ba5 1cbf e215 00bf
00000080: 9f69 2ebf a535 2abf 8404 1dbf 5e5b 78bf
00000090: 2a0f 10bf 03d3 c4be a01b c0bf 9f48 21bf
000000a0: 2e20 23bf 584c c8be 96b3 32bf d729 35bf
000000b0: a2c2 47bf 5977 3bbf 01df 39bf 44f8 e5be
000000c0: 6722 1ebf 467d 12bf 8dd1 86bf b237 09bf
000000d0: 024a 36bf f8b1 14bf ebd1 71bf c521 23bf
000000e0: 5171 10bf bc4e 18bf fbc7 4dbf 9134 08bf
000000f0: 3d5d 27bf 77a3 36bf 9b91 5bbf 5a61 09bf
00000100: caa3 41bf a960 27bf b3a5 4dbf 4205 3abf
00000110: b95d 39bf 54d4 36bf e67c 5abf f5a1 6bbf
00000120: 129e e7bc dbef 06bf c13e 8abe 3e64 f2bf
00000130: e1ed 18bf daff 0fbf 0699 fabe dc34 2dbf
00000140: 99a7 cabe 85c1 3ebf 29ce 20bf 9e58 17c0
00000150: 2a1e 35bf 2384 28bf a2ec b9be c821 2cbf
00000160: 5066 11bf 0882 2cbf 5351 8fbe 169d 69bf
00000170: e008 4dbf 3cd8 2bbf 82bd 1dbf 8e86 2bbf

dense1.batch_norm1.running_mean f4 [96]
-1.8729349 -1.7123791 -2.8692517 -2.6711712 -1.1431295 -2.0940592 -2.3227878 -1.8851265
-1.9418999 -1.7941209 -3.1495423 -2.1153078 -4.859713 -1.6196923 -1.987155 -5.7373176
-1.2609867 -1.9129962 -2.7423816 -1.1721592 -1.4018676 -2.2199636 -3.0361152 -2.6370494
-2.3910174 -2.7626674 -2.7111595 -3.6632879 -1.5894061 -2.534392 -1.2004725 -2.5100048
-3.1466167 -2.8208873 -1.8127775 -3.0565176 -1.9633712 -2.5090094 5.2560644 -2.6711087
-4.274926 -3.6852348 -2.857297 -2.1374397 -2.2465866 -2.424807 -3.200136 -1.4622763
-1.6109416 -3.0446873 -3.1565256 -1.3719375 -2.355551 -1.8115642 -3.962585 -2.745119
-2.3940089 -1.5957274 -2.5583959 -1.2509618 -2.223858 -2.0978813 -2.8984096 -1.0744188
-2.4593253 -2.8703806 -2.4320521 -1.7626183 -2.4617426 -2.9262288 -3.3908112 -4.615328
-0.2538521 -2.4248056 -1.7955874 0.97785467 -2.7602947 -2.4767933 -1.7236555 -2.0561907
-3.1280835 -2.566983 -3.1464875 4.05668 -2.1900582 -1.9843811 -1.6925074 -2.4564981
-3.0358562 -2.4635942 -3.378433 -2.4298263 -2.5415254 -2.0185683 -2.5311596 -2.3522744
00000000: 55bc efbf 3d2f dbbf d2a1 37c0 78f4 2ac0
00000010: 1152 92bf 1105 06c0 8ea8 14c0 d34b f1bf
00000020: 2d90 f8bf c1a5 e5bf 1a92 49c0 3461 07c0
00000030: c582 9bc0 1452 cfbf 185b febf 1b98 b7c0
00000040: 0368 a1bf 0fdd f4bf 2e83 2fc0 5009 96bf
00000050: 6670 b3bf e213 0ec0 b64f 42c0 6bc5 28c0
00000060: 6e06 19c0 8bcf 30c0 a383 2dc0 4f73 6ac0
00000070: a971 cbbf 7b33 22c0 15a9 99bf eba3 20c0
00000080: 2b62 49c0 6b89 34c0 1809 e8bf fc9d 43c0
00000090: bf4f fbbf 9c93 20c0 ae31 a840 72f3 2ac0
000000a0: 32cc 88c0 e3da 6bc0 f4dd 36c0 d0cb 08c0
000000b0: 13c8 0fc0 0a30 1bc0 07cf 4cc0 df2b bbbf
000000c0: 5633 cebf 28dc 42c0 8404 4ac0 a69b afbf
000000d0: 59c1 16c0 56e1 e7bf fe9a 7dc0 08b0 2fc0
000000e0: 7137 19c0 cc40 ccbf c2bc 23c0 841f a0bf
000000f0: b153 0ec0 b043 06c0 8b7f 39c0 8e86 89bf
00000100: 9665 1dc0 51b4 37c0 bea6 1bc0 7a9d e1bf
00000110: 318d 1dc0 5547 3bc0 0d03 59c0 c4b0 93c0
00000120: e7f8 81be 0430 1bc0 cfd5 e5bf af54 7a3f
00000130: aba8 30c0 c883 1ec0 bea0 dcbf a198 03c0
00000140: 8532 48c0 7349 24c0 0d60 49c0 53d0 8140
00000150: ea29 0cc0 3300 febf 15a4 d8bf 4437 1dc0
00000160: 784b 42c0 87ab 1dc0 3f38 58c0 4682 1bc0
00000170: 5aa8 22c0 3930 01c0 85fe 21c0 aa8b 16c0

dense1.batch_norm1.running_var f4 [96]
3.3963928 3.2418997 4.2468963 3.560746 2.1477008 2.9562254 4.235105 3.4580703
3.9133823 3.6205132 4.9598246 4.7033577 8.558984 3.1860762 3.5708432 16.8223
2.7363148 3.4752958 7.031894 1.5542923 3.3071997 3.446351 3.6379387 3.9166567
2.5181105 3.624029 3.9496734 5.139813 4.282775 3.2533462 2.7118115 2.348592
4.217241 4.4932795 3.0642009 3.6518886 3.4892778 4.2726364 2.6417015 4.2007823
4.1620364 6.86848 3.4506733 2.8870764 3.430226 2.862408 5.370957 2.1285772
3.3567677 3.4091828 3.9436362 4.5281754 3.7768955 3.7181664 4.65487 4.480822
3.4619143 2.9693413 3.1100733 2.8343236 5.981826 2.4002783 4.176606 3.0746417
3.9556181 4.206409 4.0261703 3.6234674 2.997525 4.1740384 3.4490554 4.331058
4.8401456 4.1923265 4.580434 1.9124027 3.5880685 3.1448429 3.8159907 2.493581
6.2410736 3.3366485 4.290571 3.0599542 2.8576136 3.4923735 3.8667638 2.6058192
3.9879272 3.2695408 7.074915 3.5028272 3.9812284 4.432527 3.781788 3.4844851
00000000: 805e 5940 497b 4f40 93e6 8740 43e3 6340
00000010: ee73 0940 cc32 3d40 fb85 8740 0651 5d40
00000020: db74 7a40 7db6 6740 e2b6 9e40 e881 9640
00000030: 99f1 0841 ace8 4b40 b288 6440 1294 8641
00000040: c81f 2f40 3f6b 5e40 4705 e140 0df3 c63f
00000050: 29a9 5340 0491 5c40 fdd3 6840 81aa 7a40
00000060: b928 2140 17f0 6740 73c7 7c40 5979 a440
00000070: 7e0c 8940 d336 5040 528e 2d40 554f 1640
00000080: a3f3 8640 f2c8 8f40 de1b 4440 8bb8 6940
00000090: 5450 5f40 70b9 8840 a311 2940 cf6c 8640
000000a0: 672f 8540 97ca db40 d5d7 5c40 dcc5 3840
000000b0: d388 5b40 b131 3740 e1de ab40 9c3a 0840
000000c0: 48d5 5640 0d30 5a40 8964 7c40 d0e6 9040
000000d0: a8b8 7140 70f6 6d40 b2f4 9440 e562 8f40
000000e0: 0190 5d40 b009 3e40 710b 4740 8f65 3540
000000f0: 1e6b bf40 299e 1940 c2a6 8540 eec6 4440
00000100: d928 7d40 e79a 8640 63d6 8040 e4e6 6740
00000110: 73d7 3f40 b991 8540 53bd 5c40 0798 8a40
00000120: 79e2 9a40 8a27 8640 ea92 9240 9dc9 f43f
00000130: eaa2 6540 1b45 4940 3139 7440 d596 1f40
00000140: e0b6 c740 a68b 5540 5c4c 8940 4ad6 4340
00000150: 24e3 3640 0c83 5f40 0f79 7740 bec5 2640
00000160: 333a 7f40 2840 5140 b465 e240 522e 6040
00000170: 72cc 7e40 43d7 8d40 d108 7240 ce01 5f40

dense2.dense.weight f4 [15, 96]
-0.16630018 -0.33708045 -0.21344207 -0.22361608 -0.14829978 -0.2332687 0.10167419 -0.19653007
-0.2177381 0.17855188 0.1534474 -0.30376485 -0.26405066 -0.2265106 0.15694714 0.24524935
0.16401589 -0.10635152 0.17895806 -0.07556337 -0.3306128 -0.56970143 0.10616286 -0.5043176
0.12481639 -0.17602517 -0.14612684 0.18424292 0.036086917 -0.18971694 -0.035850514 0.058559183
-0.10851832 0.14968742 -0.13503858 -0.20370726 0.14002948 -0.20974985 -0.009949362 -0.0516608
-0.05857381 -0.54496807 -0.3249509 0.15352067 0.2715865 -0.47946623 -0.28875187 -0.3134305
-0.16253161 -0.30984518 -0.2858657 -0.70094335 0.37126732 0.086875536 0.43940523 -0.291211
-0.42374295 -0.250532 -0.051457755 0.032046784 -0.15690503 -0.08720417 -0.39425802 0.006630482
-0.16449355 -0.0863581 -0.20429069 -0.22026397 -0.31719404 -0.48166052 -0.20137908 -0.21617071
-0.043885767 -0.20878695 -0.078927174 -0.00974086 0.08698036 0.24913202 0.11393624 -0.4157167
0.29740024 -0.006265783 -0.03912216 0.0060730204 -0.31503642 -0.27841544 -0.1967758 -0.008067628
-0.44905257 0.22761843 0.010233406 -0.14131889 -0.46285594 -0.21879795 -0.18556988 0.14883502
-0.27082875 -0.37826872 -0.18302377 -0.4626544 -0.1643513 -0.30092677 0.09887677 -0.024870923
0.19506657 -0.22521134 -0.15824047 -0.29110143 0.2549496 -0.17489085 -0.24205817 -0.44821665
0.1468794 -0.20643635 0.18928365 -0.102876544 0.17430818 -0.48034674 0.248935 -0.04939002
0.18272427 -0.24908848 0.21399982 -0.13598067 -0.20216398 0.33505505 -0.19581404 -0.031595167
-0.3510939 -0.42309418 -0.19267844 -0.15237045 0.19597884 -0.36284825 -0.0003357999 0.27917087
-0.17734876 -0.18833232 0.3425717 -0.19001196 0.033520326 0.18487251 -0.05573525 0.13974904
-0.2425718 -0.38530418 -0.3171249 0.17717734 -0.07931931 0.21410584 -0.422886 0.17288274
-0.47951514 -0.39244008 -0.3906513 0.094786786 -0.5327493 0.07785715 -0.09889912 0.0889086
-0.36465672 0.008202829 0.0819577 -0.047462404 -0.1894391 -0.42515153 -0.24410802 -0.18155384
-0.078379914 -0.42769837 0.17517067 -0.007056698 0.063531585 -0.60159636 -0.456121 -0.21802576
0.08097125 -0.16774511 0.125781 -0.009870507 -0.123384215 0.2845782 -0.26673767 0.1387253
-0.22254162 -0.45988286 0.0055787275 -0.05440774 -0.3464715 0.32923278 -0.5393124 -0.41637188
-0.34078074 0.11043045 0.062021308 0.2194712 -0.12600912 0.17105144 0.113125004 -0.15202849
0.15037456 -0.10857007 -0.315061 -0.32688326 -0.4966173 0.020153394 -0.3443222 0.13844244
-0.076074965 -0.39132863 -0.35331228 -0.23614477 0.16934547 -0.37970343 -0.12303858 -0.38957512
-0.102766424 0.35204446 -0.054212913 0.13426308 0.29524258 -0.48722503 -0.043092355 0.10292986
0.20366235 -0.36668903 0.14372991 -0.5827907 0.20737934 -0.21240461 -0.050692845 0.17135707
-0.15222546 0.20464797 -0.4526623 0.24358961 0.2657727 -0.029463608 -0.42913136 -0.1707055
-0.059027378 -0.47275543 -0.45930797 0.13583618 -0.14435145 -0.42510682 -0.15916821 -0.025812117
-0.2505985 -0.2781664 0.029639458 0.17662191 -0.015003679 -0.33153543 -0.64532006 -0.26461077
00000000: 984a 2abe cf95 acbe 8f90 5abe 9dfb 64be
00000010: e6db 17be fddd 6ebe 8f3a d03d 2e3f 49be
00000020: bdf6 5ebe 4ed6 363e 5121 1d3e 1187 9bbe
00000030: a631 87be 65f2 67be c0b6 203e a522 7b3e
00000040: c8f3 273e d3ce d9bd c840 373e f8c0 9abd
00000050: 1546 a9be f4d7 11bf ea6b d93d f51a 01bf
00000060: bc9f ff3d f13f 34be 46a2 15be 2daa 3c3e
00000070: e0cf 133d 2845 42be fdd7 12bd c1db 6f3d
00000080: da3e debd a947 193e 8e47 0abe a398 50be
00000090: e363 0f3e aac8 56be a602 23bc 469a 53bd
000000a0: 17eb 6fbd 0783 0bbf f75f a6be 8634 1d3e
000000b0: 630d 8b3e 997c f5be 49d7 93be f679 a0be
000000c0: b06e 26be 07a4 9ebe fd5c 92be 0671 33bf
000000d0: c016 be3e cdeb b13d b9f9 e03e 9c19 95be
000000e0: d6f4 d8be bb45 80be 5ec5 52bd 7d43 033d
000000f0: b6ab 20be 1a98 b2bd 30dc c9be 8444 d93b
00000100: ff70 28be 84dc b0bd 9431 51be e18c 61be
00000110: 4267 a2be 359c f6be 5136 4ebe db5b 5dbe
00000120: 90c1 33bd 3fcc 55be 92a4 a1bd 2198 1fbc
00000130: c222 b23d 771c 7f3e 6757 e93d d2d8 d4be
00000140: d844 983e 3351 cdbb 8f3e 20bd 3000 c73b
00000150: 744c a1be 788c 8ebe 987f 49be 162e 04bc
00000160: 38ea e5be ce14 693e 04aa 273c e6b5 10be
00000170: 74fb ecbe 920c 60be 0806 3ebe 3568 183e
00000180: 11aa 8abe 70ac c1be 956a 3bbe 0ae1 ecbe
00000190: b54b 28be 1313 9abe e77f ca3d 1bbe cbbc
000001a0: 88bf 473e cd9d 66be ca09 22be 3f0b 95be
000001b0: c188 823e 9616 33be 19de 77be a77c e5be
000001c0: 8e67 163e 0d64 53be 93d3 413e f0b0 d2bd
000001d0: d87d 323e 02f0 f5be d1e8 7e3e 314d 4abd
000001e0: 121c 3b3e 0d11 7fbe c522 5b3e 843e 0bbe
000001f0: 1304 4fbe 568c ab3e 7a83 48be ef69 01bd
00000200: 94c2 b3be cd9f d8be 7f4d 45be 0007 1cbe
00000210: adae 483e 3fc7 b9be 4d0e b0b9 7cef 8e3e
00000220: ea9a 35be 30da 40be 8f65 af3e 7f92 42be
00000230: 9c4c 093d 384f 3d3e a54a 64bd 5f1a 0f3e
00000240: be64 78be 9746 c5be 325e a2be fa6d 353e
00000250: 2a72 a2bd 903e 5b3e 8484 d8be 2c08 313e
00000260: 0283 f5be e8ed c8be 7203 c8be 931f c23d
00000270: 4262 08bf 9273 9f3d 9f8b cabd b615 b63d
00000280: 49b4 babe 2965 063c 70d9 a73d f067 42bd
00000290: 53fc 41be 76ad d9be 74f7 79be 40e9 39be
000002a0: a685 a0bd 48fb dabe f15f 333e e03b e7bb
000002b0: d91c 823d 3802 1abf b188 e9be 2542 5fbe
000002c0: 41d4 a53d 60c5 2bbe bccc 003e e8b7 21bc
000002d0: ddb0 fcbd 3cb4 913e d791 88be 010e 0e3e
000002e0: f3e1 63be c475 ebbe c2cd b63b a6da 5ebd
000002f0: b664 b1be 3391 a83e 6110 0abf b22e d5be
00000300: d07a aebe 5c29 e23d 0e0a 7e3d 0fbd 603e
00000310: 8908 01be 1c28 2f3e 15ae e73d 5bad 1bbe
00000320: cafb 193e fc59 debd ad4f a1be 3e5d a7be
00000330: 9f44 febe bb18 a53c 004b b0be dbc3 0d3e
00000340: 31cd 9bbd 3a5c c8be 59e5 b4be efcf 71be
00000350: e668 2d3e 7d68 c2be a7fb fbbd 6476 c7be
00000360: 3477 d2bd 2c3f b43e 5c0e 5ebd 437c 093e
00000370: 092a 973e 8f75 f9be 9c81 30bd e4cc d23d
00000380: dd8c 503e aabe bbbe ef2d 133e c531 15bf
00000390: 405b 543e 9880 59be 4da3 4fbd 3a78 2f3e
000003a0: fee0 1bbe 3d8f 513e 5ac3 e7be 8e6f 793e
000003b0: 5c13 883e aa5d f1bc 1bb7 dbbe 6ccd 2ebe
000003c0: b1c6 71bd 000d f2be 6a2a ebbe a418 0b3e
000003d0: ded0 13be 9aa7 d9be fefc 22be ef73 d3bc
000003e0: 724e 80be d46b 8ebe 73ce f23c 60dc 343e
000003f0: fed1 75bc 03bf a9be b233 25bf 107b 87be

dense2.dense.bias f4 [15]
0.49527776 0.43099275 0.42030984 1.9187765 0.4032956 0.3643759 2.5428448 0.41288403
0.5416273 0.4300737 0.4604367 0.8038734 0.45419195 0.038514063 -13.2811985
00000000: 0c95 fd3e 15ab dc3e da32 d73e 789a f53f
00000010: c37c ce3e 7a8f ba3e f8bd 2240 8965 d33e
00000020: 16a8 0a3f 9f32 dc3e 5cbe eb3e a6ca 4d3f
00000030: d98b e83e ecc0 1d3d ca7f 54c1

dense2.batch_norm1.weight f4 [15]
4.5091457 4.9274716 3.8382058 5.79535 3.9414058 3.7546606 6.153984 4.077325
4.735637 4.0675073 4.350237 5.158425 4.347165 0.5894627 14.39378
00000000: ec4a 9040 d9ad 9d40 2aa5 7540 8273 b940
00000010: fe3f 7c40 5c4c 7040 70ed c440 7279 8240
00000020: 578a 9740 0529 8240 2435 8b40 d111 a540
00000030: fa1b 8b40 07e7 163f ec4c 6641

dense2.batch_norm1.bias f4 [15]
-2.8804495 -3.254618 -2.6285176 -2.6124105 -2.4445646 -2.2758815 -2.393991 -2.756829
-2.7067497 -2.3499796 -2.5148041 -2.6726518 -2.6683626 -0.5651903 5.4106812
00000000: 4959 38c0 a94b 50c0 a239 28c0 bc31 27c0
00000010: bf73 1cc0 0ba8 11c0 2637 19c0 e36f 30c0
00000020: 633b 2dc0 1166 16c0 8df2 20c0 ba0c 2bc0
00000030: 74c6 2ac0 50b0 10bf 4d24 ad40

dense2.batch_norm1.running_mean f4 [15]
0.2654323 0.22985052 0.1782823 1.6677142 0.16979006 0.15255982 2.3621712 0.1756244
0.30747497 0.22854963 0.25105295 0.60612106 0.24719746 -0.076055616 -13.474077
00000000: bee6 873e ef5d 6b3e a38f 363e a977 d53f
00000010: 72dd 2d3e a438 1c3e d02d 1740 e2d6 333e
00000020: 5c6d 9d3e ea08 6a3e 038a 803e c02a 1b3f
00000030: 5521 7d3e 0cc3 9bbd d295 57c1

dense2.batch_norm1.running_var f4 [15]
0.24011059 0.25314045 0.20298053 0.3976663 0.21383587 0.179619 0.3527852 0.25614467
0.26476163 0.18418278 0.20995004 0.29620895 0.22095719 0.2502317 0.68858063
00000000: 8ddf 753e a09b 813e 21da 4f3e eb9a cb3e
00000010: caf7 5a3e 0bee 373e 43a0 b43e 6525 833e
00000020: d68e 873e 699a 3c3e 25fd 563e b3a8 973e
00000030: 9a42 623e 5f1e 803e d246 303f
