classification/model_rnafm/13_final/120Epoch/rna_type_checkpoint_fold_8.pt (torch, 252002 bytes, 24 tensors)

layer1.conv1.weight f4 [30, 30, 5]
00000000: 9102 c33e 0190 fb3e 7331 993f 53ce d13e
00000010: 44b6 5f3e 12fa 3cbd c581 0abc e027 28be
00000020: 25be 9ebe b686 e3be 63bf 533d d764 c9bd
00000030: 7c38 b03e 91d1 48bf d09e 13bf 1770 cbbd
00000040: 2594 d2be db8f afbd 848d ba3d 5a64 083d
00000050: 7993 113e e026 a5ba c32f 743e a108 fb3a
00000060: 68e7 c43e fe8c 273f a323 06bf 1774 d6be
00000070: 6935 29bf 4cae 20be 3805 093e 06dc febe
00000080: 6af7 8b3d 20dd c0be 03e5 6ebe 93b7 c73e
00000090: d6f5 b9bd 25bc 6d3e 2cfd 2e3e 1f83 04be
000000a0: 62e7 6abd 120f a23e 0e2a 8a3d cd3d 123d
000000b0: c696 74be 851f 81bd 8931 6fbe 4823 a93d
000000c0: 5ccf 893e 6011 963d 990f a5be 9cad 26bc
000000d0: 09d9 763e 7cd0 933e 017d 4dbe 9a39 5dbd
000000e0: 52fd d63d 4514 633e 186e a13e 5242 5c3e
000000f0: 6d3c 473e 840d debd 6be0 8fbe 67c2 013e
00000100: 41cc 0d3e 2ce4 12be 85dc f1bd 4bc8 32be
00000110: fe75 4a3e efdc f63d 5f72 f23d f6db 3b3e
00000120: 753f 203c a25f 923e 0df5 2dbe f4fb f5bb
00000130: b36e 693e 6261 253e 0d2f c23e 7a98 1cbe
00000140: 137f 0ebe efdd ba3e 043c 0dbe 5fe8 153f
00000150: cc7d 8b3a 1cbf 4e3e 223a 953d 85b1 a3be
00000160: 91cf d13e f248 04be 9f0b 593d 8d85 023d
00000170: fed9 0a3e 7443 d63d 966b 54be b94a 123d
00000180: 1df6 3e3e 1e21 6e3e ad17 24bd 3fc3 c3be
00000190: 7364 e1bc 05f4 d23d 64dd f63d b1c7 52be
000001a0: a427 e5be 44cd 3bbd f3d2 0ebe 285d 43be
000001b0: c629 44be 803c a6be bdf0 11be d21b d2be
000001c0: 012d cabd 26ca a3bd 1cec e7bd 82fe 2b3e
000001d0: e099 0bbe f361 c0bd fb66 89bd 8628 c53d
000001e0: b653 cd3d b20a ce3b 6011 21be bd65 9b3c
000001f0: d341 9a3d f513 bb3d bd1b abbd 8baf 17be
00000200: 2486 70bd fd3b ca3d 5e24 eb3d ec90 9abc
00000210: 21c2 873c 192f 983d ccea 433e 3739 f23c
00000220: f577 e0bd 44ac 4f3d 6826 b93d 541a 4abc
00000230: 2466 acbc 2984 163e bce3 a1bd a60f e13d
00000240: dda7 93be 41fc 593e fd82 60be 69bf 87be
00000250: 8c43 3d3e d5b2 d5bc 3ac7 fbbd 60ca 463f
00000260: 8c9e f9bc 3262 213f 7d4d 6e3f f884 0bbf
00000270: ee3e 43be a64d 293e ce76 8d3e a4de 363e
00000280: 7454 81bf 0d94 1b3f c7b2 30be c6ad 86be
00000290: f11b 63be 2c3f 4fbe b1f5 cabe 6d12 70be
000002a0: 0a13 8c3e 17ec 8f3d 865c a4be 4740 87bf
000002b0: b7f5 a33d 8a98 5fbc 6c78 023e 99b1 bd3d
000002c0: 6eb8 44bf 0860 95be 32c1 c93b ef2a 0dbf
000002d0: e85b cdbe 5fc5 9e3a 8594 9fbe 5a25 05be
000002e0: d843 193d eefe 76be 49f4 c6be f454 2c3e
000002f0: f4e4 2abe ade4 fd3d 2d0d b3bd 52dc 7bbd
00000300: 1fb1 f93d ad9f 32bb 2ed6 f53e dc5b d3bd
00000310: f40d 84bd 01a1 793e 5c67 333d 59a3 b43e
00000320: 2240 fbbd e008 8fbd 986e 823e b30a 8bbd
00000330: a08e 633b 035b 3c3c f097 88bd 33a7 aa3d
00000340: b28d b33d 570f 403d c934 c33e 6b44 e13d
00000350: f3d5 76be 1dd1 463e be6e 88bd 2abc cf3e
00000360: 4ca8 313d 3398 9bbd 9409 a33d 0b65 d0bd
00000370: 8aa8 bd3d d99b 57bd d6bf d03d 7dee 7c3e
00000380: fd0e 2abe 7025 5f3e c52c df3d 6f8b bfbd
00000390: b975 3a3d 7e84 9f3d bb9f d63d a60c b73d
000003a0: 84fb a53d 845c d03b dabd 58be c729 103e
000003b0: af1f 81bd 2f2c 38be 4595 133e 48b4 ebbc
000003c0: ebf7 883e 11fa 313e 482f 823e 3b46 373e
000003d0: 1e3b 073e c28e 0c3d 71ac 933e dae9 123e
000003e0: 132d c2bd 6225 0d3d c0e5 8abd 4124 843e
000003f0: bd5a c0bd a881 dfbc cf76 a13d d2a9 b9bc
0.38087896 0.49133304 1.1968216 0.40977725 0.21846873 -0.046136923 -0.008453791 -0.16421461
-0.31004444 -0.44438714 0.051696192 -0.09833687 0.34418094 -0.7844477 -0.57664204 -0.09933489
-0.4112865 -0.0857236 0.09109023 0.033298828 0.14216413 -0.0012600087 0.23846345 0.0019152352
0.384578 0.6544951 -0.5239813 -0.41885445 -0.6609712 -0.15691489 0.13380897 -0.4977724
0.068343 -0.37668705 -0.23329549 0.39007244 -0.090800926 0.23216303 0.17088765 -0.12940644
-0.05734957 0.31652123 0.067463025 0.03570347 -0.2388564 -0.0630484 -0.2335874 0.082586825
0.26916015 0.07327533 -0.32238463 -0.010173228 0.2410623 0.28869998 -0.20067216 -0.05401001
0.10497536 0.22175701 0.31529307 0.21509674 0.19456644 -0.10842422 -0.28100905 0.12671815
0.13847448 -0.14344853 -0.11809639 -0.17459218 0.19771573 0.120538585 0.11838221 0.18345627
0.009780754 0.28588587 -0.1698801 -0.007506842 0.22796135 0.1615043 0.37926522 -0.1529254
-0.13915662 0.36497447 -0.13792425 0.58557695 0.0010642349 0.2019009 0.072864786 -0.31971374
0.40978673 -0.12918451 0.0529896 0.031865645 0.1355972 0.104620844 -0.20744166 0.035715792
0.18648572 0.2325482 -0.04006164 -0.38234898 -0.027513718 0.10300449 0.12053946 -0.20583989
-0.44756806 -0.045850053 -0.13947658 -0.19078505 -0.1915656 -0.32468033 -0.1425199 -0.4103685
-0.09871865 -0.07997541 -0.11324331 0.16796306 -0.13632917 -0.09393682 -0.06709095 0.0962687
0.10025732 0.006287896 -0.15729284 0.018969411 0.07532086 0.09134666 -0.083549 -0.14813058
-0.058721676 0.09874723 0.11481546 -0.018867932 0.01657206 0.07430858 0.19132537 0.029568298
-0.1096038 0.050701395 0.090405285 -0.012335379 -0.021044798 0.14698853 -0.07904765 0.10989313
-0.28839007 0.21287633 -0.21924968 -0.26513222 0.18482798 -0.02608625 -0.12293859 0.7765255
-0.030471109 0.6304046 0.9308699 -0.5449977 -0.19066975 0.16533527 0.27629703 0.17858368
-1.0103898 0.6077278 -0.17255698 -0.26304454 -0.22178628 -0.20238942 -0.39640573 -0.23444529
0.27358276 0.070274524 -0.3210184 -1.0566491 0.08005851 -0.013647208 0.1274125 0.0926239
-0.7684392 -0.2917483 0.006157064 -0.55143636 -0.4010918 0.0012113265 -0.31168 -0.1300253
0.037418216 -0.24120685 -0.3885825 0.16829282 -0.16688901 0.12397132 -0.087427475 -0.06148941
0.12191986 -0.0027255819 0.4801497 -0.10320255 -0.06447974 0.24377824 0.043799743 0.35280874
-0.12268092 -0.06984115 0.25475 -0.0678915 0.0034722462 0.011496308 -0.06669605 0.08332672
0.087672606 0.04688963 0.3812621 0.10999378 -0.24105053 0.19415708 -0.066617474 0.40573245
0.04337339 -0.07597389 0.07960811 -0.101755224 0.09260662 -0.052638862 0.1019284 0.24700351
-0.1660728 0.21791625 0.10897211 -0.09352767 0.045522425 0.07788943 0.10479685 0.089379594
0.081046134 0.006358685 -0.21166173 0.14078437 -0.06304871 -0.17985605 0.1441241 -0.028772488
0.26751646 0.17380549 0.25426698 0.17897885 0.13206145 0.034315832 0.288425 0.1434702
-0.094812535 0.03445948 -0.067821026 0.2580891 -0.09392307 -0.027283505 0.07883989 -0.022663984

layer1.conv1.bias f4 [30]
00000000: b6fe 133d 8fda 3f3d afe9 6fbd 783e 8a3d
00000010: 4f59 833d acf0 163e 8fc1 563d 236c 39bd
00000020: 1e72 09be 1c17 b9bd aa9e 0b3e 7cfb f2bd
00000030: 8077 66bd b724 773c 79a3 b0bc e744 a63c
00000040: 71a7 803d 078c b43d 29c5 6cbd 16fd 57bd
00000050: f4fc 953d 0fbc afbd df7c 82bd 11c5 073e
00000060: 8598 31bd f219 003e ba8b 0e3d 818a fb3b
00000070: 829a 24be ed32 183e
0.036131583 0.046839293 -0.058572467 0.06750196 0.06413519 0.14740247 0.052430686 -0.045269143
-0.13422439 -0.09037611 0.13634744 -0.11864373 -0.056266308 0.015084437 -0.021562325 0.020296527
0.06281937 0.088157706 -0.057805214 -0.052731596 0.073236376 -0.08580791 -0.063714735 0.13258769
-0.043358345 0.12509897 0.034801222 0.007676423 -0.16074565 0.14863177

layer1.bn1.weight f4 [30]
00000000: c662 873f 185e 943f a51d 333f 53cd 833f
00000010: 09f9 1e3f 6e17 6d3f 767d 2a3f 3792 0b3f
00000020: fe96 4e3f cf02 013f ce29 873f 51eb 5d3f
00000030: cf08 853f dbc0 1c3f 8acf 393f e865 423f
00000040: a7d0 653f 5a38 2b3f 3d9d 673f 1d79 4c3f
00000050: fca9 123f 814c 5d3f c222 383f ef14 513f
00000060: 0ab0 863f 4c83 9d3f 1d88 393f 5b38 503f
00000070: c66c 653f 02f0 373f
1.0577018 1.1591215 0.6996711 1.0297035 0.6209875 0.92613876 0.6659769 0.5451998
0.80699146 0.5039491 1.0559633 0.8668719 1.0393313 0.61231774 0.72582304 0.75936747
0.89771503 0.6688286 0.904743 0.79872304 0.57290626 0.8644486 0.71928036 0.8167257
1.0522473 1.2305694 0.7247332 0.8133599 0.896191 0.718506

layer1.bn1.bias f4 [30]
00000000: 9e6b 3c3e bee6 383e b7c7 fcbc 0daa 083e
00000010: 0897 dc3d e8b5 3b3b f8f5 9b3c 6173 583e
00000020: 4d3d 2e3d 37d4 ad3d 650f 81bd 5eac a93d
00000030: 7f6b 943d a0c0 42bc 769f efbc 4036 3bbe
00000040: 95f5 06bd be45 8d3d f8f1 ffbb c3f9 5d3d
00000050: d2a4 aebe c21f 6bbe eb91 dc3c ca09 adbd
00000060: fb68 c43d 7419 83bd 4214 32bd deb1 5dbc
00000070: f8c5 d03d 4cf8 29bc
0.18400428 0.18056771 -0.03085695 0.13346119 0.107709944 0.002864236 0.019038185 0.21137764
0.04253893 0.084877424 -0.063017644 0.082848296 0.07247066 -0.011886746 -0.029250842 -0.18282413
-0.03294905 0.06898068 -0.0078108273 0.05419327 -0.34110123 -0.22961333 0.026925048 -0.08449133
0.09590336 -0.06401339 -0.04347635 -0.013531176 0.101940095 -0.01037414

layer1.bn1.running_mean f4 [30]
00000000: 215b 2a3d 3132 203d 7d05 96bd 836f 5d3d
00000010: e599 5d3d c5ae 123e 3743 393d 5e5e 62bd
00000020: bb6b 09be 93d6 c1bd ca0b 103e e342 f1bd
00000030: aeef 7dbd 81e0 223c 188a c1bc 2d03 bc3b
00000040: 04af 713d 5939 a13d 087b 74bd 968f 64bd
00000050: ae49 643d 2a9e c3bd 32ec 85bd c52d ed3d
00000060: 9197 3cbd bf35 de3d 1e42 073d adbc 063c
00000070: d109 28be 9e68 163e
0.041590814 0.039110366 -0.073252656 0.054061424 0.054101843 0.14324482 0.045230117 -0.055265777
-0.13420002 -0.09464755 0.14066997 -0.11780336 -0.061996154 0.009941221 -0.023625419 0.0057376833
0.0590048 0.07872266 -0.059687644 -0.055800997 0.05573433 -0.09551652 -0.06539191 0.115809955
-0.046042982 0.10850095 0.03302204 0.008223695 -0.16409995 0.14688346

layer1.bn1.running_var f4 [30]
00000000: f1d1 6f40 a45c 8f40 821c 9e40 ee8d 8040
00000010: df1f 8540 b094 7540 10f3 0140 83ad 8e40
00000020: b8ad 8540 e743 4c3f b4aa 923f 7377 b23f
00000030: b03c 0740 6216 9040 8770 9a3f 6f15 7b40
00000040: 25d2 5340 ad50 7640 0f09 2440 a121 9e3f
00000050: 4e28 da40 c24b 3640 e3e9 b63f ec14 9240
00000060: 8dae b63e ad0d 4e40 a2f8 0640 adf6 a73f
00000070: aa36 1040 30b1 0940
3.7471888 4.4800587 4.94098 4.0173254 4.1601405 3.8372002 2.0304604 4.4586806
4.177456 0.7979111 1.1458344 1.3942703 2.113079 4.5027323 1.2065591 3.9231832
3.3097012 3.848674 2.563053 1.2354013 6.81742 2.848374 1.4290127 4.565054
0.35680047 3.2195847 2.1089253 1.3122154 2.2533364 2.1514397

conv1.weight f4 [30, 30, 5]
00000000: 3abf 343d 5d0c d8bc 1060 36be d240 10bf
00000010: b240 1cbf 853c 7e3e 2d44 6fbe 1f43 efbe
00000020: 4a23 31be a486 30be 2714 b2bd 4206 44be
00000030: d703 4fbd 0ef2 95bd e271 a93c 8798 723e
00000040: 469b b2be c6fa 04bf 7134 c13e 477b a63e
00000050: a877 c73d b2b9 fb3e 365e 56be 2449 383c
00000060: 73dc 863d 1b30 a1bd 413f c5be 104c d4be
00000070: 1334 e9bd dae1 163e 3f19 ddbc 76b8 13bf
00000080: 4af0 eb3c 68c3 8f3e aef6 893e ad44 aabd
00000090: b0d9 c43d 8f0c 5ebe a97e 86bd 2515 84be
000000a0: 9275 e93e 6121 803e 1748 873e db2a babd
000000b0: ab63 9dbe 3b07 c23c ae2d 6e3c dd6f 793e
000000c0: 64dd 46be 0aa5 10be 5823 c0bd 7c7d 6a3e
000000d0: fa88 f33e 091b 4b3d df81 abbd a575 973e
000000e0: d837 963e e683 c0bd b48b 64bd d302 cf3d
000000f0: 9c18 1b3e bff4 a0be d265 3fbe c773 06be
00000100: 8a20 a1be 3360 86bc 423a d13c d2d2 88be
00000110: c231 093a 8f76 dcbd e8a0 a03c 21ce 863e
00000120: d090 b23e 1231 9e3e b929 13be 2432 c33d
00000130: 0f79 933e bb39 653e b507 183e 6b5b 2d3d
00000140: aa3d 203e 3e2a 40be e8e0 0dbf f6ab 03be
00000150: 7c02 f6bc 6f8f 213e e9ff 933e c062 413e
00000160: 53aa 163e 0802 6b3e 5279 4bbd 57be a9be
00000170: 8aff a7bb 27e6 4bbd 30a1 373e caad 07bd
00000180: 340c e73e f049 bb3d 292d 553e 1717 463e
00000190: 3eaa 9fbe d4a9 1abe c6f0 8cbd 65a5 52be
000001a0: db95 923d 79b3 f13d 602b d63e b6df 1d3c
000001b0: 8b2e 603c d088 523e df5e 5a3e 4a45 553d
000001c0: a5b1 c63d 13fc c8bc 20f4 61be 73af 14bc
000001d0: f6f2 bfbe 5478 243d 018b 163e a169 ab3e
000001e0: 64f5 9ebe 8eda 373e b8b8 173f b55b 74be
000001f0: 5e84 19bd 2f17 37be adcb 6cbe 75db cabe
00000200: df18 f2bd 1033 1bbe 17b0 ce3d 9499 6dbe
00000210: 6c77 f1be 07ab 62be 4b01 043e 090e 8abe
00000220: 67d8 2dbe 0469 533d 5a67 9fbe 1ef4 53bc
00000230: 82d8 1e3e 121f c83c d535 dd3e 70ad 323e
00000240: b052 45be 8cff 063e 4a88 abbd 76e5 a5bd
00000250: d7e1 283e 4a32 ccbe 32c8 043d 3707 c8bc
00000260: 0d1e 32be 3c33 12bf 1d16 22bf 8e2f 983e
00000270: a096 66be d3a9 01bf 94f1 0bbe 815d 20be
00000280: 63b5 07be bd4e 51be 00ec 4dbd b1b1 e3bd
00000290: 5dcd aebc 30f3 5c3e 9552 a3be 8607 06bf
000002a0: bda6 c63e 77d2 ae3e 5068 a53d ee9e de3e
000002b0: d846 4ebe 857f 1abd 15ff 993d 0a43 9abd
000002c0: 2086 c4be aec2 d4be 33ac aabd 2fb0 433e
000002d0: dc7b 0abd f90c 0bbf d696 e63b a474 8f3e
000002e0: a6f0 923e 1a7d 19be 84c6 d33d 3887 8fbe
000002f0: 195b ebbd a69c a9be e211 be3e 3057 8d3e
00000300: 6a2e 823e 3782 88bd cd35 9ebe b3cd c63c
00000310: d42f dbbc 8d04 6b3e 8f99 2abe 759a f6bd
00000320: 5482 f7bd cc02 8c3e 5c9f e33e 7113 433d
00000330: 84b3 9bbd 1377 933e c3ee 823e 11ab 8ebd
00000340: 970b 9fbd de09 c43d 074f 1c3e 64be b1be
00000350: e179 6bbe 6ba6 f5bd ad03 b4be f4b5 823a
00000360: 6802 fb3c 9955 8ebe 6f44 49bd 3262 a7bd
00000370: ca67 69bb a6a5 893e 5477 a73e e8a7 9d3e
00000380: 0765 febd 4ff4 433e 945a 8d3e bde3 5b3e
00000390: af45 103e ce64 6c3d 32b8 323e e595 3ebe
000003a0: 4a4b fdbe af0d e1bd e2af b0bc 1606 183e
000003b0: ed2d 933e 0eb9 493e a660 263e 7f08 7c3e
000003c0: e1e7 cabd 5ce8 b3be 0ebd 58bd 3eb6 9fbd
000003d0: e685 253e 051b 1dbd 44cc fa3e b212 7d3d
000003e0: f169 483e cff9 e73d 5fd7 adbe 0a61 21be
000003f0: cf02 04bd 08e7 83be 13ca 953d 061f 063e
0.04412768 -0.026373083 -0.17810082 -0.5634891 -0.6103622 0.24827774 -0.23365851 -0.46730897
-0.17298618 -0.17238861 -0.0869525 -0.19143012 -0.05054077 -0.07321559 0.020684186 0.23690997
-0.3488409 -0.5194515 0.37735322 0.32515928 0.097396195 0.49165112 -0.20934376 0.011247907
0.06585016 -0.078705035 -0.3852482 -0.4146428 -0.113868855 0.14734593 -0.026989577 -0.5770334
0.028801102 0.2807877 0.26946014 -0.0831388 0.09611833 -0.21684478 -0.06567127 -0.25797382
0.45597512 0.25025466 0.26422188 -0.09090205 -0.30740103 0.023685088 0.014537258 0.24359079
-0.19420391 -0.14125457 -0.09381741 0.22899431 0.47565442 0.04958633 -0.0837438 0.29581943
0.2933948 -0.09400158 -0.055797294 0.101079606 0.15146106 -0.31436726 -0.18691185 -0.13130103
-0.31470138 -0.016403293 0.025540475 -0.26723343 0.000523355 -0.10764801 0.019607976 0.2632914
0.34876108 0.30896813 -0.14371385 0.09531048 0.28803298 0.22385304 0.1484669 0.04232351
0.15648523 -0.18766114 -0.55421305 -0.12858567 -0.030030482 0.15777372 0.2890618 0.18885326
0.14713411 0.22949994 -0.049676247 -0.3315303 -0.005126898 -0.049780037 0.17932582 -0.033124723
0.45126498 0.09144962 0.20818008 0.19344746 -0.31184572 -0.15103847 -0.068818614 -0.20570906
0.07157489 0.1180181 0.41829967 0.009635856 0.013682972 0.20560002 0.21325253 0.052068032
0.09701852 -0.02453426 -0.22065783 -0.0090750335 -0.37490052 0.040153816 0.14701463 0.33479026
-0.31046593 0.17954466 0.59266233 -0.23863108 -0.03747975 -0.17879938 -0.23124571 -0.39620557
-0.1182115 -0.15156198 0.1009218 -0.23203117 -0.47161424 -0.22135554 0.12891118 -0.26963833
-0.16977082 0.051613823 -0.31133538 -0.01293662 0.15512279 0.024428878 0.43205133 0.17448974
-0.19269824 0.13183421 -0.083756045 -0.08100407 0.16492401 -0.39882118 0.032417484 -0.024417503
-0.17394276 -0.5710943 -0.6331499 0.2972378 -0.22518396 -0.50649756 -0.13666373 -0.15660669
-0.13252787 -0.20440193 -0.050273895 -0.11117876 -0.02133816 0.21577144 -0.31898943 -0.5235523
0.38799086 0.34144947 0.08076537 0.4348063 -0.20144212 -0.03771927 0.07519356 -0.07532318
-0.3838358 -0.4155478 -0.08333626 0.19110177 -0.033809528 -0.5431667 0.007037024 0.28018677
0.28699225 -0.14989129 0.10340598 -0.2803285 -0.11491985 -0.33127326 0.37123019 0.2760558
0.25426036 -0.066654615 -0.30900422 0.024268007 -0.026756205 0.22950955 -0.1666014 -0.12041179
-0.12085405 0.27345884 0.4445752 0.047625963 -0.07602599 0.28801784 0.25572786 -0.06966222
-0.077658825 0.095721945 0.15264522 -0.3471557 -0.22995712 -0.11994632 -0.35159054 0.0009972439
0.030640796 -0.2779968 -0.04913753 -0.08173026 -0.0035614842 0.26884192 0.32708228 0.30792165
-0.12421613 0.19136165 0.27608168 0.21473594 0.14089082 0.057713322 0.17453077 -0.18611868
-0.49471503 -0.10988938 -0.021568242 0.14846072 0.28745976 0.19699499 0.16247806 0.24612616
-0.09907509 -0.35138214 -0.05291467 -0.07798432 0.1616436 -0.038355846 0.48983967 0.061785407
0.19571663 0.11326944 -0.33953378 -0.15759674 -0.03222924 -0.257622 0.07313933 0.13097772

conv1.bias f4 [30]
00000000: b335 efbc 64ab c4ba 47ca 2a3d 4de2 553d
00000010: aa45 a4bd 6c4f 43bd 7f76 cabc e861 c63c
00000020: 7ca5 ad3d 2a81 d3bd cfe4 57bd 4a90 09bd
00000030: fcc7 16bd 96b5 c53b 043d b9bd adb1 07bd
00000040: e03d a53d c3be 02bd a00d 99bd 230d d03d
00000050: bafa 68bd a328 bfbb 6754 d5bc c2e1 48bd
00000060: 7b2d 71bd a905 743c 3bac ed3c 4522 afbd
00000070: d816 0fbd 831e b73d
-0.02920041 -0.0015004692 0.041696813 0.05221777 -0.080211 -0.047683164 -0.024714706 0.024216607
0.08478829 -0.103273705 -0.052708443 -0.03358487 -0.036811814 0.0060336096 -0.09044841 -0.03312843
0.08068442 -0.031920206 -0.07473302 0.10158756 -0.056879736 -0.0058337017 -0.026041223 -0.049043424
-0.058881264 0.014893928 0.02901279 -0.08551458 -0.034933895 0.089413665

bn1.weight f4 [30]
00000000: e5f6 9c3f 6883 983f 2221 993f 7dd3 933f
00000010: 2933 903f 7bd1 8a3f 7df0 893f 3c3c 863f
00000020: a67f 823f ea05 833f a911 663f 2c05 653f
00000030: a10b 583f eead 623f feed 4d3f d379 563f
00000040: 12f3 683f 9bff 583f b144 d23f 5fee 453f
00000050: 5706 3e3f 06a8 323f 75c8 2a3f 46e1 403f
00000060: f670 3f3f 9620 1d3f 6b3e 2d3f 37af 2e3f
00000070: 07e4 3e3f 9c63 433f
1.2262846 1.1915102 1.1963236 1.1548916 1.1265613 1.0845178 1.0776516 1.0487132
1.0195205 1.023618 0.898707 0.89461017 0.84392744 0.88546646 0.8044127 0.8377964
0.90995896 0.84765023 1.6427213 0.7731685 0.74228424 0.69787633 0.66712123 0.7534374
0.7478174 0.6137785 0.6767337 0.68236107 0.7456669 0.76323867

bn1.bias f4 [30]
00000000: 76ca 00bd 2d3d d5bc a8f0 8ebc 114e a3bb
00000010: 9bd8 10bb e837 f8b8 cb29 c13c 637e cf3c
00000020: 8e1f 7d3d 83d9 753d e45e b23d c024 e93d
00000030: 1ce5 d13d 7c08 bf3d 8742 ca3d 0e01 d73d
00000040: efe5 a63d 6672 da3d 8b4f 5e3e 491c ff3d
00000050: 3165 193e 645c 1f3e f110 4e3e 6bc9 343e
00000060: 727c 373e df26 423e 4e8f 323e 8ede 3b3e
00000070: b167 293e 758f 2c3e
-0.03144308 -0.026030147 -0.017448738 -0.0049836715 -0.0022101763 -0.00011835975 0.023579499 0.02532882
0.06179767 0.06002189 0.08709505 0.11383963 0.10248777 0.0932779 0.0987597 0.10498248
0.08149325 0.10666351 0.2171003 0.12456567 0.14980008 0.15562588 0.2012365 0.1765496
0.17918566 0.1896014 0.17437479 0.18346617 0.16543461 0.168516

bn1.running_mean f4 [30]
00000000: 9fad 50bf b52b 6bbf 499a 2ebf 309e 2dbf
00000010: 50ee 5bbf 5fd3 6bbf 5d40 35bf d7f2 61bf
00000020: ef51 57bf 21b0 80bf 76c6 6cbf dc3f 26bf
00000030: a3dc 4abf ad7e 33bf a09e 31bf 28ad 29bf
00000040: c775 41bf 3aa6 4abf c636 fb3c 6d84 b1be
00000050: 6396 42bf 8489 10bf 3be3 04bf 497e 97be
00000060: 1f5a 93be 74a0 5abe a9b1 3abe 5a0e 54be
00000070: 2544 b5be 2dca b9be
-0.81514925 -0.91863567 -0.6820417 -0.678195 -0.8591051 -0.921194 -0.70801336 -0.8826117
-0.84109396 -1.005375 -0.9249033 -0.6494119 -0.79242915 -0.70115167 -0.6938267 -0.6627984
-0.7557034 -0.7915989 0.030665766 -0.34671345 -0.7601072 -0.5645983 -0.51909226 -0.29588535
-0.28779694 -0.2135027 -0.18231834 -0.207086 -0.35403553 -0.3628706

bn1.running_var f4 [30]
00000000: d882 a240 f478 9f40 cfe2 9540 9a14 8a40
00000010: cabd 8240 ac24 9640 c7e9 8840 5a1f 9740
00000020: c226 a040 4a59 9c40 ff48 a240 4112 a140
00000030: 7a56 a640 bc25 9440 7704 ba40 1558 ba40
00000040: dd98 e040 d0b8 c140 539a d13f 9c34 ba40
00000050: ace9 9540 e22e a240 c169 ad40 0ecf b040
00000060: 5376 c940 c948 8840 0c62 ad40 7316 b540
00000070: 089b d140 39a4 d040
5.078472 4.983515 4.6839366 4.315015 4.0856676 4.6919765 4.2785373 4.722577
5.004731 4.8858995 5.0714107 5.0334783 5.198056 4.6296062 5.813045 5.823252
7.01866 6.05381 1.6375221 5.818922 4.6847744 5.068223 5.4191594 5.525275
6.295694 4.258885 5.4182186 5.6589904 6.5501747 6.5200467

dense1.dense.weight f4 [96, 512]
00000000: 5bb1 8fbe 3870 99be 83a3 1fbe fabb babe
00000010: 2135 91be a0e1 8d3d 4a47 bcbd 6b6b 9dbe
00000020: efa7 aebe c903 b43d 4eac 453e b347 edbd
00000030: 49d4 11bf 7127 81be 73b9 40be 21a1 35be
00000040: b4e2 1f3e 7c3f 823e 7e11 6c3e 821b ebbe
00000050: 9081 53be 2657 183d 1b18 bc3e 9b88 3b3c
00000060: ae80 29be 7c0a d0bd 2071 10be 4fe3 f13c
00000070: ddd8 833e 2f76 083e e75b 9c3e bc3e 7fbe
00000080: 0c55 723e 1530 543e 2c57 443e e116 163f
00000090: a111 133e 8442 d5bc e9ef 143f 0a90 af3e
000000a0: d559 6dbe 3ebf 3d3e 8376 09be 2841 0ebd
000000b0: 2bb6 123f f619 4c3e a8eb b3be cb15 7fbe
000000c0: 7c07 0a3e 8c76 8f3e 239a a23e 17d7 0bbe
000000d0: c1cf 7d3e cffd 433e b3a4 0c3e 84bd 91bd
000000e0: 2644 38be 1636 ec3d 600c 1fbd a64b 14be
000000f0: 723d 913d 56a6 7fbd 2090 aabd 5beb 1d3d
00000100: 25da c9bd 1448 85bd 9150 5e3e a264 e8be
00000110: 79c5 e73e 9bfb 14be 658d 80bd bb0e 83be
00000120: ee59 d0be b831 01be 7fa9 953d 289b 30be
00000130: 52e5 9d3d 4f24 6e3d 8303 2c3d 7943 ac3d
00000140: 519e 4ebe ce48 7bbe b08b 9b3d 63a0 393e
00000150: 1bb6 193e 743e 68bd 220f 3cbe 8c0e 8cbe
00000160: f9c9 073e 605b 6dbc aef2 05bf 52d8 1abe
00000170: 960a 9f3e 9efa b0bd 1bec 13bf 6b89 3e3e
00000180: 0182 6ebd 7345 d1bd a884 4cbe 6215 2b3f
00000190: b863 cd3e 5b2b 8b3e 32b0 8dbe 3ca8 49bd
000001a0: 4650 b0be 3ae9 113e 1861 a83e 07f2 27be
000001b0: c7cc 44be e5d9 71bc cfd3 733d 0310 bc3d
000001c0: 666a 063e ec3d f73d 44d0 60bd 0266 663e
000001d0: 89b5 b33e 49a3 d73d 5fc5 173d 8a30 863e
000001e0: 41fc 9a3c 7ecc 86be adfc 39be 347c e8be
000001f0: 09b7 47be 802b 0ebf 8a2a 50be bfa5 ec3c
00000200: b432 43be f124 21bc 23d3 cebd 96cb 43be
00000210: d45b 23be 1f26 83bc 7b6e 7ebd 5d63 29be
00000220: af42 3dbe 815e db3e ea20 c13d fc7e 9fbd
00000230: f30c 35bc abf2 36bd 4d1e c83e 5b18 0c3f
00000240: 08a7 c8be 5d94 f33d 072c 053b 8a34 d53e
00000250: 3449 0abe 58a0 ce3d bd42 113d f3f9 183e
00000260: 2eb9 1abf fc8e 62be 691c 3f3d 5a86 8dbd
00000270: 677b d8be bd16 0a3e 601a 0b3e 22e5 043c
00000280: d7c7 2bbe 495f da3e 6bc6 30bd 8ee2 63be
00000290: 3eff 8d3d aaab e43d e925 5abe 3147 57be
000002a0: 8645 0c3e 3350 1b3f b087 e9bc f420 f43e
000002b0: 0921 78bc 238d 17bf 25f6 33bd 330f bebe
000002c0: 54c1 3abe 1fc0 85be 7b32 3abe 5ae7 d7bd
000002d0: 41e8 793d 290c 8abd c495 f33e 3e95 603e
000002e0: fca5 8e3e 1246 b8be 625c 4bbe c8a1 38bd
000002f0: d996 7fbd 941b 3fbe aeac 9c3e 655f adbe
00000300: 57d3 31be 46ed d5bd 5192 c43d 1b89 883d
00000310: 4181 b93e 0b7e a1bc 3815 a5bd b3c8 b5bc
00000320: 6d80 0f3e d694 b5bc 18ba d7bd e50a b1bb
00000330: 0318 923e 5c91 3fbe 1631 2cbe 3b8c 5d3c
00000340: 27fd ab3e 22c6 f13d 4bbe 173c bdee 713b
00000350: f1fa f8be 3189 ff3e 5f7f 813d 2c99 84bd
00000360: 167c 76be ae3a db3d 2077 96be 3521 2bbf
00000370: a636 45bd cf81 9d3e f889 183e bfd7 093d
00000380: 69f0 d0be cc67 10bf cb15 f3be 9aa8 42be
00000390: 74b4 4f3e 09cf b53e c9e4 533e 4243 eebe
000003a0: 4630 6fbe 56f6 7d3e 4e28 8cbd 4c06 013e
000003b0: 48d4 84be 7031 3bbf 79fa 36be 7a86 563f
000003c0: ea96 24be 55f8 e33d 7cea 78be 416b 17be
000003d0: 90dd 333e 643a d9be 9bc9 48be c1c9 343f
000003e0: 5934 0f3d c1d2 a83d dd8e 4b3d 6bcb 7f3e
000003f0: 6da3 d3be 0c7e abbd 294e 183d ae44 2f3d
-0.28065 -0.2996843 -0.15589719 -0.3647154 -0.28360847 0.069278 -0.09193285 -0.30746016
-0.34112498 0.087897845 0.1930401 -0.11585941 -0.56964546 -0.25225404 -0.18820743 -0.17737247
0.15613824 0.2543906 0.23053548 -0.45919424 -0.20654893 0.037192486 0.3673714 0.0114461435
-0.16552994 -0.1015825 -0.14105654 0.029527334 0.2575139 0.13326333 0.30538866 -0.24926275
0.23665255 0.20721467 0.19173878 0.5862866 0.14362194 -0.026032694 0.58178574 0.3428958
-0.231788 0.18529984 -0.13424115 -0.034730107 0.57309216 0.19931778 -0.3514073 -0.24910657
0.13479418 0.28020132 0.31758222 -0.13656269 0.24786283 0.19139789 0.13734703 -0.07116225
-0.17994747 0.115337536 -0.03883016 -0.14481983 0.07091798 -0.06241449 -0.08328271 0.03855453
-0.09856061 -0.065078884 0.21710421 -0.45389277 0.45267847 -0.14549105 -0.06276969 -0.25597176
-0.4069361 -0.12616622 0.073077194 -0.17246687 0.07709755 0.058140095 0.041995537 0.08411307
-0.2017758 -0.24539492 0.07595003 0.18127589 0.15010874 -0.056700185 -0.18365148 -0.27354848
0.1326064 -0.0144871175 -0.52323425 -0.15121582 0.31062764 -0.086415514 -0.57782143 0.18607108
-0.05822945 -0.102183245 -0.1997248 0.668295 0.40115142 0.27181515 -0.2767349 -0.049232706
-0.34436244 0.14249125 0.32886577 -0.1640092 -0.19218741 -0.014761423 0.05952817 0.091827415
0.13126525 0.120723575 -0.054886118 0.2249985 0.35099438 0.10529191 0.037053462 0.26208907
0.018919112 -0.2632789 -0.18162794 -0.4540726 -0.19503416 -0.55535126 -0.20328727 0.028887628
-0.1906231 -0.009835468 -0.10098865 -0.1912063 -0.15952998 -0.016009388 -0.06211708 -0.1654181
-0.18482469 0.42845538 0.09430106 -0.07787892 -0.011050451 -0.04466502 0.39085618 0.54724663
-0.39189935 0.118935324 0.0020320432 0.41641647 -0.13504487 0.10089177 0.035464037 0.14939098
-0.6043881 -0.22124857 0.046657953 -0.06910391 -0.4228165 0.13485236 0.1358428 0.00811127
-0.16775452 0.42650822 -0.043157976 -0.22254393 0.06933449 0.11165555 -0.21303524 -0.21023251
0.13698396 0.6066925 -0.028507084 0.4768139 -0.015144595 -0.5919973 -0.043935914 -0.3712097
-0.18237811 -0.2612314 -0.1818332 -0.10542174 0.06101251 -0.067406006 0.475752 0.21931931
0.2786101 -0.3599096 -0.1985946 -0.04507616 -0.06239972 -0.18662864 0.30600494 -0.33861843
-0.17365776 -0.10445647 0.0959822 0.06666776 0.36231425 -0.019713422 -0.08060688 -0.022190427
0.14013834 -0.022165697 -0.105335414 -0.00540291 0.28533944 -0.18707794 -0.168156 0.013522203
0.33591577 0.11805369 0.009261678 0.003691598 -0.48628953 0.49909356 0.06323122 -0.06474528
-0.24070773 0.10704552 -0.2938776 -0.66847545 -0.04814782 0.307631 0.14896381 0.033653017
-0.40808418 -0.5640838 -0.47477564 -0.19009629 0.20283681 0.35509518 0.20692743 -0.4653569
-0.23358259 0.24801001 -0.06843625 0.12600058 -0.25943208 -0.7312231 -0.17868985 0.83798945
-0.16073194 0.1113135 -0.24308199 -0.14787008 0.17564988 -0.4242736 -0.19608156 0.7062035
0.034962032 0.08243323 0.049696792 0.24979942 -0.4133562 -0.08373651 0.037183914 0.042790107

dense1.dense.bias f4 [96]
00000000: 5885 253e 96ce 643d bb08 693e afb7 013e
00000010: f22e 243e dcdb c83d bb61 073e 4eb0 5d3e
00000020: 0238 0e3e 3399 753e 2746 4d3e e35f 323e
00000030: 0d28 443e d9d2 f13d 47f9 873e 8f43 ff3d
00000040: d13b 6d3e a17f 873e 5eb3 993e 9e07 4bbe
00000050: ff91 0c3e 264c 313e dd18 273e 248e a13e
00000060: 63af 953d 99e7 8e3e 7b88 ab3d da5a 5e3e
00000070: 650f 0f3e f7c3 883d 6ac4 3a3e e86b 663e
00000080: b70e 063e 7ad7 143e a052 f13d ccdd e23b
00000090: 2bfc af3d ab13 033e a52d a7bf 75eb 693e
000000a0: 2832 173e e24e f13d 976a dc3c c134 4b3e
000000b0: e99e 2e3e c28e 463e 1f4c 623e 1666 8b3e
000000c0: 1f99 3b3e 3bd1 093e 380d 873e a1d1 1f3d
000000d0: 8e29 263e 8e0e 8cbb c1d6 5c3e c82d 1c3e
000000e0: 0bbc 473e 7335 103e 2c10 263e 1320 083e
000000f0: 38f5 8a3e eae4 173e 7540 713e 26f8 0c3e
00000100: 5e7d 703e b401 583e 0899 523e 0e59 483d
00000110: 9ab0 6e3d dffe 253e 41c4 f53d 7332 233d
00000120: 53ee 4a3e a1f5 773e 687e 573e e7d8 233e
00000130: 32ad 093c bdc6 ef3d 7f6e ca3d 0e4e 323e
00000140: f862 2c3e f512 263e 592d 973e c81d f03c
00000150: 72b0 3c3e 1c0a 673e 65cc 593e f748 3abe
00000160: 5339 763e 7fa8 823e 1cdf 243e eff0 073d
00000170: c1e8 f53d 1eec 063e 6854 433e 3b4d 1a3e
0.16164148 0.05586108 0.22757237 0.12667726 0.16033533 0.0980756 0.13220875 0.21649286
0.13888553 0.23984222 0.20046292 0.1741939 0.19155903 0.11807794 0.2655737 0.12464058
0.2316735 0.2646456 0.3001966 -0.19827124 0.13727568 0.17314205 0.16318078 0.31553757
0.07308843 0.2791107 0.08375641 0.21714345 0.13970716 0.06678002 0.18238989 0.225021
0.13091551 0.14535323 0.117833376 0.006923413 0.08593019 0.12800471 -1.3060805 0.22843726
0.14765227 0.11782624 0.026906295 0.19844343 0.17052807 0.19390395 0.2209935 0.27226323
0.1832013 0.13458721 0.26377273 0.039018277 0.1622679 -0.004274196 0.21566297 0.15251839
0.19505326 0.1408289 0.16217107 0.13293485 0.27140212 0.14833418 0.23559745 0.13766536
0.23485324 0.210944 0.2056619 0.048913054 0.05827389 0.16210507 0.12000323 0.039843034
0.19817476 0.24214794 0.21044314 0.1600071 0.008403109 0.11707828 0.09884357 0.17412588
0.16834629 0.16218169 0.29526785 0.029311076 0.18426684 0.2256245 0.21269377 -0.18191896
0.24045305 0.25519177 0.16100734 0.033188757 0.12007285 0.13176009 0.19075167 0.15068524

dense1.batch_norm1.weight f4 [96]
00000000: 25f4 4c3f 565e 413f cded 673f 43f7 353f
00000010: 3131 563f eb22 753f 0c02 523f 30e3 723f
00000020: 12fc 7d3f 0404 633f 3132 583f fd7e 513f
00000030: bf39 723f bea0 603f 4e19 653f 8622 633f
00000040: c6d1 663f 88f6 683f 6535 673f f50b 8b3f
00000050: e9f6 5a3f 561d 763f 2675 813f c13e 6a3f
00000060: 752a d93e 6bc8 633f 7181 6b3f 882b 6c3f
00000070: 57a9 303f 9a29 463f 8518 503f 968b 653f
00000080: f2b9 803f 2bb2 733f 5ea5 703f 9209 103f
00000090: 6d3b 213f dac8 5d3f b5a8 8b3f f72b 7d3f
000000a0: ae95 633f ae5e 553f 472f 273f c1a7 6f3f
000000b0: f2a2 4e3f 650c 833f 5643 5f3f ec7c 7e3f
000000c0: eaf9 603f 0429 6b3f dfe3 713f e86c 453f
000000d0: 958e 683f 24b9 033f 2696 703f e8c6 6e3f
000000e0: 4368 743f 4392 7e3f b263 853f b877 453f
000000f0: edad 4a3f 16d4 5a3f 2540 6c3f 25b3 833f
00000100: 8c4c 553f 2f14 753f c0e8 513f caec 463f
00000110: 1ec7 513f fac3 693f fa84 803f ed58 533f
00000120: b278 653f f365 713f 9a13 693f 6af3 333f
00000130: 1599 1c3f ec20 363f 51fa 5c3f d2ea 6a3f
00000140: ac14 553f b0db 663f 9786 463f a3f5 553f
00000150: 99ac 783f 32ec 703f d855 4e3f 1aca 653f
00000160: 4a35 783f 8bb4 4d3f 5f41 693f 4075 093f
00000170: 9716 703f 7418 853f c1bf 5f3f f116 863f
0.80060035 0.7553457 0.9059723 0.71080416 0.8366881 0.95756406 0.82034373 0.9487791
0.99212754 0.88678 0.84451586 0.81834394 0.94619364 0.87745273 0.89491737 0.88724554
0.9016384 0.91001177 0.9031585 1.0863024 0.85533005 0.96138513 1.0113876 0.91502005
0.42415205 0.8897769 0.91994387 0.92253923 0.6900839 0.7740723 0.81287414 0.89666116
1.0056746 0.9519374 0.9400233 0.56264603 0.629813 0.866346 1.091086 0.9889521
0.8890027 0.83347595 0.65306515 0.9361535 0.80717385 1.0238158 0.8721212 0.99409366
0.8788134 0.9185946 0.9448833 0.771193 0.9084256 0.5145438 0.9397911 0.93272257
0.9547159 0.9944193 1.042105 0.771358 0.7917164 0.8547987 0.92285377 1.0289046
0.83319926 0.9573392 0.81995773 0.7770506 0.81944454 0.9131466 1.0040581 0.82557565
0.8963729 0.9429619 0.91045535 0.70293295 0.61171085 0.71143985 0.8631945 0.9176456
0.8323467 0.90178967 0.7754912 0.83577937 0.97138363 0.94110405 0.8059974 0.8976151
0.9695631 0.8035361 0.91115373 0.53694534 0.9378447 1.0398088 0.8740197 1.0475751

dense1.batch_norm1.bias f4 [96]
00000000: 42cc ccbe 7674 15bf 850f 3bbf 0730 a8be
00000010: 55a4 0bbf 35fa 3abf 181c efbe 11b2 1cbf
00000020: 0e77 41bf 4fdc 25bf cb20 ccbe 4157 04bf
00000030: 3857 1dbf 2f14 1abf 1c26 28bf 5a0f 2bbf
00000040: 975d 37bf 2e78 21bf 1c08 31bf 29f2 f7bf
00000050: 364d e4be bec1 45bf 8938 40bf d6ee 1ebf
00000060: 3869 8dbd 0a67 3fbf 2714 17bf 17c0 20bf
00000070: b9ae a6be 0cb6 03bf 81fa 00bf d9e7 1ebf
00000080: 2878 25bf 6a8e 3abf 7070 48bf 36f9 1bbe
00000090: ecee aebe e1dc d9be 708b 0ac0 b056 4bbf
000000a0: 19ae 24bf d30f 00bf 4c8c 80be 98a6 36bf
000000b0: 762c b2be e16d 60bf 65bb 08bf 6252 58bf
000000c0: 6bc2 07bf e20a 14bf 9ca5 27bf bd45 03bf
000000d0: 19c4 1abf 4790 e0be 1e64 36bf 987f 29bf
000000e0: 42a8 27bf 61c2 55bf 8498 4fbf 8176 e3be
000000f0: 47bf 15bf 2686 1dbf 4ab9 36bf d4b7 43bf
00000100: 3a20 11bf 1ea6 3cbf 53a0 05bf 7b34 bebe
00000110: ef54 e1be ddbc 1dbf 2c7b 4bbf 4a7f 15bf
00000120: 0686 12bf 5e46 41bf 9a8f 16bf d325 9dbe
00000130: be25 25be 6491 b4be 1498 1bbf 007c 2abf
00000140: 51cf 14bf 0193 4fbf 8685 fcbe a080 43bf
00000150: a7a7 48bf 2e28 42bf dd19 f7be 6020 97bf
00000160: 4189 47bf 15c6 02bf 9a02 38bf 8db3 1ebf
00000170: 83b5 31bf 9a1a 32bf 1cd5 08bf 5fb4 73bf
-0.39999586 -0.5838083 -0.73070556 -0.32849142 -0.54547626 -0.73038036 -0.4670112 -0.6120921
-0.7557229 -0.6478929 -0.3986877 -0.5169564 -0.6146121 -0.6018705 -0.6568315 -0.668203
-0.7162718 -0.63074005 -0.69153 -1.9370776 -0.44590157 -0.7724875 -0.75086266 -0.62083185
-0.069048345 -0.747666 -0.59015125 -0.62793106 -0.32555178 -0.51449656 -0.5038224 -0.6207252
-0.6463647 -0.72873557 -0.78296566 -0.15231785 -0.34166658 -0.4255133 -2.1647606 -0.7942915
-0.6432815 -0.50024146 -0.25107038 -0.7134795 -0.34799546 -0.8766766 -0.5341094 -0.84500706
-0.53031033 -0.57829106 -0.65487075 -0.5127829 -0.6045547 -0.43860075 -0.71246517 -0.6621032
-0.65491116 -0.83499724 -0.81092095 -0.4442635 -0.5849499 -0.6153282 -0.7137648 -0.76452374
-0.566898 -0.73690975 -0.5219776 -0.37149414 -0.44010112 -0.6161631 -0.7948482 -0.5839735
-0.57235754 -0.75497997 -0.5881287 -0.3069292 -0.16127679 -0.35267174 -0.6077893 -0.6659546
-0.5812884 -0.81083685 -0.4932062 -0.7636814 -0.7838082 -0.7584256 -0.4826192 -1.1806755
-0.7794381 -0.510835 -0.7187897 -0.6199272 -0.6941759 -0.6957184 -0.5345018 -0.951971

dense1.batch_norm1.running_mean f4 [96]
00000000: 95b1 bbbf 3c04 30c0 f6ce 7ac0 bd31 44c0
00000010: 5ae9 08c0 c563 35c0 d6b7 debf b788 29c0
00000020: f55f 2dc0 26fd 31c0 4d80 87bf add0 03c0
00000030: 2fbb 06c0 215f eebf d33c 1ec0 882b f2bf
00000040: 4afe 35c0 b1dd 05c0 95a6 25c0 65a9 72be
00000050: 514e 0cc0 1421 43c0 f2ae f1bf a2ea eebf
00000060: ef9c 32c0 7fa6 45c0 0811 15c0 b3a5 1dc0
00000070: 4c61 bfbf a09e e1bf 5321 f8bf 521b 36c0
00000080: 1ac7 27c0 7e64 40c0 776c 1fc0 f44e b9c0
00000090: a43c 3ec0 710d e5bf 3052 57bf 6864 50c0
000000a0: 5640 0cc0 9e4d 0ac0 a623 56c0 aed6 1ac0
000000b0: f178 bbbf dbb4 14c0 5057 0dc0 a2e8 1dc0
000000c0: 9b3d 42c0 dddc 21c0 ab05 1fc0 4956 0ec0
000000d0: 1cd5 39c0 2658 87bf 5427 04c0 135a 97bf
000000e0: 46a6 11c0 e193 2ec0 e5b6 47c0 3020 95bf
000000f0: a03e 24c0 d643 27c0 2635 f3bf 2dfc f4bf
00000100: 63b3 01c0 c932 38c0 0e0b 30c0 b491 62c0
00000110: 41fc 7cc0 2885 01c0 5019 13c0 b84c 29c0
00000120: 1dfc f6bf 3de8 ddbf 3b3a 0bc0 56a3 13c0
00000130: de4c 99c0 c8c8 69c0 34f1 ffbf cd49 d0bf
00000140: 6bca 05c0 ac03 45c0 f5ed c3bf c5e7 82be
00000150: 0744 24c0 5723 0fc0 47fa b4bf c09f 9e3f
00000160: 150e 24c0 7333 4dc0 b774 21c0 8d28 03c0
00000170: cf00 0dc0 c6f5 28c0 9111 46c0 a032 1cc0
-1.4663569 -2.7502584 -3.918882 -3.0655358 -2.1392426 -2.8342144 -1.7399852 -2.6489694
-2.7089818 -2.781076 -1.0586029 -2.0596116 -2.1051748 -1.8622781 -2.4724624 -1.8919535
-2.8436456 -2.091656 -2.5882924 -0.23697431 -2.19228 -3.048894 -1.8881514 -1.8665354
-2.7908285 -3.088287 -2.3291645 -2.4632385 -1.4951568 -1.7626534 -1.938517 -2.8454175
-2.6215272 -3.0061336 -2.4909952 -5.790888 -2.9724512 -1.7894727 -0.84109783 -3.2561283
-2.1914268 -2.1609874 -3.3459258 -2.419353 -1.4646283 -2.3235385 -2.2084541 -2.4673238
-3.03501 -2.5291054 -2.484721 -2.2240164 -2.9036322 -1.0573776 -2.0649004 -1.1824363
-2.2757735 -2.7277758 -3.120538 -1.1650448 -2.5663223 -2.6135154 -1.9000595 -1.9139458
-2.026574 -2.8780997 -2.7506747 -3.540143 -3.9528964 -2.0237522 -2.29842 -2.6453075
-1.9295689 -1.7336498 -2.175429 -2.3068442 -4.790633 -3.6528797 -1.9995484 -1.6272522
-2.0904796 -3.078349 -1.5306994 -0.2556745 -2.566652 -2.236532 -1.4138879 1.2392502
-2.5633595 -3.2062652 -2.5227487 -2.04935 -2.2031744 -2.6400008 -3.0948222 -2.44059

dense1.batch_norm1.running_var f4 [96]
00000000: a5ab 4140 367a 8840 7d22 8f40 28bb 8e40
00000010: b9d4 8c40 577e bd40 aca8 a240 dfe8 ab40
00000020: 6719 9c40 6fc5 9840 b55d b640 a3e6 a240
00000030: 6351 7740 3aba 7440 2530 7b40 8923 8440
00000040: ca53 9140 4432 8740 2080 7e40 7b86 8040
00000050: 9f12 ad40 6eb7 a740 aec0 8040 1e6a 6140
00000060: 64df 9240 13c8 2f40 f3df a940 852a ab40
00000070: 6ffb 9140 1682 4e40 28a0 3f40 e0cc 8a40
00000080: a397 a840 ee3d 5840 0dd2 8b40 e737 bc41
00000090: 109b 2041 dfb1 c340 bb82 5340 d96f 9940
000000a0: ddbf 8240 59b2 9c40 78dc 9d40 bf11 8a40
000000b0: 5c64 b740 65b0 9f40 2ef2 9b40 f3f7 9240
000000c0: 0bbd a040 8cb1 c640 09eb 8040 2d4d 7e40
000000d0: 1f2c 8240 69be f83f f5fb 4840 877d 9340
000000e0: 8613 ad40 b653 9940 2a7d 8c40 9d7d a840
000000f0: f50f 8f40 f4e6 a940 3e1a 8240 4b47 9a40
00000100: 448b 6840 b4b7 a240 263f 8640 7b76 0441
00000110: ff6c f440 1c27 b240 fbf8 9040 c2af 9640
00000120: d11c 9540 aca2 5840 a052 8c40 fe8e 9940
00000130: e634 af41 b079 d940 0e75 6440 e070 7440
00000140: dd5d 7740 2b59 5c40 5640 3640 b2fd 5240
00000150: 7308 9740 518a 7240 d822 5940 5104 953f
00000160: 0e4f 6440 caed 9940 d802 9940 6c08 ad3f
00000170: d1dd 7f40 4ef0 9a40 b6bd ad40 e46d 8340
3.0261014 4.2649183 4.47296 4.460346 4.400967 5.9216723 5.08309 5.3721766
4.878101 4.774101 5.698939 5.090654 3.8643425 3.8238664 3.9248135 4.129338
4.541478 4.224886 3.9765701 4.016416 5.408523 5.2411413 4.0235205 3.5221019
4.5897694 2.7465866 5.3085876 5.3489404 4.5619426 3.2266898 2.9941502 4.337509
5.2685103 3.37878 4.369391 23.527296 10.037857 6.115463 3.3048542 4.7949033
4.085921 4.896771 4.9331627 4.3146663 5.731001 4.9902825 4.873313 4.5927672
5.0230765 6.209173 4.028691 3.9734604 4.067886 1.9433109 3.1403782 4.609073
5.408633 4.7914686 4.390279 5.2653337 4.470698 5.3094425 4.0657034 4.8212028
3.6335 5.0849247 4.1952085 8.278926 7.638305 5.567274 4.530393 4.708955
4.6597676 3.3849287 4.385086 4.798705 21.90083 6.7961044 3.5696445 3.8193893
3.865104 3.4429424 2.8476768 3.2967343 4.7197814 3.7896922 3.3927517 1.1641942
3.567325 4.810277 4.781597 1.3518195 3.9979136 4.841834 5.429408 4.1071644

dense2.dense.weight f4 [15, 96]
00000000: ae2f 82be 6a66 fabe c19c 22be 8fd3 42be
00000010: 093e 0dbe 56b4 443e e584 0b3c c775 90be
00000020: c9e3 19bf 01ab 8cbe 305a e9be 35b3 e2bc
00000030: 7963 d5be fb6c 6bbe 41de 65bd c108 04bf
00000040: 38e5 41be 786a a4be c164 2fbd 1670 593b
00000050: 7843 c6be 321c 47be b22d 103e a3d7 bebc
00000060: 3d8e a3bc bc23 cc3c 3c49 413e 1fff a4be
00000070: 51be 09bf 71e7 0fbf 93b0 0b3e aa47 debd
00000080: c1fd 6c3e 5e12 673e 79f6 403b fc9f 583e
00000090: 57b9 013e eb28 55be 127f 9e3a 9079 13be
000000a0: 74b2 adbe c3ac d5be f85c 06bb 1605 d3be
000000b0: b4d3 103e 0d3a 843e 76f1 d5be d210 c4be
000000c0: 6180 93be 1d83 7bbe a244 df3d 9085 19bf
000000d0: 9849 04be 5e29 643e df35 5b3e 0057 94bd
000000e0: 0ebb debe 1c72 f9be 8375 f0bd cac2 033e
000000f0: 04f1 4abe a086 16bd 7f23 903e 2027 b1bd
00000100: 4d6b dcbe 9ba2 963e 1ef6 e83d 98b4 d03d
00000110: 2639 903c 998c 13bd 9210 95be 1176 e8be
00000120: 7f08 c23d 84c4 643e 7027 c5be 4447 36be
00000130: 694a e53d 46b3 4bbe 9d89 263e bf8f ad3d
00000140: 8c12 533e a130 b3be d11d 66bd d966 6fba
00000150: c52a 12bf d7ea d1be d56a c53d cb73 e7bd
00000160: 6d11 433e 6e43 a3bd a0af eebd 8539 98be
00000170: a901 46be 5f98 c4bd 92d0 733e 391c 793e
00000180: 3b89 47be c027 a33e 5276 80be 6748 2ebe
00000190: 1bf5 30be 292c 3cbe b537 86be 1e78 743e
000001a0: 459d 6dbe 89b9 44be 04ca 99be 5af6 2cbe
000001b0: 9be4 2b3d d122 4e3d 4493 82be 560a 273e
000001c0: b0de 0abe c8d7 9ebe 57c7 9cbd 13da 8ebc
000001d0: cabf 08be e894 8bbe 9658 233d 0db9 523e
000001e0: 25ba c1bd baa6 573e 4632 abbe 3493 50be
000001f0: 35f6 083e c70d e9be cc0b 1abe c3b0 a73d
00000200: bf49 20be 50f6 89be 8424 edbd a5f2 433e
00000210: d5ba 0dbf d9c6 443e ad2e 56bb 7c8c 7abe
00000220: ed40 12be 959f 463e ae9e b5bb a054 5fbe
00000230: 89b3 0b3e 0a9d afbd 7999 8fbe e0b7 953e
00000240: a628 96be dc40 37be 2cd6 55be 56a7 a43d
00000250: cec6 80bd 81a7 5e3e c442 d53d c278 253e
00000260: f3f1 afbd 6ef9 1abe 22bd 433e 3f8e 573e
00000270: 3590 14be 7aeb abbe 7210 523d cfd4 d1be
00000280: 41ad c43d f3e6 55be 838c 4e3d b6be 03bf
00000290: f73e 123e dec3 05be ca5b 5cbe 719d 14be
000002a0: ee41 8fbe 50b4 38be 01c2 5a3d 37e7 81be
000002b0: de59 423e 50cf b4bd 3bef 1b3e b6dc 98be
000002c0: d7b5 a9be c822 e8bd 777b 17be 5b17 92bf
000002d0: 3c76 74be e845 823d e89f 02be 4d04 01bd
000002e0: 7d78 c53d de04 38be 1730 433e 942c abbe
000002f0: d740 493e 81a7 ccbd 0e7d efbd 4ead 94bc
00000300: b226 bebd 07ad fbbe a83e 66be 713e 4fbe
00000310: 1065 95be 4319 1e3e 46ea 0bbe b221 5ebe
00000320: fa6a 0dbf 12f8 03bd 182f 63be a8ad d53d
00000330: 7afc 06bf 0503 023e b9fd 03be c28c e73d
00000340: 4121 71be 6be0 7e3e abce f1be c83e b2bd
00000350: 8901 06be e301 87be 982a 1dbf bbb6 d4bd
00000360: 234d 54bd 9a45 273e 2343 433e f2d0 2c3e
00000370: 149d 07bf 0dfb adbd bcd3 ccbe c521 69be
00000380: be9e 55be 6f00 b5be 37ad cdbe 64ce b0be
00000390: fedd f53d 13d3 8a3e 0101 74bd 76fb 8e3e
000003a0: 61da 363e 4713 babe 8081 0fbc aa2d bcbd
000003b0: 8409 55be 5943 fabd 3be6 88be d8b9 67be
000003c0: 3104 4abe ec62 d83d c625 78be 7cc3 bf3d
000003d0: df5b 883e e174 01be 1a0c 09bf 2e2a 69be
000003e0: f968 433e 566e b13e 25b6 743e 2ef6 883d
000003f0: d485 cc3c e6aa f7bd 528e 90be 306b 1cbf
-0.25427002 -0.4890626 -0.1588011 -0.19026016 -0.13793196 0.19209418 0.008515571 -0.28214857
-0.601132 -0.27474216 -0.4557662 -0.027673343 -0.41677454 -0.22990791 -0.05612016 -0.5157586
-0.18935096 -0.3211248 -0.042820696 0.003317838 -0.3872335 -0.1944435 0.14079931 -0.023296183
-0.019965285 0.024919383 0.18875593 -0.32225892 -0.53806025 -0.56212527 0.13641576 -0.108535126
0.23143674 0.225656 0.0029443784 0.21154779 0.12668358 -0.2081639 0.0012092313 -0.14401841
-0.3392521 -0.4173337 -0.002050219 -0.41214818 0.14143258 0.2582554 -0.41785783 -0.38294083
-0.28808883 -0.24561734 0.109017625 -0.59969425 -0.12918699 0.22281405 0.21407269 -0.072431564
-0.43502086 -0.4871987 -0.117411636 0.12867275 -0.19818503 -0.036749482 0.2815208 -0.086500406
-0.43050614 0.29420933 0.11375068 0.101906955 0.017605375 -0.036022756 -0.29114205 -0.45402578
0.09474277 0.2234059 -0.3850665 -0.17800623 0.11195833 -0.19892606 0.16263433 0.08474683
0.20612544 -0.34998038 -0.05618078 -0.0009132452 -0.5709651 -0.4099948 0.09639517 -0.11301383
0.19049616 -0.079718456 -0.116545916 -0.29731384 -0.19336571 -0.09599375 0.23810032 0.24327172
-0.19485943 0.31866264 -0.2509027 -0.17019807 -0.17281 -0.18376221 -0.26214376 0.23873946
-0.23204525 -0.19211401 -0.30036938 -0.1689085 0.041966062 0.050326172 -0.2550298 0.16312537
-0.13561511 -0.31024003 -0.076552086 -0.01743797 -0.13354412 -0.27262044 0.039879404 0.20578404
-0.094593324 0.21059695 -0.33436793 -0.20368654 0.1337517 -0.45518324 -0.15043563 0.081880115
-0.15653132 -0.26945734 -0.115792304 0.1913553 -0.5536321 0.1921648 -0.003268163 -0.24467653
-0.1428258 0.19396813 -0.0055425977 -0.21809626 0.13642706 -0.08574875 -0.28046778 0.29241848
-0.29327887 -0.17895836 -0.20882481 0.08039729 -0.06287919 0.21743585 0.10413125 0.16159347
-0.0859107 -0.15134212 0.19115117 0.21050356 -0.14508136 -0.33578092 0.051285215 -0.40982673
0.09603358 -0.20888881 0.05042697 -0.51462877 0.14281832 -0.13062999 -0.2151939 -0.14513184
-0.27979988 -0.18037534 0.053407673 -0.25371715 0.18979594 -0.08828604 0.15227978 -0.2985589
-0.33146545 -0.11334759 -0.14793192 -1.1413378 -0.23873228 0.0636099 -0.12756312 -0.031498242
0.09642122 -0.17970607 0.19061314 -0.33432448 0.1965364 -0.09992886 -0.11693774 -0.018149044
-0.09284724 -0.49155447 -0.22484839 -0.20238663 -0.29178667 0.15439324 -0.13663587 -0.21692541
-0.5524136 -0.032219 -0.22185934 0.10433513 -0.52729 0.12696464 -0.12889756 0.11306144
-0.23547842 0.24890296 -0.47227988 -0.08703381 -0.13086523 -0.26368627 -0.6139312 -0.103864156
-0.051831376 0.16335145 0.1906858 0.16876581 -0.5297406 -0.0849515 -0.4000529 -0.22766788
-0.20861337 -0.35351893 -0.40171215 -0.34532464 0.12005232 0.27114162 -0.05957127 0.27926224
0.17856742 -0.36342832 -0.008758903 -0.09188397 -0.20804411 -0.12219877 -0.26738152 -0.22629488
-0.19728161 0.10565743 -0.2423316 0.093634576 0.26632592 -0.12642242 -0.5353409 -0.22769997
0.19083013 0.34654492 0.23897608 0.0668758 0.024966158 -0.12093143 -0.28233582 -0.61101055

dense2.dense.bias f4 [15]
00000000: 855e d83e 9f48 763f 29f5 9d3e 0c1e fc3f
00000010: b468 ad3e 5af9 963e 60d4 3540 3ace bf3e
00000020: fd20 e33e 10a8 ac3e ee61 cf3e 6be7 373f
00000030: 04ef eb3e 7acd 70bc 50cb 4ac1
0.42259613 0.9620456 0.30851105 1.969667 0.33868945 0.29487115 2.8410873 0.37462026
0.44361106 0.33721972 0.40504402 0.7183749 0.46080792 -0.014697427 -12.674637

dense2.batch_norm1.weight f4 [15]
00000000: ae16 9140 3703 ab40 4f07 6d40 b3da b540
00000010: 4130 7b40 053b 6d40 1135 c340 a0ba 8840
00000020: 33ff 9040 5cae 8040 87e9 8840 2b02 a040
00000030: 00f1 8c40 2a51 d73e 1f14 5f41
4.5340185 5.3441424 3.703571 5.6829467 3.9248202 3.7067273 6.100228 4.2727814
4.5311522 4.021284 4.2785068 5.0002646 4.404419 0.4205411 13.942412

dense2.batch_norm1.bias f4 [15]
00000000: a29e 38c0 b985 3fc0 ba07 24c0 6663 20c0
00000010: 87c4 1bc0 eaa8 0fc0 5f78 13c0 3201 35c0
00000020: 62a1 27c0 6786 14c0 1655 22c0 0ff6 2ac0
00000030: de06 33c0 8fc6 22bf cb3b a340
-2.8846822 -2.9925368 -2.5629716 -2.5060668 -2.43387 -2.2446847 -2.3042219 -2.828198
-2.619225 -2.3207033 -2.5364432 -2.6712682 -2.7972941 -0.63584226 5.101049

dense2.batch_norm1.running_mean f4 [15]
00000000: df16 413e 40da 403f d457 153d 3933 e53f
00000010: 627c e43d 4477 cf3d 0e13 2a40 2fb0 043e
00000020: 352b 843e e9d8 253e 6fe6 513e ed95 f73e
00000030: b8a0 653e 58b4 4dbe d4f7 4ec1
0.18856381 0.75333023 0.036460713 1.7906257 0.11156537 0.1013017 2.657413 0.12957834
0.25814214 0.16196026 0.2049806 0.48356572 0.2242459 -0.20088327 -12.935505

dense2.batch_norm1.running_var f4 [15]
00000000: 7034 803e 2e84 b13e 5b38 723e 590f ac3e
00000010: 13ff 4f3e 17aa 1e3e c228 c03e c6e6 6e3e
00000020: 3622 563e 3444 223e 603c 403e b3f0 993e
00000030: 6656 6c3e 656c 143e 365b 423f
0.25040007 0.34671158 0.2365431 0.3360546 0.20312147 0.15494572 0.37531096 0.2333022
0.20911488 0.1584633 0.18773031 0.3006645 0.23079833 0.14494474 0.75920427
