classification/model_rnafm/13_final/120Epoch/rna_type_checkpoint_fold_5.pt (torch, 252002 bytes, 24 tensors)

layer1.conv1.weight f4 [30, 30, 5]
-0.12869658 0.64913887 0.26164818 -0.1297695 -0.091742225 -0.21073203 -0.13567908 -0.3352976
-0.63577956 -0.51345855 0.3228066 -0.1708179 0.11053043 -0.21897578 -0.03179382 0.11909033
0.010739644 0.10093822 -0.061117593 0.6813417 0.22902651 -0.14653893 0.5171845 0.460818
0.29041696 0.13818797 0.20529237 -0.61413807 0.8767927 0.00564587 -0.049878646 -0.515646
-0.92993766 0.40795282 -0.30869454 0.14823484 -0.017414164 -0.6491649 0.276471 -0.263472
0.44733384 0.17723048 0.052884534 -0.052943062 -0.56020826 -0.23270096 0.33189803 -0.08292172
0.10179911 -0.5862036 -0.17584155 0.080724426 -0.17933524 -0.14637825 -0.3466627 0.032866944
0.2633382 -0.19005802 0.5143907 -0.17180078 -0.014154763 -0.047633227 -0.2588333 0.40256926
-0.007849394 -0.0028341943 -0.042918604 -0.045788437 0.035968598 -0.05980589 -0.26606703 0.16877885
0.13763066 -0.14114052 -0.19899607 0.25258198 -0.03957126 -0.014870717 -0.24464299 -0.16011965
0.009431416 0.11168339 0.07879362 -0.104274906 0.10661737 0.11867503 -0.0077018305 -0.23932327
0.114724085 -0.20165913 0.092781544 -0.1999725 -0.36853978 0.16670118 -0.016907606 0.005722715
-0.04583617 -0.19341956 0.15034522 0.08310587 -0.0742864 0.055964157 0.0059857843 0.09379933
-0.19104514 -0.24922095 0.18131803 -0.10920942 0.01887614 -0.2762529 -0.15207934 0.3462874
-0.02292022 -0.09070147 -0.36248362 0.039793413 0.24703984 0.085940294 0.0262331 -0.1593123
-0.114391014 -0.047977403 0.041946102 0.22863129 0.19848625 -0.10451703 -0.1541599 0.062374365
0.18518548 -0.010895505 -0.12973434 0.0799854 0.1533413 0.04078945 0.027075004 -0.08171638
0.013299635 -0.0023420646 0.029543221 0.06397398 0.094336905 -0.07542808 0.06729386 0.15821964
-0.0026226998 0.15272039 -0.26594678 -0.24323091 0.18442412 -0.047331654 -1.1827819 -1.1881452
-0.036404695 -0.32192332 -0.6215021 0.22973959 0.39778757 0.6911117 0.37528935 0.5218313
0.4896651 -0.12450478 0.12373832 0.6256057 0.3911128 0.04154059 0.33790442 0.02892963
-0.26752865 -0.097846545 -0.0016326202 0.15694848 -0.2406311 -0.1364569 -0.52863145 -0.039708294
-0.20816731 -0.496378 0.10659848 -0.20424195 0.2575378 0.0040113665 -0.35702956 -0.15305842
0.31300905 0.076913096 -0.035311315 -0.2029487 -0.06003152 -0.060307987 -0.16910844 0.090554066
-0.01999031 0.21585257 0.4088205 -0.29949453 -0.23655097 -0.17780454 -0.2597807 -0.08132255
0.10571482 -0.23692916 0.14366232 -0.16123706 0.08639695 -0.038795028 -0.05095574 0.079425074
0.06619903 0.02585464 -0.29904106 0.1313884 0.16616328 0.08110154 -0.32246208 -0.06605656
0.13102126 -0.1470737 -0.0034443492 -0.15067159 -0.23174609 0.10825042 0.05028017 -0.0016346155
-0.05419706 0.090289876 0.11462859 0.003282959 -0.13022575 0.13453919 -0.18808721 -0.04969672
0.01671387 -0.118756846 0.19655639 -0.011645572 0.016758002 -0.16799855 -0.27349994 0.10722558
0.03339221 0.13556395 -0.050202195 0.0045099123 -0.21947393 -0.20638265 -0.18464045 -0.051967032
-0.0030038643 -0.033247028 -0.12624212 -0.09415215 0.24358606 0.12650405 0.15882142 -0.27893358
00000000: 09c9 03be f72d 263f c0f6 853e 4ce2 04be
00000010: 59e3 bbbd 23ca 57be 75ef 0abe 21ac abbe
00000020: 73c2 22bf 0572 03bf e846 a53e e3ea 2ebe
00000030: c75d e23d 303b 60be 3d3a 02bd a2e5 f33d
00000040: 55f5 2f3c b3b8 ce3d 7156 7abd 696c 2e3f
00000050: ed85 6a3e 4d0e 16be 3466 043f 56f0 eb3e
00000060: 88b1 943e 2681 0d3e 2a38 523e 2738 1dbf
00000070: 7d75 603f fe00 b93b 8d4d 4cbd 6001 04bf
00000080: 6510 6ebf 31df d03e 360d 9ebe e0ca 173e
00000090: 26a8 8ebc ac2f 26bf 9b8d 8d3e cde5 86be
000000a0: f108 e53e e87b 353e 749d 583d d3da 58bd
000000b0: cf69 0fbf 2949 6ebe 8aee a93e ddd2 a9bd
000000c0: 0d7c d03d 7011 16bf cf0f 34be d952 a53d
000000d0: a8a3 37be 2ee4 15be c67d b1be 7d9f 063d
000000e0: 44d4 863e 929e 42be 1caf 033f 8bec 2fbe
000000f0: 61e9 67bc 0f1b 43bd cc85 84be 8f1d ce3e
00000100: bf9a 00bc e4bd 39bb 6bcb 2fbd a88c 3bbd
00000110: cf53 133d 05f7 74bd f039 88be 5dd4 2c3e
00000120: 0def 0c3e 2487 10be a0c5 4bbe 6d52 813e
00000130: 7915 22bd 4fa4 73bc b183 7abe 68f6 23be
00000140: 3a86 1a3c 43ba e43d 8d5e a13d 158e d5bd
00000150: 355a da3d e50b f33d a35f fcbb 2911 75be
00000160: 76f4 ea3d bb7f 4ebe 4004 be3d 97c5 4cbe
00000170: 3fb1 bcbe b7b3 2a3e d281 8abc 9d85 bb3b
00000180: b5be 3bbd c70f 46be 19f4 193e 6933 aa3d
00000190: 7823 98bd ac3a 653d 6624 c43b dd19 c03d
000001a0: 56a1 43be c733 7fbe 6fab 393e 30a9 dfbd
000001b0: 22a2 9a3c 0571 8dbe b0ba 1bbe 954c b13e
000001c0: 2fc3 bbbc b1c1 b9bd 7497 b9be 6bfe 223d
000001d0: 03f8 7c3e 7701 b03d cce6 d63c c322 23be
000001e0: d645 eabd f483 44bd adcf 2b3d 521e 6a3e
000001f0: fb3f 4b3e 060d d6bd 18dc 1dbe 437c 7f3d
00000200: 43a1 3d3e 0f83 32bc 14d9 04be 63cf a33d
00000210: 8005 1d3e d712 273d 66cc dd3c eb5a a7bd
00000220: b6e6 593c 537d 19bb a004 f23c ca04 833d
00000230: b533 c13d 0a7a 9abd 5dd1 893d 5404 223e
00000240: 9ae1 2bbb bc62 1c3e 2d2a 88be 8611 79be
00000250: add9 3c3e d6de 41bd 6665 97bf 2415 98bf
00000260: 171d 15bd 22d3 a4be c31a 1fbf db40 6b3e
00000270: d0aa cb3e b2ec 303f ed25 c03e bc96 053f
00000280: 62b5 fa3e 5dfc febd 846a fd3d b227 203f
00000290: f03f c83e 7726 2a3d cf01 ad3e d5fd ec3c
000002a0: 84f9 88be c563 c8bd a5fd d5ba 1ab7 203e
000002b0: 0068 76be 5cbb 0bbe 6454 07bf 2aa5 22bd
000002c0: d029 55be 4225 febe 4e50 da3d cd24 51be
000002d0: ffdb 833e c871 833b 94cc b6be 59bb 1cbe
000002e0: b942 a03e 9d84 9d3d 99a2 10bd c9d1 4fbe
000002f0: 9ce3 75bd 8205 77bd c32a 2dbe 6974 b93d
00000300: b8c2 a3bc 7508 5d3e ec50 d13e 5957 99be
00000310: 6b3a 72be 6512 36be fa01 85be 708c a6bd
00000320: 0381 d83d 8f9d 72be 371c 133e 541b 25be
00000330: e2f0 b03d 89e7 1ebd f7b6 50bd 9da9 a23d
00000340: 5b93 873d 1ccd d33c e91b 99be ae8a 063e
00000350: b526 2a3e 9018 a63d c019 a5be a948 87bd
00000360: 702a 063e 7d9a 16be 97ba 61bb a749 1abe
00000370: d94e 6dbe 65b2 dd3d 94f2 4d3d 9840 d6ba
00000380: bdfd 5dbd e6e9 b83d 65c2 ea3d ea26 573b
00000390: e659 05be a4c4 093e ef99 40be ca8e 4bbd
000003a0: 87eb 883c ca36 f3bd 1446 493e 12cd 3ebc
000003b0: 1448 893c d007 2cbe 2f08 8cbe 1699 db3d
000003c0: 45c6 083d 47d1 0a3e d1a0 4dbd e3c7 933b
000003d0: c6bd 60be f955 53be 6312 3dbe 62db 54bd
000003e0: 7bdc 44bb 092e 08bd 9d45 01be d8d2 c0bd
000003f0: a06e 793e 478a 013e 15a2 223e 62d0 8ebe

layer1.conv1.bias f4 [30]
-0.049355604 -0.1944065 -0.13131775 0.10966764 -0.083674766 -0.051611174 -0.041709136 0.03801503
-0.095368624 -0.16353853 0.13671505 -0.054582343 -0.057319563 0.15961932 0.02738162 0.00872007
-0.008216046 0.036676608 -0.106169835 0.013292184 0.03186858 0.10416714 0.013044739 -0.0058181635
-0.0030675053 -0.10980263 0.12734853 0.015033937 -0.12895791 0.01254888
00000000: 1a29 4abd 7f12 47be 2978 06be 6d99 e03d
00000010: ad5d abbd 3d66 53bd 33d7 2abd a6b5 1b3d
00000020: a050 c3bd a576 27be 08ff 0b3e bc91 5fbd
00000030: ebc7 6abd 3f73 233e 6b4f e03c a0de 0e3c
00000040: 989c 06bc 363a 163d 926f d9bd 76c7 593c
00000050: a188 023d 9555 d53d 9ab9 553c 4ba6 bebb
00000060: 3308 49bb 34e0 e0bd a767 023e e750 763c
00000070: 8b0d 04be d199 4d3c

layer1.bn1.weight f4 [30]
0.9653841 0.7558843 0.7599287 0.92954636 0.45804605 0.83251965 0.7723739 0.43017587
0.97720677 0.79540217 0.99953586 0.8254167 0.9172129 0.6427788 0.94141227 0.8564693
0.5046772 0.6500479 0.8309115 0.6002919 1.1103909 0.5794916 1.2508553 1.0832229
0.6680003 0.6723673 0.65790135 0.69734776 1.0398717 0.9433464
00000000: 6a23 773f a281 413f b08a 423f c0f6 6d3f
00000010: 0385 ea3e 0220 553f 4cba 453f 0340 dc3e
00000020: 392a 7a3f 7a9f 4b3f 95e1 7f3f 824e 533f
00000030: 77ce 6a3f 278d 243f 6500 713f 9241 5b3f
00000040: 8632 013f 8a69 263f 9eb6 543f bbac 193f
00000050: 4a21 8e3f 9059 143f 071c a03f 0ca7 8a3f
00000060: 1102 2b3f 4320 2c3f 396c 283f 6285 323f
00000070: 841a 853f 267f 713f

layer1.bn1.bias f4 [30]
-0.108984716 0.1416473 0.089750215 -0.00826474 -0.045463026 0.040344298 -0.015306944 0.030931981
0.0033390967 -0.05272587 0.057406034 0.038071856 0.14687209 0.12863813 0.04831775 0.20307223
0.011437685 -0.099125564 0.14024846 -0.051829714 0.1608619 0.0075939177 -0.05931423 -0.011537166
-0.04816632 0.03932047 -0.18349773 0.067607395 -0.015675688 -0.11001768
00000000: 6133 dfbd fd0b 113e f6ce b73d d568 07bc
00000010: 7037 3abd 1040 253d fac9 7abc 1165 fd3c
00000020: bfd4 5a3b 15f7 57bd 9722 6b3d 3cf1 1b3d
00000030: a365 163e b7b9 033e d5e8 453d 2bf2 4f3e
00000040: 2165 3b3c 5802 cbbd 4b9d 0f3e 654b 54bd
00000050: fbb8 243e 66d6 f83b 7af3 72bd 6206 3dbc
00000060: 0c4a 45bd 800e 213d d4e6 3bbe bf75 8a3d
00000070: 4d6a 80bc f350 e1bd

layer1.bn1.running_mean f4 [30]
-0.05236488 -0.20062858 -0.13954554 0.10096496 -0.086643904 -0.04457008 -0.044698175 0.032109838
-0.09973269 -0.17075017 0.12408993 -0.06746276 -0.07839927 0.15005538 0.018193476 0.00072275026
-0.008171884 0.018892417 -0.11930265 -0.0073735444 0.017050382 0.095031835 -0.0033199973 -0.01218312
-0.003620427 -0.115009785 0.12702289 0.004360286 -0.13884707 0.007639613
00000000: 8e7c 56bd 9471 4dbe 07e5 0ebe b8c6 ce3d
00000010: 5c72 b1bd 1e8f 36bd 6f15 37bd 9b85 033d
00000020: a740 ccbd 22d9 2ebe dc22 fe3d ea29 8abd
00000030: cc8f a0bd 1ea8 193e 7c0a 953c f376 3d3a
00000040: 5ee3 05bc 45c4 9a3c f354 f4bd c69d f1bb
00000050: 3ead 8b3c 0da0 c23d 5094 59bb b59b 47bc
00000060: b044 6dbb 408a ebbd 4a12 023e bbe0 8e3b
00000070: ed2d 0ebe b855 fa3b

layer1.bn1.running_var f4 [30]
7.472899 2.5206614 3.2792628 1.5420074 1.3103976 3.119081 4.3847537 1.336275
1.4048014 1.4569474 3.2247493 2.6165042 7.4040875 1.304208 4.301838 0.60487825
1.0067296 5.760707 2.095045 4.555812 4.319699 1.3902259 1.4577591 0.67818826
2.3582304 1.1008375 0.6141386 3.4077444 2.4744298 0.4718891
00000000: fd21 ef40 8452 2140 71df 5140 8060 c53f
00000010: 1cbb a73f 069f 4740 e74f 8c40 0f0b ab3f
00000020: 88d0 b33f 417d ba3f 4b62 4e40 ce74 2740
00000030: 49ee ec40 4af0 a63f a8a8 8940 4dd9 1a3f
00000040: 84dc 803f b657 b840 3815 0640 36c9 9140
00000050: f93a 8a40 ecf2 b13f da97 ba3f bf9d 2d3f
00000060: 3fed 1640 3ee8 8c3f 3038 1d3f 7c18 5a40
00000070: 0f5d 1e40 739b f13e

conv1.weight f4 [30, 30, 5]
0.13601272 -0.19845429 0.056441188 0.37039536 -0.0061728638 -0.25998423 -0.48827752 -0.17365065
-0.054309063 -0.16238101 0.121971644 -0.24432822 -0.379733 0.22904655 0.31125584 -0.28923213
-0.35860568 -0.29335198 -0.08100791 -0.17798321 -0.042743552 -0.25670257 -0.08490891 0.09089612
0.3714733 -0.25568005 -0.046609964 -0.39335358 0.20225324 0.42026895 0.04988032 -0.054505203
-0.36349586 0.18336745 0.30173433 -0.034359593 -0.07805632 -0.016996874 -0.06575667 -0.33837768
-0.08721482 0.18756647 0.40315878 0.35398522 -0.054008473 -0.20162016 -0.096653365 -0.17614281
0.016357325 -0.33378848 -0.13691743 -0.04963414 0.4310293 0.41107976 -0.23100212 0.027031168
-0.18457401 -0.18439509 0.24817893 0.14870045 0.027475478 0.09936387 -0.0011091655 -0.10513832
0.036598336 -0.17659861 -0.35660505 0.20281039 0.4618424 -0.21111687 0.30927092 0.18525615
0.2215427 -0.04964113 -0.27745473 0.40530238 0.12696797 -0.28514996 -0.15559042 0.26503807
-0.24565409 0.043181185 0.00702831 0.09960416 0.25160336 -0.0027803322 0.42947644 -0.16972013
-0.10697072 -0.16484046 -0.006053283 0.04393277 -0.49184716 -0.14802726 -0.09249992 0.016892971
-0.18463898 -0.18323682 -0.29057932 0.08358558 0.06610531 0.03631456 0.63365144 0.24009651
-0.109506555 -0.093792304 -0.0036741076 0.16878513 0.19529887 -0.2403301 0.29936004 -0.17347454
-0.24825327 -0.4913828 -0.41221106 -0.1613008 0.22021456 0.45326826 0.09153603 -0.31242496
-0.01722142 0.04053906 -0.39892268 -0.1763217 0.027687194 0.40859976 0.28559214 0.11209665
0.28445625 0.11659297 -0.26859328 0.06131861 -0.088759296 -0.035813536 -0.31787896 0.20218994
-0.30514333 -0.21810238 -0.105118304 0.044037662 0.06000698 0.03974307 -0.43785426 -0.27856287
-0.08384466 0.24024282 0.07360847 0.014988862 0.5725145 0.101843625 0.15337195 -0.20665704
0.06893035 0.3450786 -0.007075177 -0.30516064 -0.5243327 -0.20496994 -0.05504057 -0.18747628
0.10546287 -0.29411286 -0.3788265 0.2262498 0.31751934 -0.2758589 -0.35351697 -0.24725711
-0.10275923 -0.14365047 -0.07229741 -0.25612873 -0.04347852 0.01863162 0.36877695 -0.2807797
-0.05379627 -0.37829277 0.19983095 0.4040611 0.058665667 -0.04220369 -0.3350903 0.20887892
0.2694704 -0.05278464 -0.08936672 -0.053590536 -0.13623616 -0.31117958 -0.08410657 0.18123478
0.4163917 0.32238057 -0.056817356 -0.1854186 -0.05271187 -0.1838784 0.026886743 -0.29752886
-0.122482024 -0.055081256 0.4496533 0.36477602 -0.21979912 0.034083944 -0.19055332 -0.22211842
0.26166934 0.10367413 0.014880046 0.082678534 -0.048766356 -0.13903783 0.044192795 -0.14449005
-0.36041197 0.14309596 0.41840297 -0.23424143 0.3097395 0.22799996 0.2482714 -0.04413307
-0.32751495 0.39738092 0.12347173 -0.30678296 -0.15612808 0.2717159 -0.2116389 0.0497884
-0.0021103988 0.07531575 0.2750641 -0.014758211 0.38412118 -0.17719853 -0.035188965 -0.17220482
-0.02994521 0.0149816815 -0.522894 -0.1823841 -0.080456264 0.0041604424 -0.18163109 -0.19685963
-0.24386564 0.07909343 0.030504765 0.01359919 0.6233102 0.23442107 -0.12267276 -0.10243704
00000000: eb46 0b3e 9a37 4bbe e02e 673d 76a4 bd3e
00000010: bc45 cabb a71c 85be 83ff f9be 7ad1 31be
00000020: 2e73 5ebd 3547 26be 45cc f93d 2d31 7abe
00000030: 5d6c c2be 2e8b 6a3e ed5c 9f3e 3c16 94be
00000040: 2a9b b7be 3b32 96be 7ae7 a5bd 3b41 36be
00000050: dd13 2fbd 856e 83be b9e4 adbd bf27 ba3d
00000060: c031 be3e 7fe8 82be 17ea 3ebd a465 c9be
00000070: 791b 4f3e 7e2d d73e 4e4f 4c3d d940 5fbd
00000080: 211c babe adc4 3b3e ec7c 9a3e a5bc 0cbd
00000090: fedb 9fbd 073d 8bbc 6fab 86bd d73f adbe
000000a0: af9d b2bd 6d11 403e d46a ce3e 8d3d b53e
000000b0: fd37 5dbd 8475 4ebe 33f2 c5bd c85e 34be
000000c0: ccff 853c 53e6 aabe 1534 0cbe 2b4d 4bbd
000000d0: dfaf dc3e 0c79 d23e d28b 6cbe 7870 dd3c
000000e0: f800 3dbe 11d2 3cbe 9e22 7e3e ee44 183e
000000f0: 4114 e13c 497f cb3d 6b61 91ba c252 d7bd
00000100: 23e8 153d 44d6 34be f094 b6be 87ad 4f3e
00000110: 9b76 ec3e 052f 58be c258 9e3e cab3 3d3e
00000120: 17dc 623e 7f54 4bbd 8c0e 8ebe cb83 cf3e
00000130: e403 023e 2dff 91be 1853 1fbe 12b3 873e
00000140: bf8c 7bbe c1de 303d bd4d e63b 44fd cb3d
00000150: 28d2 803e 3c36 36bb 56e4 db3e 1dcb 2dbe
00000160: 7713 dbbd f0cb 28be 9e5a c6bb d9f2 333d
00000170: 64d3 fbbe 7594 17be 9970 bdbd 2163 8a3c
00000180: 0012 3dbe 6fa2 3bbe d0c6 94be eb2e ab3d
00000190: 3962 873d 93be 143d fb36 223f dcdb 753e
000001a0: f944 e0bd 2e16 c0bd 4cc9 70bb 02d6 2c3e
000001b0: 6dfc 473e 1819 76be b845 993e 4fa3 31be
000001c0: 1b36 7ebe 8796 fbbe 540d d3be 092c 25be
000001d0: ed7f 613e c712 e83e 3e77 bb3d 2af6 9fbe
000001e0: ef13 8dbc 490c 263d 983f ccbe ad8d 34be
000001f0: 41d0 e23c fd33 d13e 2239 923e ee92 e53d
00000200: 40a4 913e 4cc8 ee3d 0f85 89be 3929 7b3d
00000210: 6fc7 b5bd 37b1 12bd 08c1 a2be e10a 4f3e
00000220: bf3b 9cbe 3b56 5fbe 4448 d7bd d660 343d
00000230: e1c9 753d a1c9 223d 6f2e e0be cb9f 8ebe
00000240: c0b6 abbd 3702 763e 0ac0 963d d893 753c
00000250: 4f90 123f 6493 d03d 890d 1d3e e79d 53be
00000260: 5b2b 8d3d 24ae b03e e3d6 e7bb 043e 9cbe
00000270: ab3a 06bf a4e3 51be 3972 61bd c8f9 3fbe
00000280: ebfc d73d f695 96be 8cf5 c1be 07ae 673e
00000290: e591 a23e 613d 8dbe 2d00 b5be f830 7dbe
000002a0: 6e73 d2bd 1c19 13be aa10 94bd 4e23 83be
000002b0: 8816 32bd 57a1 983c 55d0 bc3e 5bc2 8fbe
000002c0: 7a59 5cbd 97af c1be 7ca0 4c3e 19e1 ce3e
000002d0: 694b 703d c7dd 2cbd f590 abbe 5be4 553e
000002e0: 06f8 893e b534 58bd e605 b7bd c081 5bbd
000002f0: 7e81 0bbe ee52 9fbe 1140 acbd 9c95 393e
00000300: 4b31 d53e 110f a53e 51b9 68bd 60de 3dbe
00000310: 67e8 57bd 9f4a 3cbe 9641 dc3c b455 98be
00000320: dbd7 fabd e29c 61bd f538 e63e ecc3 ba3e
00000330: 0513 61be 9b9b 0b3d 6920 43be 0373 63be
00000340: 86f9 853e 1a53 d43d 70cb 733c 5d53 a93d
00000350: 3bbf 47bd ef5f 0ebe 8103 353d 33f5 13be
00000360: eb87 b8be bf87 123e ea38 d63e fcdc 6fbe
00000370: 2d96 9e3e d278 693e dc3a 7e3e e1c4 34bd
00000380: 0ab0 a7be 8375 cb3e bfde fc3d a812 9dbe
00000390: 0ae0 1fbe 591e 8b3e deb7 58be ecee 4b3d
000003a0: 9e4e 0abb 253f 9a3d 34d5 8c3e 6ccc 71bc
000003b0: 88ab c43e 8873 35be 4e22 10bd 7656 30be
000003c0: a84f f5bc ba75 753c 62dc 05bf e6c2 3abe
000003d0: 41c6 a4bd 5254 883b 80fd 39be 9295 49be
000003e0: eab7 79be bcfb a13d 21e5 f93c 23cf 5e3c
000003f0: 4291 1f3f 140c 703e db3b fbbd 83ca d1bd

conv1.bias f4 [30]
-0.08770065 0.12950397 -0.064283356 -0.096585535 -0.08989208 -0.0022763484 -0.056231245 -0.15895684
-0.04970313 0.07681634 0.019169642 0.021908354 0.028873555 -0.05255321 0.050447855 0.022225108
0.01838744 -0.025311302 0.011892929 -0.09235428 -0.00025696206 -0.006223773 0.013089765 0.05557849
0.018131895 0.0711614 -0.06683284 0.01097894 0.0743436 -0.020446235
00000000: 669c b3bd b09c 043e fea6 83bd a3ce c5bd
00000010: 5719 b8bd ca2e 15bb bc52 66bd 95c5 22be
00000020: 8295 4bbd e351 9d3d a709 9d3c 2679 b33c
00000030: 3c88 ec3c 0942 57bd 69a2 4e3d 6e11 b63c
00000040: 42a1 963c a659 cfbc 8fda 423c 3e24 bdbd
00000050: ddb8 86b9 cbf0 cbbb 7476 563c 45a6 633d
00000060: 5789 943c 11bd 913d a8df 88bd 03e1 333c
00000070: 7541 983d dd7e a7bc

bn1.weight f4 [30]
1.2339202 1.2298696 1.2268549 1.2051327 1.1746445 1.225508 1.0611593 1.5086653
1.0816917 1.1093782 1.1130252 0.8983254 0.94232005 0.8602491 0.909283 0.91696084
0.8360699 0.907404 0.9315359 0.7192055 0.77600425 0.62691736 0.6527754 0.6287144
0.61613667 0.6088112 0.5956363 0.60091007 0.6000596 0.5847449
00000000: 19f1 9d3f 5e6c 9d3f 9509 9d3f ca41 9a3f
00000010: c05a 963f 72dd 9c3f 11d4 873f f21b c13f
00000020: e074 8a3f 1b00 8e3f 9c77 8e3f a7f8 653f
00000030: e33b 713f 4939 5c3f c5c6 683f f2bd 6a3f
00000040: ad08 563f a14b 683f 2379 6e3f da1d 383f
00000050: 37a8 463f a87d 203f 4a1c 273f 6df3 203f
00000060: 22bb 1d3f 0ddb 1b3f 9f7b 183f 3ed5 193f
00000070: 829d 193f d7b1 153f

bn1.bias f4 [30]
0.05448521 0.06873581 0.07022312 0.06592335 0.08514641 0.06455083 0.14260784 0.25902334
0.14495751 0.13166314 0.16682057 0.20661345 0.1882485 0.20901425 0.17574844 0.17044026
0.22541101 0.1728064 0.18093604 0.23068751 0.20741078 0.24769512 0.23930418 0.22920996
0.24093227 0.23965296 0.24813487 0.24865365 0.22126365 0.21755314
00000000: e22b 5f3d 5cc5 8c3d 24d1 8f3d d202 873d
00000010: 3e61 ae3d 3a33 843d ca07 123e b59e 843e
00000020: be6f 143e b4d2 063e 03d3 2a3e 7a92 533e
00000030: 37c4 403e d507 563e 66f7 333e e487 2e3e
00000040: 25d2 663e 29f4 303e 4c47 393e 5939 6c3e
00000050: 7e63 543e caa3 7d3e 280c 753e 04b6 6a3e
00000060: f3b6 763e 9667 753e 1117 7e3e 109f 7e3e
00000070: f092 623e 40c6 5e3e

bn1.running_mean f4 [30]
-0.3113804 -0.2418076 -0.3690801 -0.40263474 -0.36782935 -0.3793775 -0.32297382 -0.257261
-0.5298826 -0.3444937 -0.34995735 -0.090572596 0.04504592 -0.2700969 -0.12500945 -0.024298823
-0.12882996 -0.45178995 -0.41004667 -0.45432216 -0.25226867 -0.10791587 -0.124717005 0.040015142
-0.21257535 -0.10222437 -0.0032524907 -0.13212657 0.22756007 -0.18062223
00000000: 406d 9fbe 699c 77be 11f8 bcbe 2426 cebe
00000010: 2154 bcbe c53d c2be d35c a5be b7b7 83be
00000020: 63a6 07bf 7a61 b0be 9c2d b3be 207e b9bd
00000030: 1282 383d 244a 8abe 7a02 00be 530e c7bc
00000040: 00ec 03be 0351 e7be a3f1 d1be ea9c e8be
00000050: 5c29 81be ff02 ddbd a16b ffbd ebe6 233d
00000060: 5aad 59be 035b d1bd bd27 55bb 304c 07be
00000070: 8205 693e 09f5 38be

bn1.running_var f4 [30]
2.7187667 2.7878835 2.8920226 2.5932498 2.5381854 2.6268642 2.17919 1.4793234
2.681811 2.8595607 2.845602 1.9076439 2.0615559 1.9654766 3.1776748 2.5889843
2.5775921 3.352873 4.2333827 3.6006026 4.6190033 3.3272228 3.7948244 4.442081
5.34129 5.368726 5.574371 6.3523593 6.673257 5.5389333
00000000: 4600 2e40 af6c 3240 e616 3940 cef7 2540
00000010: a171 2240 8b1e 2840 d977 0b40 785a bd3f
00000020: cba2 2b40 0b03 3740 581e 3640 ad2d f43f
00000030: 88f0 0340 bd94 fb3f 065f 4b40 ebb1 2540
00000040: 45f7 2440 7995 5640 df77 8740 4670 6640
00000050: e0ce 9340 38f1 5440 67de 7240 8725 8e40
00000060: d9eb aa40 9acc ab40 3f61 b240 8746 cb40
00000070: 528b d540 f13e b140

dense1.dense.weight f4 [96, 512]
0.05887907 0.2241625 0.22958362 -0.05686658 0.06935301 -0.034908824 0.3695201 0.5850392
-0.29231018 -0.20784648 -0.008860179 -0.3191474 0.030728264 -0.1128669 -0.1118344 0.16783877
-0.040956672 -0.102001674 0.08383032 0.30565146 0.29890975 0.082000084 0.10474489 -0.20024738
-0.10785412 -0.023651982 -0.04797424 0.086836316 -0.037637677 -0.0078031807 -0.17724918 0.340394
-0.19036657 -0.5264503 -0.37549186 -0.14109184 0.4525802 -0.00036728964 -0.109131046 0.1535981
0.34013343 -0.16775951 -0.3085037 -0.16352549 -0.1060315 0.022171365 -0.13453087 -0.089370295
-0.4345793 0.07351993 0.40805262 -0.15753217 0.08215396 -0.14222893 -0.5087012 -0.11997814
-0.16979349 0.19622108 0.22879314 0.37685 0.11381382 -0.06697941 0.3885789 0.25810418
-0.2631718 0.11457972 0.31369776 0.031033516 0.15548661 0.16268037 -0.2608775 -0.11706996
-0.044808697 0.16956809 -0.4076711 0.3937812 -0.14165363 -0.27824962 0.44341937 0.185082
0.30960277 0.17590684 -0.716012 0.0020627724 -0.11413167 0.20308131 0.0651421 0.108959086
0.20963696 0.19151229 0.48391986 0.09597394 0.12803069 0.25017002 -0.06885467 -0.013290699
0.40553865 0.051754143 -0.39794043 0.025105475 0.30743903 0.20774001 0.07279033 0.09177863
0.16305746 -0.3073082 -0.11671737 -0.12381216 -0.23063478 0.27638656 -0.08679491 -0.16808067
-0.12245925 -0.23150605 0.0083217295 -0.068662174 -0.42052338 0.18839794 0.22175764 0.2391567
-0.28845966 -0.034321595 0.05096429 0.2532088 -0.15350562 0.32046524 -0.03437989 0.26419452
0.08434024 -0.5843528 -0.36708003 -0.11608562 0.2594245 0.4317143 0.15486191 -0.17369984
-0.09422291 0.0135243675 0.20652242 -0.112458274 -0.49942625 -0.17139052 0.05273921 -0.21591578
-0.45601118 -0.09477214 0.26418495 0.34907752 0.22478066 0.19275323 0.041687306 0.14967108
-0.05982688 -0.14546421 -0.051501457 -0.39333433 -0.0897983 -0.22156996 -0.2877534 -0.15702663
0.0268056 0.01881432 -0.33573273 -0.2548021 -0.04805579 -0.17854741 0.061792754 0.64189553
0.25330955 -0.31841034 -0.3575242 0.004734234 -0.45993775 0.18550129 0.31791636 0.11211304
0.47457525 0.1779152 -0.03360648 -0.26537582 0.0851746 -0.36237758 -0.20800462 -0.2985899
-0.14183329 0.23647116 0.043072432 0.43951684 0.05572903 0.16126455 0.17351697 -0.043505814
0.19379584 -0.32283568 -0.18149118 0.22959527 -0.085475 0.320854 0.06529284 0.121878855
0.1453678 -0.034785286 -0.5329332 0.1959768 0.27684766 -0.14039235 -0.20921981 -0.17350732
-0.21869758 -0.022991324 -0.089027815 -0.36364096 0.25506532 0.23392032 -0.2445187 0.27112153
-0.0701554 -0.20075049 -0.059361994 0.12773554 0.47331607 0.31590563 0.020253347 -0.37095162
-0.038846627 0.26874942 0.004644605 0.13251176 -0.036864255 0.5249659 0.46926078 0.38894454
-0.17425717 -0.100036375 -0.4272599 -0.79327226 -0.05957624 -0.22014543 -0.24035192 0.4041702
-0.049290832 0.10368167 -0.6646155 0.021344008 -0.068935156 0.42120376 0.39113083 0.3346934
0.37755844 -0.26538053 0.1370413 0.096752845 -0.07447095 0.23081139 0.21215089 0.20305169
00000000: 2e2b 713d db8a 653e f817 6b3e eeec 68bd
00000010: f308 8e3d 8efc 0ebd bd31 bd3e 21c5 153f
00000020: aea9 95be b5d5 54be 492a 11bc 4a67 a3be
00000030: d7b9 fb3c c326 e7bd 6f09 e5bd eddd 2b3e
00000040: 2fc2 27bd 41e6 d0bd 3baf ab3d 597e 9c3e
00000050: b30a 993e a9ef a73d 7d84 d63d a60d 4dbe
00000060: 9fe2 dcbd cdc1 c1bc a380 44bd 3dd7 b13d
00000070: f729 1abd d3b1 ffbb cf80 35be 1f48 ae3e
00000080: 74ef 42be 72c5 06bf 7840 c0be 617a 10be
00000090: 98b8 e73e c890 c0b9 1980 dfbd d248 1d3e
000000a0: f825 ae3e 26c9 2bbe 32f4 9dbe 3a73 27be
000000b0: 0b27 d9bd b9a0 b53c 76c2 09be c607 b7bd
000000c0: 2e81 debe 9e91 963d 46ec d03e 1d50 21be
000000d0: 5640 a83d 76a4 11be 3e3a 02bf 19b7 f5bd
000000e0: 58de 2dbe 2eee 483e c048 6a3e 7cf2 c03e
000000f0: 3817 e93d 802c 89bd d0f3 c63e 3b26 843e
00000100: 74be 86be c6a8 ea3d fe9c a03e 003a fe3c
00000110: e237 1f3e af95 263e bc91 85be 60c2 efbd
00000120: 5389 37bd 42a3 2d3e 44ba d0be b09d c93e
00000130: a60d 11be bc76 8ebe dd07 e33e 2386 3d3e
00000140: 4184 9e3e ec20 343e 904c 37bf 942f 073b
00000150: ddbd e9bd 8cf4 4f3e 3969 853d f125 df3d
00000160: 12ab 563e cc1b 443e 58c4 f73e fc8d c43d
00000170: 7a1a 033e 4916 803e ad03 8dbd 3bc1 59bc
00000180: c3a2 cf3e 27fc 533d d9be cbbe ffa9 cd3c
00000190: a668 9d3e ccb9 543e 1913 953d 6ff6 bb3d
000001a0: 89f8 263e 8057 9dbe 8409 efbd 3b91 fdbd
000001b0: 862b 6cbe 8a82 8d3e 88c1 b1bd 571d 2cbe
000001c0: eacb fabd ec0f 6dbe dd57 083c c19e 8cbd
000001d0: d74e d7be 64eb 403e 6f14 633e 7ee5 743e
000001e0: fcb0 93be cd94 0cbd eebf 503d 95a4 813e
000001f0: 9430 1dbe 0514 a43e edd1 0cbd 8144 873e
00000200: 93ba ac3d 2598 15bf eaf1 bbbe 4cbe edbd
00000210: 4ad3 843e a809 dd3e 1f94 1e3e 5fde 31be
00000220: f1f7 c0bd 4f95 5d3c 9d7a 533e 8650 e6bd
00000230: ccb4 ffbe ff80 2fbe 1205 583d 0719 5dbe
00000240: 4c7a e9be e517 c2bd 4043 873e 4aba b23e
00000250: e72c 663e 1a61 453e 4fc0 2a3d 6043 193e
00000260: 080d 75bd 92f4 14be 31f3 52bd 1e63 c9be
00000270: 2ce8 b7bd 3ce3 62be 6a54 93be 97cb 20be
00000280: 6b97 db3c 7d20 9a3c 29e5 abbe 6c75 82be
00000290: 26d6 44bd 22d5 36be 661a 7d3d 4453 243f
000002a0: cab1 813e ae06 a3be 690d b7be a221 9b3b
000002b0: f67c ebbe 0df4 3d3e efc5 a23e 869b e53d
000002c0: 87fb f23e 672f 363e f3a6 09bd 57df 87be
000002d0: 0570 ae3d 8e89 b9be 2aff 54be c6e0 98be
000002e0: bf3c 11be 7f25 723e b86c 303d 5a08 e13e
000002f0: 2044 643d 8922 253e 6fae 313e 2733 32bd
00000300: 6b72 463e b84a a5be d3d8 39be 061b 6b3e
00000310: 840d afbd fa46 a43e 41b8 853d 9f9b f93d
00000320: 4cdb 143e 047b 0ebd 4f6e 08bf 24ae 483e
00000330: fabe 8d3e 03c3 0fbe b83d 56be e7ab 31be
00000340: 42f2 5fbe 4d58 bcbc 3754 b6bd 262f babe
00000350: ec97 823e cf88 6f3e 1c63 7abe 71d0 8a3e
00000360: a2ad 8fbd 8991 4dbe 9025 73bd 1bcd 023e
00000370: 7c56 f23e 62be a13e 59ea a53c 5fed bdbe
00000380: a41d 1fbd 8699 893e c531 983b 2ab1 073e
00000390: f9fe 16bd 2a64 063f f342 f03e bd23 c73e
000003a0: 7970 32be dfdf ccbd cfc1 dabe e413 4bbf
000003b0: 3706 74bd ce6d 61be d01e 76be 65ef ce3e
000003c0: 2fe5 49bd 0e57 d43d 3e24 2abf a1d9 ae3c
000003d0: e02d 8dbd 05a8 d73e 4d42 c83e ef5c ab3e
000003e0: 574f c13e f5df 87be 8e54 0c3e 5b26 c63d
000003f0: 3a84 98bd d259 6c3e 153e 593e c8ec 4f3e

dense1.dense.bias f4 [96]
0.31174213 0.18123427 0.2824291 0.31342843 0.111601 0.2089138 0.1925736 0.23289488
0.27421278 0.25817287 0.4168608 0.32558766 0.11292911 0.14602524 0.11180244 0.2387212
0.22692545 0.116701104 0.28536746 0.39960274 0.17202614 0.28794783 0.29769552 0.22656754
0.27790135 0.14867671 0.05781083 0.32101905 0.20478302 0.17364793 0.15184705 0.2964369
0.2647777 0.181443 0.09981478 0.21789598 0.23451163 0.23676462 0.2592891 0.067302145
0.2204469 0.112558566 0.02967305 0.16235134 0.18430135 0.16557793 0.31920737 0.29054663
0.18400398 0.227855 0.3085062 0.08568247 0.1938001 0.2858383 0.26408538 0.24533567
0.18171407 0.35113242 0.19201468 0.19403428 0.3331109 0.19484931 0.20793262 0.27771527
0.30582124 0.20609431 0.31330708 0.26684612 0.28155747 0.25718176 0.20049582 0.25619733
0.21741465 0.228442 0.18227072 0.24546628 0.3262952 -0.008348171 -0.01091506 0.2865161
0.29343018 -0.025705999 0.36755002 0.12039415 0.16888034 0.32216832 0.31958196 0.12602162
0.23823045 0.82907486 0.025361348 0.22991909 0.34928837 0.23319976 0.12634487 0.2531714
00000000: aa9c 9f3e 7a95 393e 8c9a 903e b179 a03e
00000010: 118f e43d 80ed 553e 0432 453e ff7b 6e3e
00000020: 9e65 8c3e 3c2f 843e c76e d53e 6db3 a63e
00000030: 6147 e73d a487 153e adf8 e43d 5573 743e
00000040: 255f 683e fd00 ef3d af1b 923e bb98 cc3e
00000050: 9f27 303e e66d 933e 8c6b 983e 5201 683e
00000060: 1649 8e3e b53e 183e 0dcb 6c3d 9c5c a43e
00000070: a4b2 513e c3d0 313e cb7d 1b3e 94c6 973e
00000080: f190 873e 32cc 393e b16b cc3d 2020 5f3e
00000090: d123 703e 6d72 723e 8ac1 843e b5d5 893d
000000a0: d5bc 613e 1b85 e63d e514 f33c 6e3f 263e
000000b0: 7eb9 3c3e 438d 293e 266f a33e 87c2 943e
000000c0: 8a6b 3c3e d252 693e 86f4 9d3e 4a7a af3d
000000d0: 8973 463e 6659 923e 3336 873e 4639 7b3e
000000e0: 4113 3a3e a1c7 b33e 7f9f 443e ecb0 463e
000000f0: 838d aa3e 9486 473e 4aec 543e b230 8e3e
00000100: 9a94 9c3e 630a 533e c969 a03e 0ea0 883e
00000110: 4d28 903e 54ad 833e c74e 4d3e 4c2c 833e
00000120: f2a1 5e3e b3ec 693e 2da5 3a3e 835b 7b3e
00000130: 2a10 a73e c4c6 08bc 14d5 32bc 3db2 923e
00000140: 7b3c 963e 6395 d2bc 842f bc3e 3591 f63d
00000150: f8ee 2c3e 3ff3 a43e 3fa0 a33e d00b 013e
00000160: aff2 733e 403e 543f 9ac2 cf3c e96f 6b3e
00000170: edd5 b23e ebcb 6e3e 8d60 013e af9f 813e

dense1.batch_norm1.weight f4 [96]
0.77803105 0.76147836 1.0279541 0.79315585 0.95187294 0.99025553 0.65938246 0.873522
0.94066584 0.7604904 0.9116389 1.0064541 0.7132632 0.70399576 0.7859995 0.98059285
0.84796494 0.7436751 0.86132526 0.9185557 0.66381663 0.73050785 0.8969921 0.8393078
0.9350152 1.1817422 0.64640844 1.0052402 0.6879855 0.87460774 0.805501 0.82589006
0.8536584 0.8093859 0.8725565 0.9018487 0.7507422 0.8562191 0.8737403 0.5829449
0.7639627 0.640218 0.49578613 0.9037365 0.91028124 0.8536853 0.9246709 0.99394435
0.8454183 0.68481743 0.9675406 0.6959412 0.85154176 0.838891 0.8168927 0.7002087
0.72321856 0.94722986 0.7954646 0.9377652 0.7243106 0.8427475 0.7164483 0.8404994
0.84425443 0.8023238 0.8830435 0.91011685 0.8305506 0.7512387 0.862289 0.9987101
0.45798203 0.947272 1.0754536 0.81440216 0.8662683 0.63409215 1.1700499 0.8802329
0.90651697 0.98212826 0.8836787 0.648377 0.7080912 0.85607916 0.95407385 0.795838
0.84876996 1.2514751 0.68823826 0.8378841 1.0825496 0.8003276 0.6805304 0.92450404
00000000: 0b2d 473f 3ff0 423f 0094 833f 430c 4b3f
00000010: f2ad 733f 6381 7d3f 4acd 283f 239f 5f3f
00000020: 7acf 703f 80af 423f 2b61 693f 7dd3 803f
00000030: 6b98 363f 1139 343f 4337 493f 2208 7b3f
00000040: 3b14 593f 7e61 3e3f d07f 5c3f 7726 6b3f
00000050: e3ef 293f 9002 3b3f 46a1 653f e0dc 563f
00000060: 285d 6f3f 5443 973f 067b 253f b6ab 803f
00000070: d11f 303f 4be6 5f3f 5035 4e3f 886d 533f
00000080: 5b89 5a3f ea33 4f3f dd5f 5f3f 8edf 663f
00000090: a430 403f 2d31 5b3f 72ad 5f3f e13b 153f
000000a0: 0f93 433f 54e5 233f aed7 fd3e 465b 673f
000000b0: 3108 693f 1f8b 5a3f 3bb7 6c3f 2373 7e3f
000000c0: 556d 583f 3250 2f3f beb0 773f 3429 323f
000000d0: a4fe 593f 90c1 563f e11f 513f e140 333f
000000e0: da24 393f a87d 723f 91a3 4b3f 6111 703f
000000f0: 6b6c 393f 4dbe 573f 2869 373f f82a 573f
00000100: 0f21 583f 1865 4d3f 240f 623f 6bfd 683f
00000110: f79e 543f 2e51 403f f9be 5c3f 77ab 7f3f
00000120: 9f7c ea3e 6b80 723f 77a8 893f a97c 503f
00000130: c2c3 5d3f dd53 223f 32c4 953f f156 613f
00000140: 7f11 683f c26c 7b3f c438 623f 09fc 253f
00000150: 7745 353f 0128 5b3f 2f3e 743f 0abc 4b3f
00000160: fd48 593f 5630 a03f 6230 303f 937f 563f
00000170: fc90 8a3f 45e2 4c3f 3e37 2e3f 4cac 6c3f

dense1.batch_norm1.bias f4 [96]
-0.64578706 -0.5935647 -0.9077372 -0.5436309 -1.025415 -1.0079988 -0.3403741 -0.718367
-0.76326364 -0.50902355 -0.737965 -0.9515101 -0.42285338 -0.32624125 -0.5094656 -0.91681206
-0.7805154 -0.4312813 -0.84038186 -0.8133507 -0.29059774 -0.5852624 -0.67068154 -0.6214278
-0.8648316 -1.3741856 -0.241499 -0.86982137 -0.71694803 -0.6322744 -0.71324366 -0.55379844
-0.61130244 -0.77742654 -0.6562611 -0.87659234 -0.61388195 -0.8088676 -0.6841237 -0.4056194
-0.3532134 -0.23685038 -0.14195985 -1.0294987 -0.9009946 -0.67415607 -0.749835 -0.928693
-0.74540055 -0.4402184 -0.809111 -0.49989358 -0.8123407 -0.77594286 -0.53965765 -0.3878526
-0.945483 -0.73238957 -0.5392116 -0.8111249 -0.6563639 -0.7100987 -0.9333445 -0.60583127
-0.587654 -0.71521634 -0.80453205 -0.7772106 -0.6825763 -0.46291208 -0.83205175 -0.87019473
-0.20073675 -0.83336735 -0.978146 -0.53556955 -0.6642584 0.02693321 -0.82674813 -0.8863381
-0.708069 -0.8702215 -0.6884234 -0.24267435 -0.43058354 -0.5136713 -0.7643934 -0.6476012
-0.7166172 -1.8596616 -0.68936855 -0.74731153 -0.9998365 -0.5780448 -0.69543725 -0.73602104
00000000: 4d52 25bf dbf3 17bf 7761 68bf 652b 0bbf
00000010: cc40 83bf 1b06 81bf 8445 aebe e6e6 37bf
00000020: 3f65 43bf 5e4f 02bf 46eb 3cbf 2a96 73bf
00000030: 3d80 d8be 1809 a7be 566c 02bf 32b4 6abf
00000040: dbcf 47bf e7d0 dcbe 4423 57bf c037 50bf
00000050: 3ac9 94be c2d3 15bf c9b1 2bbf e415 1fbf
00000060: 9b65 5dbf 50e5 afbf 844b 77be 9dac 5ebf
00000070: e889 37bf bcdc 21bf 2397 36bf bcc5 0dbf
00000080: 517e 1cbf 6d05 47bf ba00 28bf 5b68 60bf
00000090: 5e27 1dbf f211 4fbf bb22 2fbf 59ad cfbe
000000a0: 63d8 b4be e888 72be ec5d 11be 9dc6 83bf
000000b0: 95a7 66bf 7e95 2cbf 30f5 3fbf d3be 6dbf
000000c0: 92d2 3ebf 4e64 e1be e621 4fbf 0df2 ffbe
000000d0: 8ff5 4fbf 31a4 46bf 0127 0abf 9e94 c6be
000000e0: 2d0b 72bf e27d 3bbf c509 0abf e2a5 4fbf
000000f0: 7707 28bf 07c9 35bf aaef 6ebf c217 1bbf
00000100: 7e70 16bf 6b18 37bf d0f5 4dbf 46f7 46bf
00000110: 52bd 2ebf d002 edbe 5801 55bf 15c5 5ebf
00000120: ef8d 4dbe 9057 55bf c767 7abf 161b 09bf
00000130: d70c 2abf 09a3 dc3c c4a5 53bf 0ee7 62bf
00000140: 0344 35bf d6c6 5ebf 843c 30bf a07f 78be
00000150: 7275 dcbe f67f 03bf 49af 43bf 31c9 25bf
00000160: 3a74 37bf 6409 eebf 757a 30bf cf4f 3fbf
00000170: 49f5 7fbf befa 13bf 2d08 32bf e06b 3cbf

dense1.batch_norm1.running_mean f4 [96]
-3.082355 -3.5759375 -2.2935524 -2.907097 -4.091513 -3.1090217 -2.0022366 -2.1000352
-3.6613693 -3.5604703 -3.4245253 -3.3962708 -6.2924786 -2.5525236 -4.6728063 -2.702604
-3.1536746 -4.0844016 -3.3297877 -4.0507874 -0.8799743 -3.7122316 -4.1897717 -2.3258665
-3.3167949 3.0223668 -3.073967 -4.9153695 -3.2806714 -3.1942823 -2.6742265 -2.6070194
-4.3991256 -2.6920938 -2.0247123 -4.3791943 -2.8603308 -3.217131 -4.022958 -2.7508872
-2.2166948 -1.8266909 -5.407617 -4.5087276 -3.74287 -2.2375093 -3.0355566 -3.568557
-4.0237384 -2.270911 -3.108918 -3.45226 -3.5309012 -3.8685703 -3.4594622 -2.2581089
-4.2479506 -3.2429895 -3.9387567 -4.191608 -3.1041186 -2.8943937 -3.1305983 -3.054179
-2.5925503 -2.6470408 -3.78506 -4.365541 -3.793576 -3.916944 -4.176824 -4.296047
-2.352321 -3.4310377 -2.2737067 -2.7647948 -2.573092 -0.5015398 0.11749474 -3.9115174
-5.910293 0.27323082 -2.813525 -8.295489 -3.7748606 -1.7434016 -3.8579738 -2.5441484
-3.6246264 4.2608404 -2.419444 -3.427918 -3.8736026 -4.082616 -4.5526667 -3.5991328
00000000: 4e45 45c0 29dc 64c0 90c9 12c0 e10d 3ac0
00000010: aded 82c0 36fa 46c0 a524 00c0 fa66 06c0
00000020: e053 6ac0 bfde 63c0 6c2b 5bc0 805c 59c0
00000030: fc5b c9c0 8c5c 23c0 a187 95c0 77f7 2cc0
00000040: ced5 49c0 6bb3 82c0 3e1b 55c0 0da0 81c0
00000050: ff45 61bf 3495 6dc0 9c12 86c0 ffda 14c0
00000060: 5e46 54c0 756e 4140 e0bb 44c0 b54a 9dc0
00000070: 85f6 51c0 1f6f 4cc0 8726 2bc0 68d9 26c0
00000080: a3c5 8cc0 444b 2cc0 e394 01c0 5c22 8cc0
00000090: a90f 37c0 79e5 4dc0 12bc 80c0 890e 30c0
000000a0: 54de 0dc0 02d1 e9bf 330b adc0 7f47 90c0
000000b0: 2f8b 6fc0 5a33 0fc0 8f46 42c0 3d63 64c0
000000c0: 77c2 80c0 9b56 11c0 83f8 46c0 d4f1 5cc0
000000d0: 49fa 61c0 a896 77c0 d467 5dc0 db84 10c0
000000e0: 36ef 87c0 248d 4fc0 9714 7cc0 a721 86c0
000000f0: e1a9 46c0 bf3d 39c0 b95b 48c0 ab77 43c0
00000100: 58ec 25c0 1e69 29c0 6c3e 72c0 83b2 8bc0
00000110: f3c9 72c0 36af 7ac0 8ba8 85c0 3879 89c0
00000120: 6d8c 16c0 1f96 5bc0 6984 11c0 66f2 30c0
00000130: 8aad 24c0 ea64 00bf 15a1 f03d 4d56 7ac0
00000140: 1f21 bdc0 e9e4 8b3e cb10 34c0 53ba 04c1
00000150: 5197 71c0 c927 dfbf 0be9 76c0 54d3 22c0
00000160: e1f9 67c0 ce58 8840 2cd8 1ac0 0263 5bc0
00000170: 1be9 77c0 caa4 82c0 72af 91c0 3158 66c0

dense1.batch_norm1.running_var f4 [96]
5.5529957 3.4158733 5.898858 4.403799 4.2503877 4.5172043 3.1023836 4.65024
5.491487 3.4813368 5.8310223 4.9800477 6.0402293 4.2506003 5.417501 3.7915633
3.3244493 4.0444326 3.7010946 4.104383 3.0583553 3.1479385 4.938702 3.4121208
4.3216724 3.927028 4.3732376 7.1376767 2.3210812 4.051263 3.864433 3.5130994
6.1138616 2.894468 2.9393961 4.8841047 2.84696 2.4612591 4.31972 6.0652423
5.1895795 3.7065904 9.141866 3.2113216 3.2313876 3.2312598 3.3053691 5.3935733
6.280084 3.1081645 4.9196267 3.6363819 3.9331446 4.453073 4.508769 5.7278175
1.418872 4.3580394 3.6380305 5.434354 2.3291214 3.0803554 1.6603428 4.986717
3.4747171 4.1309686 3.9319859 4.5449495 3.5736008 4.6973405 5.4392705 4.6890836
6.30606 4.428056 4.1588926 5.0600305 3.408834 7.0348964 4.1351805 4.4701924
6.0283074 3.3795319 3.6677055 10.768885 3.2573206 2.8811648 6.3417754 2.872399
3.724431 4.4901237 3.6127665 3.3313317 5.200654 5.563838 4.1311493 6.67184
00000000: 24b2 b140 ab9d 5a40 72c3 bc40 eceb 8c40
00000010: 2d03 8840 f08c 9040 748d 4640 c4ce 9440
00000020: 43ba af40 39ce 5e40 bc97 ba40 8d5c 9f40
00000030: 8f49 c140 eb04 8840 2b5c ad40 f9a8 7240
00000040: c7c3 5440 fe6b 8140 bcde 6c40 1b57 8340
00000050: 18bc 4340 d377 4940 d909 9e40 3060 5a40
00000060: 244b 8a40 6d54 7b40 90f1 8b40 d967 e440
00000070: 988c 1440 f2a3 8140 df52 7740 9fd6 6040
00000080: c1a4 c340 f73e 3940 111f 3c40 964a 9c40
00000090: 9834 3640 4585 1d40 253b 8a40 7716 c240
000000a0: 0911 a640 c738 6d40 1545 1241 4b86 4d40
000000b0: 0ecf 4e40 f6cc 4e40 2b8b 5340 2798 ac40
000000c0: 73f6 c840 2bec 4640 956d 9d40 7bba 6840
000000d0: a4b8 7b40 937f 8e40 d647 9040 484a b740
000000e0: 999d b53f 0f75 8b40 7ed5 6840 3ae6 ad40
000000f0: 5310 1540 8b24 4540 1d86 d43f 3093 9f40
00000100: c461 5e40 e530 8440 a8a5 7b40 3a70 9140
00000110: e0b5 6440 9d50 9640 810e ae40 f90c 9640
00000120: 3ecb c940 a2b2 8d40 a615 8540 c5eb a140
00000130: 562a 5a40 df1d e140 6653 8440 d10b 8f40
00000140: e5e7 c040 404a 5840 b0bb 6a40 5a4d 2c41
00000150: f177 5040 0165 3840 d3ef ca40 63d5 3740
00000160: 145d 6e40 18af 8f40 9137 6740 8a34 5540
00000170: c26b a640 f60a b240 6032 8440 b77f d540

dense2.dense.weight f4 [15, 96]
-0.14924937 0.12266286 -0.498635 0.06278089 -0.26708236 -0.37926906 -0.20127666 -0.17758085
0.21955062 -0.111068964 -0.062738314 -0.044648986 0.22598568 0.18935023 -0.2679885 0.3180244
-0.18265626 -0.41508844 0.21360753 -0.10885047 -0.22833635 -0.23207808 -0.0711847 0.039222278
-0.35982487 -0.026818 -0.14736956 -0.38426045 0.21978767 0.14526719 -0.29562545 -0.006142579
-0.35561767 0.016067456 -0.6800216 0.04070713 0.1723948 0.025723446 -0.34737262 0.17964526
0.17911029 -0.3059072 -0.5741316 -0.36896375 0.257561 0.20068184 0.32248995 -0.3042511
-0.22116993 -0.13406608 -0.4603389 0.15046988 -0.5346074 -0.30348128 -0.54704773 -0.21957178
-0.23307295 -0.18003672 -0.027457904 0.2892085 0.09103686 -0.28835782 -0.20636247 -0.42129326
0.01669166 -0.483136 -0.33313847 -0.18172793 -0.53495157 -0.34893632 -0.21632245 -0.2288041
0.001364464 -0.22069322 0.33071166 -0.0050571486 0.10192325 -0.03729082 -0.024616474 -0.26041493
-0.17204945 -0.4075223 -0.15901761 0.25746244 -0.0024048109 -0.01979379 -0.3070453 0.14203276
-0.060821544 -0.01503227 -0.3223253 -0.008539015 0.06996489 0.057436526 -0.0762017 -0.22297171
-0.070406005 -0.39278388 0.1918602 -0.06194471 -0.20043945 -0.047427002 -0.10415204 0.22802842
-0.19747983 -0.23749888 -0.18768516 -0.09174423 -0.2526763 0.19974975 0.19787705 -0.27990627
0.21220376 -0.15611345 -0.023860851 -0.051108357 -0.2106182 0.2284731 -0.038082942 -0.23618737
0.28937098 -0.043648027 0.0735274 0.1058836 -0.09623657 0.16133945 0.17091903 0.007163712
-0.12259824 0.14555505 0.16723041 0.26061818 0.22219002 0.19100827 0.13735253 -0.6350178
-0.22193815 -0.3760423 0.18135855 -0.056024536 0.13805394 0.0057910318 0.09449167 -0.25032562
-0.09054373 -0.25721046 -0.25537503 0.20217133 -0.25443187 -0.30704492 -0.1645168 0.17040034
-0.035215102 0.1613485 0.24351056 -0.2212501 0.040425584 -0.043152094 -0.28439954 -0.15659024
0.16326346 -0.34298176 -0.24442561 -0.306654 -0.26512972 -0.11467993 -0.27645725 0.19631267
-0.32508525 -0.10642354 -0.2871296 0.20118487 -0.20708045 -0.068977915 -0.023047823 -0.34474975
-0.020086661 -1.2408595 -0.1539107 -0.15563051 -0.13448744 -0.09656738 -0.19355929 -0.39413851
-0.36300147 0.009452539 -0.11471304 -0.05340916 -0.011295739 -0.19242384 -0.21328601 -0.3259798
-0.03526101 -0.50057 -0.31777543 0.17388906 -0.17669132 0.28792304 -0.026598835 -0.34511343
-0.25206065 0.0029221133 -0.07607494 -0.265748 -0.459656 -0.24360788 -0.14691913 -0.3493871
-0.12781273 0.12819053 -0.14776917 -0.46328118 -0.099596485 0.17606814 0.019043354 -0.12899876
-0.6677591 -0.044526413 0.14235166 -0.27308148 0.10102215 0.034939803 -0.41574317 -0.29307473
-0.06963173 -0.37862882 0.17654502 -0.3590558 0.17893937 -0.48134938 -0.32006 0.11464156
-0.31388408 0.061139088 0.18934648 -0.06449925 0.22657074 0.17355065 -0.32852104 -0.5929011
-0.3512031 -0.063045904 0.23012485 0.042011164 -0.098190956 -0.05913627 -0.1228364 -0.2244805
-0.60269964 0.31880763 -0.42750883 -0.18844032 0.049795546 0.1512981 -0.5161243 0.30791327
00000000: d4d4 18be aa36 fb3d 164d ffbe 4493 803d
00000010: 05bf 88be 8e2f c2be 781b 4ebe c1d7 35be
00000020: e1d1 603e 2078 e3bd f27c 80bd dbe1 36bd
00000030: ca68 673e 07e5 413e ca35 89be 18d4 a23e
00000040: 3e0a 3bbe 7986 d4be efbb 5a3e ffec debd
00000050: 01d1 69be e0a5 6dbe 49c9 91bd 8aa7 203d
00000060: f73a b8be 6cb1 dbbc 0ce8 16be c9bd c4be
00000070: 0510 613e ecc0 143e 385c 97be b047 c9bb
00000080: 8513 b6be e69f 833c e515 2ebf 85bc 263d
00000090: 4388 303e fab9 d23c d3da b1be edf4 373e
000000a0: b068 373e de9f 9cbe 4afa 12bf d1e8 bcbe
000000b0: 09df 833e 8a7f 4d3e 671d a53e cdc6 9bbe
000000c0: 5f7a 62be 9e48 09be 8ab1 ebbe c714 1a3e
000000d0: 08dc 08bf e661 9bbe 520b 0cbf 6dd7 60be
000000e0: adaa 6ebe 8c5b 38be 66ef e0bc 2313 943e
000000f0: 8971 ba3d a3a3 93be af50 53be c0b3 d7be
00000100: f3bc 883c 9a5d f7be 2091 aabe e316 3abe
00000110: 96f2 08bf c8a7 b2be a283 5dbe 9f4b 6abe
00000120: d1d7 b23a 67fd 61be 0a53 a93e 70b6 a5bb
00000130: 23bd d03d 42be 18bd 7da8 c9bc 1b55 85be
00000140: bb2d 30be c3a6 d0be 83d5 22be 1ed2 833e
00000150: 089a 1dbb 9626 a2bc 0b35 9dbe 0971 113e
00000160: 0320 79bd e949 76bc d207 a5be 3ae7 0bbc
00000170: c149 8f3d 9042 6b3d a30f 9cbd b252 64be
00000180: 0631 90bd f81a c9be 0077 443e bcb9 7dbd
00000190: 0040 4dbe d142 42bd aa4d d5bd 4880 693e
000001a0: 2738 4abe e832 73be 8a30 40be 66e4 bbbd
000001b0: ca5e 81be 338b 4c3e 48a0 4a3e e04f 8fbe
000001c0: f14b 593e 34dc 1fbe d577 c3bc ff56 51bd
000001d0: 4cac 57be daf4 693e dcfc 1bbd 1adb 71be
000001e0: 6f28 943e 46c8 32bd 8995 963d 80d9 d83d
000001f0: ae17 c5bd 2b36 253e 6605 2f3e 92bd ea3b
00000200: c914 fbbd 620c 153e 733e 2b3e bf6f 853e
00000210: c885 633e ac97 433e 24a6 0c3e 8790 22bf
00000220: c143 63be 9e88 c0be 0eb6 393e fc79 65bd
00000230: 035e 0d3e b2c2 bd3b d984 c13d ae2a 80be
00000240: fe6e b9bd 17b1 83be 84c0 82be 0006 4f3e
00000250: e544 82be fe34 9dbe 1877 28be 6d7d 2e3e
00000260: b63d 10bd 8b38 253e d55a 793e 638f 62be
00000270: 4c95 253d 40c0 30bd d19c 91be 3159 20be
00000280: 892e 273e 4e9b afbe b54a 7abe c101 9dbe
00000290: 15bf 87be 50dd eabd ce8b 8dbe 3006 493e
000002a0: 9371 a6be 96f4 d9bd a702 93be 6803 4e3e
000002b0: e60c 54be 4b44 8dbd cace bcbc 0a83 b0be
000002c0: c88c a4bc 7cd4 9ebf c49a 1dbe 9b5d 1fbe
000002d0: 13b7 09be 1ec5 c5bd 6834 46be 86cc c9be
000002e0: 54db b9be d2de 1a3c acee eabd 90c3 5abd
000002f0: c311 39bc c10a 45be a667 5abe d3e6 a6be
00000300: d96d 10bd 5b25 00bf 76b3 a2be f90f 323e
00000310: 92ee 34be a66a 933e cde5 d9bc b5b2 b0be
00000320: 180e 81be ed80 3f3b 2ecd 9bbd 1f10 88be
00000330: 0858 ebbe 5874 79be f871 16be dee2 b2be
00000340: 57e1 02be 6144 033e cd50 17be 3133 edbe
00000350: 3ef9 cbbd 354b 343e cf00 9c3c 4018 04be
00000360: 43f2 2abf 5461 36bd a2c4 113e 56d1 8bbe
00000370: b3e4 ce3d 0a1d 0f3d 4adc d4be e40d 96be
00000380: 159b 8ebd a3db c1be 38c8 343e 29d6 b7be
00000390: e23b 373e 6d73 f6be e8de a3be 32c9 ea3d
000003a0: 6ab5 a0be fb6c 7a3d 0be4 413e 2f18 84bd
000003b0: 2902 683e 43b7 313e e933 a8be 5ec8 17bf
000003c0: e5d0 b3be 361e 81bd d9a5 6b3e e613 2c3d
000003d0: 5718 c9bd e038 72bd a791 fbbd 37de 65be
000003e0: 864a 1abf c13a a33e 70e2 dabe 80f6 40be
000003f0: 6af6 4b3d e4ed 1a3e b920 04bf cfa6 9d3e

dense2.dense.bias f4 [15]
0.5903451 0.49043697 0.3917558 1.9117851 0.48400503 0.40706715 2.4397933 0.51299334
0.6530176 0.5151468 0.5726237 0.9139774 0.55616945 -0.03623554 -10.269586
00000000: db20 173f 8e1a fb3e 3794 c83e 60b5 f43f
00000010: 82cf f73e 1b6b d03e 9325 1c40 8853 033f
00000020: 292c 273f a9e0 033f 7897 123f 6cfa 693f
00000030: 1f61 0e3f b86b 14bd 3950 24c1

dense2.batch_norm1.weight f4 [15]
4.467896 5.16297 3.7280078 5.686816 3.7086656 3.6155345 6.022682 4.115537
4.655911 3.988476 4.264231 5.0969324 4.2928314 0.3208592 14.612757
00000000: 01f9 8e40 0d37 a540 ae97 6e40 66fa b540
00000010: c75a 6d40 eb64 6740 d0b9 c040 7bb2 8340
00000020: 39fd 9440 3143 7f40 9574 8840 121a a340
00000030: e05e 8940 a847 a43e dacd 6941

dense2.batch_norm1.bias f4 [15]
-3.0534375 -3.1953824 -2.703709 -2.8285053 -2.4545474 -2.3821833 -2.518493 -2.881776
-2.7811654 -2.433906 -2.6575468 -2.7219646 -2.940138 -0.79091525 4.94298
00000000: 856b 43c0 2581 4cc0 9109 2dc0 3b06 35c0
00000010: 4e17 1dc0 b175 18c0 fd2e 21c0 056f 38c0
00000020: 9dfe 31c0 1ec5 1bc0 3f15 2ac0 ab34 2ec0
00000030: 392b 3cc0 6c79 4abf e42c 9e40

dense2.batch_norm1.running_mean f4 [15]
0.26414195 0.15497707 0.062506504 1.574422 0.119859725 0.10994113 2.21688 0.15426508
0.342666 0.24042578 0.26163298 0.57895017 0.22002764 -0.15910432 -10.656974
00000000: 9d3d 873e 4fb2 1e3e 6903 803d a986 c93f
00000010: 0479 f53d d128 e13d 5de1 0d40 aaf7 1d3e
00000020: eb71 af3e 2d32 763e c2f4 853e 1436 143f
00000030: ed4e 613e 3eec 22be f782 2ac1

dense2.batch_norm1.running_var f4 [15]
0.4943549 0.5894853 0.40326506 0.7953841 0.41655937 0.3068635 0.6377173 0.43373194
0.4608752 0.32460085 0.41087493 0.7316642 0.38356224 1.9179528 1.563684
00000000: 161c fd3e 82e8 163f c278 ce3e 4b9e 4b3f
00000010: 4547 d53e 361d 9d3e 7141 233f 1d12 de3e
00000020: d6f7 eb3e 1532 a63e 335e d23e 584e 3b3f
00000030: 4562 c43e 7a7f f53f cc26 c83f
