classification/model_rnafm/13_final/120Epoch/rna_type_checkpoint_fold_4.pt (torch, 252002 bytes, 24 tensors)

layer1.conv1.weight f4 [30, 30, 5]
-0.7202703 -0.9715267 1.3321618 -0.8303568 0.6369651 0.21712078 -0.41834235 -0.7421624
0.10943349 -0.6814164 0.38509116 0.24259183 0.2332428 0.7045968 0.078059964 0.75434583
-0.099557765 -0.61363995 0.09886571 -0.08529038 0.063877575 0.08521099 -0.36179477 -0.042628076
-0.13113995 -0.43976817 0.4272966 0.0740629 -0.15632427 0.091563806 0.032131247 0.1549399
0.16881485 -0.2438017 0.12003634 0.22896977 0.07223084 -0.7905501 0.10168915 0.12210393
0.14827685 0.09556496 -0.37177062 0.21072781 -0.1644171 0.18128127 0.14150245 -0.15047623
0.057830956 0.07888392 0.1061557 0.05642349 -0.20919527 -0.045163184 -0.34773067 0.0776623
0.24150166 0.019546047 0.11500564 0.101474166 -0.106329255 0.0078254845 0.23426752 0.13104887
0.2810971 0.09738842 0.12843896 0.075258195 -0.11782438 -0.0951003 0.01914034 0.07492461
-0.11112407 0.18938316 -0.02970702 0.068659015 -0.050524063 0.14328156 -0.036332764 0.1445895
0.14647952 -0.1255656 0.21894664 0.030990884 -0.11556962 -0.0017160394 -0.13091974 0.092940435
0.14493066 -0.023160433 -0.16035622 0.039291594 -0.233901 0.009656408 -0.023687223 -0.11568881
0.03542793 -0.37917495 -0.12632084 -0.0792057 -0.05854545 -0.066968486 -0.20264977 -0.20620786
0.06384108 -0.251468 -0.12142372 -0.15060739 -0.054250278 0.14628887 -0.046233404 -0.02524004
0.1990859 0.15294416 0.124466695 -0.08160776 -0.009171848 -0.065082416 0.15271021 -0.006014076
-0.045408852 0.017429553 -0.083529785 0.15840754 -0.09396447 -0.21278517 -0.07700442 -0.1277634
0.09881859 0.011351131 -0.031820506 0.19309734 0.12825678 -0.005363392 -0.11831456 0.104003094
-0.005202662 0.063846454 0.021302393 -0.30289307 0.18934539 0.017854713 0.067542866 0.014161637
-0.07300485 0.117229335 -0.070206754 0.016152354 -0.022041615 -0.08207775 0.13532026 0.28726742
0.20656173 0.11536082 -0.42172197 0.3005809 0.11377637 0.15014286 -0.053361163 0.5936817
-0.4838318 -0.09170631 -0.01338779 -0.19474337 0.3650336 0.06978154 0.06839576 0.43706286
0.122831926 0.16189475 0.03694874 -0.03662433 0.522143 0.29579395 -0.24407515 -0.19143653
-0.22014037 0.15839222 -0.42129034 -0.09850288 0.053557582 0.12908913 0.10133493 -0.14849454
-0.15230016 -0.37042436 0.25830248 0.09478414 0.45718598 0.28697672 0.090733506 0.55114305
0.16858795 0.43684 0.111062005 -0.20823349 0.07498631 -0.25212997 0.09240776 0.21858323
-0.4342462 -0.066754125 -0.04840429 0.084592156 0.12330335 -0.32168186 -0.05353559 0.011004411
0.011077663 0.0025728522 0.13373686 0.052832168 -0.30526438 -0.067762494 0.07349712 0.03139975
-0.14074734 -0.4685198 0.23079388 0.20959866 -0.1374039 0.08019418 -0.047533374 0.016017875
-0.21231131 0.07932136 0.17748336 0.4350519 0.16613303 -0.5831523 -0.17426948 -0.023322329
-0.041418362 0.051220596 0.055849575 -0.32673672 -0.22068045 -0.1147055 0.030806158 -0.03646896
-0.4576267 -0.14345542 -0.15584412 0.22416466 -0.0861301 -0.30238745 0.11257075 -0.2117205
-0.1555503 -0.6135965 0.04538768 0.113168195 -0.43540105 -0.31546396 -0.46631622 0.046825908
00000000: a263 38bf f9b5 78bf 4784 aa3f 4392 54bf
00000010: 2510 233f e954 5e3e f830 d6be 5bfe 3dbf
00000020: aa1e e03d 4e71 2ebf ab2a c53e fe69 783e
00000030: 33d7 6e3e 7560 343f e7dd 9f3d cf1c 413f
00000040: f1e4 cbbd 8217 1dbf 1b7a ca3d b9ac aebd
00000050: 3fd2 823d 1983 ae3d 2a3d b9be c79a 2ebd
00000060: 8d49 06be 4b29 e1be 9fc6 da3e 4aae 973d
00000070: 7813 20be ce85 bb3d 0e9c 033d 91a8 1e3e
00000080: cddd 2c3e 27a7 79be 9dd5 f53d 0d77 6a3e
00000090: c3ed 933d 7e61 4abf 6742 d03d a011 fa3d
000000a0: e3d5 173e 90b7 c33d b858 bebe 08c9 573e
000000b0: f55c 28be cca1 393e 05e6 103e 7116 1abe
000000c0: 27e0 6c3d e58d a13d 2968 d93d 511c 673d
000000d0: 4937 56be 08fd 38bd c109 b2be 690d 9f3d
000000e0: 364c 773e 081f a03c 1488 eb3d b0d1 cf3d
000000f0: 27c3 d9bd 7636 003c d3e3 6f3e ad31 063e
00000100: f6eb 8f3e 9473 c73d 8185 033e f820 9a3d
00000110: e94d f1bd f2c3 c2bd 34cc 9c3c 1372 993d
00000120: 0495 e3bd a9ed 413e 235c f3bc 199d 8c3d
00000130: 52f2 4ebd 67b8 123e aad1 14bd 450f 143e
00000140: bafe 153e 4594 00be 8c33 603e 98e0 fd3c
00000150: c4af ecbd baec e0ba d30f 06be 8e57 be3d
00000160: b468 143e f3ba bdbc 6c34 24be 39f0 203d
00000170: be83 6fbe e935 1e3c b50b c2bc 41ee ecbd
00000180: e11c 113d 3823 c2be 405a 01be 9936 a2bd
00000190: 5bcd 6fbd c626 89bd 6c83 4fbe 2728 53be
000001a0: 1dbf 823d 6ac0 80be 00ad f8bd d338 1abe
000001b0: 8a35 5ebd c0cc 153e 3d5f 3dbd 33c4 cebc
000001c0: 2ddd 4b3e 659d 1c3e 65e8 fe3d f821 a7bd
000001d0: 8545 16bc ee49 85bd 1160 1c3e ba11 c5bb
000001e0: a2fe 39bd 6cc8 8e3c aa11 abbd 9635 223e
000001f0: 7270 c0bd 5be4 59be 7eb4 9dbd 69d4 02be
00000200: 6761 ca3d 18fa 393c 3856 02bd 4fbb 453e
00000210: bf55 033e 65bf afbb e74e f2bd 93ff d43d
00000220: 187b aabb eec1 823d 5b82 ae3c cd14 9bbe
00000230: c2e3 413e 0c44 923c ea53 8a3d 3606 683c
00000240: 9183 95bd ef15 f03d 8fc8 8fbd f151 843c
00000250: 9e90 b4bc 6118 a8bd 6591 0a3e b714 933e
00000260: eb84 533e 4b42 ec3d f1eb d7be bde5 993e
00000270: 9603 e93d 0dbf 193e 3c91 5abd 86fb 173f
00000280: cdb8 f7be 85d0 bbbd 7658 5bbc ce6a 47be
00000290: afe5 ba3e a0e9 8e3d 1413 8c3d b4c6 df3e
000002a0: 4e8f fb3d bdc7 253e 9057 173d 6503 16bd
000002b0: 2aab 053f 4e72 973e d6ee 79be f007 44be
000002c0: 7a6c 61be 9231 223e 5eb3 d7be e1bb c9bd
000002d0: 325f 5b3d f12f 043e b088 cf3d f40e 18be
000002e0: 93f4 1bbe 43a8 bdbe 3940 843e 301e c23d
000002f0: 4814 ea3e 9dee 923e 7dd2 b93d b617 0d3f
00000300: 52a2 2c3e 7ea9 df3e 7a74 e33d 293b 55be
00000310: 6c92 993d 2e17 81be 4840 bd3d 48d4 5f3e
00000320: 8555 debe 63b6 88bd 9443 46bd a73e ad3d
00000330: 7786 fc3d 7cb3 a4be 2348 5bbd d84b 343c
00000340: 167f 353c 4c9d 283b 51f2 083e 8b66 583d
00000350: 9d4b 9cbe 10c7 8abd a885 963d 069d 003d
00000360: 1220 10be d4e1 efbe 3b55 6c3e 08a1 563e
00000370: 9cb3 0cbe d93c a43d 5bb2 42bd eb37 833c
00000380: 2368 59be 3d73 a23d 33be 353e 1fbf de3e
00000390: c71e 2a3e 7849 15bf b373 32be 780e bfbc
000003a0: 4da6 29bd b0cc 513d 86c2 643d 094a a7be
000003b0: 0efa 61be b8ea eabd 325d fc3c 7a60 15bd
000003c0: 0c4e eabe fae5 12be 9a95 1fbe 6c8b 653e
000003d0: fa64 b0bd 87d2 9abe 7e8b e63d 42cd 58be
000003e0: 9448 1fbe a914 1dbf 6fe8 393d bac4 e73d
000003f0: e3ec debe 7e84 a1be 00c1 eebe 86cc 3f3d

layer1.conv1.bias f4 [30]
0.03573672 0.021172116 0.11874656 0.013672441 0.064745486 -0.085762925 -0.026619412 0.092801176
0.024871182 -0.058818866 -0.07425656 0.1508367 0.018844765 -0.13762116 0.03800831 0.02565998
-0.096552484 -0.048094746 -0.0018507923 -0.013544924 0.009304141 0.027101409 -0.047436647 -0.19338256
0.12188309 0.113415405 -0.07469308 0.07451161 0.0026757785 0.0460138
00000000: ab60 123d 2571 ad3c 6531 f33d 6002 603c
00000010: 4899 843d 79a4 afbd f410 dabc 8b0e be3d
00000020: a6be cb3c 0dec 70bd d313 98bd f074 1a3e
00000030: 5660 9a3c 90ec 0cbe 9aae 1b3d e134 d23c
00000040: 4fbd c5bd fffe 44bd 4996 f2ba 87eb 5dbc
00000050: 6570 183c c603 de3c ee4c 42bd 1406 46be
00000060: d79d f93d 5646 e83d aff8 98bd 8b99 983d
00000070: 1d5c 2f3b f778 3c3d

layer1.bn1.weight f4 [30]
1.0389018 0.6124001 0.7822583 0.689364 0.62043524 0.7190866 0.68127346 0.9920559
0.5449439 0.76551974 0.6098172 1.120307 0.84884226 1.0613146 0.6897463 0.7706238
0.89219743 0.80263114 0.42993084 1.1093012 0.7578922 0.7949889 0.5187821 0.9849694
1.1118847 1.1560864 0.7365005 0.7508931 0.7678959 0.64840984
00000000: bcfa 843f 41c6 1c3f 1442 483f 297a 303f
00000010: d8d4 1e3f 0f16 383f f067 2e3f 60f7 7d3f
00000020: 7281 0b3f 1af9 433f fb1c 1c3f 3866 8f3f
00000030: ba4d 593f 28d9 873f 3793 303f 9a47 453f
00000040: 0d67 643f 3c79 4d3f e51f dc3e 95fd 8d3f
00000050: 3905 423f 6484 4b3f e7ce 043f f426 7c3f
00000060: 3d52 8e3f a4fa 933f 4c8b 3c3f 883a 403f
00000070: d394 443f 30fe 253f

layer1.bn1.bias f4 [30]
0.15048334 0.010610372 0.054310136 0.16883749 0.06232737 0.13419104 0.062464934 0.06931417
0.046347387 0.050871864 0.02180126 0.14125602 -0.005960513 0.12490916 0.08387634 -0.044672973
-0.061095424 -0.011681626 -0.024871606 -0.009860759 -0.27953416 -0.043705087 -0.048565816 0.16156949
0.02937493 0.11378847 0.063209504 0.043765962 0.20299947 0.022196142
00000000: 4e18 1a3e 20d7 2d3c 4e74 5e3d bce3 2c3e
00000010: fc4a 7f3d 6069 093e 3bdb 7f3d 96f4 8d3d
00000020: c2d6 3d3d 045f 503d 8e98 b23c 6ba5 103e
00000030: 6850 c3bb 60d0 ff3d 5cc7 ab3d 02fb 36bd
00000040: 323f 7abd 4a64 3fbc 8abf cbbc 058f 21bc
00000050: 1a1f 8fbe 1b04 33bd f3ec 46bd 7972 253e
00000060: b1a3 f03c ee09 e93d fc73 813d f043 333d
00000070: 18df 4f3e afd4 b53c

layer1.bn1.running_mean f4 [30]
0.032654684 0.00912296 0.10949872 0.00768666 0.047149494 -0.08601129 -0.05117641 0.078176685
0.012435483 -0.06153125 -0.07831062 0.14045025 0.005970675 -0.15271981 0.024574932 0.018351194
-0.12039903 -0.070722446 -0.005586203 -0.016329156 0.029286264 0.01854766 -0.06249247 -0.20818381
0.10928905 0.1068923 -0.07416857 0.066700555 -0.001225515 0.043787044
00000000: ebc0 053d 7878 153c dd40 e03d 61e0 fb3b
00000010: d41f 413d b026 b0bd 5b9e 51bd 191b a03d
00000020: 32be 4b3c 3108 7cbd 5161 a0bd 31d2 0f3e
00000030: a7a5 c33b 9562 1cbe 5e51 c93c 3e55 963c
00000040: c493 f6bd eed6 90bd 780c b7bb b9c4 85bc
00000050: bfe9 ef3c 43f1 973c 1bf8 7fbd 232e 55be
00000060: f0d2 df3d 5aea da3d b1e5 97bd 4d9a 883d
00000070: 76a1 a0ba 0b5a 333d

layer1.bn1.running_var f4 [30]
1.0508862 8.831957 1.2592396 5.283416 5.1340046 2.3640966 9.307517 4.830719
3.1701665 1.4549845 2.3978517 2.1588783 4.399291 2.1714358 2.1395442 2.8578038
6.25767 9.707316 4.38086 0.3894393 5.790344 4.0388913 5.204016 2.5127575
3.7334409 2.181061 2.4276557 3.0012932 1.7557083 2.0580955
00000000: 7083 863f b24f 0d41 c32e a13f be11 a940
00000010: c449 a440 5c4d 1740 97eb 1441 4095 9a40
00000020: 02e4 4a40 ef3c ba3f 6776 1940 102b 0a40
00000030: fec6 8c40 cef8 0a40 4bee 0840 42e6 3640
00000040: d53e c840 2b51 1b41 0130 8c40 9764 c73e
00000050: 804a b940 993e 8140 4d87 a640 05d1 2040
00000060: b2f0 6e40 8196 0b40 b65e 1b40 3015 4040
00000070: 0dbb e03f d6b7 0340

conv1.weight f4 [30, 30, 5]
0.54099035 0.3332004 -0.20808388 0.51779217 -0.30349305 0.02294081 -0.06938103 -0.029171431
-0.23671705 -0.2636681 0.04329492 0.47761598 -0.09622308 -0.021140601 0.16035466 -0.2854374
0.055961393 -0.04642283 -0.0009796992 -0.5719167 -0.07677256 0.35577393 0.24851276 -0.15916851
-0.052835636 0.003866232 -0.2965886 0.22723494 -0.36843187 -0.058299158 0.11193268 -0.084748834
-0.17344101 0.2701701 0.123469785 0.12063519 -0.2280166 -0.2183824 -0.36951876 -0.3301488
0.18034238 0.05957504 0.110734634 -0.02267538 -0.112026975 -0.085204825 -0.2870532 0.34919015
-0.33230636 0.16584621 -0.2533289 0.15758526 0.31969747 0.037056904 0.014551349 -0.5037216
-0.24852026 -0.18244515 0.36729816 0.13727506 -0.4687842 -0.24993885 -0.120297685 -0.045430377
-0.0021785898 -0.35708505 -0.25460762 -0.10850173 0.22261548 0.18997836 0.19231781 0.023104899
0.08260261 0.22189716 -0.4205719 -0.016572697 0.033807065 -0.15802307 0.07487282 0.07764337
0.117502764 -0.05575649 -0.43203014 0.07601078 -0.38285586 -0.26293203 0.02054342 -0.17191213
-0.19596975 0.09201329 0.20623295 0.07021278 0.2452701 0.055651423 0.036180627 0.067387804
0.64692205 -0.046030875 0.18197206 0.020271411 -0.31555596 -0.065012924 0.019799775 -0.13170218
0.16072893 -0.25762367 -0.30245703 -0.3236183 -0.118001565 0.17820755 -0.19677493 -0.17294173
-0.061004292 -0.09184471 0.31596586 -0.25923824 0.31598374 0.45110372 0.22491899 -0.1726
-0.44502205 -0.25369084 0.23569788 -0.0069868155 -0.17604598 0.19214717 -0.2848201 -0.24285224
-0.26421744 -0.3480451 0.2669858 -0.25460958 0.011502811 -0.006758209 -0.10120524 0.1729968
0.08742789 -0.01973597 0.029184854 -0.0812003 0.32804343 0.11358389 -0.2898218 -0.22512102
-0.2780789 -0.22520758 0.17717186 0.0698696 0.33143738 -0.08008538 0.53436756 0.3323006
-0.18774939 0.513924 -0.309971 0.023578865 -0.040488873 -0.0065970737 -0.26899236 -0.29396453
0.052556183 0.47617066 -0.072616205 -0.016436951 0.20139521 -0.27727753 0.05275492 -0.08222966
-0.017138733 -0.55489427 -0.047855254 0.39910153 0.24758436 -0.17226367 -0.0658629 0.054822613
-0.33931357 0.21320856 -0.34729275 -0.04743065 0.08798829 -0.12579 -0.089520656 0.23962165
0.159781 0.14061944 -0.21298458 -0.22763395 -0.39878318 -0.29580998 0.16833794 0.04915933
0.096584536 -0.05398266 -0.121538125 -0.042566363 -0.25599808 0.2940314 -0.3457304 0.16880366
-0.29402342 0.16270083 0.33827358 0.03712943 0.014332344 -0.4704408 -0.2344109 -0.15490788
0.34516034 0.11050686 -0.47587776 -0.1955166 -0.11847109 -0.0781486 -0.011447971 -0.33351627
-0.28589785 -0.11282488 0.23578699 0.17895146 0.18382874 -0.01972291 0.07276186 0.24586613
-0.389955 -0.055323076 -0.018784309 -0.1823777 0.09831829 0.09813388 0.09089007 0.0010432863
-0.4398609 0.085714854 -0.38094985 -0.25718015 -0.030773016 -0.11495637 -0.22632912 0.01753287
0.19762315 0.03831199 0.2593704 0.10849164 0.06239101 0.05824774 0.64681363 -0.040471766
0.19683535 0.02105701 -0.26905304 -0.064229265 0.02851467 -0.13324808 0.17347804 -0.24150392
00000000: 587e 0a3f 3e99 aa3e f113 55be 078e 043f
00000010: 7163 9bbe 5eee bb3c a417 8ebd edf8 eebc
00000020: f465 72be 81ff 86be 0456 313d 158a f43e
00000030: 9b10 c5bd 0e2f adbc 0334 243e da24 92be
00000040: c637 653d de25 3ebd 4069 80ba 2269 12bf
00000050: ef3a 9dbd 0028 b63e 217a 7e3e 12fd 22be
00000060: 2e6a 58bd 9c60 7d3b 76da 97be 47b0 683e
00000070: 1aa3 bcbe 19cb 6ebd f63c e53d cc90 adbd
00000080: 859a 31be bc53 8a3e badd fc3d 950f f73d
00000090: 2f7d 69be a39f 5fbe 9031 bdbe 4309 a9be
000000a0: acab 383e f504 743d d7c8 e23d b8c1 b9bc
000000b0: 666e e5bd de7f aebd a3f8 92be 0dc9 b23e
000000c0: 0f24 aabe 97d3 293e 53b4 81be 085e 213e
000000d0: 63af a33e fbc8 173d c868 6e3c e6f3 00bf
000000e0: 187c 7ebe e7d2 3abe 810e bc3e d591 0c3e
000000f0: 7c04 f0be f8ef 7fbe a25e f6bd 3415 3abd
00000100: acc6 0ebb dad3 b6be ee5b 82be 2836 debd
00000110: 50f5 633e b089 423e f6ee 443e 7c46 bd3c
00000120: 8f2b a93d 0239 633e 3355 d7be 77c3 87bc
00000130: 4779 0a3d cdd0 21be ec56 993d 7d03 9f3d
00000140: 4aa5 f03d eb60 64bd 0e33 ddbe 8aab 9b3d
00000150: af05 c4be 079f 86be ad4a a83c bc09 30be
00000160: 4bac 48be 7771 bc3d bb2e 533e b8cb 8f3d
00000170: 1628 7b3e bff2 633d 2332 143d 9e02 8a3d
00000180: af9c 253f df8a 3cbd e256 3a3e 3b10 a63c
00000190: 8d90 a1be 7f25 85bd 2333 a23c f0dc 06be
000001a0: 2096 243e 40e7 83be a6db 9abe 4cb1 a5be
000001b0: ceaa f1bd 0a7c 363e 5e7f 49be a317 31be
000001c0: a3df 79bd 1419 bcbd 47c6 a13e e0ba 84be
000001d0: 9fc8 a13e 11f7 e63e 2a51 663e 0ebe 30be
000001e0: eed9 e3be c4e3 81be c95a 713e a8f1 e4bb
000001f0: 6645 34be 3ac2 443e f1d3 91be 42ae 78be
00000200: 8247 87be f832 b2be 5db2 883e 305c 82be
00000210: 4976 3c3c f773 ddbb b144 cfbd 1326 313e
00000220: 650d b33d 54ad a1bc 1315 ef3c 584c a6bd
00000230: 4ff5 a73e ac9e e83d 8663 94be 2086 66be
00000240: 5c60 8ebe d19c 66be 8a6c 353e cb17 8f3d
00000250: 29b2 a93e ce03 a4bd 50cc 083f 4e23 aa3e
00000260: 6041 40be 8690 033f 85b4 9ebe 7728 c13c
00000270: a9d7 25bd 442c d8bb 5eb9 89be 8582 96be
00000280: 2745 573d a4cc f33e ceb7 94bd c9a6 86bc
00000290: 8c3a 4e3e 52f7 8dbe 8b15 583d 0668 a8bd
000002a0: 8766 8cbc 8d0d 0ebf df03 44bd 0957 cc3e
000002b0: c186 7d3e e365 30be 21e3 86bd ad8d 603d
000002c0: 82ba adbe 5853 5a3e 5bd0 b1be a446 42bd
000002d0: 3433 b43d 18cf 00be 9b56 b7bd 615f 753e
000002e0: a19d 233e 8bfe 0f3e a118 5abe e018 69be
000002f0: 4f2d ccbe 6874 97be c860 2c3e 4b5b 493d
00000300: 1dce c53d ec1c 5dbd fbe8 f8bd 115a 2ebd
00000310: 2e12 83be 498b 963e 9303 b1be deda 2c3e
00000320: 3d8a 96be 0c9b 263e 3232 ad3e 0715 183d
00000330: 35d2 6a3c 9edd f0be 6909 70be 2ca0 1ebe
00000340: dbb8 b03e 6c51 e23d 40a6 f3be 8135 48be
00000350: f9a0 f2bd 600c a0bd 4590 3bbc a5c2 aabe
00000360: 3461 92be bb10 e7bd 2572 713e 0d3f 373e
00000370: 9a3d 3c3e f191 a1bc 2c04 953d 55c4 7b3e
00000380: 2fa8 c7be 739a 62bd 8de1 99bc 38c1 3abe
00000390: 1a5b c93d 6afa c83d 9324 ba3d e1be 883a
000003a0: 7335 e1be 458b af3d dc0b c3be 1ead 83be
000003b0: b117 fcbc 3f6e ebbd d2c2 67be 18a1 8f3c
000003c0: b95d 4a3e 09ed 1c3d 32cc 843e dd30 de3d
000003d0: b78d 7f3d 2f95 6e3d 9495 253f b9c5 25bd
000003e0: 358f 493e c07f ac3c 52c1 89be a28a 83bd
000003f0: 9997 e93c 2f72 08be 3aa4 313e ce4c 77be

conv1.bias f4 [30]
-0.19870803 -0.06190302 -0.062394835 0.012528729 0.07266841 0.100099266 -0.011144078 -0.107219286
-0.044116393 -0.060734317 0.009061328 0.020318285 0.09159012 -0.11934291 -0.036629457 0.057180524
-0.012755051 -0.025453955 0.00944497 0.054735377 -0.018015852 0.030256517 0.03598023 0.06297582
-0.0637691 -0.041547436 0.032695487 -0.031014217 -0.0021644167 0.019244991
00000000: 1e7a 4bbe 058e 7dbd ba91 7fbd 4c45 4d3c
00000010: 2dd3 943d d800 cd3d a795 36bc c995 dbbd
00000020: 64b3 34bd 8cc4 78bd f775 143c 8872 a63c
00000030: 9a93 bb3d 0e6a f4bd c508 16bd 2036 6a3d
00000040: 90fa 50bc d084 d0bc 13bf 1a3c 3432 603d
00000050: fb95 93bc 84dc f73c 0160 133d 77f9 803d
00000060: 6099 82bd a52d 2abd b4eb 053d 8711 febc
00000070: e3d8 0dbb aca7 9d3c

bn1.weight f4 [30]
1.1504422 1.1496483 1.181552 1.1425258 1.1292323 1.14188 1.0599762 1.0190716
1.0302169 0.93392146 0.94157875 0.9053722 0.89596456 0.83668137 0.84573334 0.83136404
0.7728034 0.7099156 0.75445044 0.6651849 1.6592606 0.71975994 0.73028624 0.7180506
0.7676406 0.71930814 0.6676508 0.6794 0.6724371 0.65835494
00000000: b141 933f ad27 933f 193d 973f 493e 923f
00000010: af8a 903f 2029 923f 4dad 873f f070 823f
00000020: 26de 833f 7a15 6f3f 4e0b 713f 79c6 673f
00000030: ef5d 653f c030 563f fb81 583f 46d4 543f
00000040: 72d6 453f 07bd 353f aa23 413f 8f49 2a3f
00000050: a762 d43f 3042 383f 0af4 3a3f 2ad2 373f
00000060: 1884 443f 9424 383f 2aeb 2a3f 29ed 2d3f
00000070: d624 2c3f f389 283f

bn1.bias f4 [30]
-0.04645798 -0.055468522 -0.051670015 -0.04628013 -0.006363114 -0.026445221 0.022030009 0.007979543
0.0017519353 0.048022825 0.042172316 0.06663887 0.055938806 0.07366964 0.075271435 0.09500137
0.10206417 0.113252446 0.10817947 0.13070323 0.27253315 0.14418301 0.1438082 0.15955637
0.14772671 0.1562668 0.17208467 0.16070718 0.15525723 0.16644564
00000000: b94a 3ebd f632 63bd f0a3 53bd 3c90 3dbd
00000010: ab81 d0bb a6a3 d8bc 4778 b43c a1bc 023c
00000020: 32a1 e53a 95b3 443d e1bc 2c3d f679 883d
00000030: 1720 653d 1ce0 963d e927 9a3d 1490 c23d
00000040: 0507 d13d e6f0 e73d 338d dd3d 11d7 053e
00000050: 7789 8b3e b6a4 133e 7542 133e bf62 233e
00000060: ac45 173e 6704 203e f736 303e 6c90 243e
00000070: c0fb 1e3e ba70 2a3e

bn1.running_mean f4 [30]
-1.1405735 -1.0189584 -0.9694327 -0.7534148 -0.7749866 -0.85604984 -0.8579414 -0.91446406
-0.9429303 -0.89304596 -0.7938054 -0.908287 -0.8259366 -1.1088872 -0.887205 -0.8665389
-0.8396426 -0.54810464 -0.7150426 -0.50861585 -0.09739929 -0.6909819 -0.54085064 -0.5967183
-0.5845833 -0.50765216 -0.14873573 -0.3344024 -0.5738171 -0.31291398
00000000: 50fe 91bf 3b6d 82bf be2c 78bf cbdf 40bf
00000010: 8665 46bf 1526 5bbf 0ca2 5bbf 511a 6abf
00000020: e163 71bf a99e 64bf d536 4bbf 7f85 68bf
00000030: 9570 53bf 04f0 8dbf de1f 63bf 7ed5 5dbf
00000040: d1f2 56bf 9650 0cbf 080d 37bf a634 02bf
00000050: 4779 c7bd 31e4 30bf 3075 0abf 88c2 18bf
00000060: 40a7 15bf 7ef5 01bf 2e4e 18be cb36 abbe
00000070: ade5 12bf 4336 a0be

bn1.running_var f4 [30]
4.106942 4.0615387 4.160779 3.9046602 3.6471128 4.6110287 3.886307 3.9827013
4.6576457 4.7435794 4.4526997 5.23963 4.5812697 4.308643 4.769065 5.1189704
4.949235 3.7101934 4.391178 3.862358 1.2686784 4.752023 4.505145 6.557802
4.842602 5.9115562 6.2955985 6.653823 6.848388 5.608238
00000000: 126c 8340 20f8 8140 1a25 8540 f4e5 7940
00000010: 4c6a 6940 8c8d 9340 41b9 7840 94e4 7e40
00000020: 6f0b 9540 67cb 9740 847c 8e40 0dab a740
00000030: c399 9240 67e0 8940 2e9c 9840 9bce a340
00000040: 2260 9e40 cf73 6d40 8884 8c40 e030 7740
00000050: 0e64 a23f 9310 9840 262a 9040 84d9 d140
00000060: 98f6 9a40 782b bd40 8b75 c940 1eec d440
00000070: ff25 db40 b076 b340

dense1.dense.weight f4 [96, 512]
0.2737856 0.3805216 -0.36304674 0.19565596 -0.086636215 -0.2687736 -0.108070895 0.035812937
0.04761327 -0.13321325 -0.4760636 0.1259054 -0.47567332 0.098047286 0.03580586 0.1946183
0.050272126 -0.29432714 -0.2521838 0.13076365 0.06842247 0.18263416 -0.9455137 0.096426345
0.12257763 -0.48835555 -0.41025975 0.3194059 0.19549699 -0.038543075 -0.044814795 0.17296
0.13382356 0.33868936 -0.1613754 -0.6470899 -0.010667797 -0.07932398 -0.19142106 -0.4308269
-0.13557649 0.13898021 0.12936491 0.16603455 -0.318467 0.1145874 -0.0018736828 -0.08318856
-0.0043820627 -0.0069594365 -0.054131452 0.32819667 -0.086600505 -0.087675005 -0.2952975 0.11251162
0.25839305 -0.3411346 0.107269675 0.112252794 0.3547537 0.36577654 -0.11608474 -0.5748195
0.16299099 0.40445825 0.26871932 -0.218116 -0.27761927 -0.1328042 0.07384126 -0.14915113
0.40722153 -0.032078598 -0.045815323 -0.087287545 -0.2690341 -0.4009034 0.06751377 -0.36868423
0.058124855 -0.10954599 0.38755763 0.11696905 0.1863287 0.1435354 -0.038413033 -0.05014233
0.02672569 -0.24818134 0.24892941 -0.33881083 0.057628013 0.14459592 0.11134575 0.19682239
-0.09672553 -0.1278279 0.18878758 0.032407176 0.14964779 -0.16409732 0.051585168 0.058866486
0.099089354 -0.052853942 0.009180683 0.20819889 0.19992204 -0.04654501 0.13813362 0.19219829
0.011537472 -0.66194856 0.021272995 0.23288044 0.03222047 -0.08615698 -0.18438038 -0.3839849
-0.055696346 0.16869561 -0.14647949 -0.008426398 0.50437874 0.34533846 -0.11636311 -0.24613672
0.7232545 -0.7384395 0.09489629 0.19132492 0.096898444 -0.08376378 -0.10148728 -0.48880517
-0.27878612 -0.25819707 0.14397985 -0.16314475 -0.075715475 -0.6770031 -0.17639503 0.19969209
0.11890032 -0.1365127 -0.20442896 -0.010499654 -0.20898797 -0.28027323 -0.079461575 -0.3236185
-0.52621824 -0.27307335 -0.037132032 0.09492095 0.10315876 0.08566423 -0.075698406 -0.039649587
0.028963648 -0.22099549 0.10696119 -0.14909704 -0.68886966 -0.3642225 0.14450632 0.3263111
0.13232626 0.4986496 0.21365781 0.1463153 0.19486496 0.46620065 0.21395868 -0.13008851
-0.02247377 0.03840961 -0.07923437 0.049125936 -0.35070512 -0.098355636 0.08716793 0.039401997
0.131303 -0.05052656 -0.056348655 0.068442084 -0.2941703 -0.090954676 0.19891155 -0.08538016
0.3018745 -0.025748245 -0.113748066 -0.0015681311 -0.4284775 -0.15027511 -0.18795899 -0.1484103
0.19920027 -0.3085855 -0.43360516 0.120039314 -0.4455433 -0.06280923 -0.3247183 -0.7581488
-0.123119675 -0.19308053 0.10942908 0.039839316 -0.118259825 -0.019586237 0.025987031 -0.27060923
0.069939956 0.33604738 0.010546182 0.06367285 -0.16071218 -0.00017132846 -0.2120485 0.029564945
0.21774709 -0.12415066 -0.0012265462 0.44118813 -0.07367678 -0.14513774 -0.05748938 0.09323
-0.4990939 0.0020992078 -0.2737227 -0.6733552 -0.3139843 -0.49656382 -0.29550135 -0.6926704
0.13023907 -0.18483494 -0.3545657 -0.35377526 0.29418522 -0.3974827 -0.23163913 0.2335342
0.11264965 0.17287885 -0.06028877 -0.045412146 -0.19354081 0.09750625 0.24498878 -0.42281643
00000000: a02d 8c3e bad3 c23e 43e1 b9be 095a 483e
00000010: 546e b1bd b19c 89be 4654 ddbd 96b0 123d
00000020: 2206 433d 0e69 08be 9cbe f3be 58ed 003e
00000030: 748b f3be 04cd c83d 2aa9 123d 054a 473e
00000040: 25ea 4d3d 0cb2 96be 3c1e 81be e8e6 053e
00000050: 1421 8c3d 7304 3b3e 300d 72bf 2d7b c53d
00000060: fb09 fb3d bd09 fabe 910d d2be 2c89 a33e
00000070: 5d30 483e 58df 1dbd b88f 37bd 6d1c 313e
00000080: 0b09 093e b168 ad3e 983f 25be afa7 25bf
00000090: fcc7 2ebc 9c74 a2bd e203 44be 5895 dcbe
000000a0: 90d4 0abe d450 0e3e 3c78 043e f604 2a3e
000000b0: 1b0e a3be ccac ea3d 5d96 f5ba c45e aabd
000000c0: 6897 8fbb fc0b e4bb f1b8 5dbd 6509 a83e
000000d0: 9b5b b1bd f48e b3bd 3c31 97be 7e6c e63d
000000e0: 184c 843e 32a9 aebe 34b0 db3d cbe4 e53d
000000f0: 47a2 b53e 1047 bb3e d6bd edbd 5f27 13bf
00000100: 1ce7 263e 2715 cf3e 9495 893e cd59 5fbe
00000110: 1d24 8ebe d3fd 07be 163a 973d 13bb 18be
00000120: 577f d03e d964 03bd d9a8 3bbd d0c3 b2bd
00000130: d6be 89be 3643 cdbe a944 8a3d 2ec4 bcbe
00000140: 5414 6e3d a659 e0bd f46d c63e 788d ef3d
00000150: f3cc 3e3e f2fa 123e fc56 1dbd 0b62 4dbd
00000160: d6ef da3c 4023 7ebe 5ae7 7e3e 9d78 adbe
00000170: 5a0b 6c3d f410 143e 3e09 e43d cf8b 493e
00000180: 0918 c6bd 51e5 02be 8851 413e 63bd 043d
00000190: 453d 193e 2109 28be f84a 533d fc1d 713d
000001a0: 5cef ca3d 607d 58bd 936a 163c 1732 553e
000001b0: 5db8 4c3e fba5 3ebd e672 0d3e a1cf 443e
000001c0: aa07 3d3c 7675 29bf b444 ae3c 3678 6e3e
000001d0: 9df9 033d 1273 b0bd 36ce 3cbe ab99 c4be
000001e0: da21 64bd 8bbe 2c3e b8fe 15be e00e 0abc
000001f0: f71e 013f 34d0 b03e c84f eebd 440b 7cbe
00000200: 3527 393f 5f0a 3dbf fc58 c23d aeea 433e
00000210: b172 c63d 588c abbd 90d8 cfbd ac44 fabe
00000220: 0ebd 8ebe 6832 84be 746f 133e 6b0f 27be
00000230: b710 9bbd 1350 2dbf e6a0 34be 157c 4c3e
00000240: 0382 f33d fcc9 0bbe d355 51be be06 2cbc
00000250: f100 56be f97f 8fbe c0bc a2bd 53b1 a5be
00000260: 3db6 06bf 45d0 8bbe c217 18bd ea65 c23d
00000270: e644 d33d ba70 af3d c407 9bbd 9b67 22bd
00000280: 2c45 ed3c a44c 62be 780e db3d e5ac 18be
00000290: c359 30bf 5f7b babe 77f9 133e 4012 a73e
000002a0: 8980 073e 004f ff3e 1dc9 5a3e aed3 153e
000002b0: ae8a 473e dab1 ee3e fc17 5b3e ec35 05be
000002c0: e91a b8bc 6553 1d3d a145 a2bd 4738 493d
000002d0: 9f8f b3be ae6e c9bd 1a85 b23d fd63 213d
000002e0: 4b74 063e f0f4 4ebd d9cd 66bd 5d2b 8c3d
000002f0: 7d9d 96be 7246 babd 78af 4b3e cbdb aebd
00000300: 4b8f 9a3e fced d2bc bff4 e8bd c089 cdba
00000310: 6761 dbbe b8e1 19be 5278 40be dff8 17be
00000320: 28fb 4b3e ebfe 9dbe 7f01 debe 2cd7 f53d
00000330: 401e e4be 20a2 80bd 7a41 a6be 0a16 42bf
00000340: 2b26 fcbd e7b6 45be 5a1c e03d 8d2e 233d
00000350: 3532 f2bd 5173 a0bc c1e2 d43c 4b8d 8abe
00000360: ae3c 8f3d 670e ac3e e5c9 2c3c e966 823d
00000370: bc91 24be a2a6 33b9 3e23 59be 2f32 f23c
00000380: 18f9 5e3e b442 febd 10c4 a0ba 69e3 e13e
00000390: dae3 96bd fd9e 14be fc79 6bbd 5fef be3d
000003a0: 3c89 ffbe dd92 093b 6225 8cbe 0261 2cbf
000003b0: 8dc2 a0be 9d3d febe f44b 97be d952 31bf
000003c0: 645d 053e 5f45 3dbe a389 b5be 0822 b5be
000003d0: 729f 963e da82 cbbe cf32 6dbe 9723 6f3e
000003e0: dcb4 e63d 2707 313e 5bf1 76bd 1602 3abd
000003f0: 902f 46be 5bb1 c73d 57de 7a3e 657b d8be

dense1.dense.bias f4 [96]
0.07074054 0.08508474 0.12509653 0.14665987 0.084787644 0.12514974 0.14168815 0.15843923
0.114191815 0.046580747 0.12819928 0.19884369 0.2704655 0.12580884 0.21909004 0.2290822
0.14738484 0.088447504 0.073492266 0.11750938 0.09544267 0.19286293 0.17997672 0.17025016
0.13463739 0.20783447 0.27685073 0.1944289 0.1871437 0.058162097 0.058455385 0.22724107
0.027980728 0.15812793 0.06538882 0.037538435 -0.013070606 0.0145484 0.17172223 0.15277804
0.1066286 0.094773754 0.19923003 0.1548351 0.12546511 0.12229712 0.1328432 0.13201383
0.19528112 0.13277546 0.08605707 0.21264341 0.14465682 0.15323949 0.14259264 0.17632921
0.16559798 0.110268824 0.15857746 0.07690518 0.10330251 0.11039716 0.19475403 0.102662586
0.10424933 0.14008825 0.16657981 0.12276836 0.11373412 0.14004521 0.03437224 0.11656431
-0.0068797166 0.1931503 0.15817885 0.20084652 0.11720459 0.13742974 0.063652046 0.1760713
0.18152909 0.047201745 0.23107994 0.11470264 0.1500752 0.1783712 0.19101615 -1.1557542
0.19777723 0.18390535 0.16382742 0.16313326 0.14788148 0.1701783 0.06460096 0.016719148
00000000: 6be0 903d e840 ae3d 4e19 003e 012e 163e
00000010: 25a5 ad3d 4127 003e b316 113e e53d 223e
00000020: 66dd e93d 74cb 3e3d ac46 033e ae9d 4b3e
00000030: 747a 8a3e 08d4 003e 2459 603e 8694 6a3e
00000040: 0dec 163e f723 b53d 1d83 963d c2a8 f03d
00000050: 7277 c33d dc7d 453e d14b 383e 0f56 2e3e
00000060: 62de 093e 8fd2 543e 61bf 8d3e 5f18 473e
00000070: 99a2 3f3e 613b 6e3d ea6e 6f3d e2b1 683e
00000080: d737 e53c 4aec 213e 93ea 853d e7c1 193d
00000090: 1826 56bc 6a5c 6e3c f4d7 2f3e d971 1c3e
000000a0: 1860 da3d be18 c23d f502 4c3e 188d 1e3e
000000b0: ed79 003e ea76 fa3d 0c08 083e a22e 073e
000000c0: c6f7 473e 4af6 073e b03e b03d 32bf 593e
000000d0: eb20 143e d0ea 1c3e ce03 123e a58f 343e
000000e0: 8492 293e 9fd4 e13d 2162 223e 7780 9d3d
000000f0: 4490 d33d e817 e23d 9a6d 473e c340 d23d
00000100: ac80 d53d 4b73 0f3e e693 2a3e fa6d fb3d
00000110: 6fed e83d 0368 0f3e e8c9 0c3d 45b9 ee3d
00000120: 3f6f e1bb 31c9 453e a3f9 213e b6aa 4d3e
00000130: f608 f03d 62ba 0c3e 015c 823d 094c 343e
00000140: c3e2 393e 9e56 413d 38a0 6c3e 38e9 ea3d
00000150: 50ad 193e f1a6 363e bd99 433e c1ef 93bf
00000160: 1d86 4a3e af51 3c3e 60c2 273e 680c 273e
00000170: 3e6e 173e 3843 2e3e 824d 843d 98f6 883c

dense1.batch_norm1.weight f4 [96]
0.70018697 0.6597838 0.86066663 0.94851077 1.0027194 0.86500216 0.69641745 0.87623644
0.8666594 0.77341104 0.9549846 0.92861646 0.9998271 0.8614311 0.96066254 0.93403417
0.92719465 0.69337636 0.80013216 0.791921 0.8659278 0.8930623 0.9455392 0.888076
0.9160652 0.9895981 0.9957569 0.86550003 0.9208924 0.7454825 0.9288755 0.9482044
0.8162517 0.8347511 0.59617436 0.30418873 0.53016734 0.74915326 0.78487945 0.828664
0.8851512 0.8852987 0.9987906 0.9536776 0.9236311 0.9867756 0.8779977 1.0206622
1.0335867 0.926552 0.77591485 0.9503902 0.96688 0.8178065 0.8365349 0.90940607
0.8962646 0.9581853 1.0517594 0.7660404 0.89702666 0.88024217 0.97618777 0.93819916
0.81317407 0.7823872 0.8810924 0.7927325 0.8865915 0.9095605 0.7360501 0.8238249
0.8490994 0.9137182 1.0294455 0.8883655 1.0487641 0.9011919 0.95388514 0.80990416
0.912798 0.72505003 0.95769674 0.88251054 0.9075324 0.9323983 0.9443714 1.0452087
0.9731072 0.9226706 0.96002007 0.96060556 0.96589756 0.93250716 0.890773 0.93576825
00000000: 743f 333f 97e7 283f a654 5c3f 9ad1 723f
00000010: 1c59 803f c870 5d3f 6a48 323f 0851 603f
00000020: 64dd 5d3f 44fe 453f df79 743f cfb9 6d3f
00000030: abf4 7f3f c086 5c3f fbed 753f dd1c 6f3f
00000040: a15c 6d3f 1d81 313f 76d5 4c3f 56bb 4a3f
00000050: 72ad 5d3f bb9f 643f db0e 723f f358 633f
00000060: 4083 6a3f 4d56 7d3f ede9 7e3f 6991 5d3f
00000070: 9bbf 6b3f f1d7 3e3f c9ca 6d3f 86bd 723f
00000080: dff5 503f 40b2 553f e29e 183f a0be 9b3e
00000090: 0cb9 073f 82c8 3f3f dced 483f 5323 543f
000000a0: 4599 623f f0a2 623f beb0 7f3f 3724 743f
000000b0: 1673 6c3f 539d 7c3f 75c4 603f 0fa5 823f
000000c0: 924c 843f 8332 6d3f 5ba2 463f c64c 733f
000000d0: 7385 773f c45b 513f 2727 563f d6ce 683f
000000e0: 9971 653f a24b 753f 0da0 863f 391b 443f
000000f0: 8aa3 653f 8d57 613f 71e7 793f d22d 703f
00000100: 2d2c 503f 874a 483f 468f 613f 84f0 4a3f
00000110: a9f7 623f f5d8 683f c86d 3c3f 30e6 523f
00000120: 945e 593f 70e9 693f dfc4 833f ec6b 633f
00000130: e73d 863f 83b4 663f d131 743f e155 4f3f
00000140: 21ad 693f e19c 393f 9d2b 753f 36ec 613f
00000150: 0b54 683f a8b1 6e3f 53c2 713f 66c9 853f
00000160: 8e1d 793f 2434 6c3f e0c3 753f 3fea 753f
00000170: 1045 773f cab8 6e3f b309 643f 828e 6f3f

dense1.batch_norm1.bias f4 [96]
-0.23873252 -0.44653675 -0.537022 -0.75720483 -0.82895935 -0.4910843 -0.30441162 -0.627336
-0.54877925 -0.53444386 -0.72182465 -0.62541026 -0.67289853 -0.6768287 -0.6127864 -0.731756
-0.67739594 -0.2576145 -0.48520985 -0.49847886 -0.53704196 -0.60626584 -0.65141124 -0.61901903
-0.5072605 -0.7303234 -0.6771353 -0.4642216 -0.6279358 -0.4923174 -0.73319906 -0.57046276
-0.47937274 -0.6714837 -0.27797213 0.021722008 -0.56330687 -0.31390503 -0.42237908 -0.4514205
-0.59269774 -0.46841764 -0.7277236 -0.74236435 -0.6983398 -0.748054 -0.7534359 -0.72911716
-0.74109894 -0.5131804 -0.3433101 -0.7134875 -0.74983937 -0.530079 -0.5265618 -0.6293027
-0.6011512 -1.1686511 -0.87252766 -0.6562734 -0.5530244 -0.6914824 -0.6947827 -0.6309281
-0.48379222 -0.6763693 -0.6578721 -0.33280775 -0.58828473 -0.6691203 -0.21238609 -0.5300132
-0.6696032 -0.64157027 -0.6832263 -0.5724861 -0.8196206 -0.69715226 -0.6057544 -0.41220236
-0.50664175 -0.27100074 -0.664433 -0.6406857 -0.538823 -0.6547508 -0.62418133 -2.3295991
-1.3883842 -0.54961836 -0.6667224 -0.7133628 -0.69561064 -0.7560531 -0.6925022 -0.5724697
00000000: 4c76 74be 77a0 e4be 467a 09bf 2dd8 41bf
00000010: ae36 54bf 676f fbbe d7db 9bbe 1899 20bf
00000020: cc7c 0cbf 50d1 08bf 80c9 38bf e31a 20bf
00000030: 1443 2cbf a544 2dbf 92df 1cbf 5c54 3bbf
00000040: d269 2dbf 0ce6 83be 6d6d f8be 9f38 ffbe
00000050: 957b 09bf 3d34 1bbf e3c2 26bf 0878 1ebf
00000060: d3db 01bf 79f6 3abf bd58 2dbf 74ae edbe
00000070: 67c0 20bf 0711 fcbe efb2 3bbf d909 12bf
00000080: 5870 f5be 5be6 2bbf 5d52 8ebe 5af2 b13c
00000090: e134 10bf 29b8 a0be 1242 d8be 9620 e7be
000000a0: 0abb 17bf 70d4 efbe 184c 3abf 970b 3ebf
000000b0: 66c6 32bf 7880 3fbf 2de1 40bf 6ca7 3abf
000000c0: a9b8 3dbf ca5f 03bf 57c6 afbe 1ea7 36bf
000000d0: 79f5 3fbf 42b3 07bf c1cc 06bf fb19 21bf
000000e0: 0ce5 19bf 5c96 95bf f95d 5fbf 8901 28bf
000000f0: 0293 0dbf fe04 31bf 47dd 31bf 8184 21bf
00000100: 9db3 f7be 8a26 2dbf 4e6a 28bf c765 aabe
00000110: d499 16bf 784b 2bbf bd7b 59be f2ae 07bf
00000120: 1e6b 2bbf f33d 24bf ebe7 2ebf 738e 12bf
00000130: a8d2 51bf 9278 32bf b812 1bbf 300c d3be
00000140: 46b3 01bf 9cc0 8abe 4818 2abf fa03 24bf
00000150: 4ef0 09bf c09d 27bf 59ca 1fbf 2718 15c0
00000160: 93b6 b1bf cab3 0cbf 52ae 2abf f29e 36bf
00000170: 8a13 32bf b28c 41bf d347 31bf 608d 12bf

dense1.batch_norm1.running_mean f4 [96]
-5.7279387 -2.771634 -2.5989785 -2.1867993 -1.3273486 -2.6691446 -2.905189 -3.1061406
-1.8563995 -1.2862852 -2.796271 -3.2927327 -2.3552496 -2.4124775 -2.103651 -1.8478738
-2.5883029 -2.4567232 -2.4568064 -1.8396057 -1.6408547 -2.192322 -1.9839678 -2.0362523
-3.3826592 -3.7416062 -3.0283625 -2.3470898 -1.9293623 -2.3654342 -2.3968503 -2.8083074
-1.9429595 -3.547161 -3.2509868 -1.9230015 -2.2072659 -1.1198581 -1.8507836 -1.5660855
-2.0055532 -1.7275566 -2.9242733 -3.9730637 -1.8677915 -2.522041 -3.3476503 -2.4223347
-2.565685 -1.7110577 -1.7837538 -1.4227628 -2.7567616 -1.9426346 -2.4483352 -1.389099
-3.4765694 1.333302 -1.900151 -3.7121818 -2.8683589 -2.6217625 -1.8133209 -1.5524368
-1.8435148 -2.7986314 -3.704848 -5.6960754 -1.9964569 -2.458292 -6.859521 -2.750644
-2.2658272 -2.2285366 -2.1577218 -1.4813508 -2.350823 -2.2761497 -0.6685325 -1.5063856
-2.1793177 -2.0864718 -2.8774004 -1.8857168 -2.6389189 -2.5044363 -2.6096234 -0.4488818
1.6504333 -2.0978827 -2.3328776 -3.4845629 -2.3149874 -2.9015326 -2.3086426 -1.9536725
00000000: 464b b7c0 7462 31c0 aa55 26c0 85f4 0bc0
00000010: 8fe6 a9bf 44d3 2ac0 9eee 39c0 02cb 46c0
00000020: 809e edbf fea4 a4bf 1bf6 32c0 22bc 52c0
00000030: 69bc 16c0 0866 1ac0 38a2 06c0 2187 ecbf
00000040: c1a6 25c0 f43a 1dc0 513c 1dc0 3378 ebbf
00000050: 8707 d2bf 014f 0cc0 a8f2 fdbf f551 02c0
00000060: 7d7d 58c0 7a76 6fc0 b1d0 41c0 b836 16c0
00000070: 58f5 f6bf 4663 17c0 ff65 19c0 4fbb 33c0
00000080: e6b2 f8bf b004 63c0 2b10 50c0 ea24 f6bf
00000090: d843 0dc0 8357 8fbf 7ae6 ecbf 7d75 c8bf
000000a0: fc5a 00c0 9320 ddbf 4b27 3bc0 ad46 7ec0
000000b0: cb13 efbf 1f69 21c0 e73f 56c0 8807 1bc0
000000c0: 2f34 24c0 f003 dbbf 0b52 e4bf 171d b6bf
000000d0: c86e 30c0 40a8 f8bf 86b1 1cc0 ffcd b1bf
000000e0: 1d80 5ec0 a4a9 aa3f 2638 f3bf 6394 6dc0
000000f0: 3193 37c0 f5ca 27c0 e61a e8bf 40b6 c6bf
00000100: 4bf8 ebbf c71c 33c0 3b1c 6dc0 4046 b6c0
00000110: e68b ffbf a854 1dc0 3281 dbc0 8d0a 30c0
00000120: 5003 11c0 58a0 0ec0 1d18 0ac0 e79c bdbf
00000130: e273 16c0 70ac 11c0 f224 2bbf 3ed1 c0bf
00000140: f179 0bc0 c188 05c0 5427 38c0 2b5f f1bf
00000150: 0ce4 28c0 af48 20c0 1204 27c0 d6d3 e5be
00000160: 6641 d33f b643 06c0 de4d 15c0 1403 5fc0
00000170: c128 14c0 b6b2 39c0 cdc0 13c0 f111 fabf

dense1.batch_norm1.running_var f4 [96]
12.003943 5.985163 4.4241915 3.88855 4.488131 5.0051346 4.5438547 4.840283
4.618978 4.661697 4.41788 7.0821114 4.6654205 4.227446 4.133074 3.676654
5.0064073 7.4894156 3.6178308 3.2395551 5.8955393 4.339054 3.5061882 4.359644
7.1092787 5.990704 5.0127583 4.7858386 4.3758388 5.0412645 4.736666 5.919061
5.5178022 4.936386 14.801324 2.727635 1.128696 5.0059566 3.8751254 4.4387593
4.772161 5.023637 4.716374 4.8555937 5.117841 5.272289 4.547492 4.558947
5.464009 5.26772 4.0982504 3.3781257 5.549761 3.92979 3.3459804 3.934217
5.448666 1.6597428 4.1867943 4.5974145 5.6157355 4.811511 4.457683 4.8952847
4.560598 3.9408803 4.599992 16.18601 4.227178 4.3997436 30.527803 4.564871
4.350875 5.3310003 4.567138 3.0013297 4.565301 3.6060252 3.8574133 4.585616
5.0769653 7.009096 5.22018 4.556116 4.9574733 6.097964 4.446338 3.3549433
4.296275 4.496166 4.364002 5.3980694 4.495897 4.293108 4.6709433 6.8899016
00000000: 2710 4041 7586 bf40 fa92 8d40 01de 7840
00000010: c59e 8f40 102a a040 4267 9140 99e3 9a40
00000020: abce 9340 9f2c 9540 465f 8d40 a8a0 e240
00000030: 204b 9540 3d47 8740 2442 8440 4d4e 6b40
00000040: 7d34 a040 4ba9 ef40 8a8a 6740 df54 4f40
00000050: 42a8 bc40 88d9 8a40 6365 6040 3482 8b40
00000060: 367f e340 d9b3 bf40 8468 a040 9725 9940
00000070: df06 8c40 0a52 a140 c592 9740 f368 bd40
00000080: d691 b040 e0f6 9d40 39d2 6c41 9291 2e40
00000090: 1c79 903f cc30 a040 0e02 7840 510a 8e40
000000a0: 8bb5 9840 a2c1 a040 89ec 9640 0661 9b40
000000b0: 5ac5 a340 97b6 a840 0e85 9140 e5e2 9140
000000c0: 29d9 ae40 2a91 a840 de24 8340 3633 5840
000000d0: a497 b140 ae81 7b40 8b24 5640 36ca 7b40
000000e0: 795b ae40 7472 d43f 38fa 8540 051e 9340
000000f0: 1bb4 b340 e6f7 9940 57a5 8e40 2ca6 9c40
00000100: 6bf0 9140 6237 7c40 2233 9340 f37c 8141
00000110: 0b45 8740 b3ca 8c40 f138 f441 6c13 9240
00000120: 5e3a 8b40 8e97 aa40 ff25 9240 c915 4040
00000130: f216 9240 1ec9 6640 dcdf 7640 5ebd 9240
00000140: 8076 a240 844a e040 b70b a740 b4cb 9140
00000150: 9fa3 9e40 8522 c340 6748 8e40 64b7 5640
00000160: 167b 8940 98e0 8f40 e8a5 8b40 fcbc ac40
00000170: 63de 8f40 2461 8940 5e78 9540 137a dc40

dense2.dense.weight f4 [15, 96]
-0.017588507 0.16017225 0.014370083 0.30144444 -0.3776208 -0.5211528 -0.32307068 0.014374726
-0.13046798 0.18026929 -0.21835436 -0.40756592 -0.18373536 -0.0484954 0.2526002 -0.13606687
-0.49517432 -0.29221502 -0.28303537 -0.14429529 -0.07668181 0.1926554 -0.30504298 0.10934192
0.09502268 0.16041647 -0.062589005 -0.18461451 -0.35480842 -0.14024578 -0.35358986 -0.28163937
-0.29022336 -0.03659575 0.17374067 -0.02569164 -0.22869053 -0.40301463 -0.24752037 -0.086203255
-0.2947601 -0.14922376 -0.06352184 -0.4656617 -0.47962335 0.094388515 0.0018619044 0.055998277
0.2906163 0.24419108 -0.2899382 -0.23166956 -0.11895961 -0.1591558 0.20059447 -0.34050727
-0.32671687 0.0041210274 -0.022463784 -0.3742862 -0.49753845 0.4258571 -0.44388285 0.21130982
-0.5277926 -0.09911329 -0.2079697 -0.11429741 -0.41794738 -0.08721589 0.23660621 0.07734208
-0.35842773 -0.28415844 0.29774103 -0.12778851 0.25579253 -0.4992337 -0.5039201 0.24462564
-0.26694816 0.0884212 0.32529968 -0.2578574 0.11609576 -0.2558286 0.20903596 -0.0027170924
-0.010978944 -0.07000714 -0.37571982 -0.3378575 -0.2838165 -0.45934764 0.24014452 0.026368098
-0.050375044 0.20681737 -0.16787714 0.034262776 -0.22907647 0.20913872 -0.23775528 -0.16715154
-0.11728552 -0.3935621 0.18264513 0.022667974 -0.11053467 -0.39394468 -0.20112938 -0.203142
-0.2930634 0.19278802 0.15142359 -0.13264576 0.24733977 -0.16336155 -0.12738867 -0.300346
-0.1134871 0.0995354 -0.047409058 -0.12138968 0.13998699 0.2966689 -0.26403728 -0.11044972
-0.42162615 -0.2168982 0.21940784 -0.066926084 -0.2352369 0.16116966 -0.21166193 0.027794488
-0.14876495 0.1940782 -0.04526368 0.110973515 0.24358603 0.18512748 -0.4861574 0.06758124
-0.25135246 0.18816893 -0.11291651 -0.06863311 0.06882475 -0.0666426 -0.31964844 -0.21876872
-0.16714993 0.0027719408 -0.07249328 0.17577662 -0.14612204 -0.13399653 -0.3232154 -0.24668352
-0.09889781 -0.15619035 -0.09087143 -0.30318928 -0.2752992 0.03779654 -0.26706883 0.15311886
-1.4197183 -0.10428075 -0.3246296 0.14649925 -0.10287465 -0.33243537 0.10889593 -0.15476838
-0.14270368 -0.3006111 -0.05530189 -0.38769266 -0.17708322 -0.049052354 -0.057309683 -0.00708004
-0.014789475 0.038357638 0.121622264 -0.30353498 0.17897312 -0.2922247 -0.18045782 0.19577685
0.017023277 0.12800139 0.08105245 -0.42786235 0.19899027 -0.40497705 -0.12669793 0.1771342
-0.5653176 -0.2860005 -0.33416855 -0.28604677 0.13628611 0.29310238 0.27926424 -0.19912353
-0.3484302 -0.20463607 -0.004605026 -0.21923894 -0.13480975 -0.37271288 0.027543087 -0.19725652
-0.25666815 -0.4891934 0.26945812 -0.25143072 0.2708999 0.21140017 -0.05272726 -0.10826427
-0.012393651 -0.5345346 0.11797712 -0.039055195 -0.6308774 0.041464422 0.003380615 -0.0006917113
-0.21297655 -0.17715967 -0.16557811 -0.17670594 -0.53479534 0.0043538343 -0.6801764 -0.055147022
-0.25481334 -0.23163699 -0.21576923 -0.39890245 -0.12927528 0.06856564 0.13323754 -0.27264735
-0.19624716 -0.07695101 -0.45923668 -0.7957998 -0.46945265 -0.2831927 -0.39981264 -0.49032938
00000000: c615 90bc 3204 243e 7f70 6b3c ed56 9a3e
00000010: 8357 c1be 456a 05bf 8569 a5be f983 6b3c
00000020: 6699 05be 8398 383e 4998 5fbe 7bac d0be
00000030: 1f25 3cbe 1da3 46bd d054 813e 1d55 0bbe
00000040: 7d87 fdbe 359d 95be 03ea 90be 25c2 13be
00000050: 5a0b 9dbd 7547 453e 982e 9cbe a8ee df3d
00000060: 409b c23d 3744 243e aa2e 80bd 960b 3dbe
00000070: 73a9 b5be 979c 0fbe bb09 b5be 0933 90be
00000080: 2898 94be 6de5 15bd 13e9 313e 4677 d2bc
00000090: da2d 6abe ef57 cebe fb75 7dbe 558b b0bd
000000a0: ccea 96be 1dce 18be bd17 82bd 366b eebe
000000b0: 3191 f5be c44e c13d 250b f43a 735e 653d
000000c0: a9cb 943e 3a0d 7a3e c872 94be c93a 6dbe
000000d0: 19a1 f3bd bdf9 22be a368 4d3e f856 aebe
000000e0: 6f47 a7be af09 873b f805 b8bc 71a2 bfbe
000000f0: 5cbd febe f109 da3e 9d44 e3be 9a61 583e
00000100: 6a1d 07bf e9fb cabd 02f6 54be c314 eabd
00000110: 33fd d5be 3f9e b2bd e648 723e 8665 9e3d
00000120: d783 b7be 377d 91be 8371 983e feda 02be
00000130: 3df7 823e 8f9b ffbe e800 01bf 257f 7a3e
00000140: 6ead 88be 2d16 b53d ae8d a63e e305 84be
00000150: 9dc3 ed3d f7fb 82be 860d 563e 3f11 32bb
00000160: 07e1 33bc e75f 8fbd 595e c0be a9fb acbe
00000170: 6550 91be 9d2f ebbe 72e8 753e e901 d83c
00000180: 1056 4ebd efc7 533e fce7 2bbe 2057 0c3d
00000190: 0693 6abe 7628 563e 1f76 73be c629 2bbe
000001a0: 6433 f0bd f980 c9be 5307 3b3e 30b2 b93c
000001b0: 0060 e2bd 1eb3 c9be dcf4 4dbe 7504 50be
000001c0: 680c 96be 396a 453e c90e 1b3e 4ad4 07be
000001d0: a346 7d3e 4048 27be 2d72 02be f3c6 99be
000001e0: ed6b e8bd 37d9 cb3d 0030 42bd 279b f8bd
000001f0: c058 0f3e fce4 973e e52f 87be 7633 e2bd
00000200: 62df d7be 901a 5ebe 73ac 603e 8b10 89bd
00000210: f1e1 70be a909 253e e8bd 58be 44b1 e33c
00000220: d755 18be 70bc 463e 6966 39bd 1546 e33d
00000230: 9e6e 793e 0f92 3d3e 9fe9 f8be 0868 8a3d
00000240: 45b1 80be 5baf 403e c540 e7bd 848f 8cbd
00000250: fef3 8c3d ea7b 88bd f6a8 a3be e804 60be
00000260: 5a29 2bbe 73a9 353b 5b77 94bd c9fe 333e
00000270: 04a1 15be 6336 09be 7d7c a5be 9b9a 7cbe
00000280: ef8a cabd 5df0 1fbe cd1a babd a03b 9bbe
00000290: 04f4 8cbe 8bd0 1a3d 3fbd 88be 31cb 1c3e
000002a0: 54b9 b5bf 2591 d5bd da35 a6be e603 163e
000002b0: f2af d2bd f834 aabe d404 df3d 9a7b 1ebe
000002c0: ea20 12be b3e9 99be 3c84 62bd a77f c6be
000002d0: 4e55 35be 1feb 48bd 8fbd 6abd aeff e7bb
000002e0: 8e4f 72bc e61c 1d3d 1815 f93d f068 9bbe
000002f0: bb44 373e 7a9e 95be efc9 38be ba79 483e
00000300: 6674 8b3c cc12 033e d4fe a53d c610 dbbe
00000310: 1bc4 4b3e 2759 cfbe 1abd 01be ab62 353e
00000320: a7b8 10bf a86e 92be 2418 abbe b974 92be
00000330: 968e 0b3e 8411 963e b9fb 8e3e 0ae7 4bbe
00000340: 7165 b2be 1e8c 51be c2e5 96bb 2c80 60be
00000350: 910b 0abe 39d4 bebe 0aa2 e13c 9dfd 49be
00000360: 026a 83be 8f77 fabe 6af6 893e 87bb 80be
00000370: 64b3 8a3e 4979 583e 8af8 57bd a8b9 ddbd
00000380: bd0e 4bbc 42d7 08bf fd9d f13d 57f8 1fbd
00000390: 2e81 21bf 99d6 293d 4f8d 5d3b f653 35ba
000003a0: 8616 5abe 5869 35be 4f8d 29be 67f2 34be
000003b0: 59e8 08bf 9caa 8e3b 0a20 2ebf d8e1 61bd
000003c0: e576 82be 3f32 6dbe 9cf2 5cbe f13c ccbe
000003d0: bd60 04be 246c 8c3d 6c6f 083e 6f98 8bbe
000003e0: 04f5 48be 7e98 9dbd 1221 ebbe 89b9 4bbf
000003f0: 195c f0be a2fe 90be 3eb4 ccbe 740c fbbe

dense2.dense.bias f4 [15]
0.4173941 0.56545115 0.29642496 1.8153373 0.30289963 0.30138344 2.8924599 0.3875496
0.4547739 0.35853592 0.4159074 0.7310436 0.4593384 -0.0027487874 -14.177981
00000000: aeb4 d53e 68c1 103f 03c5 973e f95c e83f
00000010: a915 9b3e ee4e 9a3e 101e 3940 e76c c63e
00000020: 20d8 e83e 0592 b73e d1f1 d43e ac25 3b3f
00000030: 672e eb3e 0025 34bb 03d9 62c1

dense2.batch_norm1.weight f4 [15]
4.4818587 5.0175476 3.70928 5.6529307 3.7688594 3.6266363 6.227111 4.0886045
4.6956897 4.0822835 4.303388 5.06621 4.4993434 0.3530332 14.288121
00000000: 636b 8f40 c08f a040 d864 6d40 cfe4 b440
00000010: fe34 7140 cf1a 6840 7e44 c740 d9d5 8240
00000020: 1743 9640 11a2 8240 5bb5 8940 641e a240
00000030: 9ffa 8f40 c5c0 b43e 259c 6441

dense2.batch_norm1.bias f4 [15]
-2.9768586 -2.9909859 -2.5786412 -2.5588198 -2.3127234 -2.2611544 -2.3459394 -2.7641103
-2.7856467 -2.3463256 -2.6309223 -2.6975343 -2.86257 -0.7481678 5.21163
00000000: da84 3ec0 506c 3fc0 7508 25c0 b4c3 23c0
00000010: a903 14c0 c1b6 10c0 df23 16c0 2fe7 30c0
00000020: 0948 32c0 332a 16c0 0861 28c0 67a4 2cc0
00000030: 5934 37c0 ed87 3fbf acc5 a640

dense2.batch_norm1.running_mean f4 [15]
0.21188304 0.39091012 0.093884684 1.6388506 0.106376916 0.12995046 2.7160423 0.1868323
0.26090258 0.20004232 0.22802146 0.5396542 0.26178145 -0.17019501 -14.364211
00000000: def7 583e 5f25 c83e 9d46 c03d dbc5 d13f
00000010: 24dc d93d bc11 053e a3d3 2d40 f750 3f3e
00000020: 0695 853e e5d7 4c3e 757e 693e c726 0a3f
00000030: 3808 863e 9a47 2ebe cfd3 65c1

dense2.batch_norm1.running_var f4 [15]
0.22777268 0.1946047 0.17176649 0.2730091 0.16085893 0.13757871 0.40148255 0.21111055
0.17561446 0.13871148 0.16640906 0.24004585 0.17454974 0.5635366 0.6257656
00000000: 3e3d 693e 7446 473e 8ee3 2f3e d9c7 8b3e
00000010: 34b8 243e 6fe1 0c3e 1f8f cd3e 5d2d 583e
00000020: 47d4 333e 620a 0e3e 2367 2a3e 94ce 753e
00000030: 2bbd 323e ef43 103f 2d32 203f
