classification/model_rnafm/13_final/120Epoch/rna_type_checkpoint_fold_1.pt (torch, 252002 bytes, 24 tensors)

layer1.conv1.weight f4 [30, 30, 5]
0	0xbece8caa	-0.40341693
1	0xbf556a19	-0.8336502
2	0x3f6cc9fe	0.92495716
3	0x3e2fb1cb	0.17157666
4	0x3eae3c87	0.34030554
5	0x3ef76468	0.4831879
6	0x3d800076	0.06250088
7	0xbf283a3f	-0.65713876
8	0xbea0955f	-0.3136396
9	0x3c15439d	0.009110359
10	0x3ef40000	0.4765625
11	0xbef79cfd	-0.4836196
12	0xbe951785	-0.29119506
13	0x3eb04b6b	0.3443254
14	0x3d22c673	0.039740037
15	0x3ec020b0	0.3752494
16	0xbf18bcc8	-0.5966306
17	0xbe6cb333	-0.23115234
18	0x3ecf1185	0.40443054
19	0x3ec61b4c	0.386927
20	0x3d831134	0.063997656
21	0x3e8c6c03	0.27426156
22	0xbf13fdb3	-0.5780899
23	0x3e04285f	0.12906025
24	0xbed5cc01	-0.41757205
25	0xbe73cfcf	-0.23809741
26	0x3dae2a67	0.08504181
27	0xbecfa634	-0.4055649
28	0x3d1baf61	0.03800905
29	0xbef58ca5	-0.47958866
30	0x3e40e66c	0.18837899
31	0xbf7a4f00	-0.97776794
32	0xbee24c55	-0.44198862
33	0xbda27ab8	-0.07933563
34	0xbd871af3	-0.06596937
35	0x3e011cc7	0.12608634
36	0xbeccd37f	-0.4000511
37	0xbdb44990	-0.088030934
38	0x3de49e7d	0.11163042
39	0x3ea6132d	0.32436505
40	0xbdef5d3b	-0.11687704
41	0x3db83137	0.08993762
42	0xbc21c5c2	-0.009873809
43	0xbe204287	-0.15650378
44	0xbe0ac882	-0.1355305
45	0xbca39978	-0.01997064
46	0x3d87df5a	0.06634398
47	0x3e2b5441	0.16731359
48	0x3d32df31	0.043669883
49	0xbe2e5d22	-0.17027715
50	0xbe4ff7c6	-0.20309362
51	0xbdb6c65b	-0.08924552
52	0xbc111ae4	-0.008856509
53	0xbec1f6e4	-0.37883675
54	0x3d530381	0.051517013
55	0x3d055ba3	0.032558095
56	0xbe82af37	-0.25524303
57	0x3d116d88	0.035504848
58	0xbe7f1c76	-0.249132
59	0x3d7a719b	0.0611435
60	0xbdf6faa3	-0.12059524
61	0xbe126ebb	-0.14300053
62	0xbba3e725	-0.00500192
63	0xbea48776	-0.32134598
64	0xbe66764c	-0.22506064
65	0xbdc0a212	-0.094059125
66	0x3e199942	0.1499987
67	0x3ebfa4f5	0.3743054
68	0xbe81c612	-0.25346428
69	0xbdfd9147	-0.12381225
70	0xbe647d9e	-0.22313544
71	0x3e96b71d	0.2943658
72	0x3f1b130b	0.6057593
73	0xbcc4980e	-0.023998287
74	0x3e109745	0.14120205
75	0xbd82df52	-0.06390251
76	0x3e199681	0.14998819
77	0x3df671cd	0.120334245
78	0x3d9673df	0.073463194
79	0x3db6c7e8	0.08924848
80	0xbce1b3ef	-0.02755162
81	0xbd10091f	-0.03516495
82	0x3d17f64b	0.037100118
83	0x3e1f9bfd	0.15586849
84	0xbdd9cefc	-0.10635182
85	0x3c5c9c65	0.013465022
86	0x3e22f03a	0.15911952
87	0x3de1bc42	0.110222355
88	0xbe4f0ee5	-0.20220526
89	0xbe1a80fe	-0.15088269
90	0xbdbe6608	-0.09296805
91	0xbce1350e	-0.027491119
92	0x3eb6ba34	0.35688937
93	0xbb55b8c0	-0.003261134
94	0xbd5c323f	-0.053758856
95	0xbe0559a6	-0.1302248
96	0x3e18e48c	0.14930934
97	0x3e98fbfd	0.29879752
98	0xbc369063	-0.011142823
99	0xbe02a113	-0.12756757
100	0xbdf809a8	-0.12111217
101	0x3e051210	0.12995172
102	0x3e4fe572	0.2030237
103	0xbeae02ef	-0.33986613
104	0xbcda0d4a	-0.026617665
105	0x3be57858	0.0070028715
106	0xbcb5a4d7	-0.022173328
107	0x3de982a6	0.11401872
108	0xbd46b8cb	-0.048516076
109	0x3e10ee2f	0.1415336
110	0x3d343f19	0.044005487
111	0x3dfe50ba	0.12417741
112	0x3c8897e2	0.016673986
113	0x3df984bb	0.121835195
114	0x3e21a72a	0.15786424
115	0x3d70c416	0.058780752
116	0x3e276b83	0.16349606
117	0xbe784b30	-0.24247432
118	0x3e9c0370	0.30471373
119	0x3e7ce163	0.24695353
120	0x3e3e9e2a	0.18615022
121	0x3d90bf9b	0.07067796
122	0xbe8be023	-0.2731944
123	0x3e2b5ab8	0.16733825
124	0x3e435222	0.190743
125	0x3d155e6f	0.036467012
126	0x3dec2992	0.115313664
127	0xbc9836f9	-0.0185809
128	0x3d2e39ea	0.0425357
129	0x3e0cf3b9	0.13764848
130	0xbb4e49ac	-0.0031477017
131	0xbd9a11bd	-0.075229146
132	0x3c446af7	0.011988393
133	0xbe12d833	-0.14340286
134	0x3dbd7ad4	0.09251943
135	0x3e327c48	0.17430222
136	0xbe8902f8	-0.26760077
137	0xbe24267b	-0.16030304
138	0x3c72703a	0.014797265
139	0x3ef92f8f	0.48669097
140	0x3e2caa0b	0.16861741
141	0xbe9602c3	-0.29298982
142	0xbe9cbbb0	-0.30611944
143	0x3e88c760	0.2671461
144	0x3e330e01	0.17485811
145	0x3d267615	0.040639956
146	0xbe540c83	-0.20707898
147	0xbe53086a	-0.20608678
148	0x3e3b01ec	0.18262452
149	0xbd055143	-0.0325482
150	0x3ef2bb77	0.4740865
151	0xbe80e398	-0.2517364
152	0xbf10d90d	-0.56581193
153	0xbf94530f	-1.1587847
154	0x3edb6b3f	0.4285526
155	0xbeb20251	-0.34767392
156	0xbe911a45	-0.28340355
157	0x3ebd040d	0.36917153
158	0x3ce1b164	0.027550407
159	0xbe68989e	-0.22714469
160	0x3e1acdba	0.15117541
161	0x3f306a09	0.68911797
162	0xbdbed065	-0.09317092
163	0xbdd84466	-0.10559921
164	0xbf396860	-0.7242489
165	0x3e8efed6	0.279288
166	0x3ea7fd1c	0.32810295
167	0x3dd23c9a	0.10265465
168	0x3f5e2cc4	0.86787057
169	0x3cda5367	0.026651097
170	0x3dc4b7e3	0.09605386
171	0xbda50479	-0.08057494
172	0x3ee8516f	0.4537463
173	0x3f1f314b	0.6218459
174	0x3f1a5a90	0.6029444
175	0xbde684ab	-0.11255773
176	0x3dfd364b	0.12363871
177	0x3db33fbc	0.08752391
178	0xbecc4ea8	-0.3990376
179	0x3eaabda0	0.33347797
180	0x3ef83f73	0.48485908
181	0x3eb2ac70	0.34897184
182	0xbef1920a	-0.4718173
183	0xbeefbb7c	-0.46822727
184	0xbed41ab3	-0.4142662
185	0xbdad48a9	-0.084611244
186	0x3c805039	0.015663253
187	0xbe2e244b	-0.17006032
188	0xbeb5564c	-0.35417402
189	0x3e6f4789	0.23367132
190	0x3d04da6e	0.032434873
191	0x3db27eeb	0.08715614
192	0xbef651fa	-0.48109418
193	0xbd0f9fed	-0.035064626
194	0xbc0c90f3	-0.00857948
195	0xbe73b344	-0.23798853
196	0x3e02ad5d	0.12761445
197	0xbe28db5b	-0.16489927
198	0xbe1e9c59	-0.1548933
199	0xbe8b1349	-0.2716315
200	0xbe265f4f	-0.16247295
201	0xbdaf7e8c	-0.08569059
202	0x3d9cc3f1	0.0765456
203	0x3d424d52	0.04743702
204	0xbe11e76a	-0.14248434
205	0xbc68e178	-0.014213912
206	0xbe1a0f8d	-0.15044995
207	0x3e7debdb	0.24797003
208	0x3f0fdbd5	0.5619481
209	0x3e7a2f8a	0.24432197
210	0x3ea22f83	0.31676874
211	0xbc549903	-0.012975934
212	0x3e934e3b	0.28770623
213	0x3e3e253d	0.18568893
214	0x3e170740	0.1474886
215	0xbc0c54d2	-0.008565145
216	0xbd141721	-0.03615487
217	0xbc858d81	-0.016302826
218	0xbe0118b9	-0.12607087
219	0x3e36ec38	0.17863548
220	0xbddaca07	-0.10683065
221	0xbd6a0da2	-0.057141908
222	0x3d816745	0.06318525
223	0xbe813512	-0.25235802
224	0x3dffe045	0.12493948
225	0xbd8f4c68	-0.06996995
226	0xbd0de47b	-0.034641724
227	0x3de5729b	0.112035
228	0xbe11d430	-0.142411
229	0xbdad26dd	-0.08454678
230	0xbcdd0587	-0.026980175
231	0xbe7e8a19	-0.24857368
232	0xbcff04cb	-0.031130215
233	0x3db896ae	0.09013115
234	0xbe23d39f	-0.15998696
235	0x3c44e6c5	0.01201791
236	0x3da942d7	0.08264702
237	0x3ce76d46	0.028250348
238	0xbca125d9	-0.019671367
239	0x3e5456d1	0.20736243
240	0xbe204c23	-0.15654044
241	0x3e410395	0.18849023
242	0xbbb873f4	-0.005629057
243	0x3dd1817f	0.102297775
244	0x3e8e46b4	0.27788317
245	0xbe62425c	-0.22095627
246	0xbd176a96	-0.036966883
247	0x3e13509e	0.14386222
248	0x3db9c5c8	0.09070927
249	0x3d92ec3f	0.071739666
250	0xbe6914f7	-0.22761904
251	0x3d1e329f	0.038622495
252	0xbd6763f1	-0.056491796
253	0x3cb46c26	0.022024225
254	0xbe0e02b2	-0.13868216
255	0xbe57da07	-0.21079265

layer1.conv1.bias f4 [30]
0	0x3e277024	0.16351372
1	0x3d0c9354	0.03432019
2	0x3c2c338c	0.010510337
3	0x3ca67d29	0.020323353
4	0xbe07e36e	-0.13270351
5	0x3ca4c590	0.020113736
6	0xbd7973fb	-0.060901623
7	0x3dd114d9	0.102090545
8	0x3d06854b	0.03284196
9	0xbe02c675	-0.12771018
10	0x3cd2a037	0.025711162
11	0xbdbf1bb8	-0.09331459
12	0xbbd6d846	-0.0065565435
13	0xbcf59728	-0.029979303
14	0xbdce70fc	-0.10080144
15	0x3c32f21c	0.010921981
16	0xbdd50779	-0.10401816
17	0x3df8211b	0.12115689
18	0xbe2a6890	-0.1664145
19	0x3b772958	0.0037713852
20	0xbdbbd56c	-0.09171566
21	0x3d1d9cb6	0.03847953
22	0xbc3570d0	-0.01107426
23	0xbd064f3f	-0.03279042
24	0x3dcf5531	0.10123671
25	0xbd34f20e	-0.044176154
26	0xbc5aa7dc	-0.013345685
27	0xbbdfe3b4	-0.0068325642
28	0x3d00c2f2	0.031435914
29	0x3af114ce	0.0018393041

layer1.bn1.weight f4 [30]
0	0x3f7199e8	0.9437547
1	0x3f48f650	0.78500843
2	0x3f4e9c6c	0.8070743
3	0x3f94d527	1.1627549
4	0x3f20357e	0.6258162
5	0x3f801bb3	1.0008453
6	0x3f7a6511	0.97810465
7	0x3f48ff89	0.78514916
8	0x3f85ee90	1.0463428
9	0x3f7aad9c	0.97921157
10	0x3f14b92e	0.5809506
11	0x3f583b2a	0.8446528
12	0x3f48d215	0.7844556
13	0x3f5161b0	0.81789684
14	0x3f7db0ed	0.9909809
15	0x3f32f502	0.699051
16	0x3f664765	0.8995269
17	0x3f81e8b3	1.0149139
18	0x3f9bc695	1.2169977
19	0x3f0142db	0.5049264
20	0x3f505459	0.81378704
21	0x3f840d1f	1.0316504
22	0x3f841748	1.0319605
23	0x3f43a90f	0.7642984
24	0x3fa0644e	1.253061
25	0x3f549ee3	0.8305494
26	0x3f31770b	0.6932227
27	0x3f619252	0.8811389
28	0x3f49ae17	0.78781265
29	0x3f402b9e	0.75066555

layer1.bn1.bias f4 [30]
0	0x3cc1ad4f	0.02364221
1	0x3db47141	0.08810664
2	0xbd01b62e	-0.03166788
3	0x3e15b8ae	0.14621231
4	0x3d6319ba	0.055444457
5	0xbcb57676	-0.022151213
6	0x3dc667f7	0.096877985
7	0x3d8d16e0	0.06889129
8	0x3b0e9fdd	0.0021762766
9	0x3e14503a	0.14483729
10	0x3cd9f83a	0.026607621
11	0x3d82016e	0.06347929
12	0x3e5e03da	0.21681157
13	0x3dc7ad9f	0.097499125
14	0x3d87bc32	0.06627692
15	0x3e0c31ba	0.13690844
16	0xbd35d15d	-0.044389118
17	0x3e0a3afd	0.13499065
18	0xbc31d2dc	-0.010853495
19	0x3d8ea6d5	0.069654144
20	0x3e3bbee1	0.18334533
21	0xbcc7b4f2	-0.024378274
22	0xb9727eaa	-0.00023126104
23	0x3e10a3ac	0.14124936
24	0x3e4151b5	0.18878825
25	0x3e070f8f	0.13189529
26	0xbd80d76d	-0.06291089
27	0xbd4cf16f	-0.050034937
28	0x3cfac2a8	0.030610397
29	0x3d206a4d	0.039163876

layer1.bn1.running_mean f4 [30]
0	0x3e215463	0.15754847
1	0x3d1420fc	0.03616427
2	0x3a836384	0.0010024165
3	0x3c4f940b	0.012669574
4	0xbe03af6e	-0.1285989
5	0x3c67a771	0.014139042
6	0xbd7e0f01	-0.062026028
7	0x3dc5609c	0.096375674
8	0x3c4a59b3	0.0123504875
9	0xbe0ec5d2	-0.1394265
10	0x3c903d7c	0.017607443
11	0xbde27a7e	-0.1105852
12	0xbc0b7516	-0.008511802
13	0xbd50b845	-0.050956983
14	0xbdd4c9bc	-0.1039004
15	0x3bd0b701	0.006369472
16	0xbddd768a	-0.10813625
17	0x3e001e59	0.12511577
18	0xbe3c3482	-0.18379405
19	0xbbccb354	-0.0062469635
20	0xbdcccdef	-0.10000216
21	0x3cadc5e8	0.021212533
22	0xbce794d4	-0.028269209
23	0xbd1d983d	-0.038475264
24	0x3dd26119	0.10272426
25	0xbd36aaed	-0.0445966
26	0xbc3c6b72	-0.011500226
27	0xbb950335	-0.0045475014
28	0x3cd353e8	0.025796846
29	0x3a5f735a	0.00085239636

layer1.bn1.running_var f4 [30]
0	0x40140f6d	2.3134415
1	0x3fa8795d	1.3162037
2	0x409ae107	4.839969
3	0x40339461	2.8059313
4	0x3fbcb185	1.4741675
5	0x3fdb87b7	1.7150792
6	0x3f3a0850	0.72668934
7	0x3fe28ea3	1.7699779
8	0x40c0d380	6.025818
9	0x401be24e	2.4356875
10	0x405dea7f	3.4674375
11	0x40332505	2.7991345
12	0x3f3c6a12	0.7359935
13	0x4094d58b	4.6510673
14	0x3f37b3df	0.71758837
15	0x3fb6267f	1.4230498
16	0x3fa0074e	1.2502229
17	0x3febaafe	1.8411558
18	0x40f185b6	7.547572
19	0x3fc4eb0c	1.5384231
20	0x4026f49d	2.60868
21	0x4090c52b	4.5240684
22	0x405af1cd	3.4210083
23	0x3f474908	0.7784581
24	0x400d1d34	2.2049074
25	0x3fa8cb29	1.3187
26	0x4067e2d7	3.6232202
27	0x3f9ec183	1.2402805
28	0x400189c6	2.024034
29	0x4052804e	3.289081

conv1.weight f4 [30, 30, 5]
0	0xbded874f	-0.11598074
1	0x3f011ec2	0.5043756
2	0x3d992463	0.07477643
3	0xbe881173	-0.26575813
4	0xbeba97fd	-0.36444083
5	0xbdeb5949	-0.11491639
6	0xbe81aeef	-0.25328776
7	0xbe4eb805	-0.20187385
8	0x3eb1af0d	0.34703866
9	0x3e60909d	0.21930166
10	0x3df6e631	0.12055624
11	0xbea4734d	-0.32119218
12	0xbec0f115	-0.3768393
13	0x3e2879bc	0.16452688
14	0x3daeb7a5	0.08531121
15	0xbe872ad3	-0.2639986
16	0x3db2bc73	0.0872735
17	0x3ebd1645	0.36931053
18	0xbecc88ab	-0.3994802
19	0xbecf7457	-0.40518448
20	0xbf0b6862	-0.5445615
21	0x3ca8f97c	0.020626776
22	0x3cb3176d	0.021861756
23	0xbec3d194	-0.38245833
24	0xbe83c1d4	-0.25733817
25	0xbd4f5a95	-0.050623495
26	0x3dba3533	0.09092178
27	0x3ef1256d	0.47098866
28	0x3e7c955b	0.2466635
29	0xbe89af05	-0.26891342
30	0xbea93a21	-0.3305216
31	0xbe45a4df	-0.19301175
32	0xbe9a26b0	-0.3010764
33	0x3eb6b492	0.3568464
34	0x3c89382f	0.016750423
35	0xbe779e41	-0.24181463
36	0xbea73a7b	-0.32661805
37	0x3de2ecaa	0.11080296
38	0x3e93ef16	0.28893346
39	0xbe2eec6a	-0.17082372
40	0xbe1cdd78	-0.15318859
41	0x3e00164a	0.12508503
42	0xbe81ae58	-0.25328326
43	0xbe7ef828	-0.24899352
44	0xbe90b8f9	-0.28266123
45	0xbd87add0	-0.06624949
46	0xbecd4c36	-0.40097207
47	0xbe81d225	-0.2535564
48	0x3e299662	0.16561273
49	0x3e89cb43	0.2691289
50	0xbdeec0ac	-0.11657843
51	0x3cb2eb22	0.021840636
52	0xbe556e74	-0.20842916
53	0xbe337c59	-0.17527904
54	0x3d9e2d26	0.07723455
55	0x3ccc793a	0.02496015
56	0x3e8ace71	0.27110627
57	0x3de4ab72	0.11165513
58	0xbecfd4db	-0.40592083
59	0x3caac99e	0.020848092
60	0xbe0be764	-0.13662487
61	0x3aec4403	0.001802564
62	0x3ed97567	0.42472383
63	0xbe25f1d0	-0.16205525
64	0x3d2dd688	0.04244092
65	0x3e102161	0.14075233
66	0xbe5ace9f	-0.21367882
67	0xbe5916c3	-0.21200089
68	0xbe3363e0	-0.17518568
69	0x3d98a993	0.07454219
70	0x3e794c0b	0.24345414
71	0x3ef95b08	0.48702264
72	0x3d2f59d4	0.042810276
73	0xbdb5fc04	-0.08885959
74	0xbe9389ef	-0.28816172
75	0xbea1546e	-0.31509727
76	0xba35fe93	-0.00069425366
77	0xbd226d98	-0.039655298
78	0xbcf58fb5	-0.029975751
79	0x3d65a27c	0.05606316
80	0x3e2e81bb	0.17041676
81	0x3dae5ff2	0.08514394
82	0x3ee006e5	0.4375526
83	0xbe44831e	-0.19190642
84	0xbcabb37b	-0.020959606
85	0xbcb3e643	-0.021960383
86	0xbd98b191	-0.07455743
87	0x3f131ef1	0.5746909
88	0xbd1dfc5f	-0.038570758
89	0x3ca5ebb1	0.020253988
90	0xbf0cc964	-0.549948
91	0xbe703ce5	-0.2346073
92	0xbcea95f7	-0.028635962
93	0x3c8c92ee	0.017159905
94	0xbe246354	-0.16053516
95	0x3d0b394b	0.033990186
96	0x3c0a86da	0.008455003
97	0xbe6ff5ca	-0.23433605
98	0x3e316d35	0.17326815
99	0xbca2d458	-0.019876644
100	0x3e6f1ccd	0.2335083
101	0x3e39c190	0.18140244
102	0xbe2b49d5	-0.16727383
103	0x3d399bbd	0.04531454
104	0x3d8e38b7	0.06944411
105	0x3e2ec71c	0.17068142
106	0x3ca597b7	0.020213945
107	0xbeadc7bf	-0.33941457
108	0xbe4817fa	-0.19540396
109	0xbe664eae	-0.22490951
110	0xbe4f5dd8	-0.20250642
111	0xbe8e7632	-0.2782455
112	0xbdb5161a	-0.08842106
113	0xbee7d642	-0.45280653
114	0xbdbf9ee4	-0.09356478
115	0x3d8189c6	0.06325106
116	0x3e84b215	0.25917116
117	0x3f03f3cd	0.51543885
118	0x3d044a40	0.032297373
119	0x3d1dead6	0.038554035
120	0xbf0b796a	-0.5448214
121	0xbeb62774	-0.35576975
122	0xbcd2956f	-0.025706021
123	0x3e1e5edd	0.15465875
124	0xbda68ac0	-0.08131933
125	0xbeacb5c4	-0.33732426
126	0xbd0bda0f	-0.034143504
127	0x3e96c48d	0.2944683
128	0xbe208d02	-0.1567879
129	0xbe9e99f9	-0.30976847
130	0xbe1debd9	-0.15422
131	0xbe41ac48	-0.18913376
132	0xbcfb38b7	-0.030666692
133	0xbc91247c	-0.017717592
134	0x3e31b153	0.173528
135	0xbedc48a8	-0.43024182
136	0x3c21e51d	0.009881285
137	0x3ed28cfe	0.41123194
138	0x3e29bb38	0.16575325
139	0xbddd8931	-0.10817183
140	0xbe77a5ee	-0.24184391
141	0xbe7f798a	-0.24948707
142	0x3caa2ddf	0.020773826
143	0x3deb74cc	0.114968866
144	0x3e781d8d	0.24230023
145	0xbe5abf65	-0.21362074
146	0xbec9be04	-0.39402783
147	0x3e049382	0.12946895
148	0xbcd71424	-0.026254721
149	0xbdb9698c	-0.090533346
150	0xbdf54837	-0.119766645
151	0x3f05f329	0.5232416
152	0x3da44ba1	0.080222376
153	0xbe9eb678	-0.30998588
154	0xbecd11f0	-0.40052748
155	0xbe0e2331	-0.13880612
156	0xbe633cdb	-0.22191183
157	0xbe291169	-0.16510548
158	0x3ea718b5	0.32636037
159	0x3e7833b0	0.24238467
160	0x3df036e3	0.11729219
161	0xbeba6556	-0.36405438
162	0xbed59ef2	-0.41722828
163	0x3e401923	0.18759589
164	0x3d83cab1	0.06435145
165	0xbe7a4941	-0.24442007
166	0x3dc5ef08	0.09664732
167	0x3eb290da	0.34876138
168	0xbeced3f1	-0.40396073
169	0xbed13d96	-0.408673
170	0xbf0d4501	-0.55183417
171	0x3d8913a7	0.066932015
172	0x3d19a5f5	0.037511785
173	0xbebd2dab	-0.36948904
174	0xbe85a13b	-0.26099572
175	0xbd6e2a56	-0.058145843
176	0x3db7d6c9	0.08976514
177	0x3eef9c34	0.4679886
178	0x3e7874e0	0.24263334
179	0xbe8407a3	-0.25787076
180	0xbebfc9d4	-0.3745867
181	0xbe488881	-0.19583322
182	0xbea739cc	-0.32661283
183	0x3eabd363	0.33559713
184	0xb8aeeb8d	-8.340841e-05
185	0xbe4cd491	-0.20002963
186	0xbea4dced	-0.32199803
187	0x3e245938	0.16049659
188	0x3e97d61f	0.2965555
189	0xbe152123	-0.14563422
190	0xbe324e91	-0.17412783
191	0x3d87a777	0.06623738
192	0xbe90630f	-0.28200576
193	0xbe82dc3d	-0.25558653
194	0xbe84ae43	-0.259142
195	0xbd9f3a15	-0.0777475
196	0xbef2e6c0	-0.47441673
197	0xbe86e9cc	-0.26350248
198	0x3df50be8	0.119651616
199	0x3e854ef4	0.260368
200	0xbe15ef13	-0.14641981
201	0x3da09296	0.07840459
202	0xbe88f3a7	-0.26748392
203	0xbe4bebb9	-0.1991414
204	0x3db6d5bc	0.08927485
205	0xbbb323d1	-0.005466916
206	0x3e919190	0.28431368
207	0x3e23b36f	0.15986417
208	0xbec8cf75	-0.39220777
209	0x3ccff8a0	0.025387108
210	0xbde8a9f7	-0.11360543
211	0xbba59115	-0.0050526955
212	0x3edcb8b8	0.4310968
213	0xbe2c69ae	-0.16837189
214	0x3dba4b7c	0.09096429
215	0x3e0520f4	0.13000852
216	0xbe71a5da	-0.23598424
217	0xbe53cd9d	-0.20683904
218	0xbe1c09cf	-0.15238117
219	0x3d79cb9f	0.060985204
220	0x3e5f246d	0.21791239
221	0x3ef5007e	0.47851938
222	0x3d4669d1	0.04844076
223	0xbdccadda	-0.09994097
224	0xbe8a48e4	-0.27008736
225	0xbeb895ee	-0.36051887
226	0xbd30add9	-0.043134544
227	0xbd7a64b8	-0.06113121
228	0x3bbfab39	0.0058492688
229	0x3d1fb4ad	0.038990665
230	0x3e236220	0.159554
231	0x3d8fada4	0.07015541
232	0x3ed1072d	0.40825787
233	0xbe369771	-0.17831208
234	0xbcd4c9e4	-0.025975175
235	0xbc8985ee	-0.016787495
236	0xbd7f3af6	-0.06231209
237	0x3f17a8c6	0.592419
238	0xbbeb37b4	-0.007178271
239	0x3d1d5323	0.038409363
240	0xbf0ebb6a	-0.5575472
241	0xbe724144	-0.2365771
242	0xbd1c827c	-0.038210377
243	0x3c8fc753	0.0175511
244	0xbe2e19f1	-0.17002083
245	0x3c91489b	0.017734816
246	0x3d127efe	0.03576564
247	0xbe97ee6f	-0.29674098
248	0x3e451d35	0.19249423
249	0xbca5ea69	-0.020253377
250	0x3e46b5f1	0.19405343
251	0x3e4e3304	0.20136648
252	0xbe50389a	-0.20334092
253	0xbc0ae391	-0.008477108
254	0x3db6c2dc	0.08923885
255	0x3e29becc	0.1657669

conv1.bias f4 [30]
0	0xbcacfa0a	-0.021115322
1	0xbdc52966	-0.09627037
2	0xbd48d645	-0.04903247
3	0x3da666db	0.08125087
4	0xbdad9454	-0.08475557
5	0x3de29ece	0.11065446
6	0xbe09e7f2	-0.13467386
7	0xbc46ab05	-0.012125735
8	0x3d923447	0.07138877
9	0xbda8e6a5	-0.08247117
10	0xbd9ab51a	-0.07554074
11	0x3d9df42d	0.077125885
12	0x3db22ff4	0.087005526
13	0xbd9d5fe9	-0.07684309
14	0x3d3007ad	0.04297607
15	0xbc9b628f	-0.018967895
16	0x3d9186e5	0.07105807
17	0x3ca484b1	0.020082803
18	0xbd58dc37	-0.05294439
19	0x3d2c2543	0.042027723
20	0x3b91015e	0.004425212
21	0x3d3acc9b	0.045605283
22	0x3d4ff3e0	0.050769687
23	0x3ceb89bd	0.028752202
24	0x3d6c3938	0.057671756
25	0x3d6f0baa	0.058360733
26	0xbd894079	-0.0670175
27	0xbc8c1193	-0.017098224
28	0x3d0e503e	0.034744494
29	0xbd8de998	-0.0692932

bn1.weight f4 [30]
0	0x3fa6d580	1.3033905
1	0x3fa553ef	1.291624
2	0x3fa3be82	1.2792513
3	0x3f9fe21f	1.2490882
4	0x3f9ee74b	1.2414335
5	0x3fa4eeb3	1.2885345
6	0x3f8edc1e	1.1160924
7	0x3f8a6342	1.0811541
8	0x3f7fc270	0.99906063
9	0x3f6fd6cf	0.93687147
10	0x3fcc5d2c	1.5965934
11	0x3f5ea9a6	0.8697761
12	0x3f54fd04	0.8319857
13	0x3f50af87	0.81517833
14	0x3f4991a4	0.78737855
15	0x3f3f90f0	0.7483053
16	0x3f3a9b6d	0.7289341
17	0x3f3b6c6d	0.7321232
18	0x3f47ffbc	0.78124595
19	0x3f323ee7	0.6962723
20	0x3f347d8d	0.70504075
21	0x3f259f2a	0.6469599
22	0x3f199b90	0.60002995
23	0x3f0fab13	0.56120414
24	0x3f16bdcf	0.58883375
25	0x3f09d832	0.5384551
26	0x3ef8fe87	0.4863169
27	0x3ee0c3a2	0.43899256
28	0x3eccfb19	0.40035322
29	0x3ec7e36e	0.39040703

bn1.bias f4 [30]
0	0x3c2eeebc	0.010677036
1	0x3c883f8a	0.01663186
2	0x3c6ed05c	0.014576044
3	0x3d0b91ed	0.034074713
4	0x3d2b3e8a	0.04180769
5	0x3cf1f820	0.02953726
6	0x3d721074	0.059097722
7	0x3d510a31	0.05103511
8	0x3d90b70a	0.07066162
9	0x3d957f01	0.07299615
10	0x3e1a86eb	0.1509053
11	0x3dce51bc	0.10074183
12	0x3d9de68a	0.077099875
13	0x3ddb0ae9	0.1069544
14	0x3e013099	0.12616195
15	0x3e18def1	0.14928795
16	0x3e17ac36	0.14811787
17	0x3e160630	0.14650798
18	0x3e25cf86	0.16192445
19	0x3e37b675	0.17940696
20	0x3e44013d	0.19141097
21	0x3e5c7824	0.21530205
22	0x3e5e63f2	0.21717814
23	0x3e7c942d	0.246659
24	0x3e8406f9	0.2578657
25	0x3e8da339	0.27663592
26	0x3e89a71b	0.26885304
27	0x3e8d5777	0.27605793
28	0x3e91c657	0.28471634
29	0x3e992671	0.2991214

bn1.running_mean f4 [30]
0	0xbfd15e8f	-1.6356982
1	0xbfe8c504	-1.8185124
2	0xbfead910	-1.8347492
3	0xbfd2282f	-1.6418513
4	0xbfd92a60	-1.6966057
5	0xbfb96e0f	-1.4486712
6	0xbfdfa103	-1.7471012
7	0xbfbdb11e	-1.4819677
8	0xbfb1203c	-1.3837962
9	0xbf946cf2	-1.1595747
10	0xbf61936f	-0.8811559
11	0xbfbd1606	-1.4772346
12	0xbf99fb6b	-1.2029852
13	0xbfbda11f	-1.4814795
14	0xbfb0b71a	-1.3805878
15	0xbfc8e128	-1.5693712
16	0xbfb80992	-1.4377921
17	0xbfb05600	-1.3776245
18	0xc00ad51d	-2.1692574
19	0xbfc6dcb2	-1.5536101
20	0xbfb25a77	-1.3933858
21	0xbfee487e	-1.8615873
22	0xbff29b86	-1.8953712
23	0xbfbbac91	-1.4662038
24	0xbfe2e9e7	-1.7727631
25	0xbfd65321	-1.6744119
26	0xbffada01	-1.959778
27	0xbfb36a2d	-1.4016777
28	0xbf907b2d	-1.128759
29	0xbf8f71ce	-1.1206605

bn1.running_var f4 [30]
0	0x40d6bba6	6.7104063
1	0x40db90f9	6.861447
2	0x40e70324	7.2191334
3	0x40dfe63f	6.996856
4	0x40d4a5e4	6.6452503
5	0x40c6ab8d	6.2084413
6	0x40d603d8	6.687969
7	0x40cc13c9	6.377415
8	0x40a7a8d1	5.2393575
9	0x40a74319	5.2269406
10	0x40336ae8	2.8034
11	0x40b9cda7	5.806354
12	0x40b375d9	5.6081357
13	0x40c22682	6.0672007
14	0x40d3bd75	6.616877
15	0x40e216bd	7.0652757
16	0x40d929c1	6.786347
17	0x40d7b30b	6.740606
18	0x4119cfc9	9.613229
19	0x410214e9	8.130105
20	0x4102df2e	8.179487
21	0x411d7506	9.84107
22	0x4107d2ae	8.488935
23	0x4105802a	8.34379
24	0x41355f1a	11.335718
25	0x4127191a	10.443628
26	0x411ee0c5	9.929875
27	0x40e87ad4	7.2649937
28	0x40dda2d5	6.926127
29	0x40e57ba2	7.171342

dense1.dense.weight f4 [96, 512]
0	0xbd9a0c8b	-0.07521924
1	0xbce4c6b1	-0.027926775
2	0xbdcd3a67	-0.10020905
3	0xbcddf639	-0.027094947
4	0x3f134ce2	0.5753919
5	0x3e84c23e	0.25929445
6	0x3eda96da	0.42693216
7	0xbe2a8293	-0.16651373
8	0xbd88f1b3	-0.066867255
9	0x3e5fe229	0.21863617
10	0x3e9ae65d	0.30253878
11	0x3e5c6113	0.21521406
12	0xbf0fb913	-0.56141776
13	0xbf073e86	-0.5282978
14	0xbdfa97a5	-0.12235955
15	0x3eb76676	0.3582036
16	0xbf0011db	-0.50027245
17	0xbf0f9fe2	-0.56103337
18	0x3e755240	0.23957157
19	0x3e5b43fd	0.21412654
20	0xbec0999a	-0.3761719
21	0xbe14c4b4	-0.14528161
22	0xbee706fb	-0.45122513
23	0x3e1af140	0.15131092
24	0x3ca6cdd3	0.020361817
25	0xbd5744ae	-0.052555732
26	0xbe38343c	-0.17988676
27	0xbec04206	-0.37550372
28	0xbdbe6101	-0.09295846
29	0xbeb61652	-0.35563904
30	0xbe400a38	-0.18753898
31	0x3e2a189a	0.16610947
32	0xbdbd8b17	-0.09255045
33	0x3d1ba9b6	0.038003646
34	0x3e1e6f2b	0.15472095
35	0xbe335587	-0.17513095
36	0x3db40249	0.08789498
37	0x3cf91f17	0.030410333
38	0xbd846fd8	-0.06466645
39	0xbe8138fd	-0.2523879
40	0xbbd5f12f	-0.0065289955
41	0x3e6fb60d	0.2340929
42	0xbe632924	-0.22183663
43	0x3e1a4e78	0.15068996
44	0xbeaef7bb	-0.34173378
45	0xbe847abe	-0.25874895
46	0xbecb876a	-0.3975175
47	0x3dc2684a	0.09492548
48	0x3bac6a37	0.0052616852
49	0xbcf24a8d	-0.029576564
50	0xbe94f84b	-0.29095683
51	0x3e11cbd7	0.14237915
52	0xbe219c58	-0.15782297
53	0xbe9efcce	-0.3105225
54	0xbe265b63	-0.16245799
55	0xbec8bb6e	-0.39205498
56	0xbe20dad5	-0.15708478
57	0x3f075e5c	0.52878356
58	0x3e6f4313	0.2336543
59	0xbe7bab11	-0.24576975
60	0xbe0da1eb	-0.13831298
61	0x3e4a98df	0.19784878
62	0x3d9c39cf	0.076282136
63	0xbe1e854c	-0.15480536
64	0x3e96a426	0.2942211
65	0x3ec777de	0.3895864
66	0xbdb04356	-0.08606593
67	0x3e4f2c52	0.2023175
68	0xbe1e67db	-0.15469305
69	0xbced8d1e	-0.028997954
70	0xbdfff5b0	-0.12498033
71	0x3e87132e	0.2638182
72	0x3d622f2d	0.05522077
73	0x3da5a64d	0.0808836
74	0x3d1e2dd5	0.038617928
75	0x3eb41116	0.35169286
76	0xbf11d296	-0.56961954
77	0xbe8f6a14	-0.2801062
78	0xbe92c70f	-0.28667495
79	0x3caaeed9	0.020865845
80	0xbe5ae306	-0.21375665
81	0xbd07bd74	-0.03313966
82	0xbe7e79a7	-0.24851094
83	0x3e804ce5	0.25058666
84	0xbd216488	-0.039402515
85	0xbcfd56cd	-0.030925179
86	0xbe347722	-0.1762357
87	0xbd173f8c	-0.036925837
88	0x3f02a0b0	0.5102644
89	0x3e373e3d	0.17894836
90	0xbee508fb	-0.44733414
91	0xbd691586	-0.056905292
92	0xbd2502dd	-0.040285934
93	0xbbb9b3ed	-0.005667201
94	0xbe0b8809	-0.13626112
95	0x3ce6d9f8	0.028180107
96	0xbeaf8c48	-0.34286714
97	0x3dcbb989	0.099474974
98	0xbe71167f	-0.23543738
99	0xbd7cb825	-0.06169905
100	0xbe11fd98	-0.14256895
101	0x3dd0c53f	0.10193872
102	0x3e88d381	0.26723865
103	0xbc8dc287	-0.017304672
104	0xbdd85ed9	-0.10564966
105	0xbebe4606	-0.371628
106	0xbef7b42d	-0.4837965
107	0xbcc9d9c9	-0.02463998
108	0xbead32dd	-0.33827868
109	0xbe019c3d	-0.12657256
110	0x3f112073	0.5669014
111	0xbef1a751	-0.47197965
112	0x3c9d95b8	0.01923643
113	0x3e244510	0.1604197
114	0x3e1bd4dc	0.15217918
115	0x3ed12fc4	0.40856755
116	0x3e9f2057	0.3107936
117	0x3d483588	0.048879176
118	0xbe175a0b	-0.14780442
119	0x3e6b3e1c	0.22972912
120	0x3d4e6685	0.05039074
121	0x3e02ca82	0.12772563
122	0xbe7c522f	-0.24640726
123	0xbeaf7c51	-0.34274533
124	0xbd0ae7f0	-0.0339126
125	0x3d45f173	0.048325967
126	0x3ed72593	0.42020854
127	0x3ea688a9	0.32526138
128	0x3e8bddc3	0.27317628
129	0x3e29aa3a	0.16568843
130	0x3e456ebe	0.19280526
131	0x3e1fcfec	0.1560666
132	0xbf08cfce	-0.53442085
133	0xbd837368	-0.06418496
134	0xbd6f54f5	-0.05843063
135	0xbe1d8362	-0.1538215
136	0xbd8bbad4	-0.06822744
137	0xbe809f61	-0.25121596
138	0x3d4dc7ce	0.050239377
139	0xbf134603	-0.57528704
140	0xbc68ccc6	-0.014208978
141	0x3dfbddd2	0.12298168
142	0xbea497a3	-0.3214694
143	0xbf01b60f	-0.50668424
144	0x3e8b73bb	0.27236733
145	0xbf1d06a9	-0.6133829
146	0xbec68a25	-0.3877727
147	0xbda96c2e	-0.08272587
148	0x3eb218c4	0.3478452
149	0xbeeb6d52	-0.45981842
150	0xbeb3fe51	-0.35154966
151	0xbdf7b9a7	-0.12095957
152	0x3ea2d039	0.31799486
153	0xbe833d07	-0.25632498
154	0xbe7bde30	-0.24596477
155	0x3c992794	0.01869563
156	0x3e2d6b0a	0.16935363
157	0xbe252ee4	-0.16131169
158	0xbf0245cf	-0.5088777
159	0x3baa5a2b	0.005198737
160	0xbd900fee	-0.07034288
161	0xbc573638	-0.013135485
162	0xba51bde3	-0.00080010126
163	0xbe8d0ab6	-0.27547234
164	0x3cd84c8b	0.026403686
165	0xbe9cbaa1	-0.30611137
166	0xbeb7e5fe	-0.35917658
167	0x3ea9e23b	0.33180413
168	0xbe3dfc12	-0.18553188
169	0xbdd364a8	-0.10321933
170	0xbd871b34	-0.065969855
171	0xbee6f71f	-0.45110413
172	0xbe92e5f9	-0.2869108
173	0x3e56ca70	0.20975661
174	0x3e19b926	0.15012035
175	0xbe3a268d	-0.18178768
176	0x3db68347	0.08911758
177	0x3e877621	0.26457313
178	0x3e88d2bf	0.26723287
179	0x3e59bdfe	0.21263883
180	0xbdcb7791	-0.09934915
181	0xbded6933	-0.11592331
182	0xbd5d5253	-0.05403359
183	0xbb5682d2	-0.0032731784
184	0x3e26632c	0.16248769
185	0x3d9d8674	0.076916605
186	0xbe951f6d	-0.29125538
187	0x3d8f25d3	0.06989636
188	0xbe844ae4	-0.25838387
189	0xbed36394	-0.4128691
190	0xbea05d69	-0.31321266
191	0x3d86aca7	0.065758996
192	0xbeaf3d59	-0.34226492
193	0xbd2d0aec	-0.042246744
194	0xbde59fa9	-0.112120934
195	0xbeb7d2db	-0.35903057
196	0x3e153a58	0.14573038
197	0x3eef3460	0.46719646
198	0x3ea0aaeb	0.313804
199	0x3db1b2ad	0.08676658
200	0xbec0887b	-0.37604126
201	0x3e61d3e5	0.22053488
202	0xbc8ba972	-0.017048571
203	0x3e68b2de	0.22724482
204	0x3ea20bb2	0.31649548
205	0x3eca4724	0.395074
206	0x3e058f41	0.13042928
207	0xbe311279	-0.17292203
208	0x3dde57d6	0.10856597
209	0xbee7b88c	-0.45257986
210	0x3f22f75f	0.6365871
211	0x3dec470e	0.1153699
212	0x3ecaa97a	0.39582425
213	0x3ed57f9c	0.4169892
214	0x3e968e6b	0.2940553
215	0xbce19a02	-0.027539257
216	0xbd8751ce	-0.066074
217	0xbe539f8a	-0.20666328
218	0xbe57e243	-0.21082406
219	0xbe06a4ed	-0.13148852
220	0xbe0770dc	-0.13226646
221	0xbe3f22a5	-0.1866556
222	0xbeacc1f0	-0.33741713
223	0xbecb45d6	-0.39701718
224	0xbf0fe59d	-0.5620974
225	0x3b5f5b07	0.0034081356
226	0x3db3046d	0.087410785
227	0x3e8d4d57	0.27598068
228	0xbe849a29	-0.25898865
229	0xbec24324	-0.3794185
230	0xbee38ed8	-0.4444492
231	0xbe64e799	-0.22353972
232	0x3f006dc9	0.5016752
233	0x3e69e189	0.22839941
234	0x3e69d679	0.22835721
235	0xbea3df83	-0.32006463
236	0x3e2ebac6	0.17063436
237	0xbdec349e	-0.115334734
238	0xbec5bf40	-0.38622475
239	0xbef23309	-0.47304562
240	0xbe8ab64f	-0.27092215
241	0x3e5d6f8b	0.21624582
242	0x3e11746a	0.14204565
243	0xbe953732	-0.29143673
244	0xbe6e7892	-0.23288181
245	0xbeab2f3a	-0.33434469
246	0x3dd3024b	0.10303172
247	0x3d30611f	0.043061372
248	0x3e84575b	0.25847897
249	0x3f044480	0.5166702
250	0x3e36987b	0.17831604
251	0xbdbc7dc6	-0.09203677
252	0xbedc1163	-0.42982015
253	0x3ed052eb	0.4068826
254	0xbd8b5fd1	-0.06805385
255	0xbf0c2931	-0.54750353

dense1.dense.bias f4 [96]
0	0x3e4b7d1f	0.19871949
1	0x3e5ff374	0.21870214
2	0x3e43313d	0.19061752
3	0x3dee3327	0.1163085
4	0x3e3d50b7	0.18487822
5	0x3ed40764	0.4141189
6	0xbc8c3e9a	-0.017119695
7	0x3da87918	0.08226222
8	0x3e0551df	0.13019513
9	0x3b55169e	0.0032514702
10	0x3cd4581c	0.02592092
11	0x3e506c4c	0.20353812
12	0x3e0c35f7	0.13692461
13	0x3e043ba8	0.12913382
14	0x3dbc340a	0.09189613
15	0xbba46ce0	-0.0050178617
16	0x3d3579ba	0.04430554
17	0x3e78441a	0.24244729
18	0x3e97bd9f	0.29636857
19	0x3b036baa	0.0020053186
20	0x3e9adee1	0.30248168
21	0xbd839555	-0.06424967
22	0x3e06d4ba	0.13167086
23	0x3d885753	0.06657281
24	0x3db138aa	0.08653386
25	0x3dc8e5ab	0.09809431
26	0x3e7e5c0c	0.248398
27	0x3e48286a	0.19546667
28	0x3d4407c0	0.047858953
29	0xbe020c0d	-0.1269991
30	0x3fc2da76	1.5222919
31	0x3e435ea2	0.19079068
32	0x3e27859f	0.16359566
33	0x3db067a4	0.08613518
34	0x3d59a8a6	0.05313935
35	0x3da1f8a4	0.079087526
36	0x3e929072	0.28625828
37	0x3e4c7a00	0.19968414
38	0x3de1ebfb	0.11031338
39	0x3e0443cf	0.12916492
40	0x3dc8c667	0.09803467
41	0x3e04c67e	0.12966344
42	0x3e956eef	0.29186198
43	0x3e341e6d	0.17589732
44	0x3e4bdfb7	0.19909559
45	0x3e4a54ad	0.19758864
46	0x3e51b2f0	0.20478415
47	0x3e1847de	0.14871165
48	0x3ebb0dc3	0.36533937
49	0x3eaded35	0.33970037
50	0x3e5f872d	0.21828909
51	0x3eb80907	0.35944387
52	0x3e23f637	0.16011892
53	0x3e9fe4f2	0.3122936
54	0x3e498bd1	0.19682242
55	0x3d662d3d	0.056195486
56	0x3e5d5904	0.21615988
57	0x3e369774	0.17831212
58	0x3e8d43f6	0.27590913
59	0x3e423ba4	0.18968064
60	0x3ddf5eeb	0.10906776
61	0x3ea94876	0.33063096
62	0x3d04acac	0.032391235
63	0x3e23d1ff	0.15998076
64	0x3dd1476b	0.102187
65	0x3e5f8d14	0.21831161
66	0x3e0090da	0.12555256
67	0x3e3a3c3e	0.18187043
68	0x3b8b4efc	0.004251359
69	0x3db8c78b	0.09022435
70	0x3e0d6cdb	0.13811056
71	0x3e851ddf	0.25999352
72	0x3e81c8fe	0.25348657
73	0x3ef39a98	0.47578883
74	0x3ed83308	0.42226434
75	0x3e334d87	0.17510043
76	0x3e459407	0.19294749
77	0x3e56a531	0.20961453
78	0x3d0405f9	0.03223226
79	0x3e99b7c4	0.30023015
80	0x3ea3dd90	0.32004976
81	0x3e928719	0.28618696
82	0x3ec94e2b	0.3931745
83	0x3e2becab	0.167895
84	0x3df18042	0.11792041
85	0x3e87b66d	0.26506367
86	0xbc0a6ac7	-0.008448309
87	0x3e8e3e49	0.27781895
88	0xbcdce788	-0.026965871
89	0x3e454a45	0.19266613
90	0x3eb98cc6	0.36240214
91	0x3d717e0c	0.0589581
92	0x3e0a90e8	0.1353184
93	0x3ed8fd99	0.4238098
94	0x3e856edc	0.26061141
95	0x3e32bdfa	0.17455283

dense1.batch_norm1.weight f4 [96]
0	0x3f488927	0.7833428
1	0x3f80d0be	1.0063703
2	0x3f6cedca	0.9255034
3	0x3f4a3306	0.78984106
4	0x3f4d4b2b	0.8019282
5	0x3f777057	0.9665579
6	0x3f211bbc	0.62932944
7	0x3f3b4aaa	0.73160803
8	0x3f5c4757	0.86046356
9	0x3e5bc8e8	0.21463358
10	0x3e818a0f	0.25300643
11	0x3f20d19c	0.6281984
12	0x3f523b59	0.8212181
13	0x3f2956b9	0.66147953
14	0x3f3a12d9	0.7268501
15	0x3f1594b5	0.58430034
16	0x3f211d3b	0.6293523
17	0x3f6aab47	0.916676
18	0x3f712ada	0.9420601
19	0x3e931dcb	0.28733668
20	0x3f5eb1ba	0.8698994
21	0x3f43cbfa	0.7648312
22	0x3f6a2e63	0.9147703
23	0x3f7c1903	0.98475665
24	0x3f88a461	1.0675164
25	0x3f7814f3	0.96906966
26	0x3f565a8c	0.83731914
27	0x3f616387	0.8804249
28	0x3f32e5b8	0.69881773
29	0x3f968db2	1.1761992
30	0x3f966c58	1.1751814
31	0x3f689374	0.90849996
32	0x3f655e5c	0.89597106
33	0x3f71156e	0.94173324
34	0x3f4b56f5	0.7942956
35	0x3f6a1f0e	0.91453636
36	0x3f6a10a1	0.91431624
37	0x3f6048c2	0.8761102
38	0x3f2e4f9d	0.6809023
39	0x3f48acdc	0.7838876
40	0x3f525d69	0.8217378
41	0x3f6ba23c	0.92044425
42	0x3f6f6eaf	0.93528265
43	0x3f60d726	0.8782829
44	0x3f2d6644	0.6773417
45	0x3f4fb4d9	0.81135327
46	0x3f664f9b	0.8996522
47	0x3f202b44	0.6256602
48	0x3f80f774	1.0075517
49	0x3f74f90f	0.95692533
50	0x3f322f98	0.6960387
51	0x3f72d621	0.94857985
52	0x3f611ee6	0.8793777
53	0x3f6b72ae	0.9197186
54	0x3f463c86	0.774361
55	0x3f944409	1.1583263
56	0x3f767053	0.96265143
57	0x3f4b3e6b	0.7939212
58	0x3f3fb616	0.74887216
59	0x3f4dd72d	0.8040646
60	0x3f2e7264	0.68143296
61	0x3f6dc5e6	0.92880094
62	0x3f2e9836	0.68201005
63	0x3f6f4ccb	0.9347655
64	0x3f7df0df	0.99195665
65	0x3f71c931	0.9444762
66	0x3f4ca2f6	0.7993616
67	0x3f673210	0.90310764
68	0x3f4f186d	0.80896646
69	0x3f2a73e7	0.665831
70	0x3f74702c	0.9548366
71	0x3f5c75d2	0.8611728
72	0x3f5acfb1	0.8547316
73	0x3f74c377	0.95610756
74	0x3f781c58	0.9691825
75	0x3f9007fc	1.1252437
76	0x3f802124	1.0010114
77	0x3f464c5f	0.77460283
78	0x3f2eaa74	0.6822884
79	0x3f6069e7	0.87661594
80	0x3f76b17e	0.9636458
81	0x3f8169a2	1.0110362
82	0x3f56027b	0.83597535
83	0x3f5d04e3	0.8633558
84	0x3f6237ec	0.8836658
85	0x3f8805de	1.062679
86	0x3f8127df	1.0090293
87	0x3f679a9a	0.9047028
88	0x3f1c2986	0.6100086
89	0x3f548d5e	0.8302821
90	0x3f777092	0.96656144
91	0x3f298ac3	0.6622736
92	0x3f52c2e1	0.8232861
93	0x3f52f1a8	0.8239999
94	0x3f76424b	0.96194905
95	0x3f59366f	0.84848684

dense1.batch_norm1.bias f4 [96]
0	0xbf4e7915	-0.80653507
1	0xbf4e317c	-0.8054426
2	0xbf592c0d	-0.8483284
3	0xbf15fcd6	-0.5858892
4	0xbf234c30	-0.6378813
5	0xbf6389a0	-0.88881874
6	0xbe536771	-0.20644929
7	0xbebc39e2	-0.3676291
8	0xbf1c435d	-0.6104029
9	0x3d837007	0.06417852
10	0x3d42bbd1	0.047542397
11	0xbea6a403	-0.32547006
12	0xbf0f06d3	-0.5586979
13	0xbee47518	-0.44620585
14	0xbe9f611b	-0.31128773
15	0xbeaa34d3	-0.33243427
16	0xbf1c0f98	-0.60961294
17	0xbf2545b3	-0.6455948
18	0xbf479b18	-0.7797103
19	0x3ccece24	0.02524478
20	0xbf208fb2	-0.6271926
21	0xbe9e7489	-0.30948284
22	0xbf370672	-0.7149421
23	0xbf58d697	-0.8470244
24	0xbfca55a8	-1.580739
25	0xbf33fc20	-0.7030659
26	0xbf134488	-0.57526445
27	0xbf0e8a19	-0.5567947
28	0xbe96292a	-0.2932828
29	0xc001eb4a	-2.029986
30	0xbffe4abf	-1.9866561
31	0xbf1059b3	-0.5638687
32	0xbf59f939	-0.8514591
33	0xbf3f19bd	-0.7464865
34	0xbf4b200c	-0.79345775
35	0xbf2e282e	-0.6803006
36	0xbf3f2614	-0.7466748
37	0xbf19a670	-0.6001959
38	0xbed4aefc	-0.41539752
39	0xbf2a4274	-0.6650765
40	0xbf388a37	-0.720859
41	0xbf180dcd	-0.5939606
42	0xbf481a20	-0.78164864
43	0xbf23c747	-0.6397595
44	0xbeceb022	-0.40368754
45	0xbf14901c	-0.58032393
46	0xbf298fc2	-0.6623498
47	0xbe70799b	-0.23483889
48	0xbf4f7f09	-0.81053215
49	0xbf31a745	-0.6939586
50	0xbee109df	-0.43952844
51	0xbf3a82e9	-0.72856003
52	0xbf22cf29	-0.6359735
53	0xbf5d0e2d	-0.86349756
54	0xbefdae29	-0.49546936
55	0xbf91d5e8	-1.1393404
56	0xbf4c7b51	-0.79875666
57	0xbf08cf38	-0.5344119
58	0xbeb0c678	-0.3452642
59	0xbf021de7	-0.5082688
60	0xbec0a891	-0.37628606
61	0xbf4f68f7	-0.8101954
62	0xbe62b0de	-0.22137782
63	0xbf319b9b	-0.6937806
64	0xbf55e6ae	-0.83555114
65	0xbf269e80	-0.650856
66	0xbf0074fd	-0.5017851
67	0xbf267569	-0.65022904
68	0xbf8edad4	-1.1160531
69	0xbeae0a35	-0.33992162
70	0xbf353b83	-0.7079393
71	0xbf2a86b5	-0.66611797
72	0xbef09d05	-0.46994796
73	0xbf56cd90	-0.83907413
74	0xbf264322	-0.64946187
75	0xbf6f64a9	-0.9351297
76	0xbf0e443f	-0.55572885
77	0xbeedf128	-0.4647305
78	0xbea6836d	-0.32522145
79	0xbf0e06e8	-0.5547929
80	0xbf394861	-0.72376066
81	0xbf2ced4f	-0.67549604
82	0xbf183e2e	-0.5946988
83	0xbf10a836	-0.5650667
84	0xbf506562	-0.814047
85	0xbf5aa4a4	-0.8540747
86	0xbf657a68	-0.896399
87	0xbf2fe14c	-0.6870315
88	0xbebc9d6c	-0.36838853
89	0xbf33e105	-0.7026523
90	0xbf3bd406	-0.733704
91	0xbe84ae8e	-0.25914425
92	0xbefbc729	-0.49175385
93	0xbeef8d08	-0.46787286
94	0xbf6bc8d5	-0.9210332
95	0xbf0ef07a	-0.5583569

dense1.batch_norm1.running_mean f4 [96]
0	0xc00a4797	-2.1606195
1	0xc01a99cd	-2.4156373
2	0xc04e43c3	-3.2228858
3	0xbf61793d	-0.8807562
4	0xc0172b32	-2.3620114
5	0xbfc76946	-1.5579002
6	0xc0658386	-3.5861526
7	0xbf725921	-0.9466725
8	0xbf99cfd9	-1.2016555
9	0xc0131bac	-2.298564
10	0xbfdc8793	-1.7228874
11	0xbf4bc120	-0.7959156
12	0xc01dfa83	-2.468415
13	0xc013bc89	-2.3083823
14	0xbf89ea2b	-1.0774587
15	0xbff9603c	-1.9482493
16	0xc032598f	-2.7867162
17	0xc0151795	-2.3295643
18	0xbff99da8	-1.9501238
19	0xc0526a8b	-3.2877529
20	0xbfd117c1	-1.6335374
21	0xc059802d	-3.3984482
22	0xbfcb458c	-1.5880599
23	0xc0173d32	-2.36311
24	0x3ffb18cf	1.9616946
25	0xc02e22ca	-2.7208734
26	0xc03d61e6	-2.9591002
27	0xc0197931	-2.398022
28	0xc0b4b4e9	-5.6470838
29	0x3f89301f	1.071781
30	0x406cced0	3.7001228
31	0xbfdc5327	-1.7212876
32	0xc00223f0	-2.0334435
33	0xc021f470	-2.5305443
34	0xc020dc69	-2.5134528
35	0xbfd8cf3c	-1.6938243
36	0xbff6814f	-1.9258212
37	0xc002c278	-2.0431194
38	0xc00b5b89	-2.1774619
39	0xc0062c16	-2.0964408
40	0xc007e1fc	-2.123168
41	0xbf4e30aa	-0.80543005
42	0xc02180e2	-2.5234914
43	0xc000d8ae	-2.013225
44	0xc0256f33	-2.584912
45	0xbff364af	-1.9015101
46	0xbfc5c107	-1.5449532
47	0xbfbf662c	-1.4953055
48	0xbfe8809e	-1.8164251
49	0xc00e6ca8	-2.2253819
50	0xbfb305ca	-1.3986142
51	0xc00ded66	-2.2176147
52	0xbfec96c0	-1.8483505
53	0xc034334a	-2.8156304
54	0xc00e98c4	-2.228074
55	0xc001dfa8	-2.029276
56	0xc00881dd	-2.1329262
57	0xbfdeffc1	-1.74218
58	0xbf6c7afa	-0.9237515
59	0xbfdc5627	-1.7213792
60	0xc000b632	-2.0111203
61	0xc017da2d	-2.3726914
62	0xc00767bc	-2.1157064
63	0xc01932d6	-2.3937278
64	0xbf7f82e3	-0.9980909
65	0xbff532ff	-1.9156188
66	0xc002604c	-2.0371275
67	0xc01b10cc	-2.4229002
68	0xc00fdf19	-2.2479918
69	0xc00f1f40	-2.2362823
70	0xc0008dfa	-2.0086656
71	0xbffc9355	-1.9732462
72	0xbf58d011	-0.84692484
73	0xc0188015	-2.3828175
74	0xc0250318	-2.5783138
75	0xc014d815	-2.3256886
76	0xbfb2f4f8	-1.3981009
77	0xc028e96b	-2.6392467
78	0xbf0d9940	-0.55311966
79	0xbfe3479d	-1.775623
80	0xc00a61b2	-2.1622128
81	0xc02914a6	-2.6418853
82	0xbfc72af4	-1.5559983
83	0xc003ccb1	-2.0593684
84	0xbfcc21a1	-1.5947763
85	0xc00f05e8	-2.2347355
86	0xc00c281d	-2.1899483
87	0xc03380e0	-2.804741
88	0xbf5edbd2	-0.8705417
89	0xbfdc8a95	-1.7229792
90	0xbffa9107	-1.9575509
91	0xc0931088	-4.595768
92	0xbf7718fd	-0.96522504
93	0xbfae00eb	-1.359403
94	0xbff3509c	-1.9008975
95	0xbfc489f6	-1.5354602

dense1.batch_norm1.running_var f4 [96]
0	0x4000b329	2.010935
1	0x40515c9b	3.2712772
2	0x404c306f	3.1904562
3	0x402bb399	2.6828368
4	0x401c309e	2.4404674
5	0x3fe7a39b	1.8096803
6	0x409ee9f9	4.966061
7	0x4045ec6f	3.0925558
8	0x3ff60220	1.9219398
9	0x4088b08f	4.2715526
10	0x408cb3b5	4.396937
11	0x3ff66f36	1.9252689
12	0x403a5898	2.9116573
13	0x4025cbc2	2.5905614
14	0x407bf4d3	3.936818
15	0x401e3c86	2.472444
16	0x4024dbd0	2.5759163
17	0x403a45bd	2.9105065
18	0x404d753b	3.2102802
19	0x403ad767	2.919397
20	0x402e4150	2.7227364
21	0x40eb81b1	7.3595815
22	0x405e08e8	3.4692936
23	0x404b706c	3.1787367
24	0x3fa0a5c8	1.2550592
25	0x40513181	3.2686465
26	0x401a16c8	2.4076405
27	0x405db25f	3.464012
28	0x40ebe9cc	7.3722897
29	0x3fb98005	1.4492193
30	0x3fa92131	1.3213254
31	0x40370d27	2.8601778
32	0x3fe8e49c	1.8194766
33	0x4045d6e2	3.0912404
34	0x4037280f	2.86182
35	0x402abcab	2.6677654
36	0x4021ecdf	2.5300825
37	0x401b2416	2.4240775
38	0x4054655e	3.318687
39	0x400cba6c	2.1988783
40	0x40422cfd	3.0339959
41	0x403f7f54	2.9921465
42	0x4035d3ea	2.8410592
43	0x40143e1c	2.3162909
44	0x402f4864	2.7387934
45	0x401e3293	2.4718368
46	0x401f769c	2.4916143
47	0x4054b76e	3.3236957
48	0x40173631	2.3626826
49	0x4054c143	3.3242958
50	0x3fd897ee	1.6921365
51	0x4032432f	2.7853506
52	0x40356512	2.8342938
53	0x40498372	3.1486478
54	0x4040aba4	3.010476
55	0x402c41dd	2.69152
56	0x402fce7f	2.7469785
57	0x4004adca	2.0731072
58	0x403508d4	2.8286638
59	0x401b38f7	2.4253519
60	0x402f81be	2.7422938
61	0x40306249	2.7559988
62	0x4051f97d	3.2808526
63	0x402d5b7a	2.7087083
64	0x402285d8	2.5394192
65	0x3fe4339d	1.7828251
66	0x4058029c	3.3751593
67	0x40328ebc	2.7899618
68	0x3f925849	1.1433192
69	0x405ba385	3.4318554
70	0x4054b76a	3.3236947
71	0x4000cdb7	2.0125558
72	0x403df840	2.968277
73	0x400cd006	2.2001967
74	0x4040f41b	3.014899
75	0x406fda7a	3.7477098
76	0x4024f62a	2.5775247
77	0x40352dd2	2.8309216
78	0x4022e929	2.545481
79	0x4061bcd7	3.5271509
80	0x4038bb0b	2.8864162
81	0x403148b2	2.770062
82	0x402b7b68	2.6794071
83	0x400d2546	2.2054
84	0x401c3f82	2.4413762
85	0x4023d9eb	2.5601757
86	0x404454f2	3.0676847
87	0x4019ee27	2.4051607
88	0x400dd63e	2.2162013
89	0x402d2968	2.7056522
90	0x40078a90	2.1178322
91	0x40ac3036	5.380885
92	0x4013e530	2.3108635
93	0x3fb3f178	1.4058065
94	0x401e3a11	2.472294
95	0x401d7a68	2.460596

dense2.dense.weight f4 [15, 96]
0	0xbe145339	-0.14484872
1	0xbd41da0e	-0.047327094
2	0x3bccd892	0.006251403
3	0x3e0f3428	0.1398474
4	0xbe310c30	-0.17289805
5	0xbe225bfa	-0.15855399
6	0x3c1d675c	0.009607162
7	0xbe4beea9	-0.1991526
8	0x3e28d4c6	0.16487417
9	0xbd9d0369	-0.07666666
10	0xbd97dc08	-0.074150145
11	0xbe2b29fe	-0.16715237
12	0x3e584041	0.21118261
13	0xbf178516	-0.5918745
14	0x3d1f741f	0.0389291
15	0xbcd62946	-0.026142728
16	0xbe13ad34	-0.1442154
17	0x3e6b231a	0.22962609
18	0xbe4bf8a3	-0.19919066
19	0xbda28c39	-0.079369016
20	0xbd017b75	-0.03161188
21	0xbf2a2161	-0.6645718
22	0xbe27aa37	-0.16373526
23	0xbf128903	-0.57240313
24	0xbd510505	-0.051030178
25	0xbe848827	-0.25885126
26	0x3e10e90e	0.14151403
27	0xbeaa3399	-0.3324249
28	0x3e70ffd4	0.2353509
29	0x3b63ad9d	0.0034740933
30	0xbcf6d153	-0.03012911
31	0x3e09faed	0.13474627
32	0xba14e594	-0.0005679962
33	0x3e6d3582	0.23164943
34	0xbe1590ab	-0.14605968
35	0xbebbb339	-0.36660174
36	0xbe933307	-0.28749868
37	0xbe06b7e5	-0.13156088
38	0xbefba06d	-0.49145833
39	0x3e41a497	0.18910442
40	0xbea51c8a	-0.32248336
41	0x3cef739c	0.029229932
42	0xbdff8c45	-0.12477926
43	0x3df0d743	0.11759808
44	0x3e9e37f3	0.3090206
45	0x3e1a0b04	0.15043265
46	0x3e2cd1f2	0.16876963
47	0x3e267246	0.1625453
48	0xbf0c284c	-0.5474899
49	0xbe7d668b	-0.24746148
50	0xbd60a77b	-0.05484722
51	0x3c7a1e75	0.015266051
52	0xbd69a879	-0.057045434
53	0xbed3ea4a	-0.41389686
54	0xbe327f22	-0.1743131
55	0x3d0d4aec	0.03449528
56	0xbec691fc	-0.38783252
57	0x3e1d4ce4	0.15361363
58	0xbdca505f	-0.09878611
59	0xbeea823f	-0.45802495
60	0x3d892f6f	0.066985
61	0xbdf3a734	-0.11897126
62	0xbef46c3d	-0.4773883
63	0xbeb5f193	-0.3553587
64	0x3e7277da	0.23678532
65	0x3e0deac8	0.13859093
66	0xbedb205a	-0.4279812
67	0xbecf2f9e	-0.40466017
68	0xbe542ae0	-0.2071948
69	0xbf06ae3b	-0.52609605
70	0xbed0fc42	-0.40817457
71	0x3e3da839	0.18521203
72	0xbd46cb37	-0.048533645
73	0xbe74315b	-0.23846953
74	0xbe60a4a7	-0.2193781
75	0xbe9f9772	-0.3117023
76	0x3dd1710e	0.102266416
77	0xbee2905a	-0.44250757
78	0x3dadd0d5	0.08487097
79	0xbe8da95b	-0.2766827
80	0xbe94c85f	-0.2905912
81	0xbe7c40c5	-0.24634083
82	0xbd43ac83	-0.047771942
83	0xbe7047fd	-0.23464961
84	0x3eb39572	0.35074955
85	0xbec95b8a	-0.3932765
86	0xbea3a22c	-0.31959665
87	0x3db63356	0.0889651
88	0xbd9ec089	-0.07751567
89	0xbeaf7818	-0.34271312
90	0xbe1960fb	-0.14978401
91	0x3e360569	0.17775501
92	0xbee2341a	-0.44180375
93	0xbe223c7d	-0.15843387
94	0xbecc3704	-0.39885724
95	0xbe28dfd3	-0.16491632
96	0xbe0a9977	-0.13535105
97	0x3e8f9684	0.28044522
98	0xbf02afa9	-0.51049286
99	0xbecd6c7f	-0.40121838
100	0x3e38ded9	0.1805376
101	0xbddf2cfb	-0.10897251
102	0x3c92e746	0.017932545
103	0xbeada5ff	-0.33915707
104	0x3e6aff29	0.22948898
105	0xbe18196a	-0.14853445
106	0xbe107b8e	-0.14109632
107	0xbe2c7835	-0.1684273
108	0xbe74947b	-0.23884766
109	0xbdee2848	-0.11628777
110	0x3e328ac5	0.17435749
111	0xbd99ca92	-0.0750934
112	0x3dd9b7d1	0.10630763
113	0x3e52b3cf	0.20576404
114	0xbdb87de6	-0.09008388
115	0xbe2d5d1f	-0.16930054
116	0xbe56fccb	-0.2099487
117	0x3e630c73	0.22172718
118	0xbd9c6cab	-0.07637914
119	0xbd8d3357	-0.06894558
120	0x3d2b9bf8	0.04189679
121	0x3e8c3b09	0.2738879
122	0xbed2ef71	-0.41198304
123	0xbe1e9c32	-0.15489271
124	0xbdf07d2d	-0.117426254
125	0xbcd10191	-0.025513442
126	0xbd67ccca	-0.056591786
127	0xbec762a9	-0.3894246
128	0xbe0d060f	-0.13771842
129	0x3e6590e5	0.22418554
130	0xbec90f98	-0.3926971
131	0x3dbaedcb	0.09127387
132	0xbc9677f6	-0.018367749
133	0x3e295625	0.16536768
134	0xbf0a6f93	-0.540765
135	0x3dffb82b	0.12486299
136	0xbea192fb	-0.3155745
137	0xbe1fe4e0	-0.15614653
138	0xbd3d41cf	-0.046205338
139	0xbd5edb1f	-0.05440819
140	0x3e215678	0.15755641
141	0xbe668085	-0.22509964
142	0xbe475df1	-0.1946943
143	0xbed58d7c	-0.41709507
144	0xbeca7b31	-0.39547113
145	0xbdba7a28	-0.09105331
146	0xbe0c469e	-0.13698813
147	0xbe722722	-0.2364774
148	0xbe1cd06e	-0.15313885
149	0xbe266310	-0.16248727
150	0xbe4eea34	-0.20206529
151	0xbe02f253	-0.12787752
152	0xbed66b14	-0.4187857
153	0x3d29e3a3	0.041476857
154	0xbdd6f6a8	-0.10496265
155	0xbeb80873	-0.35943946
156	0xbed0067e	-0.40629953
157	0xbd2d67be	-0.042335264
158	0xbe8b3cc3	-0.27194795
159	0x3df2055e	0.1181743
160	0xbe8974e1	-0.26846984
161	0xbdea9560	-0.11454272
162	0xbe0a0bac	-0.13481015
163	0x3e54f725	0.20797403
164	0xbea38c74	-0.31943095
165	0x3e59c32b	0.21265857
166	0xbe77d974	-0.24204046
167	0xbe408f6a	-0.18804708
168	0xbe93b180	-0.2884636
169	0xba7709cb	-0.00094237615
170	0x3e664873	0.22488575
171	0xbd8a433a	-0.06751104
172	0x3e4e2732	0.2013214
173	0xbe8a4d44	-0.27012074
174	0xbf80d496	-1.0064876
175	0x3e7698b5	0.2408169
176	0xbe46f6f7	-0.19430147
177	0xbe85847c	-0.2607764
178	0xbdef0606	-0.11671071
179	0x3dfe21a4	0.1240876
180	0xbe96b1b3	-0.2943245
181	0x3e84f861	0.25970748
182	0x3d579e20	0.052641034
183	0xbb3e842d	-0.0029070482
184	0xbcb7abf6	-0.022420865
185	0xbe984764	-0.29741967
186	0x3dbcba2e	0.092151985
187	0x3e2ab099	0.16668929
188	0x3e681628	0.22664702
189	0xbd9de48c	-0.077096075
190	0x3e287334	0.16450197
191	0xbe70247f	-0.23451422
192	0x3e127b54	0.14304858
193	0xbe8e17f4	-0.2775265
194	0xbea3b1f4	-0.31971705
195	0x3e1b5181	0.1516781
196	0x3c9b66b7	0.018969877
197	0x3dcc9166	0.0998867
198	0x3cdb778d	0.026790405
199	0xbe432301	-0.19056322
200	0x3e2d2447	0.1690837
201	0xbda2c8c7	-0.079484515
202	0xbd952eb9	-0.07284302
203	0xbe76389d	-0.24045034
204	0xbeafef62	-0.34362322
205	0x3d6ce2f2	0.05783362
206	0xbe97acac	-0.29623926
207	0xbea594ba	-0.32340032
208	0x3d4f633f	0.050631758
209	0xbe593f0b	-0.21215455
210	0xbe1708d9	-0.14749469
211	0xbddae7f8	-0.10688776
212	0xbd8375ea	-0.06418975
213	0x3e360c89	0.1777822
214	0xbeadb3c4	-0.33926213
215	0x3dabb303	0.08383753
216	0xbd0aeb2e	-0.03391569
217	0xbe784ca2	-0.24247983
218	0x3e107fca	0.14111248
219	0xbed2c067	-0.41162416
220	0x3e0a5d8a	0.13512245
221	0xbe1c057f	-0.15236472
222	0xbd4d397d	-0.050103653
223	0x3e0cd1fe	0.1375198
224	0xbea09b7e	-0.3136863
225	0xbe61b998	-0.22043455
226	0xbe8f68ad	-0.2800955
227	0xbf0023a4	-0.50054383
228	0xbd85c02d	-0.06530795
229	0xbe77b593	-0.24190359
230	0x3e03efd2	0.12884453
231	0x3e785e5b	0.24254744
232	0x3e349c06	0.17637643
233	0x3e6c0d04	0.2305184
234	0xbdfb45eb	-0.12269195
235	0x3e542dda	0.20720616
236	0xbec3468e	-0.38139766
237	0x3e058434	0.13038713
238	0xbea7827b	-0.32716736
239	0xbf065315	-0.52470523
240	0xbede41c0	-0.43409538
241	0xbddf559b	-0.10905
242	0xbe08315b	-0.13300078
243	0x3eadd0c4	0.33948338
244	0xbdbae04d	-0.09124813
245	0xbc34bee1	-0.011031837
246	0x3e7bca55	0.24588902
247	0xbe6f0294	-0.23340827
248	0xbecaa4df	-0.39578912
249	0xbeb978e8	-0.36225057
250	0x3b742d3d	0.003725841
251	0xbef830d2	-0.48474747
252	0x3d5a3412	0.053272314
253	0xbeb7cd03	-0.358986
254	0x3e3b2237	0.1827477
255	0x3dba2ac7	0.090901904

dense2.dense.bias f4 [15]
0	0x3f1dda05	0.61660796
1	0x3f2e3d25	0.6806205
2	0x3ec47ba7	0.3837559
3	0x3fdf5edf	1.7450827
4	0x3f0804f3	0.5313255
5	0x3ed36ae7	0.41292498
6	0x4011d4e2	2.2786183
7	0x3f049f1d	0.5180529
8	0x3f123dc7	0.57125515
9	0x3f0b4608	0.54403734
10	0x3f0351ac	0.51296496
11	0x3f508903	0.81459063
12	0x3f201925	0.6253837
13	0x3c2d791d	0.010587958
14	0xc10801fd	-8.500485

dense2.batch_norm1.weight f4 [15]
0	0x4091d7ef	4.557609
1	0x40a479ac	5.1398525
2	0x406e1154	3.7198076
3	0x40aed151	5.4630513
4	0x4073cea4	3.8094873
5	0x40603e5f	3.5038068
6	0x40bff4f8	5.9986534
7	0x408906b5	4.2820687
8	0x4091b2be	4.553069
9	0x408087fe	4.0166006
10	0x40881618	4.252697
11	0x40a10748	5.032139
12	0x408dc50d	4.430304
13	0x3ed3a00c	0.41333044
14	0x4146dc2a	12.428751

dense2.batch_norm1.bias f4 [15]
0	0xc044fe20	-3.0780106
1	0xc05cb33b	-3.4484394
2	0xc0316121	-2.7715533
3	0xc02bafa0	-2.6825943
4	0xc01e5b70	-2.474331
5	0xc00ff7e4	-2.249505
6	0xc025732a	-2.585154
7	0xc041a696	-3.0257926
8	0xc033ba4f	-2.8082464
9	0xc01db529	-2.4641821
10	0xc0275833	-2.6147583
11	0xc0363ce0	-2.8474655
12	0xc03e0b91	-2.969456
13	0xbf122799	-0.5709167
14	0x40dcb8b0	6.897545

dense2.batch_norm1.running_mean f4 [15]
0	0x3e9086e9	0.28227928
1	0x3e9b356d	0.30314198
2	0xbd33ede4	-0.043928042
3	0x3fb48da7	1.4105729
4	0x3e313bba	0.1730794
5	0x3da65a94	0.08122745
6	0x400028cc	2.00249
7	0x3e13c9a9	0.14432396
8	0x3e801567	0.2501633
9	0x3e669337	0.22517096
10	0x3e33bdb5	0.17552836
11	0x3efea828	0.49737668
12	0x3e8835fd	0.2660369
13	0xbe5311e4	-0.20612293
14	0xc1068448	-8.407295

dense2.batch_norm1.running_var f4 [15]
0	0x3ed76671	0.42070344
1	0x3ef72a01	0.48274234
2	0x3ee6ca3f	0.45076177
3	0x3ee724a1	0.45145133
4	0x3ed49b7c	0.41524875
5	0x3e9d7e05	0.30760208
6	0x3ee3e985	0.445141
7	0x3ee52387	0.44753668
8	0x3eb5d1b4	0.35511553
9	0x3eae4c88	0.34042764
10	0x3ebbd089	0.36682537
11	0x3ee55b4e	0.44796222
12	0x3edccb33	0.4312378
13	0x3e2a7f87	0.1665021
14	0x3fb42906	1.4075019
