classification/model_rnafm/13_final/120Epoch/rna_type_checkpoint_fold_9.pt (torch, 252002 bytes, 24 tensors)

layer1.conv1.weight f4 [30, 30, 5]
000000 c8 db a6 3e cb cb b7 3e f3 0f 72 3f 50 e6 f8 be
       0.32589555 0.3589767 0.94555587 -0.48613214
000010 14 9d 5c bf 05 39 b2 be bb d1 b7 be c1 17 58 3e
       -0.8617718 -0.34809127 -0.359022 0.21102811
000020 ab 92 b8 3c 2d 8e 28 bf 82 0e 87 3b 99 60 a0 be
       0.022530874 -0.65841943 0.0041216025 -0.31323698
000030 72 07 62 3d 34 b5 61 be 99 26 b6 3e d7 18 c8 3e
       0.05518288 -0.2204178 0.35576323 0.3908145
000040 bb 26 8a be a7 8e ff be 86 b1 71 3e 23 b3 5c 3e
       -0.26982674 -0.49913523 0.23602876 0.2155271
000050 16 42 ec 3d a5 52 fc be f6 a3 8a be f6 8e 1c 3e
       0.115360424 -0.49281803 -0.27078217 0.1528891
000060 0d 59 a9 be 64 a1 6b be ea ef fc be 3f 2d 77 be
       -0.33075753 -0.23010784 -0.4940179 -0.24138354
000070 33 af a2 be 07 7b d6 bd 31 41 a1 be 6f 26 32 bd
       -0.3177429 -0.10472684 -0.3149505 -0.043493684
000080 2e 29 86 be a6 19 72 be 67 74 39 bc 19 a6 f5 3e
       -0.26203293 -0.23642597 -0.011319256 0.47978285
000090 a1 fa b7 be 6a 35 d1 3e b9 dc 9f bd ae c3 08 bd
       -0.35933402 0.40861064 -0.078057714 -0.03338974
0000a0 6a ee 1b 3f d8 5d e8 3b ea d0 67 3d cd 9d 23 be
       0.60910666 0.007091265 0.05659572 -0.15978165
0000b0 c1 f6 1f 3e 42 ec a6 bc af 5e 06 3e 26 5b 30 3e
       0.15621473 -0.020376328 0.13122056 0.1722227
0000c0 23 8c 78 3d 4c 19 9c 3e 7f 68 c5 3e e2 c4 03 3e
       0.06068052 0.3048805 0.38556287 0.12868074
0000d0 45 5d 93 3e 6b 3f 80 3e 54 85 10 3e e1 eb 11 bd
       0.28782097 0.25048384 0.1411336 -0.035625342
0000e0 b9 72 61 3e 1c 6e 12 3e 10 c8 65 3e 80 5f 2b 3e
       0.2201642 0.14299816 0.22439599 0.16735649
0000f0 a2 2a 92 be 78 08 08 be 08 cc e3 bc 8e 70 cc 3e
       -0.2854815 -0.1328448 -0.02780725 0.39929622
000100 0f b7 f6 3d 10 08 a2 be 7b 74 93 be 7b 26 4f be
       0.120466344 -0.31646776 -0.28799805 -0.20229523
000110 db 11 4e 3f ef ef 92 3c 7d ad 64 3e 89 62 aa be
       0.80495995 0.017936675 0.22331806 -0.332783
000120 ba 32 ad bd 48 9d 3c 3e ba cf ba 3d 7b af a9 3d
       -0.08456941 0.18419373 0.09121652 0.08285423
000130 09 02 b7 be e6 ed f3 3d cc b1 20 3c b0 f0 e7 3d
       -0.3574374 0.1191061 0.009808015 0.11325204
000140 d4 9b 15 bc e2 8b c1 be ee ba b0 3e 1a f1 a6 bc
       -0.009131391 -0.37802035 0.34517616 -0.020378638
000150 6e df 20 3e b6 97 cc 3d 32 cc e7 3d 75 d1 aa 3d
       0.15710232 0.09989874 0.11318244 0.08340732
000160 7b d2 38 3e e3 80 64 be b3 03 75 bd 20 fe 21 3d
       0.18049042 -0.22314791 -0.05981798 0.039548993
000170 c7 18 dd bb cd ce 21 3d 97 e6 5e 3d 7b 38 43 3b
       -0.0067473385 0.03950386 0.054419126 0.0029788304
000180 7f 6a cf bd 43 ea 3e 3d e9 a5 e6 bc 16 11 a2 38
       -0.101277344 0.046610128 -0.028155284 7.7279445e-05
000190 e2 40 31 3d 64 5b d6 3b 9a 09 73 be 7d 67 d5 3d
       0.043274768 0.0065416563 -0.23734131 0.104201294
0001a0 9a 9e 6f bd d8 c6 c5 be c2 ff d9 3c 6b 26 c3 bd
       -0.058500864 -0.38628268 0.026611213 -0.09528812
0001b0 7f b1 ca 3c 36 7c 82 bd fd c7 00 bd 98 6e 88 bd
       0.02474284 -0.063713476 -0.031440724 -0.06661719
0001c0 4b bd 26 3e 81 e2 8c 3d 2b 96 84 3d 85 c1 03 3f
       0.16283147 0.0687914 0.06473955 0.5146716
0001d0 cc 7d 91 be aa ae af 3d 1c e7 11 bc cc ca db 3c
       -0.28416288 0.085782364 -0.008905198 0.0268301
0001e0 93 ce 71 3e 2d 34 96 bd 2e 1a 1d 3c ed c8 d3 3d
       0.23613958 -0.073341705 0.009588761 0.10341058
0001f0 22 80 40 bd 51 0a 3f bd 4a 2e bd bc d2 ce 59 be
       -0.046997197 -0.046640698 -0.023093361 -0.21270302
000200 ca 6d 43 3e a4 d8 82 3c 8d 65 37 bc 10 94 51 bd
       0.1908485 0.015972443 -0.011193645 -0.051166594
000210 55 db 5b be 21 94 51 3d 6c 46 96 3d b0 71 e8 3d
       -0.21470387 0.051166657 0.07337651 0.11349809
000220 b6 cf 52 be 62 e9 8b ba 78 fa 00 bd d5 66 51 3c
       -0.20587048 -0.0010674412 -0.031488866 0.012780865
000230 03 7d af bc 4e 57 73 be 8d ac 21 be 12 06 cd bd
       -0.021421915 -0.23763773 -0.15788479 -0.100109234
000240 27 b2 6f be c1 c2 ac 3e 65 85 ac be 0c b2 48 be
       -0.23407803 0.33742335 -0.33695522 -0.1959917
000250 58 04 0f bd 6d a8 af be da ab fc be c0 9c 54 bf
       -0.034916252 -0.34308186 -0.49349862 -0.8305168
000260 25 8d 40 bf 7a 3e 0c bf 8c 07 0f be 68 68 be bd
       -0.7521537 -0.5478283 -0.13967723 -0.09297258
000270 2f 1b 62 3e 41 43 f1 3d 7a 51 55 be e9 a5 69 be
       0.22080682 0.11780406 -0.20831862 -0.22817196
000280 c1 7d 31 bf e7 8e 3e 3e 5e af 95 3e 6a 10 f2 3c
       -0.6933251 0.186092 0.29235357 0.029548842
000290 6d 07 80 be c8 f5 8b bf 75 32 92 bd 68 d0 ec bd
       -0.25005665 -1.0934381 -0.0713853 -0.11563188
0002a0 c3 6a e4 3e db c8 1c 3e 50 a4 0b bf ca 6b 44 3e
       0.44612703 0.15310995 -0.54547596 0.19181743
0002b0 4d 95 9f 3e 05 33 bb be 8c e6 22 3f 4a c1 17 be
       0.31168595 -0.36562362 0.63633037 -0.14819828
0002c0 5c 8d 68 3e a1 17 71 3e 08 7e d0 be 1b c3 3d 3f
       0.22710174 0.2354417 -0.40721154 0.7412583
0002d0 ba 68 2e bd 7c ce 1e 3e ff 48 f2 be 90 69 d9 3a
       -0.042580344 0.15508455 -0.47321317 0.0016587246
0002e0 f9 cb c2 3e ef 13 be bd 08 6c b0 3e e6 ab 0c be
       0.38046244 -0.09281146 0.3445742 -0.13737449
0002f0 0e 29 84 be 4a 61 16 3f fc 31 c7 3e a5 10 12 3d
       -0.25812572 0.587422 0.38905323 0.035660405
000300 07 39 1f bd 10 55 67 3e df 0a b9 3e c0 af 06 3e
       -0.038872745 0.22591043 0.36141106 0.13152981
000310 6b 2d 2f be 28 14 03 be b9 f9 8e 3e 2a b0 1e 3e
       -0.1710717 -0.12800658 0.27924898 0.15496889
000320 12 20 4a be 31 f7 85 3e 7e 22 20 3e 58 41 93 3e
       -0.19738796 0.26165155 0.15638158 0.2876079
000330 17 c3 fe bd cd 41 0e be c6 8b e0 3d 90 b6 03 3d
       -0.12439554 -0.13892289 0.1096416 0.032156527
000340 8b 8f 80 3e 02 53 b1 3d 4b ce 0e bd da cb b6 3d
       0.25109515 0.086584106 -0.034864705 0.089256
000350 fb 6a 9f bd 2a ee b5 3e 4c 5d 62 3d aa 9f 36 be
       -0.07784077 0.35533267 0.055264756 -0.17834345
000360 03 3e e9 bc 8d 63 68 be a0 78 55 3e 22 42 c7 ba
       -0.028471952 -0.22694226 0.20846796 -0.0015202204
000370 80 14 d6 3b b7 99 b5 bd ac 8e 22 be a6 e7 fe bb
       0.0065332055 -0.088672094 -0.15874738 -0.0077790795
000380 44 44 11 be 36 71 13 3d 17 d6 91 3e 91 ab 17 bd
       -0.14186198 0.03599664 0.2848365 -0.037028853
000390 b7 89 1b 3e 95 ce 40 bc 3b 97 9a 3d d1 74 2b bd
       0.15189253 -0.011768003 0.07548376 -0.04185945
0003a0 c5 a1 6b bd 46 9d 3f bb 58 0c d2 3c ad 46 1a be
       -0.057527322 -0.002923803 0.025640652 -0.15066023
0003b0 08 b4 63 bd 7e a7 d3 be db de c0 3c c0 6e 20 be
       -0.055591613 -0.41338724 0.023543766 -0.15667248
0003c0 e2 d3 8c 3d 9e 92 02 be af 6f bd be 23 d7 ab 3d
       0.06876351 -0.12751243 -0.3699927 0.083906434
0003d0 2c 90 81 be 76 1a ad bd d9 95 4f be be d1 1a be
       -0.25305307 -0.08452313 -0.20272006 -0.15119073
0003e0 32 48 5b be 47 c9 10 be 74 82 3e 3d 70 25 0c be
       -0.21414259 -0.14139281 0.04651113 -0.13686156
0003f0 ee dc 4a be 95 14 11 bd d9 e8 df bd cf 26 ce bd
       -0.1981084 -0.03542002 -0.10933084 -0.10065996

layer1.conv1.bias f4 [30]
000000 4f e4 2a bd bf e5 b2 3d f6 d4 c4 be c5 57 37 bd
       -0.04172164 0.08735227 -0.38443726 -0.044761438
000010 27 2f 6e 3d 35 c0 cf 3c 6b 78 e8 bc da 3b f1 3c
       0.058150437 0.025360206 -0.028377732 0.029447485
000020 ac 21 bc bd 5a 65 a2 bd 07 e6 4f 3e 1f a5 12 bd
       -0.0918611 -0.079294875 0.20302592 -0.035802003
000030 46 ee 52 bc e5 a5 39 3d 08 f6 09 3e c5 14 d8 bd
       -0.012874192 0.045324225 0.1347276 -0.105508365
000040 20 be 99 3c 87 35 92 3d 0c a3 ae bd 9a 7a 41 bd
       0.018767416 0.07139116 -0.085271925 -0.047236063
000050 bc 58 90 bd f4 4a 8b 3d 7f 07 d0 bd fa b6 a1 3c
       -0.07048175 0.068014055 -0.1015768 0.01974057
000060 d7 7e cc 3c 35 51 fb bc b0 d5 30 3d 82 af b6 39
       0.024962826 -0.030678371 0.04317254 0.0003484451
000070 31 f5 32 bd 55 f9 11 3e
       -0.043690864 0.14255269

layer1.bn1.weight f4 [30]
000000 da b8 5b 3f 9b c0 64 3f 6b 5e ab 3f f6 10 2c 3f
       0.85828936 0.8935639 1.3388189 0.6721338
000010 37 76 c5 3e ab 0f 24 3f bd 4b 47 3f 40 e4 61 3f
       0.38566753 0.6408641 0.7784994 0.88238907
000020 af f5 27 3f 62 3a 15 3f 8d a2 b4 3f 36 e3 31 3f
       0.6560926 0.5829221 1.4112107 0.6948732
000030 db 4f 7e 3f 16 24 33 3f 06 ff 81 3f 7f 74 82 3f
       0.993406 0.6997694 1.0155952 1.0191802
000040 c0 09 53 3f 84 1c 26 3f 10 4f 9c 3f d1 8e 81 3f
       0.8243675 0.6488726 1.2211628 1.0121709
000050 5c 6a 39 3f b0 a6 1e 3f 0d 5c 40 3f 21 d8 47 3f
       0.72427917 0.61973095 0.7514046 0.7806416
000060 d8 75 0e 3f 78 bc 07 3f a4 a5 7a 3f 75 cc 19 3f
       0.55648565 0.53021955 0.97909 0.600776
000070 d5 ac 59 3f 3e 6d 83 3f
       0.85029346 1.0267713

layer1.bn1.bias f4 [30]
000000 b3 87 b6 bd 91 9e a9 3d e6 32 84 3c ec 81 ad bb
       -0.08912601 0.08282197 0.016137552 -0.005295029
000010 d6 f4 83 3c 31 76 14 3e f5 09 20 be 99 77 a8 bb
       0.016107958 0.14498211 -0.15628798 -0.0051412103
000020 4e e3 d0 3d 3a 50 72 3d 5c 9f 55 3e b8 4b 54 bd
       0.10199605 0.05915854 0.20861572 -0.051830024
000030 73 ac 0e 3e 8a fa 07 3e db 49 8f bd 9b c2 be bd
       0.13932972 0.13279167 -0.06996509 -0.09314462
000040 57 07 49 3d c3 12 19 3c f3 30 36 3e 08 c7 9f bd
       0.049079265 0.009342852 0.1779211 -0.07801634
000050 0c dc 44 3e 99 63 fc 3d 5f 0f 3b 3d 8e a8 95 bd
       0.19224566 0.12323684 0.045668956 -0.0730754
000060 9c 5f 9f bc 45 15 cc 3d a8 65 08 3e b6 f6 23 bc
       -0.01945477 0.09964994 0.13320029 -0.010007551
000070 03 bd 14 3d 78 28 1d 3e
       0.036313068 0.15347469

layer1.bn1.running_mean f4 [30]
000000 8d 6f 40 bd 48 48 a4 3d 26 57 c7 be 1f 81 48 bd
       -0.046981383 0.08021599 -0.38933676 -0.048951264
000010 36 b4 55 3d 40 3f 8f 3c d9 29 d1 bc 5a 21 73 3c
       0.052173816 0.017486215 -0.02553265 0.014839495
000020 b7 bf ba bd 9d ef b3 bd 61 ee 4e 3e 74 09 17 bd
       -0.09118598 -0.08785937 0.20208122 -0.03687425
000030 46 4a 88 bc 28 9e 42 3d 8f 34 0b 3e eb ea c9 bd
       -0.016636979 0.04751411 0.13594268 -0.0985926
000040 8b bd 81 3c dc b7 76 3d f2 1b c4 bd b6 c6 5e bd
       0.015837451 0.060233936 -0.09575643 -0.054388724
000050 47 37 b2 bd 7c ef 73 3d 1c fa d0 bd b0 95 0e 3c
       -0.087019496 0.059554562 -0.102039546 0.0087026805
000060 0a 2a 52 3c 55 f6 25 bd 25 94 ed 3c 20 0b 1d bc
       0.012827406 -0.040518124 0.029001305 -0.009585172
000070 51 da 3d bd fd f5 09 3e
       -0.04635078 0.13472743

layer1.bn1.running_var f4 [30]
000000 91 0c bf 40 a0 c4 69 40 f4 a2 89 3f 27 1c 07 40
       5.970284 3.652626 1.0752854 2.1110933
000010 19 e6 26 40 43 9b fa 3f 89 96 38 40 3a 7b 5b 40
       2.607794 1.9578632 2.884188 3.4293962
000020 6f 90 a9 3f 61 5b fa 3f e9 34 56 3f c9 29 04 40
       1.3247203 1.9559137 0.83674484 2.0650504
000030 13 5b 70 40 39 e8 b1 3f 3b 53 89 40 25 5b 7b 40
       3.7555587 1.3898994 4.29141 3.927438
000040 cd 76 79 40 e5 95 21 40 42 61 8e 3f d6 a6 ba 40
       3.897876 2.5247738 1.1123431 5.8328657
000050 fe bd 83 40 02 f8 3e 40 70 d5 82 40 6e e9 9d 40
       4.1169424 2.9838872 4.0885544 4.934745
000060 d0 5e f9 3f af d5 11 40 ed b3 8c 40 15 68 72 3f
       1.948206 2.2786672 4.3969636 0.94690067
000070 9a df 64 40 e1 5a 1b 40
       3.5761476 2.4274218

conv1.weight f4 [30, 30, 5]
000000 1a 70 48 be b7 ca 52 be 81 b4 cf be 9e a6 af be
       -0.19574013 -0.20585142 -0.405674 -0.34306806
000010 27 cd 80 3e 00 73 33 bd a1 65 f8 3e 91 05 15 3e
       0.2515652 -0.043810844 0.48515037 0.14552905
000020 99 1d 62 be 88 7c ff bd 6f e1 30 3e 5a 6e 36 3e
       -0.22081603 -0.12474924 0.17273496 0.17815533
000030 37 16 f3 3e e0 b3 88 3c d0 b3 f8 be 48 5c 4d 3d
       0.47477886 0.016687334 -0.48574686 0.050136834
000040 72 bf b8 3d 6d 4c ba 3e 41 d5 0c 3e 81 72 17 3e
       0.0902089 0.36386433 0.13753225 0.14789774
000050 c9 93 cb 3e bc a5 40 3b 59 15 8d 3b 86 bb 92 3e
       0.3976119 0.002939566 0.0043055234 0.28658694
000060 ee d3 54 be 3e 04 cd be 54 ab 6f 3e f0 34 07 3e
       -0.2078397 -0.400423 0.234052 0.13203788
000070 e6 56 15 3e 06 a6 e9 bd 4c bd 9a be c5 a7 c0 be
       0.1458393 -0.114086196 -0.30222547 -0.37627998
000080 49 e7 28 3e 10 e1 ab 3e db fc a1 3e ff 97 f6 3d
       0.16494478 0.33570147 0.31638226 0.1204071
000090 cc c8 13 3e 2f 38 39 3e cf 1c 79 be 26 4f e2 be
       0.14432067 0.18087839 -0.24327396 -0.4420101
0000a0 69 5e 6c 3d a9 96 0f 3f b9 e8 08 3e 46 b8 4e 3e
       0.057707224 0.56089264 0.13370027 0.20187482
0000b0 66 6a f2 bd dd f6 20 be 29 fa 92 3d 6b 9b 10 3d
       -0.118367 -0.15719171 0.071766205 0.035304468
0000c0 38 ae 95 be cb ef 19 3e d8 de e3 be 27 58 a7 be
       -0.2923448 0.1503288 -0.44505954 -0.32684442
0000d0 30 53 9f bd a6 75 e6 be dc 72 a1 3d b2 5e 62 be
       -0.07779539 -0.45011634 0.07883236 -0.22106436
0000e0 8d dd c5 bd f0 d1 97 3e 33 c3 3b 3e 0c 02 4d be
       -0.09661398 0.29652357 0.18336181 -0.20020312
0000f0 6a e6 8b be 61 9b df be f4 dc 28 be 8f dd 32 bd
       -0.2732423 -0.43673232 -0.16490537 -0.043668326
000100 b0 03 0e 3d 3a 7a 14 be 5a da 89 bd 9b 35 fc 3d
       0.034671485 -0.1449975 -0.067311004 0.12314912
000110 24 a4 da bd d5 46 a1 3e f9 4c fd bd e5 61 cf be
       -0.106758386 0.31499353 -0.12368197 -0.40504375
000120 4f e3 cd bc 0a 97 da 3e fa d3 84 bc 83 28 3a be
       -0.025132803 0.4269336 -0.01621436 -0.18179516
000130 9b 18 e5 be ce 45 99 be 1c 52 d3 3d 5f 9a c4 3e
       -0.44745335 -0.2993607 0.103183955 0.38399026
000140 ae 5b b3 be 65 c7 52 3e f6 fe 80 3e 2f 07 88 3d
       -0.35030884 0.20583875 0.2519452 0.06641995
000150 74 58 30 3e 06 43 e1 bd 5f 59 92 be b9 e0 33 be
       0.17221242 -0.10999112 -0.2858381 -0.17566194
000160 6c 40 32 be 8a 3c 3a 3e 0f f9 b9 be f4 59 b3 be
       -0.17407387 0.18187156 -0.3632283 -0.35029566
000170 a0 6d e5 be bd f9 69 3d d1 c7 a8 bd 10 3b 36 be
       -0.448102 0.057122935 -0.08241237 -0.17795968
000180 f7 31 c5 bd f1 ca 21 bd 3b 12 0e be 4d 8c 84 be
       -0.09628671 -0.03950018 -0.13874142 -0.2588829
000190 ea 58 35 3e 4c 2f dc 3d 20 ee 0c 3e 99 7d 96 bd
       0.177097 0.10751209 0.13762712 -0.073481746
0001a0 e5 fd 01 bc e4 8f 11 be dd 02 7c bd 72 ca 23 3d
       -0.007934068 -0.14215046 -0.06152617 0.03998799
0001b0 f4 6a d3 3c 9b 33 04 3e 62 a5 b2 3d 5f 37 86 3c
       0.025807835 0.12910311 0.087229505 0.016383825
0001c0 26 61 8d be 0e 9b 6f be f1 33 d3 bd 43 75 96 3d
       -0.2761318 -0.23398992 -0.103126414 0.07346585
0001d0 a3 c3 de bd 42 d7 d0 be b8 aa a3 be 7c 12 db bc
       -0.108771585 -0.4078923 -0.31966186 -0.026742212
0001e0 18 af 86 3d 43 24 dd 3d 92 0d 1c 3e c5 d2 fc 3c
       0.06576365 0.10797932 0.15239552 0.030862221
0001f0 52 6b 14 3e 9c 40 df 3d f7 eb 91 bd 6d fb 94 bd
       0.14494064 0.10900995 -0.07125085 -0.07274518
000200 ee 43 eb bb ec 80 53 bc 1d 72 69 be c5 48 dd bd
       -0.0071797287 -0.012909155 -0.22797437 -0.10804895
000210 e8 72 4f be 9a ba 04 be ee a7 12 3d b6 69 78 3d
       -0.20258677 -0.12961808 0.03580468 0.06064769
000220 48 c2 b9 3e d5 49 20 3e 9c 64 6b 3e ac 25 95 3e
       0.36281037 0.15653165 0.22987598 0.29130304
000230 2c ad df 3d a2 3a 76 3d 49 09 a9 bd c4 ac 19 be
       0.10921702 0.06011451 -0.08253724 -0.15007311
000240 b1 fa d7 be 64 30 81 bd be 59 97 3e 3f 20 b8 3e
       -0.4218345 -0.06308058 0.29560655 0.35962102
000250 49 b7 f2 bd 64 18 47 be 06 6b 58 be 22 17 25 be
       -0.11851365 -0.19442898 -0.21134576 -0.16122106
000260 5d 80 d7 be 11 05 91 be dd ec 83 3e f2 14 6b bd
       -0.4209012 -0.28324178 0.2576665 -0.057393022
000270 24 14 02 3f 01 e5 20 3e f9 3f 7f be 07 5f 1e be
       0.5081198 0.15712358 -0.24926747 -0.15465938
000280 9d 46 47 3e 31 1e 37 3e d5 74 f6 3e 10 d3 74 3c
       0.1946053 0.17882611 0.4813601 0.014942899
000290 74 66 02 bf ee ff 8c 3d 09 86 b9 3d 25 19 c1 3e
       -0.5093758 0.06884752 0.09058768 0.37714496
0002a0 eb 25 25 3e 82 62 2c 3e e8 08 bd 3e 0a 7f e3 bc
       0.16127746 0.16834453 0.36920857 -0.027770538
0002b0 3f 15 fb bb 1a f4 83 3e 99 63 54 be 90 4c c3 be
       -0.007662445 0.25772172 -0.20741118 -0.3814435
0002c0 d6 31 74 3e 93 7b 0d 3e dd 26 31 3e 67 69 d8 bd
       0.23847136 0.13816671 0.17299981 -0.10566979
0002d0 36 71 95 be e9 6b b6 be dd a0 39 3e 74 3e a2 3e
       -0.29187936 -0.35629204 0.1812777 0.31688273
0002e0 c8 f3 a9 3e 4d 5b 18 3e 98 c4 16 3e 0d 02 2e 3e
       0.33193803 0.14878578 0.14723432 0.1699297
0002f0 3a f5 2c be f7 5e e4 be 7b 2e 72 3d 10 95 07 3f
       -0.16890422 -0.44603702 0.05912636 0.52961826
000300 b5 29 dd 3d 9a 58 3a 3e fd 8b f7 bd c8 30 e1 bd
       0.107989706 0.18197861 -0.120872475 -0.109956324
000310 dd e1 a1 3d a0 c3 48 3d 2c 9c a8 be 34 a0 05 3e
       0.07904408 0.049014688 -0.3293165 0.13049394
000320 69 dd f8 be 7d ed b5 be a8 3a 91 bd d0 79 e6 be
       -0.48606423 -0.35532752 -0.07091266 -0.4501481
000330 71 3a 69 3d 0e 60 83 be 15 0b a4 bd 30 7f 9b 3e
       0.0569405 -0.2565922 -0.08009926 0.30370474
000340 4d c5 72 3e 5f 2e 5d be dd a0 90 be 06 c4 e5 be
       0.23708077 -0.2159972 -0.2824773 -0.44876117
000350 5a 44 29 be a6 63 84 bd 0d e6 07 3d 5e c5 e6 bd
       -0.1652998 -0.06464319 0.033178378 -0.112681136
000360 4b 41 ec bc 17 18 eb 3d 4c c7 b8 bd 8f 01 9e 3e
       -0.028839728 0.11479204 -0.09022388 0.30860564
000370 3a 23 e0 bd 5f 97 c2 be 3c ea 87 bd 4c a8 cc 3e
       -0.10944219 -0.38006112 -0.066364735 0.3997215
000380 e3 e5 53 bc 75 63 39 be f9 c8 e5 be a8 54 8f be
       -0.012933227 -0.18104346 -0.44879892 -0.27994275
000390 ab b8 a9 3d 40 ae c3 3e d2 48 c8 be ee 61 5e 3e
       0.08287176 0.3821888 -0.39118057 0.21717045
0003a0 0a 92 78 3e 90 9c 00 3e f3 ee 2f 3e 71 6b 9b bd
       0.2427446 0.12559724 0.17180996 -0.07588852
0003b0 86 1b 95 be 6a 18 3c be 43 7f 2e be fb 0b 45 3e
       -0.2912256 -0.18368688 -0.17040734 0.19242851
0003c0 52 bd c3 be e6 e1 bf be 79 53 eb be f7 0d 92 3d
       -0.38230377 -0.37477034 -0.45962122 0.0713157
0003d0 8f fc b2 bd 56 7c 31 be 60 73 c9 bd 47 e9 5f bd
       -0.08739578 -0.17332587 -0.09836459 -0.05466583
0003e0 99 36 00 be ca b2 81 be 3c 98 58 3e 74 23 1f 3e
       -0.12520827 -0.25331718 0.21151823 0.15540868
0003f0 db 55 23 3e 8f ab ee bd 26 a1 ac 3b 95 2d 8e bd
       0.1595072 -0.11653816 0.005268234 -0.06942288

conv1.bias f4 [30]
000000 63 20 22 3b b0 66 11 3c 76 a5 a7 bd b0 c8 bd 3d
       0.0024738542 0.00887458 -0.08185856 0.09266794
000010 65 1b 38 3c ac a7 8c bc 63 2f 28 bd 5b 85 3a bd
       0.011237 -0.017169796 -0.041060816 -0.045537334
000020 33 5b c3 3c d9 e9 34 bd 94 23 6f 3c 23 9e 9e 3d
       0.023847198 -0.044168327 0.014595885 0.07745006
000030 4d a3 18 bd 96 2f 12 3d 54 1d 8d bd 43 43 7a bd
       -0.03726511 0.035689913 -0.068903595 -0.061099302
000040 6e 83 a6 bc 2c fa be 3d 95 4d 6e bd f1 64 94 bd
       -0.020326342 0.0932506 -0.058179457 -0.072458155
000050 a4 70 3a 3d c3 76 62 3d 8f 6b cc bc d2 15 94 3d
       0.04551758 0.05528904 -0.024953632 0.072307244
000060 d0 20 1e 3d 7e 27 fe 3c 64 eb 5f 3c 65 65 64 3d
       0.03860551 0.03102469 0.013666961 0.05576076
000070 4b 82 0f 3d cb 99 3a 3d
       0.035036366 0.045556825

bn1.weight f4 [30]
000000 b8 2b 97 3f 7e ca 95 3f 4a 60 92 3f fa 0f 95 3f
       1.1810217 1.1702421 1.1435635 1.1645501
000010 62 0f 95 3f 05 18 91 3f c1 cc 92 3f f2 54 85 3f
       1.164532 1.1335455 1.1468736 1.0416548
000020 cf fa e0 3f e8 3b 7b 3f b4 d0 87 3f 5f 75 83 3f
       1.7576541 0.98138285 1.0610566 1.0270194
000030 77 d0 89 3f 2a 87 85 3f 2d d3 78 3f 2e 03 7f 3f
       1.0766743 1.0431874 0.9719723 0.99614227
000040 45 bc 70 3f 50 62 6a 3f 1c 38 66 3f 7e 8f 5e 3f
       0.94037277 0.9155626 0.89929366 0.869377
000050 0d f6 56 3f 53 52 55 3f ec 61 60 3f 73 4f 06 3f
       0.83969194 0.8332874 0.87649417 0.5246498
000060 be 98 06 3f 12 f6 34 3f 6a 10 32 3f e4 6a b3 3e
       0.52576816 0.70687973 0.69556296 0.3504249
000070 b4 27 a9 3e 8d c6 be 3e
       0.33038104 0.37260857

bn1.bias f4 [30]
000000 5a 35 b7 3d 5b a8 b1 3d 17 93 c9 3d ee eb be 3d
       0.08945723 0.086746894 0.09842508 0.09322344
000010 b6 b1 de 3d 1b e4 e8 3d 01 d0 d7 3d 63 d7 01 3e
       0.108737394 0.11371633 0.105377205 0.1267982
000020 2c 19 3b 3e c9 8c fe 3d 3f c3 d9 3d e9 19 d9 3d
       0.18271321 0.124291964 0.10632943 0.10600645
000030 8a ba 99 3d 71 88 a2 3d 4d ea d2 3d ba 18 02 3e
       0.07506283 0.079361804 0.102985956 0.12704745
000040 3d 29 02 3e 06 83 14 3e 85 a8 0e 3e 34 46 31 3e
       0.12711044 0.14503106 0.13931473 0.17311937
000050 5a b4 4e 3e 59 d7 50 3e ee b6 4b 3e 12 c1 84 3e
       0.20185986 0.20394649 0.19894001 0.2592855
000060 69 80 8c 3e 37 8f 82 3e b2 f1 80 3e e8 ee 97 3e
       0.2744172 0.2549989 0.251844 0.29674459
000070 45 59 9f 3e b0 50 aa 3e
       0.31122795 0.33264685

bn1.running_mean f4 [30]
000000 ac 2e 8e bf 0f b3 8d bf 42 eb 85 bf 02 dc 62 bf
       -1.1107993 -1.1070269 -1.046242 -0.88616955
000010 a0 16 89 bf 5f ef 89 bf 38 73 87 bf 33 8b 82 bf
       -1.071003 -1.0776175 -1.0582037 -1.019873
000020 fe 9c 3e bf d3 5c ac bf 11 9c 9d bf 76 e9 89 bf
       -0.744583 -1.3465828 -1.2313253 -1.0774372
000030 85 68 b0 bf 49 1b a5 bf 9e 7c be bf 45 bb ab bf
       -1.3781897 -1.2898952 -1.488178 -1.3416525
000040 9f 1c a3 bf e1 80 7f bf f9 3e 80 bf 57 8b 87 bf
       -1.274311 -0.9980603 -1.0019218 -1.0589398
000050 27 1f 5e bf d7 f5 4d bf af d1 44 bf 65 88 e9 be
       -0.86766285 -0.80453247 -0.7688245 -0.45611873
000060 64 c6 8b be db 29 a2 be 0e 14 c8 be 16 00 13 3e
       -0.27299798 -0.31672558 -0.390778 0.14355502
000070 6e 07 a2 3d 15 c5 c1 bd
       0.07911573 -0.094614185

bn1.running_var f4 [30]
000000 89 5e 6e 40 c7 d4 6d 40 e7 72 5b 40 cf 46 63 40
       3.72452 3.716112 3.428888 3.5511968
000010 04 ec 66 40 96 2a 7a 40 0a 37 57 40 35 19 52 40
       3.6081553 3.9088492 3.3627343 3.2827885
000020 a7 53 1e 40 c1 d4 83 40 87 1c 82 40 e6 7d 8e 40
       2.4738557 4.119721 4.0659823 4.4528685
000030 2d b2 90 40 03 91 a1 40 c8 87 94 40 15 ae ad 40
       4.52175 5.0489516 4.641575 5.4275002
000040 af 8f c8 40 5e 1a 92 40 b0 68 9c 40 c1 6b ba 40
       6.2675395 4.5657187 4.887779 5.8256536
000050 5d 23 bf 40 bb b8 d0 40 d4 5d cd 40 51 71 70 40
       5.973067 6.52255 6.4177036 3.7569163
000060 4d 9a 81 40 1f b6 d9 40 8d f0 ea 40 62 6a 4c 40
       4.0500855 6.8034816 7.341864 3.193993
000070 2f 69 50 40 01 c9 a8 40
       3.25642 5.2745366

dense1.dense.weight f4 [96, 512]
000000 db f9 c3 be e4 17 d7 3e 1f 80 07 bf 73 c2 66 bd
       -0.38276562 0.42010415 -0.5292987 -0.056337785
000010 b4 d8 06 3f fd ba 97 be d0 d8 e0 3d 31 c4 66 3e
       0.5267441 -0.29634848 0.10978854 0.22535779
000020 ed 4c e1 bb 44 6e ef bd 32 bf 4d 3e f5 4a c3 be
       -0.0068756253 -0.116909534 0.20092466 -0.38143125
000030 83 79 d3 3e 57 c0 38 be 49 d8 f7 be 16 5e 67 3d
       0.41303644 -0.18042122 -0.484072 0.05648621
000040 6e 46 62 3e 8b 5b 11 be 15 38 2a be 12 45 63 3b
       0.2209718 -0.14195077 -0.16622956 0.003467862
000050 02 7e 97 be 7e ba 00 3e f8 6f c5 bd b6 7b 77 be
       -0.29588324 0.12571141 -0.09640497 -0.24168286
000060 34 0d c9 3e e3 be a7 bd 8a c3 7f bd df 51 04 be
       0.39267886 -0.081907056 -0.06244234 -0.12921856
000070 9e 75 95 be 09 d5 ed bc bd ad dc 3d 49 87 46 3e
       -0.29191297 -0.029032247 0.107753254 0.19387545
000080 21 21 95 bc 59 19 12 3e cb 08 0c be 81 d8 93 be
       -0.018204274 0.14267482 -0.13675229 -0.28876117
000090 16 a7 9e 3c 19 cf 3f 3d 06 78 8d 3c 72 b3 97 be
       0.019366782 0.046828363 0.017269146 -0.29629093
0000a0 84 aa e9 3d bc 88 14 3c 13 9a 44 bd ec 88 24 3c
       0.114094764 0.009065803 -0.0479985 0.01004241
0000b0 a8 39 13 bd 02 45 91 bb f7 9f a6 bd f0 e4 68 be
       -0.035943657 -0.004433275 -0.081359796 -0.22743583
0000c0 c6 99 79 3e 02 c2 4e be 82 98 d8 3d a7 b1 02 be
       0.24375066 -0.20191196 0.105759636 -0.12763081
0000d0 72 48 cc be 80 a7 9d be 6f ee 56 3e a0 70 8a bc
       -0.3989902 -0.30791855 0.20989393 -0.016899407
0000e0 41 70 22 be cd d6 89 bd 3c a4 12 be a0 ed 92 3e
       -0.15863134 -0.06730423 -0.14320463 0.28696918
0000f0 72 84 73 be 8f 22 c5 3e af 31 4b 3e 36 21 e9 3d
       -0.23780993 0.3850293 0.19843172 0.113832876
000100 92 b6 cf 3d d3 67 19 be d6 ce 68 3e 28 c1 f3 bd
       0.101422444 -0.14981012 0.22735152 -0.11902076
000110 26 fc f4 bd 1c 9c 6e 3d b2 ea ca bd 85 6b e8 bd
       -0.11962156 0.058254346 -0.09908046 -0.11348633
000120 61 59 82 bb 01 2e 28 bd 29 50 b8 3d 8f 58 ae 3e
       -0.00397794 -0.041059498 0.08999664 0.3405194
000130 89 56 ef 3e 93 b7 0a 3f bd e1 a1 be 57 07 c7 be
       0.4674571 0.5418636 -0.31617537 -0.38872787
000140 26 87 0e 3e 89 42 68 bd ce 00 ba bd e8 50 dc 3d
       0.13918743 -0.056704078 -0.09082185 0.10757619
000150 10 b7 08 3f 44 4d a0 be 96 40 ec be f1 e8 68 3e
       0.5340433 -0.3130895 -0.46143025 0.2274511
000160 a8 82 c7 be 9d fb 32 3e 9a 45 ef bd 39 a1 98 3e
       -0.3896687 0.17478795 -0.11683197 0.29810503
000170 af 8e e7 be 5c 56 7a 3e 89 28 95 3e 93 1f fc bd
       -0.45226046 0.24447006 0.29132488 -0.1231071
000180 e7 12 8b bd 38 13 9e 3d bb 0a f5 bd e4 35 72 bb
       -0.06790715 0.077185094 -0.11964937 -0.003695839
000190 61 9d 45 3d df 65 47 bf e4 8f 9a 3e c3 66 7a bd
       0.04824579 -0.7788982 0.30187905 -0.061133157
0001a0 b1 62 9f be 98 6d 06 3e d2 59 bd bd 67 71 f1 3d
       -0.31129983 0.13127744 -0.092456475 0.11789208
0001b0 1b 11 38 bf 84 aa 6f be 22 c1 2d bb 30 7f 44 bd
       -0.719011 -0.2340489 -0.0026512821 -0.047972858
0001c0 e7 a2 42 3e 8f b0 f6 bd 22 64 76 3e be 2a c1 3e
       0.19007455 -0.12045395 0.24061635 0.37727922
0001d0 eb 21 0e 3e 17 46 9b be 52 80 65 3d f3 50 f7 3d
       0.13880126 -0.30326912 0.05603058 0.12075987
0001e0 3a 3d 3c bd d9 46 50 bd 8a a1 05 3e 56 48 b4 be
       -0.045956828 -0.050848816 0.13049904 -0.35211438
0001f0 16 09 b2 3e 2a d9 2f be 60 60 1c 3d 62 63 1c 3d
       0.34772557 -0.17172685 0.038177848 0.038180716
000200 2a 4f d7 3e f7 81 07 be 39 5d 02 be fd 89 b8 3e
       0.42052585 -0.13233171 -0.12730874 0.36042777
000210 de ca 6b 3d 0c a2 78 be fa 11 84 be c3 58 98 bd
       0.057566516 -0.24280566 -0.25794965 -0.07438805
000220 d5 32 46 3d 21 58 3b 3e 03 ac 64 be 28 56 93 be
       0.04838832 0.18295337 -0.22331242 -0.2877667
000230 53 4f 42 be cc 58 91 bd 50 53 7a bc d8 1d 10 bc
       -0.18975572 -0.07097015 -0.015278652 -0.008796178
000240 cf 6e 85 be 47 b8 a5 3c a8 e9 af 3e 4b cf 66 3e
       -0.26061103 0.020229472 0.34357953 0.22540013
000250 2b 80 d9 3d df 94 bf bc 9e 89 a8 3e 0d 53 68 be
       0.10620149 -0.023386417 0.32917494 -0.22687931
000260 5c a7 0b be 6f f2 37 3c 4f 18 19 3e 1e e6 18 3f
       -0.13638061 0.011227234 0.14950679 0.5972613
000270 d2 b6 08 bf 33 94 a9 3e 34 02 1f 3e 52 ae 1c 3e
       -0.5340396 0.3312088 0.15528184 0.15300873
000280 b3 b9 05 3f b6 18 a6 be 0f 7e 7e 3c 47 5f 86 3e
       0.5223648 -0.32440728 0.015532984 0.26244566
000290 0e 2e f3 3e 70 ad 57 bd 08 d4 fe bc 7d 78 30 3d
       0.47496074 -0.052655637 -0.031106964 0.043083657
0002a0 96 06 b2 bd 46 c9 24 be ed d7 0d 3f f0 b9 fc be
       -0.086926624 -0.16092405 0.554076 -0.4936061
0002b0 60 c1 e9 3e 98 af bf bd e2 3e c6 be fb 0d 26 be
       0.45655346 -0.09359664 -0.3871985 -0.1621627
0002c0 24 1a 2e 3e 7b f1 6c 3e ee 5b 8e be 23 d2 a1 3c
       0.1700216 0.23138992 -0.27804512 0.019753521
0002d0 80 db c1 3d da 5b 97 be 72 be f9 be 24 c1 ac 3d
       0.094656944 -0.29562265 -0.4877811 0.08435276
0002e0 58 4f 9f bc 79 c2 f5 be d2 00 27 be 29 cf 44 bd
       -0.019447014 -0.47999933 -0.16308907 -0.048049126
0002f0 44 cc 67 be 68 a2 3e 3d 53 80 16 3e 6f 18 0b 3e
       -0.22636515 0.0465416 0.1469739 0.1358354
000300 6d 10 6a 3e 26 cc ea be 4e 45 59 bf 6a 40 73 3d
       0.22857828 -0.45858878 -0.84871376 0.059387602
000310 fa 42 1b be 96 4a f4 bd 21 1b fa 3d 0d c2 90 3e
       -0.15162268 -0.11928289 0.12212206 0.2827305
000320 27 aa 31 be 96 2e d0 3d 58 03 80 be c4 ac a4 be
       -0.17350064 0.101651356 -0.2500255 -0.3216306
000330 a6 42 24 3e 21 5d 1e bd a1 f6 cc 3d fe 28 2b bd
       0.1604105 -0.038663033 0.10007978 -0.04178714
000340 f8 b5 8d be f2 98 03 be 47 cf 1f bb 94 30 3b 3e
       -0.27677894 -0.12851313 -0.0024385022 0.1828025
000350 e1 90 94 3e 56 6a 93 3d c7 92 f9 3d c9 c3 04 3f
       0.29016784 0.07198016 0.12186199 0.51861244
000360 08 25 93 3e fd 5d 78 3e 6d 4a b8 ba 24 27 cb be
       0.2873919 0.24254604 -0.0014060267 -0.396783
000370 46 60 01 be a1 69 6c bd f7 36 4e 3d e0 1e 6a 3e
       -0.12634382 -0.057717923 0.050345387 0.2286334
000380 0c 6f 2d 3c 1d 6f c9 3d f6 04 08 3e b3 f0 fb 3d
       0.010585558 0.09835646 0.13283142 0.12301769
000390 12 22 9b be 8b 78 f9 3c 67 21 ce 3c af b6 f2 bd
       -0.3029943 0.030452987 0.025162412 -0.118512504
0003a0 5e e8 a8 be ca e2 b0 bd be b7 cc be 5e 41 c4 be
       -0.32989782 -0.086370066 -0.39983934 -0.3833112
0003b0 73 18 94 be fa ca 98 be 79 86 a3 be 59 41 dd be
       -0.28924903 -0.2984236 -0.31938532 -0.4321392
0003c0 bb b8 21 be 56 af ab 3e 1a ea 9d 3d bf e7 9b be
       -0.15793125 0.33532208 0.07710667 -0.30450246
0003d0 c5 2d 5f 3e da 22 b3 be e2 c9 10 bf 7e 25 b1 3c
       0.21794803 -0.34987527 -0.5655805 0.021624323
0003e0 ca 78 9d be 30 84 ac bd 02 97 fa 3d f1 a9 68 be
       -0.30756217 -0.0842365 0.12235834 -0.22721078
0003f0 de 33 f6 be cf c4 1c bf 50 04 7a bc 58 75 8b 3e
       -0.48086447 -0.61237806 -0.015259817 0.27237964

dense1.dense.bias f4 [96]
000000 a1 33 38 3e 33 cb 55 3e 38 57 b0 3d 89 9f 50 3e
       0.17988445 0.20878296 0.08610386 0.20373358
000010 77 5f 1b 3e c9 36 7e 3e 8b 9c 04 3e a5 ac 53 3e
       0.15173136 0.24825586 0.12950341 0.20671327
000020 f1 c2 ba 3e a8 76 92 3e 8d 3b 50 3e 4c d2 59 3e
       0.36476853 0.28606153 0.20335217 0.21271628
000030 81 e8 8f 3e 28 60 3e 3e 4d 2b a6 3e 2a 79 72 3e
       0.28107074 0.18591368 0.3245491 0.23679033
000040 45 c2 db 3d 1a c2 90 3d b6 91 ef 3d 36 2b 88 3e
       0.10730413 0.07068272 0.11697714 0.26595467
000050 62 dd bc 3e 5d 99 37 3e 88 98 9c 3e a1 cf bb 3c
       0.36887652 0.17929597 0.30585122 0.022926154
000060 09 46 96 3e 48 34 11 3e 6b b4 b0 bb a1 7d b1 3d
       0.29350308 0.141801 -0.0053926012 0.0866654
000070 6f f7 be 3e d5 15 94 3e 47 8f b6 3e 9c eb 3d 3e
       0.37298152 0.28922907 0.35656187 0.18546909
000080 72 fd 6b 3e ea 9e b7 3e 98 c0 e3 3d 72 6b 42 3e
       0.230459 0.3586343 0.11120719 0.189863
000090 a0 b3 8b 3e e3 aa 01 3d 14 37 98 3e 65 e5 4a 3d
       0.2728548 0.03165711 0.2972952 0.049535174
0000a0 3a 31 90 3d f6 fd 3c 3e ff 2e d2 3e 07 f3 76 3e
       0.07040639 0.18456253 0.4105148 0.24116145
0000b0 26 5b da 3d ff 48 7c 3e ef d5 b0 3e c7 be 9e 3e
       0.106619164 0.24637221 0.34538218 0.31004927
0000c0 29 17 70 3e 81 53 bd 3e 16 5b 6a 3e 03 29 4c 3e
       0.23446335 0.3697777 0.22886309 0.1993752
0000d0 d6 2f 69 3e 65 cf 91 3e 44 bd 98 3e f0 4b 0c 3e
       0.22772154 0.28478542 0.29831898 0.13700843
0000e0 98 7c de 3e 3d 4b ca 3e 60 42 ed 3e 64 9f 2d 3e
       0.43454432 0.39510527 0.46339703 0.16955334
0000f0 60 fa c5 3e ee 46 e2 3e 34 1b a1 3e 73 23 14 3e
       0.38667583 0.4419474 0.31466067 0.14466648
000100 98 cf 90 3e ff c2 9c 3e ae 57 6d 3e 44 9d 76 3e
       0.2828338 0.3061752 0.23177978 0.2408343
000110 df 7d 58 3e 81 67 b4 3e 39 27 a6 3e 65 75 82 3e
       0.21141766 0.35235217 0.324518 0.2548019
000120 09 d0 1b 3e 28 34 19 3e 60 b0 81 3d 7b ff 7d 3e
       0.15216078 0.14961302 0.06332469 0.2480449
000130 4d 44 64 3e 05 dc 03 3e 09 31 62 3e c9 61 a9 3e
       0.2229168 0.128769 0.22089018 0.33082417
000140 a6 3c 32 3e 4e d2 85 3e 8a fc 92 3e df 58 68 bf
       0.17405948 0.26137012 0.28708297 -0.90760607
000150 1b f1 e5 3d 90 22 71 3e e9 0d 1e 3e 39 d0 92 3e
       0.11227628 0.23548341 0.15434994 0.28674486
000160 dc f2 83 3d d0 37 86 3e fd d5 9c 3e 78 34 0e 3e
       0.06442806 0.26214457 0.3063201 0.13887203
000170 53 81 2d 3e c1 47 9b 3e 15 cd 8a 3d e4 5c 6f 3e
       0.16943865 0.3032818 0.067773975 0.23375279

dense1.batch_norm1.weight f4 [96]
000000 cd a4 36 3f 54 ef 4e 3f b9 7c 41 3f 99 51 7c 3f
       0.71345216 0.80833936 0.75580937 0.9856201
000010 c9 82 66 3f db e9 72 3f 3b f2 14 3f fb 5b 6b 3f
       0.9004331 0.94888085 0.58182114 0.91937226
000020 d4 6f 51 3f 4a d9 4a 3f f9 49 68 3f ff 1e 6e 3f
       0.8181126 0.79237807 0.90737873 0.93016046
000030 e7 f7 64 3f 3e 69 39 3f 9a 2d 2f 3f 00 0c 28 3f
       0.8944077 0.7242621 0.6842896 0.6564331
000040 df 51 7a 3f 13 8a 47 3f 7f 97 55 3f f0 45 42 3f
       0.97781175 0.7794506 0.8343429 0.75887966
000050 55 63 4d 3f e3 2d 3a 3f 62 88 97 3f c5 f2 39 3f
       0.80229694 0.7272627 1.1838496 0.7263606
000060 fd 7d 7c 3f f2 06 4b 3f 8f ee 0e 3f 3d 99 47 3f
       0.9862974 0.7930747 0.5583276 0.779682
000070 56 c0 62 3f 57 32 78 3f c6 cd 66 3f 7b aa 56 3f
       0.8857473 0.9695181 0.90157735 0.8385388
000080 33 7a 4b 3f c6 c4 6d 3f 7a 78 80 3f f2 53 52 3f
       0.79483336 0.9287838 1.0036767 0.8215934
000090 39 40 71 3f 7c 64 e2 3e 17 24 61 3f 72 41 26 3f
       0.9423862 0.44217288 0.87945694 0.6494361
0000a0 20 33 07 3f 84 62 61 3f bf 02 5f 3f 02 23 4f 3f
       0.52812386 0.8804095 0.87113565 0.8091279
0000b0 33 18 25 3f e5 76 6e 3f cf 9e 82 3f 77 8a 77 3f
       0.6449005 0.9315017 1.0204715 0.96695656
0000c0 7c 4a 5a 3f 56 3a 76 3f 3d 83 72 3f aa 68 55 3f
       0.85269904 0.96182764 0.94731504 0.8336283
0000d0 90 e4 2b 3f b0 43 72 3f c3 2b 53 3f 81 14 35 3f
       0.67145634 0.9463453 0.8248865 0.7073441
0000e0 93 ba 61 3f de 11 69 3f 28 c2 48 3f 87 fa 21 3f
       0.88175315 0.9104289 0.7842126 0.632729
0000f0 4c d9 62 3f bd b7 4b 3f 81 81 54 3f 11 cb 58 3f
       0.8861282 0.7957724 0.8301011 0.84684855
000100 4b 5a 68 3f cf aa 4e 3f 89 f9 5d 3f 63 53 83 3f
       0.90762776 0.80729383 0.86708885 1.0259823
000110 c4 a6 60 3f 37 dc 68 3f 3d 86 53 3f 93 c9 67 3f
       0.87754464 0.9096102 0.82626706 0.9054195
000120 a7 b2 54 3f 8f b5 2c 3f 7d 35 58 3f 9c af 54 3f
       0.830851 0.67464536 0.84456617 0.8308046
000130 c6 35 50 3f 7d 5e 4f 3f 25 90 4a 3f f4 84 62 3f
       0.8133205 0.8100355 0.791262 0.8848412
000140 2e 79 38 3f b9 c3 71 3f 4f 6e 60 3f 57 cb 8f 3f
       0.72059906 0.94439274 0.8766832 1.1233929
000150 74 cd 3c 3f af 40 3f 3f c6 62 5a 3f 65 73 66 3f
       0.73750997 0.74708074 0.85306966 0.9001983
000160 7d 6b 4d 3f ec 10 88 3f 37 3e 73 3f 1d a2 5a 3f
       0.8024214 1.0630164 0.9501681 0.85403615
000170 03 40 7d 3f 9c 41 5b 3f 4b 90 72 3f 60 3d 64 3f
       0.989258 0.85646987 0.94751424 0.8915615

dense1.batch_norm1.bias f4 [96]
000000 6f ee 68 be 6c a9 0e bf d6 6d 00 bf bc de 5c bf
       -0.22747205 -0.5572727 -0.50167596 -0.86277366
000010 3e 3f 2f bf 4c 52 49 bf 03 e0 17 be 75 c4 19 bf
       -0.68455875 -0.786412 -0.14831547 -0.60065395
000020 45 e8 14 bf 4b 3e 18 bf c4 2c 41 bf 3f 9c 65 bf
       -0.58166915 -0.5947005 -0.7545893 -0.8969154
000030 a0 f7 65 bf 6d 40 e4 be 72 06 d4 be 05 1b 95 be
       -0.8983097 -0.44580403 -0.41411167 -0.29122177
000040 58 e0 48 bf 02 53 2c bf 24 37 1a bf 10 a4 17 bf
       -0.7846732 -0.6731416 -0.6024039 -0.59234715
000050 5f a8 0d bf 6e f2 8d be 82 dd f9 bf 98 5f fc be
       -0.5533504 -0.27724022 -1.9520724 -0.49291682
000060 8f 5e 5e bf c0 db 05 bf 68 a2 5a be 79 65 79 bf
       -0.86863035 -0.52288437 -0.21351016 -0.9742046
000070 92 cb 42 bf df a4 3d bf b1 4b 26 bf 53 b1 18 bf
       -0.76091874 -0.740797 -0.64959246 -0.59645575
000080 ef dd 12 bf 57 36 4d bf 58 11 62 bf 5c 4a 1e bf
       -0.57369894 -0.8016104 -0.88307714 -0.61832213
000090 59 dd 37 bf d3 77 ee bd 87 a2 2d bf f2 54 43 be
       -0.71822125 -0.116439484 -0.6782612 -0.19075373
0000a0 91 95 cd bd b8 95 0f bf 0d 76 44 bf 48 8e f3 be
       -0.10038293 -0.5608783 -0.7674263 -0.4756949
0000b0 4c 8c db be 74 25 39 bf 3a 67 40 bf 34 8c 66 bf
       -0.42880476 -0.72322774 -0.7515751 -0.90057683
0000c0 e6 84 36 bf 3d 70 5b bf 77 8c 66 bf d3 5f 29 bf
       -0.71296537 -0.8571814 -0.9005808 -0.6616184
0000d0 76 db be be 9d 60 7c bf d9 a3 45 bf 6f 32 b7 be
       -0.3727681 -0.9858492 -0.77203137 -0.35780665
0000e0 b0 29 26 bf c0 54 51 bf 0d 08 1d bf 09 29 74 be
       -0.6490736 -0.81769943 -0.6134041 -0.23843779
0000f0 9f 07 38 bf dc e3 eb be f3 61 50 bf 3b df 27 bf
       -0.7188663 -0.4607228 -0.8139946 -0.65575
000100 6a d2 41 bf 03 dc 09 bf 61 26 29 bf 78 d4 80 bf
       -0.7571169 -0.53851336 -0.66074187 -1.006484
000110 f5 88 5e bf a5 a9 56 bf dd a3 1d bf 57 05 27 bf
       -0.8692773 -0.83852607 -0.6157816 -0.6524252
000120 d7 67 18 bf ad fe 1c bf f7 8e 34 bf 57 a8 63 bf
       -0.5953345 -0.61326104 -0.7053065 -0.8892874
000130 0a 52 de be 14 20 0c bf e5 44 10 bf 9d 29 27 bf
       -0.43421966 -0.5473645 -0.56355125 -0.6529787
000140 d1 8e e7 be 28 6e 6b bf fb cc 66 bf 5b 1b ee bf
       -0.45226148 -0.9196496 -0.90156525 -1.8602098
000150 76 29 c8 be b8 1f 91 be b8 7e 26 bf df 82 5f bf
       -0.39094132 -0.28344512 -0.6503711 -0.8730907
000160 c0 f7 42 bf f6 48 62 bf 91 7c 61 bf 8c d7 13 bf
       -0.76159286 -0.8839258 -0.880807 -0.57750773
000170 28 ac 50 bf 0c 0f 3c bf 75 92 9c bf 54 d4 34 bf
       -0.8151269 -0.7346046 -1.2232195 -0.70636487

dense1.batch_norm1.running_mean f4 [96]
000000 2c f7 b1 c0 3b f9 24 c0 c0 be 0b c0 43 81 2d c0
       -5.5614223 -2.5777118 -2.1835175 -2.7110145
000010 0d 5a 1c c0 2a f8 22 c0 64 47 ef c0 d7 d4 c3 bf
       -2.4429963 -2.5463967 -7.4774647 -1.5299329
000020 df 54 2b c0 1a 65 04 c0 61 54 08 c0 12 d5 31 c0
       -2.6770551 -2.0686707 -2.13015 -2.7786298
000030 06 ad 4e c0 27 3f a0 bf dc 08 e3 bf cf 23 0e bf
       -3.2293105 -1.2519273 -1.7737079 -0.5552339
000040 cc fc 73 c0 0d 0f 10 c0 75 ad 52 c0 5a f0 8b c0
       -3.8123045 -2.2509186 -3.291837 -4.37309
000050 d8 25 28 c0 be 6f 36 bf 28 13 84 be cc 13 ae bf
       -2.6273098 -0.71264255 -0.25795865 -1.3599792
000060 cf a4 1f c0 a9 7a 0c c0 a5 1c ef bf 08 11 56 c0
       -2.494434 -2.1949866 -1.8680617 -3.3447895
000070 81 f9 15 c0 a2 59 5a c0 a0 81 98 bf 03 7d 39 c0
       -2.3433535 -3.4117208 -1.1914558 -2.898255
000080 87 38 e6 bf 42 00 4d c0 d8 1e 4b c0 f7 8f 0f c0
       -1.7986001 -3.2031407 -3.1737576 -2.243162
000090 f2 d1 ef bf 53 45 86 c0 3d 83 fb bf b0 94 89 c0
       -1.8735945 -4.1959624 -1.9649426 -4.2994003
0000a0 66 84 50 c0 3c 73 35 c0 2f ec 30 c0 9c 47 95 bf
       -3.258081 -2.8351583 -2.7644155 -1.1662478
0000b0 3a c6 28 c0 ab 3e 27 c0 4b ad 30 c0 45 dc 86 c0
       -2.6370988 -2.6132 -2.760577 -4.2143884
0000c0 47 3c 2e c0 17 fa 41 c0 54 c0 23 c0 38 ca 42 c0
       -2.722429 -3.0308893 -2.5586138 -3.0435925
0000d0 a9 12 b9 bf be b3 62 c0 c6 37 fe bf 6a 03 49 c0
       -1.445882 -3.5422206 -1.9860771 -3.1408334
0000e0 a5 14 3a c0 76 c1 64 c0 d2 d3 c2 bf 15 d4 81 bf
       -2.90751 -3.574308 -1.5220892 -1.0142847
0000f0 0b e1 3e c0 79 53 5f bf 37 44 43 c0 ab 2a 5a c0
       -2.9824855 -0.87236744 -3.0510385 -3.4088542
000100 5f 66 67 c0 a4 15 f5 bf ac ee e1 bf 02 ec 6e c0
       -3.6156232 -1.9147229 -1.7650962 -3.7331548
000110 cc 67 6c c0 e7 8b 81 c0 04 e6 43 c0 61 c7 ec bf
       -3.6938353 -4.048328 -3.060914 -1.8498346
000120 40 1e 65 c0 80 d4 56 c0 5a b3 0f c0 f6 c6 1c c0
       -3.5799713 -3.35672 -2.2453218 -2.4496436
000130 ad 48 e1 bf 2d 0f f5 bf a9 b4 3a c0 cf 6c 3d c0
       -1.7600304 -1.9145256 -2.9172766 -2.9597661
000140 9c 8f df bf 16 d9 7f c0 b3 8a 27 c0 ab 91 0d 40
       -1.7465701 -3.9976249 -2.6178405 2.2120159
000150 2e 2c 3a c0 5c a2 7d bf a6 2d 1d c0 0b 3c 44 c0
       -2.9089465 -0.99075866 -2.4559112 -3.0661647
000160 f7 f5 88 c0 95 ba 54 c0 63 42 41 c0 97 38 4e c0
       -4.280025 -3.323888 -3.019677 -3.222204
000170 b3 2f 35 c0 e6 2a 0d c0 14 79 41 3f 03 af 38 c0
       -2.8310363 -2.2057433 0.75575376 -2.8856819

dense1.batch_norm1.running_var f4 [96]
000000 06 f4 08 41 f8 9e 49 40 0f 4d 0b 40 f4 e3 67 40
       8.559576 3.1503277 2.1765783 3.6232882
000010 03 1a 5b 40 1c 35 31 40 ce 27 20 41 59 69 2a 40
       3.4234626 2.7688665 10.009718 2.66268
000020 54 6c 57 40 80 20 29 40 ef 6d 4f 40 e1 66 39 40
       3.3659868 2.6426086 3.2410848 2.8969042
000030 9a 17 2e 40 8c 30 3e 40 ca 0d 15 40 35 97 44 40
       2.7201905 2.971713 2.3289666 3.071729
000040 aa 9b 71 40 59 3c 15 40 b2 4a 28 40 73 07 5e 40
       3.775126 2.3318083 2.629559 3.4692047
000050 97 82 1b 40 ec 84 46 40 6c be 4b 40 f8 ad 1e 40
       2.4298456 3.101863 3.1834974 2.4793682
000060 b2 b0 39 40 e0 79 27 40 47 47 46 40 07 97 73 3f
       2.9014096 2.6168137 3.0981004 0.95152324
000070 2d f0 49 40 83 ad 78 40 cf 48 36 40 95 a9 37 40
       3.1552842 3.8855903 2.848194 2.8697255
000080 ea 2c 2e 40 f0 19 5b 40 53 a6 1d 40 53 14 1a 40
       2.7214913 3.423458 2.4632766 2.4074905
000090 8a 32 1e 40 58 cc 14 41 b6 3e 36 40 a4 27 90 40
       2.4718347 9.299889 2.8475776 4.504839
0000a0 3e 1c df 40 bc aa 67 40 0f 40 62 40 0f 68 3e 40
       6.9721975 3.6197958 3.5351598 2.9751012
0000b0 8e 22 48 40 13 d1 98 40 76 b0 97 40 9f 3d 58 40
       3.127109 4.7755218 4.7402906 3.378761
0000c0 91 f9 2b 40 b6 f2 74 40 33 83 3a 40 2b 4f 5d 40
       2.6871073 3.827314 2.9142578 3.457957
0000d0 98 e4 36 40 fa e9 7a 40 48 34 d1 3f d7 d7 87 40
       2.8577023 3.9205308 1.634408 4.2450976
0000e0 1a 61 36 40 b5 c8 5d 40 3d 48 f6 3f e2 0f 6a 40
       2.8496766 3.4653752 1.9240795 3.6572194
0000f0 f4 24 52 40 3b ba 00 40 d6 e8 17 40 99 a7 6a 40
       3.2835054 2.0113666 2.3735862 3.6664793
000100 91 86 4b 40 36 3f 0d 40 72 be 45 40 9f 4f 8e 40
       3.1800883 2.206983 3.0897489 4.4472194
000110 3d 9e 68 40 77 3e 50 40 7e bb 47 40 47 5c 1f 40
       3.634658 3.2538126 3.1208186 2.4900072
000120 27 55 53 40 d2 38 32 40 dd 2d 1a 40 96 c9 14 40
       3.3020723 2.784718 2.4090493 2.3248038
000130 d5 d2 20 40 84 b8 2b 40 5e e8 2c 40 19 ed 41 40
       2.5128682 2.683137 2.7016826 3.0300963
000140 59 c7 90 40 17 e3 81 40 37 f7 24 40 34 fb 0c 40
       4.5243344 4.058971 2.5775888 2.2028322
000150 fa 10 69 40 75 20 37 40 0f 51 47 40 37 c9 34 40
       3.6416612 2.861356 3.1143224 2.8247812
000160 85 8e 55 40 59 56 9d 40 42 98 27 40 ee ee 6e 40
       3.3368237 4.9167905 2.618668 3.733333
000170 62 13 4e 40 3d b8 03 40 f1 c5 f8 3f 2c 14 1d 40
       3.219933 2.05812 1.9435407 2.4543562

dense2.dense.weight f4 [15, 96]
000000 0c d4 70 bd 54 e2 d4 be 6c 2d 0f bf bb a7 32 be
       -0.058795974 -0.41578925 -0.55928683 -0.17446797
000010 cc 67 0e bf db c6 be be e3 94 8d 3e e3 67 ed 3d
       -0.5562713 -0.3726109 0.27652654 0.115920804
000020 87 9e 0d be b8 20 8d bd 61 52 84 be 62 45 91 3e
       -0.13830005 -0.06891006 -0.258441 0.28373247
000030 fd fd 88 be 9d f9 1f be 17 9b 98 be c7 46 49 be
       -0.26756278 -0.15622564 -0.29805824 -0.19655906
000040 44 25 9d be c0 e7 05 bf 4f 21 fe bc 37 25 56 3e
       -0.30692494 -0.5230675 -0.031021742 0.20912634
000050 d7 0f 47 bd 11 29 0d 3e 8e 8b d1 3c 45 4d 1c 3e
       -0.04859909 0.13785197 0.02557924 0.15263851
000060 a7 4d cf bd 1b c5 17 bc 38 0a 8d be 3f ba a6 be
       -0.10122233 -0.009263302 -0.2754686 -0.3256397
000070 7e eb 7b bd da e2 80 3e 87 b3 11 be a4 22 39 3e
       -0.06150388 0.25173074 -0.1422864 0.1807962
000080 5a a0 8a be 92 1d 45 be 10 9e 78 3e f2 7e c2 bd
       -0.27075464 -0.19249561 0.24279046 -0.09496869
000090 be 98 99 3e 31 28 7a 3e d7 c3 ea be 2e 09 bc bc
       0.29999346 0.24429394 -0.4585254 -0.022953596
0000a0 1c bf 04 bf a0 e1 dc be 73 6e b0 be 94 ac f9 bd
       -0.5185411 -0.43140888 -0.34459266 -0.1219112
0000b0 67 f0 51 bf 82 95 bf bd 09 92 61 be 79 b3 55 3e
       -0.8200745 -0.09354688 -0.22028364 0.20869245
0000c0 5a 7d 0a bf fb 31 11 3e 2b 95 ff 3d 02 b6 3a bd
       -0.5409752 0.14179222 0.124796234 -0.045583732
0000d0 a1 e9 16 3e dd 77 65 be e5 44 dc 3d 22 3e 21 be
       0.1473756 -0.22409005 0.10755328 -0.15746358
0000e0 2e a7 80 3d 95 ff 3f be 8d e4 40 bd f3 f0 1f 3e
       0.06281887 -0.1874984 -0.047092963 0.15619259
0000f0 0f 97 04 3e 3b dc 92 3c 12 8e d7 3d 23 66 0c 3e
       0.1294825 0.01792728 0.10525145 0.13710837
000100 be cd 0e be 38 eb f0 bb 40 d3 78 be b4 ae 50 3e
       -0.13945672 -0.007352259 -0.24299335 0.20379144
000110 f9 d2 ae 3d 83 cc 63 3d b3 e9 74 3d de 24 61 be
       0.085363336 0.05561496 0.059793185 -0.2198672
000120 80 18 9a 3e 94 c5 9e be 9a 7d 48 bd 1a 72 01 bf
       0.30096817 -0.31010115 -0.048947908 -0.5056473
000130 34 fe 2a 3e da 7f 2a 3e 58 5c c2 3c 08 47 bb be
       0.16698533 0.16650334 0.023725674 -0.3657763
000140 81 c4 b9 be 10 89 e9 be 0c 97 88 be 64 4c a5 bc
       -0.36282733 -0.45612383 -0.2667774 -0.020178027
000150 7f 7f 89 be 1b 0e c6 be 1f 87 cc be 11 8c 5d be
       -0.26855084 -0.38682637 -0.3994684 -0.21635462
000160 95 ac 10 3d 12 fd 8b be 1b da c7 be 17 8b ba be
       0.035320837 -0.27341515 -0.3903359 -0.36434242
000170 b3 12 12 b8 d4 c2 15 3e 47 d1 b0 bd 9a f2 52 3e
       -3.4826528e-05 0.14625102 -0.086336665 0.20600358
000180 47 3e fd bc 06 b8 ea bd 0b 41 df 3d 95 ba 5e be
       -0.030913485 -0.11460881 0.10901078 -0.21750863
000190 9e af 5d 3d 99 e0 74 3d fe 7b 43 3e 9f 9c 25 3e
       0.05412256 0.059784506 0.19090268 0.16173027
0001a0 fa 7e 4d be 47 57 e8 bd 91 55 9e be 4d 18 83 be
       -0.20067969 -0.11344772 -0.30924657 -0.25604478
0001b0 8f fe 85 3c 21 82 20 be cc 4a 71 be 24 03 56 be
       0.016356735 -0.1567464 -0.23563689 -0.20899636
0001c0 92 5e c4 be e3 2c 07 bf a8 ab f0 be af ec 02 3e
       -0.383534 -0.52802867 -0.47005963 0.127856
0001d0 67 12 2a 3e a5 ad e0 3d af db 39 3b 62 21 13 bf
       0.16608582 0.1097062 0.0028359701 -0.57472813
0001e0 27 11 c7 be 89 5a 19 3e 87 ee 6d 3e 30 dc 67 be
       -0.38880274 0.14975943 0.23235522 -0.22642589
0001f0 5e de 26 3d 34 ba 77 be 18 6d 73 be 49 85 81 be
       0.04073941 -0.24192125 -0.23772085 -0.25297
000200 80 8a aa bc 04 dd 98 be fd 72 e7 be 83 94 f6 3d
       -0.020817995 -0.29856122 -0.45204917 0.12040045
000210 97 dc 0d be 31 a7 74 3e f9 35 ee be 66 05 d4 bc
       -0.1385368 0.23891903 -0.46525553 -0.02588148
000220 3a 24 27 bf 3c fb 77 be d6 51 c1 be 59 0d 2e be
       -0.6528965 -0.24216932 -0.37757748 -0.16997279
000230 b1 b2 b1 3d 5d bd 75 be bc 24 76 3e c2 c3 c5 be
       0.08676661 -0.23998018 0.2403745 -0.38625914
000240 2b ff a3 be 62 73 80 3e f4 cb fb be fd 1a 3d 3e
       -0.32030615 0.2508803 -0.4917904 0.18467326
000250 77 89 ea bd 46 1f 17 3c 87 aa 1c 3e 04 14 89 be
       -0.114520006 0.009223765 0.15299426 -0.26773083
000260 6e f6 01 3e 0d 1d 31 be 3e 1d bf bd a0 4d 84 3d
       0.12691662 -0.17296238 -0.093317494 0.06460118
000270 d8 65 16 be c7 66 af bd db cc 9e be 2a ee 4a 3a
       -0.14687288 -0.08564525 -0.31015667 0.00077411777
000280 cf 08 e3 be 72 41 c9 bd e9 69 d8 3d 3e eb 83 be
       -0.44342658 -0.09826936 0.10567076 -0.25765413
000290 37 5e 29 be da 29 91 3d 14 41 13 3d c7 dc a2 be
       -0.16539846 0.07088061 0.035950735 -0.31809065
0002a0 c7 86 fb be e5 07 2f 3e b9 a4 03 3e 4c a6 7f be
       -0.49126264 0.17092855 0.12855805 -0.24965781
0002b0 6e 12 07 bf 53 a0 9a be b3 01 43 bd 6e cb 5e be
       -0.52762496 -0.30200443 -0.047609042 -0.2175729
0002c0 88 cc be be 37 ec 18 3e 61 5a bc be 26 30 8c bc
       -0.3726542 0.14933859 -0.36787704 -0.017112803
0002d0 b8 1d a3 be 5d c9 6b 3e ee 09 82 3e 68 cb aa bd
       -0.3185861 0.23026033 0.253982 -0.08339578
0002e0 f2 79 cd be 93 1a 98 3e b0 85 4a be 9c ae 85 3e
       -0.401321 0.29707775 -0.1977756 0.2610978
0002f0 f6 0d 4b 3e 09 82 dd 3d e1 e9 04 ba c3 94 10 bf
       0.19829544 0.10815818 -0.0005070251 -0.5647699
000300 d3 e8 c9 bd c8 b1 72 be 71 94 1d 3e d6 2c 4c 3e
       -0.09858861 -0.2370063 0.15388657 0.19938979
000310 6d 07 28 3e a7 e7 1d 3d 29 38 71 3d df bc 91 be
       0.16409083 0.038551 0.05889145 -0.2846441
000320 3e cf c1 3d 90 3f a7 be 0f e8 cd bc 95 73 16 bf
       0.094633564 -0.32665682 -0.025135068 -0.58770114
000330 9f a1 b8 3e cf 51 f3 3d 29 97 aa be 10 73 3b be
       0.36060807 0.11880838 -0.3331845 -0.18305612
000340 88 1e 8a 3e 5a 33 d6 be db 96 d7 be 2a 60 e7 3d
       0.26976418 -0.41836053 -0.4210728 0.11297639
000350 6e d7 a8 bc e1 c4 c1 be e8 40 b0 3c 26 9d ae 3d
       -0.020610537 -0.3784552 0.021515325 0.085260674
000360 4b 3a 46 3e 01 78 e3 be 46 4a 30 3e 4e fb 13 bf
       0.19358175 -0.44427493 0.17215833 -0.57805336
000370 11 18 7f be 63 b8 54 3e 3a 7f af bc 29 70 2f 3e
       -0.24911524 0.20773463 -0.021422971 0.1713263
000380 da 8d 98 3d a1 0f 91 be d5 9e 30 be 6b 82 14 bf
       0.07448931 -0.28332236 -0.1724809 -0.580115
000390 16 03 94 be 27 14 9e be 55 62 45 be 53 1a 4c bd
       -0.28908604 -0.3087475 -0.19275792 -0.049829792
0003a0 e1 e2 30 3e 5e db ca 3d 41 b9 bc bd 9d 44 79 be
       0.17274047 0.09905122 -0.09215022 -0.2434258
0003b0 c3 5c 5b 3e 13 65 2e be d6 85 db be 5c 64 12 be
       0.21422105 -0.17030744 -0.42875546 -0.14296097
0003c0 d3 0b 2e be eb 3e f3 3b 56 0b 65 3e 03 ce c6 be
       -0.16996698 0.007423272 0.22367606 -0.3882905
0003d0 9b 98 c8 be 01 8d 7e be 7c b4 8f be 71 c6 39 be
       -0.3917893 -0.24858476 -0.28067386 -0.18142106
0003e0 6b e4 79 bd 5b 78 86 be 93 77 d5 bd a4 68 bc 3d
       -0.061008852 -0.262637 -0.104231976 0.09199646
0003f0 e8 f2 5e be 83 12 ca bb 05 5a 99 be 02 b9 1b be
       -0.21772349 -0.0061667576 -0.29951492 -0.15207294

dense2.dense.bias f4 [15]
000000 9e 08 1b 3f 25 61 09 3f 27 16 b8 3e 5f a3 c2 3f
       0.60560024 0.53663856 0.359544 1.5206107
000010 5e 16 e8 3e 48 b3 bf 3e 45 44 30 40 9d 1d fe 3e
       0.45329565 0.37441468 2.7541668 0.49631968
000020 0e 3b 03 3f db 03 ef 3e 69 5f fb 3e 82 ab 57 3f
       0.51261985 0.4668263 0.4909623 0.84246075
000030 b0 2a 0b 3f df 55 58 3d 56 a1 05 c1
       0.5436201 0.052816268 -8.351889

dense2.batch_norm1.weight f4 [15]
000000 27 1a 92 40 6a fc a0 40 24 dd 6d 40 af dd b0 40
       4.5656924 5.0308123 3.7166224 5.527061
000010 63 f2 6e 40 3e 87 5e 40 1f 60 bf 40 78 3a 87 40
       3.733544 3.4770045 5.9804835 4.2258873
000020 60 87 95 40 5b a8 7e 40 9a 6b 89 40 60 69 a2 40
       4.6727753 3.9790256 4.294385 5.075363
000030 e6 a5 8b 40 bb c7 f4 3e 69 d5 66 41
       4.3640013 0.47808632 14.427102

dense2.batch_norm1.bias f4 [15]
000000 c8 2b 43 c0 bd ff 4c c0 bc 5e 28 c0 84 11 28 c0
       -3.0495472 -3.203109 -2.6307821 -2.626069
000010 c1 f4 16 c0 2b 08 0d c0 18 94 21 c0 78 3c 3b c0
       -2.3586886 -2.2036235 -2.524664 -2.9255657
000020 ed f6 31 c0 00 44 16 c0 4f f9 24 c0 fd 95 2f c0
       -2.7806962 -2.3479004 -2.5777166 -2.7435296
000030 bf b8 30 c0 98 df 0f bf d3 29 a9 40
       -2.761276 -0.5620055 5.2863555

dense2.batch_norm1.running_mean f4 [15]
000000 67 61 8a 3e 0c b6 59 3e 27 b3 21 3c 63 cb a2 3f
       0.27027437 0.21260852 0.009869373 1.2718319
000010 ff 50 1d 3e f8 9f b3 3d 39 c9 21 40 70 58 fc 3d
       0.15362929 0.08770746 2.5279067 0.123215556
000020 69 f5 6e 3e 37 4d 42 3e e3 af 45 3e b7 50 13 3f
       0.23335804 0.18974768 0.19305377 0.57545036
000030 f6 57 58 3e 27 c9 c0 bd c6 d6 0a c1
       0.21127304 -0.09413367 -8.677435
