classification/model_rnafm/13_final/120Epoch/rna_type_checkpoint_fold_2.pt (torch, 252002 bytes, 24 tensors)

layer1.conv1.weight f4 [30, 30, 5]
000000 4b 9f e2 3e 5c 3b c1 3e 64 2f 81 3e 14 9b 5d 3e
       0.44262156 0.377406 0.2523147 0.21641189
000010 39 ae ed 3e 1c 92 03 bf f7 31 99 bd 1c 57 a2 3d
       0.46421984 -0.5139482 -0.07480233 0.07926771
000020 19 d3 14 bf 61 fd 4f bf 13 f8 0b 3d 8f dd 01 3f
       -0.5813461 -0.81246 0.03417213 0.50728697
000030 52 44 28 3f e7 9e 62 be b0 9f 06 be 87 a6 98 be
       0.6572925 -0.22130929 -0.13146853 -0.2981455
000040 cb 07 ea 3e 95 c7 0e 3f bf 49 72 be 52 b1 dc be
       0.4570907 0.5577329 -0.23660944 -0.43104035
000050 76 f0 e6 be 2a e1 46 3e 46 d1 06 3f a0 a4 f7 bd
       -0.45105332 0.19421831 0.52663076 -0.120919466
000060 31 94 40 39 fb b0 96 3e ba c5 b6 bd e7 2d 03 bc
       0.00018365752 0.294319 -0.08924432 -0.008006549
000070 df 0b 3c be e0 10 c4 3b 8f 3b 17 3e 8c 38 01 be
       -0.18363903 0.005983457 0.14768814 -0.12619227
000080 a0 4f ca be 6c 6d 9e bc 21 79 5a 3e 47 7b a4 3e
       -0.39513874 -0.019339286 0.2133527 0.32125303
000090 8a 26 0c be f3 95 1a bf 6f 11 9b be 1a ff 7e be
       -0.13686576 -0.60385054 -0.30286738 -0.24902001
0000a0 14 65 9c 3c 23 02 99 be e1 fb 08 bf 2b f0 70 3e
       0.019091167 -0.29884443 -0.53509337 0.23529117
0000b0 98 49 42 3d d4 09 cd 3e 7a 81 6d be c0 bb 82 bf
       0.047433466 0.4004656 -0.23193923 -1.0213547
0000c0 1e 1f a1 be 00 ca fb 3d 75 c6 9c 3e 8c f0 0a be
       -0.31469053 0.12294388 0.3062016 -0.13568324
0000d0 05 bb 07 bf 85 53 07 3e 0f d9 9d 3d 48 3a e8 bd
       -0.53019744 0.13215454 0.07707416 -0.11339241
0000e0 de 91 14 3d 0d 36 a6 be 1e 7e 61 3e 8d 8b 66 be
       0.036271922 -0.32463112 0.22020766 -0.22514172
0000f0 3b d8 8d bd 4e 94 be 3d f5 15 05 be 6e 3c 48 3e
       -0.06926008 0.093056306 -0.12996657 0.19554302
000100 f1 3e 92 3d 83 84 50 bb e8 bc 8d bd 88 f7 ed 3c
       0.07140911 -0.0031817264 -0.06920797 0.029048696
000110 54 6b 79 3e 46 18 f4 3d df c5 46 3e d6 9c df bd
       0.24357349 0.11918692 0.1941142 -0.10918586
000120 44 4c a6 3c ce 49 99 3e 4d c1 02 3e 50 8a c7 3c
       0.020300038 0.2993912 0.12769051 0.024357945
000130 93 6e 42 3e 49 e3 80 3d c8 f7 d3 bd b5 05 25 bd
       0.18987493 0.06293351 -0.10349995 -0.040288646
000140 2c a6 03 bd 62 67 80 3d 52 48 4f be 7d b6 da bd
       -0.032140896 0.06269719 -0.20242432 -0.10679338
000150 84 e0 e1 3c c7 ed e3 3d 4a f9 fe bd ad cf 7b be
       0.027572878 0.11129337 -0.12449892 -0.24590941
000160 c4 39 1a 3e d9 c6 91 3e 7d 81 2c 3e 4f 60 e9 3d
       0.15061098 0.2847202 0.16846271 0.113953225
000170 e0 81 90 bd 26 ae b5 bc 7d 08 76 3e 94 b4 81 be
       -0.07056022 -0.022177767 0.24026676 -0.25333083
000180 bc 97 1c 3e 07 a5 31 3e 89 7f 1a be 82 40 04 be
       0.15292257 0.17348109 -0.15087713 -0.12915233
000190 83 7d 5d be 9d ae 4f 3e 9a 50 24 bd 29 e4 a3 be
       -0.2162991 0.20281453 -0.04011593 -0.3201001
0001a0 07 ad 9c be d1 fc c3 be 71 22 93 be cc 0a 4d 3d
       -0.3060076 -0.3827882 -0.28737214 0.050059125
0001b0 0b c8 22 3d 59 b5 75 be 23 14 2a be 6e 86 8f be
       0.039741557 -0.2399496 -0.16609244 -0.2803225
0001c0 06 b6 17 be ea 38 35 be 59 29 91 bd 7c cb d1 3c
       -0.1481553 -0.17697492 -0.070879646 0.025609724
0001d0 20 2b 61 bd b3 85 f5 bd f4 fe 6c 3d 56 b5 c8 bb
       -0.054972768 -0.11988392 0.05786033 -0.0061251326
0001e0 29 71 be bd 6d e8 6f be 2c 8d 2c be 44 c6 19 bd
       -0.09298927 -0.23428507 -0.16850728 -0.037542596
0001f0 a5 b6 00 3e 5e 00 4f bd b2 b0 35 be 63 47 7e bd
       0.12569673 -0.05053746 -0.17743185 -0.0620798
000200 a4 1f b7 3d b5 2d 03 3e 17 4c cc bd a3 21 31 be
       0.08941582 0.12810405 -0.099754505 -0.17297988
000210 08 1d 4b 3e 03 8f 5d 3d fb 56 b4 3d 7d b7 0b be
       0.19835293 0.054091465 0.08805653 -0.13644214
000220 8b eb 9a bd d0 cb 9f 3c a4 70 63 be 01 09 71 bd
       -0.075644575 0.019506365 -0.22210938 -0.058846477
000230 a5 39 e5 bd 2a 4c 98 3d 86 2d 23 be 72 c8 79 be
       -0.111926354 0.07436402 -0.15935335 -0.2439287
000240 d3 86 12 be 35 c2 4f 3e 1b be 3f bd fd f8 ae bd
       -0.14309244 0.20288928 -0.046812158 -0.085435845
000250 25 1e 9f 3d 98 de 97 3d 12 eb 95 bf 94 13 75 be
       0.077694215 0.07415503 -1.1712363 -0.2393325
000260 b7 50 fb 3e 8a d2 12 3f 4f 56 c0 3e 44 db fd 3e
       0.49085018 0.5735251 0.37565848 0.4958135
000270 2d 1e 75 3e ea b4 78 3e 9f 53 fa 3e d8 fa c7 3e
       0.23937292 0.24287763 0.48891923 0.39058566
000280 25 82 a7 bc f1 1d e1 be d7 69 ae bd 77 a9 e5 be
       -0.0204478 -0.43968156 -0.08516281 -0.44855854
000290 44 a5 13 3e 19 13 00 bf 97 61 31 be 66 10 7e 3d
       0.14418513 -0.5002914 -0.17322384 0.062027358
0002a0 3d 31 01 bf 16 25 2a 3f c6 5a a0 bd 04 c9 06 bd
       -0.50465757 0.6646284 -0.07829814 -0.032906547
0002b0 2d dc cb be 54 9e a3 be b5 52 64 3f 03 a5 fb 3d
       -0.39816418 -0.31956732 0.891887 0.12287333
0002c0 e2 93 d2 bd 71 bf 4d 3e 9a a3 11 3d 1d 3c 96 be
       -0.10282113 0.2009256 0.035556413 -0.29342738
0002d0 2d 69 96 3e 7a 43 43 bd a8 7f 65 3e 1d 3f 98 be
       0.29377118 -0.047671773 0.22411978 -0.29735652
0002e0 71 32 69 3e 0b de bd 3d 56 18 97 3d 28 b2 47 be
       0.22773148 0.09270867 0.073776886 -0.19501555
0002f0 3f 3e 3f bd d6 86 be 3e df 94 92 bd 64 de ae bd
       -0.046690222 0.37212247 -0.07157301 -0.085385114
000300 9f 57 aa 3e 21 0e 2d bd be a4 12 3f 7b 99 c7 3c
       0.33269975 -0.042249803 0.57282627 0.024365177
000310 1a 33 3a be 70 5e 88 be 6e 17 ac be f3 60 f2 3d
       -0.18183556 -0.2663455 -0.33611625 0.11834898
000320 ed 87 92 be 53 99 28 bd 10 bd 8d be 0f fe 35 be
       -0.28619328 -0.041161846 -0.27683306 -0.17772697
000330 bc 47 9b bd ab f5 3e bd 20 64 c1 3d 30 07 0e be
       -0.075820416 -0.046621006 0.094429255 -0.1386993
000340 94 48 78 3b 37 b9 d0 3d ae 49 d6 3d 4a d9 4a be
       0.0037885057 0.10191577 0.10463272 -0.19809452
000350 ff b9 97 bd 4c 08 aa bc e4 98 19 bd 55 f7 27 3d
       -0.07408523 -0.02075591 -0.037499323 0.04100736
000360 90 25 2d be 89 8a 88 3e c5 7d b4 3d 41 74 db bd
       -0.1690886 0.26668194 0.08813051 -0.10715533
000370 8a af 7c 3e ce cd 2f 3d 80 43 92 3e f5 75 c7 3d
       0.24676338 0.04292088 0.28567123 0.097392954
000380 1f 74 d7 be 8d e4 20 3e ad 0a 42 3e 8f f3 f1 ba
       -0.4208078 0.15712185 0.18949385 -0.0018459427
000390 5c 7e 8d 3d b7 f1 a0 be ba 73 86 bc 4e 74 b9 3e
       0.06908867 -0.31434414 -0.016412605 0.36221546
0003a0 c0 4b 3a be e2 b8 26 3d f8 5a 8d be 70 46 76 be
       -0.18192959 0.04070366 -0.27608466 -0.24050307
0003b0 24 d0 84 3a 98 77 4c 3e d9 68 6c 3e 18 d0 bf 3c
       0.0010132832 0.19967496 0.23086871 0.023414657
0003c0 31 04 31 bc e1 2e 82 bd 3d b7 5a 3e c1 34 1e 3e
       -0.010804222 -0.06356598 0.21358962 0.15449812
0003d0 43 43 2d 3e 49 be bd 3d 29 34 a5 bd b4 1b 91 3e
       0.1692019 0.0926481 -0.080665894 0.28341448
0003e0 9e 24 b2 ba 9f e1 2d be 55 55 0a be be f6 6a be
       -0.0013591235 -0.16980599 -0.13509114 -0.22945687
0003f0 f6 3d 3a 3d bc 72 73 bd 0f b9 14 3e 9e 6f 38 be
       0.045469247 -0.05943559 0.14523719 -0.18011329

layer1.conv1.bias f4 [30]
000000 bd 7d 95 bd 2b 5b cb bb 41 33 aa 3d f3 ce 93 bc
       -0.07299373 -0.0062059364 0.08310557 -0.018043017
000010 40 c8 91 3d f0 6f db bd 71 84 3b 3d cd 16 09 3d
       0.07118273 -0.1071471 0.045780603 0.03346901
000020 c5 78 ce bb ec 64 09 bc 47 af 6a 3d d4 d2 1f bd
       -0.006301018 -0.008385878 0.057296064 -0.03901942
000030 0d 32 bf 3d bc c2 7b bd 0d e9 31 3d 66 81 bc bc
       0.09335718 -0.06146501 0.043435145 -0.02301092
000040 6c 80 ff 3c c3 cc 2a bd 9c 9e c4 3d c0 34 14 be
       0.031189166 -0.041699182 0.09600565 -0.14473248
000050 c9 15 90 bc 7e 90 a3 bc 4b 24 f9 bd 17 8a 6d 3d
       -0.017588513 -0.01996636 -0.121651255 0.05799302
000060 53 f8 30 bd b0 72 3e bc e2 a1 0e 3d fb ce 8d bd
       -0.04320557 -0.011624023 0.034822352 -0.06924244
000070 3d dc 7f 3d 14 6f 88 3c
       0.062465895 0.016654529

layer1.bn1.weight f4 [30]
000000 10 d5 63 3f b1 45 51 3f 74 30 56 3f 39 b3 2e 3f
       0.8899698 0.81746966 0.83667684 0.6824222
000010 4e bc 46 3f c6 f8 52 3f 17 cc 5d 3f d4 65 69 3f
       0.7763108 0.8241085 0.8663954 0.91171
000020 7e c5 3a 3f 03 51 3a 3f 8c 8f 87 3f a6 e5 70 3f
       0.729576 0.72779864 1.0590682 0.94100416
000030 89 24 3b 3f ac 25 58 3f d0 ce 58 3f 35 11 4c 3f
       0.73102623 0.8443248 0.8469057 0.79713756
000040 38 92 10 3f 86 6b 25 3f f4 99 56 3f 52 1c 51 3f
       0.5647311 0.6461719 0.83828664 0.8168384
000050 c5 29 4b 3f fa 10 65 3f 50 fb 84 3f f3 5c 77 3f
       0.7936061 0.8947903 1.0389194 0.96626204
000060 ba 8e bb 3f 51 99 48 3f d0 9d 96 3f 4e 8d 58 3f
       1.4652932 0.7835894 1.176691 0.84590614
000070 16 04 2d 3f cb 04 34 3f
       0.6758436 0.70319813

layer1.bn1.bias f4 [30]
000000 9f f3 dc 3d 8c 0e 8b bd c4 3d 63 3e 48 42 be bd
       0.107886545 -0.06789884 0.2219153 -0.09289986
000010 3b 43 da 3d 1f 8f cb bd b6 cf c4 bd 25 8b 36 3d
       0.106573544 -0.099394076 -0.0960993 0.044566292
000020 5c 80 23 3e 1e 01 50 bd 49 a4 06 be 9f 77 00 bd
       0.15966934 -0.050782315 -0.13148607 -0.03136408
000030 5b 05 8a bc 98 fc 9f bc 32 2a 20 bd da e6 47 3d
       -0.016848257 -0.019529626 -0.03910274 0.04880414
000040 da 87 0d bc a3 98 ee 3d ae fc b5 3d de c6 01 3e
       -0.008638347 0.11650207 0.088860855 0.12673518
000050 14 1f a0 bc 94 43 1e 3e 1c b9 77 3c 45 b7 9e bc
       -0.01954607 0.15455467 0.015119817 -0.0193745
000060 20 1f 2c bd bc 7e 5d 3e 3c 81 24 3e 38 20 3f be
       -0.04202187 0.21630377 0.16064924 -0.18664634
000070 19 6d cd 3b bc 2d a6 3d
       0.006269109 0.08114192

layer1.bn1.running_mean f4 [30]
000000 b3 fd af bd 93 9d 80 3b 4e 72 8d 3d 6a 75 9b bc
       -0.08593311 0.0039250343 0.069065675 -0.018976886
000010 82 10 96 3d a4 a5 c9 bd cd 77 2a 3d 32 64 1b 3d
       0.07327367 -0.098460466 0.041618157 0.03793735
000020 45 2c a6 bc 7f bc de 3b a5 ef 89 3d 13 e8 21 bd
       -0.020284781 0.006797373 0.06735162 -0.039527964
000030 03 c4 c0 3d 82 c9 9b bd f7 70 1f 3d 59 35 22 bd
       0.09412386 -0.07606794 0.03892609 -0.039601658
000040 86 62 cf 3c 02 e2 65 bd 7d 48 b7 3d d1 69 0f be
       0.025315534 -0.05612374 0.08949373 -0.1400521
000050 cf 08 b8 bc ec cb 99 bc f3 87 fc bd 75 fb 4a 3d
       -0.022465138 -0.018773995 -0.12330618 0.049556214
000060 c0 d7 22 bd d3 86 99 bc 3c ed b6 3c b2 46 8e bd
       -0.039756536 -0.018741047 0.022329919 -0.06947078
000070 48 13 57 3d 1c 07 4f 3c
       0.052508622 0.012635972

layer1.bn1.running_var f4 [30]
000000 c3 7f 1d 40 76 75 91 40 f3 d1 4f 40 e8 89 01 40
       2.460923 4.5455885 3.2471893 2.0240421
000010 1d 74 4e 3f 39 5d 4a 40 8a 7f 84 3f 28 fe 34 40
       0.80645925 3.1619399 1.0351422 2.8280125
000020 bd 58 26 40 f7 0a aa 40 6a 2f 0c 41 69 45 7f 3f
       2.5991662 5.3138385 8.761576 0.99715286
000030 b1 ac 88 40 a4 7f ac 40 a7 ad 24 40 69 db 4d 40
       4.2710805 5.390581 2.573099 3.2165167
000040 43 7a 44 40 88 cc 63 40 21 fe 96 3f 7a cf ea 3e
       3.0699623 3.5593586 1.1796304 0.45861417
000050 2f 1e 06 40 8f 1e d6 3f 69 c5 31 3f 01 0d 40 40
       2.0955923 1.6728076 0.6944185 3.0007937
000060 42 0a 82 3e 69 d1 10 40 0c 51 4f 40 ad 5f 96 3f
       0.2539845 2.2627814 3.2393217 1.1747948
000070 15 53 6d 3f 98 a3 d5 3f
       0.927049 1.669055

conv1.weight f4 [30, 30, 5]
000000 f1 a2 bd 3c 1e 19 4e 3e c6 a9 49 3e 9b b5 b2 3e
       0.023148986 0.20126769 0.1969367 0.3490418
000010 4a 96 b4 bd 5c d3 63 bd 32 af 08 3d f7 66 07 bf
       -0.08817728 -0.05562149 0.033370204 -0.52891487
000020 6e b2 67 be e7 53 28 be 95 82 e8 be e3 3c ba 3e
       -0.2262666 -0.16438256 -0.45412126 0.36374578
000030 ee b5 8b 3e 81 53 48 3c 87 08 b2 3d 6f 02 d1 bb
       0.2728724 0.01222694 0.08693033 -0.006378464
000040 e3 2d be bd 81 d8 31 be c3 44 29 3e 1f 17 78 3d
       -0.09286096 -0.17367746 0.16530137 0.060568925
000050 cc 31 1f be 68 9a 19 bf 74 71 ab 3e 88 74 32 be
       -0.1554634 -0.6000123 0.33484995 -0.17427266
000060 b4 d8 13 be ab d6 c7 3d d3 65 4e be 37 1d df be
       -0.14438134 0.097577415 -0.2015603 -0.43576977
000070 68 bc 73 be 8d 6a 47 3e 7b a3 e5 be 57 77 1d be
       -0.2380234 0.1947424 -0.44851288 -0.15377556
000080 27 70 c9 bd bb 6b 9d be 6c 58 7b be 00 5a 4a 3d
       -0.098358445 -0.30746254 -0.24545449 0.049402237
000090 91 bb a1 be d9 20 e8 be 68 8c 10 be 7b 3c 7a be
       -0.31588414 -0.4533756 -0.1411606 -0.24437134
0000a0 ea 39 91 be 32 fe 28 be 3b 3c c4 3e 17 e9 24 be
       -0.28364497 -0.16503218 0.38327202 -0.16104542
0000b0 14 4a 98 3d 01 16 fd bd 17 70 35 3e 56 7d 22 3e
       0.07436004 -0.123577125 0.1771854 0.15868124
0000c0 9d fc b1 bd 23 c0 1a be 7c 1b 59 be e3 fa a0 be
       -0.0869076 -0.15112357 -0.2120189 -0.3144141
0000d0 1d f3 37 be 95 cd c4 bd f2 c2 f4 bd 7d 1d 89 3e
       -0.17963834 -0.09609524 -0.11951245 0.2678031
0000e0 7e a8 96 3d c7 94 ad 3e 46 78 8f be 0b 3f a4 be
       0.07356356 0.3390257 -0.2802145 -0.32079348
0000f0 a0 b5 4e 3c 94 d9 9d 3d b4 d6 0c bf e7 44 18 be
       0.012616545 0.07707515 -0.5501511 -0.14870034
000100 fb 15 e3 bd 18 a3 9c be 74 6e 6b 3d aa bd 13 be
       -0.11088177 -0.3059318 0.057478383 -0.1442782
000110 94 63 6d be f6 e7 c0 bd f6 73 89 be c7 e7 9a bd
       -0.23182517 -0.09419243 -0.26846284 -0.07563739
000120 5d 25 f5 bd 68 45 39 be 6b c2 05 3c f3 6f 68 3e
       -0.11970017 -0.18092883 0.008164029 0.22698955
000130 7d cc a3 3e 9c 4c c9 bd 17 53 71 3c 15 10 58 be
       0.3199195 -0.09829065 0.014729283 -0.21099885
000140 5b ae 7b be 38 6b d4 bd c4 90 05 be 49 44 5e be
       -0.2457823 -0.10372013 -0.13043505 -0.21705736
000150 71 bc 12 be fb c2 87 bd a5 b4 1b bd 48 6d e9 3d
       -0.14329697 -0.066289864 -0.038014073 0.11397797
000160 1c f1 1f bd 7a d7 01 bc 81 22 41 be fa 19 5f bc
       -0.0390483 -0.007924909 -0.18860818 -0.013617033
000170 1e 8d a6 be fe 3c d6 3d 6e 82 a4 bd d5 ad c5 3e
       -0.3252954 0.10460852 -0.0803269 0.38609186
000180 8b 20 36 be c1 62 e4 3e 7f a3 59 3e eb 03 f0 bc
       -0.17785852 0.44606593 0.21253775 -0.029298743
000190 e7 66 25 bd 8f de 64 3e 73 9f af 3e 9f fa 95 be
       -0.04038134 0.22350524 0.34301338 -0.2929277
0001a0 5e d5 8d be f6 49 92 bc c6 db e4 3c 53 ab d8 3d
       -0.2770185 -0.017857533 0.027936827 0.105795525
0001b0 08 c9 d4 be ca ff d4 be 6d c8 ed 3c 83 84 94 bd
       -0.41559625 -0.41601402 0.029026235 -0.07251837
0001c0 f8 fe 08 3f 60 1b 33 3e be d4 85 3c 5e f9 ad be
       0.5351405 0.17490911 0.016336795 -0.33979315
0001d0 dc 5b 36 be b4 af 95 be b8 f6 42 3e 0d f0 a1 3e
       -0.17808479 -0.29235613 0.19039428 0.31628457
0001e0 57 12 89 bd 45 b6 a7 bd d7 05 37 3f 0d 44 7d be
       -0.06692951 -0.08189062 0.71493286 -0.2473299
0001f0 5e f8 93 bd 0d 4f 92 3e ec 2d c2 bc c8 79 c9 3d
       -0.07225107 0.28575936 -0.023703538 0.09837681
000200 b8 13 e5 bd f3 b6 63 3e ac ef 0c bf f4 47 bb bd
       -0.11185402 0.22237758 -0.5505321 -0.09144583
000210 1c a3 aa bd 5f 40 36 3d e2 68 a6 3e d2 ae aa 3e
       -0.08331892 0.044494983 0.32501894 0.33336502
000220 b5 da 99 3d 3f e3 40 3e 45 01 80 be 7f 9b ae 3d
       0.07512418 0.18836688 -0.2500097 0.08525752
000230 b5 f7 69 be d0 52 30 be d3 bd a5 be 2c 1e b8 3d
       -0.22848399 -0.1721909 -0.32371387 0.0899013
000240 51 9d f6 bd 66 1b 3d be f6 1a 83 bd 43 3e 34 be
       -0.120417245 -0.18467483 -0.06401627 -0.17601876
000250 84 28 f9 bd b2 45 bc bc 79 13 11 3d 01 36 64 3e
       -0.12165931 -0.022982452 0.03541896 0.22286226
000260 24 f3 2a 3e 94 07 cc 3e 05 fd b2 bd 39 e0 6c bd
       0.16694313 0.39849532 -0.08739666 -0.057831023
000270 ca e2 6a 3d 5a d3 0d bf 0f f9 69 be 08 b4 11 be
       0.05734519 -0.5540062 -0.22848915 -0.14228833
000280 d8 72 ff be 8b be c3 3e 63 10 9f 3e f6 34 20 3d
       -0.49892306 0.3823131 0.3106719 0.039113007
000290 9b 52 ea 3d a7 e7 00 3c 72 94 b1 bd 1e d7 17 be
       0.11441537 0.00786773 -0.08670892 -0.14828154
0002a0 b3 d9 f2 3d bc 29 b2 3d 8d 84 35 be 9b 95 08 bf
       0.11857929 0.086993665 -0.17726345 -0.5335328
0002b0 ab 53 b7 3e b4 73 1e be f0 37 2d be 44 bc 96 3d
       0.3580602 -0.15473825 -0.1691587 0.073601276
0002c0 fc 88 3e be fe 2d f1 be 1d 5c 5e be 8e 92 2d 3e
       -0.18606943 -0.47105402 -0.21714826 0.16950437
0002d0 3d d9 e1 be 34 76 34 be d9 d2 dd bd d8 c7 a1 be
       -0.44111052 -0.17623216 -0.108312316 -0.3159778
0002e0 39 48 5f be 66 c6 91 3d 42 7a a9 be e6 fd d3 be
       -0.21804895 0.071179196 -0.33101088 -0.41404647
0002f0 b1 09 b4 bd 52 ec 67 be c6 a6 93 be b5 45 52 be
       -0.08790911 -0.22648743 -0.28838176 -0.20534404
000300 a4 43 b1 3e f6 7e 4e be bd 57 41 3d f9 77 11 be
       0.34621918 -0.20165619 0.047202814 -0.14205922
000310 10 ef 35 3e 73 d4 17 3e c7 3f 7f bd a8 23 26 be
       0.17766976 0.14827137 -0.062316682 -0.1622454
000320 d7 e5 3c be 5c b3 a3 be c9 84 1f be a3 44 ff bd
       -0.18447052 -0.31972778 -0.15577997 -0.12464263
000330 f0 20 e0 bd 5d 94 82 3e 4a c7 c4 3d 9d 6e 99 3e
       -0.10943782 0.25503817 0.09608324 0.29967204
000340 39 3c 9c be 26 e5 a6 be ab a0 8a 3c 42 93 d3 3c
       -0.30514696 -0.325967 0.016922316 0.025827054
000350 f0 d4 ff be 6c 52 29 be d4 da b7 bd 1b 79 94 be
       -0.49967146 -0.16535348 -0.08977285 -0.28998646
000360 b6 7a 42 3d 5a 9b 2c be 99 37 7e be 3d 7b a8 bd
       0.047480308 -0.16856137 -0.24825896 -0.08226631
000370 04 12 58 be c4 13 93 bc 5d 71 db bc 98 c0 4b be
       -0.21100622 -0.01795376 -0.026787454 -0.19897687
000380 4a aa c0 bc 45 8d 52 3e 5a d8 af 3e 86 2d fc bd
       -0.0235187 0.20561703 0.3434475 -0.123133704
000390 db 35 7b 3c 56 e9 5f be 1c 6f 2e be 28 9a 13 be
       0.015332664 -0.21866354 -0.17034572 -0.14414275
0003a0 72 d5 04 be bd e4 8f be 9e 96 05 be 54 d6 84 bd
       -0.12972048 -0.281042 -0.13045737 -0.06486192
0003b0 18 79 f0 bc 42 fc d7 3d bc 22 b0 bc 29 e5 96 b9
       -0.029354617 0.10546161 -0.021500938 -0.00028780967
0003c0 db 38 47 be 13 40 d0 bc e5 c0 a9 be 2d 96 27 3e
       -0.19455282 -0.025421178 -0.3315498 0.16365881
0003d0 88 b2 e3 bd 9b a8 bf 3e 34 d0 21 be 31 8c d2 3e
       -0.111180365 0.37433323 -0.1580208 0.41122583
0003e0 2b 47 57 3e 7b a5 97 3a 5d 9e 47 bc ee e3 39 3e
       0.21023242 0.0011569703 -0.012183753 0.18153355
0003f0 a4 77 bb 3e 6d 18 7a be ac a9 91 be 0c 8d 1d bd
       0.36614716 -0.2442338 -0.28449762 -0.03846459

conv1.bias f4 [30]
000000 b3 f8 e8 3d ef 42 2b 3d ea c2 eb 3d 8f 0d 05 3d
       0.113755606 0.04181188 0.11511786 0.032483634
000010 68 df 56 bd b0 79 e0 3b 56 78 09 3e aa 80 50 3d
       -0.05245915 0.006850444 0.13424811 0.050903954
000020 01 93 c5 bd 67 63 09 bc b1 b5 68 bd a5 ef b0 bc
       -0.096471794 -0.008385516 -0.0568139 -0.021598646
000030 ab 4c 3e bb a7 ee 84 bd f0 09 84 3d a6 dc f9 bc
       -0.0029037397 -0.06490832 0.06447208 -0.030500721
000040 f4 ea 92 bd 4c 7d 56 3d 89 b6 48 bc ec 6a 50 bd
       -0.0717372 0.052365586 -0.012250551 -0.05088322
000050 92 14 3c bc 16 69 93 bd 4c 6f 45 bb be 46 af bc
       -0.011479514 -0.07197778 -0.0030126153 -0.021396037
000060 bc 97 9a bd 3e e3 d4 bb 5a 04 86 3d 65 27 53 bd
       -0.07548472 -0.006496816 0.06543799 -0.05155124
000070 63 f8 45 3d 88 0b 64 bd
       0.048332583 -0.05567506

bn1.weight f4 [30]
000000 92 86 9c 3f e5 a0 9e 3f e5 89 9c 3f 13 26 a0 3f
       1.2228568 1.2392851 1.2229582 1.2511619
000010 92 73 98 3f db 5c 9c 3f 71 14 95 3f 9a d0 91 3f
       1.1910269 1.2215837 1.1646863 1.1391785
000020 99 57 89 3f 41 14 e2 3f 83 f3 83 3f 20 30 73 3f
       1.0729858 1.7662431 1.0308689 0.9499531
000030 f3 ba 78 3f 5d b6 6d 3f 38 dd 4d 3f 19 d1 45 3f
       0.9716026 0.9285639 0.8041568 0.7727218
000040 18 3d 35 3f 61 90 45 3f ca 5b 3a 3f 4b 8d 30 3f
       0.70796347 0.7717343 0.7279631 0.68965596
000050 4c 22 33 3f eb 37 07 3f de 16 11 3f 40 d8 05 3f
       0.6997421 0.528197 0.5667552 0.52283096
000060 16 f3 02 3f c2 a4 0c 3f 95 57 12 3f fd 20 04 3f
       0.5115217 0.549389 0.5716489 0.51612836
000070 3b a1 f9 3e 9f e6 fe 3e
       0.48755822 0.49785325

bn1.bias f4 [30]
000000 a0 d7 05 bc a8 16 ae bb 1c ff fa bb 0f ce 33 bc
       -0.008169085 -0.0053127594 -0.007659806 -0.010974421
000010 ed 2d c6 bb 6e 6c 05 3c 2b 3c 54 3d 16 3c 6d 3d
       -0.0060479552 0.008143527 0.051815193 0.05791863
000020 9b 83 4b 3d 6f 3f 6b 3e 34 51 9d 3d bc 4c 9c 3d
       0.049686056 0.22973417 0.07681504 0.076318234
000030 a6 35 95 3d 3a 76 a8 3d c3 2d dd 3d 04 62 cf 3d
       0.07285623 0.08225675 0.10799744 0.10126117
000040 df d1 18 3e 93 8a 06 3e c0 d5 22 3e d3 e5 34 3e
       0.1492381 0.131388 0.15901852 0.17665796
000050 e6 cd 3e 3e 53 b4 63 3e cd 02 5d 3e 2f 07 7a 3e
       0.18633232 0.22236757 0.215831 0.24416803
000060 7c 92 71 3e 38 cc 74 3e b7 18 70 3e 98 9f 7a 3e
       0.23591036 0.23906028 0.23446928 0.24474943
000070 4f 94 7d 3e 3a 05 81 3e
       0.24763606 0.251993

bn1.running_mean f4 [30]
000000 d2 be 79 bf 71 e1 82 bf 7e cd 72 bf 7c 02 81 bf
       -0.97556794 -1.0225049 -0.94844806 -1.0078883
000010 0f cd 73 bf 95 ae 84 bf f8 77 51 bf f5 00 3e bf
       -0.9523477 -1.0365778 -0.8182368 -0.7422021
000020 02 fa 6d bf d3 ba 8f be ec 89 4e bf 74 ae 48 bf
       -0.92959607 -0.28072223 -0.806792 -0.78391194
000030 9d f0 55 bf ec df 88 bf 08 ac 54 bf 99 06 62 bf
       -0.8357027 -1.0693336 -0.83075 -0.8829132
000040 44 f2 5d bf 94 ed 48 bf 3c 6d 8d bf f6 37 44 bf
       -0.86697793 -0.78487515 -1.1048961 -0.7664789
000050 f0 15 4d bf 46 fe bc be 09 41 59 be b5 63 f5 be
       -0.801116 -0.36912745 -0.21216215 -0.47927633
000060 d9 90 fd be 80 02 32 bf 2e 7e e2 be 91 5a dd be
       -0.49524572 -0.69535065 -0.44236892 -0.4323316
000070 9a 87 a2 be 5b f1 d6 be
       -0.3174408 -0.41981015

bn1.running_var f4 [30]
000000 bf 1b d5 40 99 a6 d0 40 e4 25 cf 40 83 b0 c6 40
       6.659637 6.5203366 6.4733753 6.209047
000010 eb 5a c5 40 6b ef cf 40 10 8c b8 40 54 d3 e3 40
       6.1673484 6.497976 5.7670975 7.119547
000020 4a 59 ce 40 58 d7 6d 40 58 a5 ee 40 4f ea eb 40
       6.4483995 3.7162685 7.4576836 7.372352
000030 09 3f ee 40 06 e0 d1 40 9b 1e e3 40 6b bf cf 40
       7.4451947 6.5585966 7.097486 6.4921165
000040 53 4d cd 40 bf 1b ea 40 c0 9c ce 40 4d 82 e6 40
       6.415689 7.315887 6.4566345 7.203406
000050 bb 18 15 41 af 1d bb 40 81 cc b1 40 33 3f b9 40
       9.318538 5.8473735 5.556214 5.7889647
000060 dc 25 96 40 32 fd da 40 74 5a f4 40 1a a8 e0 40
       4.6921215 6.8434076 7.6360416 7.02052
000070 eb 31 d9 40 0f cd b1 40
       6.7873435 5.5562816

dense1.dense.weight f4 [96, 512]
000000 57 ff 8c bd c2 0b a1 3d 99 12 dc bc 28 97 4a 3e
       -0.0688464 0.07863571 -0.026864337 0.19784224
000010 fe 58 66 3e 6f 78 49 3e 13 b8 df bd 78 5a eb be
       0.22494885 0.19674848 -0.10923781 -0.4596746
000020 b5 ac d5 3e a2 64 02 3f 32 f9 a1 be fe 05 be be
       0.41733328 0.50934803 -0.31635433 -0.37113947
000030 e5 1a ec bd 4f 85 cf be 33 c6 be 3e e3 e1 18 3f
       -0.11528567 -0.40531394 0.3726059 0.59719676
000040 7d 62 3f bd 4e c6 2a 3b c5 52 3e 3b e5 49 3b 3e
       -0.046724785 0.002605814 0.0029041034 0.18289907
000050 30 8e 55 3c 8a da b5 bd 4c 0f bf bd 7d 2c 67 be
       0.013034388 -0.08879574 -0.093290895 -0.22575565
000060 59 72 bd ba 11 c0 24 bc c2 00 78 be 3f 44 85 bd
       -0.0014453634 -0.010055558 -0.24219039 -0.065071575
000070 50 bc 96 be 85 44 3f 3d 01 92 f1 bd 75 04 0a be
       -0.29440546 0.046696205 -0.11795426 -0.13478263
000080 15 41 fa 3e 94 de 73 3c 19 fc 96 be b6 e6 7f 3e
       0.4887778 0.01488461 -0.2948921 0.24990353
000090 a3 8a bc be 8b a2 0a be 1f b6 99 bd 2f 7d d8 be
       -0.3682452 -0.13538568 -0.0750544 -0.42283008
0000a0 20 f6 c8 bc 19 27 5e 3e bf 95 1f be de 1a 47 3d
       -0.024531424 0.21694602 -0.15584467 0.048609607
0000b0 22 b1 b5 bc c6 77 45 3c a5 55 36 bc 2e f0 88 3d
       -0.02217919 0.012052482 -0.011128818 0.06686436
0000c0 07 64 b5 3e 4c fb bb be 4e c4 0b 3c cb 8d 8b bc
       0.35427877 -0.36715162 0.008530689 -0.017035386
0000d0 74 25 34 3e 41 3d 3f 3e 9a 52 34 be 33 ce 04 3e
       0.17592412 0.1867571 -0.17609635 0.12969284
0000e0 80 68 99 3e 7f 8f e7 3e a2 3c cf be 10 61 b2 3e
       0.2996254 0.45226666 -0.40475947 0.34839678
0000f0 15 45 88 3e 8b 12 f0 bd 6a fd 78 be ea 6c b6 bd
       0.26615205 -0.11722287 -0.2431542 -0.089074925
000100 0c 99 e7 bd b9 6b 9b be 06 df 5c be 09 88 82 bd
       -0.11308488 -0.30355623 -0.21569452 -0.06373603
000110 25 fc 62 bd 0a b6 c2 3c 4d 18 dd bc d2 6a 77 3d
       -0.055416245 0.023768444 -0.026989127 0.060404606
000120 04 f8 09 be 1e f6 57 3e 47 57 8a be eb ff 9d 3e
       -0.13473517 0.2108998 -0.27019712 0.30859312
000130 dc 19 93 bc 22 cb d6 bc 5e f9 cc bd 96 fe d6 bc
       -0.017956667 -0.026219908 -0.100085005 -0.026244443
000140 47 f8 00 bc 4c 19 b2 bd 54 ac 6e bd 60 03 64 3d
       -0.007871694 -0.08696231 -0.058269814 0.05566728
000150 32 28 33 3e 29 a8 e2 be bd 04 b6 bd 43 70 dc 3d
       0.17495802 -0.4426892 -0.088876225 0.107636
000160 bd c0 12 3e 35 fa 5d 3e 79 42 9e be b7 86 5e 3e
       0.14331336 0.21677478 -0.3091009 0.21731077
000170 2e 45 86 be 29 51 78 ba 8d de d1 3d 01 7c e9 3c
       -0.26224655 -0.0009472543 0.10247526 0.028501512
000180 c4 22 2f be 94 9e f8 3c 10 93 2c bf 59 0e bf be
       -0.17103106 0.030349053 -0.674119 -0.37315634
000190 75 5c 89 be 07 d7 54 bf d9 6c 94 3e a5 c2 06 3e
       -0.26828352 -0.83140606 0.28989294 0.13160188
0001a0 07 ea 40 3d c2 eb c9 bc 20 db c9 bd 8a ca 1e 3d
       0.047098186 -0.02464855 -0.09856248 0.038767375
0001b0 cb a9 b5 3d 37 a4 a4 bd 03 6d b0 be 5a c1 e8 be
       0.08870276 -0.08039134 -0.3445817 -0.45460016
0001c0 c4 b0 a1 3c e5 d1 fd bd c7 ea 87 3e f2 a3 07 3e
       0.019737609 -0.1239355 0.26546308 0.13246134
0001d0 b0 8a 38 3e e0 1b bf 3d 04 f0 62 be bb 65 83 3e
       0.18021655 0.093314886 -0.22161871 0.25663552
0001e0 91 45 e4 be 3d 21 19 be 79 a1 1d 3c 14 cc d7 3e
       -0.44584325 -0.14954086 0.009621018 0.42147887
0001f0 56 17 10 be da 2e a3 be 8e e2 55 be 85 0c d7 bd
       -0.14071402 -0.31871682 -0.20887205 -0.10500435
000200 35 a0 74 be d2 87 6b be aa 42 90 3e c0 4e bb 3e
       -0.23889239 -0.2300103 0.2817586 0.3658352
000210 5d 98 8c bd 66 b6 ce 3d 18 94 79 bd d4 f8 36 be
       -0.068649985 0.100933835 -0.06093225 -0.17868358
000220 ad f6 df 3e ea fe af bc 21 64 b9 bd b9 56 fa bd
       0.43742886 -0.021483857 -0.09052301 -0.12223572
000230 a4 07 b4 3d 10 68 1f 3e 8d 84 24 be 0f fe 01 bf
       0.0879052 0.1556704 -0.16066189 -0.5077829
000240 ee 7b d9 be d5 07 83 3e 64 92 53 be 68 78 91 be
       -0.42477363 0.25591913 -0.20661312 -0.28412175
000250 91 b9 8f be 1e 16 21 be 54 ad 40 3e 50 4c ce be
       -0.28071263 -0.15731093 0.1881612 -0.40292597
000260 e2 b5 f8 3e b3 9c 27 be 9c ac 14 3d 27 45 e0 3d
       0.48576266 -0.1636837 0.036297426 0.1095069
000270 04 a7 c4 be 8f fd 20 3e d1 ab 31 3f 7f 42 89 3e
       -0.38408673 0.15721725 0.69402796 0.26808545
000280 14 18 f9 be 38 16 a7 3e 6b fa 78 be ea c7 01 bd
       -0.48651183 0.3263414 -0.24314277 -0.031684794
000290 59 c9 cc 3d 5e f6 35 3e 7b cd 86 be a9 84 b7 be
       0.099993415 0.17769763 -0.26328644 -0.358434
0002a0 c3 79 a8 bf ca c7 28 3e 99 28 47 be bb 02 0a 3e
       -1.3162159 0.16482463 -0.1944908 0.13477604
0002b0 6f 95 9a 3e 3f d1 f4 bd 64 26 b5 be 85 a1 7c 3e
       0.30192134 -0.11953973 -0.35380852 0.2467099
0002c0 b9 46 d7 bd 1f 7e 57 be c6 3b 36 be d1 c6 1e 3d
       -0.10511536 -0.21044205 -0.1779624 0.038763825
0002d0 cd 2f fd 3d 02 62 c7 3d ad b7 c0 3d 8f 87 25 be
       0.12362633 0.097354904 0.094100334 -0.16164993
0002e0 69 83 52 bd 57 8a c1 bd ea f6 a9 3e 03 27 84 3d
       -0.051394854 -0.09450214 0.33196193 0.064527534
0002f0 ed 99 17 be db 87 a4 3e 78 a5 8e bc 00 93 09 bf
       -0.14804812 0.321349 -0.017412886 -0.5373993
000300 3f 8a 27 bf 8c f0 87 3d 86 07 68 3e 0e 27 89 3e
       -0.6544532 0.066376776 0.2265912 0.2678761
000310 86 f6 08 be ce bb 19 3e ee eb 96 3e 86 a2 84 3d
       -0.13375291 0.15013048 0.29476875 0.064763114
000320 f6 b6 30 be 6f f1 13 3e 20 52 3d 3e c8 9f 89 bf
       -0.17257294 0.14447568 0.1848836 -1.0751886
000330 c9 29 38 bd cb 0d a0 be 6b 35 15 3e a0 fb f0 bc
       -0.044961724 -0.31260523 0.14571159 -0.02941686
000340 5f a5 44 3c 48 a6 21 bd 19 83 8a be 7d ef cd 3e
       0.012002318 -0.03946522 -0.27053145 0.40221778
000350 4d a4 ac be 05 20 c7 3d 6d 32 22 3e ff c5 d6 bd
       -0.33719102 0.09722904 0.15839548 -0.104869835
000360 51 3a 05 bd 74 9d 03 3d 75 10 7e be 5f 61 cc be
       -0.032526318 0.03213258 -0.24810965 -0.39918038
000370 45 9d 1f be 52 d1 4d 3c 9e 9b 93 3d cf 4e 10 3f
       -0.15587337 0.012562113 0.07207416 0.5637025
000380 c1 df 40 be 74 1c 05 bf be ce 91 be 71 d2 07 3f
       -0.18835355 -0.5199654 -0.28478044 0.53055483
000390 52 06 72 3e 84 93 87 be 3f 71 75 3e 58 dc b2 bd
       0.23635224 -0.26479733 0.23968981 -0.087334335
0003a0 8d d3 75 3d 68 0a ab 3d 30 25 1b 3e 70 0f c5 be
       0.060016204 0.08351594 0.15150905 -0.3848834
0003b0 f0 7c 67 3e 7c 36 5a be fb e4 7b be f5 80 08 bd
       0.22606254 -0.21309847 -0.24599068 -0.033326108
0003c0 96 cf 80 3e d2 0a 2a 3e 7c fd 67 be 3e fe 12 be
       0.25158376 0.1660569 -0.2265529 -0.14354798
0003d0 c7 e0 71 bc 3c 2c 6c bd aa 8a 57 3d 9a cb ac 3c
       -0.014763064 -0.057659373 0.052622475 0.021093179
0003e0 b7 9e 77 3e c3 68 b8 3d e0 83 4a 3e b1 0d 09 bf
       0.24181639 0.09004357 0.19776869 -0.53536516
0003f0 57 c0 56 be 5f 89 94 bd dd a1 44 bd 66 c4 b3 3e
       -0.2097181 -0.07252764 -0.048005927 0.35110778

dense1.dense.bias f4 [96]
000000 c8 2f 31 3e 70 98 7b 3e ee 66 8a 3e 65 77 28 3e
       0.17303383 0.24569869 0.27031654 0.16451795
000010 21 27 22 3e b9 4c 84 3e dd 09 c2 3d 2b 96 1a 3e
       0.15835239 0.25839785 0.094745375 0.15096347
000020 d6 7b 92 3f c9 07 4b 3e 1d 5e 31 3e 38 b7 34 3e
       1.1444042 0.19827189 0.17321058 0.17648017
000030 e9 52 62 3e c1 8d 60 3e 9d 42 80 3e 70 f0 06 3e
       0.2210194 0.21929075 0.25050822 0.13177657
000040 e7 c5 fd 3d 68 90 4a 3e f2 82 f8 3d 69 48 6c 3e
       0.123912625 0.19781649 0.12134351 0.23074497
000050 ea f1 83 3e ad b7 24 3e 5a c8 18 3e d9 ac 2b 3e
       0.25770503 0.16085692 0.14920178 0.16765155
000060 fd 60 ef 3c 07 ba 57 3e 6d da 8e 3d db 06 5c 3d
       0.029221052 0.21067058 0.06975255 0.053717475
000070 5b 7c 0f 3d 39 e1 1d 3e f6 89 72 3e 86 ac 76 3e
       0.035030704 0.15417947 0.2368544 0.2408925
000080 a5 c4 20 3e 1c 41 a1 3e ed ad a9 3e 68 72 40 3e
       0.15700014 0.31494987 0.33140507 0.18793643
000090 5c 08 8d 3e 20 8d 68 3e 79 65 a7 3e 67 e1 76 3e
       0.2754544 0.22710085 0.32694605 0.24109422
0000a0 08 9b 79 bd f5 8d 82 3e 4b fa 38 3e fe 50 0e 3e
       -0.060938865 0.2549893 0.18064229 0.13898084
0000b0 15 5b cb 3d c2 5a 9e 3e 84 6f 57 3e 19 98 e0 3d
       0.09929482 0.30928618 0.21038634 0.1096651
0000c0 ca 14 c3 3f f9 7c 44 3d ef af 6f 3e 07 b0 58 3d
       1.5240719 0.047970746 0.23406957 0.052902248
0000d0 fb cf 88 3e b3 c6 66 bb 94 92 a3 3d 53 41 59 3e
       0.26721177 -0.0035213649 0.07986942 0.21216325
0000e0 0a 64 15 3e c8 2b 44 3e 45 ea 95 3e 6b ff 9d 3e
       0.14588943 0.19157326 0.29280296 0.3085893
0000f0 34 21 14 3e d7 9b 86 3e ca 8e 4d 3e 34 9f 5d 3e
       0.14465791 0.2629077 0.20074001 0.21642762
000100 6f f0 65 3d 73 a0 80 3e 70 fe 2d 3e f3 1e 59 3e
       0.0561375 0.25122413 0.16991591 0.21203212
000110 fb 14 70 3e 9e c7 19 3e 05 66 ba 3c d4 51 a1 3d
       0.23445503 0.15017554 0.022753725 0.078769356
000120 9b 1a fe 3d 39 b3 e4 3d a6 41 4f 3e 7f 92 00 3e
       0.12407418 0.111669965 0.20239887 0.12555884
000130 9f 98 58 3e eb d2 a6 3d 9e 65 73 3e 89 3e 0d 3e
       0.2115197 0.08145698 0.23769233 0.13793387
000140 df 28 ff 3c ca a2 87 3e 56 49 25 3e fd 23 c1 3d
       0.031147419 0.26491386 0.16141257 0.09430692
000150 8d 69 a3 3e 19 6b 5b 3e b1 88 89 3e cf 72 48 3e
       0.31916466 0.21427573 0.268621 0.19575046
000160 91 38 43 3e 06 18 8e 3d 06 ac ba 3e 3f 47 38 3e
       0.19064547 0.06938176 0.36459368 0.17995928
000170 93 9d 63 3e 88 e2 4c 3e e3 9a 3a 3e 2f 96 0e 3e
       0.22228079 0.2000829 0.18223147 0.13924478

dense1.batch_norm1.weight f4 [96]
000000 4f 01 6a 3f e1 e5 3e 3f ed d9 5f 3f 81 57 82 3f
       0.91408247 0.7456952 0.87441903 1.0182954
000010 b9 35 2c 3f b1 ea 3a 3f 89 53 62 3f f5 b7 4c 3f
       0.67269474 0.7301436 0.88408715 0.79968196
000020 1d 1d 9f 3f bd 21 53 3f 35 0e 52 3f f8 54 4e 3f
       1.243076 0.82473356 0.8205293 0.805984
000030 26 7b 50 3f 27 98 6b 3f fe 1c 64 3f ee 6a 4f 3f
       0.8143791 0.9202904 0.8910674 0.81022537
000040 08 9b 69 3f 16 11 78 3f 49 53 7e 3f 2b 96 4a 3f
       0.91252184 0.9690107 0.99345833 0.7913539
000050 ee f0 6a 3f 45 d0 53 3f de 6b 54 3f 04 fd 40 3f
       0.9177388 0.8273967 0.8297709 0.7538607
000060 fc 95 4a 3f 78 fc 5e 3f 9a f9 4f 3f d9 19 15 3f
       0.7913511 0.87103987 0.81240237 0.58242565
000070 ef 7c 52 3f 07 39 1d 3f ad f4 5e 3f d2 60 73 3f
       0.82221884 0.6141514 0.87092096 0.9506961
000080 e1 d1 50 3f da 52 79 3f 02 05 4c 3f 43 24 65 3f
       0.8157025 0.97392046 0.7969514 0.89508456
000090 3f cb 58 3f 79 d7 51 3f 99 c8 40 3f d8 45 5e 3f
       0.8468513 0.8196941 0.7530609 0.86825323
0000a0 d4 7e 6a 3f 50 a8 66 3f 70 89 64 3f 2c 0b 35 3f
       0.91599774 0.90100574 0.89272213 0.7072017
0000b0 f8 b7 0e 3f 28 ad 6a 3f 03 33 45 3f 9f 16 4b 3f
       0.55749464 0.91670465 0.7703096 0.7933139
0000c0 c7 b2 a6 3f 69 ed 23 3f cb 27 67 3f 29 af d7 3e
       1.3023309 0.64034134 0.90295094 0.42125824
0000d0 91 99 71 3f e2 52 80 3f e6 08 11 3f 85 c0 6e 3f
       0.9437495 1.0025294 0.566542 0.9326251
0000e0 09 ed 52 3f df f9 46 3f 10 90 40 3f e5 9e 70 3f
       0.82392937 0.77725023 0.7521982 0.93992454
0000f0 7b e8 6f 3f 8e 96 68 3f c0 f2 6d 3f 56 bf 74 3f
       0.9371411 0.9085473 0.9294853 0.95604455
000100 52 e8 14 3f a0 7a 1a 3f df 86 5b 3f b0 33 3f 3f
       0.5816699 0.6034336 0.8575267 0.74688244
000110 47 6c 58 3f e6 ff 7d 3f ca 75 be 3e bb 71 5b 3f
       0.8454022 0.99218595 0.3719924 0.85720414
000120 2f a6 5f 3f 83 2b 45 3f 58 a4 4e 3f 95 16 68 3f
       0.8736295 0.7701952 0.8071952 0.9065946
000130 5a cc 6d 3f ba 14 8f 3f f7 97 65 3f ec f9 89 3f
       0.9288994 1.11782 0.89685005 1.0779395
000140 4c 32 51 3f c1 ad 61 3f 76 8d 7a 3f 10 c5 43 3f
       0.8171737 0.8815575 0.978721 0.7647257
000150 71 40 6a 3f 4d 05 59 3f de 1d 59 3f da 4a 4a 3f
       0.9150458 0.84773713 0.848112 0.79020464
000160 1a 95 5d 3f 37 38 4e 3f 4e 9d 75 3f e9 5b 4c 3f
       0.86555636 0.8055453 0.9594315 0.79827744
000170 fe 34 73 3f 8d 94 5e 3f 61 bd 6e 3f 1e 79 47 3f
       0.95002735 0.8694542 0.9325772 0.77919185

dense1.batch_norm1.bias f4 [96]
000000 79 3f 3c bf 8d 03 de be de df 21 bf d6 2c 59 bf
       -0.7353435 -0.43362084 -0.6323222 -0.8483404
000010 8d 80 cd be e8 f5 cb be 09 48 3a bf ce 83 30 bf
       -0.4013714 -0.3983605 -0.72766167 -0.6895112
000020 b4 ae 08 c0 b3 ff fe be 78 fb 15 bf 66 f9 02 bf
       -2.135663 -0.49804458 -0.58586836 -0.511618
000030 65 21 25 bf a7 42 45 bf 71 ec 3f bf 8c c9 bf be
       -0.6450408 -0.7705483 -0.74970156 -0.37458456
000040 f2 02 27 bf 9a 58 39 bf 1a f0 73 bf e7 a5 0f bf
       -0.6523887 -0.7240082 -0.9528824 -0.5611252
000050 53 3b 32 bf 15 d1 13 bf 7f 10 0f bf 74 e1 ff be
       -0.6962177 -0.5774091 -0.55884546 -0.49976695
000060 27 8f cc be 2e 6b 0a bf 16 ce 08 bf e8 5a 3f be
       -0.39952967 -0.54069793 -0.5343946 -0.18687022
000070 d2 a5 57 bf 07 3b c6 be 86 c1 01 bf 7f aa 2c bf
       -0.84237397 -0.3871691 -0.5068592 -0.67447656
000080 9b 4a 3c bf 27 f6 66 bf 8a 4b 13 bf 9d 8a 2c bf
       -0.7355134 -0.9021935 -0.5753714 -0.6739901
000090 67 b4 38 bf 6e c6 21 bf 05 57 29 bf db ce 35 bf
       -0.7215027 -0.63193405 -0.66148406 -0.7101876
0000a0 64 4d 4e bf 57 c8 38 bf fc f5 21 bf 40 7e 10 bf
       -0.8058684 -0.72180694 -0.6326597 -0.5644264
0000b0 74 91 23 bf ef 7e 33 bf 3b 9d e1 be 60 d6 3a bf
       -0.6389382 -0.7011556 -0.4406527 -0.7298336
0000c0 cd f8 0a c0 35 47 5b be 74 b3 29 bf 27 f7 00 be
       -2.1714356 -0.21413882 -0.6628945 -0.12594281
0000d0 68 b2 32 bf 40 24 9b bf a4 49 40 be af 19 23 bf
       -0.69803476 -1.2120438 -0.18778092 -0.63711065
0000e0 f9 86 08 bf 36 55 f4 be 94 e5 f0 be 9c 05 2c bf
       -0.5333095 -0.4772126 -0.47050154 -0.6719606
0000f0 f6 59 43 bf 14 9e 76 bf 72 a6 5b bf 30 e7 3d bf
       -0.76309144 -0.9633496 -0.8580085 -0.7418089
000100 98 2e 37 be 52 25 8b be 59 ae 6f bf 71 08 df be
       -0.17888868 -0.2717691 -0.9362541 -0.43561128
000110 61 8a 29 bf 17 7f 3f bf 74 17 83 3c ee b3 18 bf
       -0.66226774 -0.748033 0.016002394 -0.5964955
000120 c1 8d 16 bf 72 e3 29 bf 7a fa 2c bf cd 9b 20 bf
       -0.5881005 -0.6636268 -0.67569697 -0.62737733
000130 a6 d0 50 bf 65 1f 72 bf a2 d9 35 bf 1a d3 63 bf
       -0.8156837 -0.94579154 -0.71035206 -0.8899399
000140 1a 02 2e bf d5 49 46 bf 2f 2d 4d bf b0 c6 d4 be
       -0.67971957 -0.7745641 -0.8014707 -0.41557837
000150 0f 3a 37 bf fd de 38 bf 49 c4 ea be df 44 ff be
       -0.71572965 -0.72215253 -0.4585288 -0.49857232
000160 e3 e9 48 bf 6a 9c 0c bf 7d ea 62 bf a7 ab ea be
       -0.7848188 -0.5492617 -0.8863905 -0.45834085
000170 3e 1e 50 bf ed aa 51 bf 1d a4 2a bf 6b 52 33 bf
       -0.81296146 -0.8190144 -0.66656667 -0.70047635

dense1.batch_norm1.running_mean f4 [96]
000000 7e 0c 3f c0 2b 45 dd bf f5 40 fa bf 3f 9a f9 bf
       -2.9851375 -1.7286733 -1.9551073 -1.9500197
000010 7a 60 bb bf b0 71 07 c0 c8 7b 2f c0 b9 c9 30 c0
       -1.4638817 -2.116314 -2.74193 -2.7623122
000020 83 a0 16 40 b8 b8 cb bf de 6a d7 bf 52 3b dc bf
       2.3535469 -1.5915747 -1.6829488 -1.7205603
000030 e4 f0 1b c0 a0 f0 08 c0 60 7a 9e bf 77 f3 d7 bf
       -2.4365778 -2.1396866 -1.2381096 -1.6871175
000040 43 40 cd bf 85 9b c9 bf a7 9d 1c c0 c3 86 fb bf
       -1.6035236 -1.5750586 -2.4471223 -1.9650501
000050 c9 96 e2 bf f1 4f 81 bf 47 de fe bf c9 9d f5 bf
       -1.7702266 -1.0102521 -1.9911584 -1.9188777
000060 2f 60 4c c0 e6 ce 13 c0 0c 17 e4 bf 2c 2a 37 c0
       -3.1933706 -2.309503 -1.7819533 -2.861949
000070 4c b6 cf bf 3f 98 70 bf 3d bd 1e bf 2b 51 05 c0
       -1.6227508 -0.9398231 -0.62007505 -2.083079
000080 47 a6 18 c0 ad 8f 2e c0 d3 77 4a bf 10 23 ec bf
       -2.3851488 -2.7275193 -0.7908909 -1.84482
000090 82 07 a2 bf 80 95 0f c0 e0 30 0e c0 31 3a 45 c0
       -1.2658541 -2.2434998 -2.221733 -3.0816767
0000a0 16 cd 40 c0 b4 af 05 c0 13 15 d7 bf f4 0d 02 c0
       -3.0125175 -2.088849 -1.6803306 -2.0321016
0000b0 0d f9 4b c0 5f 42 0d c0 59 fa b4 bf 99 e4 5d c0
       -3.1870759 -2.207176 -1.41389 -3.4670775
0000c0 c2 d7 46 40 62 2d 59 c0 d7 25 17 c0 7e 3d 9d bf
       3.1069188 -3.393395 -2.3616846 -1.2284391
0000d0 e7 51 cb bf 10 f7 9a 3f 43 73 20 c0 38 28 74 bf
       -1.588437 1.2106647 -2.507035 -0.9537387
0000e0 62 a0 01 c0 32 a4 88 bf 6c 00 bb bf 93 14 eb bf
       -2.025414 -1.0675108 -1.4609504 -1.8365654
0000f0 3c e2 2f c0 62 d4 18 c0 79 75 db bf 78 b4 16 c0
       -2.7481833 -2.3879628 -1.7145225 -2.354765
000100 27 7b c4 c0 15 85 04 bf 88 a3 49 c0 3f d3 85 bf
       -6.1400332 -0.5176557 -3.1506062 -1.0455092
000110 6c 08 ac bf 21 30 a2 bf 2d 85 34 c0 e9 19 ca bf
       -1.344007 -1.2670938 -2.8206284 -1.5789157
000120 1b 3f 22 c0 91 0f 13 c0 22 6d 14 c0 6b 13 d7 bf
       -2.5351017 -2.297825 -2.319161 -1.6802801
000130 20 6c 4d c0 19 f8 75 c0 a6 23 c3 bf e0 e1 07 c0
       -3.2097244 -3.8432677 -1.5245254 -2.1231613
000140 f7 63 df bf aa 6d 11 c0 aa 09 21 c0 55 71 59 bf
       -1.7452382 -2.2723184 -2.5162148 -0.84938556
000150 e3 78 2b c0 a3 e2 03 c0 cf 50 9e bf 02 b5 82 bf
       -2.6792533 -2.0607078 -1.2368411 -1.0211489
000160 39 ae 38 c0 73 b1 ef bf a4 29 27 c0 e0 46 a4 bf
       -2.8856337 -1.8726028 -2.6119165 -1.2834129
000170 ef 85 e3 bf 28 f2 3a c0 85 c7 0d c0 71 af 13 c0
       -1.7775248 -2.92103 -2.2153027 -2.307583

dense1.batch_norm1.running_var f4 [96]
000000 09 53 2e 40 66 7e 43 40 15 90 26 40 b6 f4 2c 40
       2.723818 3.0545897 2.602544 2.702436
000010 9d f1 34 40 ae f6 53 40 59 ce 71 40 43 39 2c 40
       2.827247 3.3119311 3.7782195 2.690995
000020 d9 0c b1 3f e1 70 2f 40 03 62 54 40 dc 2e 38 40
       1.3832046 2.7412646 3.3184822 2.87786
000030 09 4a 41 40 59 3a 42 40 69 af 2c 40 da f1 4f 40
       3.0201437 3.0348113 2.6982062 3.2491364
000040 b1 56 27 40 b7 32 53 40 ab 1a 20 40 29 03 31 40
       2.6146662 3.2999704 2.5016277 2.7658179
000050 81 bd 46 40 fd 66 eb 3f de 2e 37 40 07 22 73 40
       3.1053164 1.8390805 2.8622355 3.7989519
000060 a4 16 8f 40 49 df 84 40 32 5b 24 40 7b 69 d2 40
       4.4715137 4.1522565 2.5680661 6.575376
000070 d1 65 f8 3f 66 81 6e 40 2e a0 64 40 ba 70 43 40
       1.9406072 3.7266479 3.5722766 3.0537553
000080 4e 1f 3c 40 08 dc 38 40 b0 1b fa 3f de 50 52 40
       2.9394107 2.8884296 1.95397 3.2861857
000090 97 94 18 40 20 ac 23 40 df 83 3c 40 37 85 3e 40
       2.3840692 2.5573807 2.9455488 2.9768808
0000a0 a1 0b 33 40 71 9d 41 40 42 92 30 40 f1 b6 63 40
       2.7975848 3.0252345 2.7589269 3.5580409
0000b0 35 fd 87 3f 3f 21 03 40 8f d8 1f 40 69 3b 45 40
       1.0624148 2.0489042 2.4975927 3.081751
0000c0 87 e0 f7 3f 56 4c cd 40 dc 27 62 40 e3 7b e0 3f
       1.9365395 6.4155684 3.5336828 1.7537807
0000d0 ea 96 31 40 f5 68 82 3f ab 82 1d 41 9b a5 2a 40
       2.774836 1.018828 9.844401 2.6663578
0000e0 bb 47 63 40 5d 2e 3e 40 30 74 1c 40 37 00 33 40
       3.551253 2.9715798 2.4445915 2.796888
0000f0 b6 a8 83 40 06 ba 2a 40 ad cb 1b 40 8f 02 64 40
       4.1143446 2.667604 2.4343064 3.5626562
000100 c8 ca 4e 41 2a 34 0c 40 cf 91 6f 40 47 93 18 40
       12.924507 2.1906838 3.7432745 2.383989
000110 fb 49 43 40 b5 6e 26 40 50 04 17 40 7e 45 73 40
       3.0513904 2.600507 2.3596382 3.8011165
000120 47 a4 7f 40 96 39 59 40 dc c7 3d 40 b0 7f 56 40
       3.9944017 3.3941398 2.9653234 3.3515434
000130 5a 82 1c 40 a4 56 7d 40 9f 83 13 40 59 44 5d 40
       2.445456 3.9584131 2.3049085 3.4572966
000140 5c 84 53 40 8d 2f 17 40 27 76 81 40 1f e2 3c 40
       3.3049536 2.3622773 4.045673 2.9513013
000150 18 26 81 40 5d 6d 1a 40 70 4a 2d 40 b0 01 5e 40
       4.0359 2.412925 2.7076683 3.468853
000160 0b 42 4d 40 94 fa 06 40 6d 20 3c 40 06 78 39 40
       3.207156 2.109044 2.939479 2.8979506
000170 ba 3e 17 40 38 5a 52 40 70 b4 3c 40 4e 5c 34 40
       2.3632035 3.2867565 2.948513 2.8181338

dense2.dense.weight f4 [15, 96]
000000 c8 cb fd be a9 e1 c4 be 21 ee 40 be bc e3 a5 be
       -0.49569535 -0.38453415 -0.18840839 -0.3240031
000010 fa 18 1b 3d 9e 39 42 bd 12 0a 43 be d7 fa ca 3d
       0.037865616 -0.04741823 -0.1904681 0.09911125
000020 af 99 92 bd c6 4b 01 bf 3e 06 ec be 81 9e 88 3e
       -0.07158219 -0.50506246 -0.46098512 0.2668343
000030 0e e9 71 3d 6c ab be be 35 87 46 3e f0 c2 54 3e
       0.05906015 -0.3724016 0.19387515 0.20777488
000040 8e 72 c5 be b3 6a 69 bd 30 e4 67 3e 39 93 42 be
       -0.3856396 -0.056986522 0.2264564 -0.19001473
000050 98 b8 3c be fc 5d 0f 3e 19 32 00 bf 18 a2 b1 be
       -0.18429792 0.14000696 -0.5007644 -0.3469398
000060 76 f6 2f 3d 5b 58 87 3e 58 32 08 3e 1c ef 0c bf
       0.042959653 0.26434597 0.13300455 -0.5505235
000070 0a 1f be 3c e3 c8 10 3e 55 5a 45 be 91 3c 05 bd
       0.02320816 0.14139132 -0.1927274 -0.032528464
000080 9c 65 b1 be c5 9a a7 3e 36 33 e8 bc 7f 0c 51 3e
       -0.34647834 0.32735267 -0.028344732 0.20414923
000090 46 40 06 be 79 72 93 be 95 01 b9 bd 54 08 d4 bd
       -0.13110456 -0.28798273 -0.09033505 -0.10353151
0000a0 94 85 0c bf 90 2c 8b be fc a3 1a 3d 19 34 0c 3b
       -0.54891324 -0.27182436 0.037754044 0.0021393357
0000b0 a3 fd 1a be 1a 1c 97 bd e1 8c 83 be 2f 13 e9 be
       -0.15135817 -0.07378407 -0.2569342 -0.45522448
0000c0 58 1b e8 bd 37 b9 c7 be 96 1e 5e 3e 19 97 6f bd
       -0.113333404 -0.39008495 0.21691355 -0.058493707
0000d0 2a 60 53 3e 39 2b 00 be 40 61 aa bc 78 33 02 3e
       0.20642152 -0.12516488 -0.020798326 0.12714946
0000e0 e5 e6 c7 bd e9 c0 74 be 78 32 77 be 15 c7 62 bd
       -0.097608365 -0.23901714 -0.24140346 -0.05536564
0000f0 f1 34 a0 3e 4f 20 92 be 5f 24 37 be 4d b9 fb be
       0.3129039 -0.28540275 -0.17884968 -0.4916481
000100 fc 73 95 3e 62 34 2b be 79 d9 89 be d5 87 18 3e
       0.29190052 -0.16719201 -0.2692373 0.14895566
000110 dd 7e 5b be 47 67 11 be 49 f2 c2 bc 9d 5f 87 be
       -0.21435113 -0.14199553 -0.023797171 -0.26440135
000120 be 04 13 bf c4 11 02 be 15 82 e1 3d 24 47 32 be
       -0.5742911 -0.1270209 0.11011139 -0.1740995
000130 ee e5 81 be 29 4a d3 3e 44 e9 0d 3e c3 63 9f bd
       -0.25370735 0.41267517 0.13858515 -0.077827
000140 c2 6d 5a 3c 01 ee 28 be ae 19 a6 be ca a4 ed bd
       0.013331832 -0.16497041 -0.32441467 -0.11603697
000150 0b a8 c2 be 4c 65 5e be 53 96 b5 be 8c 99 be be
       -0.38018832 -0.21718329 -0.3546625 -0.37226522
000160 62 1c d2 3d 20 43 2c 3e 5e a5 53 be 1e 5d 0f 3e
       0.1025932 0.16822481 -0.20668551 0.14000365
000170 96 a5 6e 3e 19 82 10 bf 50 12 f3 bd a4 8d 98 3d
       0.23305354 -0.56448513 -0.11868727 0.07448891
000180 2b a4 9d be 56 b0 fa bd 18 2c 02 bd fe 57 51 3e
       -0.30789313 -0.12240665 -0.031780332 0.20443723
000190 79 bb 77 be 95 dc 6c be 6a 6b d0 3e 76 72 54 3b
       -0.24192609 -0.2313102 0.4070695 0.0032416857
0001a0 8f 9b 14 bd 6f 22 e3 bd 45 50 7d 3e e9 56 40 3e
       -0.036281165 -0.11090552 0.24737652 0.18783154
0001b0 89 9b a5 be 6a e4 14 be 1a 73 5a 3e 4b 9d 9f 3c
       -0.32345226 -0.14540258 0.2133297 0.019484183
0001c0 eb 4d 96 be d6 6b a4 bd a3 14 9e 3d cb 54 84 be
       -0.29356322 -0.080283806 0.0771878 -0.25845942
0001d0 75 da 30 bd 79 5e c3 be 0a 3b 18 bf 9e 2d 87 3e
       -0.043177087 -0.38158014 -0.59465086 0.2640199
0001e0 23 e2 cb 3d 5a 18 6c be 7e 64 ee be f2 5f 4b 3e
       0.099552415 -0.23056164 -0.46561044 0.19860819
0001f0 7c 4e 77 be f4 52 44 bf 04 f4 28 3e 88 fb af be
       -0.24151033 -0.76689076 0.16499335 -0.3437159
000200 9f 31 fb bd f9 fa 3b be 77 ae a3 bd d2 02 47 3d
       -0.12265324 -0.18357457 -0.07992261 0.048586674
000210 bc c7 8a be 04 4a fd be 90 1d cb bd 74 e4 3b 3e
       -0.2710551 -0.49470532 -0.09917748 0.18348867
000220 f8 49 c6 bd 2e 76 a8 be 85 f8 91 be 46 0c 85 be
       -0.09682077 -0.32902664 -0.28509918 -0.25985926
000230 e7 0f 96 be 9d 95 b1 3d db ce ac be d6 2f 01 bf
       -0.29309008 0.086711146 -0.33751568 -0.50463617
000240 bd 17 87 bc b3 f5 e5 be 2a 40 da ba c3 57 c4 3c
       -0.016490811 -0.44914016 -0.0016651202 0.02396763
000250 ef 80 8c be b7 c6 c6 3c 6b fc 97 bc 19 1d 7b be
       -0.2744212 0.024264676 -0.01855298 -0.24522819
000260 6f 2e 8c be 49 e8 0e 3e 3b 87 7d be d9 4b 25 bd
       -0.27379176 0.13955797 -0.24758618 -0.040355537
000270 45 62 7e 3e 00 6f da be 1e 1b 24 be fb fe 40 3e
       0.24842174 -0.4266281 -0.1602597 0.18847267
000280 3c f3 5e 3e e8 bf c4 bd e4 d4 86 bd 85 4b 02 3e
       0.21772474 -0.09606916 -0.065835744 0.12724121
000290 20 39 04 be 46 22 67 be 63 46 2a bd 36 f9 56 3e
       -0.12912416 -0.22571668 -0.041571032 0.20993504
0002a0 f6 5d 68 3e 98 b4 f4 bd 53 7d 05 3c 28 b6 5f 3e
       0.22692093 -0.11948508 0.008147555 0.21846831
0002b0 b2 60 44 bd c1 8c 9d be 4d 99 00 3e 42 2d c0 bd
       -0.04794378 -0.3077145 0.1255848 -0.09383632
0002c0 6b dc f6 bd 92 6c b6 be 56 73 6e be 4a 80 d4 3d
       -0.1205376 -0.35629708 -0.23286185 0.10376032
0002d0 20 ec 2b be c5 97 58 bd 19 c9 33 3e 17 39 82 be
       -0.16789293 -0.052879114 0.17557181 -0.2543418
0002e0 99 d8 36 be 1c 74 88 be ce 19 81 be 31 35 86 be
       -0.17856063 -0.26651084 -0.25215 -0.26212457
0002f0 18 f1 87 be 52 03 2e be 7b b8 0b be e3 d9 56 3e
       -0.26551127 -0.16993454 -0.13644592 0.20981555
000300 a1 b7 13 bf 20 bc e4 be d4 75 bf be cd 00 ee be
       -0.5770207 -0.44674778 -0.37394583 -0.46484986
000310 69 f3 27 bd ca 77 65 3e 1c 57 94 be c1 b6 00 bf
       -0.04100362 0.22408977 -0.2897271 -0.5027886
000320 7b c3 1d bd c7 81 a3 bd 8d 4d b4 bd e0 24 a2 be
       -0.038516503 -0.079837374 -0.08803854 -0.31668758
000330 69 62 75 bd 59 5d 86 be 26 f3 05 be fb 87 93 be
       -0.059908304 -0.26243094 -0.13081035 -0.28814682
000340 ed 59 e4 be b9 68 63 be 7b 05 b3 bd b8 64 59 be
       -0.44599858 -0.22207917 -0.0874128 -0.21229827
000350 eb 8a 01 3e 22 98 9a be a3 39 4a 3e d7 7d d6 bd
       0.12650649 -0.30194193 0.19748549 -0.10473221
000360 d0 61 a6 3e a9 68 49 be ef ae 08 3e c5 b3 05 be
       0.324965 -0.19668831 0.13347982 -0.13056858
000370 eb 25 79 3e 42 80 df 3d 15 6b 90 3e 4e 0a 08 3e
       0.24330871 0.10913135 0.28206697 0.13285181
000380 9c bc 5e be de 34 b2 3e 98 6a 0b be b0 3a 62 be
       -0.21751636 0.3480596 -0.13614881 -0.220927
000390 8a 52 79 be c4 17 38 3e 00 83 5b be 93 02 b3 3e
       -0.24347892 0.17977816 -0.21436691 0.349629
0003a0 af 65 95 3d db 20 f3 be a1 e5 37 3e 3f 30 45 3e
       0.07294785 -0.47486004 0.1795869 0.19256686
0003b0 76 0d 22 bf ec 00 16 be 92 12 4a be e4 8c cd be
       -0.6330179 -0.14648789 -0.19733647 -0.40146554
0003c0 02 73 2b bd 1a 6d c8 be ae b1 2b be 6f f2 f6 bb
       -0.041857727 -0.39145738 -0.16766998 -0.0075362246
0003d0 3f 97 d0 3d 7f 9d ab bc 34 14 5c bc 17 d5 2f 3e
       0.10185098 -0.020949123 -0.013432551 0.17171131
0003e0 f7 03 db 3d f6 57 8b be 24 df 8f 3d 60 31 08 be
       0.106941156 -0.27215546 0.070249826 -0.13300085
0003f0 b3 f1 92 be 42 9e a0 be 03 44 4f 3c 99 73 57 be
       -0.28700027 -0.3137074 0.012650493 -0.21040191

dense2.dense.bias f4 [15]
000000 56 75 0c 3f 67 18 f8 3e e1 55 c5 3e 42 57 b6 3f
       0.5486654 0.48456118 0.38542083 1.4245379
000010 f6 55 cc 3e 3e de c2 3e 9f 92 39 40 f6 2f e5 3e
       0.39909333 0.38060182 2.899574 0.44763154
000020 82 c7 0b 3f 3e 54 f7 3e 04 cb e3 3e 06 af 50 3f
       0.546013 0.4830646 0.44490826 0.81517065
000030 1f 3b 02 3f 1a 42 91 3c cd d8 26 c1
       0.5087146 0.017731715 -10.42793

dense2.batch_norm1.weight f4 [15]
000000 93 c9 8f 40 a2 11 9f 40 3f 6e 6e 40 5c 8f b9 40
       4.493356 4.9709024 3.725479 5.79875
000010 a0 58 70 40 31 b9 70 40 e4 ea c4 40 86 2a 84 40
       3.7554092 3.7613032 6.153673 4.130191
000020 50 88 95 40 f9 88 7a 40 a3 8b 8b 40 23 61 a3 40
       4.6728897 3.9146101 4.3607955 5.1056075
000030 53 a1 8a 40 4d 4e dd 3e e9 25 63 41
       4.332193 0.432238 14.196755

dense2.batch_norm1.bias f4 [15]
000000 8d e4 3c c0 6f dc 47 c0 fc 99 27 c0 d9 44 2b c0
       -2.9514496 -3.1228292 -2.6187735 -2.6760771
000010 0f d8 15 c0 f1 7a 16 c0 41 01 1c c0 8c c9 37 c0
       -2.3413122 -2.3512537 -2.4375765 -2.8716764
000020 f2 e5 30 c0 0d 8d 16 c0 3f 15 26 c0 d4 5d 2b c0
       -2.7640347 -2.352359 -2.5950468 -2.6776018
000030 ad 57 32 c0 e3 a2 34 bf f2 2a b3 40
       -2.7866013 -0.70561045 5.5989923

dense2.batch_norm1.running_mean f4 [15]
000000 3d ba 8c 3e 57 08 81 3e 52 85 b0 3d ae 29 98 3f
       0.2748584 0.25201675 0.08619179 1.188772
000010 8b 6d 24 3e 32 18 04 3e 65 99 2b 40 f0 c6 32 3e
       0.16057412 0.12899855 2.6812375 0.17458701
000020 92 56 9a 3e 49 34 77 3e 09 d3 50 3e cd d6 0b 3f
       0.30144173 0.24141039 0.20393004 0.54624635
000030 32 8d 87 3e fe fa 28 be f2 3e 29 c1
       0.2647491 -0.16501996 -10.5778675
