classification/model_rnafm/13_final/120Epoch/rna_type_checkpoint_fold_3.pt (torch, 252002 bytes, 24 tensors)

layer1.conv1.weight f4 [30, 30, 5]
0.2462595 -0.11148942 0.52184874 0.96653867 0.37235346 -0.071964145 -0.63082516 -0.783454
0.2524593 0.11840617 0.39859653 -0.5113074 -0.64171886 0.36433676 -0.095307566 0.18726973
-0.107927695 -0.41756105 -0.18236658 -0.62698007 0.13132937 0.42572436 0.6289536 0.0073809247
0.19172806 0.29562387 0.19990182 0.32544038 -0.16672798 0.46387005 -0.278811 -0.13034518
-0.5078702 -0.6024218 0.29620606 0.08329634 0.34107107 0.10910857 -0.050809726 0.22221543
-0.13612075 -0.123114765 -0.3304279 0.06607097 -0.004257373 0.29438084 -0.11343428 -0.33761415
0.1376003 -0.21675014 0.18283461 0.085489124 0.24474238 0.29266754 0.20871784 0.35562903
-0.027180394 0.17849992 0.31718886 0.26466444 0.4026974 0.20689143 0.1806763 0.2630847
0.23654872 0.0021916507 -0.007903868 0.06667725 -0.012722827 0.1686836 -0.05444431 -0.21973795
-0.2547872 -0.14091925 0.100180484 -0.30928516 -0.44882253 -0.1382895 -0.15268801 0.007306379
-0.43824202 -0.18541262 0.25573283 -0.07579091 -0.041964643 -0.20943432 0.05626117 0.24860609
0.14819649 0.019991808 0.09202787 0.11346959 -0.04849791 0.16012065 0.013152452 -0.16618203
-0.05760962 -0.13943514 0.26895177 -0.2378103 -0.24944931 -0.1652335 -0.15902087 0.0798757
-0.11217042 -0.12481975 0.06738685 -0.15889385 -0.11997536 0.20960623 -0.16737498 0.15401171
-0.15492381 -0.048693817 -0.0115878135 -0.19593957 0.17678568 0.19740546 -0.06881177 0.028046042
0.03340922 0.056620102 0.23900138 0.12545331 -0.00066799717 0.028987855 0.0569502 0.07779036
-0.008194713 -0.05412285 0.051201496 0.08332963 -0.18556051 -0.20652635 0.06725716 -0.07311457
-0.011700659 -0.11463136 -0.3423629 0.03314374 0.061072268 0.014258868 -0.042053457 -0.29748362
0.000659433 -0.12895657 0.017720273 -0.24042866 -0.3278325 -0.17874439 -0.20072703 0.69304144
0.06913987 0.18728551 1.0120147 -0.13550203 -0.14177932 0.46845353 0.05653409 -0.08864931
-0.22326775 0.016378328 0.57585746 -0.17786919 -0.35554895 0.5674787 -0.32978797 -0.55022234
-0.21948837 -0.5716898 0.33937654 -0.1968797 -0.5788261 -0.21574129 0.17170075 -0.04330677
-0.38958308 -0.0039175823 -0.1364932 -0.03008774 -0.114294715 0.19598518 -0.061808243 -0.04114447
0.0528477 -0.044945918 0.57165504 0.38451916 -0.057391897 -0.34123266 -0.061515782 0.013187439
0.10269486 -0.2838917 0.2211719 -0.46107006 0.0004385284 0.32420015 -0.14421324 -0.12046857
0.022961473 -0.31087714 0.36444822 0.08023753 -0.12986897 0.10714418 -0.42213708 -0.1273111
0.41044223 0.108606614 -0.2739953 -0.51565206 -0.423993 -0.22608161 -0.5021223 -0.06852469
-0.13464783 -0.26048765 -0.3613383 -0.30417928 -0.076438084 0.115434326 0.12555045 0.14304663
0.072069086 0.229406 0.28178698 0.28900835 0.11808196 -0.07761929 0.17078058 0.19349314
0.17232884 0.1046541 -0.025229871 0.03922011 -0.042159934 -0.012119736 -0.07062153 0.0151642775
-0.39069432 -0.010355284 0.028926754 -0.22525367 -0.088085055 -0.1525366 -0.059820473 0.16751778
0.11586352 -0.18240353 -0.032171037 -0.1582333 0.006699408 0.06587756 0.22331579 -0.16565329
00000000: 732b 7c3e 9154 e4bd e197 053f 146f 773f
00000010: 1da5 be3e f061 93bd c27d 21bf 7190 48bf
00000020: 5842 813e ef7e f23d d814 cc3e 0be5 02bf
00000030: b047 24bf 598a ba3e 9d30 c3bd a3c3 3f3e
00000040: 3209 ddbd 90ca d5be 4ebe 3abe c481 20bf
00000050: 357b 063e 8bf8 d93e 1a03 213f afdb f13b
00000060: 5c54 443e 035c 973e 10b3 4c3e 1fa0 a63e
00000070: bdba 2abe 6080 ed3e 51c0 8ebe 3579 05be
00000080: c803 02bf 5138 1abf 52a8 973e 4697 aa3d
00000090: dea0 ae3e 5074 df3d dc1d 50bd 718c 633e
000000a0: 3d63 0bbe 9823 fcbd d92d a9be 3750 873d
000000b0: 6f81 8bbb 16b9 963e 3b50 e8bd c3db acbe
000000c0: 18e7 0c3e c0f3 5dbe ff38 3b3e ec14 af3d
000000d0: bf9d 7a3e 85d8 953e 21ba 553e 0215 b63e
000000e0: 6ba9 debc afc8 363e 9466 a23e 1982 873e
000000f0: 5b2e ce3e 59db 533e 3503 393e 0ab3 863e
00000100: d439 723e cca1 0f3b 3a7f 01bc 158e 883d
00000110: 6773 50bc 65bb 2c3e ff00 5fbd fc02 61be
00000120: 7873 82be 234d 10be 6d2b cd3d a05a 9ebe
00000130: 11cc e5be c39b 0dbe 3f5a 1cbe 596a ef3b
00000140: 4261 e0be cedc 3dbe 6aef 823e 4438 9bbd
00000150: 1ee3 2bbd f375 56be 1d72 663d 9892 7e3e
00000160: d2c0 173e dcc5 a33c 1c79 bc3d bf62 e83d
00000170: bfa5 46bd abf6 233e 627d 573c 9f2b 2abe
00000180: 11f8 6bbd 16c8 0ebe 0cb4 893e 8b84 73be
00000190: a46f 7fbe f832 29be 5ed6 22be df95 a33d
000001a0: 9bb9 e5bd 7fa1 ffbd 1e02 8a3d 12b5 22be
000001b0: a4b5 f5bd 04a3 563e 5964 2bbe 3fb5 1d3e
000001c0: 59a4 1ebe 2b73 47bd d0da 3dbc 62a4 48be
000001d0: 4e07 353e a824 4a3e 2fed 8cbd d0c0 e53c
000001e0: 1bd8 083d 7bea 673d c7bc 743e d576 003e
000001f0: 881c 2fba f077 ed3c 9d44 693d 8d50 9f3d
00000200: 1e43 06bc ecaf 5dbd a9b8 513d baa8 aa3d
00000210: 9303 3ebe a57b 53be 1fbe 893d 17bd 95bd
00000220: 1fb4 3fbc d9c3 eabd 314a afbe bbc1 073d
00000230: ea26 7a3d 079e 693c 3f40 2cbd c64f 98be
00000240: cddd 2c3a 310d 04be 1b2a 913c ee32 76be
00000250: a9d9 a7be c508 37be 638b 4dbe 2a6b 313f
00000260: 3499 8d3d c6c7 3f3e b389 813f 0bc1 0abe
00000270: 992e 11be 24d9 ef3e 4a90 673d c58d b5bd
00000280: 4da0 64be d82b 863c 656b 133f 5723 36be
00000290: 830a b6be 4946 113f f8d9 a8be 5fdb 0cbf
000002a0: 8fc1 60be 435a 12bf c3c2 ad3e d59a 49be
000002b0: f32d 14bf 49eb 5cbe 52d2 2f3e 7162 31bd
000002c0: 6f77 c7be 105f 80bb e0c4 0bbe 907a f6bc
000002d0: 5913 eabd 57b0 483e a42a 7dbd 1b87 28bd
000002e0: d476 583d 3619 38bd fc57 123f b2df c43e
000002f0: c413 6bbd 0cb6 aebe f9f7 7bbd 2110 583c
00000300: af51 d23d 415a 91be e37a 623e 6011 ecbe
00000310: 49ea e539 90fd a53e a3ac 13be 3ab8 f6bd
00000320: b319 bc3c 4a2b 9fbe f598 ba3e 9353 a43d
00000330: 5ffc 04be 686e db3d 5a22 d8be d75d 02be
00000340: 7c25 d23e 256d de3d 1d49 8cbe c601 04bf
00000350: 9c15 d9be f081 67be 168b 00bf ac56 8cbd
00000360: 1fe1 09be a35e 85be 5501 b9be 63bd 9bbe
00000370: 928b 9cbd d568 ec3d 4c90 003e d17a 123e
00000380: f598 933d 68e9 6a3e 6246 903e e7f8 933e
00000390: f4d4 f13d ddf6 9ebd 1be1 2e3e 1123 463e
000003a0: f976 303e e454 d63d e0ae cebc 44a5 203d
000003b0: e5af 2cbd db91 46bc 05a2 90bd 9773 783c
000003c0: 1609 c8be 36a9 29bc cdf7 ec3c e6a8 66be
000003d0: f065 b4bd 8e32 1cbe 5006 75bd c889 2b3e
000003e0: da49 ed3d fec7 3abe c7c5 03bd e907 22be
000003f0: b586 db3b d0ea 863d e5ac 643e 04a1 29be

layer1.conv1.bias f4 [30]
-0.12931651 0.0721359 0.0073187063 -0.00931654 0.034671947 -0.051983356 -0.08686337 0.091983594
0.011181576 0.16148096 -0.0730586 -0.046226203 0.078478545 0.09178976 -0.08810924 0.052112736
-0.012087097 -0.015324051 0.020144237 0.024582755 0.03830347 0.0966733 -0.021091321 -0.01944532
-0.035520885 0.051299267 -0.07755169 -0.09952472 -0.07289947 0.025768798
00000000: 8c6b 04be fdbb 933d c2d1 ef3b 67a4 18bc
00000010: 2c04 0e3d 80ec 54bd 6ce5 b1bd e561 bc3d
00000020: ee32 373c 445b 253e bf9f 95bd b057 3dbd
00000030: 5cb9 a03d 45fc bb3d 9e72 b4bd 2a74 553d
00000040: f608 46bc ba11 7bbc 8705 a53c c661 c93c
00000050: 19e4 1c3d a7fc c53d b5c7 acbc cb4b 9fbc
00000060: 597e 11bd 2e1f 523d 6cd3 9ebd 9ed3 cbbd
00000070: 514c 95bd 1619 d33c

layer1.bn1.weight f4 [30]
0.68894285 1.0983487 0.9820833 0.7510226 0.86939454 0.81898177 0.5386757 0.6330352
0.8399328 1.0829115 0.87283546 0.8050751 0.878001 1.0367811 0.78330165 1.2713203
0.5453518 0.77805084 0.95147914 1.0585651 0.6912113 0.97522616 0.9846779 1.135257
0.74646634 0.6700464 0.770775 0.82848096 1.1184405 0.7279257
00000000: 8f5e 303f b196 8c3f d069 7b3f 0443 403f
00000010: a490 5e3f caa8 513f a7e6 093f 980e 223f
00000020: d605 573f d89c 8a3f 2572 5f3f 6719 4e3f
00000030: acc4 603f 3eb5 843f 7586 483f a0ba a23f
00000040: 2d9c 0b3f 572e 473f 2394 733f 107f 873f
00000050: 39f3 303f 6ca8 793f da13 7c3f 1a50 913f
00000060: 6b18 3f3f 2988 2b3f 8351 453f 5417 543f
00000070: 0f29 8f3f 5759 3a3f

layer1.bn1.bias f4 [30]
0.03153537 -0.099714585 0.0038935484 0.12512544 0.042853024 -0.024234585 0.07315188 -0.12228798
-0.084592775 0.11292049 0.15659386 0.004617161 -0.07942481 -0.008251637 -0.3311633 0.24008894
0.060037524 0.07955308 -0.15004164 0.11736707 0.16955408 0.15012263 0.038404994 0.068986885
-0.11043229 -0.17560224 0.0817592 0.028982272 0.0084639415 -0.12642382
00000000: 3b2b 013d 2937 ccbd e72a 7f3b e220 003e
00000010: a786 2f3d 9c87 c6bc a7d0 953d 1f72 fabd
00000020: fa3e adbd dc42 e73d 245a 203e 8e4b 973b
00000030: 7aa9 a2bd e031 07bc 3c8e a9be e0d9 753e
00000040: e8e9 753d baec a23d 84a4 19be 255e f03d
00000050: 969f 2d3e bfb9 193e 8e4e 1d3d ff48 8d3d
00000060: 532a e2bd 13d1 33be 5e71 a73d 3b6c ed3c
00000070: 58ac 0a3c 3f75 01be

layer1.bn1.running_mean f4 [30]
-0.12989415 0.06119015 0.007834589 -0.01669019 0.01966853 -0.06632751 -0.071001165 0.08464825
0.024665475 0.15653211 -0.089695744 -0.055904485 0.067658074 0.097463086 -0.0637247 0.043297574
-0.0043215877 -0.021540947 0.012615252 0.041258633 0.030064346 0.10325842 -0.031177716 -0.031734876
-0.044970173 0.049558625 -0.085268855 -0.10770801 -0.060799837 0.016949678
00000000: f902 05be 86a2 7a3d a65c 003c deb9 88bc
00000010: e61f a13c b8d6 87bd 0f69 91bd 105c ad3d
00000020: 400f ca3c f449 203e 67b2 b7bd 1afc 64bd
00000030: 5190 8a3d ba9a c73d 1882 82bd cc58 313d
00000040: 1b9c 8dbb a476 b0bc 34b0 4e3c d0fe 283d
00000050: 8149 f63c 2779 d33d 6968 ffbc 6efc 01bd
00000060: a532 38bd fcfd 4a3d 70a1 aebd 0496 dcbd
00000070: 4009 79bd 0dda 8a3c

layer1.bn1.running_var f4 [30]
1.426934 2.4735632 3.2241576 1.1616204 1.7414085 2.4129362 6.8141212 0.90762776
2.2020817 1.0340021 1.8563586 2.2271898 1.8018066 1.7903627 7.772533 1.7478575
1.7327121 0.7429599 1.8040754 2.6694336 0.7155119 1.0864096 0.9232684 2.008123
1.8498223 1.6751506 1.1084796 2.743702 4.8965287 2.5373447
00000000: c6a5 b63f dc4e 1e40 9958 4e40 faaf 943f
00000010: 79e6 de3f 8c6d 1a40 480d da40 4b5a 683f
00000020: e8ee 0c40 2e5a 843f 299d ed3f 478a 0e40
00000030: 99a1 e63f 9b2a e53f 97b8 f840 cbb9 df3f
00000040: 83c9 dd3f 9f32 3e3f f1eb e63f 00d8 2a40
00000050: ca2b 373f 780f 8b3f 515b 6c3f 1685 0040
00000060: fac6 ec3f 566b d63f a9e2 8d3f d098 2f40
00000070: 5db0 9c40 db63 2240

conv1.weight f4 [30, 30, 5]
0.039895397 -0.032014053 -0.38911122 -0.41694164 -0.25107214 -0.50930935 -0.072400875 -0.046997484
-0.30365306 -0.47304967 -0.22623734 -0.49089625 0.08188343 0.16495225 -0.24118875 0.16800967
-0.58416265 -0.50070614 -0.099579245 0.22951815 0.55542237 -0.20272999 -0.20745371 -0.20346479
-0.103522986 0.20572312 -0.35321543 -0.23234801 0.34052765 0.013019741 -0.038103458 0.07991514
-0.3462953 0.4514147 -0.09689522 0.102939695 0.11501454 -0.21618545 0.21857405 0.26985368
0.1680587 -0.10276518 -0.401575 -0.07875143 0.20484225 -0.45943213 -0.37157002 0.039459582
0.2566602 -0.018019088 0.49922553 0.029206876 -0.05099244 0.07353708 0.27633926 0.13207006
-0.15655933 0.02795445 -0.03733271 0.16136739 -0.2900164 -0.043158803 0.100112535 0.36979616
0.19671457 0.09730933 -0.22342443 -0.36921412 0.143276 0.18393686 0.05785094 0.09343429
0.2032307 0.38070202 0.015231102 -0.45764148 -0.21855159 0.38029143 0.1823256 0.17420669
0.15662302 -0.10313073 -0.035320424 -0.19565357 -0.18288738 0.27190197 0.3690166 -0.06520625
-0.16507855 -0.032865886 0.40562248 0.14120045 -0.12009438 -0.13876946 -0.062217858 -0.032154955
-0.20827328 -0.42929736 -0.24428539 -0.059934627 -0.08584287 0.24959883 0.2396209 -0.34720588
0.20020159 -0.34173223 -0.15470278 0.12686408 -0.14174037 -0.21819395 0.3415631 0.35343492
-0.22249226 -0.09093979 -0.10675719 0.10108703 0.51310724 0.2720258 -0.06581227 0.0533807
-0.1452903 0.12037304 0.38742745 -0.056150354 0.13354194 0.17579924 0.21711318 0.16785248
0.15703505 0.18321516 0.32001728 0.064086266 -0.14916377 -0.3545423 -0.25930396 -0.06633023
-0.16649517 0.004762999 -0.20427392 -0.12850516 -0.0857727 -0.44690132 -0.29803702 0.053931233
-0.06648524 -0.046558604 0.1862901 0.16445526 0.12627125 -0.18452527 0.074576 -0.04029291
-0.40211293 -0.35834372 -0.2817986 -0.5430519 -0.07372156 -0.05613607 -0.30232698 -0.48235592
-0.22318599 -0.49104464 0.115590125 0.13955297 -0.21075359 0.19273295 -0.55596435 -0.47860667
-0.10698589 0.24117537 0.54514897 -0.19567078 -0.23796456 -0.18033473 -0.13401534 0.23848443
-0.34233576 -0.20715085 0.35070536 0.017097007 0.01632893 0.06091755 -0.30862266 0.43863645
-0.08984893 0.08542733 0.1415815 -0.23533906 0.15554526 0.24803863 0.19145945 -0.11866003
-0.41139632 -0.047809448 0.20856847 -0.45003766 -0.37435725 0.044286255 0.26479802 0.0011284009
0.5306788 -0.0035975 -0.042804044 0.042548932 0.27918547 0.15962957 -0.16246969 -0.018553488
-0.018593652 0.14360571 -0.31484267 -0.03443558 0.093777455 0.34132212 0.1647993 0.050029535
-0.20453814 -0.35909194 0.13452126 0.16877824 0.057966202 0.045219433 0.17849793 0.38502935
0.0018223972 -0.47621536 -0.19963497 0.37988126 0.13920537 0.15046671 0.1611707 -0.09718803
-0.05171378 -0.23180725 -0.23595724 0.2719579 0.36106908 -0.03320964 -0.16058302 -0.053256262
0.39934346 0.14133857 -0.119732805 -0.11883497 -0.089994095 -0.047244087 -0.23363124 -0.45708728
-0.24352804 -0.05800276 -0.15031411 0.26918074 0.22160575 -0.3131186 0.22323059 -0.3226352
00000000: 5b69 233d 2b21 03bd 9639 c7be 6079 d5be
00000010: 878c 80be 1962 02bf e946 94bd 6f80 40bd
00000020: 6a78 9bbe 9133 f2be c3aa 67be c156 fbbe
00000030: 80b2 a73d 3ee9 283e 2ffa 76be ba0a 2c3e
00000040: af8b 15bf 472e 00bf 34f0 cbbd ce06 6b3e
00000050: 2930 0e3f 7398 4fbe bf6e 54be 1359 50be
00000060: dc03 d4bd 15a9 523e a7d8 b4be a3ec 6dbe
00000070: a459 ae3e c050 553c 5f12 1cbd 8daa a33d
00000080: 9e4d b1be d41f e73e 0071 c6bd 0cd2 d23d
00000090: be8c eb3d b85f 5dbe e0d1 5f3e 432a 8a3e
000000a0: 9417 2c3e 8d76 d2bd 3d9b cdbe 6e48 a1bd
000000b0: 2bc2 513e b03a ebbe 6d3e bebe 5fa0 213d
000000c0: f768 833e c49c 93bc 7d9a ff3e 4243 ef3c
000000d0: 73dd 50bd 9c9a 963d 577c 8d3e 603d 073e
000000e0: 1751 20be bb00 e53c 2fea 18bd 7e3d 253e
000000f0: 087d 94be 49c7 30bd cd07 cd3d ec55 bd3e
00000100: 8b6f 493e 1d4a c73d 60c9 64be a209 bdbe
00000110: f2b6 123e f259 3c3e 1bf5 6c3d 7a5a bf3d
00000120: b51b 503e 60eb c23e df8b 793c fc4f eabe
00000130: fdcb 5fbe 8fb5 c23e 90b3 3a3e 3d63 323e
00000140: c961 203e 3436 d3bd 26ac 10bd 6959 48be
00000150: d446 3bbe bc36 8b3e beef bc3e db8a 85bd
00000160: 5a0a 29be 619e 06bd c0ad cf3e da96 103e
00000170: 0bf4 f5bd 9519 0ebe 27d8 7ebd eab4 03bd
00000180: 9745 55be ddcc dbbe f325 7abe 037e 75bd
00000190: 63ce afbd d696 7f3e 2e5f 753e f8c4 b1be
000001a0: a501 4d3e 87f7 aebe 686a 1ebe a8e8 013e
000001b0: 6324 11be 3c6e 5fbe 5ce1 ae3e 6cf5 b43e
000001c0: 03d5 63be a43e babd 83a3 dabd b706 cf3d
000001d0: ff5a 033f f746 8b3e 95c8 86bd b9a5 5a3d
000001e0: fbc6 14be 2486 f63d e45c c63e eafd 65bd
000001f0: 38bf 083e b704 343e eb52 5e3e 85e1 2b3e
00000200: cccd 203e c19c 3b3e 4ed9 a33e a93f 833d
00000210: 63be 18be 9186 b5be 7dc3 84be 25d8 87bd
00000220: b67d 2abe ee12 9c3b 2f2d 51be db96 03be
00000230: 99a9 afbd 40d0 e4be 4f98 98be ffe6 5c3d
00000240: 6a29 88bd 3cb4 3ebd d5c2 3e3e f666 283e
00000250: 404d 013e 31f4 3cbe 4dbb 983d 2e0a 25bd
00000260: bfe1 cdbe d478 b7be e847 90be 7305 0bbf
00000270: 54fb 96bd f0ee 65bd 9aca 9abe 5bf7 f6be
00000280: de8a 64be 346a fbbe 84ba ec3d f9e6 0e3e
00000290: cacf 57be c95b 453e ae53 0ebf ef0b f5be
000002a0: 6b1b dbbd adf6 763e e28e 0b3f ec5d 48be
000002b0: fbac 73be aba9 38be 513b 09be 4335 743e
000002c0: a246 afbe 5a1f 54be a78f b33e 060f 8c3c
000002d0: 40c4 853c ae84 793d ca03 9ebe f594 e03e
000002e0: b702 b8bd 86f4 ae3d befa 103e b9fc 70be
000002f0: 4247 1f3e d7fd 7d3e f20d 443e 0804 f3bd
00000300: 8aa2 d2be d7d3 43bd f992 553e 566b e6be
00000310: c1ab bfbe 8165 353d 9b93 873e dae6 933a
00000320: 91da 073f 09c4 6bbb 4b53 2fbd ca47 2e3d
00000330: 66f1 8e3e ef75 233e 745e 26be 7cfd 97bc
00000340: b751 98bc 600d 133e 0f33 a1be 530c 0dbd
00000350: 650e c03d c6c1 ae3e 26c1 283e c5eb 4c3d
00000360: 7272 51be e6da b7be f1bf 093e 34d4 2c3e
00000370: f86d 6d3d 0338 393d 29c8 363e 9122 c53e
00000380: 81dd ee3a 80d2 f3be 1c6d 4cbe cc7f c23e
00000390: da8b 0e3e f213 1a3e ef09 253e 850a c7bd
000003a0: d4d1 53bd e15e 6dbe c69e 71be 113e 8b3e
000003b0: 0cde b83e d506 08bd e06f 24be 3d23 5abd
000003c0: bf76 cc3e 0fbb 103e 7936 f5bd c05f f3bd
000003d0: d34e b8bd 0483 41bd 073d 6fbe 5807 eabe
000003e0: 6a5f 79be 4d94 6dbd f1eb 19be 0fd2 893e
000003f0: 9eec 623e 1551 a0be 8f96 643e 7130 a5be

conv1.bias f4 [30]
-0.07226748 0.10611216 -0.05641752 -0.008074178 -0.04774422 -0.09319695 0.034852467 -0.024820054
0.059875727 -0.00010933744 0.075040214 0.018260917 0.02238481 -0.009788935 -0.107326075 -0.0067251553
-0.017175108 -0.053141672 -0.022745986 -0.004681767 0.0630236 0.015151154 -0.06637105 -0.020086873
-0.07216426 0.026064327 -0.0024837223 -0.073865555 0.02140932 0.059413116
00000000: f900 94bd 5551 d93d 0f16 67bd 8f49 04bc
00000010: 718f 43bd 0bde bebd 76c1 0e3d 6d53 cbbc
00000020: 4040 753d 174c e5b8 afae 993d eb97 953c
00000030: 5960 b73c c561 20bc c6cd dbbd b15e dcbb
00000040: d0b2 8cbc 15ab 59bd ca55 babc 8269 99bb
00000050: 8412 813d 8c3c 783c 8ced 87bd 3a8d a4bc
00000060: dbca 93bd db84 d53c f2c5 22bb d346 97bd
00000070: 9962 af3c 2b5b 733d

bn1.weight f4 [30]
1.275498 1.272031 1.2621821 1.267385 1.2705567 1.2035143 1.1822413 1.1872234
1.1527843 1.0412369 1.1275059 1.0762272 1.6028715 0.9841917 0.95742387 1.0500509
0.95481586 0.8512436 0.8894593 0.8933028 0.7979882 0.75168383 0.56045514 0.61509126
0.617125 0.69059366 0.55190575 0.5237975 0.5410258 0.5021007
00000000: 8543 a33f e9d1 a23f 2f8f a13f ac39 a23f
00000010: 9aa1 a23f c20c 9a3f af53 973f f0f6 973f
00000020: 708e 933f 4047 853f 1d52 903f d0c1 893f
00000030: e52a cd3f fdf3 7b3f bb19 753f 1168 863f
00000040: d06e 743f 1aeb 593f 9bb3 633f 7eaf 643f
00000050: f448 4c3f 5a6e 403f fd79 0f3f 9f76 1d3f
00000060: e7fb 1d3f bfca 303f b249 0d3f 9817 063f
00000070: ab80 0a3f ac89 003f

bn1.bias f4 [30]
0.0017552054 0.0042721163 0.01012639 0.0064823786 0.022049649 0.029386535 0.041140415 0.05290888
0.07206019 0.08713763 0.07860191 0.09485685 0.3084682 0.094003014 0.08168419 0.06813989
0.08512154 0.08228842 0.101085424 0.11120496 0.13042049 0.13177317 0.1844116 0.1985186
0.1589039 0.16590102 0.18825315 0.20216809 0.20251149 0.2109964
00000000: ec0e e63a 1cfd 8b3b 28e9 253c 226a d43b
00000010: 77a1 b43c 08bc f03c da82 283d fbb6 583d
00000020: 4b94 933d 3775 b23d 0afa a03d 4f44 c23d
00000030: 8bef 9d3e a784 c03d 0a4a a73d ed8c 8b3d
00000040: 3454 ae3d d586 a83d e005 cf3d 6dbf e33d
00000050: f38c 053e 8cef 063e 65d6 3c3e 7648 4b3e
00000060: b4b7 223e f5e1 293e 6fc5 403e 2705 4f3e
00000070: 2c5f 4f3e 710f 583e

bn1.running_mean f4 [30]
-1.3350277 -1.251956 -1.3021017 -1.2816223 -1.4547321 -1.2651947 -1.043755 -1.2149843
-1.0222613 -1.1312702 -1.1928419 -1.0641638 -0.60436344 -0.9234407 -1.0633984 -1.4808054
-1.1679081 -0.89271045 -1.0451353 -0.90307385 -1.0274245 -0.706555 -0.43333852 -0.54879
-0.75631243 -0.5288059 -0.25461048 -0.31291038 -0.32701522 -0.1310075
00000000: 30e2 aabf 1840 a0bf 45ab a6bf 330c a4bf
00000010: a934 babf e6f1 a1bf c499 85bf 9b84 9bbf
00000020: 75d9 82bf 76cd 90bf 0baf 98bf 8536 88bf
00000030: 90b7 1abf 9c66 6cbf 701d 88bf 088b bdbf
00000040: 037e 95bf ac88 64bf fec6 85bf d92f 67bf
00000050: a582 83bf cae0 34bf 8cde ddbe 807d 0cbf
00000060: b19d 41bf d35f 07bf 4e5c 82be ca35 a0be
00000070: 8a6e a7be d526 06be

bn1.running_var f4 [30]
8.219582 8.468211 7.944196 8.204964 8.910123 8.995574 7.446744 9.171666
10.659971 10.260748 11.816091 11.551677 4.2247176 11.554751 14.314185 15.8737335
12.393085 11.8909025 13.082647 13.223581 14.86551 12.067331 8.621569 11.429574
12.368287 11.893011 10.185317 10.252572 10.697062 7.6392555
00000000: 6883 0341 cb7d 0741 db36 fe40 8847 0341
00000010: dd8f 0e41 dfed 0f41 ba4b ee40 25bf 1241
00000020: 3e8f 2a41 062c 2441 b50e 3d41 abd3 3841
00000030: e330 8740 43e0 3841 e706 6541 d0fa 7d41
00000040: 134a 4641 2341 3e41 8652 5141 ca93 5341
00000050: 21d9 6d41 ca13 4141 f2f1 0941 89df 3641
00000060: 81e4 4541 c649 3e41 0ff7 2241 890a 2441
00000070: 2a27 2b41 c874 f440

dense1.dense.weight f4 [96, 512]
0.3380364 -0.4380327 -0.05034888 0.21032196 0.17599502 -0.35240543 0.24741197 0.24608065
-0.13449802 -0.027005956 -0.09655801 0.09699987 -0.4284453 0.052084677 0.008095593 0.15799001
0.00996615 -0.04440073 -0.0990918 -0.07108603 0.008556101 -0.12049776 -0.31989792 -0.20620702
-0.14156935 -0.057475563 0.098710775 0.16498564 -0.18339223 0.20243901 -0.042567898 0.186715
-0.15179195 0.1968525 0.5983424 -0.3254361 -0.45849323 0.072785825 0.08248908 0.26669842
0.5091173 0.0014074895 -0.28898868 -0.6933538 0.14218819 0.1878216 -0.041915826 -0.275268
-0.47180063 -0.29512095 -0.21540563 -0.32127017 0.010510666 -0.33125225 0.10072087 -0.06989736
-0.054334812 -0.036547735 -0.6402582 0.075001076 -0.3277267 -0.06263659 -0.055454656 -0.1249462
0.5518633 0.34698722 0.12394178 0.3550036 0.5013646 -0.22055171 0.33514526 0.5070091
-0.05846459 -0.15320982 -0.20176755 -0.35703835 -0.3369977 -0.029273117 0.094559066 0.06810617
0.051708803 -0.0027820687 -0.16100343 0.021257987 0.14173126 0.22034854 -0.013780059 -0.09489143
-0.013674063 -0.2928271 -0.2811238 0.093001604 -0.21109985 -0.49407765 0.2467734 0.5318803
-0.044870567 -0.018261869 0.16938059 0.3503661 -0.1627459 0.14811411 0.2530216 0.19655322
0.061920155 -0.10167587 0.019603262 -0.32804736 0.048239347 -0.349847 -0.006750099 0.086138204
0.46405342 0.68525237 -0.16413578 0.060277544 0.009420217 -0.20031013 0.16882628 -0.16912733
-0.11875072 0.13261983 0.15641288 0.2184288 -0.28329334 0.6449919 0.19696401 -0.061204165
-0.29683492 -0.102124155 0.11773506 0.003315903 0.009983304 0.33209807 0.15181577 -0.358976
-0.13587393 0.025365846 0.30067086 -0.009940476 0.07714911 -0.09897506 -0.07740692 -0.21617422
0.020437507 0.1252863 -0.0038488763 0.24387613 0.17016533 0.11673463 0.28204972 0.026677147
-0.15323596 -0.018716928 -0.041058913 -0.26878506 0.037670977 0.025932869 0.2450643 -0.114868864
-0.023730338 -0.10048653 -0.43162408 -0.36736813 0.22417898 0.28937382 -0.19192457 0.3281827
-0.064519815 -0.6279192 -0.6882661 0.21425107 -0.13649313 -0.07492932 0.22341691 -0.34083438
-0.071725644 0.39565164 0.28746116 0.27357444 0.46953112 0.121460095 0.010951202 -0.1423791
-0.24237822 0.11412468 -0.08688914 0.06553641 -0.21132548 -0.48868194 -0.034716163 0.061442863
-0.0003411944 0.023004072 0.34229603 -0.36176974 0.016583765 -0.03419087 0.06624611 0.06825929
-0.24790463 0.0459257 0.12674634 0.37424257 -0.028327052 0.1655201 -0.16450915 -0.13831463
0.22224806 -0.2575452 -0.052879263 -0.02689546 0.03665691 0.13579108 -0.21889035 -0.1626235
-0.07028681 -0.05899926 0.04344465 -0.16130672 -0.25768235 0.5260437 0.16891761 -0.52223736
0.041138154 0.5248644 0.008966376 -0.45808357 0.076645404 -0.27882737 -0.50421953 0.08056814
0.07068421 -0.12816626 -0.15452048 0.16627601 0.029918568 -0.052256595 0.25797027 -0.0554463
0.090993024 0.084455304 0.02747615 0.27281606 0.106077835 -0.027866544 0.010492613 -0.144224
0.6595573 0.29636002 -0.11829907 -0.40730998 0.10192608 0.13553028 0.17272918 0.19999011
00000000: 1b13 ad3e d245 e0be a13a 4ebd a45e 573e
00000010: 0a38 343e 7c6e b4be 9059 7d3e 91fc 7b3e
00000020: d9b9 09be 983b ddbc 35c0 c5bd dea7 c63d
00000030: 2f5d dbbe be56 553d 61a3 043c 22c8 213e
00000040: 1049 233c 8add 35bd a4f0 cabd 8d95 91bd
00000050: e32e 0c3c 88c7 f6bd a9c9 a3be ef27 53be
00000060: 8ef7 10be 7f6b 6bbd e028 ca3d fff1 283e
00000070: 2ccb 3bbe 2c4c 4f3e ad5b 2ebd 3832 3f3e
00000080: 596f 1bbe b493 493e f82c 193f 8f9f a6be
00000090: a0bf eabe bc10 953d 09f0 a83d b28c 883e
000000a0: 8355 023f 837b b83a 53f6 93be a27f 31bf
000000b0: c899 113e 4e54 403e eeaf 2bbd edef 8cbe
000000c0: da8f f1be 181a 97be 4b93 5cbe 867d a4be
000000d0: ee34 2c3c e599 a9be be46 ce3d 5926 8fbd
000000e0: 2e8e 5ebd 14b3 15bd f6e7 23bf 2a9a 993d
000000f0: cbcb a7be 9d47 80bd 6c24 63bd cbe3 ffbd
00000100: ea46 0d3f 4fa8 b13e 30d5 fd3d 08c3 b53e
00000110: 6e59 003f 4fd8 61be 2998 ab3e 59cb 013f
00000120: 9178 6fbd 09e3 1cbe 279c 4ebe bbcd b6be
00000130: f68a acbe 2dce efbc 2fa8 c13d 3f7b 8b3d
00000140: 9ccc 533d 5e53 36bb 15de 24be 3b25 ae3c
00000150: 0022 113e 0ca3 613e c2c5 61bc 7056 c2bd
00000160: 2d09 60bc 6fed 95be 75ef 8fbe a077 be3d
00000170: 8f2a 58be bff7 fcbe 2bb2 7c3e 4f29 083f
00000180: 33ca 37bd ea99 95bc 1b72 2d3e 2f63 b33e
00000190: dca6 26be 3aab 173e 0c8c 813e 3f45 493e
000001a0: fd9f 7d3d 703b d0bd 0597 a03c d3f5 a7be
000001b0: 9f96 453d 251f b3be ef2f ddbb 3a69 b03d
000001c0: 6998 ed3e b36c 2f3f 3613 28be 96e5 763d
000001d0: 4157 1a3c 191e 4dbe cce0 2c3e b72f 2dbe
000001e0: 9433 f3bd 7ecd 073e b32a 203e cdab 5f3e
000001f0: d30b 91be 301e 253f efb0 493e 38b1 7abd
00000200: bffa 97be 7826 d1bd 141f f13d 9f4f 593b
00000210: 0391 233c c208 aa3e 9875 1b3e b4cb b7be
00000220: 8922 0bbe 09cc cf3c 88f1 993e 61dd 22bc
00000230: 5a00 9e3d 70b3 cabd 8587 9ebd c65c 5dbe
00000240: 8f6c a73c 0d4b 003e 6e3d 7cbb aaba 793e
00000250: d23f 2e3e 9112 ef3d d268 903e 088a da3c
00000260: e3e9 1cbe 3e54 99bc 642d 28bd 329e 89be
00000270: e24c 1a3d 2b71 d43c 23f2 7a3e 5e40 ebbd
00000280: 2066 c2bc e2cb cdbd d5fd dcbe ad17 bcbe
00000290: 2d8f 653e ce28 943e e087 44be 9007 a83e
000002a0: f722 84bd 50bf 20bf 3532 30bf a264 5b3e
000002b0: dbc4 0bbe 8b74 99bd 67c7 643e d881 aebe
000002c0: e5e4 92bd da92 ca3e 1c2e 933e f311 8c3e
000002d0: 6266 f03e 12c0 f83d ac6c 333c d4cb 11be
000002e0: ff31 78be 33ba e93d eff2 b1bd f437 863d
000002f0: b565 58be 8534 fabe 8932 0ebd 83ab 7b3d
00000300: 56e2 b2b9 0973 bc3c 6d41 af3e e239 b9be
00000310: adda 873c ba0b 0cbd 0aac 873d 87cb 8b3d
00000320: b6da 7dbe 961c 3c3d cbc9 013e b99c bf3e
00000330: 220e e8bc 1a7e 293e 1675 28be 5aa2 0dbe
00000340: ff94 633e f7dc 83be ed97 58bd de53 dcbc
00000350: 8e25 163d d10c 0b3e cb24 60be c686 26be
00000360: 88f2 8fbd 35a9 71bd 04f3 313d 972d 25be
00000370: f1ee 83be cdaa 063f bdf8 2c3e 59b1 05bf
00000380: 7b80 283d 835d 063f b5e7 123c ee89 eabe
00000390: 44f8 9c3d 76c2 8ebe 8814 01bf e900 a53d
000003a0: e2c2 903d 043e 03be 9e3a 1ebe 4244 2a3e
000003b0: c917 f53c 030b 56bd ae14 843e a91b 63bd
000003c0: 8d5a ba3d e7f6 ac3d aa15 e13c 8cae 8b3e
000003d0: 563f d93d 6148 e4bc 35e9 2b3c 75af 13be
000003e0: bfd8 283f 80bc 973e c846 f2bd ef8a d0be
000003f0: 9fbe d03d 73c8 0a3e ebdf 303e 35ca 4c3e

dense1.dense.bias f4 [96]
0.23537856 0.19471848 0.21215513 0.14855345 0.25806078 0.1767685 0.30485 0.3184286
0.19909981 0.24374823 0.08456005 0.16356109 0.019442534 0.19106165 0.36408803 0.3581095
0.17562701 0.19780654 0.31697446 -0.027410133 0.17340885 0.06113506 0.04521384 0.06449307
0.33238623 0.21276782 -0.03473539 0.010765993 0.2944763 0.16567503 -0.50173074 0.25753567
0.17784652 0.23624983 0.21132685 0.3561223 0.21603096 0.22058034 0.1907872 0.08068468
0.31583974 0.14551404 0.1954281 0.20788229 0.14065172 0.13348809 0.18435003 0.12195495
-1.2773049 0.21463464 0.29093125 0.12926854 0.2069695 0.35336068 0.13008656 0.28672174
0.104998514 0.13893047 0.1454632 0.14987268 0.08995049 0.25172147 0.22642095 0.30528498
0.29143766 0.17194693 0.22864336 0.23161165 0.17232575 0.13358165 0.14942443 0.32769325
0.18195678 0.3423459 0.034390178 0.33297804 0.3426089 0.13621385 0.26362655 0.13903405
0.2793324 0.1919043 0.23492678 0.28322068 -0.020266095 0.4185704 -0.023043158 0.14396109
0.26365674 0.120118245 0.2268534 0.22467794 0.20146264 0.22563979 0.29236063 0.2543499
00000000: 1407 713e 4864 473e 323f 593e 651e 183e
00000010: 8b20 843e cd02 353e 4d15 9c3e 1309 a33e
00000020: d2e0 4b3e 2399 793e d22d ad3d 8f7c 273e
00000030: f345 9f3c aaa5 433e bf69 ba3e 215a b73e
00000040: 91d7 333e cc8d 4a3e 7a4a a23e 378b e0bc
00000050: 1792 313e c268 7a3d 2632 393d f114 843d
00000060: 872e aa3e cfdf 593e b246 0ebd d963 303c
00000070: 99c5 963e b7a6 293e 6d71 00bf b7db 833e
00000080: 661d 363e 7aeb 713e 1166 583e a955 b63e
00000090: 3837 5d3e d0df 613e b85d 433e 023e a53d
000000a0: bfb5 a13e a201 153e 4e1e 483e 18df 543e
000000b0: 0107 103e 1ab1 083e 41c6 3c3e 84c3 f93d
000000c0: ba7e a3bf 2fc9 5b3e f1f4 943e f95e 043e
000000d0: d0ef 533e b1eb b43e 6935 053e 31cd 923e
000000e0: 7609 d73d ca43 0e3e 4ef4 143e 3978 193e
000000f0: f637 b83d a3e1 803e e5da 673e 504e 9c3e
00000100: 5137 953e db12 303e 7c21 6a3e 9b2b 6d3e
00000110: 2976 303e a1c9 083e b802 193e 69c7 a73e
00000120: e152 3a3e f647 af3e b7dc 0c3d 197c aa3e
00000130: 6f6a af3e a57b 0b3e 0ffa 863e f15e 0e3e
00000140: a804 8f3e 9082 443e a590 703e 4d02 913e
00000150: 1505 a6bc dc4e d63e 01c5 bcbc 896a 133e
00000160: 04fe 863e 8e00 f63d 424c 683e f911 663e
00000170: 394c 4e3e 1e0e 673e 4bb0 953e 263a 823e

dense1.batch_norm1.weight f4 [96]
0.9991777 0.8434434 0.78248435 0.75022966 0.9005609 0.92330956 0.93425906 0.9688508
0.85178375 0.7394146 0.889288 0.8210106 0.47677544 0.8121513 0.76723474 0.9183934
0.9382562 0.7529907 0.96810335 1.022765 0.7509026 0.9454148 0.7712494 0.65228474
0.92657596 0.9357471 1.0989548 0.67703193 0.7429924 0.8498862 1.1739553 0.8544414
0.9379641 0.8270155 0.94086355 1.002901 0.95429987 0.7436827 0.9571108 0.6325673
0.92545843 0.91584104 0.8307463 0.9328268 0.83209246 0.88700116 0.9833741 0.51161385
1.2273954 0.93028444 0.974364 0.53876805 0.9332047 0.96898085 0.8815376 0.9886148
0.5172728 0.93067116 0.7808381 0.866189 0.76134545 0.94629633 0.8925231 0.94703645
0.90477943 0.8779113 1.0419443 0.6772177 0.8757998 0.35829312 0.8133022 0.8634021
0.8782859 0.8810168 0.9064774 0.95369864 1.0025685 0.89287716 0.95992553 0.9363558
0.82069135 0.98564 0.93396676 0.9120329 0.97538006 0.8776079 1.1135821 0.8760998
0.8405305 0.73164487 0.8029039 0.8210651 0.94728476 0.7718684 0.9228091 0.970697
00000000: 1cca 7f3f e8eb 573f e550 483f 0d0f 403f
00000010: 298b 663f 045e 6c3f 9a2b 6f3f 9b06 783f
00000020: 800e 5a3f 464a 3d3f 61a8 633f c02d 523f
00000030: e91b f43e 26e9 4f3f 7f69 443f d41b 6b3f
00000040: 8f31 703f 00c4 403f 9fd5 773f f7e9 823f
00000050: 273b 403f b406 723f 9a70 453f 22fc 263f
00000060: 1534 6d3f 1f8d 6f3f 8daa 8c3f f751 2d3f
00000070: c034 3e3f 2492 593f 2b44 963f acbc 5a3f
00000080: 6a1e 703f 4ab7 533f 6fdc 703f 0f5f 803f
00000090: ff4c 743f fd61 3e3f 3705 753f eeef 213f
000000a0: d8ea 6c3f 8f74 6a3f caab 543f bdcd 6e3f
000000b0: 0304 553f 8212 633f 68be 7b3f 20f9 023f
000000c0: 4b1b 9d3f 1f27 6e3f eb6f 793f b4ec 093f
000000d0: 81e6 6e3f 210f 783f 73ac 613f dc15 7d3f
000000e0: fd6b 043f 7740 6e3f 01e5 473f 90be 5d3f
000000f0: 89e7 423f 7a40 723f 657c 643f fb70 723f
00000100: a09f 673f ccbe 603f 6e5e 853f 245e 2d3f
00000110: 6a34 603f 3272 b73e 9334 503f ec07 5d3f
00000120: 58d7 603f 518a 613f e70e 683f 9825 743f
00000130: 2a54 803f 9993 643f aebd 753f 04b5 6f3f
00000140: d418 523f e752 7c3f 7218 6f3f fd7a 693f
00000150: 82b2 793f e9aa 603f dc89 8e3f 1448 603f
00000160: 022d 573f 144d 3b3f 1c8b 4d3f 5331 523f
00000170: 4181 723f 2b99 453f 383d 6c3f 997f 783f

dense1.batch_norm1.bias f4 [96]
-0.7446272 -0.5529597 -0.3783327 -0.32219055 -0.5356063 -0.55605346 -0.75225216 -0.7464162
-0.5440958 -0.4244741 -0.50915045 -0.50554407 -0.12081138 -0.5718061 -0.4490081 -0.74351126
-0.81324375 -0.40773824 -0.9360772 -0.9320936 -0.50917554 -0.7146487 -0.45423138 -0.23543377
-0.66017497 -0.6160032 -1.0842264 -0.68499917 -0.42238685 -0.59893924 -1.8178229 -0.5461103
-0.8063898 -0.6894826 -0.67732906 -0.97534746 -0.7191253 -0.4712823 -0.6825348 -0.2522619
-0.7707695 -0.6711183 -0.71406025 -0.71589106 -0.7803956 -0.6863628 -0.92365456 -0.17909819
-2.1560748 -0.6378884 -0.75237054 -0.09800748 -0.6222934 -0.73729795 -0.63084066 -0.8627489
-0.23366134 -0.7376777 -0.45778474 -0.4449016 -0.24079509 -0.6755187 -0.7058568 -0.7014227
-0.61048627 -0.60924745 -0.92481685 -0.331602 -0.6029555 -0.0055584344 -0.75408417 -0.60034525
-0.62200785 -0.6146929 -0.6413017 -0.6451976 -0.6412633 -0.6851427 -0.67192596 -0.61877733
-0.47277498 -0.7841039 -0.7200314 -0.6398317 -0.86982524 -0.6419189 -1.5734096 -0.5528928
-0.45010176 -0.3862897 -0.6025883 -0.47164977 -0.69119364 -0.35440665 -0.7190421 -0.62992245
00000000: e39f 3ebf c48e 0dbf d3b4 c1be 29f6 a4be
00000010: 7f1d 09bf 8559 0ebf 9993 40bf 2215 3fbf
00000020: dd49 0bbf ab54 d9be af57 02bf 566b 01bf
00000030: f56b f7bd e261 12bf 64e4 e5be c156 3ebf
00000040: be30 50bf 11c3 d0be c1a2 6fbf b09d 6ebf
00000050: 5459 02bf 38f3 36bf 0491 e8be 8d15 71be
00000060: 3a01 29bf 63b2 1dbf eec7 8abf 1b5c 2fbf
00000070: 1743 d8be 1554 19bf 6cae e8bf e2cd 0bbf
00000080: 906f 4ebf ef81 30bf 7065 2dbf 5fb0 79bf
00000090: 9818 38bf ea4b f1be 9aba 2ebf 7928 81be
000000a0: 2651 45bf 69ce 2bbf a7cc 36bf a344 37bf
000000b0: 02c8 47bf 79b5 2fbf a074 6cbf 8465 37be
000000c0: 21fd 09c0 a74c 23bf 5b9b 40bf 25b8 c8bd
000000d0: 9f4e 1fbf 8fbf 3cbf c67e 21bf 1ddd 5cbf
000000e0: eb44 6fbe 72d8 3cbf c362 eabe 24ca e3be
000000f0: fd92 76be cbee 2cbf 08b3 34bf 7090 33bf
00000100: d448 1cbf a4f7 1bbf ccc0 6cbf bdc7 a9be
00000110: 4b5b 1abf 8723 b6bb a90b 41bf 3ab0 19bf
00000120: e83b 1fbf 845c 1dbf 592c 24bf ab2b 25bf
00000130: d529 24bf 8365 2fbf 5703 2cbf 3168 1ebf
00000140: 900f f2be 08bb 48bf fa53 38bf 03cc 23bf
00000150: deac 5ebf cc54 24bf 7c65 c9bf 628a 0dbf
00000160: bd73 e6be c3c7 c5be 3a43 1abf 147c f1be
00000170: 11f2 30bf ca74 b5be 2513 38bf 9942 21bf

dense1.batch_norm1.running_mean f4 [96]
-1.8550832 -2.2396493 -1.3425094 -1.5782883 -1.4120469 -1.6511708 -2.014362 -2.4070349
-1.2095842 -1.1153264 -3.018406 -2.827427 -4.366413 -3.0353386 -1.4399763 -2.0852199
-3.4424596 -1.2387918 -2.498029 -3.0334694 -1.4156454 -2.751824 -2.1044676 -2.698953
-1.9299904 -1.8652923 -3.8765001 -2.2121346 -0.45650098 -2.145972 -0.80998963 -2.2155612
-1.8840808 -3.0362077 -2.1621227 -2.9135177 -1.711577 -1.5964195 -2.1856024 -1.6091001
-1.9440027 -2.7774346 -2.2047317 -3.0318792 -3.1370246 -2.511756 -2.8092725 -3.4873762
-1.8855307 -1.595949 -2.5247364 -2.2774277 -1.7420282 -2.2194839 -1.7694806 -2.7184594
-0.5420554 -1.7004129 -2.1347582 -1.5641594 -4.752831 -3.040048 -2.3735974 -2.1910844
-2.4559197 -2.2011104 -2.7685764 -1.1209993 -1.6046938 -2.8934834 -3.0104916 -1.6135173
-2.3669581 -2.0345669 -2.629669 -3.2988672 -2.1316886 -2.1359377 -2.4668505 -2.694273
-1.3127128 -2.495653 -2.15324 -3.0201554 -1.4863875 -1.8367045 0.617474 -2.511442
-1.269191 -2.429179 -2.1344128 -2.1898925 -2.3253446 -0.92742604 -2.1648846 -1.5198134
00000000: 5e73 edbf 6a56 0fc0 59d7 abbf 5a05 cabf
00000010: f4bd b4bf 9159 d3bf 4feb 00c0 dc0c 1ac0
00000020: a8d3 9abf 04c3 8ebf 902d 41c0 90f4 34c0
00000030: a8b9 8bc0 fd42 42c0 2551 b8bf 3e74 05c0
00000040: 4251 5cc0 bb90 9ebf b5df 1fc0 5d24 42c0
00000050: de33 b5bf e21d 30c0 99af 06c0 a5bb 2cc0
00000060: ed09 f7bf e6c1 eebf 9418 78c0 9d93 0dc0
00000070: 7fba e9be 9b57 09c0 7b5b 4fbf c1cb 0dc0
00000080: 8f29 f1bf 3a51 42c0 3860 0ac0 1377 3ac0
00000090: f514 dbbf 7957 ccbf e9e0 0bc0 fef6 cdbf
000000a0: 15d5 f8bf 7dc1 31c0 531a 0dc0 4f0a 42c0
000000b0: 03c5 48c0 9cc0 20c0 1fcb 33c0 2c31 5fc0
000000c0: 1259 f1bf 0f48 ccbf 4895 21c0 60c1 11c0
000000d0: c8fa debf 060c 0ec0 577e e2bf 3dfb 2dc0
000000e0: 25c4 0abf 21a7 d9bf e19f 08c0 6036 c8bf
000000f0: 3117 98c0 2590 42c0 05e9 17c0 ba3a 0cc0
00000100: ca2d 1dc0 fede 0cc0 5b30 31c0 e87c 8fbf
00000110: 9b66 cdbf d52e 39c0 e5ab 40c0 bc87 cebf
00000120: 3e7c 17c0 5836 02c0 7f4c 28c0 a420 53c0
00000130: 966d 08c0 34b3 08c0 e1e0 1dc0 f86e 2cc0
00000140: f906 a8bf c7b8 1fc0 afce 09c0 3a4a 41c0
00000150: f241 bebf 2219 ebbf c712 1e3f 77bb 20c0
00000160: da74 a2bf ab77 1bc0 389a 08c0 3327 0cc0
00000170: 72d2 14c0 cb6b 6dbf 788d 0ac0 3f89 c2bf

dense1.batch_norm1.running_var f4 [96]
3.1828165 3.0269349 3.082038 5.0673475 2.7944407 2.8399208 2.8821247 2.9233654
2.0356615 2.9904783 5.2783294 3.699868 19.415861 3.3301725 3.1332235 2.4275427
3.2895684 2.3363957 3.0335262 3.2729707 1.9273225 3.1297722 4.0346427 3.0139132
2.7241347 3.0396225 4.2635827 1.8339788 2.1971653 2.7212248 1.1949494 3.5895903
2.0679212 2.982176 3.0166502 2.8965602 2.460448 2.7662282 3.0284555 3.5345352
2.0551133 3.498072 2.1739252 3.608797 2.8540807 4.185739 2.3753245 2.6854525
1.2267917 2.340066 2.8343725 2.0394673 3.1329646 3.0841577 2.6562076 2.8264325
1.7613224 3.0130417 2.1326218 3.124258 10.578793 3.6575994 2.8600397 1.9780434
3.3868077 3.0853894 3.2620316 2.7659986 2.4897442 1.91203 2.9948225 2.6673317
2.5408218 3.3483942 3.6687481 3.4025242 3.229095 2.7642086 3.2665105 3.2876427
3.4553568 2.3808079 2.2693224 3.7034402 1.6686926 2.6174345 0.71097153 3.0989518
2.644345 3.1421065 2.1945326 5.2865334 2.9682062 4.0224533 2.7814426 3.4388292
00000000: 44b3 4b40 4db9 4140 1c40 4540 b627 a240
00000010: 1ed8 3240 43c1 3540 bb74 3840 6b18 3b40
00000020: 4748 0240 ff63 3f40 13e8 a840 a3ca 6c40
00000030: af53 9b41 8c21 5540 bc86 4840 dc5c 1b40
00000040: 4a88 5240 8287 1540 4b25 4240 5a78 5140
00000050: 81b2 f63f 304e 4840 cb1b 8140 f4e3 4040
00000060: 3958 2e40 2d89 4240 456f 8840 d1bf ea3f
00000070: 5b9e 0c40 8c28 2e40 1af4 983f d9bb 6540
00000080: d258 0440 f9db 3e40 cc10 4140 3e61 3940
00000090: fb77 1d40 e209 3140 37d2 4140 d335 6240
000000a0: fa86 0340 69e0 5f40 9721 0b40 88f6 6640
000000b0: 42a9 3640 93f1 8540 5105 1840 74de 2b40
000000c0: 8307 9d3f a4c3 1540 5c66 3540 a286 0240
000000d0: 7e82 4840 d762 4540 4eff 2940 45e4 3440
000000e0: 0373 e13f add5 4040 e07c 0840 d8f3 4740
000000f0: bc42 2941 1c16 6a40 e40a 3740 8730 fd3f
00000100: 75c1 5840 0577 4540 20c5 5040 1f06 3140
00000110: f857 1f40 66bd f43f 2cab 3f40 90b5 2a40
00000120: d39c 2240 174c 5640 c5cc 6a40 f5c2 5940
00000130: 7ea9 4e40 cbe8 3040 820e 5140 bd68 5240
00000140: 9124 5d40 285f 1840 943c 1140 2a05 6d40
00000150: b897 d53f 0c84 2740 3b02 363f 3a55 4640
00000160: f33c 2940 4618 4940 3973 0c40 482b a940
00000170: 17f7 3d40 f0b7 8040 2803 3240 c715 5c40

dense2.dense.weight f4 [15, 96]
0.10219924 0.14274709 -0.3708304 -0.5571853 -0.24622463 -0.206631 -0.07381104 -0.15385127
-0.13409768 -0.10984089 -0.39804083 -0.7082418 0.18859388 -0.43894428 0.186543 -0.018095545
0.33297008 -0.12204654 -0.2596584 -0.309968 -0.3278622 -0.3005893 0.18403949 0.09488134
0.18664907 -0.3837509 -0.35104123 0.12191569 -0.18207318 0.03590861 -0.063329786 -0.37421787
-0.14311701 -0.32046562 -0.31789792 -0.41100335 -0.028402083 -0.5059695 0.27170947 0.093321055
-0.59535635 0.069412224 0.14494537 -0.09679791 -0.145987 -0.23126177 -0.3981621 -0.052137427
-0.026926374 -0.08009221 -0.2519341 -0.036408965 -0.19450127 -0.33482525 -0.11774591 0.24308822
-0.28571606 -0.5409476 -0.6009078 -0.13131262 0.13456672 -0.43465418 -0.3091793 0.1904603
-0.20368578 0.18569453 -0.12227673 0.18147658 -0.40633398 -0.0451516 -0.18943168 -0.25831157
0.2176827 -0.11059395 -0.29398128 0.14650382 0.21950553 0.1420239 -0.07764394 0.27098587
-0.22964007 -0.14663853 0.28634113 0.2504668 -0.05100758 -0.15397441 -0.111449 0.1280904
0.11710327 2.0804358e-05 -0.26894593 -0.25409544 -0.21171652 -0.046121817 0.17698313 -0.246159
-0.120210946 0.030062549 -0.20075296 0.19572052 -0.2355393 0.10995951 -0.2641904 -0.11098172
0.039649714 -0.18250428 0.18854336 0.22257486 0.1667362 -0.15904365 -0.21510129 -0.17204054
-0.32020372 -0.2124154 0.050074056 -0.14371137 -0.00051808666 -0.031044988 -0.5117528 0.10717073
-0.12462398 0.16817601 -8.303921e-05 -0.44131324 -0.19602746 -0.33065486 -0.04646317 -0.39292574
-0.20850071 -0.063314274 -0.37769407 -0.17454009 0.014459845 -0.33762205 0.20924492 -0.07050182
-0.022904163 0.26071855 -0.3696208 0.02104784 -0.53268814 0.30753392 -0.24512437 -0.062133435
-0.07657144 0.19349644 -0.072330564 -0.016117414 -0.14021023 0.23630303 0.03057841 -0.05647878
-0.14559606 0.041006837 -0.038846985 -0.2777027 -0.13295954 -0.15931487 -0.10882218 -0.09790813
-0.2149819 0.1312786 -0.21998389 -0.27417824 0.079186186 -0.06889633 -0.3983923 -0.2099363
-0.11315845 -0.05813862 0.16397424 -0.15677345 -0.005533905 0.095583744 0.12657872 0.1313344
-0.18512642 -0.2440642 -0.26332262 -0.31167895 -1.5055751 0.034596216 -0.02350869 0.17075466
0.110788934 -0.28899732 -0.19648175 -0.25281528 0.17366931 -0.23495279 -0.064720586 0.26698515
-0.30550003 -0.18019855 0.21375127 -0.5958524 -0.42116776 0.21571863 -0.19445252 -0.34182566
-0.07694729 -0.33518323 0.18588986 0.1897831 0.20985387 0.044343464 -0.2765612 0.029291648
-0.08700151 -0.26791584 -0.19378628 -0.15989693 -0.07125858 -0.07115885 -0.6002013 -0.18085016
0.10397634 -0.26954132 -0.1290437 0.19696735 0.10151823 0.20498171 -0.08792223 -0.10393416
0.26912948 -0.010644155 -0.31618747 -0.0027707394 -0.27875048 -0.33774155 -0.37065002 -0.35039002
-0.12656571 -0.3359508 0.2271517 -0.37687126 -0.059514925 0.19094788 0.13579892 0.12296385
-0.09788425 -0.31187323 -0.19250125 -0.13902348 -0.22761005 -0.38751897 -0.30581024 -0.16734035
-0.20723055 -0.5709396 -0.3816386 0.11812571 -0.54699373 0.2650355 0.0763968 -0.083558775
00000000: d64d d13d 4b2c 123e 7bdd bdbe b2a3 0ebf
00000010: 4f22 7cbe 1497 53be 3e2a 97bd 308b 1dbe
00000020: e750 09be 43f4 e0bd 02cc cbbe 564f 35bf
00000030: c11e 413e 4ebd e0be 2105 3f3e 1c3d 94bc
00000040: 0e7b aa3e 89f3 f9bd f2f1 84be 20b4 9ebe
00000050: 8edd a7be d7e6 99be d974 3c3e 2651 c23d
00000060: ef20 3f3e ff7a c4be adbb b3be efae f93d
00000070: 6471 3abe e814 133d 0cb3 81bd 7c99 bfbe
00000080: 448d 12be 1214 a4be 84c3 a2be 086f d2be
00000090: 7cab e8bc 3887 01bf 811d 8b3e 1c1f bf3d
000000a0: 4669 18bf ff27 8e3d 8f6c 143e fc3d c6bd
000000b0: 9e7d 15be e3cf 6cbe e7db cbbe 0e8e 55bd
000000c0: b394 dcbc 6207 a4bd 82fd 80be 9121 15bd
000000d0: 572b 47be 376e abbe c524 f1bd 1eec 783e
000000e0: 6049 92be 8b7b 0abf 18d5 19bf d176 06be
000000f0: dccb 093e fe8a debe c04c 9ebe 0608 433e
00000100: 0193 50be b526 3e3e 396c fabd ffd4 393e
00000110: 020b d0be e2f0 38bd 61fa 41be 6a41 84be
00000120: 37e8 5e3e 157f e2bd b784 96be 1905 163e
00000130: 0fc6 603e b76e 113e c903 9fbd a9be 8a3e
00000140: c426 6bbe 6928 16be 4e9b 923e 2f3d 803e
00000150: 53ed 50bd 78ab 1dbe 603f e4bd 212a 033e
00000160: d7d3 ef3d 0585 ae37 48b3 89be cc18 82be
00000170: 37cc 58be 3bea 3cbd 113b 353e 1b11 7cbe
00000180: 2831 f6bd bc45 f63c 2f92 4dbe f66a 483e
00000190: 3731 71be 7432 e13d f743 87be 624a e3bd
000001a0: bd67 223d 67e2 3abe 8311 413e aaea 633e
000001b0: e5bc 2a3e 57dc 22be 8343 5cbe 652b 30be
000001c0: bef1 a3be 6c83 59be 741a 4d3d 1329 13be
000001d0: 35d0 07ba 0f52 febc 3b02 03bf 547c db3d
000001e0: db3a ffbd 5536 2c3e 5625 aeb8 cff3 e1be
000001f0: 6cbb 48be 984b a9be 2a50 3ebd 902d c9be
00000200: 3681 55be eaaa 81bd 1e61 c1be a3ba 32be
00000210: fce8 6c3c ccdc acbe 4d44 563e 4263 90bd
00000220: 83a1 bbbc e77c 853e f03e bdbe 856c ac3c
00000230: 405e 08bf 1675 9d3e e201 7bbe a17f 7ebd
00000240: 7dd1 9cbd ee23 463e 0c22 94bd ab08 84bc
00000250: 4593 0fbe 6cf9 713e 937f fa3c 4b56 67bd
00000260: 2217 15be c9f6 273d 041e 1fbd 0c2f 8ebe
00000270: 8c26 08be 7023 23be 2ade debd 0f84 c8bd
00000280: 3724 5cbe e66d 063e 7543 61be 1761 8cbe
00000290: 5e2c a23d 8519 8dbd 13fa cbbe 8bf9 56be
000002a0: 9ebf e7bd c322 6ebd dde8 273e 3889 20be
000002b0: c255 b5bb 69c1 c33d da9d 013e 867c 063e
000002c0: c891 3dbe f7eb 79be 39d2 86be 6294 9fbe
000002d0: afb6 c0bf c3b4 0d3d 4c95 c0bc 4fda 2e3e
000002e0: 4fe5 e23d 75f7 93be 8332 49be 0171 81be
000002f0: 5ed6 313e 7797 70be 3a8c 84bd 47b2 883e
00000300: 806a 9cbe f885 38be 9de1 5a3e c889 18bf
00000310: 4da3 d7be 58e5 5c3e 901e 47be c603 afbe
00000320: 8a96 9dbd 239d abbe e959 3e3e 8056 423e
00000330: efe3 563e 7ea1 353d 6e99 8dbe 0af5 ef3c
00000340: d92d b2bd 442c 89be e96f 46be 05bc 23be
00000350: 05f0 91bd bbbb 91bd cba6 19bf c930 39be
00000360: 8cf1 d43d 5201 8abe 0824 04be cfb1 493e
00000370: cae8 cf3d bae6 513e 9210 b4bd 6fdb d4bd
00000380: 57cb 893e d264 2ebc 53e3 a1be 4b95 35bb
00000390: 62b8 8ebe 76ec acbe d7c5 bdbe 5266 b3be
000003a0: 719a 01be be01 acbe 759a 683e 45f5 c0be
000003b0: ecc5 73bd d787 433e df0e 0b3e 79d4 fb3d
000003c0: 8a77 c8bd d9ad 9fbe 0c1f 45be 2c5c 0ebe
000003d0: 9c12 69be e368 c6be 2993 9cbe 455b 2bbe
000003e0: 3f34 54be 1929 12bf 2266 c3be e4eb f13d
000003f0: c807 0cbf bcb2 873e ed75 9c3d dd20 abbd

dense2.dense.bias f4 [15]
0.5465187 0.55815315 0.38141435 2.1176682 0.38315505 0.3645645 2.819722 0.40173718
0.48472762 0.45430705 0.43378383 1.0663203 0.46469012 0.06758688 -11.047583
00000000: a6e8 0b3f 20e3 0e3f be48 c33e e087 0740
00000010: e62c c43e 33a8 ba3e 5376 3440 7fb0 cd3e
00000020: 382e f83e ef9a e83e ea18 de3e 2f7d 883f
00000030: ddeb ed3e fd6a 8a3d e6c2 30c1

dense2.batch_norm1.weight f4 [15]
4.665794 5.0767207 3.7402086 5.6027627 3.8701327 3.7145143 6.140053 4.2473826
4.5654917 3.977078 4.321124 5.157285 4.285641 0.44225234 14.340244
00000000: 2f4e 9540 7f74 a240 945f 6f40 d549 b340
00000010: 41b0 7740 9aba 6d40 507b c440 8fea 8740
00000020: 8218 9240 7288 7e40 a646 8a40 7b08 a540
00000030: f923 8940 e66e e23e a471 6541

dense2.batch_norm1.bias f4 [15]
-3.0200093 -3.0724204 -2.6394694 -2.6328955 -2.4527068 -2.2870007 -2.386381 -2.9237046
-2.71161 -2.3546987 -2.5927892 -2.7353737 -2.8147037 -0.65128386 5.3017163
00000000: d547 41c0 89a2 44c0 11ed 28c0 5c81 28c0
00000010: 26f9 1cc0 385e 12c0 77ba 18c0 fa1d 3bc0
00000020: 058b 2dc0 62b3 16c0 42f0 25c0 5d10 2fc0
00000030: 1b24 34c0 8aba 26bf a9a7 a940

dense2.batch_norm1.running_mean f4 [15]
0.29325125 0.31212577 0.06529501 1.8683559 0.1460832 0.13653839 2.6209478 0.12599413
0.25377235 0.2323066 0.19674008 0.8321043 0.25213256 -0.056532513 -11.268412
00000000: 0725 963e f3ce 9f3e 64b9 853d 4926 ef3f
00000010: d696 153e b8d0 0b3e 9cbd 2740 9b04 013e
00000020: 73ee 813e c8e1 6d3e 3b76 493e ca04 553f
00000030: 8517 813e a38e 67bd 6a4b 34c1

dense2.batch_norm1.running_var f4 [15]
0.29866847 0.31122208 0.33297783 0.45266226 0.25728163 0.18489674 0.4975373 0.30636346
0.28435877 0.19259569 0.2554788 0.3389614 0.28332567 0.24811487 1.0367845
00000000: 13eb 983e 8058 9f3e 127c aa3e 59c3 e73e
00000010: 6bba 833e 9255 3d3e 36bd fe3e acdb 9c3e
00000020: 7997 913e ce37 453e 1ece 823e 598c ad3e
00000030: 1010 913e d311 7e3e 5bb5 843f
