classification/model_rnafm/13_final/300Epoch/rna_type_checkpoint_fold_2.pt (torch, 252002 bytes, 24 tensors)

layer1.conv1.weight f4 [30, 30, 5]
0	0x3ea885c1	0.32914546
1	0x3e80b9df	0.25141808
2	0x3fd7e3ea	1.6866429
3	0x3dbb8a14	0.09157196
4	0xbf236d23	-0.63838404
5	0xbf1a9cfc	-0.6039579
6	0x3ea61d2b	0.32444128
7	0xbe2cc99e	-0.16873786
8	0x3d4b9119	0.049698923
9	0x3f3dea33	0.74185485
10	0xbf54a3a4	-0.83062196
11	0xbe4bc380	-0.19898796
12	0x3e465ca6	0.1937128
13	0x3fb77ee6	1.4335601
14	0xbddfa527	-0.10920172
15	0xbf7c89c9	-0.98647743
16	0x3f041d09	0.51606804
17	0xbf285f16	-0.6577009
18	0x3d2ba96d	0.041909624
19	0x3e889cbc	0.2668208
20	0xbf5576c2	-0.83384335
21	0x3f6fdf51	0.9370013
22	0xbf401750	-0.7503557
23	0x3f0d3f0b	0.5517432
24	0x3f32cd21	0.6984425
25	0xbea02649	-0.3127921
26	0xbf8e320e	-1.1109025
27	0xbe9add20	-0.3024683
28	0xbf06e660	-0.52695274
29	0xbe3c92e1	-0.18415405
30	0x3ea611eb	0.32435545
31	0xbecaf3cd	-0.3963913
32	0xbebb464d	-0.36577073
33	0xbf0cf2ce	-0.5505799
34	0x3e41b049	0.18914904
35	0x3e88ef65	0.26745144
36	0x3f82cd4a	1.0218899
37	0x3e4ede23	0.20201926
38	0xbec13fd7	-0.37744018
39	0x3da1255b	0.07868453
40	0x3c755dff	0.014976024
41	0x3e818e4c	0.25303876
42	0x3a44872e	0.000749695
43	0xbe2a22c7	-0.16614829
44	0xbd907c57	-0.07054966
45	0xbcb27c64	-0.02178783
46	0xbdf3c218	-0.11902255
47	0x3e3b4971	0.18289734
48	0xbdaf32ff	-0.085546486
49	0xbea17791	-0.31536534
50	0x3e825902	0.25458533
51	0xbe98d2f8	-0.29848456
52	0x3f188386	0.5957569
53	0xbe36a6ae	-0.17837021
54	0xbeab40ad	-0.3344778
55	0x3e8c76b3	0.2743431
56	0x3bcde7be	0.0062837293
57	0x3f1090ca	0.5647093
58	0xbe49dcd2	-0.19713143
59	0xbef0ac78	-0.47006583
60	0xbd78a2cf	-0.06070214
61	0xbd0839e7	-0.033258345
62	0x3ce0e9b8	0.027455196
63	0xbe150ade	-0.14554927
64	0xbf2bd87e	-0.67127216
65	0xbd9c7b78	-0.07640737
66	0xbe9d7506	-0.30753344
67	0xbdbb3230	-0.09140432
68	0x3f2c3ccc	0.6728027
69	0xbe97f80d	-0.29681435
70	0xbdcb88d1	-0.09938205
71	0xbd954cbd	-0.07290027
72	0xbe9d1a69	-0.30684212
73	0x3e7d5a82	0.24741557
74	0xbe04b1a3	-0.12958388
75	0xbd68a64a	-0.05679921
76	0x3e76fd2d	0.24120016
77	0x3d95d903	0.07316782
78	0x3dc31d4a	0.09527071
79	0x3ddf6ab9	0.109090276
80	0xbe16bbc2	-0.14720061
81	0xbd408da6	-0.047010086
82	0x3e46e927	0.19424878
83	0xbe531cfb	-0.20616524
84	0x3dcd086b	0.10011371
85	0x3cc1a9b1	0.023640485
86	0xbe010e33	-0.12603073
87	0xbda1946c	-0.07889637
88	0xbe5269be	-0.2054815
89	0x3ed3c870	0.4136386
90	0x3bebf37e	0.0072006574
91	0x3d9238d1	0.07139743
92	0xbdbea4b3	-0.09308758
93	0xbdfb66c7	-0.122754626
94	0xbcb9ca72	-0.022679541
95	0x3e174227	0.14771329
96	0x3d814775	0.063124575
97	0x3e914e6f	0.28380153
98	0x3e12f4d3	0.14351206
99	0xbdf667c5	-0.12031511
100	0x3e87c8a8	0.26520276
101	0x3df980e1	0.12182785
102	0xbdafa4d0	-0.08576357
103	0x3e83d9f1	0.25752214
104	0x3ce55515	0.027994672
105	0xbd1d6d22	-0.038434155
106	0xbdf67667	-0.12034302
107	0xbe946976	-0.2898671
108	0x3eb425a4	0.35184968
109	0x3ecc775b	0.3993481
110	0xbdea3b8b	-0.11437138
111	0xbe7281e8	-0.23682368
112	0xbe492645	-0.19643505
113	0x3f0c2008	0.54736376
114	0x3f280bc6	0.65642965
115	0xbf376188	-0.71633196
116	0xbea46108	-0.3210528
117	0xbe34e840	-0.17666721
118	0x3f0972b5	0.53690654
119	0x3c4c5224	0.012470756
120	0xbf0a13bd	-0.5393637
121	0xbbe8a03a	-0.0070991786
122	0xbe14c843	-0.14529519
123	0x3d855507	0.06510358
124	0xbe532d87	-0.20622836
125	0x3d399511	0.045308176
126	0xbe99699f	-0.29963395
127	0xbf0b9c1a	-0.5453507
128	0x3e6e4bc4	0.2327109
129	0x3cbcdbdb	0.023054054
130	0x3e55e547	0.20888244
131	0xbe22c8ee	-0.15896961
132	0xbe5923a0	-0.21204996
133	0x3ec078c5	0.3759214
134	0x3e305e78	0.17223537
135	0xbe6d4d4e	-0.2317402
136	0xbcda3aed	-0.026639426
137	0xbdbaf073	-0.09127893
138	0x3e7662b9	0.24061097
139	0x3e1cd44a	0.15315357
140	0xbe92c97f	-0.28669354
141	0x3eb0d02f	0.3453383
142	0xbd297ee8	-0.041380793
143	0xbeff43fa	-0.4985655
144	0xbd303736	-0.043021403
145	0xbeda3638	-0.4261949
146	0x3e646a47	0.22306167
147	0x3d8bcc6c	0.068261
148	0xbf84f672	-1.0387709
149	0xbe1be25b	-0.15223067
150	0x3f41091c	0.75404525
151	0x3fb107cc	1.3830504
152	0x3f10a20b	0.5649726
153	0xbfeeaec0	-1.864708
154	0x3f1490a5	0.5803321
155	0xbdc7137e	-0.09720515
156	0x3df3e6a2	0.11909224
157	0x3f49f9dd	0.78896886
158	0x3f0000ff	0.5000152
159	0xbebe5274	-0.37172282
160	0xbf247049	-0.64233834
161	0x3e35a800	0.17739868
162	0xbebbefc0	-0.36706352
163	0xbfab73cd	-1.3394715
164	0xbfb78b98	-1.4339476
165	0xbf3276d2	-0.69712555
166	0xbecd0604	-0.40043652
167	0xbf69b3b3	-0.91289824
168	0xbf311e9b	-0.69187325
169	0xbf587a4a	-0.845616
170	0x3d9851f1	0.07437504
171	0x3d6d1090	0.057877123
172	0xbe6c5ccc	-0.23082274
173	0x3f3506fb	0.70713776
174	0x3de57bcb	0.11205252
175	0xbf87aa86	-1.0598915
176	0xbe0f267d	-0.13979526
177	0xbf3f0602	-0.7461854
178	0xbd950e07	-0.07278066
179	0xbeb9fa23	-0.36323652
180	0xbee759aa	-0.45185596
181	0x3f1bc5d9	0.60848767
182	0xbe7d1bb6	-0.24717602
183	0xbe614dd3	-0.22002344
184	0x3d64ed06	0.055890106
185	0x3df74ae5	0.12074832
186	0x3d7818d8	0.060570568
187	0x3cef2d9a	0.02919655
188	0x3e9c3c47	0.30514738
189	0x3e9ee851	0.31036618
190	0xbdb84823	-0.08998134
191	0x3ef90981	0.48640063
192	0x3db9da7f	0.09074878
193	0xbd94b65a	-0.07261343
194	0x3e8fed06	0.28110522
195	0xbe0d63a5	-0.13807543
196	0x3f214711	0.62999064
197	0xbe9673e7	-0.293853
198	0xbe08fa1c	-0.13376659
199	0x3db9f6fb	0.09080311
200	0xbe7a13ab	-0.24421565
201	0x3f2fab5b	0.6862084
202	0xbe74574d	-0.23861428
203	0x3dea1545	0.11429838
204	0xbdf9c902	-0.12196542
205	0xbe745492	-0.23860386
206	0x3e8f6211	0.28004506
207	0x3d783621	0.060598496
208	0xbe5608d9	-0.20901813
209	0xbeb5a71f	-0.35479066
210	0x3ce12d98	0.027487561
211	0x3e3156f7	0.1731833
212	0x3e90cbaa	0.28280383
213	0xbbc2f6fc	-0.005949853
214	0xbac9181f	-0.0015342272
215	0xbd90fdc9	-0.07079656
216	0x3e8236e4	0.25432503
217	0x3e9fa652	0.3118158
218	0xbe108d1e	-0.14116332
219	0xbebfadf1	-0.37437394
220	0xbe0bafe3	-0.13641314
221	0x3cb2b6a9	0.021815615
222	0xbcaf352b	-0.021387657
223	0xbf12481f	-0.571413
224	0x3e29b053	0.16571169
225	0x3e8a6dd8	0.2703693
226	0x3d618410	0.055057585
227	0xbe4afd99	-0.19823302
228	0xbf0b1381	-0.54326636
229	0xbe1e4701	-0.15456773
230	0x3e6708e0	0.2256198
231	0x3d7822a8	0.060579926
232	0xbc8f61ad	-0.01750263
233	0xbf011770	-0.5042639
234	0xbee2bf69	-0.4428666
235	0x3e1eef12	0.15520886
236	0xbdffe50e	-0.124948606
237	0xbe821fff	-0.25415036
238	0xbed1ab77	-0.4095113
239	0x3e2bc983	0.1677609
240	0xbd09afb3	-0.033614825
241	0xbed16f53	-0.40905246
242	0xbee64abe	-0.449789
243	0xbe5a7c57	-0.21336494
244	0x3e14f669	0.14547123
245	0xbef9cbee	-0.48788399
246	0xbee0e645	-0.43925682
247	0xbc05f4a2	-0.008176001
248	0x3e22acd5	0.15886243
249	0xbd63baed	-0.05559819
250	0xbd8f6464	-0.0700157
251	0xbea3bcf1	-0.31980088
252	0x3c81b313	0.01583246
253	0x3e959da6	0.2922184
254	0x3de9a7ba	0.114089444
255	0x3e2f3c1b	0.17112772

layer1.conv1.bias f4 [30]
0	0xbd6b2efc	-0.057417855
1	0x3e0010b8	0.12506378
2	0xbc777a61	-0.015104861
3	0x3dd92267	0.10602265
4	0x3e52bc59	0.20579661
5	0xbd91260f	-0.07087337
6	0x3decc6ac	0.11561331
7	0x3c211758	0.009832226
8	0x3ead6b61	0.33870986
9	0x3cb1afb2	0.021690223
10	0xbd91b79f	-0.07115101
11	0xbe2cd500	-0.16878128
12	0x3bafaf9c	0.0053615104
13	0x3db59f38	0.08868259
14	0x3e5c4e74	0.21514302
15	0x3d661863	0.0561756
16	0x3c05df9a	0.008170987
17	0x3cc34b62	0.023839656
18	0xbe0a250e	-0.13490698
19	0xbd52c6f6	-0.051459275
20	0x3da730b5	0.08163587
21	0x3d8e9bef	0.06963336
22	0xbd10f5fa	-0.03539083
23	0x3e0a7541	0.13521291
24	0x3e0521ad	0.13001128
25	0x3d999472	0.07499017
26	0x3d13b763	0.036063563
27	0x3ca95c3e	0.020673867
28	0x3cc7f8cc	0.024410628
29	0x3c951fa2	0.01820356

layer1.bn1.weight f4 [30]
0	0x3f945331	1.1587888
1	0x3f5979e2	0.84951603
2	0x3f0a10dc	0.53931975
3	0x3f8a0c2d	1.0784966
4	0x3f7daf79	0.99095875
5	0x3f474611	0.7784129
6	0x3f40bc35	0.7528718
7	0x3f1c3d56	0.6103109
8	0x3fb6c873	1.4279922
9	0x3f6b5bde	0.91937053
10	0x3f3a576c	0.72789645
11	0x3f6215b4	0.88314366
12	0x3f53635a	0.82573473
13	0x3f16030a	0.5859839
14	0x3f3dcab5	0.7413743
15	0x3f134712	0.5753032
16	0x3f4b45c0	0.79403305
17	0x3f1edc67	0.6205506
18	0x3f2ca22e	0.67434967
19	0x3f40f2e8	0.75370646
20	0x3f4580d1	0.77149683
21	0x3f57912f	0.8420591
22	0x3f336c64	0.70087266
23	0x3f220024	0.63281465
24	0x3f63e736	0.89024675
25	0x3f2d6ac5	0.6774104
26	0x3f522811	0.82092386
27	0x3f6211b4	0.8830826
28	0x3f3b54d6	0.73176324
29	0x3f5f4490	0.87213993

layer1.bn1.bias f4 [30]
0	0x3d18f5dd	0.03734385
1	0x3d995457	0.0748679
2	0x3d0ab613	0.033865046
3	0x3ec70f7b	0.38878998
4	0x3a5f5f97	0.0008521019
5	0x3e02c48a	0.12770286
6	0x3c9afa48	0.018918172
7	0x3e16bec8	0.14721215
8	0x3d4dbfe6	0.050231837
9	0x3e0eaf15	0.13933976
10	0x3e59ef1c	0.21282619
11	0x3bc4ea27	0.0060093584
12	0xbd96cb3d	-0.073629834
13	0xbd98f4c0	-0.07468557
14	0x3e302d4c	0.1720478
15	0xbd8307c3	-0.06397965
16	0x3d85e169	0.06537134
17	0x3a42eca0	0.00074357726
18	0x3d592f6d	0.053023744
19	0x3e28c24f	0.16480373
20	0x3e46fe3f	0.19432925
21	0x3df70fbb	0.12063547
22	0xbd0ec4cf	-0.03485566
23	0x3de9835a	0.114020064
24	0xbe2030b5	-0.1564358
25	0xbe2c225b	-0.1680998
26	0x3dad1565	0.08451346
27	0xbe8e355a	-0.2777508
28	0x3d2a74ae	0.04161518
29	0x3dc6dc55	0.09709994

layer1.bn1.running_mean f4 [30]
0	0xbd83fea7	-0.064450555
1	0x3dd8726a	0.10568698
2	0xbcc9deb7	-0.024642332
3	0x3dc6493b	0.09681936
4	0x3e493b0c	0.19651431
5	0xbdab7e7a	-0.08373733
6	0x3dd6f196	0.104952976
7	0xbc272959	-0.010202729
8	0x3eb0b507	0.34513113
9	0xba675f36	-0.0008826138
10	0xbdb93227	-0.09042769
11	0xbe372215	-0.17884095
12	0xbcd75630	-0.026286215
13	0x3daceb76	0.08443348
14	0x3e5aba22	0.21360067
15	0x3d4df108	0.050278693
16	0xbc876e75	-0.016532162
17	0x3b942643	0.0045211627
18	0xbe07cd65	-0.13261946
19	0xbd24e772	-0.040259786
20	0x3d8b9d3a	0.06817098
21	0x3d63151d	0.055440057
22	0xbd2b4d36	-0.04182168
23	0x3dfa27be	0.122146115
24	0x3db81c66	0.089897916
25	0x3d95f5d1	0.073222764
26	0x3cca7fe4	0.024719186
27	0x3d1e74d5	0.03868564
28	0x3c41f587	0.011838323
29	0x3c393f4a	0.011306593

layer1.bn1.running_var f4 [30]
0	0x40b11374	5.5336246
1	0x410a4c0c	8.643566
2	0x410d8421	8.844758
3	0x3fbda501	1.481598
4	0x40813655	4.0378823
5	0x40d8ab13	6.770883
6	0x40f0800e	7.5156317
7	0x40d232ba	6.568692
8	0x406add34	3.6697512
9	0x4108a706	8.540777
10	0x40bf3d07	5.9761996
11	0x4062f5c5	3.5462506
12	0x416be34c	14.742992
13	0x40b8f1ba	5.7795076
14	0x3fcc9464	1.5982785
15	0x4066a3eb	3.6037548
16	0x409c6c21	4.8881993
17	0x408a60d7	4.3243213
18	0x4067befe	3.6210322
19	0x404dbc12	3.214604
20	0x4036bcf0	2.8552818
21	0x4198da12	19.10648
22	0x3ff58a6f	1.9182872
23	0x403b63f8	2.9279766
24	0x41621d37	14.132133
25	0x40436866	3.053247
26	0x409fc852	4.993203
27	0x40ffc324	7.992571
28	0x40882378	4.2543297
29	0x3fe285a0	1.7697029

conv1.weight f4 [30, 30, 5]
0	0xbea15c5e	-0.31515783
1	0xbe9e07f2	-0.30865437
2	0xbf5697a4	-0.83825135
3	0xbd647467	-0.055775072
4	0x3f30621a	0.6889969
5	0xbdc0df03	-0.09417536
6	0xbe02dc45	-0.12779339
7	0xbe137898	-0.14401472
8	0xbf28a048	-0.6586957
9	0xbf0ae626	-0.5425743
10	0xbee130f2	-0.43982655
11	0x3d0c3c6c	0.03423731
12	0x3e2f2736	0.17104802
13	0x3f02ec1c	0.51141524
14	0x3f1de364	0.61675096
15	0xbdcb8ea3	-0.09939315
16	0x3efef080	0.49792862
17	0xbf4519dc	-0.76992583
18	0xbeb57497	-0.35440513
19	0x3efd5864	0.494815
20	0x3e5bf191	0.21478869
21	0xbe886dc7	-0.26646253
22	0x3e059088	0.13043416
23	0x3f9aa3c3	1.2081226
24	0x3e0a578b	0.13509957
25	0x3eb4e08d	0.3532757
26	0x3e3fdaa7	0.18735753
27	0xbe35ae75	-0.17742331
28	0x3f20ca1a	0.6280838
29	0x3f2e738c	0.6814506
30	0xbf0f100c	-0.5588386
31	0xbe638633	-0.22219162
32	0x3ef5479c	0.47906196
33	0xbdfdfef3	-0.12402143
34	0x3e3ddcb1	0.18541218
35	0x3f09c5ab	0.5381724
36	0x3eb7a721	0.35869697
37	0xbe481eba	-0.19542971
38	0x3e1ffe8e	0.15624449
39	0xbeff1202	-0.49818426
40	0xbf207c71	-0.6268988
41	0xbed41cd1	-0.41428235
42	0xbf003bda	-0.50091326
43	0xbe543ff4	-0.20727521
44	0xbee22483	-0.4416848
45	0xbeba4c63	-0.36386403
46	0x3e2da446	0.16957197
47	0xbe8c3091	-0.27380803
48	0xbf0307d6	-0.5118383
49	0xbe8bab81	-0.27279285
50	0x3e0e9c5f	0.13926838
51	0xbe6e6d73	-0.23283939
52	0x3ee1fff7	0.44140598
53	0xbe1c08aa	-0.1523768
54	0xbe9f6bb9	-0.31136873
55	0xbf178ccd	-0.5919922
56	0x3ebe9a0c	0.37226903
57	0xbe94a061	-0.2902861
58	0xbf051655	-0.519872
59	0xbd06d530	-0.032918155
60	0x3e16523e	0.1467981
61	0xbeb6f182	-0.3573113
62	0xbede55db	-0.43424878
63	0x3cd4fc4a	0.025999207
64	0xbdbd9be3	-0.09258249
65	0xbe149e16	-0.1451343
66	0x3e9c5e56	0.30540723
67	0x3da0be12	0.07848753
68	0xbe4e6cc1	-0.20158674
69	0xbbe25a92	-0.0069077695
70	0xbeff68d1	-0.49884656
71	0xbee89c80	-0.454319
72	0x3f100006	0.56250036
73	0x3e5055ad	0.20345183
74	0xbeec6e31	-0.4617782
75	0x3e19e7aa	0.15029779
76	0x3d290c5a	0.041271545
77	0x3ed10dd2	0.40830857
78	0x3e4d9944	0.20077997
79	0x3e0a593a	0.135106
80	0x3f1ee519	0.62068325
81	0x3ee26110	0.44214678
82	0x3d9053e8	0.07047254
83	0xbea50b70	-0.3223529
84	0x3de05dcf	0.109553926
85	0x3e8621f0	0.26197767
86	0xbeab62c6	-0.33473796
87	0x3e7aed1c	0.24504513
88	0xbe2b8161	-0.16748573
89	0x3ef7ab5d	0.48372927
90	0x3e1d61a0	0.15369272
91	0x3ee61ded	0.44944707
92	0x3ddf1d6c	0.10894284
93	0xbf377994	-0.7166989
94	0xbdeeb808	-0.11656195
95	0xbed08387	-0.40725347
96	0xbe47f101	-0.1952553
97	0xbf088231	-0.53323656
98	0xbef8302b	-0.4847425
99	0x3e9d186c	0.30682695
100	0x3e40391e	0.18771788
101	0x3ca700b1	0.020386072
102	0x3ef602f2	0.48049122
103	0xbd8550c6	-0.06509547
104	0xbf36e147	-0.71437496
105	0xbcff89f2	-0.031193707
106	0xbd80ba66	-0.06285553
107	0xbea7f9b9	-0.3280771
108	0xbd11db77	-0.03560969
109	0xbf1128dd	-0.5670298
110	0xbf071c11	-0.527772
111	0xbe956b6a	-0.29183513
112	0x3d2329e6	0.03983488
113	0x3ef1decb	0.4724029
114	0x3e930c19	0.28720167
115	0x3dee4e7f	0.11636066
116	0x3ea49577	0.32145283
117	0x3e34b227	0.17646085
118	0xbe176078	-0.14782894
119	0xbe9c9c10	-0.30587816
120	0xbdddac62	-0.10823895
121	0xbe6c10e2	-0.23053315
122	0xbed0ec28	-0.40805173
123	0x3e076be3	0.1322475
124	0xbeae626c	-0.34059465
125	0x3cf5fb72	0.030027125
126	0x3eba5bf8	0.36398292
127	0x3e22edd7	0.15911041
128	0x3f23cc40	0.63983536
129	0x3d67a3b2	0.056552596
130	0xbe6e12df	-0.23249386
131	0xbd65e59c	-0.056127176
132	0x3f0b5d01	0.5443879
133	0x3f00db33	0.5033447
134	0x3c70a6b9	0.014688187
135	0x3edac040	0.427248
136	0x3f1e601e	0.61865413
137	0x3b978de6	0.00462507
138	0x3ea09a02	0.313675
139	0x3d727e9a	0.059202768
140	0xbe269d6a	-0.16270986
141	0xbe136844	-0.14395243
142	0xbce6cb49	-0.028173106
143	0x3e2ac736	0.16677555
144	0xbeb22fb8	-0.34802032
145	0xbeb9938c	-0.36245382
146	0x3f27db99	0.65569454
147	0x3e4db957	0.20090233
148	0xbd4c67a9	-0.049903546
149	0xbed5dfae	-0.41772217
150	0xbeaeabcc	-0.34115446
151	0xbe997dd8	-0.29978824
152	0xbf5908cc	-0.8477905
153	0xbdc9b18a	-0.09848316
154	0x3f35b3ed	0.7097767
155	0xbde31d60	-0.11089587
156	0xbe22d4b4	-0.15901452
157	0xbe68c8ff	-0.22732924
158	0xbf2d5051	-0.6770068
159	0xbf001ba9	-0.50042206
160	0xbed53597	-0.41642448
161	0x3cea59a4	0.028607197
162	0x3e46dbbb	0.19419758
163	0x3edb987e	0.4288978
164	0x3f13db39	0.5775638
165	0xbdae3aa7	-0.08507281
166	0x3eea398a	0.45747024
167	0xbf47b172	-0.78005135
168	0xbeba6bbb	-0.36410317
169	0x3ef22e8e	0.47301143
170	0x3e7c2fc6	0.24627599
171	0xbead11e0	-0.338027
172	0x3e248be0	0.16068983
173	0x3fa7cfcc	1.311029
174	0x3d8646ad	0.06556449
175	0x3eb90ee0	0.3614416
176	0x3d85ad48	0.065271914
177	0xbe453b3f	-0.19260882
178	0x3f1ecf3c	0.62034965
179	0x3f370041	0.7148476
180	0xbf14c1e4	-0.58108354
181	0xbe8c3a4d	-0.2738823
182	0x3ef1884a	0.47174293
183	0xbe276118	-0.16345632
184	0x3e36a7ee	0.17837498
185	0x3f00c622	0.50302327
186	0x3ec37c98	0.38180995
187	0xbe8bc1e2	-0.27296358
188	0x3d9cd43c	0.07657668
189	0xbecf71e3	-0.40516576
190	0xbf1c62e8	-0.6108842
191	0xbec8bb94	-0.3920561
192	0xbef26ea4	-0.47350037
193	0xbe68877a	-0.2270793
194	0xbedebefd	-0.43505087
195	0xbeb07899	-0.3446701
196	0x3dd529da	0.10408373
197	0xbe8eee09	-0.2791598
198	0xbefa4209	-0.48878506
199	0xbe824050	-0.25439692
200	0x3e2c17ef	0.16806005
201	0xbe510103	-0.20410542
202	0x3e9cf657	0.30656692
203	0xbe01720a	-0.12641159
204	0xbe97c52a	-0.29642612
205	0xbf16c1df	-0.58889574
206	0x3ec86ca8	0.39145398
207	0xbea1ed9f	-0.31626603
208	0xbf0c0635	-0.5469697
209	0x3cfedd47	0.031111373
210	0x3db31c5a	0.08745642
211	0xbec0abc7	-0.37631056
212	0xbf0102c8	-0.5039487
213	0x3ce475a5	0.027888129
214	0xbd70b8b1	-0.058769885
215	0xbe0d6bfd	-0.13810726
216	0x3e79eca5	0.24406679
217	0x3ddfab44	0.10921338
218	0xbe2e5f1e	-0.17028472
219	0xbc256a32	-0.01009612
220	0xbef0450a	-0.46927673
221	0xbf1133cb	-0.56719655
222	0x3f0954ed	0.5364521
223	0x3dafe491	0.085885175
224	0xbefc87ae	-0.49322265
225	0x3e0737cd	0.1320488
226	0x3dba12ce	0.09085618
227	0x3ec50211	0.3847814
228	0x3e256f77	0.16155802
229	0x3db1b808	0.08677679
230	0x3f1c153e	0.60969913
231	0x3f092d26	0.53584516
232	0x3d0f138f	0.034930762
233	0xbec71c5f	-0.38888833
234	0x3dab1fd7	0.08355682
235	0x3e3825ac	0.1798312
236	0xbeb2ab4e	-0.3489632
237	0x3e97abd3	0.2962328
238	0xbe3e954f	-0.18611644
239	0x3efe9df6	0.4972989
240	0x3e4fe059	0.20300426
241	0x3edf1e33	0.43577728
242	0x3e09d196	0.13458857
243	0xbf2ee8b1	-0.6832381
244	0xbe3e99ff	-0.18613432
245	0xbef9daba	-0.48799688
246	0xbe61c905	-0.22049339
247	0xbf0806de	-0.5313548
248	0xbeff3fba	-0.49853307
249	0x3e98230a	0.29714233
250	0x3e819c0f	0.25314376
251	0xbd9506bc	-0.07276675
252	0x3eefc7cd	0.46832123
253	0xbd74972d	-0.059714485
254	0xbf370159	-0.7148643
255	0x3d8535d0	0.065044045

conv1.bias f4 [30]
0	0x3e282421	0.16420032
1	0x3e07aa1d	0.13248487
2	0xbde4c8f3	-0.111711405
3	0x3dd90b75	0.105978884
4	0x3b68c921	0.0035520273
5	0xbc491a17	-0.012274287
6	0xbd9e307d	-0.07724092
7	0x3e137f87	0.14404117
8	0x3d2bedef	0.041974958
9	0xbbfdbb88	-0.0077433027
10	0x3d24e403	0.04025651
11	0x3e04388d	0.12912197
12	0x3e6763b7	0.22596632
13	0x3d3d49a2	0.0462128
14	0xbc98a7cd	-0.018634701
15	0x3dad6e1a	0.08468266
16	0x3d559e81	0.052153114
17	0x3cf4935a	0.029855419
18	0xbce6bcca	-0.028166194
19	0xbd87f514	-0.06638542
20	0x3ca39f57	0.01997344
21	0x3d9cb170	0.07651031
22	0x3d327e07	0.04357722
23	0x3dc6e4a1	0.09711576
24	0xbca2fbff	-0.019895552
25	0xbc631b59	-0.013861501
26	0x3d58e701	0.052954677
27	0x3c9ddadc	0.0192694
28	0xbd5eb106	-0.05436804
29	0x3cd73d8e	0.026274469

bn1.weight f4 [30]
0	0x3fb4f4aa	1.4137166
1	0x3fb5ec34	1.4212708
2	0x3fb10bc9	1.3831722
3	0x3fb07845	1.3786703
4	0x3faa4639	1.330268
5	0x3f9c755e	1.2223318
6	0x3f98bff4	1.193358
7	0x3fa420c5	1.28225
8	0x3f949813	1.1608909
9	0x3f912d9d	1.1342045
10	0x3f89d8ab	1.0769247
11	0x3f85fcbe	1.0467756
12	0x3fe1ff6a	1.7656071
13	0x3f877d45	1.0585104
14	0x3f7fef7e	0.9997481
15	0x3f7393e2	0.95147526
16	0x3f69be2d	0.9130581
17	0x3f676581	0.9038926
18	0x3f64325c	0.8913934
19	0x3f776edf	0.9665355
20	0x3f586dd4	0.84542584
21	0x3f5b5352	0.8567401
22	0x3f30785b	0.6893365
23	0x3f3d2680	0.7388687
24	0x3f3a08e6	0.7266983
25	0x3f28df10	0.65965366
26	0x3f22111d	0.6330736
27	0x3f1b2a08	0.6061101
28	0x3f26a169	0.6509004
29	0x3f1fdb0e	0.62443626

bn1.bias f4 [30]
0	0x3cf1730d	0.029473806
1	0x3cdf4ca4	0.027258225
2	0x3cd163ab	0.02556022
3	0x3d077bac	0.033076927
4	0x3d40d2b8	0.047075957
5	0x3d7f1265	0.0622734
6	0x3dccf5cc	0.100078195
7	0x3dff241f	0.124580614
8	0x3dcbe85b	0.09956428
9	0x3ddd8354	0.108160645
10	0x3df6140a	0.12015541
11	0x3e017026	0.12640437
12	0x3ebe360e	0.37150615
13	0x3df2b45a	0.118508056
14	0x3e1185ff	0.14211272
15	0x3e22709e	0.15863273
16	0x3e2959e7	0.16538201
17	0x3e27cdfc	0.1638717
18	0x3e2cb108	0.16864407
19	0x3e26b282	0.16279033
20	0x3e57e29d	0.2108254
21	0x3e67bb4a	0.22630039
22	0x3e749df0	0.23888373
23	0x3e638864	0.22219998
24	0x3e763b33	0.2404602
25	0x3e87a139	0.2649019
26	0x3ea2c352	0.31789643
27	0x3eb0e00f	0.34545943
28	0x3ea50fa1	0.32238486
29	0x3ea30a07	0.31843588

bn1.running_mean f4 [30]
0	0xbf9d13b2	-1.2271636
1	0xbfcac57f	-1.5841521
2	0xbfd8b5d9	-1.6930496
3	0xbfc31b52	-1.5242712
4	0xbfc8c6d5	-1.5685679
5	0xbf98969c	-1.1920962
6	0xbfbc762c	-1.4723563
7	0xbf9d082c	-1.2268119
8	0xbfb76e62	-1.4330561
9	0xbfa94401	-1.3223878
10	0xbf915cba	-1.1356423
11	0xbf8f1478	-1.1178122
12	0xbe86bdfa	-0.26316816
13	0xbfa1e9d0	-1.2649479
14	0xbfa7e766	-1.3117492
15	0xbf6d748c	-0.9275596
16	0xbf6a9874	-0.91638875
17	0xbf6a7ec4	-0.9159968
18	0xbf43090c	-0.7618568
19	0xbf7b1aa9	-0.98087555
20	0xbf2f5d62	-0.68501866
21	0xbf6531ee	-0.8952931
22	0xbf1cf312	-0.61308396
23	0xbf47c879	-0.7804027
24	0xbf472bfc	-0.7780149
25	0xbf22412a	-0.6338068
26	0xbd195bfe	-0.037441246
27	0xbe2b418b	-0.16724221
28	0xbe032c00	-0.12809753
29	0xbe733691	-0.23751284

bn1.running_var f4 [30]
0	0x412b8bf1	10.721665
1	0x413ba14b	11.726878
2	0x412a643c	10.649471
3	0x4128dbb5	10.553639
4	0x412c8f64	10.785007
5	0x410fa810	8.978531
6	0x41264737	10.392386
7	0x411d1cc5	9.819524
8	0x413baf42	11.730288
9	0x413a8eaa	11.65983
10	0x4130c0ff	11.047118
11	0x4128bd41	10.546205
12	0x4066a9bd	3.60411
13	0x413dca66	11.861914
14	0x414e370c	12.888439
15	0x413a6426	11.64945
16	0x414fc1e8	12.98484
17	0x414f6f74	12.96471
18	0x414f4bc4	12.955997
19	0x4145c34d	12.360181
20	0x413fddfa	11.9916935
21	0x414c3a38	12.764214
22	0x41465fc4	12.39838
23	0x4141bedc	12.109097
24	0x4132357b	11.138057
25	0x41153bb3	9.327075
26	0x413eff51	11.937333
27	0x41341070	11.254013
28	0x413a82d8	11.656944
29	0x4137d41a	11.489283

dense1.dense.weight f4 [96, 512]
0	0xbe873725	-0.2640926
1	0x3eec990b	0.46210513
2	0xbd0f4b96	-0.034984194
3	0xbeaed69d	-0.34148112
4	0x3f128964	0.5724089
5	0xbdc9e3ec	-0.09857926
6	0x3d28978c	0.04116015
7	0xbea89726	-0.32927817
8	0x3e1cb210	0.153023
9	0xbe2819cd	-0.16416092
10	0x3e8c0a3f	0.27351567
11	0xbcd6d128	-0.02622278
12	0x3ec03cf8	0.37546515
13	0x3ec756b6	0.38933343
14	0x3ea1118a	0.31458694
15	0x3ccd29ab	0.025044283
16	0xbe33ff2d	-0.1757781
17	0xbecf22bd	-0.4045619
18	0x3cc8b6dd	0.024501259
19	0x3eab2ade	0.33431143
20	0x3e116750	0.14199567
21	0x3e3086af	0.17238878
22	0xbf17ce17	-0.59298843
23	0x3f2e4f5c	0.6808984
24	0x3ef42c3e	0.47690004
25	0x3e4d7c98	0.2006706
26	0xbed849ce	-0.42243809
27	0xbf3b2c8f	-0.73114866
28	0x3ce06cbb	0.027395597
29	0xbf0b5465	-0.5442565
30	0xbc36d60a	-0.011159429
31	0x3ebda91c	0.37043083
32	0xbdc347c5	-0.09535173
33	0xbc84059e	-0.01611596
34	0xbea2ee96	-0.31822652
35	0xbe288783	-0.16457944
36	0x3e6258af	0.22104143
37	0xbe05cb38	-0.13065803
38	0x3e3ca33f	0.18421648
39	0x3f695b55	0.91154987
40	0xbe38b9e9	-0.18039669
41	0xbf8db9b8	-1.1072302
42	0x3f09cabc	0.53824973
43	0x3e220b1f	0.15824555
44	0xbcca1589	-0.024668472
45	0x3e3c829d	0.184092
46	0xbec98d20	-0.39365482
47	0xbda77a78	-0.08177656
48	0xbeb31498	-0.3497665
49	0xbf1bbceb	-0.6083514
50	0x3eba6d46	0.36411494
51	0xbe3cf136	-0.1845139
52	0xbf955c17	-1.1668729
53	0x3c757268	0.01498089
54	0xbed2e42a	-0.411897
55	0xbd9f5260	-0.07779384
56	0xbefe6424	-0.49685776
57	0x3e147005	0.14495857
58	0x3e615ffd	0.22009273
59	0x3ee537bc	0.44769084
60	0xbe6baf7a	-0.23016158
61	0x3e47a59e	0.19496772
62	0x3ed4cfe6	0.41564864
63	0x3da9b116	0.082857296
64	0x3e0d7df3	0.13817577
65	0xbf35e25d	-0.7104853
66	0xbed3abef	-0.41342112
67	0xbc2325c1	-0.009957732
68	0x3f45c14d	0.7724808
69	0xbd68c3e0	-0.056827426
70	0xbf1d1246	-0.6135601
71	0x3d88f788	0.06687838
72	0xbdc9a592	-0.09846033
73	0x3e7acae6	0.24491462
74	0x3e1d9f12	0.15392712
75	0xbea5f031	-0.32409814
76	0xbe73f739	-0.23824777
77	0xbe9ee9b8	-0.31037688
78	0x3ea7592e	0.32685226
79	0x3f0f38bb	0.5594594
80	0x3ef380f2	0.47559315
81	0xbf1a4677	-0.6026377
82	0xbed20208	-0.41017175
83	0xbe1ba4b1	-0.15199544
84	0xbeacbbcd	-0.3373703
85	0xbe241a30	-0.16025615
86	0x3d3d6c46	0.046245836
87	0xbe18e867	-0.14932404
88	0xbed538a9	-0.4164479
89	0x3d796a7e	0.060892574
90	0x3f0d2d61	0.5514737
91	0x3f39b8c2	0.72547543
92	0x3e950d48	0.29111695
93	0x3e7848ba	0.24246493
94	0x3c78740e	0.015164388
95	0xbf60c8fc	-0.8780668
96	0xbe98f215	-0.29872194
97	0xbec2cd74	-0.38047373
98	0x3da6b26b	0.08139499
99	0x3ed73ebd	0.42040053
100	0xbeadbcbe	-0.3393306
101	0xbc4bb2fa	-0.012432808
102	0xbf029617	-0.5101027
103	0x3de5ceef	0.1122111
104	0x3e38da49	0.18052019
105	0xbea5a9a7	-0.32355997
106	0x3cebc849	0.028782027
107	0x3f12d8b2	0.573619
108	0x3edd5571	0.4322925
109	0xbee96796	-0.45586842
110	0x3e207f22	0.15673497
111	0x3f1a08ff	0.60169977
112	0x3f093e85	0.5361102
113	0x3d81cf70	0.06338394
114	0xbd4db0f8	-0.0502176
115	0x3e670442	0.22560218
116	0xbdea7cb7	-0.11449569
117	0xbdd8544d	-0.10562954
118	0x3bd653ed	0.0065407665
119	0x3e27ce51	0.16387297
120	0x3e06a3f9	0.13148488
121	0xbddb9588	-0.1072188
122	0xbd6fa33d	-0.058505286
123	0xbf18d8a1	-0.5970555
124	0xbe1f83a3	-0.15577559
125	0x3ed88703	0.42290506
126	0xbef75538	-0.48307204
127	0x3f64ec92	0.8942348
128	0xbe90ad00	-0.2825699
129	0xbdc66c04	-0.09688571
130	0x3e4a4a52	0.19754913
131	0xbebacb57	-0.3648326
132	0xbe950bb1	-0.29110482
133	0xbdcb3cfb	-0.099237405
134	0x3e90eed9	0.28307226
135	0xbeaa94e2	-0.33316714
136	0xbee3ed50	-0.44516993
137	0xbecf7f90	-0.4052701
138	0xbed3eec3	-0.41393098
139	0x3e1e283b	0.15445034
140	0xbd7848f0	-0.060616434
141	0xbcf2c890	-0.029636651
142	0x3ecf0f54	0.40441382
143	0x3ecda3c8	0.40164018
144	0xbf5c6e9e	-0.8610629
145	0x3f4608b5	0.77357036
146	0x3f1d790b	0.6151282
147	0x3e31deb1	0.17370106
148	0xbead90ef	-0.33899638
149	0x3e5f34be	0.21797463
150	0x3e5f96ba	0.21834841
151	0x3df42fe6	0.119231984
152	0xbf40f97e	-0.75380695
153	0xbe99be22	-0.30027872
154	0x3e8d06a0	0.27544117
155	0xbde8dbf7	-0.1137008
156	0xbeaa1f06	-0.33226794
157	0x3d5939c8	0.05303362
158	0x3e937c53	0.2880579
159	0x3e512cc3	0.20427231
160	0xbe13ce8c	-0.1443426
161	0xbe932bb2	-0.28744274
162	0x3e7ddc9b	0.24791186
163	0x3f3bbafa	0.7333218
164	0xbecfe16a	-0.40601665
165	0xbdae4b25	-0.085104264
166	0x3e98dfdf	0.298583
167	0xbf6b4b2e	-0.9191159
168	0xbe3a97bd	-0.18221946
169	0x3f488d6b	0.78340787
170	0xbef5b21a	-0.47987443
171	0x3e8613c1	0.26186946
172	0xbe2c3303	-0.16816334
173	0xbe08718e	-0.13324568
174	0x3eab5862	0.33465868
175	0xbf8bb8db	-1.0915788
176	0xbefe8513	-0.49710903
177	0x3e841b72	0.2580219
178	0xbfaa231c	-1.3291965
179	0xbe394720	-0.18093538
180	0x3dd3b538	0.10337299
181	0xbed20a5a	-0.41023523
182	0xbf342167	-0.7036347
183	0xbe30ff08	-0.17284787
184	0xbf322dd2	-0.69601166
185	0x3f12809c	0.5722749
186	0xbe9833b5	-0.2972695
187	0xbf351298	-0.70731497
188	0xbe35eee0	-0.17766905
189	0x3e3e51d2	0.185859
190	0x3ec2bf0b	0.3803638
191	0x3e16e41a	0.14735451
192	0xbea53d7c	-0.3227347
193	0xbf5888f9	-0.84584004
194	0xbe61d5cf	-0.22054218
195	0xbd32a0ca	-0.04361037
196	0xbdd4b034	-0.103851706
197	0x3eb2382f	0.3480849
198	0x3e83e1af	0.2575812
199	0xbef8c49e	-0.48587507
200	0xbd48a978	-0.048989743
201	0x3d471d9f	0.048612233
202	0xbe1476c7	-0.14498435
203	0xbf140153	-0.5781452
204	0x3ee68c9b	0.45029148
205	0x3eb53f71	0.35399964
206	0xbed68f53	-0.41906223
207	0xbed8cffa	-0.42346174
208	0x3f4cf931	0.80067736
209	0x3f0b96c1	0.5452691
210	0x3d289c47	0.041164663
211	0xbe839547	-0.25699827
212	0xbf32717a	-0.697044
213	0xbebad996	-0.3649413
214	0x3ec4b639	0.38420275
215	0xbf3c0f92	-0.7346126
216	0xbee7bece	-0.4526276
217	0x3e03d873	0.12875538
218	0xbf0fa2c8	-0.5610776
219	0xbf01b21c	-0.506624
220	0x3ebae652	0.36503845
221	0xbea01f01	-0.31273654
222	0x3e591fed	0.21203585
223	0xbefe6dbf	-0.49693105
224	0xbe9a80e1	-0.30176452
225	0x3f093a77	0.53604835
226	0x3c072ccc	0.0082504265
227	0x3e00503a	0.12530604
228	0xbe74f4d2	-0.23921517
229	0x3e434cd8	0.19072282
230	0x3dfd2ed7	0.123624496
231	0x3fe64f5b	1.7992967
232	0x3ed09ea0	0.4074602
233	0xbf04a980	-0.51821136
234	0xbec301aa	-0.38087207
235	0xbec0a8a5	-0.37628666
236	0xbe910168	-0.28321385
237	0x3e3707e1	0.178741
238	0x3e78f275	0.2431124
239	0x3ef27d32	0.4736114
240	0xbeb5c2ab	-0.35500082
241	0x3e1855fc	0.1487655
242	0xbf5d688c	-0.8648765
243	0xbe3da422	-0.18519643
244	0xbec4f88f	-0.38470885
245	0xbdc91338	-0.09818119
246	0x3dd60152	0.104494706
247	0x3ece5bc1	0.40304378
248	0x3c8addf7	0.016951544
249	0x3eaae0cd	0.33374634
250	0xbe3196e2	-0.17342713
251	0x3f18de0b	0.5971381
252	0x3df251c5	0.118320026
253	0xbeeb43a4	-0.45950043
254	0x3e32a776	0.17446694
255	0x3cd08f09	0.02545883

dense1.dense.bias f4 [96]
0	0x3e6cfa08	0.23142254
1	0x3e211aff	0.15732954
2	0x3ea5c2d6	0.3237521
3	0x3e8eb63d	0.27873412
4	0x3e205172	0.15656069
5	0x3e6f52aa	0.23371378
6	0x3d20d7f6	0.039268456
7	0x3e0a824b	0.13526265
8	0x3ec5a635	0.38603368
9	0x3e993929	0.29926422
10	0x3eb09d50	0.3449502
11	0x3e9c37af	0.30511233
12	0x3e9ae9e8	0.3025658
13	0x3e67047f	0.22560309
14	0x3d543834	0.051811412
15	0x3ea06919	0.31330183
16	0x3e894631	0.26811364
17	0x3ec9f056	0.39441174
18	0x3eac597c	0.3366202
19	0x3e800265	0.25001827
20	0x3e85cf00	0.2613449
21	0x3e9fc7e4	0.31207192
22	0x3e8567ea	0.26055843
23	0x3eac44a2	0.33646113
24	0x3e7dda2a	0.24790254
25	0x3e44ff76	0.19238076
26	0x3e9e67a5	0.3093845
27	0x3eaba151	0.33521512
28	0x3e3f9a71	0.18711258
29	0x3e7703ff	0.24122618
30	0x3e3effa4	0.18652207
31	0x3e73f910	0.23825479
32	0x3e37ff2e	0.17968437
33	0x3dc0364d	0.09385357
34	0x3e079500	0.13240433
35	0x3e41d1ae	0.18927643
36	0x3e747909	0.23874296
37	0x3e5cb632	0.21553877
38	0x3ec8160c	0.3907932
39	0x3eca1987	0.394726
40	0x3e4b307c	0.19842714
41	0x3d94f927	0.072740845
42	0x3ea80109	0.3281329
43	0x3ecf3211	0.40467885
44	0x3e68f33e	0.2274904
45	0x3e813327	0.2523434
46	0x3e27f4a9	0.16401924
47	0x3e954014	0.2915045
48	0x3e08c1ff	0.13355254
49	0x3e6b73c7	0.22993384
50	0x3e89b004	0.26892102
51	0x3e68f8c6	0.2275115
52	0x3eaec811	0.34137014
53	0x40092683	2.1429756
54	0x3e98b7a2	0.298276
55	0x3ea5a465	0.32351986
56	0x3d4d1c52	0.050075836
57	0x3ea8ea2e	0.32991165
58	0x3e30ca7a	0.17264739
59	0x3d109d56	0.035306297
60	0x3db2ddb0	0.0873369
61	0x3e5e9249	0.21735491
62	0x3e402298	0.18763196
63	0x3d16597a	0.036706425
64	0x3eab114e	0.3341164
65	0xbcc150e8	-0.02359815
66	0x3eab4805	0.33453384
67	0x3e90dcfc	0.28293598
68	0x3e92958d	0.28629723
69	0x3e05275e	0.13003299
70	0x3d619008	0.055069
71	0x3e01d6b8	0.12679565
72	0x3ea182db	0.31545147
73	0x3e89b139	0.26893023
74	0x3dbc3d6c	0.09191403
75	0x3eb14195	0.34620348
76	0x3e643a82	0.22287944
77	0x3d1b8eb0	0.037977874
78	0x3e8b90e7	0.2725899
79	0x3ede509e	0.4342088
80	0x3e8faa40	0.28059578
81	0x3e5f8c34	0.21830827
82	0x3f053962	0.52040684
83	0x3eb2c900	0.34918976
84	0x3e9cae64	0.306018
85	0x3f77c985	0.9679187
86	0x3e7de27b	0.24793427
87	0x3ea1c0c6	0.31592387
88	0x3e3e5e46	0.1859065
89	0x3e2884fd	0.16456981
90	0x3e6d6fb0	0.23187137
91	0x3e080820	0.1328435
92	0x3e9ce2ad	0.3064169
93	0x3ebace40	0.3648548
94	0x3e1df467	0.15425263
95	0x3ebb29be	0.36555284

dense1.batch_norm1.weight f4 [96]
0	0x3f786461	0.97028166
1	0x3f90cb2d	1.1312004
2	0x3f6eb0bd	0.9323843
3	0x3f5fed25	0.8747123
4	0x3f796efb	0.9743497
5	0x3f6762eb	0.9038531
6	0x3f0a45a1	0.54012495
7	0x3f2c8a26	0.673983
8	0x3f835c4c	1.0262542
9	0x3f8059c8	1.0027399
10	0x3f5ae743	0.8550913
11	0x3f55d3e2	0.8352643
12	0x3f5dba3c	0.86612296
13	0x3f7f60e2	0.99757206
14	0x3f1db06e	0.61597335
15	0x3f5e1c89	0.8676229
16	0x3f6a0c6c	0.91425204
17	0x3f6cdd6c	0.9252536
18	0x3f700e2c	0.93771625
19	0x3f882609	1.0636607
20	0x3f79bec3	0.97556704
21	0x3f7854ce	0.970044
22	0x3f6d8bb5	0.927913
23	0x3fa15a6c	1.260572
24	0x3f43920b	0.7639472
25	0x3f9143be	1.1348798
26	0x3f808239	1.0039741
27	0x3f7cc6dc	0.98740935
28	0x3f551881	0.83240515
29	0x3f6f1928	0.9339776
30	0x3f77b9db	0.9676797
31	0x3f772f93	0.9655697
32	0x3f3b0328	0.7305169
33	0x3f8e6f21	1.1127664
34	0x3f3e0449	0.7422529
35	0x3f751b11	0.95744425
36	0x3f866d28	1.0502062
37	0x3f5bc2e1	0.85844237
38	0x3f81e606	1.0148323
39	0x3f8be176	1.092818
40	0x3f8049a3	1.0022472
41	0x3f497414	0.78692746
42	0x3f80ee04	1.0072637
43	0x3f8a8957	1.0823163
44	0x3f65ca1d	0.89761525
45	0x3f71657f	0.94295496
46	0x3f68006f	0.9062566
47	0x3f852daf	1.0404567
48	0x3f81b196	1.013232
49	0x3f364309	0.7119604
50	0x3f798cff	0.9748077
51	0x3f6dee65	0.92941886
52	0x3f846fc5	1.0346609
53	0x3fb579af	1.417776
54	0x3f80d385	1.0064551
55	0x3f6898d6	0.9085821
56	0x3f4f1302	0.8088838
57	0x3f910863	1.1330684
58	0x3f81d640	1.0143509
59	0x3f249e0a	0.6430365
60	0x3f5550eb	0.83326596
61	0x3f5c9f27	0.8618035
62	0x3f72c574	0.9483254
63	0x3f1e00de	0.61720073
64	0x3f7b8d27	0.98262256
65	0x3edb6f37	0.42858288
66	0x3f8a8aab	1.0823568
67	0x3f829729	1.020238
68	0x3f8ca344	1.0987325
69	0x3f5cae2b	0.8620326
70	0x3f2fa9f6	0.68618715
71	0x3f57adee	0.8424977
72	0x3f56223f	0.83646005
73	0x3f73a8d7	0.95179504
74	0x3f467ca6	0.7753395
75	0x3f5fd8c0	0.8744011
76	0x3f41a335	0.7563966
77	0x3f562c9d	0.83661824
78	0x3f80d5dd	1.0065266
79	0x3f771dd3	0.96529883
80	0x3f3c9ddc	0.73678374
81	0x3f6e5b0a	0.93107665
82	0x3f68a772	0.908805
83	0x3f836337	1.0264653
84	0x3f5c4869	0.8604799
85	0x3faa1863	1.3288692
86	0x3f788f2e	0.97093475
87	0x3f810147	1.0078515
88	0x3f5e3297	0.86795944
89	0x3f4848ce	0.7823609
90	0x3f7a3216	0.97732675
91	0x3f591b16	0.84806955
92	0x3f7c84ba	0.98640025
93	0x3f82a204	1.0205693
94	0x3f75a708	0.95957994
95	0x3f96d708	1.1784372

dense1.batch_norm1.bias f4 [96]
0	0xbf49cbf8	-0.78826857
1	0xbf70946b	-0.9397647
2	0xbf2f06f5	-0.6836999
3	0xbf127486	-0.5720905
4	0xbebd1e00	-0.3693695
5	0xbf149b83	-0.5804979
6	0xbea1b307	-0.315819
7	0xbe86a9e7	-0.263015
8	0xbf3c383f	-0.73523325
9	0xbf571737	-0.840198
10	0xbf0360f1	-0.51319796
11	0xbf18f59a	-0.5974976
12	0xbf1c2f76	-0.6100992
13	0xbf511763	-0.8167631
14	0xbe2af2bf	-0.16694163
15	0xbf189d07	-0.59614605
16	0xbf1ca268	-0.6118531
17	0xbf3f75da	-0.747892
18	0xbf317079	-0.69312245
19	0xbf55c58f	-0.83504575
20	0xbf3e5fe6	-0.7436508
21	0xbf392b7e	-0.7233199
22	0xbf44e2fe	-0.7690886
23	0xbff06374	-1.8780351
24	0xbec70225	-0.38868824
25	0xbf4a9d43	-0.7914621
26	0xbf46eb93	-0.7770321
27	0xbf471c4c	-0.7777755
28	0xbeeae0d6	-0.4587466
29	0xbf2d034f	-0.67583174
30	0xbf2b261d	-0.6685503
31	0xbf367141	-0.7126656
32	0xbedcc1d1	-0.4311662
33	0xbf7b7a54	-0.9823353
34	0xbf0c5f26	-0.54832685
35	0xbf504ef9	-0.813705
36	0xbf332261	-0.69974333
37	0xbef627b0	-0.48077154
38	0xbf3f1d9f	-0.74654573
39	0xbf221ed0	-0.63328266
40	0xbf46fa4c	-0.7772567
41	0xbf2fd321	-0.6868153
42	0xbf417b55	-0.75578815
43	0xbf37ce4b	-0.71799153
44	0xbefd5359	-0.49477652
45	0xbf2bd681	-0.6712418
46	0xbf35225f	-0.7075557
47	0xbf1f45bd	-0.6221579
48	0xbf4abfed	-0.79199106
49	0xbe904351	-0.28176358
50	0xbf6c2b00	-0.9225311
51	0xbf3fabc9	-0.748715
52	0xbf49608a	-0.7866293
53	0xc03073e0	-2.7570724
54	0xbf541aa5	-0.82853156
55	0xbef2da99	-0.47432402
56	0xbf0e98ea	-0.5570208
57	0xbf67cb22	-0.9054433
58	0xbf4039d7	-0.75088257
59	0xbf0b6ebe	-0.54465854
60	0xbf0ef178	-0.558372
61	0xbf007b97	-0.50188583
62	0xbf48e648	-0.7847638
63	0xbe230298	-0.15918958
64	0xbf3d3e90	-0.7392359
65	0xbdce4109	-0.10070998
66	0xbf5275d7	-0.8221106
67	0xbf3a936e	-0.7288121
68	0xbf52ea1e	-0.82388484
69	0xbf4159fe	-0.7552794
70	0xbe65bbc8	-0.22434914
71	0xbf250ed4	-0.6447575
72	0xbf0e4bcb	-0.555844
73	0xbf321d6f	-0.6957616
74	0xbf2e7605	-0.68148834
75	0xbf26518e	-0.6496819
76	0xbedfc201	-0.437027
77	0xbf20b6e0	-0.62779045
78	0xbf498dc6	-0.78731954
79	0xbf15183e	-0.58240116
80	0xbe93dfff	-0.28881833
81	0xbee94cf4	-0.45566523
82	0xbf275187	-0.65358776
83	0xbee73859	-0.45160177
84	0xbf1979d5	-0.59951526
85	0xc01ae27e	-2.420074
86	0xbf3c9668	-0.73667
87	0xbf647406	-0.8923954
88	0xbee721e6	-0.4514305
89	0xbedef74c	-0.43548048
90	0xbf4cb38e	-0.7996148
91	0xbf10bb26	-0.56535566
92	0xbf3e7974	-0.7440407
93	0xbf4d4954	-0.80190015
94	0xbf9fa84e	-1.2473238
95	0xbf5758f4	-0.84120107

dense1.batch_norm1.running_mean f4 [96]
0	0xc08fe0d8	-4.4961967
1	0xc085d621	-4.182389
2	0xc06e83a1	-3.726784
3	0xc0632e91	-3.5497172
4	0xc0e86142	-7.2618723
5	0xc02f88c2	-2.742722
6	0xc0b06204	-5.511965
7	0xbff3813e	-1.9023817
8	0xc03c74e8	-2.9446354
9	0xc07466cf	-3.818775
10	0xc01d3744	-2.4564981
11	0xbfef6706	-1.8703315
12	0xbf2f98d3	-0.68592566
13	0xc05c34b7	-3.4407175
14	0xc0bc01d5	-5.8752236
15	0xbff8a82e	-1.9426324
16	0xc0184f0b	-2.3798244
17	0xc0914bc3	-4.5404983
18	0xc077063e	-3.859756
19	0xc0ca5a2f	-6.3235087
20	0xc0b0c96f	-5.524589
21	0xc0781839	-3.8764784
22	0xc0710a2a	-3.7662454
23	0x402e27c3	2.7211769
24	0xc0359ad6	-2.8375754
25	0xc07465a4	-3.8187037
26	0xc08d8aef	-4.4232097
27	0xc08d0a0f	-4.407478
28	0xbfc148e4	-1.510037
29	0xc045e394	-3.0920153
30	0xc027ce47	-2.6219652
31	0xc0254919	-2.5825865
32	0xc034ae0d	-2.8231232
33	0xc08c792c	-4.3897915
34	0xc00be11c	-2.1856146
35	0xc06e3e64	-3.722558
36	0xc082a528	-4.0826607
37	0xc0650098	-3.5781612
38	0xc0966837	-4.7002215
39	0xc04650fb	-3.0986927
40	0xc0532904	-3.2993784
41	0xc0a3c64e	-5.117957
42	0xc0521f75	-3.28317
43	0xc053333b	-3.3000019
44	0xc02275f1	-2.5384486
45	0xc0298898	-2.648962
46	0xc03d5fe2	-2.9589772
47	0xc0314035	-2.769544
48	0xc08b6c98	-4.357006
49	0xbf945217	-1.1587552
50	0xc08a24d6	-4.3169966
51	0xc07fd65c	-3.9974585
52	0xc03a8c20	-2.9148026
53	0x40309f5f	2.7597272
54	0xc079c6db	-3.9027622
55	0xc082bce8	-4.08556
56	0xc00a6466	-2.1623778
57	0xc08a0309	-4.3128705
58	0xc05502a1	-3.3282855
59	0xc0b8215e	-5.754073
60	0xc091e1bc	-4.5588055
61	0xc0317fdf	-2.7734296
62	0xc0b4e26b	-5.652639
63	0xc0ae6ffc	-5.45117
64	0xc069e02f	-3.654308
65	0xc147c276	-12.484976
66	0xc094ef9d	-4.6542497
67	0xc0888f57	-4.2674975
68	0xc0855682	-4.16681
69	0xc0a586e1	-5.1727147
70	0xc185014a	-16.62563
71	0xc08c15cd	-4.377661
72	0xc01856c2	-2.3802953
73	0xc087d432	-4.2446527
74	0xc0c3ec0a	-6.1225634
75	0xc07aae1b	-3.9168766
76	0xc0918b78	-4.548275
77	0xbfe5dd74	-1.7958207
78	0xc083a745	-4.1141686
79	0xc007effd	-2.1240227
80	0xbf993448	-1.196908
81	0xc00db1b5	-2.2139714
82	0xc042d103	-3.044007
83	0xc020942c	-2.5090437
84	0xc015a174	-2.3379793
85	0x409f5a22	4.9797525
86	0xc0a5ae52	-5.1775293
87	0xc0a71c77	-5.2222247
88	0xbff6d76d	-1.9284493
89	0xc05a1472	-3.407498
90	0xc0b2cad9	-5.5872617
91	0xc00ab386	-2.1672072
92	0xc0799488	-3.8996906
93	0xc03caca2	-2.9480367
94	0xc08609df	-4.188705
95	0xc0745c61	-3.8181384

dense1.batch_norm1.running_var f4 [96]
0	0x41145773	9.27135
1	0x41281c7e	10.506956
2	0x4121e2d3	10.117877
3	0x4105fc41	8.374085
4	0x42065222	33.580208
5	0x411b99c7	9.725043
6	0x4110b6c4	9.0446205
7	0x40f7da31	7.7453847
8	0x40f810e9	7.752064
9	0x41036923	8.213168
10	0x4119b300	9.606201
11	0x40ecfc3c	7.4057903
12	0x40fb0cfe	7.845336
13	0x4115ad7c	9.354855
14	0x41acb7cf	21.58975
15	0x40d8e6de	6.778182
16	0x4114ce5a	9.300379
17	0x4125c192	10.359758
18	0x4121305b	10.074306
19	0x4157958c	13.47401
20	0x41452de4	12.323704
21	0x40f813da	7.7524233
22	0x410afbaf	8.686446
23	0x402b065d	2.6722634
24	0x410b202d	8.695355
25	0x4144ab9d	12.291898
26	0x4122df44	10.179508
27	0x41198ef6	9.597403
28	0x40fab7f6	7.834956
29	0x40f1f3a4	7.5609913
30	0x4116fe7c	9.43713
31	0x411e2a8a	9.8853855
32	0x40df826a	6.9846697
33	0x4117762c	9.466351
34	0x4111c110	9.109634
35	0x410cad70	8.792343
36	0x416e89a5	14.908605
37	0x4144e32e	12.305464
38	0x41211e8a	10.069956
39	0x412df16c	10.871441
40	0x4100df12	8.054461
41	0x4112f3c9	9.184518
42	0x41180cc5	9.503118
43	0x41365879	11.3966
44	0x41272936	10.447561
45	0x4137551e	11.458281
46	0x40fa2580	7.8170776
47	0x41329f33	11.163867
48	0x41137bdd	9.21774
49	0x40ff48c3	7.977632
50	0x41187c61	9.530366
51	0x412bff6c	10.749859
52	0x41059b03	8.350345
53	0x40a8fd32	5.2809076
54	0x4143df0b	12.241954
55	0x415c1534	13.755177
56	0x40e97d8b	7.296575
57	0x414749d2	12.455523
58	0x411d7ad4	9.842487
59	0x412f3e19	10.952661
60	0x41281bc3	10.506778
61	0x411884d8	9.532433
62	0x413c2786	11.759649
63	0x4156f916	13.435812
64	0x412c2e1f	10.76126
65	0x4249a714	50.413162
66	0x412bf280	10.746704
67	0x4158046d	13.5010805
68	0x411b816a	9.719095
69	0x414356d2	12.208696
70	0x428d62b2	70.692764
71	0x4112fa1e	9.186064
72	0x41068cf6	8.409414
73	0x4129b3b5	10.606374
74	0x412b3bfe	10.702147
75	0x4100dc64	8.053806
76	0x41476af9	12.463616
77	0x4103dd90	8.241592
78	0x41096e41	8.589417
79	0x41156f52	9.339678
80	0x41023cb6	8.139822
81	0x41252648	10.321846
82	0x40bae30a	5.8402147
83	0x411e3080	9.886841
84	0x40d1b83d	6.55374
85	0x408a7ab6	4.3274794
86	0x413b7933	11.71709
87	0x41169e9e	9.413725
88	0x4120a37c	10.039913
89	0x410c0c82	8.753054
90	0x41285410	10.520523
91	0x40dbc14e	6.867347
92	0x4125e9c0	10.369568
93	0x40f81a5a	7.7532167
94	0x40820f5f	4.0643764
95	0x412679ae	10.404707

dense2.dense.weight f4 [15, 96]
0	0xbee2a22a	-0.44264346
1	0x3ee1742a	0.4403394
2	0xbe346848	-0.17617905
3	0xbf1091ae	-0.5647229
4	0xbd684ceb	-0.05671398
5	0xbf23c6a8	-0.63975
6	0xbe52d974	-0.20590764
7	0xbec6c475	-0.3882176
8	0xbf195949	-0.59901863
9	0x3ea11c86	0.31467074
10	0xbf65a71e	-0.89708126
11	0xbf08c01d	-0.5341814
12	0xbef55954	-0.47919714
13	0x3db10e98	0.08645362
14	0x3e83818d	0.25684777
15	0xbccbd262	-0.024880592
16	0xbdaa2fa9	-0.08309872
17	0xbe5031c1	-0.2033148
18	0xbe82d064	-0.25549614
19	0x3e5877e6	0.21139488
20	0xbf860cdf	-1.0472678
21	0xbf399b7c	-0.72502875
22	0x3e95be61	0.2924681
23	0xbd19823e	-0.037477724
24	0x3e833de6	0.25633162
25	0xbf4324a3	-0.7622778
26	0x3eae9a26	0.3410198
27	0x3e507b81	0.20359613
28	0xbef1c726	-0.4722225
29	0xbd9360bd	-0.07196186
30	0xbeaf7b3f	-0.34273717
31	0xbf5eec82	-0.8707963
32	0x3dedd87c	0.11613557
33	0xbf202fdb	-0.6257302
34	0x3deaa0a7	0.11456423
35	0xbf5d2f0f	-0.8639993
36	0xbf13f225	-0.5779136
37	0xbec49fe1	-0.38403228
38	0xbf25804d	-0.64648896
39	0xbec7d24c	-0.3902763
40	0x3ea10a4c	0.31453168
41	0xbe9e607f	-0.30932996
42	0xbe2574f7	-0.161579
43	0xbe6b09a2	-0.22952893
44	0xbcda7b5c	-0.02667015
45	0x3d3b14e9	0.04567424
46	0xbeebffa8	-0.46093488
47	0xbe957694	-0.2919203
48	0x3e28922a	0.16462007
49	0xbecb532a	-0.39711887
50	0x3f02812b	0.50978345
51	0x3e0bb467	0.13643037
52	0xbd5fcbb2	-0.05463762
53	0xbd3d408f	-0.046204146
54	0xbf48ce34	-0.7843964
55	0xbf3a752b	-0.72835034
56	0x3dfcf50c	0.123514265
57	0x3cf038e6	0.029324006
58	0xbf693a0e	-0.9110421
59	0x3e4e533a	0.20148936
60	0xbf267b14	-0.6503155
61	0xbf1cf2c8	-0.61307955
62	0xbf3bd30a	-0.73368895
63	0xbd851b53	-0.06499352
64	0x3db0c5fa	0.08631511
65	0x3e6ba56f	0.23012327
66	0x3ebc4e9e	0.3677873
67	0x3e80c29d	0.25148478
68	0x3ea5cb39	0.3238161
69	0x3ed5bd6f	0.4174609
70	0x3d633f0a	0.05548004
71	0x3dd7f888	0.105454504
72	0x3e3748cc	0.17898864
73	0xbe2968fa	-0.16543952
74	0xbe324798	-0.17410123
75	0xbee330b6	-0.443731
76	0x3e7107fa	0.23538199
77	0xbf6c82e0	-0.923872
78	0xbe8deef5	-0.27721372
79	0x3eace02e	0.33764786
80	0xbee4ee58	-0.44713092
81	0x3e43ffcc	0.19140548
82	0xbe76902c	-0.24078435
83	0x3e421848	0.18954575
84	0x3e4b7860	0.19870138
85	0x39ebd920	0.00044984464
86	0xbea4f3bd	-0.32217208
87	0x3e8566a1	0.26054862
88	0x3e669765	0.2251869
89	0xbf4b62a3	-0.7944738
90	0xbf3a8733	-0.7286255
91	0xbf6d9ccb	-0.9281737
92	0xbe91add9	-0.28452948
93	0xbe5e88bc	-0.21731848
94	0xbef61f85	-0.48070922
95	0xbf02bafa	-0.51066554
96	0xbe1f9f10	-0.15588021
97	0x3e1d2c1b	0.15348856
98	0xbe8b4424	-0.27200425
99	0xbeac9136	-0.33704537
100	0xbc7ceff5	-0.01543807
101	0xbf05cdd9	-0.52267224
102	0xbe3ce8d2	-0.18448189
103	0xbf058174	-0.52150655
104	0x3e6c5e11	0.23082758
105	0x3d354f8e	0.044265322
106	0x3c9b1e79	0.018935429
107	0x3e3e37fc	0.18576044
108	0xbe8219de	-0.2541036
109	0xbdffb88a	-0.1248637
110	0xbf2108b3	-0.629039
111	0x3d862d7d	0.06551645
112	0xbee3435d	-0.44387332
113	0xbf1a12bd	-0.6018484
114	0xbef83b67	-0.4848282
115	0xbe68dd10	-0.22740579
116	0x3e7ec410	0.2487948
117	0x3d3af62d	0.045644928
118	0x3db7c9c6	0.08974032
119	0x3c89f50b	0.016840478
120	0xbed80902	-0.42194372
121	0xbe484a8b	-0.19559686
122	0x3d581bac	0.052760765
123	0xbefe5f97	-0.49682304
124	0x3e83131c	0.25600517
125	0x3e6656ba	0.22494021
126	0x3d8b7259	0.068089195
127	0x3e103927	0.14084302
128	0xbf3167ad	-0.6929882
129	0x3e806f4a	0.25084907
130	0x3e8d9e65	0.27659908
131	0xbf52cae6	-0.8234085
132	0xbe9976dd	-0.29973498
133	0x3e8961a5	0.2683231
134	0x3c28f783	0.010312918
135	0x3e77eaac	0.24210614
136	0xbf05ddad	-0.52291375
137	0x3e9bb4ae	0.30411285
138	0xbea1f232	-0.31630093
139	0x3d9fb8d9	0.07798929
140	0xbe85bda7	-0.26121256
141	0xbea17924	-0.31537735
142	0xbf6742e1	-0.90336424
143	0xbefa3345	-0.4886724
144	0x3eb0a05f	0.34497353
145	0x3e789ca1	0.24278499
146	0xbec2f8c3	-0.38080415
147	0xbeb375ec	-0.35050905
148	0x3ec71331	0.3888183
149	0xbc85b70f	-0.01632264
150	0x3e8bbd18	0.27292705
151	0xbefc3eb5	-0.49266592
152	0xbf907c77	-1.1287984
153	0xbed53bc7	-0.4164717
154	0x3e879bda	0.26486093
155	0xbf1a947a	-0.6038281
156	0xbf0c22bc	-0.547405
157	0xbed61e17	-0.41819832
158	0xbe94b4b5	-0.2904412
159	0xbdc9f694	-0.09861484
160	0xbea911cf	-0.330214
161	0x3ebbd956	0.36689252
162	0x3e9c8c80	0.30575943
163	0x3e374a2d	0.1789939
164	0xbece82b2	-0.40334088
165	0xbe2f74cf	-0.17134403
166	0x3eec2a7c	0.46126163
167	0xbf2fcf77	-0.6867594
168	0xbf2a19c9	-0.66445595
169	0xbe1ec257	-0.15503822
170	0x3e24b434	0.16084367
171	0x3ea27b9f	0.3173494
172	0x3d92dc54	0.071709305
173	0xbf6b664d	-0.91952974
174	0x3e40b84f	0.18820308
175	0xbea8c8db	-0.3296574
176	0xbf183cb3	-0.5946762
177	0xbef461c2	-0.47730833
178	0xbe5ec0f6	-0.21753296
179	0xbec71f11	-0.3889089
180	0xbecd672e	-0.40117782
181	0xbd6c696c	-0.057717726
182	0x3d197c45	0.03747203
183	0xbe9276e0	-0.2860632
184	0x3e973dec	0.2953943
185	0x3eac3286	0.33632296
186	0xbf0239f0	-0.50869656
187	0xbf46025d	-0.77347356
188	0x3e177d61	0.14793922
189	0x3dbd6530	0.092478156
190	0xbe0fefaf	-0.14056276
191	0xbe475a38	-0.1946801
192	0xbf1565bc	-0.5835836
193	0x3eda9cda	0.42697793
194	0xbf3a36fc	-0.7274015
195	0xbf24d658	-0.6438956
196	0xbdcaa617	-0.098949604
197	0xbf27ac10	-0.6549692
198	0xbebf8661	-0.3740721
199	0xbebc4d1a	-0.36777574
200	0xbed612fc	-0.4181136
201	0xbf042752	-0.516225
202	0xbf086115	-0.53273135
203	0xbf3f4889	-0.74720055
204	0xbeb79721	-0.3585749
205	0x3dd59924	0.104296
206	0x3e66cd7c	0.22539324
207	0x3dd38a51	0.10329116
208	0xbe8d2c9d	-0.275731
209	0xbf01d975	-0.5072244
210	0x3e4436cc	0.19161528
211	0x3da3af0b	0.07992371
212	0xbf0a697f	-0.54067224
213	0xbf5c3ce5	-0.8603042
214	0x3e2eae3b	0.17058651
215	0xbd1bfcbc	-0.038082823
216	0xbf06f3c7	-0.52715725
217	0x3e9fc9f0	0.31208754
218	0xbe81a4a2	-0.25320917
219	0xbf4a3c62	-0.78998387
220	0xbeac85f1	-0.3369594
221	0x3e5194da	0.20466939
222	0xbd4fc03e	-0.050720446
223	0x3e9939c5	0.29926887
224	0xbf678563	-0.90437907
225	0xbf0c8e80	-0.5490494
226	0x3e46bad2	0.19407204
227	0xbf4d96a8	-0.8030801
228	0x3e6e2aa6	0.23258457
229	0xbec103ac	-0.37698114
230	0x3df33324	0.11874989
231	0xbec74f96	-0.38927907
232	0xbee2a939	-0.44269732
233	0xbf1cd304	-0.61259484
234	0xbf3e9990	-0.7445307
235	0xbe1d73fe	-0.15376279
236	0xbf39fa4f	-0.72647566
237	0xbe9c8d6f	-0.30576655
238	0x3e95fcff	0.29294583
239	0x3e1e3400	0.15449524
240	0x3eb65e06	0.3561861
241	0xbf2c3975	-0.6727517
242	0xbf30aea2	-0.6901647
243	0xbc60f8b3	-0.0137311695
244	0xbe6e0aa5	-0.23246248
245	0xbd983bef	-0.074333064
246	0xbf1b2696	-0.6060575
247	0xbf14c851	-0.5811816
248	0xbf3b8c8b	-0.73261327
249	0xbf0902a7	-0.5351967
250	0x3e618055	0.22021611
251	0x3e631a3e	0.2217798
252	0xbd87a000	-0.066223145
253	0x3e97497f	0.2954826
254	0x3ec46039	0.38354662
255	0xbe37e375	-0.17957862

dense2.dense.bias f4 [15]
0	0x3f38ae5e	0.72141063
1	0x3f40dd10	0.75337315
2	0x3f1907d5	0.59777576
3	0x4026b45c	2.6047583
4	0x3f2a1cbe	0.6645011
5	0x3f2084f0	0.62702847
6	0x40a824f3	5.2545104
7	0x3f2ae694	0.66758084
8	0x3f445267	0.76688236
9	0x3f473661	0.7781735
10	0x3f344e5d	0.7043207
11	0x3fe6dfb4	1.8037019
12	0x3f46a27a	0.7759167
13	0x3d9fc57c	0.07801339
14	0xc132cb55	-11.174642

dense2.batch_norm1.weight f4 [15]
0	0x40cf4fab	6.478475
1	0x40e21ae9	7.065785
2	0x40b88995	5.7667947
3	0x410b117e	8.691771
4	0x40c44ab1	6.1341176
5	0x40ba8e5d	5.8298783
6	0x4115888c	9.345837
7	0x40be852e	5.9537573
8	0x40e180a6	7.046954
9	0x40c58c07	6.173343
10	0x40cd93dd	6.4242997
11	0x4101301e	8.074247
12	0x40ccab78	6.3959312
13	0x3ee30b42	0.44344527
14	0x4189a0aa	17.20345

dense2.batch_norm1.bias f4 [15]
0	0xc092060d	-4.5632386
1	0xc0a08123	-5.0157638
2	0xc08bfcea	-4.3746233
3	0xc0892495	-4.2857156
4	0xc08345db	-4.1022773
5	0xc078075e	-3.8754497
6	0xc083d4cf	-4.1197276
7	0xc08b20a7	-4.347736
8	0xc08eea56	-4.4661055
9	0xc07e7ebe	-3.9764857
10	0xc087797c	-4.2335796
11	0xc08c1f8f	-4.3788524
12	0xc08d7dc6	-4.421603
13	0xbf262eef	-0.64915365
14	0x40dadf2e	6.8397436

dense2.batch_norm1.running_mean f4 [15]
0	0x3df8e540	0.12153101
1	0x3e63bd0a	0.22240081
2	0xbdd73444	-0.10508016
3	0x40063135	2.0967534
4	0x3d8e4494	0.06946674
5	0x3d13466c	0.03595583
6	0x409c6d64	4.8883533
7	0x3b780805	0.0037846577
8	0x3e6ef647	0.23336135
9	0x3e88f208	0.26747155
10	0x3e4839f6	0.1955336
11	0x3fa0315f	1.2515067
12	0x3e369a89	0.17832388
13	0xbdb58887	-0.08863931
14	0xc136734a	-11.403147

dense2.batch_norm1.running_var f4 [15]
0	0x3f8714f4	1.0553269
1	0x3f6e853c	0.9317205
2	0x3f8271cc	1.0190978
3	0x3fb14993	1.3850578
4	0x3f7bee0a	0.98410094
5	0x3f7538bf	0.9578971
6	0x3f9c6871	1.2219373
7	0x3f91631b	1.135837
8	0x3f9623f8	1.1729727
9	0x3f4fbdd0	0.81149006
10	0x3f6ab9fa	0.9169003
11	0x3fbdab86	1.481797
12	0x3f8b5bfe	1.0887449
13	0x3e4d97cd	0.20077439
14	0x4034a358	2.8224697
