classification/model_rnafm/13_final/300Epoch/rna_type_checkpoint_fold_9.pt (torch, 252002 bytes, 24 tensors)

layer1.conv1.weight f4 [30, 30, 5]
0.28720823 -0.9786183 -1.1050798 0.6085495 0.27629733 -0.011575154 -0.3908518 0.042031907
0.23950465 -0.43349868 0.034275163 -0.6003201 0.8827554 -0.6695027 -0.40973368 -0.4404422
0.07897253 0.12707715 -0.18819082 0.42855778 0.5012642 0.5078231 -0.6794134 0.58406925
-0.30174863 0.61896795 -0.42516446 -0.09923496 0.08983782 -0.03496938 0.033878382 0.20617348
0.30498284 0.43232134 0.0897292 -0.46534613 0.30527514 -0.42488396 0.8985927 0.65826625
-0.43064642 1.2300475 -0.5392946 0.25062183 -0.13334495 -0.17706661 0.75433135 -0.49405086
-0.11528668 -0.59288925 0.27441853 0.32244536 -0.18895036 0.18142946 0.21749285 0.38250569
0.76897216 0.2776401 -0.06036022 0.029053347 -0.13119131 0.43380415 0.36569205 -0.25595275
-0.36336055 -0.12512027 -0.14939797 -0.1482642 -0.18760568 -0.2666561 0.12385871 -0.1996516
-0.3102641 -0.86787385 -0.26738656 0.37219095 0.54696715 -0.2531428 -0.81931925 0.14963563
0.9188148 0.32726216 -0.35880017 0.08206531 0.7621268 0.39297694 -0.2513458 -0.010730097
0.40632927 0.30301026 -0.089717865 -0.5898172 -0.11373867 0.3914957 -0.5817872 0.02996264
0.03812256 -0.43931255 -0.15855949 -0.072309 0.003278997 0.23947133 -0.37281892 0.22639309
0.012790769 -0.27732888 -0.012659817 -0.1499329 0.3670262 -0.28977978 -0.25568473 -0.54910326
0.19797279 -0.0866387 -0.31895596 0.32314563 -0.43715537 0.71610326 -0.10550423 -0.16477856
0.25697848 -0.44889617 0.13529903 -0.04340579 0.010457915 -0.117698774 -0.11218167 -0.063370496
0.07528063 0.16809045 -0.017098183 0.019971726 0.41373357 0.10488808 -0.016014123 -0.16143733
0.083449766 0.29181474 -0.13325964 -0.25022805 -0.21854222 0.029295117 -0.010286226 0.2955354
-0.3707154 -0.566638 0.13276048 -0.13761227 0.101103425 -0.33339992 -0.17399248 0.62470967
0.9519268 -0.2591756 0.62649053 0.25425324 -0.1296954 -0.38123897 0.5803244 0.16904773
0.104766354 -0.49643815 -0.08446311 1.1148053 0.5691214 0.25151715 -0.862896 -1.8707097
-0.45480704 -0.86999273 -0.99958116 0.2866251 -1.0436256 -2.4725244 -1.5587399 -0.081039585
0.08752085 0.56247944 0.68239236 0.65425724 -0.10547932 0.19061002 -0.3508666 0.20217445
0.18052337 0.25588772 0.31704596 -0.099814974 -0.21181123 -0.0873233 0.001413528 -0.22228883
-0.04199636 0.2010615 -0.11965919 -0.05422923 -0.008058328 0.13906018 0.18500607 -0.07700244
0.12102506 0.27362382 -0.259989 0.040106054 -0.2082909 0.12500092 -0.23985256 0.06405714
0.006707371 0.1942333 0.16198711 0.062435597 0.40067002 0.20666596 0.08955566 -0.23899986
0.020471215 0.16214097 -0.2288913 0.21384978 0.124704435 0.10211267 0.52962404 -0.032185856
-0.013240267 0.27189672 -0.018022813 -0.40134472 0.32927418 0.18963009 0.051779278 -0.04395834
-0.20961104 -0.007278693 0.0934799 -0.16523084 0.026086435 -0.18566996 0.034225706 -0.20322615
-0.13546902 -0.09430128 0.053693723 -0.2548814 0.10369596 -0.26297346 0.119515024 0.28785563
-0.32163686 -0.07073744 -0.012467386 0.267073 0.10417183 -0.38661692 -0.30318904 -0.03840654
00000000: f50c 933e bb86 7abf 4173 8dbf e6c9 1b3f
00000010: d876 8d3e b7a5 3dbc ba1d c8be a629 2c3d
00000020: b540 753e 8af3 ddbe 1d64 0c3d 94ae 19bf
00000030: 42fc 613f 8764 2bbf 9dc8 d1be a481 e1be
00000040: 5abc a13d 8320 023e 18b5 40be ed6b db3e
00000050: da52 003f b200 023f 09ee 2dbf 9085 153f
00000060: cc7e 9abe af74 1e3f 28af d9be b33b cbbd
00000070: e4fc b73d 0d3c 0fbd 0fc4 0a3d 241f 533e
00000080: b626 9c3e 3959 dd3e f1c3 b73d d941 eebe
00000090: 064d 9c3e 648a d9be 2c0a 663f 2384 283f
000000a0: b07d dcbe 3272 9d3f 360f 0abf 8151 803e
000000b0: 948b 08be f350 35be dc1b 413f 3cf4 fcbe
000000c0: 6c1b ecbd 97c7 17bf 9680 8c3e 8f17 a53e
000000d0: 347c 41be a5c8 393e 72b6 5e3e c9d7 c33e
000000e0: 5cdb 443f d826 8e3e 473c 77bd 4901 ee3c
000000f0: 0457 06be 941b de3e fd3b bb3e 3d0c 83be
00000100: 650a babe 871f 00be c8fb 18be 92d2 17be
00000110: b41b 40be 2687 88be a3a9 fd3d 7871 4cbe
00000120: f0da 9ebe fb2c 5ebf e4e6 88be d08f be3e
00000130: 0a06 0c3f ef9b 81be e8be 51bf 153a 193e
00000140: 7237 6b3f e88e a73e a8b4 b7be db11 a83d
00000150: be1a 433f 4634 c93e 66b0 80be 4acd 2fbc
00000160: 640a d03e 2924 9b3e 00be b7bd 43fe 16bf
00000170: d2ef e8bd 2072 c83e 02f0 14bf 3674 f53c
00000180: 6726 1c3d 93ed e0be 6b5d 22be be16 94bd
00000190: 71e4 563b f937 753e 1fe2 bebe 97d3 673e
000001a0: 6090 513c 0dfe 8dbe 1f6b 4fbc 0388 19be
000001b0: dcea bb3e 045e 94be 1ce9 82be 0892 0cbf
000001c0: 61b9 4a3e a16f b1bd 324e a3be 5873 a53e
000001d0: d4d2 dfbe 8b52 373f 9a12 d8bd b6bb 28be
000001e0: af92 833e b8d5 e5be d48b 0a3e 45ca 31bd
000001f0: ad57 2b3c 0e0c f1bd 81bf e5bd 64c8 81bd
00000200: bb2c 9a3d e71f 2c3e 7d11 8cbc bf9b a33c
00000210: e3d4 d33e 90cf d63d 0d30 83bc d44f 25be
00000220: b6e7 aa3d be68 953e 3775 08be e41d 80be
00000230: 88c9 5fbe 50fc ef3c 8f87 28bc 6a50 973e
00000240: 69ce bdbe 300f 11bf 5df2 073e 3bea 0cbe
00000250: 500f cf3d 65b3 aabe 162b 32be f9ec 1f3f
00000260: 7ab1 733f aab2 84be af61 203f 7b2d 823e
00000270: dfce 04be c131 c3be 2490 143f d91a 2d3e
00000280: be8f d63d 242d febe fffa acbd f1b1 8e3f
00000290: f1b1 113f dbc6 803e c1e6 5cbf 6a73 efbf
000002a0: 78dc e8be d8b7 5ebf 8de4 7fbf 86c0 923e
000002b0: 8695 85bf d73d 1ec0 ca84 c7bf 15f8 a5bd
000002c0: 223e b33d a7fe 0f3f 44b1 2e3f 677d 273f
000002d0: 8b05 d8bd 462f 433e c9a4 b3be d206 4f3e
000002e0: 1edb 383e b703 833e d953 a23e cb6b ccbd
000002f0: 0be5 58be 8fd6 b2bd 2146 b93a af9f 63be
00000300: 6004 2cbd 11e3 4d3e e10f f5bd 781f 5ebd
00000310: 1407 04bc cb65 0e3e 3b72 3d3e 75b3 9dbd
00000320: fddb f73d 6c18 8c3e 471d 85be 3f46 243d
00000330: 364a 55be 3e00 003e e99b 75be 6430 833d
00000340: 82c9 db3b 18e5 463e f3df 253e 78bc 7f3d
00000350: 9f24 cd3e 3ea0 533e f568 b73d 61bc 74be
00000360: 40b3 a73c 4808 263e 7b62 6abe 70fb 5a3e
00000370: 0a65 ff3d 7320 d13d 7195 073f 51d5 03bd
00000380: b4ed 58bc 0c36 8b3e 94a4 93bc 0e7d cdbe
00000390: a096 a83e 642e 423e 8216 543d a90d 34bd
000003a0: 47a4 56be 1a82 eebb 6472 bf3d 4632 29be
000003b0: 38b3 d53c 4420 3ebe 4130 0c3d 841a 50be
000003c0: 64b8 0abe 0821 c1bd f3ed 5b3d d17f 82be
000003d0: 8c5e d43d 75a4 86be 4bc4 f43d d061 933e
000003e0: 96ad a4be cade 90bd 0244 4cbc cbbd 883e
000003f0: 0a58 d53d a7f2 c5be 983b 9bbe 2d50 1dbd

layer1.conv1.bias f4 [30]
0.020181725 0.11144692 0.022981158 -0.1003499 -0.011668687 0.03614232 0.009000527 -0.047530953
0.012330794 0.0339172 -0.06831114 0.05724438 -0.075968936 0.048119478 -0.09945917 -0.020240726
0.0803146 -0.05105563 0.023084762 -0.07985945 -0.08941476 0.11348964 0.01850817 -0.085471995
0.03921983 0.03873815 -0.007981144 0.12169285 0.012388885 0.00057440327
00000000: 2554 a53c 483e e43d fb42 bc3c 4084 cdbd
00000010: 052e 3fbc f809 143d f276 133c d1af 42bd
00000020: 1907 4a3c c3ec 0a3d b6e6 8bbd 1579 6a3d
00000030: 9a95 9bbd ee18 453d 40b1 cbbd e1cf a5bc
00000040: fb7b a43d b51f 51bd 411c bd3c 5a8d a3bd
00000050: 161f b7bd 426d e83d 729e 973c f10b afbd
00000060: f9a4 203d e5ab 1e3d 58c3 02bc 1a3a f93d
00000070: c0fa 4a3c 8d93 163a

layer1.bn1.weight f4 [30]
0.9569569 0.7391561 0.60643166 1.2037495 0.8456146 1.1740981 1.0681342 1.0681729
1.0945982 0.87659514 0.79244685 0.73647535 0.8018686 1.061998 1.0635523 0.89261967
0.6081894 0.8291149 0.75392014 0.9302722 1.0042192 1.7448515 0.8687407 0.8024429
1.125706 1.2851186 0.65181524 1.1717228 1.0671338 1.2958409
00000000: 21fb 743f 5639 3d3f 1b3f 1b3f 7714 9a3f
00000010: 337a 583f d948 963f 9fb8 883f e4b9 883f
00000020: cb1b 8c3f 8a68 603f ccdd 4a3f a689 3c3f
00000030: 4347 4d3f 8def 873f 7b22 883f b982 643f
00000040: 4db2 1b3f e040 543f e900 413f 5226 6e3f
00000050: 418a 803f 4b57 df3f ca65 5e3f e66c 4d3f
00000060: 2217 903f c47e a43f 5ddd 263f 03fb 953f
00000070: d797 883f 1dde a53f

layer1.bn1.bias f4 [30]
0.071557045 -0.3394732 0.06031948 0.029270707 -0.10162376 -0.013714702 -0.23077051 0.21706797
-0.06060751 -0.18019871 -0.053596046 0.09475426 0.020309912 -0.07512146 -0.10449902 0.20652674
-0.0033409796 -0.17994618 -0.39304343 0.15768889 -0.081983395 0.120400116 -0.071387455 0.05782743
0.20769781 0.03303368 0.08142538 0.24307889 0.050992776 0.073919624
00000000: 808c 923d 6ecf adbe 8f11 773d 1fc9 ef3c
00000010: 1e20 d0bd a1b3 60bc 1b4f 6cbe 1147 5e3e
00000020: 953f 78bd 0386 38be 8787 5bbd 850e c23d
00000030: f960 a63c 48d9 99bd 9503 d6bd bf7b 533e
00000040: 56f4 5abb d043 38be fd3c c9be 3279 213e
00000050: e9e6 a7bd 5694 f63d 9633 92bd 75dc 6c3d
00000060: bcae 543e 534e 073d 5ac2 a63d ace9 783e
00000070: cddd 503d 2c63 973d

layer1.bn1.running_mean f4 [30]
0.02039711 0.10096166 0.016682263 -0.11790279 -0.026744423 0.032245357 0.0059267944 -0.03857775
-0.0029881326 0.01960078 -0.07394985 0.031954117 -0.09560757 0.041818615 -0.112149805 -0.04405009
0.065875545 -0.06946812 0.014813486 -0.08855137 -0.11101831 0.103059195 0.007217881 -0.107681684
0.024320273 0.047630973 -0.028479092 0.11676175 0.0011732467 0.0070917145
00000000: d717 a73c fdc4 ce3d 3ea9 883c 0577 f1bd
00000010: 1f17 dbbc b513 043d 8e35 c23b b403 1ebd
00000020: 8cd4 43bb d191 a03c 0573 97bd 52e2 023d
00000030: e7cd c3bd ff49 2b3d ccae e5bd de6d 34bd
00000040: c2e9 863d 4d45 8ebd 43b4 723c 6c5a b5bd
00000050: 915d e3bd b310 d33d f983 ec3b 3788 dcbd
00000060: 4f3b c73c b218 433d fc4c e9bc c920 ef3d
00000070: a0c7 993a 9d61 e83b

layer1.bn1.running_var f4 [30]
3.9704645 1.544485 3.2843285 3.967622 10.412076 0.52321213 11.84527 9.078783
3.4358146 2.7833447 7.6417193 8.512269 5.7913175 1.0940055 5.4419513 4.8491087
3.2313502 2.2260673 1.3398358 5.385557 7.4910626 1.7830186 4.3430104 9.153748
3.5146086 7.0318127 4.583759 10.637 4.652061 4.9908276
00000000: 171c 7e40 afb1 c53f 7032 5240 85ed 7d40
00000010: dd97 2641 3bf1 053f 3a86 3d41 b242 1141
00000020: 63e4 5b40 5222 3240 f788 f440 4132 0841
00000030: 7952 b940 5f08 8c3f 7724 ae40 e62b 9b40
00000040: 71ce 4e40 e377 0e40 bd7f ab3f 7c56 ac40
00000050: c9b6 ef40 f439 e43f f1f9 8a40 c075 1241
00000060: 59ef 6040 9c04 e140 27ae 9240 2731 2a41
00000070: afdd 9440 dcb4 9f40

conv1.weight f4 [30, 30, 5]
-0.3049963 0.5450247 -0.060140785 -0.012272817 -0.20766678 -0.17386074 -0.33029377 -0.528813
0.18258792 -0.18473206 -0.08429121 -0.1389599 -0.32797164 0.73524064 -0.13135532 0.53023434
-0.46184626 -0.5416318 0.56361175 0.49901357 0.24425909 -0.53699183 -0.3541177 -0.2528571
0.23884615 0.088097416 0.48939577 0.2721995 0.7838162 -0.16808917 -0.4629 -0.84589887
-0.1291698 0.14201018 -0.1478048 -0.022755498 -0.29731444 -0.3763944 -0.7260753 -0.45934775
0.04408199 0.17700404 -0.5811976 -0.095329344 0.7194887 0.09329889 -0.41043925 -0.08326058
-0.028362175 -0.05022765 0.011124846 -0.11622796 -0.0497071 -0.34381846 -0.23684867 0.06314399
0.5448793 0.52662206 0.39297947 0.07867824 -0.08651141 -0.09097155 -0.065953754 0.3398626
0.1954423 0.036190487 0.119931124 -0.104130395 1.0723016 -0.20995331 0.11074675 0.035329204
0.063386306 -0.36052498 -0.34025455 -0.3270915 -0.5026729 0.13022807 0.48543903 -0.058816068
0.25962442 0.5109483 0.5953565 -0.06393917 -0.14921091 0.35530668 0.0076942304 -0.15331367
-0.57134074 -0.31385046 -0.14895128 0.026845654 0.28985605 -0.22099298 0.12585345 0.3402595
0.26440617 -0.20643607 -0.18750945 -0.24043581 0.058146246 0.5430163 0.25946155 -0.51202816
-0.29047638 0.11191169 -0.15761483 0.17960493 0.9747139 -0.6435716 -0.6287491 -0.55468774
-0.18329945 -0.12006499 0.15451957 0.18814051 0.048614543 -0.05336931 0.08409895 0.21518776
-0.5572147 -0.3698695 0.024522088 0.40470186 0.33041963 -0.14287572 -0.08381781 -0.19130091
-0.6482091 -0.7954713 0.25373593 0.3111207 0.016327927 0.26535627 -0.60538584 -0.14919321
0.082607165 -0.18900909 -0.6431246 0.0058247196 -0.2492709 -0.3497475 -0.097567156 0.688981
-0.24225253 -0.075952314 0.015124894 0.49378973 0.3939433 -0.9911099 -0.29115227 0.51206666
-0.047704197 -0.026894785 -0.24600144 -0.13413242 -0.37251034 -0.6395678 0.14943281 -0.17949091
-0.006100143 -0.16269769 -0.3450972 0.8077429 -0.17453414 0.55648524 -0.46773216 -0.5887951
0.6229183 0.49253425 0.21911384 -0.5028239 -0.27788135 -0.17197266 0.252208 0.11200071
0.4993241 0.29201347 0.78183186 -0.18213063 -0.46081018 -0.76273566 -0.18238214 0.18436278
-0.12538216 -0.005462764 -0.29247156 -0.25493276 -0.73757726 -0.43850365 0.0168737 0.15366617
-0.62633246 -0.020525346 0.70565844 0.08674418 -0.38947025 -0.11156905 0.06218938 -0.03325846
-0.04409951 -0.15123169 -0.020601166 -0.2914895 -0.25971797 0.040230896 0.5317958 0.5446917
0.40788567 -0.034801647 -0.07107878 -0.1260973 -0.07110835 0.30189437 0.19151439 0.05552905
0.103141986 -0.08495536 1.0553763 -0.19700155 0.06908705 -0.03374636 0.07089211 -0.3854862
-0.20706339 -0.35974243 -0.4844879 0.10923222 0.42399487 -0.010940345 0.2731881 0.43867055
0.6273023 -0.042096786 -0.21432716 0.4044661 -0.07750315 -0.19685593 -0.6237029 -0.19681321
-0.0947486 -0.090732284 0.20950225 -0.31283128 0.0055121486 0.3459794 0.3285504 -0.2583209
-0.14530298 -0.21424742 0.023289531 0.54319024 0.25360075 -0.50739026 -0.26502818 0.13252388
00000000: 7a28 9cbe bd86 0b3f 2f56 76bd ed13 49bc
00000010: 9aa6 54be 8d08 32be 441c a9be 4a60 07bf
00000020: 54f8 3a3e 672a 3dbe dfa0 acbd 814b 0ebe
00000030: e6eb a7be bb38 3c3f 0282 06be 70bd 073f
00000040: 1d77 ecbe 62a8 0abf dc48 103f b57e ff3e
00000050: 0e1f 7a3e 4c78 09bf ea4e b5be 7c76 81be
00000060: 1694 743e 6b6c b43d 1592 fa3e bc5d 8b3e
00000070: 2ea8 483f 911f 2cbe 3b01 edbe d48c 58bf
00000080: 1745 04be 1e6b 113e 245a 17be bd69 babc
00000090: 9939 98be c4b6 c0be 12e0 39bf a12f ebbe
000000a0: 518f 343d 8c40 353e 5ec9 14bf 083c c3bd
000000b0: 6930 383f 7d13 bf3d 1825 d2be 8684 aabd
000000c0: cb57 e8bc 82bb 4dbd fc44 363c ed08 eebd
000000d0: ac99 4bbd f908 b0be 7588 72be a351 813d
000000e0: 367d 0b3f b4d0 063f 9b34 c93e 0f22 a13d
000000f0: e52c b1bd 4b4f babd c312 87bd 7902 ae3e
00000100: 0722 483e 7a3c 143d 739e f53d 5142 d5bd
00000110: 2e41 893f 00fe 56be 31cf e23d 5bb5 103d
00000120: aed0 813d bb96 b8be d835 aebe 8978 a7be
00000130: 2caf 00bf 825a 053e 778b f83e 1ee9 70bd
00000140: 7eed 843e 82cd 023f 4969 183f 8af2 82bd
00000150: bfca 18be c2ea b53e e21f fc3b 42fe 1cbe
00000160: 6343 12bf 02b1 a0be af86 18be 6beb db3c
00000170: 0368 943e fc4b 62be badf 003e 7e36 ae3e
00000180: 3f60 873e fa63 53be 7a02 40be ce34 76be
00000190: c22a 6e3d 1e03 0b3f 25d8 843e 4714 03bf
000001a0: 52b9 94be f531 e53d c865 21be 5bea 373e
000001b0: da86 793f 1cc1 24bf b3f5 20bf 0400 0ebf
000001c0: dab2 3bbe a2e4 f5bd 613a 1e3e e8a7 403e
000001d0: 0b20 473d c799 5abd 123c ac3d 2e5a 5c3e
000001e0: 9fa5 0ebf 895f bdbe 8ce2 c83c 1535 cf3e
000001f0: c32c a93e 034e 12be aca8 abbd 63e4 43be
00000200: 08f1 25bf 02a4 4bbf ade9 813e 364b 9f3e
00000210: 25c2 853c c7dc 873e 91fa 1abf 1bc6 18be
00000220: f22d a93d 998b 41be d0a3 24bf 4add be3b
00000230: df40 7fbe 1b12 b3be 4ad1 c7bd 0f61 303f
00000240: 0c11 78be e38c 9bbd 67ce 773c 02d2 fc3e
00000250: f0b2 c93e 61b9 7dbf e911 95be cd16 033f
00000260: 7a65 43bd 7452 dcbc cde7 7bbe 025a 09be
00000270: adb9 bebe b7ba 23bf ea04 193e 77cc 37be
00000280: b5e3 c7bb 399a 26be 95b0 b0be 3dc8 4e3f
00000290: 14b9 32be d175 0e3f 977a efbe 47bb 16bf
000002a0: 9377 1f3f 732d fc3e 615f 603e 11b9 00bf
000002b0: 7746 8ebe 9a19 30be 6821 813e a160 e53d
000002c0: 69a7 ff3e ca82 953e 2226 483f 7480 3abe
000002d0: 50ef ebbe a542 43bf 62c2 3abe 99c9 3c3e
000002e0: 2e64 00be fc00 b3bb d5be 95be 8c86 82be
000002f0: ddd1 3cbf 8d83 e0be b73a 8a3c aa5a 1d3e
00000300: 5357 20bf c524 a8bc 08a6 343f efa6 b13d
00000310: a568 c7be 507e e4bd 4bba 7e3d 063a 08bd
00000320: b0a1 34bd 7bdc 1abe c7c3 a8bc 1d3e 95be
00000330: c1f9 84be 27c9 243d c523 083f ea70 0b3f
00000340: 64d6 d03e 2c8c 0ebd c091 91bd a71f 01be
00000350: 41a1 91bd e691 9a3e 591c 443e 6e72 633d
00000360: 1b3c d33d 13fd adbd 9216 873f c6ba 49be
00000370: 837d 8d3d a039 0abd e22f 913d 725e c5be
00000380: 6d08 54be 2930 b8be cc0e f8be 24b5 df3d
00000390: db15 d93e 223f 33bc 50df 8b3e 6d99 e03e
000003a0: e296 203f ae6d 2cbd 9478 5bbe 2e16 cf3e
000003b0: f9b9 9ebd 9a94 49be feaa 1fbf 6789 49be
000003c0: 8e0b c2bd d9d1 b9bd c287 563e 6c2b a0be
000003d0: 419f b43b 3624 b13e c237 a83e a342 84be
000003e0: 4eca 14be ad63 5bbe b0c9 be3c 840e 0b3f
000003f0: f5d7 813e 54e4 01bf c6b1 87be 57b4 073e

conv1.bias f4 [30]
-0.035212398 -0.029525494 0.14935699 -0.0178739 -0.170305 0.08244924 -0.03936156 0.012623612
-0.07024167 0.010781081 -0.007336283 -0.048756875 0.07121216 0.022916786 -0.031510275 0.06794877
-0.2090415 -0.055852853 -0.138179 -0.04371707 -0.043572214 -0.017522419 0.052009873 0.012612702
-0.06013574 0.06606054 0.04511826 -0.06404071 -0.07870347 -0.029148174
00000000: e03a 10bd 73df f1bc 0af1 183e 496c 92bc
00000010: 6f64 2ebe 26db a83d 9639 21bd 44d3 4e3c
00000020: ddda 8fbd 22a3 303c 3465 f0bb 4ab5 47bd
00000030: aed7 913d fcbb bb3c eb10 01bd ba28 8b3d
00000040: fa0e 56be f6c5 64bd cc7e 0dbe ac10 33bd
00000050: c778 32bd 2d8b 8fbc 4e08 553d 82a5 4e3c
00000060: e550 76bd c04a 873d edcd 383d c727 83bd
00000070: 492f a1bd 27c8 eebc

bn1.weight f4 [30]
1.4077536 1.418139 1.3966193 1.4169952 1.3939084 1.2617073 1.201499 1.158668
1.0822245 1.0250187 0.9750659 0.9680323 0.90227836 0.9050444 0.8510834 0.7938938
1.8298115 0.6682166 0.78470033 0.7470293 0.6452146 0.6356599 0.57669824 0.5191261
0.4780537 0.4699367 0.4556794 0.4595105 0.4893217 0.4721196
00000000: 4531 b43f 9485 b53f 6cc4 b23f 1960 b53f
00000010: 976b b23f a07f a13f b8ca 993f 3c4f 943f
00000020: 5586 8a3f d033 833f eb9d 793f f7d0 773f
00000030: b7fb 663f fdb0 673f 9ae0 593f a03c 4b3f
00000040: 4337 ea3f 3e10 2b3f 1fe2 483f 503d 3f3f
00000050: c92c 253f 9bba 223f 7fa2 133f 73e5 043f
00000060: 74c3 f43e 8b9b f03e cf4e e93e f644 eb3e
00000070: 6088 fa3e a9b9 f13e

bn1.bias f4 [30]
0.037241556 0.052245293 0.0715815 0.058547635 0.081351265 0.11348491 0.122289315 0.12911206
0.13405338 0.17085946 0.14878783 0.15138586 0.17663568 0.16030134 0.1571113 0.207269
0.45271492 0.2401618 0.23075725 0.23708308 0.2513367 0.26443857 0.27873453 0.25386453
0.27345684 0.2850883 0.28412881 0.29778525 0.27715236 0.27753958
00000000: 9a8a 183d 29ff 553d 5299 923d a5cf 6f3d
00000010: 7e9b a63d c76a e83d d272 fa3d f435 043e
00000020: 4a45 093e c8f5 2e3e d65b 183e e504 1b3e
00000030: fcdf 343e 0926 243e c9e1 203e 533e 543e
00000040: 40ca e73e faec 753e a14b 6c3e e8c5 723e
00000050: 34af 803e 7e64 873e 4bb6 8e3e 88fa 813e
00000060: 8902 8c3e 18f7 913e 5579 913e 4f77 983e
00000070: eae6 8d3e ab19 8e3e

bn1.running_mean f4 [30]
-0.7963563 -0.6536725 -0.45003828 -0.82478565 -0.9359352 -0.36051878 -0.51434875 -0.42282024
-0.76193076 -0.35365003 -0.47127515 -0.57797927 -0.09158812 -0.34528977 -0.5167711 -0.22416107
0.052078497 0.25702938 -0.0037964564 -0.046208397 -0.036072884 0.6284942 0.63887495 0.7119323
0.6597602 1.2436436 0.94412947 0.9231707 0.93444157 1.1308168
00000000: 02de 4bbf 1557 27bf 6b6b e6be 2725 53bf
00000010: 7399 6fbf eb95 b8be 5cac 03bf e57b d8be
00000020: e50d 43bf 9e11 b5be fa4a f1be 73f6 13bf
00000030: 8d92 bbbd d2c9 b0be 1c4b 04bf 7b8a 65be
00000040: 4350 553d 5b99 833e f8cd 78bb 0445 3dbd
00000050: 29c1 13bd ffe4 203f 4f8d 233f 3241 363f
00000060: 0be6 283f b72f 9f3f 78b2 713f ea54 6c3f
00000070: 9037 6f3f 9bbe 903f

bn1.running_var f4 [30]
20.220192 18.930735 19.597233 21.472988 20.452211 17.798538 14.518516 15.599577
17.361786 14.382087 14.241198 16.579523 15.304585 15.086208 14.416635 14.383442
5.7021265 13.195795 12.883151 12.436884 11.243275 10.634684 8.777705 9.615973
9.490846 9.593501 7.890703 8.581311 8.708825 7.4407506
00000000: f4c2 a141 2572 9741 22c7 9c41 aec8 ab41
00000010: 219e a341 6863 8e41 d74b 6841 de97 7941
00000020: f0e4 8a41 071d 6641 f2db 6341 dda2 8441
00000030: 95df 7441 1c61 7141 89aa 6641 9422 6641
00000040: d277 b640 fa21 5341 6321 4e41 7afd 4641
00000050: 74e4 3341 aa27 2a41 7b71 0c41 07db 1941
00000060: 81da 1741 fb7e 1941 a480 fc40 0d4d 0941
00000070: 5957 0b41 a11a ee40

dense1.dense.weight f4 [96, 512]
-0.20151755 0.0037138544 0.35935777 0.26327047 -0.009001774 -0.29313326 -0.5207652 -0.6618666
-1.1314603 0.105670795 0.7786682 -0.20139545 -0.22312288 0.54326206 -0.20516506 0.054394513
-0.80783975 0.65453875 0.1942244 -0.5030659 0.12988736 -0.8206781 -0.16666354 -0.040524226
-0.32272053 -0.40748784 -0.39364514 0.44084758 -0.1924534 -0.3141532 -0.5819779 -0.3522134
-0.7300107 -0.1621048 -0.21580699 -0.21282928 0.3667805 -0.004381346 -0.23442882 0.09957801
-0.025239913 0.00830708 -0.0065259715 -0.10507856 0.48091853 0.074049495 0.21897247 -0.09727786
0.07932138 -0.030007754 0.025771935 0.15015252 0.118039906 -0.1617805 -0.18726553 0.22646385
-0.29152498 0.9563892 -0.87300146 -0.8293496 0.47929713 -0.047569517 -0.37515825 -0.5071166
0.10648097 0.10129756 0.26787367 -0.1600636 0.22332487 -1.0905275 -0.95657635 0.3594094
0.6034863 0.2624749 0.91216004 -0.07038147 0.28487816 0.20744193 0.030367045 -0.8567743
0.30022734 -0.17629535 -0.22233625 0.076385 0.545086 0.45613095 -0.1329461 -0.64598453
0.4551469 0.071409866 -0.115867876 0.18346815 -0.10087565 -0.049605835 -0.12280258 0.13274124
-0.4962272 -0.2997633 0.52067524 0.45070946 0.14923358 0.2023591 -0.15437528 -0.35160813
-0.08947463 0.2971081 0.31940275 -0.3145279 -0.33204338 -0.118695155 0.26697934 -0.24430817
-0.7005952 -0.59780353 0.014271644 0.8738907 0.17306632 0.14860256 0.29586968 -0.37857565
-0.31851447 0.06728525 -0.044249594 0.04322747 0.5449781 0.62308985 0.3280048 0.7262905
0.04849145 -0.62953424 0.46390274 0.05473936 -0.106630646 0.23393363 -0.13178292 0.14579839
0.15950163 0.35289592 -0.09588325 -0.24226923 -0.60523266 0.19937631 0.47814658 -0.5045447
-0.052575715 -0.4163279 0.18623507 -0.39006355 -0.109361194 0.2717731 0.36722708 0.99979687
-0.12787043 -0.050275605 0.20998767 -0.1797496 0.039896283 0.39242712 0.035768814 -0.6140436
0.036850106 0.623196 0.35363236 -0.2320509 -0.3890832 -0.3981782 -0.33240208 0.36762926
0.5023202 0.20126007 -0.27649948 0.51200247 0.36062545 -0.085797615 0.14399523 0.07321955
0.7704731 -0.0968262 -0.3214257 0.26748112 -0.38405305 -0.051356312 -0.07826268 -0.009106317
-0.9568859 -0.003523527 -0.37175748 0.08915311 0.21804288 -0.14273255 0.8422649 0.36334923
0.23093197 -0.10813429 0.22410882 0.024070362 0.03487911 -0.41521418 -1.2257879 -0.9627133
-0.86126834 -0.66128623 0.10270448 -0.499217 -0.6104926 0.052072473 -0.41614398 0.18483405
-0.2121956 -0.030763062 0.41036105 0.47269705 0.2885368 0.43589848 0.09354445 -0.4039788
0.13783947 -0.33722973 -0.61540794 0.102855355 0.6035826 -0.02896169 -0.009766819 -0.034881458
0.0046697413 -0.26261207 -0.67327935 -0.5257315 0.3592014 0.11165024 -0.071068846 0.12022338
0.3816453 0.5012067 0.3225776 -0.005406852 -0.18980163 -0.049862795 -0.4580074 0.57714796
-0.40907338 -0.02731923 0.4040264 0.49524537 -0.10195824 -0.69445515 -0.115759045 0.12054444
-0.41102183 0.28151566 0.32969478 -0.5923434 0.30183938 -0.40316275 -0.15143158 0.53619593
00000000: 9e5a 4ebe 2364 733b befd b73e 63cb 863e
00000010: 2d7c 13bc 9015 96be de50 05bf 1770 29bf
00000020: b1d3 90bf ee69 d83d cd56 473f 9c3a 4ebe
00000030: 537a 64be 3913 0b3f ca16 52be c8cc 5e3d
00000040: 96ce 4ebf da8f 273f c3e2 463e edc8 00bf
00000050: 3101 053e f617 52bf d9a9 2abe bbfc 25bd
00000060: a03b a5be 3fa2 d0be db8b c9be c6b6 e13e
00000070: 8112 45be b0d8 a0be 81fc 14bf 5155 b4be
00000080: fbe1 3abf cdfe 25be 82fc 5cbe ebef 59be
00000090: a7ca bb3e 6591 8fbb 1c0e 70be 8eef cb3d
000000a0: efc3 cebc 6b1a 083c d1d7 d5bb 6e33 d7bd
000000b0: f43a f63e 43a7 973d 523a 603e 9d39 c7bd
000000c0: 3f73 a23d d2d2 f5bc aa1f d33c 95c1 193e
000000d0: e8be f13d caa9 25be 89c2 3fbe 24e6 673e
000000e0: c342 95be ecd5 743f 067d 5fbf 4150 54bf
000000f0: 6f66 f53e 41d8 42bd be14 c0be 65d2 01bf
00000100: b212 da3d 1875 cf3d bd26 893e b6e7 23be
00000110: 46af 643e 6896 8bbf 30e2 74bf 8204 b83e
00000120: 147e 1a3f 1c63 863e 5283 693f 2924 90bd
00000130: 8ddb 913e a86b 543e 4fc4 f83c 8f55 5bbf
00000140: 66b7 993e c586 34be 1dac 63be bd6f 9c3d
00000150: c28a 0b3f ff89 e93e 0623 08be 3e5f 25bf
00000160: 0409 e93e 563f 923d 234c edbd 13df 3b3e
00000170: e597 cebd 7d2f 4bbd eb7f fbbd 52ed 073e
00000180: 7e11 febe 937a 99be f94a 053f 64c3 e63e
00000190: b0d0 183e 3937 4f3e 8e14 1ebe fb05 b4be
000001a0: 7a3e b7bd 8e1e 983e c288 a33e cd09 a1be
000001b0: 9701 aabe 7216 f3bd 84b1 883e ec2b 7abe
000001c0: 355a 33bf a709 19bf 9dd3 693c 4db7 5f3f
000001d0: 4c38 313e 452b 183e 3b7c 973e abd4 c1be
000001e0: 5414 a3be d9cc 893d 103f 35bd 4a0f 313d
000001f0: af83 0b3f d182 1f3f 3ff0 a73e 2dee 393f
00000200: f89e 463d 2829 21bf a984 ed3e 6136 603d
00000210: 2b61 dabd 4c8c 6f3e 1af2 06be 2c4c 153e
00000220: 6554 233e c6ae b43e 705e c4bd 6d15 78be
00000230: 87f0 1abf 4e29 4c3e a1cf f43e d729 01bf
00000240: a259 57bd ee28 d5be 68b4 3e3e 69b6 c7be
00000250: c3f8 dfbd d825 8b3e 3005 bc3e b0f2 7f3f
00000260: 77f0 02be cbed 4dbd 0207 573e 4710 38be
00000270: 496a 233d 35ec c83e 5282 123d f631 1dbf
00000280: 23f0 163d c689 1f3f 4d0f b53e c09e 6dbe
00000290: ea35 c7be 03de cbbe 9b30 aabe e739 bc3e
000002a0: 0e98 003f 1f17 4e3e 5791 8dbe 9812 033f
000002b0: e6a3 b83e a9b6 afbd 7c73 133e 22f4 953d
000002c0: ba3d 453f d14c c6bd e991 a4be 49f3 883e
000002d0: 9aa2 c4be ff5a 52bd 2f48 a0bd a932 15bc
000002e0: 79f6 74bf f9ea 66bb ff56 bebe e895 b63d
000002f0: a246 5f3e 7b28 12be ac9e 573f e908 ba3e
00000300: 6e79 6c3e 8375 ddbd c87c 653e 352f c53c
00000310: 66dd 0e3d f496 d4be 9ee6 9cbf 6174 76bf
00000320: 157c 5cbf 0e4a 29bf ba56 d23d 5f99 ffbe
00000330: 3e49 1cbf f249 553d d310 d5be 2345 3d3e
00000340: ce49 59be d102 fcbc d81a d23e 5905 f23e
00000350: 18bb 933e 162e df3e 3c94 bf3d 4fd6 cebe
00000360: ca25 0d3e 60a9 acbe 608b 1dbf d4a5 d23d
00000370: 6484 1a3f 1141 edbc 0205 20bc dcdf 0ebd
00000380: a104 993b 1775 86be 095c 2cbf 5796 06bf
00000390: 3fe9 b73e e2a8 e43d 8b8c 91bd ad37 f63d
000003a0: 0367 c33e 154f 003f e428 a53e f62b b1bb
000003b0: 5c5b 42be ee3c 4cbd f27f eabe f8bf 133f
000003c0: 1172 d1be 94cc dfbc 8cdc ce3e cd90 fd3e
000003d0: 7bcf d0bd d0c7 31bf 1413 edbd 01e0 f63d
000003e0: 7471 d2be d222 903e c1cd a83e d1a3 17bf
000003f0: b18a 9a3e 596b cebe e110 1bbe 2344 093f

dense1.dense.bias f4 [96]
0.11025475 -0.046699487 0.3270426 0.14583887 0.09504466 0.18430828 0.14110461 0.16033052
0.16246495 0.10359561 0.08992538 0.2370209 0.17523026 2.1666656 0.17874588 0.16885413
0.2432378 0.23612078 0.2318202 0.23861873 0.15871824 0.3286583 0.21546018 0.2327829
0.2220703 -0.033780657 0.22623421 0.087289765 0.29867905 0.3525254 0.115152776 0.29864573
0.15353124 0.36243743 0.2283683 0.18467204 0.12224157 0.1748803 0.098758325 0.083550304
0.31296137 0.2999694 0.26108083 0.1063725 0.022651821 0.27811655 -0.09794533 0.14580697
0.20554064 0.21091393 0.30476138 0.25587246 0.21573228 0.1971085 0.2732321 0.20131493
0.15767229 0.15827604 0.3063411 0.17847899 0.040245637 0.23480293 0.27630836 0.22660264
0.0006091202 0.1225305 0.20460682 0.15138003 0.265004 0.22507817 0.2783988 0.13665271
0.097226754 0.19681405 0.18586493 0.15367621 0.39012524 0.25287604 0.051273018 0.12891948
0.16143076 0.21465181 0.22166535 0.20993628 0.220485 0.0829055 0.23664352 0.31593388
0.1653014 0.3599188 1.3346063 0.25469908 0.103491046 0.21041164 0.12626263 0.14128919
00000000: 3ecd e13d f647 3fbd 2172 a73e c956 153e
00000010: c6a6 c23d 4fbb 3c3e ba7d 103e af2d 243e
00000020: 365d 263e ef29 d43d cc2a b83d 9bb5 723e
00000030: 906f 333e a6aa 0a40 2909 373e 19e8 2c3e
00000040: 5413 793e a5c9 713e 4662 6d3e 7858 743e
00000050: 0987 223e e745 a83e 98a1 5c3e a45e 6e3e
00000060: 6666 633e 965d 0abd f1a9 673e fac4 b23d
00000070: 76ec 983e 367e b43e 38d5 eb3d 18e8 983e
00000080: 4b37 1d3e 6691 b93e 61d9 693e ab1a 3d3e
00000090: ca59 fa3d d213 333e ce41 ca3d 6c1c ab3d
000000a0: 793c a03e 9795 993e 63ac 853e d3d9 d93d
000000b0: 5090 b93c 4b65 8e3e 9097 c8bd 6c4e 153e
000000c0: 3f79 523e d2f9 573e af09 9c3e b701 833e
000000d0: ece8 5c3e d0d6 493e 14e5 8b3e 8025 4e3e
000000e0: d874 213e 1d13 223e bed8 9c3e 32c3 363e
000000f0: 9cd8 243d 2e70 703e 4a78 8d3e 860a 683e
00000100: 5dad 1f3a 45f1 fa3d 7384 513e 5e03 1b3e
00000110: 9bae 873e e47a 663e 4a8a 8e3e b0ee 0b3e
00000120: d21e c73d 9f89 493e 6053 3e3e 4c5d 1d3e
00000130: 7fbe c73e f878 813e a803 523d 7803 043e
00000140: 1b4e 253e afcd 5b3e 3efc 623e 89f9 563e
00000150: d2c6 613e 5cca a93d ae52 723e 16c2 a13e
00000160: c544 293e 4747 b83e 61d4 aa3f eb67 823e
00000170: 1df3 d33d 2676 573e fe4a 013e 1dae 103e

dense1.batch_norm1.weight f4 [96]
0.94109887 0.33587974 1.1891855 0.9487726 0.62819624 1.045532 1.0313132 1.0739021
0.99577385 0.73388064 0.85983604 0.9456369 1.1417153 1.0938009 0.9985315 1.0856299
0.8747373 1.0693736 1.0707526 1.112446 0.93547624 1.1559565 1.0789851 1.0496256
0.9296129 0.90089685 0.93292207 0.56708264 1.041412 0.8686501 0.96920437 1.0759847
0.8614887 1.0083774 0.9225123 0.9063821 0.94304836 1.002045 0.6322717 0.8652488
1.0313655 1.0603226 1.0755585 0.95441926 0.6428528 1.1030284 0.32944092 0.9004421
1.0188949 0.94200015 0.9760189 0.8130509 1.0382435 1.0327858 0.9726722 0.9541522
1.0024282 1.0311779 0.9841055 0.8731301 0.7255668 0.98664796 1.0002482 0.960067
0.66308457 0.68556315 0.8847439 0.8264213 1.0219254 0.79499114 0.88875 0.96175236
0.9270945 0.9882307 1.0122694 0.8966135 0.95992357 0.7799573 0.597176 0.9628074
0.9726117 1.0828534 0.8735995 1.0780405 1.0647682 0.9837562 1.0569508 1.0621841
0.7936586 0.8733102 1.0907099 0.99904734 1.0350038 1.0214701 0.9306109 1.0163348
00000000: dbeb 703f 6ef8 ab3e 3b37 983f c3e2 723f
00000010: 78d1 203f fed3 853f 1202 843f a075 893f
00000020: 09eb 7e3f 9adf 3b3f 371e 5c3f 4315 723f
00000030: ba23 923f ab01 8c3f c39f 7f3f ecf5 8a3f
00000040: c9ee 5f3f 3ce1 883f 6c0e 893f a164 8e3f
00000050: 5f7b 6f3f 62f6 933f 2f1c 8a3f 225a 863f
00000060: 1cfb 6d3f 2da1 663f fbd3 6e3f 542c 113f
00000070: fd4c 853f da5f 5e3f c71d 783f deb9 893f
00000080: 868a 5c3f 8312 813f c429 6c3f a808 683f
00000090: 9e6b 713f 0343 803f 8fdc 213f f280 5d3f
000000a0: c903 843f a7b8 873f e7ab 893f d254 743f
000000b0: 0092 243f 0930 8d3f 7bac a83e 6083 663f
000000c0: 266b 823f ec26 713f 60dc 793f 1b24 503f
000000d0: 2ae5 843f 5332 843f 0c01 793f 5243 743f
000000e0: 914f 803f a3fd 833f 57ee 7b3f 7485 5f3f
000000f0: bfbe 393f f694 7c3f 2208 803f f3c6 753f
00000100: e9bf 293f 1181 2f3f 947e 623f 5990 533f
00000110: 74ce 823f 8a84 4b3f 1f85 633f 6735 763f
00000120: 1156 6d3f b0fc 7c3f 0b92 813f 7688 653f
00000130: 8dbd 753f 48ab 473f 87e0 183f 8c7a 763f
00000140: 15fd 783f f19a 8a3f 38a4 5f3f 3bfd 893f
00000150: 534a 883f 72d7 7b3f 2a4a 873f a6f5 873f
00000160: 362d 4b3f 4291 5f3f 629c 8b3f 91c1 7f3f
00000170: 017b 843f 88bf 823f 843c 6e3f 4217 823f

dense1.batch_norm1.bias f4 [96]
-0.93433017 -0.049531385 -0.9449246 -0.57474065 -0.1922465 -0.6882062 -0.76730317 -0.9245781
-0.7177897 -0.43803746 -0.5612253 -0.5933534 -0.8798832 -3.0689127 -0.7409144 -0.71353924
-0.5437522 -0.7310245 -0.94414175 -0.76976085 -0.82168067 -0.8116402 -0.7411237 -0.8045509
-0.69512635 -0.78354895 -0.6638801 -0.22081572 -0.5474149 -0.7397365 -0.64206266 -0.78044665
-0.5178231 -0.6892749 -0.536484 -0.59884024 -0.6512332 -0.7277326 -0.43784738 -0.52362597
-0.69678074 -0.7571172 -0.70275426 -0.82147 -0.20830959 -0.7082006 -0.01757561 -0.45570987
-0.73159075 -0.56355697 -0.73765415 -0.47087058 -0.6685261 -0.7666829 -0.6584918 -0.71351594
-0.8336509 -0.77915335 -0.5633993 -0.42194426 -0.51497525 -0.7044632 -0.57926923 -0.6233428
-0.29172793 -0.27033034 -0.611203 -0.4036152 -0.6137803 -0.41937032 -0.46455964 -0.6710448
-0.70725733 -0.6708253 -0.68971103 -0.48146662 -0.65519947 -0.31378913 -0.46832594 -0.6430321
-0.70252174 -0.72418886 -0.4997221 -0.7787736 -0.7506574 -0.7639749 -0.70763814 -0.83360654
-0.39659366 -0.6032432 -0.1752823 -0.8590279 -0.75502115 -0.66568357 -0.6651762 -0.64399534
00000000: 4330 6fbf 6ce1 4abd 94e6 71bf 3422 13bf
00000010: 44dc 44be 482e 30bf fb6d 44bf 26b1 6cbf
00000020: 11c1 37bf 7246 e0be 76ac 0fbf 02e6 17bf
00000030: 0740 61bf 1169 44c0 91ac 3dbf 82aa 36bf
00000040: 5833 0bbf 6c24 3bbf 46b3 71bf 0c0f 45bf
00000050: aa59 52bf a7c7 4fbf 48ba 3dbf 0cf7 4dbf
00000060: cdf3 31bf aa96 48bf 0cf4 29bf 841d 62be
00000070: 6223 0cbf 5f5f 3dbf 385e 24bf 5acb 47bf
00000080: 0e90 04bf 5274 30bf 0457 09bf 984d 19bf
00000090: 38b7 26bf af4c 3abf 882d e0be 5a0c 06bf
000000a0: 3960 32bf 6fd2 41bf b4e7 33bf dc4b 52bf
000000b0: 1c4f 55be a24c 35bf bafa 8fbc ce52 e9be
000000c0: 8849 3bbf 4545 10bf e7d6 3cbf f315 f1be
000000d0: 8724 2bbf 5545 44bf eb92 28bf fba8 36bf
000000e0: 256a 55bf 9876 47bf f03a 10bf 1409 d8be
000000f0: 6bd5 03bf b357 34bf fd4a 14bf 6593 1fbf
00000100: 5d5d 95be bd68 8abe cd77 1cbf a7a6 cebe
00000110: b520 1dbf b5b7 d6be c3da edbe 98c9 2bbf
00000120: d10e 35bf 35bb 2bbf e790 30bf cb82 f6be
00000130: 27bb 27bf f8a8 a0be 6bc8 efbe c09d 24bf
00000140: 77d8 33bf 7164 39bf 93db ffbe b55d 47bf
00000150: 152b 40bf dc93 43bf c627 35bf 3d67 55bf
00000160: 530e cbbe 256e 1abf 347d 33be 41e9 5bbf
00000170: 1149 41bf 3d6a 2abf fd48 2abf e1dc 24bf

dense1.batch_norm1.running_mean f4 [96]
2.0222178 1.1209725 -3.963008 -3.504983 -10.665153 -4.730288 -4.5413113 -4.7471514
-3.4900384 -3.6308932 -3.3570392 -3.1394815 -3.2301989 3.963407 -3.9831228 -3.4201794
-2.7871144 -2.0919323 -4.5051227 -3.1987474 -4.947261 -4.866636 -3.5245118 -4.116794
-3.1334229 -3.5241504 -5.3807335 -1.5277708 -3.387564 -4.693387 -2.4195075 -3.0622222
-2.8764644 -3.1982594 -1.0552135 -2.995297 -3.5122404 -3.0453827 -5.04963 -2.7007613
-3.9386919 -2.7311327 -2.956958 -3.511407 -5.2619653 -3.0827556 1.0269392 -3.8896537
-2.9839988 -4.176181 -3.1017435 -2.3632965 -2.73567 -4.3614683 -4.261557 -3.1044302
-4.1191564 -4.7875195 -3.4348586 -4.008251 -3.7849836 -3.5220242 -1.4094589 -2.9862158
-5.825155 -4.5075145 -3.2901158 -2.0695293 -4.315349 -1.5348785 -3.6446886 -3.0059862
-3.8821535 -3.2052672 -3.1251204 -3.556679 -1.3894347 -1.1724327 -2.3197074 -3.032396
-4.2818904 -4.661824 -2.186884 -4.126448 -4.637893 -3.847793 -2.951485 -3.7247453
-1.9206418 -1.1968156 4.727294 -3.461545 -2.620184 -1.5691816 -2.343444 -3.1292863
00000000: 046c 0140 077c 8f3f eca1 7dc0 a451 60c0
00000010: 77a4 2ac1 855e 97c0 6c52 91c0 aae8 97c0
00000020: ca5c 5fc0 8e60 68c0 bbd9 56c0 44ed 48c0
00000030: 94bb 4ec0 76a8 7d40 7ceb 7ec0 38e4 5ac0
00000040: 1560 32c0 38e2 05c0 f729 90c0 47b8 4cc0
00000050: f64f 9ec0 7bbb 9bc0 9a91 61c0 c7bc 83c0
00000060: 008a 48c0 ae8b 61c0 f82e acc0 fe8d c3bf
00000070: d9cd 58c0 3a30 96c0 36d9 1ac0 73fb 43c0
00000080: fe17 38c0 48b0 4cc0 3c11 87bf f2b2 3fc0
00000090: 8cc8 60c0 8de7 42c0 9296 a1c0 46d9 2cc0
000000a0: 8713 7cc0 e1ca 2ec0 cd3e 3dc0 e4ba 60c0
000000b0: 0562 a8c0 de4b 45c0 be72 833f 16f0 78c0
000000c0: d6f9 3ec0 46a3 85c0 f782 46c0 4040 17c0
000000d0: 3815 2fc0 2691 8bc0 ad5e 88c0 fcae 46c0
000000e0: 21d0 83c0 5c33 99c0 b9d4 5bc0 9843 80c0
000000f0: 2c3d 72c0 d868 61c0 2669 b4bf 291e 3fc0
00000100: ab67 bac0 8f3d 90c0 4291 52c0 2b73 04c0
00000110: 5717 8ac0 e676 c4bf 9442 69c0 1462 40c0
00000120: 3475 78c0 1923 4dc0 f901 48c0 a1a0 63c0
00000130: ffd8 b1bf 4612 96bf 1676 14c0 c712 42c0
00000140: 3f05 89c0 aa2d 95c0 e8f5 0bc0 dd0b 84c0
00000150: 9f69 94c0 3e42 76c0 21e5 3cc0 3a62 6ec0
00000160: 97d7 f5bf 4131 99bf fe45 9740 f489 5dc0
00000170: 18b1 27c0 f1da c8bf fdfa 15c0 3a46 48c0

dense1.batch_norm1.running_var f4 [96]
2.9809287 12.566379 12.400145 16.02429 65.99324 14.181503 13.486816 10.748825
10.793419 8.602459 11.399669 11.502588 13.566562 13.216037 12.4247055 15.548661
10.423181 10.419482 12.934065 12.253037 9.972439 15.046533 15.533331 12.171074
9.02719 13.766448 12.959294 6.064664 16.651144 10.358524 11.92885 10.043073
15.643071 13.35955 12.096827 12.139232 11.976207 10.998177 9.042004 14.0993395
11.70885 10.850532 12.683511 10.62654 28.88515 11.842805 6.887223 14.22691
13.359806 14.062333 7.0615587 10.511068 14.973046 13.124416 12.881825 10.245603
11.409246 17.508356 14.070222 14.819211 11.803315 12.59623 10.671429 15.676997
17.878237 24.186605 13.515563 14.402953 15.864714 9.50989 14.451887 12.757264
11.113794 12.096596 14.040981 13.288775 9.84018 9.72945 6.3149 10.906215
11.344222 14.41186 11.392844 15.437033 10.622775 14.682425 13.100065 10.500644
9.818258 7.989891 10.129065 10.445823 11.121634 9.422713 12.497246 15.006254
00000000: 89c7 3e40 e30f 4941 fe66 4641 bf31 8041
00000010: 8afc 8342 70e7 6241 00ca 5741 30fb 2b41
00000020: d8b1 2c41 aca3 0941 0b65 3641 9a0a 3841
00000030: a310 5941 e374 5341 98cb 4641 51c7 7841
00000040: 59c5 2641 33b6 2641 eef1 4e41 710c 4441
00000050: 1c8f 1f41 99be 7041 8688 7841 b8bc 4241
00000060: 5f6f 1041 5f43 5c41 4559 4f41 ba11 c240
00000070: 8b35 8541 84bc 2541 92dc 3e41 6db0 2041
00000080: 054a 7a41 b8c0 5541 9a8c 4141 4b3a 4241
00000090: 8b9e 3f41 88f8 2f41 0cac 1041 e596 6141
000000a0: 7357 3b41 c79b 2d41 a9ef 4a41 4f06 2a41
000000b0: ca14 e741 217c 3d41 2164 dc40 6ca1 6341
000000c0: c4c1 5541 51ff 6041 4af8 e140 562d 2841
000000d0: 9991 6f41 9cfd 5141 f51b 4e41 fded 2341
000000e0: 468c 3641 1d11 8c41 a11f 6141 7d1b 6d41
000000f0: 61da 3c41 288a 4941 2cbe 2a41 fbd4 7a41
00000100: a106 8f41 2b7e c141 bf3f 5841 7f72 6641
00000110: ded5 7d41 8228 1841 ee3a 6741 c11d 4c41
00000120: 1ad2 3141 a88b 4141 dca7 6041 d39e 5441
00000130: 6171 1d41 d4ab 1b41 a913 ca40 db7f 2e41
00000140: ef81 3541 fb96 6641 1749 3641 16fe 7641
00000150: e3f6 2941 36eb 6a41 de99 5141 a302 2841
00000160: 9617 1d41 30ad ff40 a610 2241 1722 2741
00000170: 36f2 3141 6fc3 1641 b8f4 4741 9e19 7041

dense2.dense.weight f4 [15, 96]
-0.023508074 -0.08335009 -0.58587927 -0.364359 0.34527394 0.12201373 -0.3777575 -0.2295735
-0.61475617 0.24789906 -0.39657703 -0.6881815 -0.5644768 -0.017193692 -0.39324328 -0.24307963
0.21163706 -0.39596152 0.44429696 -0.6403486 -0.7252552 -0.4565545 -0.5780748 0.3095459
-0.54601735 0.303794 -0.3282189 -0.337644 0.26103124 -0.44299185 0.23322651 -0.3495827
0.14140332 -0.6377258 0.23049618 -0.4802636 -0.29844108 -0.69328713 0.21342556 -0.78168476
-0.39976108 -0.2706186 0.35887253 -0.48785147 -0.5594765 0.24546117 -0.08422308 -0.42135224
0.088763036 -0.55446965 0.25195315 0.16316727 -0.36258268 -0.24853198 -0.328171 0.30432612
-0.4013126 0.07791001 -0.32474965 0.3361015 0.37238777 -0.55285263 -0.33142063 -0.42737272
0.012325143 -1.016176 -0.44302344 0.16459936 0.05988165 0.081999436 -0.47204444 0.04132147
-0.3806476 -0.8875444 0.04867888 0.30769014 -0.4627532 -0.43321788 0.32487142 -0.47765076
-0.013147994 0.42163327 -0.6252639 0.33326748 -0.67705715 -0.15362361 -0.27596566 0.30738804
-0.47346088 0.17629112 -0.0056704157 0.28393131 -0.6794995 0.10036454 0.2902815 -0.91760397
-0.023620432 -0.12773302 -0.16119726 -1.0008941 0.120330274 0.1678274 0.009285134 -0.12663692
0.34450346 -0.69280916 -0.70053196 -0.8741142 -0.4155431 -0.023353934 0.25769144 0.37438074
-0.7396495 0.030119129 -0.08412763 -0.5412084 0.4737311 0.19388461 0.42141625 -0.21626125
0.21471049 -0.42966372 -0.605668 -0.37350896 0.25965473 0.22648644 0.3986647 -0.38888213
0.1554787 -0.14696978 -0.1483405 -0.35020912 -0.93084794 0.23948874 0.26885194 0.2671883
-0.44887975 -0.47941402 -0.43905002 -0.08849564 0.29764575 -0.5517488 -0.15110014 0.06038476
0.14197238 0.30117497 -0.3595468 -0.24954008 0.12362439 -0.30464444 -0.13562131 -0.18153766
0.097342044 -0.19596094 -0.3022943 0.19589336 0.28014138 -0.031851538 -0.26424384 -0.39652842
-0.01247116 -0.7707337 -0.6584265 -0.10502199 -0.29104176 -0.39199 0.33142453 -0.71063507
0.05335477 -0.3637726 -0.41220966 -0.4985262 -0.29729062 0.16873379 -0.95284736 -0.73777544
-0.2164891 -0.31469193 -0.67628014 0.038971722 0.11769768 -0.38515916 -0.2186137 -0.5966999
-0.45978072 -0.10862755 0.0090516275 0.38847116 -0.13235083 -0.6542482 -0.466755 0.30079305
-0.091937095 -0.1319233 0.5380989 -1.1619315 0.38898793 -0.4630468 -0.60441595 0.4171014
-0.42236167 0.13408847 -0.7213249 -0.4565408 -0.34924468 -0.011450713 0.22339219 -0.22214781
-0.7705845 0.0533346 -0.14751484 -0.47655037 0.17959996 -0.30159244 -0.8042175 -0.5977969
-0.7671931 -0.47870195 0.2508728 -0.32814482 -0.3043175 -0.3360978 0.15819192 -0.47822487
0.24057229 -0.31432897 -0.071891055 0.23386207 0.13511197 -0.34102985 -0.53712136 -1.0012227
-0.5007438 0.37134367 0.37222758 0.23061821 -0.65976137 -0.5439031 -0.18350437 -0.4288502
-0.8151787 0.22566192 -0.25382116 0.15348934 0.2217052 0.20317805 -0.08188156 0.12465046
-0.21385318 -0.71764106 -0.43673325 -0.2927049 -0.053222746 0.26694858 -0.3291132 -0.19879763
00000000: 0194 c0bc 74b3 aabd 2ffc 15bf 438d babe
00000010: bfc7 b03e 56e2 f93d 6e69 c1be 5115 6bbe
00000020: a960 1dbf 40d9 7d3e 250c cbbe aa2c 30bf
00000030: 8d81 10bf c9d9 8cbc 2f57 c9be dee9 78be
00000040: 63b7 583e 78bb cabe e47a e33e e3ed 23bf
00000050: 53aa 39bf 83c1 e9be b6fc 13bf cd7c 9e3e
00000060: cbc7 0bbf e38a 9b3e 4f0c a8be addf acbe
00000070: e3a5 853e d4cf e2be eed2 6e3e 81fc b2be
00000080: 08cc 103e ff41 23bf 3107 6c3e 1ce5 f5be
00000090: 45cd 98be 447b 31bf 3b8c 5a3e 7e1c 48bf
000000a0: 7cad ccbe 858e 8abe 24be b73e abc7 f9be
000000b0: da39 0fbf 2c5a 7b3e 267d acbd 7bbb d7be
000000c0: 65c9 b53d b9f1 0dbf 0100 813e 5215 273e
000000d0: 70a4 b9be 2b7f 7ebe 0806 a8be a2d0 9b3e
000000e0: d878 cdbe 498f 9f3d 9645 a6be 7f15 ac3e
000000f0: 9ca9 be3e c087 0dbf f7af a9be 99d0 dabe
00000100: 66ef 493c 0e12 82bf f8d3 e2be bc8c 283e
00000110: 7646 753d 52ef a73d cfaf f1be b440 293d
00000120: 3ee4 c2be 1c36 63bf 8163 473d 9089 9d3e
00000130: fded ecbe bcce ddbe 8c55 a63e a48e f4be
00000140: af6a 57bc 51e0 d73e 4c11 20bf 09a2 aa3e
00000150: 9e53 2dbf 824f 1dbe 5f4b 8dbe f761 9d3e
00000160: 7769 f2be a985 343e e5ce b9bb 725f 913e
00000170: aef3 2dbf ed8b cd3d c79f 943e 18e8 6abf
00000180: a37f c1bc 72cc 02be e510 25be 4c1d 80bf
00000190: b86f f63d f2da 2b3e ad20 183c 1cad 01be
000001a0: c262 b03e f15b 31bf 1056 33bf f3c5 5fbf
000001b0: 11c2 d4be c050 bfbc 22f0 833e d5ae bf3e
000001c0: ab59 3dbf 64bc f63c 1b4b acbd a28c 0abf
000001d0: e28c f23e b089 463e dfc3 d73e 9773 5dbe
000001e0: 11dd 5b3e e2fc dbbe 0f0d 1bbf 913c bfbe
000001f0: 77f1 843e 10ec 673e c81d cc3e 8f1b c7be
00000200: cf35 1f3e 3f7f 16be 92e6 17be 9c4e b3be
00000210: 0d4c 6ebf 893c 753e f6a6 893e e8cc 883e
00000220: 91d3 e5be c175 f5be 2acb e0be 343d b5bd
00000230: 0665 983e 693f 0dbf ffb9 1abe 0356 773d
00000240: 3561 113e 9b33 9a3e 8516 b8be 6f87 7fbe
00000250: c92e fd3d 5bfa 9bbe 50e0 0abe 02e5 39be
00000260: 445b c73d fca9 48be 52c6 9abe 4598 483e
00000270: b16e 8f3e c276 02bd f84a 87be c605 cbbe
00000280: d653 4cbc ce4e 45bf a48e 28bf c515 d7bd
00000290: 6d03 95be eab2 c8be 7ab0 a93e 2eec 35bf
000002a0: 888a 5a3d 6740 babe 250d d3be d33e ffbe
000002b0: 7a36 98be 8dc8 2c3e ceed 73bf dade 3cbf
000002c0: 52af 5dbe 4d1f a1be b220 2dbf d0a0 1f3d
000002d0: 7b0b f13d 9533 c5be 45dc 5fbe 53c1 18bf
000002e0: 6168 ebbe 1f78 debd 474d 143c b1e5 c63e
000002f0: fa86 07be cf7c 27bf 83fa eebe 8c01 9a3e
00000300: 8449 bcbd e716 07be d9c0 093f 2cba 94bf
00000310: 6d29 c73e 7814 edbe 01bb 1abf 518e d53e
00000320: ca3f d8be 7d4e 093e c0a8 38bf b7bf e9be
00000330: 33d0 b2be c59b 3bbc ecc0 643e b77a 63be
00000340: 0745 45bf 6275 5a3d 210e 17be 69fe f3be
00000350: 0de9 373e 536a 9abe 33e1 4dbf 3809 19bf
00000360: c466 44bf 6c18 f5be 6672 803e 9902 a8be
00000370: 81cf 9bbe 0315 acbe 10fd 213e e4d9 f4be
00000380: 9558 763e baef a0be 9e3b 93bd 8a79 6f3e
00000390: cb5a 0a3e 779b aebe c980 09bf 1128 80bf
000003a0: bf30 00bf c220 be3e 9d94 be3e 2e27 6c3e
000003b0: 1fe6 28bf 3c3d 0bbf 92e8 3bbe 4192 dbbe
000003c0: 8daf 50bf eb13 673e d9f4 81be 4f2c 1d3e
000003d0: b006 633e e80d 503e 85b1 a7bd be48 ff3d
000003e0: 54fc 5abe 53b7 37bf 809b dfbe 6bdd 95be
000003f0: 1800 5abd 7cad 883e 8681 a8be 9b91 4bbe

dense2.dense.bias f4 [15]
0.6874203 0.6147956 0.5147692 2.826806 0.62357354 0.6111891 5.462366 0.65183216
0.76562136 0.6008624 0.71424514 1.1222857 0.7040471 0.033788186 -11.865152
00000000: c7fa 2f3f 3f63 1d3f eac7 033f 64ea 3440
00000010: 84a2 1f3f e476 1c3f b4cb ae40 79de 263f
00000020: c3ff 433f 1ed2 193f c5d8 363f 0fa7 8f3f
00000030: 6e3c 343f 7b65 0a3d aad7 3dc1

dense2.batch_norm1.weight f4 [15]
6.552703 6.9139967 5.650546 9.012533 5.857881 5.958309 9.522681 6.059253
6.9548244 6.3847933 6.5216765 7.569422 6.4198213 0.37178743 17.226809
00000000: beaf d140 763f dd40 46d1 b440 5633 1041
00000010: c373 bb40 78aa be40 e75c 1841 67e5 c140
00000020: ec8d de40 3a50 cc40 93b1 d040 b438 f240
00000030: 2d6f cd40 ec5a be3e 81d0 8941

dense2.batch_norm1.bias f4 [15]
-4.519152 -4.782577 -4.077727 -4.8130674 -3.865191 -3.915087 -4.0235896 -4.4309626
-4.3459067 -4.019008 -4.1247926 -4.2884917 -4.285624 -0.75281686 5.434083
00000000: e59c 90c0 df0a 99c0 bd7c 82c0 a604 9ac0
00000010: 4a5f 77c0 c990 7ac0 3fc1 80c0 72ca 8dc0
00000020: ab11 8bc0 b79b 80c0 4dfe 83c0 533b 89c0
00000030: d523 89c0 9bb8 40bf 02e4 ad40

dense2.batch_norm1.running_mean f4 [15]
0.2703545 0.18601185 0.04216939 2.352009 0.17811945 0.16196033 5.143492 0.16520378
0.34841388 0.21630551 0.25184914 0.7450886 0.26222435 -0.10958905 -12.187595
00000000: e86b 8a3e e479 3e3e cfb9 2c3d 5187 1640
00000010: f264 363e eed8 253e 7d97 a440 2e2b 293e
00000020: 4e63 b23e 317f 5d3e 5ff2 803e 20be 3e3f
00000030: 4542 863e 3970 e0bd 6400 43c1

dense2.batch_norm1.running_var f4 [15]
0.74879014 0.6938078 0.78421855 1.174189 0.70861924 0.65401626 0.84032714 0.72502244
0.6825603 0.6191448 0.72649527 0.7384615 0.6858363 0.27223593 1.7632325
00000000: b6b0 3f3f 639d 313f 8cc2 483f d34b 963f
00000010: 1268 353f 9c6d 273f ae1f 573f 129b 393f
00000020: 46bc 2e3f 4680 1e3f 98fb 393f d00b 3d3f
00000030: f892 2f3f 8262 8b3e 9ab1 e13f
