classification/model_rnafm/13_final/300Epoch/rna_type_checkpoint_fold_8.pt (torch, 252002 bytes, 24 tensors)

layer1.conv1.weight f4 [30, 30, 5]
-0.67065185 0.94068164 1.189133 -0.03609743 0.68726355 -0.22268863 0.4960709 -0.8057073
-0.23638037 -0.014974414 -0.24530186 0.39521307 -0.63738394 0.838428 -0.6106792 1.052829
0.25909707 -0.5399023 1.161441 0.66226506 1.1281599 -0.56296754 -0.1716236 0.41556603
0.74617976 0.36726943 0.439133 -0.15915123 -0.6004927 -0.5019102 -0.3601555 -0.33805057
0.66329813 0.32372087 -0.02744717 0.10653288 0.35275388 -0.30579627 -0.045948535 0.39581195
0.89136523 0.5053138 -0.09314985 0.09991034 0.63377607 0.64896166 -0.02489853 -0.56095743
-0.09955442 -0.20279938 -0.09365027 0.035646908 0.33089566 0.3173354 -0.23496646 -0.42722297
0.07446546 0.31005067 0.27935886 -0.4715456 -0.4326601 0.008662207 -0.18131265 -0.39634418
-0.12976514 0.15307517 0.0781078 0.11422518 0.07247954 0.03833814 -0.14024623 -0.67626065
0.21509305 -0.15790749 -0.02995624 0.16141887 -0.4034044 0.15552145 -0.6432435 0.3071533
0.38074052 -0.33221158 -0.0477847 -0.48627996 0.061739966 0.0065693986 -0.6152442 -0.1934356
-0.025942674 0.44073868 -0.07312814 -0.26010087 0.091290765 0.14034535 0.1362613 0.70342094
-0.1191372 -0.05667784 0.43761402 0.17728785 0.3581919 -0.37016913 0.02685464 0.17914547
0.13959038 -0.1675717 -0.207158 0.4103315 0.1331581 -0.10472563 0.17010547 0.22139618
0.69975007 0.13777073 -0.3424071 0.36560705 -0.3218467 0.09587293 -0.2892559 -0.27128538
0.26474908 0.34531498 0.14798284 0.048589867 0.09502513 -0.28185377 0.2688644 0.17970687
0.19255571 0.30954078 -0.12435346 0.14944404 0.1570895 0.34134966 -0.09054656 0.017507775
-0.064085 0.07159421 -0.011611943 0.012092214 0.5902005 0.53958565 0.07207547 -0.064809844
0.22034083 -0.15584058 0.43160588 -0.4816185 0.08580009 0.13274638 -0.46465427 -1.8524365
-0.67166203 -0.0021732838 1.7444232 -0.26180664 -0.99360806 1.2269677 -0.22633173 -0.9028664
0.50855374 -0.5768767 -0.10263641 0.8225605 -0.0190737 0.5071896 -0.47877523 -0.140162
0.62830764 0.40845498 -0.94622165 0.1460459 -0.97435343 -0.2630588 0.2793202 -0.58533335
-0.40112653 -0.16590343 0.091892086 -0.30366546 0.0034222354 -0.4631805 -0.050406847 -0.2890856
-0.26258472 -0.0025840255 -0.73124117 -0.21641958 0.3417827 0.1450988 0.12263997 0.18015209
-0.20416021 0.2782486 -0.83740515 -0.08323363 0.09518779 0.023500545 -0.22290221 -0.546352
-0.5661276 -0.27622148 -0.22547506 -0.318654 -0.31853738 -0.3154276 0.33160102 -0.6084069
0.054171186 -0.015736928 0.57002854 -0.13125333 -0.6073322 0.02311687 0.22987317 0.1645272
-0.5205433 0.25664982 -0.16566321 0.14386925 -0.013642651 -0.6007013 0.71493685 -0.034315005
0.21729866 -0.14507395 -0.19082499 0.49715307 0.05253785 0.093054496 0.449497 -0.01832823
0.054386996 0.4733305 0.4394066 0.36994985 -0.178094 0.10982747 0.09493765 0.28345495
0.20044445 0.17590414 0.1995799 0.14022385 -0.21724872 -0.118580334 -0.019185064 0.27220228
-0.003754563 0.015175154 -0.27395728 -0.4114621 -0.19069256 0.029573567 -0.12630247 -0.15748216
00000000: d7af 2bbf 83d0 703f 8335 983f e6da 13bd
00000010: 81f0 2f3f 7d08 64be 01fd fd3e d542 4ebf
00000020: b20d 72be 3f57 75bc 6930 7bbe 5e59 ca3e
00000030: 982b 23bf 38a3 563f 7955 1cbf 1ac3 863f
00000040: 5fa8 843e 0a37 0abf 19aa 943f 348a 293f
00000050: 8b67 903f a41e 10bf 19be 2fbe 12c5 d43e
00000060: a305 3f3f bd0a bc3e 0ad6 e03e 8af8 22be
00000070: e4b9 19bf 307d 00bf 4d66 b8be f714 adbe
00000080: e8cd 293f bebe a53e e3d8 e0bc e92d da3d
00000090: 289c b43e 5491 9cbe 8834 3cbd dda7 ca3e
000000a0: 8330 643f 3f5c 013f 59c5 bebd cb9d cc3d
000000b0: 263f 223f 5a22 263f 01f8 cbbc e89a 0fbf
000000c0: 30e3 cbbd a4aa 4fbe b6cb bfbd 7e02 123d
000000d0: 286b a93e c979 a23e 0c9b 70be f8bc dabe
000000e0: 5981 983d f6be 9e3e 2008 8f3e 6d6e f1be
000000f0: a085 ddbe eeeb 0d3c 06aa 39be a0ed cabe
00000100: 27e1 04be bdbf 1c3e fbf6 9f3d e4ee e93d
00000110: 2770 943d 7408 1d3d b59c 0fbe 6b1f 2dbf
00000120: 5a41 5c3e 80b2 21be ca66 f5bc fd4a 253e
00000130: 068b cebe 0441 1f3e 9bab 24bf 3343 9d3e
00000140: 6cf0 c23e a317 aabe e4b9 43bd b0f9 f8be
00000150: 0ce3 7c3d 1c44 d73b a580 1dbf fb13 46be
00000160: bb85 d4bc 80a8 e13e 35c4 95bd f12b 85be
00000170: a7f6 ba3d b1b6 0f3e 1588 0b3e 6513 343f
00000180: 34fe f3bd 0627 68bd f20e e03e f28a 353e
00000190: ee64 b73e cf86 bdbe 43fe db3c e971 373e
000001a0: c8f0 0e3e ea97 2bbe 3a21 54be f816 d23e
000001b0: 995a 083e 647a d6bd 2130 2e3e aeb5 623e
000001c0: d222 333f c513 0d3e fc4f afbe d930 bb3e
000001d0: 17c9 a4be 0759 c43d 5919 94be ebe5 8abe
000001e0: 318d 873e 20cd b03e d088 173e 2b06 473d
000001f0: 899c c23d 234f 90be 98a8 893e 1405 383e
00000200: 532d 453e 217c 9e3e 07ad febd dc07 193e
00000210: 12dc 203e 62c5 ae3e 7a70 b9bd 776c 8f3c
00000220: ff3e 83bd fc9f 923d 0540 3ebc 6c1e 463c
00000230: 6117 173f 4922 0a3f 4e9c 933d 06bb 84bd
00000240: 07a1 613e ac94 1fbe 72fb dc3e b396 f6be
00000250: f5b7 af3d abee 073e 2ae7 edbe a41c edbf
00000260: 0bf2 2bbf a76d 0ebb 4249 df3f 850b 86be
00000270: 195d 7ebf 470d 9d3f 81c3 67be 4122 67bf
00000280: 9430 023f 31ae 13bf 0a33 d2bd 5393 523f
00000290: 7340 9cbc 2dd7 013f 0722 f5be a186 0fbe
000002a0: c5d8 203f 0321 d13e 953b 72bf 0e8d 153e
000002b0: 3a6f 79bf a5af 86be 0f03 8f3e 68d8 15bf
000002c0: 7560 cdbe 97e2 29be eb31 bc3d 0a7a 9bbe
000002d0: 9547 603b ff25 edbe 6977 4ebd 0703 94be
000002e0: 8171 86be c158 29bb 9f32 3bbf 189d 5dbe
000002f0: 24fe ae3e c894 143e aa2a fb3d ca79 383e
00000300: 600f 51be 9a76 8e3e 2f60 56bf 6576 aabd
00000310: d1f1 c23d 3784 c03c 7a40 64be badd 0bbf
00000320: bded 10bf e76c 8dbe efe2 66be 9e26 a3be
00000330: 5517 a3be ba7f a1be 9cc7 a93e 8ec0 1bbf
00000340: 9be2 5d3d bbea 80bc 64ed 113f 4667 06be
00000350: 207a 1bbf 975f bd3c df63 6b3e d179 283e
00000360: 5342 05bf 9b67 833e 9ea3 29be 7652 133e
00000370: 6d85 5fbc 8fc7 19bf 1a06 373f e48d 0cbd
00000380: 8a83 5e3e 448e 14be a067 43be d98a fe3e
00000390: ee31 573d 5b93 be3d 7924 e63e 1625 96bc
000003a0: e6c4 5e3d 6058 f23e e7f9 e03e 116a bd3e
000003b0: 465e 36be 39ed e03d ac6e c23d 0221 913e
000003c0: 4f41 4d3e 3720 343e ac5e 4c3e d796 0f3e
000003d0: 7376 5ebe 3fda f2bd ff29 9dbc 195e 8b3e
000003e0: 1d0f 76bb 36a1 783c 2144 8cbe 29ab d2be
000003f0: e944 43be 4444 f23c 6f55 01be 0143 21be

layer1.conv1.bias f4 [30]
-0.121824145 -0.04201386 -0.08328962 -0.08275545 0.012427604 -0.050292194 -0.07223615 0.03428713
0.08787941 0.03047284 0.019875467 0.019348523 -0.030616798 -0.031338908 0.009312321 0.11971589
0.030932589 -0.031828362 -0.011925094 0.018125528 0.21635821 -0.050057758 0.028610554 -0.07633855
-0.028621063 -0.08081465 0.13346675 -0.10084743 -0.02718159 0.03106942
00000000: f07e f9bd ba16 2cbd c093 aabd b07b a9bd
00000010: 269d 4b3c 30ff 4dbd 8cf0 93bd a970 0c3d
00000020: 1ffa b33d 2da2 f93c e0d1 a23c cb80 9e3c
00000030: 14d0 fabc 3a5d 00bd b592 183c 9b2d f53d
00000040: 5766 fd3c 755e 02bd 7861 43bc fd7b 943c
00000050: 028d 5d3e 5d09 4dbd ae60 ea3c 6357 9cbd
00000060: b876 eabc 2782 a5bd 82ab 083e 1989 cebd
00000070: edab debc 4c85 fe3c

layer1.bn1.weight f4 [30]
0.9906088 1.0921742 0.97492844 0.7910482 0.7755983 0.82631475 1.0058023 0.5626775
0.77183175 0.75375277 1.1392522 0.8976332 1.4921917 0.7542652 0.5158466 0.9070315
0.7912109 0.84003145 0.48195252 1.3393753 0.9256102 0.66864187 0.8904305 0.5784778
0.7748713 0.88001543 1.0223744 0.9943281 1.0503818 1.027918
00000000: 8a98 7d3f 5dcc 8b3f e994 793f 2382 4a3f
00000010: 9c8d 463f 5d89 533f 21be 803f a20b 103f
00000020: c496 453f f1f5 403f 04d3 913f 4acb 653f
00000030: 2300 bf3f 8617 413f 860e 043f 3733 683f
00000040: cc8c 4a3f 4d0c 573f 7bc2 f63e a670 ab3f
00000050: caf4 6c3f 1d2c 2b3f 41f3 633f 1f17 143f
00000060: f75d 463f b148 613f 2add 823f 498c 7e3f
00000070: e972 863f d192 833f

layer1.bn1.bias f4 [30]
0.3225788 0.098120704 0.10529712 -0.16387153 -0.013575655 -0.108779095 0.18232314 -0.14817147
0.044883646 0.05131385 0.0027399259 -0.009084246 -0.4581097 -0.045378316 -0.037982184 0.18303837
0.054621134 -0.73205936 0.022540882 0.21305273 0.006922724 0.08835213 -0.069791645 0.050264873
0.06864339 -0.18363264 -0.04873054 -0.14996046 -0.049789403 -0.12419962
00000000: 0c29 a53e 82f3 c83d 04a6 d73d f0cd 27be
00000010: 6d6c 5ebc 93c7 debd ebb2 3a3e 43ba 17be
00000020: ead7 373d 792e 523d 5490 333b 17d6 14bc
00000030: 5b8d eabe 9dde 39bd 3593 1bbd 696e 3b3e
00000040: 69ba 5f3d 3e68 3bbf a8a7 b83c 7f2a 5a3e
00000050: 05d8 e23b f6f1 b43d ecee 8ebd 8ae2 4d3d
00000060: e894 8c3d 320a 3cbe ad99 47bd 3c8f 19be
00000070: f9ef 4bbd 5f5c febd

layer1.bn1.running_mean f4 [30]
-0.09439681 -0.06901922 -0.11223827 -0.09962743 0.0034941079 -0.03303446 -0.083650395 0.0136023415
0.11974514 0.024002127 0.00944632 0.0048495946 0.015417995 -0.049783334 0.0028244772 0.10779093
0.015873855 -0.041063152 -0.02427121 0.034395028 0.20822527 -0.058338266 0.036193937 -0.09188297
-0.0171909 -0.07700422 0.1271348 -0.10504578 -0.0381708 0.025947398
00000000: 1d53 c1bd f359 8dbd 2edd e5bd 7709 ccbd
00000010: 67fd 643b 244f 07bd e650 abbd 5bdc 5e3c
00000020: f13c f53d 1ca0 c43c bdc4 1a3c 59e9 9e3b
00000030: c29b 7c3c 9ce9 4bbd dd1a 393b 7ec1 dc3d
00000040: e309 823c d631 28bd 6bd4 c6bc cde1 0c3d
00000050: 0139 553e 1bf4 6ebd 1840 143d 232d bcbd
00000060: eed3 8cbc 63b4 9dbd a02f 023e 3e22 d7bd
00000070: fc58 1cbd a38f d43c

layer1.bn1.running_var f4 [30]
6.860133 18.043709 10.053161 2.9027624 5.0747185 6.306213 3.2216787 4.320709
8.342726 3.9431508 0.9328532 2.3219473 23.06001 7.410074 1.3915157 2.8026948
8.805818 1.7673045 1.8097292 4.2444043 3.2138338 3.928441 4.580583 2.7673619
2.8214808 6.178316 4.70504 1.8356066 3.9581308 2.7000816
00000000: 3686 db40 8459 9041 bfd9 2041 dcc6 3940
00000010: 1864 a240 7fcc c940 fc2f 4e40 4043 8a40
00000020: ce7b 0541 955c 7c40 78cf 6e3f c99a 1440
00000030: e77a b841 541f ed40 301d b23f 5a5f 3340
00000040: a1e4 0c41 0937 e23f 35a5 e73f 29d2 8740
00000050: 74af 4d40 946b 7b40 2394 9240 751c 3140
00000060: 2493 3440 c4b4 c540 b08f 9640 28f5 ea3f
00000070: 0452 7d40 23ce 2c40

conv1.weight f4 [30, 30, 5]
-0.5659598 0.021415645 -0.6351856 -0.5547559 -0.2608122 -0.50866264 -0.15997963 -0.5360585
0.16537094 0.79207945 -0.017777262 -0.1213076 -0.21893618 -0.6032009 -0.7291577 -0.2048098
-0.33904165 -0.51194906 0.5780111 -0.22648115 0.5601095 0.10315494 0.34232962 0.37209144
0.033398006 -0.4914058 0.002532196 0.45541203 0.29822683 -0.47111923 -0.12572964 -0.1422634
0.24838029 0.8617693 -0.04561075 0.18036383 0.2748831 -0.13950694 -0.2729746 -0.42372364
-0.36283675 -0.36915237 -0.4553159 -0.13964786 -0.3209414 0.48981798 -0.57822675 -0.58568853
-0.24066646 -0.14278519 0.4444413 -0.13988167 -0.23384836 0.9558045 -0.120349124 0.25050297
0.27012935 -0.54294556 -0.7725872 -0.011994866 -0.032809995 0.630281 0.5102369 0.015822731
0.09855963 -0.63947815 -0.6411369 -0.111998476 0.14292972 -0.26170248 -0.26609218 0.23194547
0.5564981 0.016224561 -0.046736017 -0.28968132 0.6468 0.5985596 0.29986453 -0.20493343
-0.20020214 0.12401463 0.2554564 0.5240735 0.20411052 -0.02724789 -0.26788843 -0.19557063
0.0937672 -0.093830466 0.28866118 -0.05330742 -0.035227485 -0.39778593 -0.13703485 -0.34309968
0.0028339617 -0.83327127 -0.637369 0.4031637 -0.440624 -0.4929048 0.08880797 0.5260771
0.31340566 -0.27669862 0.26678327 -0.29421052 0.15998583 0.026463745 -0.38530234 0.44868508
0.2457332 -0.43258026 -0.015426057 -0.048734397 0.12007319 0.13164808 -0.17019932 0.08279248
-0.15446089 -0.60837525 -0.42303854 0.08841021 0.111881435 -0.12948771 -0.3264365 -0.5650886
-0.3801393 -0.047863107 -0.1218921 -0.013224796 -0.7001369 -0.35216168 0.059155744 0.58474046
0.41472423 -0.17003332 -0.47114608 -0.21684961 -0.13307269 -0.06837752 0.6099555 0.332346
-0.024408408 0.3955345 0.58381927 0.24923265 -0.20109604 -0.13378043 -0.6019624 -0.027273094
-0.6184978 -0.5633699 -0.23153035 -0.47752956 -0.17332406 -0.5835876 0.21209365 0.8039888
0.07427128 -0.24853927 -0.14144275 -0.64914864 -0.66531247 -0.2295672 -0.3273437 -0.35395184
0.45213598 -0.12986612 0.5847515 0.086037494 0.37399325 0.32100683 0.109142184 -0.5578713
0.038799584 0.43660593 0.31162903 -0.42180958 -0.06327226 -0.10805396 0.2031883 0.85788643
-0.033910777 0.054990087 0.23404685 -0.15167618 -0.30155432 -0.29566965 -0.3550373 -0.4428608
-0.40864173 -0.12427104 -0.36645707 0.4822592 -0.5810425 -0.54972357 -0.3715896 -0.15538402
0.4201316 -0.10283694 -0.2811163 0.92419124 -0.13373502 0.23911023 0.25872356 -0.54079
-0.76417625 -0.008108458 -0.04802857 0.5813122 0.44268852 0.052814055 0.06258915 -0.52536386
-0.623056 -0.1341971 0.06465902 -0.29528424 -0.3536019 0.2558406 0.5854749 -0.030772336
0.04546846 -0.28935146 0.5872476 0.62938356 0.33342397 -0.23508096 -0.28131893 0.113774225
0.2402733 0.50259155 0.14683646 -0.032316245 -0.38882625 -0.16265188 0.047090553 -0.16007577
0.24952708 -0.1179028 -0.12066084 -0.38404423 -0.16074465 -0.33561754 0.0035621342 -0.8367851
-0.66789615 0.43211132 -0.4213338 -0.49074307 0.10776627 0.56203187 0.280087 -0.27195257
00000000: bee2 10bf dd6f af3c 869b 22bf 7c04 0ebf
00000010: 2d89 85be b737 02bf b3d1 23be 213b 09bf
00000020: 0057 293e b8c5 4a3f 9fa1 91bc 1e70 f8bd
00000030: ce30 60be 606b 1abf 14aa 3abf a9b9 51be
00000040: de96 adbe 180f 03bf 89f8 133f adea 67be
00000050: 5663 0f3f e642 d33d d445 af3e c582 be3e
00000060: 59cc 083d 8b99 fbbe 33f3 253b c42b e93e
00000070: 30b1 983e 8a36 f1be 45bf 00be 7fad 11be
00000080: 6757 7e3e ea9c 5c3f 56d2 3abd 4cb1 383e
00000090: 7abd 8c3e e8da 0ebe 54c3 8bbe 4ef2 d8be
000000a0: bdc5 b9be 8a01 bdbe 2a1f e9be d9ff 0ebe
000000b0: 6e52 a4be 6cc9 fa3e ab06 14bf afef 15bf
000000c0: 4571 76be 4836 12be cf8d e33e 243d 0fbe
000000d0: f275 6fbe 9baf 743f 9a79 f6bd ed41 803e
000000e0: 654e 8a3e 7bfe 0abf 46c8 45bf 1d86 44bc
000000f0: c663 06bd 185a 213f e39e 023f ac9e 813c
00000100: a2d9 c93d d7b4 23bf 8c21 24bf 755f e5bd
00000110: 2b5c 123e defd 85be 3c3d 88be 1d83 6d3e
00000120: a976 0e3f 5fe9 843c 446e 3fbd 1c51 94be
00000130: af94 253f 343b 193f d887 993e 12da 51be
00000140: ca01 4dbe 62fb fd3d 2ecb 823e ae29 063f
00000150: 5902 513e f836 dfbc ac28 89be ab43 48be
00000160: 0509 c03d 302a c0bd 66cb 933e e258 5abd
00000170: b24a 10bd 99aa cbbe dd52 0cbe c3aa afbe
00000180: fdb9 393b 4451 55bf 9d2a 23bf 796b ce3e
00000190: 7899 e1be 055e fcbe f4e0 b53d fdac 063f
000001a0: b576 a03e 71ab 8dbe d197 883e c3a2 96be
000001b0: 53d3 233e 7fca d83c 5946 c5be 0dba e53e
000001c0: 7ca1 7b3e 297b ddbe 93bd 7cbc b89d 47bd
000001d0: efe8 f53d c1ce 063e bb48 2ebe 1b8f a93d
000001e0: ff2a 1ebe 7bbe 1bbf 8298 d8be 6a10 b53d
000001f0: 1822 e53d 6d98 04be af22 a7be a6a9 10bf
00000200: 9ea1 c2be 1b0c 44bd 91a2 f9bd d1ac 58bc
00000210: 2c3c 33bf 894e b4be 4b4d 723d 8db1 153f
00000220: bc56 d43e 371d 2ebe 0f3a f1be d30d 5ebe
00000230: 3544 08be 8309 8cbd 0b26 1c3f 4129 aa3e
00000240: 24f4 c7bc 7f83 ca3e 2e75 153f d836 7f3e
00000250: 1fec 4dbe bdfd 08be 351a 1abf d36b dfbc
00000260: df55 1ebf 0339 10bf 4b16 6dbe c17e f4be
00000270: dd7b 31be ff65 15bf 142f 593e 36d2 4d3f
00000280: 8a1b 983d 1481 7ebe 5ed6 10be 9b2e 26bf
00000290: eb51 2abf aa13 6bbe 9899 a7be 2d39 b5be
000002a0: 5e7e e73e a0fb 04be 46b2 153f 6d34 b03d
000002b0: 0b7c bf3e 025b a43e f085 df3d a7d0 0ebf
000002c0: 50ec 1e3d d08a df3e d78d 9f3e 6df7 d7be
000002d0: e394 81bd 654b ddbd 9810 503e 729e 5b3f
000002e0: 07e6 0abd 493d 613d faa9 6f3e 0051 1bbe
000002f0: 5465 9abe 0362 97be 73c7 b5be a7be e2be
00000300: 7d39 d1be d181 febd 43a0 bbbe aeea f63e
00000310: 34bf 14bf afba 0cbf fe40 bebe fd1c 1fbe
00000320: 7d1b d73e 2c9c d2bd 7aee 8fbe cc97 6c3f
00000330: d5f1 08be 50d9 743e 6a77 843e 3771 0abf
00000340: 0ea1 43bf 56d9 04bc 9bb9 44bd e0d0 143f
00000350: 12a8 e23e 8d53 583d be2e 803d 3f7e 06bf
00000360: 9980 1fbf f76a 09be f36b 843d 7f2f 97be
00000370: 4f0b b5be 8afd 823e afe1 153f 4416 fcbc
00000380: 233d 3a3d e025 94be dc55 163f 481f 213f
00000390: 8cb6 aa3e 10b9 70be 0909 90be 7602 e93d
000003a0: 340a 763e d7a9 003f 4c5c 163e 0a5e 04bd
000003b0: 3c14 c7be 378e 26be 06e2 403d e7ea 23be
000003c0: 0784 7f3e 0677 f1bd 081d f7bd 72a1 c4be
000003d0: 3f9a 24be 10d6 abbe b272 693b 8c37 56bf
000003e0: 3efb 2abf b23d dd3e 10b9 d7be ad42 fbbe
000003f0: 90b4 dc3d 52e1 0f3f 9067 8f3e 5e3d 8bbe

conv1.bias f4 [30]
0.04051872 0.016872969 0.19104901 0.15580954 -0.07869052 0.0784465 0.020940147 0.015765633
0.01580469 -0.0240829 -0.011055546 -0.04484124 0.0483424 -0.024810722 0.007994299 -0.06596854
0.06995496 -0.004859899 -0.093388915 0.065975495 -0.04143537 0.053190574 -0.06864807 0.068656065
0.06946246 -0.041950427 -0.047808506 -0.02040444 0.06128792 0.03297601
00000000: f5f6 253d 2e39 8a3c 5aa2 433e 898c 1f3e
00000010: 7f28 a1bd 8fa8 a03d ac8a ab3c ee26 813c
00000020: d678 813c 8049 c5bc 5222 35bc 73ab 37bd
00000030: ae02 463d db3f cbbc 85fa 023c 841a 87bd
00000040: 8c44 8f3d ca3f 9fbb b042 bfbd 291e 873d
00000050: 22b8 29bd 5cde 593d 5c97 8cbd 8d9b 8c3d
00000060: 5642 8e3d 36d4 2bbd dad2 43bd 3627 a7bc
00000070: 0b09 7b3d da11 073d

bn1.weight f4 [30]
1.4008956 1.3667895 1.3632195 1.379451 1.3443172 1.3135433 1.2027801 1.0885848
0.9938165 0.94694626 0.90731466 0.9444655 0.74667615 0.80349326 0.8550196 0.9305292
0.89820004 0.8532282 0.97307146 0.9400878 0.9127129 0.8963388 0.92565125 0.87487614
0.9525333 0.8680033 0.8195603 1.8060364 0.95121074 0.8078454
00000000: 8c50 b33f f5f2 ae3f fa7d ae3f da91 b03f
00000010: 9612 ac3f 3022 a83f b3f4 993f bf56 8b3f
00000020: c26a 7e3f 126b 723f c645 683f 7ec8 713f
00000030: 2b26 3f3f bcb1 4d3f 91e2 5a3f 2937 6e3f
00000040: 70f0 653f 2a6d 5a3f 361b 793f 98a9 703f
00000050: 8da7 693f 7676 653f 7bf7 6c3f e2f7 5f3f
00000060: 39d9 733f 7735 5e3f b4ce 513f 332c e73f
00000070: 8c82 733f f5ce 4e3f

bn1.bias f4 [30]
-0.031059323 -0.004431656 -0.017590642 -0.008063814 0.011598648 0.008115864 0.043631814 0.09517587
0.10552547 0.11347552 0.14563648 0.12804878 0.15713887 0.14267625 0.13457642 0.14632183
0.16374125 0.15881138 0.16347189 0.15168007 0.1603339 0.17148916 0.17122012 0.1685872
0.18590833 0.18535078 0.19324057 0.5394647 0.18695566 0.22973779
00000000: 1f70 febc 6d37 91bb 401a 90bc 161e 04bc
00000010: 4108 3e3c 67f8 043c 46b7 323d 91eb c23d
00000020: bd1d d83d da65 e83d bb21 153e 381f 033e
00000030: 03e9 203e b919 123e 67ce 093e 64d5 153e
00000040: c9ab 273e 739f 223e 2d65 273e 0552 1b3e
00000050: 922e 243e db9a 2f3e 5454 2f3e 1fa2 2c3e
00000060: c15e 3e3e 98cc 3d3e dbe0 453e 5c1a 0a3f
00000070: 4e71 3f3e 6240 6b3e

bn1.running_mean f4 [30]
-1.7872754 -1.8811619 -1.5343938 -1.4782507 -1.5831357 -1.4503412 -1.5720772 -1.2994834
-0.90440077 -0.8564549 -0.7600131 -0.8424325 -0.6067187 -0.3487619 -0.4510154 -0.80528945
-0.531661 -0.6778407 -0.74144363 -0.8121748 -0.49869832 -0.37086695 -0.8426421 -0.5432661
-0.55072564 -0.50093365 -0.8509219 0.23876332 -0.04588707 -0.19951254
00000000: 71c5 e4bf eac9 f0bf 0467 c4bf 5237 bdbf
00000010: 31a4 cabf c8a4 b9bf d339 c9bf 7955 a6bf
00000020: cf86 67bf a140 5bbf 3890 42bf a8a9 57bf
00000030: eb51 1bbf eb90 b2be 7eeb e6be 7327 4ebf
00000040: ef1a 08bf f886 2dbf 40cf 3dbf b0ea 4fbf
00000050: 6355 ffbe 46e2 bdbe 65b7 57bf 7d13 0bbf
00000060: 5bfc 0cbf 303d 00bf 05d6 59bf 5f7e 743e
00000070: 15f4 3bbd 044d 4cbe

bn1.running_var f4 [30]
18.619646 19.498957 18.576813 17.849041 19.671196 16.605661 16.938677 14.255311
14.8466425 13.481015 14.718858 18.054317 10.097051 12.433334 19.337326 20.702644
18.267708 20.219196 22.641775 23.54179 27.799006 26.82763 30.599245 29.88135
29.267036 30.188782 30.45881 3.817239 29.90736 23.573496
00000000: 09f5 9441 ddfd 9b41 509d 9441 d6ca 8e41
00000010: 9c5e 9d41 65d8 8441 6982 8741 c115 6441
00000020: d98b 6d41 3db2 5741 7180 6b41 3e6f 9041
00000030: 858d 2141 f0ee 4641 d8b2 9a41 049f a541
00000040: 4424 9241 eac0 a141 5b22 b541 9655 bc41
00000050: 5d64 de41 fc9e d641 41cb f441 010d ef41
00000060: e422 ea41 a082 f141 a5ab f341 a54d 7440
00000070: 4642 ef41 8596 bc41

dense1.dense.weight f4 [96, 512]
-0.61791253 -0.52865773 0.19764082 0.7229339 0.13757037 0.68181413 -0.41571218 -0.037450373
-0.7481094 -0.12266925 0.70206904 -0.8349274 -0.26649427 -0.9017246 -0.4353933 0.094677
0.1223308 -0.1175795 0.10451353 0.47786176 -0.1733796 -0.196254 0.155251 0.3041777
0.38674846 -0.51000637 -0.58054423 1.1392877 -0.11328919 -0.020044103 -0.4307729 0.8620015
-0.14417285 -0.4913594 -0.039533745 0.51882505 -0.29602453 -0.20736066 -0.082523406 -0.38348708
-0.6994686 -0.2119632 -0.12591815 -0.41441888 -0.1775428 -0.17902976 -0.0971925 0.44622862
-0.14010932 -0.16712937 0.79089695 -0.7794249 0.2802306 -0.20498607 0.7363088 -0.37288502
0.4054286 -0.18588193 0.7094455 0.11487075 0.17781903 0.2673934 -0.011229726 0.40328455
-0.43032202 -0.16521218 0.67497116 -0.02877264 0.05497742 -0.030578015 0.12847945 -0.0020625466
-0.3929842 -0.025628058 0.93223614 0.05027117 0.541223 -0.41900164 -0.33108392 -0.33912164
-0.74042857 0.014856367 -0.62165356 -0.21541463 0.042395562 0.021578912 -0.3079889 -0.07973426
-0.29047737 -0.20938359 0.042374227 0.116048746 0.23755284 -0.18328212 -0.48519143 0.33712482
0.809376 0.42683727 0.60582787 0.5679914 0.43495664 -0.4247023 0.22857195 0.18604398
-0.12786873 -0.6832147 0.15085356 -0.37841618 0.674223 0.32746938 -0.062095817 0.64413244
0.14313751 -0.55643475 -0.653778 0.41602674 0.3574217 0.24814665 0.005642486 -0.56576765
-0.44587097 0.18996403 -0.105944246 0.093360774 0.22389981 0.21305417 0.31609362 0.12112191
0.49107757 0.16667518 0.42131415 -0.031620715 -0.07673145 -0.3254774 -0.22282216 -0.6428034
0.043924112 -0.6596021 -0.1525273 0.8254686 -0.103246495 -0.32246995 0.12613826 -0.31919217
-0.8109435 0.06361526 0.22219263 0.16117552 0.60451704 0.48524845 -0.18042159 -0.20396298
-0.6718831 -0.49234253 -0.20835395 0.85038 0.70248973 -0.32617974 0.035101276 0.52168775
-0.5003697 0.25162828 -0.4650668 -0.32770878 0.056414824 -0.057654038 0.31219354 -0.04281686
-0.91608435 -0.74705404 -0.46310374 0.660825 -0.21414335 -0.1951161 -0.08502621 -0.38864192
-0.6540293 -0.21573551 -0.18293123 -0.9173913 -0.34617868 0.40766367 0.09079182 -0.7330894
0.13288024 -0.16737011 -0.26960704 -0.6172181 0.22190489 0.24164455 0.19507965 0.4222063
0.8470997 0.3636859 -0.75435334 -0.39483413 0.15822925 0.3893713 -0.48281655 0.13108063
0.6123552 0.78732616 -0.023860369 0.42560783 0.091591015 -0.691149 -0.03579169 0.3076646
-0.43776208 0.17304249 0.054197498 -0.35842496 -0.15415718 0.12912254 -0.46606225 0.116504505
0.27543098 -0.023564596 -0.43527874 0.15718725 -0.122383915 -0.059559606 0.08849855 -0.47839755
-0.94967085 -0.118085645 0.19408706 0.51210207 -0.38411936 0.23153184 0.26331827 0.0072575356
-0.38458517 -0.39527792 -0.6173088 0.14554887 -0.079105176 -0.13000338 0.07593091 0.5596225
0.33105272 -0.15636541 -0.3930936 -0.50372696 -0.31032607 0.14836526 -0.36705476 -0.08162918
-0.86746806 -0.58152413 0.5808963 -0.15666522 -0.12336039 -0.14153937 0.15236633 -0.049696393
00000000: 842f 1ebf 1d56 07bf 5b62 4a3e 3212 393f
00000010: 3fdf 0c3e 5f8b 2e3f 3ad8 d4be 9065 19bd
00000020: 1984 3fbf 043a fbbd ccba 333f cdbd 55bf
00000030: f071 88be 6cd7 66bf dfeb debe 04e6 c13d
00000040: 9288 fa3d 85cd f0bd 310b d63d 4caa f43e
00000050: 6c8a 31be cff6 48be 1efa 1e3e 2ebd 9b3e
00000060: e503 c63e c78f 02bf 8c9e 14bf 2ed4 913f
00000070: 2a04 e8bd 8833 a4bc 448e dcbe 21ac 5c3f
00000080: 0ca2 13be 7693 fbbe 23ee 21bd b8d1 043f
00000090: 8790 97be 5a56 54be 0802 a9bd 6b58 c4be
000000a0: 6010 33bf e20c 59be b0f0 00be b62e d4be
000000b0: c8cd 35be 9453 37be dd0c c7bd 1478 e43e
000000c0: d178 0fbe f623 2bbe 3978 4a3f 6488 47bf
000000d0: 637a 8f3e dee7 51be bc7e 3c3f c9ea bebe
000000e0: 5694 cf3e d557 3ebe 389e 353f 5b41 eb3d
000000f0: 3116 363e cae7 883e e2fc 37bc 507b ce3e
00000100: 2b53 dcbe 622d 29be e9ca 2c3f 99b4 ebbc
00000110: 0130 613d bf7e fabc 1e90 033e ca2b 07bb
00000120: 3a35 c9be eff1 d1bc 07a7 6e3f 24e9 4d3d
00000130: 978d 0a3f 6287 d6be d583 a9be 5aa1 adbe
00000140: ba8c 3dbf 1f68 733c b024 1fbf a795 5cbe
00000150: f8a6 2d3d 42c6 b03c b9b0 9dbe b74b a3bd
00000160: 73b9 94be a768 56be 9990 2d3d f7aa ed3d
00000170: 0d41 733e 4fae 3bbe 036b f8be a09b ac3e
00000180: 4433 4f3f 6a8a da3e 8917 1b3f e267 113f
00000190: a3b2 de3e 9472 d9be c40e 6a3e 5082 3e3e
000001a0: 05f0 02be 29e7 2ebf 5b79 1a3e c4bf c1be
000001b0: e199 2c3f 11aa a73e 2f58 7ebd dde5 243f
000001c0: a492 123e 8272 0ebf ff5d 27bf 7501 d53e
000001d0: faff b63e 281a 7e3e 9ae4 b83b 26d6 10bf
000001e0: 3349 e4be ee85 423e 4cf9 d8bd ef33 bf3d
000001f0: fe45 653e df2a 5a3e 06d7 a13e c40e f83d
00000200: 856e fb3e e6ac 2a3e 7db6 d73e b984 01bd
00000210: 6125 9dbd f9a4 a6be 7e2b 64be c38e 24bf
00000220: c5e9 333d afdb 28bf 1e30 1cbe e951 533f
00000230: e672 d3bd c81a a5be 632a 013e 286d a3be
00000240: fe99 4fbf b848 823d 7786 633e 320b 253e
00000250: a1c1 1a3f 7c72 f83e 70c0 38be acdb 50be
00000260: 8800 2cbf 5214 fcbe bd5a 55be 81b2 593f
00000270: 5ed6 333f 0801 a7be 5bc6 0f3d 548d 053f
00000280: 3b18 00bf 6cd5 803e 3c1d eebe 72c9 a7be
00000290: 3b13 673d a426 6cbd d5d7 9f3e bb60 2fbd
000002a0: 8184 6abf ef3e 3fbf ef1b edbe d42b 293f
000002b0: 6548 5bbe 84cc 47be 3922 aebd 13fc c6be
000002c0: 776e 27bf c5e9 5cbe 5352 3bbe 28da 6abf
000002d0: 553e b1be 4bb9 d03e 10f1 b93d bfab 3bbf
000002e0: c211 083e 1263 2bbe ef09 8abe 0102 1ebf
000002f0: 093b 633e ab71 773e f6c2 473e 6d2b d83e
00000300: 87db 583f 0a35 ba3e 4d1d 41bf b327 cabe
00000310: d906 223e ad5b c73e bb33 f7be 003a 063e
00000320: 4fc3 1c3f 358e 493f d276 c3bc 45e9 d93e
00000330: 1294 bb3d 24ef 30bf 4f9a 12bd 3786 9d3e
00000340: 5a22 e0be 0d32 313e 32fe 5d3d 7a83 b7be
00000350: 61db 1dbe b338 043e b69f eebe ea99 ee3d
00000360: 4a05 8d3e 8a0a c1bc dbdc debe b2f5 203e
00000370: 6ba4 fabd c6f4 73bd ba3e b53d 86f0 f4be
00000380: a11d 73bf e3d6 f1bd c2be 463e 1f19 033f
00000390: 4bab c4be af16 6d3e a7d1 863e 9fd0 ed3b
000003a0: 59e8 c4be de61 cabe f307 1ebf c30a 153e
000003b0: e501 a2bd 9b1f 05be aa81 9b3d 6c43 0f3f
000003c0: be7f a93e 411e 20be 9043 c9be 40f4 00bf
000003d0: 0fe3 9ebe 10ed 173e 9aee bbbe 332d a7bd
000003e0: 6312 5ebf c4de 14bf 9fb5 143f d96c 20be
000003f0: 5fa4 fcbd b2ef 10be eb05 1c3e 728e 4bbd

dense1.dense.bias f4 [96]
0.23683949 0.16746944 0.42652047 0.017380636 0.22312222 0.24370971 0.22993669 0.30630854
0.24658825 0.12784262 0.35515428 0.20685624 -0.549317 0.18386056 0.21490419 0.2648136
0.2323113 0.016136702 0.42083284 0.35963106 0.3095946 0.30146053 0.23641126 0.3656684
0.22011621 0.28211835 0.4529272 0.2734314 0.3221824 0.15772183 0.21091385 0.15242422
0.2688188 0.14305228 0.3673179 0.23983124 0.17466035 0.22131374 0.33904073 0.17863421
0.11711259 0.36259538 0.014295265 -1.4956537 -0.3381176 0.16147248 0.20976043 0.25109917
0.16545507 0.2377317 0.07706159 0.19127993 0.17979503 0.39933324 0.2444105 0.17607576
0.2571295 0.03257395 0.30802485 0.29231218 0.23099817 0.18361045 0.19848002 0.2539851
0.27296686 0.26739737 0.24342008 0.14190204 0.2687212 0.33524263 0.18327375 0.14144121
0.2467529 0.20656085 0.067049414 0.2563851 0.2951791 -0.0014998015 0.31456512 0.27749687
0.37188113 0.15268812 0.3520416 0.21032088 0.27034217 -0.05081179 0.214404 0.24305059
0.0938505 0.32351768 0.18291505 0.2803462 0.22785638 0.16725472 0.17570598 0.44666597
00000000: 0d86 723e 1c7d 2b3e e460 da3e d661 8e3c
00000010: 277a 643e 0a8f 793e 8674 6b3e 79d4 9c3e
00000020: a181 7c3e 2de9 023e c8d6 b53e 1fd2 533e
00000030: 0aa0 0cbf f145 3c3e d80f 5c3e a695 873e
00000040: 03e3 6d3e 1e31 843c 6777 d73e 9021 b83e
00000050: 2f83 9e3e 0959 9a3e cb15 723e e338 bb3e
00000060: 2566 613e d171 903e 13e6 e73e 33ff 8b3e
00000070: 17f5 a43e d581 213e cdf9 573e 1815 1c3e
00000080: 9ea2 893e 4c7c 123e 1711 bc3e 5296 753e
00000090: 2ada 323e 12a0 623e bf96 ad3e e3eb 363e
000000a0: bad8 ef3d 1aa6 b93e b036 6a3c 9571 bfbf
000000b0: c01d adbe 0b59 253e 70cb 563e 1290 803e
000000c0: 0e6d 293e f06f 733e 78d2 9d3d e3de 433e
000000d0: 301c 383e 6875 cc3e bf46 7a3e 344d 343e
000000e0: 7aa6 833e 436c 053d 6fb5 9d3e f1a9 953e
000000f0: c98a 6c3e 6104 3c3e 593e 4b3e 560a 823e
00000100: 50c2 8b3e 4fe8 883e 1d43 793e c54e 113e
00000110: d395 893e eca4 ab3e 1dac 3b3e f7d5 103e
00000120: cbac 7c3e b084 533e 3451 893d e844 833e
00000130: b721 973e fd94 c4ba ae0e a13e 1214 8e3e
00000140: 3467 be3e 465a 1c3e cc3e b43e 5b5e 573e
00000150: 4a6a 8a3e 0620 50bd b98c 5b3e 41e2 783e
00000160: b134 c03d 1ca4 a53e 154e 3b3e 8a89 8f3e
00000170: 2f53 693e d244 2b3e 45ec 333e 67b1 e43e

dense1.batch_norm1.weight f4 [96]
1.1797186 0.89190173 0.8220066 0.5876501 0.952419 1.1193358 1.0469376 1.0793277
0.9781216 0.8457717 1.0534768 0.7223087 1.074124 1.0557203 0.9962693 0.8695938
1.0142312 0.9270046 1.0162153 1.0639163 1.0053288 0.8534002 1.0331714 0.8272728
0.8826327 1.0205594 1.0649883 1.0951718 1.0971308 1.0803262 0.84538174 1.0060288
0.9075102 1.1031561 1.0786961 1.0703822 0.82462674 1.0083066 1.0153643 0.99954456
0.8556191 0.9836109 0.19914734 1.0799774 1.0288461 1.1582255 0.912004 0.88045335
1.0595717 1.147261 0.69789344 0.906107 1.0374452 1.0560179 0.9150249 1.1724817
0.9705206 0.61670655 1.0404533 0.89371866 1.0602838 1.2017136 0.9116589 1.1328818
1.0304506 1.2825016 0.6005402 1.0986229 0.95677894 0.82833046 1.1952842 0.49697936
1.0145359 1.1041833 0.54213256 0.8697431 1.0179031 0.2425605 1.0194181 1.0227432
0.9479749 0.8608536 0.7215327 0.9735827 0.9940168 0.22379376 0.9778954 1.1052145
0.7252036 0.8965199 0.8854376 0.911039 0.99137014 0.70131373 0.94216764 0.96113724
00000000: 0501 973f ac53 643f 066f 523f 3d70 163f
00000010: bbd1 733f 6546 8f3f 0d02 863f 6927 8a3f
00000020: 2d66 7a3f 7e84 583f 54d8 863f 39e9 383f
00000030: e57c 893f d821 873f 810b 7f3f b39d 5e3f
00000040: 54d2 813f 2c50 6d3f 5813 823f 692e 883f
00000050: 9dae 803f 6f78 5a3f f63e 843f 26c8 533f
00000060: 37f4 613f b1a1 823f 8951 883f 972e 8c3f
00000070: c86e 8c3f 2148 8a3f f06a 583f 8dc5 803f
00000080: 9752 683f 3834 8d3f b712 8a3f 4902 893f
00000090: bd1a 533f 3110 813f 75f7 813f 27e2 7f3f
000000a0: da09 5b3f edcd 7b3f 48ed 4b3e b33c 8a3f
000000b0: 3bb1 833f bc40 943f 1879 693f 6465 613f
000000c0: 0ca0 873f 73d9 923f 25a9 323f a1f6 673f
000000d0: 01cb 843f 982b 873f 123f 6a3f e113 963f
000000e0: 0a74 783f 7be0 1d3f 932d 853f bfca 643f
000000f0: 61b7 873f c0d1 993f 7a62 693f 4502 913f
00000100: cee5 833f 0329 a43f 01bd 193f ad9f 8c3f
00000110: 77ef 743f 770d 543f 13ff 983f 1474 fe3e
00000120: 50dc 813f e155 8d3f 33c9 0a3f 7ca7 5e3f
00000130: a64a 823f c861 783e 4b7c 823f 40e9 823f
00000140: 7cae 723f e760 5c3f 5eb6 383f b73c 793f
00000150: e377 7e3f 312a 653e 5a57 7a3f ab77 8d3f
00000160: f1a6 393f 5482 653f 0aac 623f da39 693f
00000170: 6fca 7d3f 4c89 333f e631 713f 170d 763f

dense1.batch_norm1.bias f4 [96]
-0.81923443 -0.5450015 -0.49351472 -0.2199984 -0.49261805 -0.8759879 -0.8115568 -0.68226117
-0.62455493 -0.36707833 -0.6886101 -0.33846864 -3.0114694 -0.64613104 -0.5701437 -0.5000904
-0.5522751 -1.1317159 -0.75382733 -0.75062984 -0.6707306 -0.52021426 -0.6952646 -0.5688559
-0.5272844 -0.8257957 -0.6909684 -0.7577799 -0.8315476 -0.79341656 -0.3458127 -0.66562235
-0.5919514 -0.7743587 -0.7880264 -0.76548046 -0.4513931 -0.7133031 -0.65451866 -0.63427734
-0.5597157 -0.66128623 0.06871292 -2.8224843 -0.9852972 -0.8101096 -0.55435675 -0.49587333
-0.8006818 -0.7767129 -0.21537086 -0.497818 -0.75017744 -0.7520062 -0.5819727 -0.8055222
-0.69602245 -0.38845935 -0.6668593 -0.5629973 -0.78709644 -0.8767246 -0.43178794 -0.8409884
-0.7249431 -0.8553983 -0.24302861 -0.7553165 -0.4726427 -0.43095854 -0.862159 -0.28724703
-0.71372116 -0.7573382 -0.08952421 -0.50263464 -0.70161563 0.03913084 -0.5327215 -0.64794075
-0.5798989 -0.4320563 -0.3680208 -0.6748178 -0.74120194 0.01128438 -0.65533173 -0.77978104
-0.44184425 -0.5280314 -0.5091675 -0.6249543 -0.6480786 -0.37731883 -0.66559345 -0.5153662
00000000: 59b9 51bf 3885 0bbf f6ad fcbe 4347 61be
00000010: 6f38 fcbe be40 60bf 30c2 4fbf aba8 2ebf
00000020: d5e2 1fbf b1f1 bbbe c048 30bf c34b adbe
00000030: eabb 40c0 d868 25bf f0f4 11bf ed05 00bf
00000040: e761 0dbf 11dc 90bf d4fa 40bf 4729 40bf
00000050: 00b5 2bbf c32c 05bf dcfc 31bf 8aa0 11bf
00000060: 1cfc 06bf 5967 53bf 4ee3 30bf ddfd 41bf
00000070: 4ee0 54bf 591d 4bbf 5d0e b1be 3a66 2abf
00000080: 208a 17bf 5f3c 46bf 19bc 49bf 87f6 43bf
00000090: ff1c e7be 089b 36bf 898e 27bf 0060 22bf
000000a0: 8749 0fbf 0e4a 29bf 5cb9 8c3d 95a3 34c0
000000b0: 703c 7cbf 5863 4fbf 53ea 0dbf 1ce3 fdbe
000000c0: 7cf9 4cbf a8d6 46bf 2e8a 5cbe 00e2 febe
000000d0: a10b 40bf 7a83 40bf 2afc 14bf b436 4ebf
000000e0: 872e 32bf 25e4 c6be 4bb7 2abf 9720 10bf
000000f0: 277f 49bf 0671 60bf 4f13 ddbe 044b 57bf
00000100: df95 39bf 62fb 5abf 7edc 78be 6c5c 41bf
00000110: 39fe f1be 99a6 dcbe 74b6 5cbf 0b12 93be
00000120: 6eb6 36bf ebe0 41bf 7858 b7bd aaac 00bf
00000130: 159d 33bf a947 203d 7060 08bf 72df 25bf
00000140: 4174 14bf 7c36 ddbe 396d bcbe dcc0 2cbf
00000150: 69bf 3dbf 1fe2 383c d2c3 27bf bb9f 47bf
00000160: 6939 e2be 112d 07bf cd58 02bf 01fd 1fbf
00000170: 7be8 25bf ef2f c1be 5564 2abf 0aef 03bf

dense1.batch_norm1.running_mean f4 [96]
-3.5232759 -4.932464 -2.1170154 -1.626633 -3.6638348 -3.8465128 -3.2242224 -3.7558367
-4.286538 -3.3509135 -3.568873 -3.3669958 1.2253275 -2.958675 -3.9959452 -3.674573
-2.2386715 -2.9764807 -2.6571338 -3.1396813 -4.024883 -3.8918447 -3.03776 -2.868525
-3.5885584 -5.0882683 -3.775307 -3.889474 -4.3518105 -4.5253377 -3.2442932 -3.9705749
-4.3960457 -3.4503253 -2.181586 -3.5000608 -2.4791358 -2.5712986 -4.227381 -3.0223246
-1.7495492 -4.390858 -0.48104343 -1.10492 0.36014548 -4.1030474 -3.4410143 -4.3589664
-4.0678225 -4.0306945 -8.30667 -4.894151 -4.4265256 -2.916236 -4.553007 -4.108713
-4.4136586 -2.748586 -2.9277322 -2.9410415 -2.9963574 -2.696575 -2.4139633 -4.842211
-3.9924283 -3.959359 -2.2670448 -3.2843096 -2.799335 -3.6765263 -2.7504156 -3.3739
-1.8335356 -3.3204901 -3.3774936 -3.7663293 -3.8586328 -0.41232687 -2.4131546 -3.9753425
-4.225877 -1.5979588 -2.7065217 -4.3122993 -2.9107869 2.1982586 -2.8516586 -3.7519565
-1.8321619 -1.8662494 -4.1960626 -2.6289601 -4.7156563 -3.9999566 -4.095201 -3.717057
00000000: 5a7d 61c0 bfd6 9dc0 2e7d 07c0 8335 d0bf
00000010: 457c 6ac0 442d 76c0 a959 4ec0 a15f 70c0
00000020: 522b 89c0 5e75 56c0 6a68 64c0 dc7c 57c0
00000030: 88d7 9c3f ee5a 3dc0 91bd 7fc0 342c 6bc0
00000040: 6546 0fc0 a97e 3ec0 7b0e 2ac0 8af0 48c0
00000050: d7cb 80c0 fc13 79c0 a96a 42c0 ea95 37c0
00000060: f1aa 65c0 18d3 a2c0 a19e 71c0 24ed 78c0
00000070: 0842 8bc0 91cf 90c0 80a2 4fc0 e61d 7ec0
00000080: 68ac 8cc0 21d2 5cc0 1b9f 0bc0 ff00 60c0
00000090: 29aa 1ec0 2890 24c0 b546 87c0 c46d 41c0
000000a0: 3af1 dfbf e981 8cc0 534b f6be 056e 8dbf
000000b0: fd64 b83e 2a4c 83c0 9439 5cc0 a77c 8bc0
000000c0: 9a2b 82c0 73fb 80c0 1fe8 04c1 e39c 9cc0
000000d0: 19a6 8dc0 9ca3 3ac0 3cb2 91c0 947a 83c0
000000e0: b13c 8dc0 d5e8 2fc0 f75f 3bc0 063a 3cc0
000000f0: 52c4 3fc0 af94 2cc0 607e 1ac0 64f3 9ac0
00000100: f283 7fc0 2366 7dc0 4317 11c0 2132 52c0
00000110: 4e28 33c0 354c 6bc0 cf06 30c0 faed 57c0
00000120: 4bb1 eabf e982 54c0 db28 58c0 8a0b 71c0
00000130: d7f3 76c0 821c d3be 2071 1ac0 036c 7ec0
00000140: 623a 87c0 ea89 ccbf a737 2dc0 5bfe 89c0
00000150: 554a 3ac0 45b0 0c40 9381 36c0 0e20 70c0
00000160: 4884 eabf 43e1 eebf 2546 86c0 e240 28c0
00000170: a8e6 96c0 4aff 7fc0 e30b 83c0 43e4 6dc0

dense1.batch_norm1.running_var f4 [96]
12.331252 16.013088 7.3034396 22.670767 15.07639 12.835002 9.561172 12.522343
15.609885 18.934803 11.361878 13.497808 13.063382 14.440456 13.06335 12.792738
12.038151 3.8614476 9.192672 12.173045 10.735805 11.04857 9.466256 9.141377
11.297025 13.770144 12.470301 14.045626 15.957664 12.508931 12.393286 11.917675
10.976119 9.779274 8.508194 11.562218 8.692763 9.339255 11.117527 12.142313
8.30181 12.659853 6.136054 6.864343 4.960057 14.0315695 10.152237 12.41501
12.575824 13.311302 58.065403 13.362629 14.050988 13.06217 14.689968 13.981763
14.003164 5.948027 9.458217 7.9978924 9.838538 11.7159 11.506353 16.649145
11.985293 15.677766 5.5035877 12.479955 15.056846 12.800489 14.326062 9.894759
7.3886065 12.520472 18.810434 11.9907675 12.15129 5.702887 12.43878 15.021606
12.865233 8.700995 5.679229 11.058356 9.95773 9.935492 7.599774 12.350512
8.745457 6.2559247 11.942749 8.368202 12.730836 10.126128 12.4685755 11.324155
00000000: cf4c 4541 ce1a 8041 c7b5 e940 bb5d b541
00000010: e538 7141 2b5c 4d41 8ffa 1841 845b 4841
00000020: 17c2 7941 7a7a 9741 41ca 3541 06f7 5741
00000030: 9d03 5141 1c0c 6741 7b03 5141 0eaf 4c41
00000040: 449c 4041 f521 7740 2f15 1341 cbc4 4241
00000050: dbc5 2b41 f1c6 3041 c975 1741 1543 1241
00000060: 9dc0 3441 8352 5c41 5a86 4741 e2ba 6041
00000070: 9752 7f41 9524 4841 e64a 4641 ccae 3e41
00000080: 2f9e 2f41 e877 1c41 9021 0841 d8fe 3841
00000090: 8f15 0b41 976d 1541 64e1 3141 ea46 4241
000000a0: 37d4 0441 c28e 4a41 8e5a c440 b3a8 db40
000000b0: c9b8 9e40 4f81 6041 906f 2241 e2a3 4641
000000c0: 9336 4941 18fb 5441 f942 6842 54cd 5541
000000d0: d9d0 6041 a6fe 5041 1c0a 6b41 4db5 5f41
000000e0: f60c 6041 3d56 be40 db54 1741 bcee ff40
000000f0: a76a 1d41 5474 3b41 061a 3841 7331 8541
00000100: c3c3 3f41 21d8 7a41 641d b040 e5ad 4741
00000110: d7e8 7041 cece 4c41 8d37 6541 ef50 1e41
00000120: 776f ec40 da53 4841 c57b 9641 2fda 3f41
00000130: af6b 4241 0d7e b640 3e05 4741 8058 7041
00000140: ffd7 4d41 4737 0b41 3ebc b540 07ef 3041
00000150: dd52 1f41 c6f7 1e41 5931 f340 b29b 4541
00000160: 64ed 0b41 8930 c840 8015 3f41 28e4 0541
00000170: 81b1 4b41 9f04 2241 497f 4741 bd2f 3541

dense2.dense.weight f4 [15, 96]
-0.5682852 0.15082139 -0.35393548 -0.027473558 0.073989905 -0.2343493 -0.52227885 -0.5080638
-0.21981753 -1.0049354 -0.5304697 -0.90519285 -0.008326954 0.26307434 -0.63559115 -0.6749454
0.24008748 -0.43158025 -0.25517562 -0.09143984 0.2582062 0.27599755 -0.4276731 0.21599603
0.21122745 -0.03635643 -0.53113633 -0.6835571 0.3936934 0.24529378 -0.277133 -0.046909973
0.04778742 0.34016925 -0.48115778 0.30830753 -0.08121181 -0.44344842 -0.663424 -0.19797254
0.25080097 -0.47981694 -0.08689481 -0.0031263933 -0.04040858 -0.3643847 0.08958451 -0.5775218
0.37365752 -0.38092896 0.3112994 0.3384919 -0.53984714 -0.634086 -0.0776333 -0.21469338
-0.52145696 0.25685462 0.35846072 -0.46354812 0.12052723 -0.32064518 -0.33041903 0.4880563
-0.29633823 0.4219665 0.06896102 0.0006025441 0.20943034 0.07515934 -0.59673333 0.24923974
-0.6464026 -0.42950425 -0.0199231 0.27380684 -0.45175752 -0.04521515 -0.46175405 0.24509092
0.04233133 -0.8010407 -0.2863437 -0.67210823 -0.15687512 0.06496128 -0.7275052 0.19558543
-1.1074023 -0.09879412 -0.3547986 -0.7693744 0.07358281 -0.6529234 0.24227521 -0.05877703
-0.016923726 -0.18359564 0.029562743 -0.038480572 -0.44691277 -0.42367494 0.44159457 -0.25913197
-0.2763167 0.2822093 -0.46616742 -0.10880737 -0.013170823 -0.43590966 -0.6702107 -0.14539889
-0.07166774 -0.4949803 -0.3109089 -0.16459414 -0.42355448 -0.5871054 0.355494 -0.33879715
0.2076516 -0.6407333 0.067358114 -0.40566474 0.18159701 -0.5491257 0.1397684 0.20823595
0.21578844 -0.26449302 -0.26703903 -0.4833435 0.15198499 -0.4388003 0.020136818 0.30260485
-1.0057516 -0.3631735 -0.071734406 -0.021538818 0.0035376754 0.12923093 -0.4169469 -0.6494971
-0.07538903 -0.6013988 -0.2868559 -0.18091346 -0.4210408 -0.19801283 0.53707886 0.398837
0.12084376 -1.6950245 -0.26053026 0.13217469 -0.6994175 0.5018831 0.13685897 -0.07921712
-0.7324397 -0.17011186 -0.59036183 -0.65094346 0.22923654 -0.46888158 0.2524581 0.3032778
-0.22846289 0.05663734 -0.01878316 -0.4555805 -0.54351664 -0.0740503 0.30820096 0.3184165
-0.11517217 -0.6589454 -0.29890576 -0.047864273 0.031383667 0.0967198 -0.63335025 -0.119184546
-0.8476857 -0.09727766 0.21410595 0.18527393 0.28608721 0.0145587595 -0.38146865 -0.22174463
-0.354862 -0.16239868 0.24754329 -0.13701019 0.19439188 -0.22559336 -0.5367212 -0.585076
-0.23028906 0.20141985 0.27933505 -1.0585355 -0.012829588 0.25207496 0.2821612 0.08568429
0.28208795 -0.91248506 -0.51605535 -0.65919507 -0.3486259 -0.34997505 0.21020587 -0.5806024
-0.6246331 -0.4140226 -0.48140168 0.0545391 -0.5495048 -0.16080198 -0.45770124 -0.2739092
0.23221321 0.008389267 -0.4387326 -0.2661699 0.24897522 0.36862335 -0.2764563 0.17321318
0.21514493 -0.4805936 -0.035318382 -0.0014548771 -0.1602756 -0.2940728 0.4008395 -0.19795904
-0.54041374 -0.05873699 0.3446229 -0.38589963 -0.013804915 -0.2108376 -0.29998368 -0.6238633
-0.30475873 -0.76111436 -0.44705445 -0.5018416 -0.47601968 0.3644348 -0.7193855 -0.8636026
00000000: 247b 11bf ec70 1a3e 0837 b5be 3a10 e1bc
00000010: 0588 973d 43f9 6fbe 11b4 05bf 7810 02bf
00000020: d917 61be b9a1 80bf ddcc 07bf b8ba 67bf
00000030: c76d 08bc aeb1 863e 1ab6 22bf 39c9 2cbf
00000040: 7ed9 753e 16f8 dcbe 61a6 82be d044 bbbd
00000050: 9a33 843e 8d4f 8d3e f8f7 dabe 102e 5d3e
00000060: 024c 583e 7bea 14bd 8df8 07bf 99fd 2ebf
00000070: 2e92 c93e 4b2e 7b3e 60e4 8dbe ac24 40bd
00000080: bebc 433d aa2a ae3e 505a f6be 7cda 9d3e
00000090: 6152 a6bd ac0b e3be 28d6 29bf 50b9 4abe
000000a0: fc68 803e 91aa f5be e8f5 b1bd 2de4 4cbb
000000b0: 7883 25bd a290 babe 1578 b73d 78d8 13bf
000000c0: 0a50 bf3e 1f09 c3be a362 9f3e cf4e ad3e
000000d0: 6c33 0abf 7653 22bf 35fe 9ebd 95d8 5bbe
000000e0: 347e 05bf 7382 833e 2a88 b73e 2e56 edbe
000000f0: fbd6 f63d 9b2b a4be af2c a9be 84e2 f93e
00000100: a5b9 97be fe0b d83e 6f3b 8d3d 0df4 1d3a
00000110: e874 563e 24ed 993d 84c3 18bf b438 7f3e
00000120: a47a 25bf fbe7 dbbe c535 a3bc 6930 8c3e
00000130: c34c e7be 8533 39bd 076b ecbe 1df9 7a3e
00000140: 9e63 2d3d 0111 4dbf a49b 92be 490f 2cbf
00000150: dfa3 20be 6b0a 853d c83d 3abf 8c47 483e
00000160: 5cbf 8dbf 9254 cabd 29a8 b5be b8f5 44bf
00000170: 96b2 963d fd25 27bf fe16 783e 2fc0 70bd
00000180: a0a3 8abc 7f00 3cbe 912d f23c ce9d 1dbd
00000190: c0d1 e4be eceb d8be af18 e23e f2ac 84be
000001a0: 6279 8dbe bd7d 903e 7fad eebe 66d6 debd
000001b0: 70ca 57bc 8d2f dfbe ee92 2bbf 72e3 14be
000001c0: 89c6 92bd 0f6e fdbe 742f 9fbe 5e8b 28be
000001d0: 22dc d8be 8a4c 16bf 4f03 b63e d276 adbe
000001e0: 9fa2 543e 1907 24bf 0df3 893d 4ab3 cfbe
000001f0: 91f4 393e 8093 0cbf 731f 0f3e ce3b 553e
00000200: a5f7 5c3e a16b 87be 57b9 88be cd78 f7be
00000210: f4a1 1b3e 6faa e0be f8f5 a43c 06ef 9a3e
00000220: 78bc 80bf e1f1 b9be 7de9 92bd 2d72 b0bc
00000230: 58d8 673b 1d55 043e 107a d5be 7145 26bf
00000240: 9065 9abd 46f5 19bf c7de 92be 6141 39be
00000250: a992 d7be e0c3 4abe 007e 093f 5d34 cc3e
00000260: ef7c f73d 90f6 d8bf 3964 85be cd58 073e
00000270: 060d 33bf 697b 003f c224 0c3e 963c a2bd
00000280: 2b81 3bbf ce31 2ebe f421 17bf 3ba4 26bf
00000290: fcbc 6a3e 3f11 f0be 3042 813e 3a47 9b3e
000002a0: 2df2 69be 8efc 673d 24df 99bc d941 e9be
000002b0: e823 0bbf afa7 97bd 84cc 9d3e 7d07 a33e
000002c0: 63df ebbd a5b0 28bf 2d0a 99be 540d 44bd
000002d0: 298c 003d 0815 c63d 3e23 22bf 0717 f4bd
000002e0: ee01 59bf 8339 c7bd 973e 5b3e 73b8 3d3e
000002f0: 067a 923e dd87 6e3c dc4f c3be 0611 63be
00000300: 79b0 b5be d74b 26be fd7b 7d3e 664c 0cbe
00000310: aa0e 473e f201 67be 9066 09bf 8ac7 15bf
00000320: e5d0 6bbe 0141 4e3e 0105 8f3e 177e 87bf
00000330: 3133 52bc f80f 813e 6f77 903e 3f7b af3d
00000340: d56d 903e 9f98 69bf 341c 04bf 02c1 28bf
00000350: 187f b2be ee2f b3be 3540 573e 5ca2 14bf
00000360: f4e7 1fbf c5fa d3be 487a f6be 6464 5f3d
00000370: 59ac 0cbf 46a9 24be d157 eabe d43d 8cbe
00000380: 4dc9 6d3e 2373 093c 8fa1 e0be 6c47 88be
00000390: 5cf3 7e3e 33bc bc3e ae8b 8dbe cc5e 313e
000003a0: f44e 5c3e 5d10 f6be 02aa 10bd 93b1 beba
000003b0: 491f 24be b690 96be d63a cd3e c6b5 4abe
000003c0: 8e58 0abf 3396 70bd 6a72 b03e a394 c5be
000003d0: 032e 62bc d0e5 57be 7697 99be 81b5 1fbf
000003e0: 5609 9cbe 64d8 42bf 52e4 e4be b178 00bf
000003f0: dab8 f3be 3397 ba3e a629 38bf 0f15 5dbf

dense2.dense.bias f4 [15]
0.5823408 0.65772617 0.4894755 3.1284223 0.5513671 0.54893434 5.5130367 0.53112376
0.7870376 0.6631968 0.70779246 1.2935125 0.62956476 -0.05244703 -12.492133
00000000: 4914 153f be60 283f 889c fa3e 1238 4840
00000010: 6526 0d3f f686 0c3f cc6a b040 baf7 073f
00000020: 4c7b 493f 44c7 293f e331 353f d191 a53f
00000030: 282b 213f b2d2 56bd c7df 47c1

dense2.batch_norm1.weight f4 [15]
6.534344 6.8928685 5.701683 8.688735 6.0619 5.7982235 9.236012 5.8683114
6.998138 6.25573 6.4737988 7.7648773 6.499084 0.36875635 16.322441
00000000: 5919 d140 6192 dc40 3074 b640 0f05 0b41
00000010: 16fb c140 0c8b b940 b5c6 1341 35c9 bb40
00000020: bff0 df40 f12e c840 5c29 cf40 e079 f840
00000030: 7ff8 cf40 a2cd bc3e 5c94 8241

dense2.batch_norm1.bias f4 [15]
-4.5810175 -4.763177 -4.2480326 -4.7351227 -4.0525527 -3.9312832 -4.363271 -4.248654
-4.532297 -4.0872445 -4.274111 -4.5387673 -4.432758 -0.71560687 8.013458
00000000: b297 92c0 f26b 98c0 e2ef 87c0 2086 97c0
00000010: 83ae 81c0 259a 7bc0 eb9f 8bc0 f9f4 87c0
00000020: 9408 91c0 b5ca 82c0 84c5 88c0 953d 91c0
00000030: 27d9 8dc0 0332 37bf 2037 0041

dense2.batch_norm1.running_mean f4 [15]
0.19563757 0.2786852 0.056304805 2.6239448 0.13862482 0.1322765 5.1399064 0.11784167
0.3300132 0.2611969 0.3059991 0.8461666 0.22277667 -0.16460451 -12.412744
00000000: 3755 483e d4af 8e3e de9f 663d b6ee 2740
00000010: aaf3 0d3e 7e73 073e 1d7a a440 f956 f13d
00000020: 7df7 a83e 9abb 853e eaab 9c3e 609e 583f
00000030: 911f 643e 168e 28be 999a 46c1

dense2.batch_norm1.running_var f4 [15]
0.6034091 0.62044454 0.54748166 0.8766721 0.5880046 0.5071239 0.79498607 0.6752979
0.6917582 0.5127819 0.5457075 0.86442626 0.63059294 0.63475806 1.9064274
00000000: 0579 1a3f 74d5 1e3f c227 0c3f 956d 603f
00000010: 7887 163f dfd2 013f 3584 4b3f 53e0 2c3f
00000020: 1117 313f ad45 033f 7db3 0b3f 0a4b 5d3f
00000030: 8a6e 213f 817f 223f d005 f43f
