classification/model_rnafm/13_final/300Epoch/rna_type_checkpoint_fold_10.pt (torch, 252034 bytes, 24 tensors)

layer1.conv1.weight f4 [30, 30, 5]
-0.7503194 1.0570533 1.4274547 0.6873693 -0.582752 0.96482325 0.5559644 -0.8740834
-0.0079845255 1.0532644 0.32628778 -0.11800048 -0.53727543 -0.85228044 0.54752403 -0.36079395
0.53281295 0.3985166 0.03962781 -0.6272298 0.25916424 1.2149192 -0.06529725 -0.4797957
0.13692428 0.2547471 -0.42809868 -0.41377008 0.43703848 -0.15016201 -0.077453084 0.7774945
0.50719523 -0.50625974 0.12068708 -0.37047267 0.8203244 -0.023491807 0.1199379 -0.2978277
0.30371064 -0.46654147 -0.07012975 -0.109661445 -0.54102194 -0.40396008 -0.59833515 0.36072436
-0.4754159 0.19525467 0.05844796 -0.40274268 0.054417867 -0.29584098 -0.05848708 0.20134573
0.13993043 -0.3236813 -0.1533828 0.19032511 0.005361946 0.12500197 -0.27623802 -0.03274784
-0.27760133 -0.08363122 0.052678578 -0.09699592 0.15064642 -0.09284671 -0.10698902 -0.5865724
-0.32844934 0.26894316 -0.12346101 -0.4607327 -0.66943055 0.17926522 0.35684007 -0.16899002
-0.17321923 -0.42413545 0.17888829 0.40973526 -0.13726068 0.2483864 -0.22532123 0.05594764
0.42658845 -0.11162555 0.13851343 0.110169925 0.1873116 -0.09879919 -0.17068714 -0.10855229
0.020876143 0.7136602 0.3171063 -0.041584343 0.4007681 0.056914695 0.7471725 0.10064565
0.10999983 0.3572271 0.4693373 -0.19693889 -0.5002194 0.068811126 -0.22747818 0.42185107
-0.35916945 -0.23890494 0.35636923 -0.10228601 -0.1244714 -0.04478709 -0.02338627 0.16971485
0.13627352 -0.048036143 0.2792125 0.2894373 -0.13731548 0.054669004 -0.23568973 0.11174226
-0.16648069 -0.32587928 0.22602947 -0.3427322 -0.18515556 -0.25611058 -0.3363704 -0.022661442
-0.2691426 0.21192682 -0.30431184 -0.1734961 0.18135679 0.14727086 0.2713565 -0.37650722
0.16730538 0.24588595 -0.08704551 0.46349317 -0.3968949 0.5867759 0.5191688 1.532263
0.18391894 -0.5269745 -0.047448393 -0.35127452 -0.010588031 0.30678725 1.1012175 0.10196929
0.65476555 -0.08893788 0.35782775 0.3741037 0.26542088 -0.13973905 -0.7043076 -0.8848904
0.19104134 -0.51356524 0.28308672 0.3223075 -0.8209498 0.018531037 0.07652713 0.58081144
0.4345786 -0.67967117 -0.86836123 -0.16009574 0.1264683 0.5541931 0.46534067 -0.59907466
-0.83965456 0.5559548 0.29774526 -0.4389187 -1.184687 -1.2627792 0.2311275 -0.21584429
-0.17439596 -0.41763726 -0.13427751 0.1231404 -0.2164469 -0.21454868 -0.15619196 0.19120225
-0.06585459 -0.7427121 0.6007816 -0.5380412 -0.5685107 -0.20954287 -0.51956505 0.2190605
0.21035118 -0.0058044195 -0.1940665 -0.11764084 -0.3589867 -0.26192632 -0.247959 -0.057810612
0.24483097 -0.091255605 0.030910797 0.13667537 0.36406353 0.13050735 -0.42931983 0.3055974
-0.049515575 0.3909552 0.37084737 0.27897552 -0.21920182 -0.14549811 0.17046998 0.2960358
0.115224615 -0.29211268 0.17972846 -0.15456718 0.12495623 -0.25235218 0.23253693 0.36867747
0.374597 0.43678176 -0.4974457 0.02122193 0.20960039 0.03117255 0.21000943 -0.44103912
-0.8027749 -0.036885772 -0.465802 0.20414162 0.40550023 -0.090365246 -0.026801314 -0.40144563
00000000: ef14 40bf 864d 873f d6b6 b63f 6ff7 2f3f
00000010: 3c2f 15bf a8fe 763f af53 0e3f eec3 5fbf
00000020: 87d1 02bc 5ed1 863f 310f a73e 3caa f1bd
00000030: e28a 09bf 0d2f 5abf 892a 0c3f fcb9 b8be
00000040: 6e66 083f 5e0a cc3e c550 223d 2292 20bf
00000050: 2db1 843e 7982 9b3f 91ba 85bd c8a7 f5be
00000060: e135 0c3e 366e 823e c02f dbbe acd9 d3be
00000070: 82c3 df3e 12c4 19be b99f 9ebd e109 473f
00000080: 8cd7 013f 3d9a 01bf ca2a f73d 98ae bdbe
00000090: c800 523f e471 c0bc 00a2 f53d df7c 98be
000000a0: f67f 9b3e 86de eebe 30a0 8fbd 2e96 e0bd
000000b0: 6a80 0abf dbd3 cebe 7e2c 19bf ddb0 b83e
000000c0: b669 f3be d7f0 473e 2167 6f3d 4a34 cebe
000000d0: 45e5 5e3d 7878 97be 2690 6fbd 932d 4e3e
000000e0: ec49 0f3e 8eb9 a5be 6110 1dbe 96e4 423e
000000f0: 43b3 af3b 8400 003e 126f 8dbe 9922 06bd
00000100: c321 8ebe d846 abbd 7ec5 573d cca5 c6bd
00000110: 0e43 1a3e 6a26 bebd 0f1d dbbd 9c29 16bf
00000120: 832a a8be ebb2 893e 20d9 fcbd 28e5 ebbe
00000130: cd5f 2bbf 4d91 373e beb3 b63e b80b 2dbe
00000140: 6260 31be 4828 d9be 7e2e 373e d2c8 d13e
00000150: 108e 0cbe 0159 7e3e 9cba 66be 5a29 653d
00000160: cd69 da3e f09b e4bd 77d6 0d3e c5a0 e13d
00000170: 9dce 3f3e 3b57 cabd 9cc8 2ebe aa50 debd
00000180: 7204 ab3c 6fb2 363f c25b a23e 5854 2abd
00000190: 7a31 cd3e 621f 693d b246 3f3f 4e1f ce3d
000001a0: 9747 e13d 78e6 b63e fb4c f03e 59aa 49be
000001b0: 610e 00bf d9ec 8c3d 0af0 68be ddfc d73e
000001c0: 0fe5 b7be 7fa3 74be 0776 b63e 547b d1bd
000001d0: ddea febd ab72 37bd 9094 bfbc bbc9 2d3e
000001e0: 498b 0b3e 8cc1 44bd f1f4 8e3e 2031 943e
000001f0: 6e9c 0cbe 9bec 5f3d a658 71be 20d9 e43d
00000200: ea79 2abe a6d9 a6be 4574 673e 987a afbe
00000210: 6b99 3dbe ed20 83be be38 acbe 7da4 b9bc
00000220: 0fcd 89be 5803 593e c3ce 9bbe f6a8 31be
00000230: 98b5 393e 2cce 163e 3def 8a3e 8ec5 c0be
00000240: 1a52 2b3e 87c9 7b3e eb44 b2bd fa4e ed3e
00000250: cf35 cbbe f236 163f 3fe8 043f 3221 c43f
00000260: 3f55 3c3e cde7 06bf 3f59 42bd 41da b3be
00000270: 6c79 2dbc 3813 9d3e b2f4 8c3f 46d5 d03d
00000280: b79e 273f 1025 b6bd 3335 b73e 858a bf3e
00000290: 3fe5 873e c117 0fbe 814d 34bf 2d88 62bf
000002a0: 57a0 433e 0379 03bf bef0 903e 7d05 a53e
000002b0: c429 52bf 67ce 973c 42ba 9c3d 0fb0 143f
000002c0: 1681 de3e eefe 2dbf ec4c 5ebf 23f0 23be
000002d0: e880 013e 99df 0d3f 2241 ee3e f55c 19bf
000002e0: 9af3 56bf 0e53 0e3f 1172 983e f4b9 e0be
000002f0: d3a3 97bf c0a2 a1bf b0ac 6c3e 4906 5dbe
00000300: db94 32be 8dd4 d5be 0b80 09be 0931 fc3d
00000310: 42a4 5dbe a6b2 5bbe c9f0 1fbe 86ca 433e
00000320: c5de 86bd 6122 3ebf d3cc 193f 11bd 09bf
00000330: eb89 11bf 6892 56be 3702 05bf 6551 603e
00000340: 4d66 573e 0033 bebb 5eb9 46be aeed f0bd
00000350: 1bcd b7be 351b 86be f7e8 7dbe d2ca 6cbd
00000360: f8b4 7a3e 38e4 babd a438 fd3c a1f4 0b3e
00000370: 8966 ba3e b8a3 053e cfcf dbbe 4377 9c3e
00000380: d8d0 4abd 482b c83e b5df bd3e e1d5 8e3e
00000390: 7176 60be 75fd 14be af8f 2e3e 0192 973e
000003a0: e2fa eb3d cb8f 95be bd0a 383e dc46 1ebe
000003b0: 0de9 ff3d 4e34 81be 291e 6e3e 4bc3 bc3e
000003c0: 2ecb bf3e dca1 df3e 34b1 febe 9dd9 ad3c
000003d0: 7ca1 563e 935d ff3c b60c 573e e1cf e1be
000003e0: a882 4dbf 8915 17bd 9a7d eebe 800a 513e
000003f0: ba9d cf3e 6a11 b9bd 6e8e dbbc 488a cdbe

layer1.conv1.bias f4 [30]
-0.084857054 -0.08492947 0.07528723 -0.084557645 -0.048976257 -3.7813803e-05 -0.07006402 -0.28216577
0.049212214 0.019079983 0.016511459 0.037485324 -0.017194986 -0.01684315 -0.019580476 -0.06636672
-0.00846079 0.04744495 -0.085732445 -0.04564108 0.028600382 0.022755167 -0.07810891 -0.008933175
0.037567914 0.035787247 0.006119636 0.047960363 0.011009688 0.035591155
00000000: 89c9 adbd 81ef adbd 3130 9a3d 8f2c adbd
00000010: 549b 48bd 439a 1eb8 ba7d 8fbd 0878 90be
00000020: bf92 493d a04d 9c3c 0a43 873c 368a 193d
00000030: 80dc 8cbc a5fa 89bc 3c67 a0bc 46eb 87bd
00000040: 209f 0abc a355 423d 7e94 afbd 24f2 3abd
00000050: 594b ea3c 0b69 ba3c 90f7 9fbd 745c 12bc
00000060: d0e0 193d a695 123d 3a87 c83b 1672 443d
00000070: fa61 343c 08c8 113d

layer1.bn1.weight f4 [30]
0.9288535 0.9916668 0.7459162 0.68429756 0.88199943 0.7073791 0.55664647 1.2123464
0.51752144 0.70911044 0.38242418 0.59643763 0.626042 0.89240694 0.7077287 1.3774809
0.5848603 0.5403157 0.7070761 1.1946194 0.85584706 0.8787721 1.0778161 1.1045254
0.79280245 0.6982013 0.79434806 0.5527407 0.72898245 0.614182
00000000: 58c9 6d3f e0dd 7d3f 5df4 3e3f 202e 2f3f
00000010: b7ca 613f cc16 353f 6280 0e3f 2b2e 9b3f
00000020: 497c 043f 4388 353f 1acd c33e 23b0 183f
00000030: 4a44 203f c874 643f b52d 353f 4b51 b03f
00000040: 68b9 153f 2152 0a3f f002 353f 4ae9 983f
00000050: cb18 5b3f 35f7 603f e1f5 893f 1761 8d3f
00000060: 1af5 4a3f 52bd 323f 655a 4b3f 6a80 0d3f
00000070: 989e 3a3f 083b 1d3f

layer1.bn1.bias f4 [30]
0.1305511 0.032258093 -0.058888093 0.16344644 -0.041514833 0.1096946 -0.06585446 0.30380943
-0.0941054 0.06364947 -0.027204797 -0.03336552 0.08424648 0.035068244 0.004836534 -0.08373803
0.052247483 0.050747104 0.118145764 0.08843738 0.15018532 -0.1798448 -0.015765522 0.040508773
0.1406374 0.025799707 -0.08392908 -0.07165477 -0.1564799 0.030091088
00000000: 30af 053e 1021 043d a434 71bd 815e 273e
00000010: 750b 2abd 90a7 e03d b4de 86bd e98c 9b3e
00000020: 55ba c0bd a75a 823d 98dc debc 49aa 08bd
00000030: 6b89 ac3d b8a3 0f3d ca7b 9e3b d87e abbd
00000040: 7501 563d 32dc 4f3d 68f6 f13d a81e b53d
00000050: 2eca 193e 3c29 38be b226 81bc 87ec 253d
00000060: 4003 103e e859 d33c 02e3 abbd bcbf 92bd
00000070: 443c 20be 9681 f63c

layer1.bn1.running_mean f4 [30]
-0.073844574 -0.099634685 0.072180666 -0.11268261 -0.0713429 -0.02115191 -0.08536943 -0.2888756
0.05208026 0.0048665167 0.00028400955 0.017314836 -0.034114495 -0.031690616 -0.0387154 -0.0767721
-0.024336917 0.018831883 -0.099073455 -0.05700294 0.019628778 0.031089928 -0.083419375 -0.037824113
0.032081522 0.023981454 0.0035456636 0.04431454 0.0020044553 0.021102777
00000000: d33b 97bd 450d ccbd 75d3 933d 24c6 e6bd
00000010: 3a1c 92bd c546 adbc 2bd6 aebd 81e7 93be
00000020: 1c52 553d 4d77 9f3b 1ee7 9439 d8d7 8d3c
00000030: a4bb 0bbd 05ce 01bd 0a94 1ebd b13a 9dbd
00000040: 375e c7bc 5245 9a3c 06e7 cabd ea7b 69bd
00000050: 88cc a03c 4eb0 fe3c c7d7 aabd 75ed 1abd
00000060: ea67 033d c174 c43c 5d5e 683b 2a83 353d
00000070: 2e5d 033b bbdf ac3c

layer1.bn1.running_var f4 [30]
3.8799484 8.422619 2.8915856 10.180741 4.100734 8.194948 5.5143676 2.8202047
4.8430214 6.3091764 4.85825 5.928414 7.46929 9.149829 4.9642696 2.0620444
3.9303927 13.729133 4.6657143 1.7025381 3.744132 6.9893365 10.059397 17.833344
12.632781 3.569128 7.624159 6.6339707 1.3950413 3.350457
00000000: 1351 7840 0cc3 0641 bd0f 3940 51e4 2241
00000010: 3739 8340 821e 0341 b375 b040 3c7e 3440
00000020: 08fa 9a40 c6e4 c940 c976 9b40 91b5 bd40
00000030: 6c04 ef40 b365 1241 4cdb 9e40 89f8 0340
00000040: 8e8b 7b40 87aa 5b41 884d 9540 c5ec d93f
00000050: dc9f 6f40 a5a8 df40 4af3 2041 b0aa 8e41
00000060: df1f 4a41 986c 6440 1cf9 f340 7d49 d440
00000070: b790 b23f e36d 5640

conv1.weight f4 [30, 30, 5]
0.120057136 -0.59042525 -0.9795984 -0.16032648 0.27868778 0.04664285 -0.036078926 -0.25643402
-0.7645288 -0.26740456 0.08083584 -0.58704925 -0.31653434 -0.67304367 0.54564935 -0.16596413
-0.57240546 0.34918672 0.39824742 0.19888416 0.731576 0.17524146 0.43994516 0.49704552
0.039595556 0.05633737 -0.47438928 0.09763785 0.13269897 0.6825861 0.18312764 -0.0069055515
0.5525606 0.398505 -0.18651405 -0.66077685 0.017454537 0.65662736 0.27494538 -0.4162536
0.0996055 0.8463284 -0.09345314 -0.30050504 0.12294026 -0.43907842 0.07148302 0.41064093
0.3052708 0.4025551 0.022036683 0.09545134 0.68711615 0.23821777 0.2896836 -0.5434383
0.25256506 -0.09138815 0.19464739 0.5047409 0.2537154 0.3389132 0.22612637 -0.13296817
0.0061964486 -0.58897203 0.27664763 -0.27921444 0.47438332 -0.013132944 -0.061055645 -0.38215464
-0.51808894 -0.3967313 0.15531059 0.94213337 0.14010978 -0.042443365 0.13190752 -0.25966132
0.13205701 -0.40248016 0.13777342 0.002934918 -0.073114716 -0.36317146 0.15136564 0.2003695
0.27652752 -0.048902366 -0.045828786 0.25398126 -0.61377704 -0.28084284 0.5635866 -0.302985
-0.28626487 0.98117024 0.2856526 -0.13095026 0.53780353 -0.4104136 -0.38538706 0.24251477
-0.49734673 -0.5770116 -0.39219052 0.15963122 -0.086673796 -0.27031985 0.48713225 -0.47442722
-0.45770043 -0.3753631 -0.041771106 0.013525905 0.13801077 0.6183026 0.1599848 -0.040788423
-0.28862098 0.14950463 -0.20159376 -0.50016123 0.026069514 0.10905383 -0.3914075 0.13882582
0.22205761 0.3465306 0.05414248 -0.5989093 -0.005465276 -0.12089393 -0.5437646 -0.36168084
-0.41330078 -0.23230219 -0.09722103 -0.038187686 -0.0054895338 -0.45398524 0.41061735 -0.30826727
-0.15304776 -0.16710344 0.19509582 0.32840493 0.16199112 0.11033748 0.116178624 -0.6270033
-0.9561244 -0.18455583 0.28647164 0.036730528 -0.07768833 -0.277634 -0.7963965 -0.26585484
0.021331357 -0.60380757 -0.2793312 -0.6958173 0.5224195 -0.12073143 -0.50412893 0.3409435
0.39109924 0.19596305 0.7704567 0.20009868 0.44760108 0.4793814 0.10482671 0.009575825
-0.43020725 0.029916435 0.10195486 0.6363075 0.16542502 0.054633785 0.42258543 0.40731925
-0.10770664 -0.69970846 0.044075068 0.66667193 0.20222817 -0.42838004 0.111726515 0.8604201
-0.06870406 -0.26057205 0.07307953 -0.44524398 0.01603093 0.4181387 0.32926452 0.47000107
0.011331405 0.01927006 0.7713396 0.23014475 0.26554486 -0.5561358 0.35491195 -0.08796824
0.20734599 0.4242468 0.23577043 0.2854514 0.19372734 -0.20685686 0.0017508725 -0.5796251
0.33711976 -0.3298078 0.44008073 0.0026837632 -0.091113076 -0.4376472 -0.5014857 -0.32466495
0.18308733 0.93328977 0.17129813 -0.013754712 0.09442536 -0.27706605 0.22899455 -0.32117078
0.13706352 0.14183642 -0.07853608 -0.32350323 0.057999883 0.20299323 0.3170484 -0.052413773
-0.09992251 0.27817634 -0.6267709 -0.28785276 0.55161357 -0.28858817 -0.29546368 0.97346723
0.2924304 -0.14153017 0.5291786 -0.4189809 -0.28147712 0.18343814 -0.47125143 -0.5600578
00000000: 84e0 f53d 1c26 17bf f6c6 7abf a02c 24be
00000010: 2ab0 8e3e 930c 3f3d 7fc7 13bd 524b 83be
00000020: 29b8 43bf 40e9 88be 438d a53d dc48 16bf
00000030: ca10 a2be 974c 2cbf adaf 0b3f 80f2 29be
00000040: 2a89 12bf 9ac8 b23e 16e7 cb3e 4aa8 4b3e
00000050: 9148 3b3f 7f72 333e 7e40 e13e c07c fe3e
00000060: f32e 223d 04c2 663d 27e3 f2be 5af6 c73d
00000070: 3de2 073e f6bd 2e3f d085 3b3e f747 e2bb
00000080: 9d74 0d3f d908 cc3e 8afd 3ebe ac28 29bf
00000090: d1fc 8e3c bb18 283f a4c5 8c3e 311f d5be
000000a0: f8fd cb3d faa8 583f 5c64 bfbd ccdb 99be
000000b0: 1ac8 fb3d e3ce e0be b165 923d 873f d23e
000000c0: 744c 9c3e b41b ce3e 4686 b43c fe7b c33d
000000d0: d8e6 2f3f 5cef 733e 6951 943e c61e 0bbf
000000e0: 3550 813e b629 bbbd a551 473e b336 013f
000000f0: fce6 813e 0886 ad3e ac8d 673e cf28 08be
00000100: 940b cb3b dfc6 16bf c2a4 8d3e 32f5 8ebe
00000110: 5fe2 f23e 8f2b 57bc 7c15 7abd c6a9 c3be
00000120: 7aa1 04bf 5d20 cbbe bd09 1f3e a72f 713f
00000130: f078 0f3e 18d9 2dbd c412 073e 54f2 84be
00000140: f439 073e e111 cebe 7a14 0d3e c157 403b
00000150: 2bbd 95bd 9cf1 b9be 98ff 1a3e aa2d 4d3e
00000160: 0495 8d3e d94d 48bd f7b6 3bbd d509 823e
00000170: 7e20 1dbf a2ca 8fbe 3647 103f da20 9bbe
00000180: 4f91 92be f92d 7b3f 0f41 923e d317 06be
00000190: 7ead 093f bb21 d2be 7451 c5be cb55 783e
000001a0: 3ba4 febe 08b7 13bf 32cd c8be 5e76 233e
000001b0: 0882 b1bd 5d67 8abe 6669 f93e 20e8 f2be
000001c0: b657 eabe 982f c0be 2e18 2bbd c29b 5d3c
000001d0: b252 0d3e 1449 1e3f 0ed3 233e c311 27bd
000001e0: 21c6 93be be17 193e 986e 4ebe 910a 00bf
000001f0: bc8f d53c 9d57 df3d 9066 c8be 5b28 0e3e
00000200: 1263 633e 756c b13e 81c4 5d3d 1f52 19bf
00000210: 0f16 b3bb 3d97 f7bd 2834 0bbf 3b2e b9be
00000220: 299c d3be a0e0 6dbe d21b c7bd b16a 1cbd
00000230: 8ce1 b3bb c170 e8be 703c d23e 35d5 9dbe
00000240: 8db8 1cbe 2a1d 2bbe 33c7 473e b124 a83e
00000250: 00e1 253e 9ef8 e13d 0fef ed3d 4a83 20bf
00000260: 92c4 74bf 34fc 3cbe 69ac 923e c072 163d
00000270: 0f1b 9fbd 0b26 8ebe a4e0 4bbf 201e 88be
00000280: 19bf ae3c 2293 1abf 8004 8fbe 1521 32bf
00000290: 49bd 053f 0a42 f7bd 980e 01bf 2590 ae3e
000002a0: 293e c83e 8aaa 483e a63c 453f abe6 4c3e
000002b0: f82b e53e 7b71 f53e 63af d63d ece3 1c3c
000002c0: 2044 dcbe 5013 f53c b6cd d03d 0ce5 223f
000002d0: 2d65 293e adc7 5f3d 1e5d d83e 268c d03e
000002e0: 4d95 dcbd 1820 33bf 0f88 343d 03ab 2a3f
000002f0: e714 4f3e a154 dbbe dfd0 e43d 7e44 5c3f
00000300: b7b4 8cbd b369 85be b8aa 953d 05f7 e3be
00000310: 4c53 833c 4716 d63e 5c95 a83e fba3 f03e
00000320: 5ba7 393c 3fdc 9d3c 8376 453f 11ab 6b3e
00000330: 7ff5 873e ea5e 0ebf 05b7 b53e b128 b4bd
00000340: 8252 543e e036 d93e ce6d 713e b026 923e
00000350: 7660 463e 49d2 53be 887d e53a 5062 14bf
00000360: f69a ac3e 91dc a8be 4352 e13e 13e2 2f3b
00000370: 7e99 babd 4b13 e0be 5e61 00bf 7c3a a6be
00000380: 3f7b 3b3e 14ec 6e3f c768 2f3e 725b 61bc
00000390: 1562 c13d 9adb 8dbe 8c7d 6a3e 7f70 a4be
000003a0: 615a 0c3e 913d 113e 86d7 a0bd 37a2 a5be
000003b0: 4991 6d3d 75dd 4f3e 2b54 a23e d3af 56bd
000003c0: 2ca4 ccbd 216d 8e3e 0f74 20bf 7061 93be
000003d0: 8c36 0d3f d4c1 93be 0447 97be 2635 793f
000003e0: 70b9 953e 49ed 10be 4078 073f aa84 d6be
000003f0: c51d 90be 35d7 3b3e de47 f1be f35f 0fbf

conv1.bias f4 [30]
-0.08116521 -0.050355427 -0.123689644 0.0942292 -0.0021059564 -0.0118638035 -0.004468097 0.06912831
0.08223814 -0.08878725 -0.0617218 0.051954076 -0.092842095 -0.036416214 -0.02890068 -0.03383252
-0.06653332 -0.08773432 -0.061130784 0.034994133 -0.052783683 -0.0663562 0.037835535 -0.04736276
0.07403251 0.043246202 -0.04663956 -0.05075013 0.082395114 -0.06073826
00000000: f239 a6bd 7e41 4ebd ff50 fdbd 3dfb c03d
00000010: 1604 0abb 6660 42bc 1d69 92bb 2593 8d3d
00000020: 786c a83d 17d6 b5bd 00d0 7cbd cccd 543d
00000030: ff23 bebd 2b29 15bd 1ec1 ecbc f893 0abd
00000040: 9f42 88bd 0dae b3bd 4664 7abd 0256 0f3d
00000050: b433 58bd c2e5 87bd 6ff9 1a3d 74ff 41bd
00000060: 5b9e 973d ee22 313d 2009 3fbd 5edf 4fbd
00000070: c5be a83d afc8 78bd

bn1.weight f4 [30]
1.2505422 1.2492087 1.224671 1.262072 1.2503952 1.1827371 1.143406 1.1601647
1.0802662 1.03378 0.9839191 0.903524 0.88233554 0.83345824 0.7936129 0.66686916
0.72294265 2.27528 0.71336854 0.7193484 0.6510708 0.63366187 0.46941122 0.65638053
0.6022488 0.5471405 0.37283692 0.42327666 0.5104635 0.58696604
00000000: c411 a03f 12e6 9f3f 05c2 9c3f 938b a13f
00000010: f30c a03f ee63 973f 215b 923f 4780 943f
00000020: 2a46 8a3f e752 843f 1fe2 7b3f 594d 673f
00000030: bee0 613f 855d 553f 372a 4b3f f0b7 2a3f
00000040: c512 393f 309e 1140 529f 363f 3727 383f
00000050: 93ac 263f aa37 223f ab56 f03e 8e08 283f
00000060: fa2c 1a3f 6611 0c3f 7be4 be3e b8b7 d83e
00000070: bcad 023f 6843 163f

bn1.bias f4 [30]
0.015031768 0.02583002 0.028107546 0.037613694 0.052418835 0.06785295 0.08273169 0.08330017
0.10376367 0.08878613 0.12244391 0.14281009 0.14684774 0.17075568 0.16476923 0.19033231
0.16406249 0.49490044 0.20167911 0.21468104 0.21802461 0.24884237 0.28519976 0.25676796
0.25442195 0.2668409 0.3001373 0.27806705 0.30528536 0.29433942
00000000: ce47 763c 7a99 d33c cc41 e63c d110 1a3d
00000010: 22b5 563d 7df6 8a3d 3b6f a93d 4899 aa3d
00000020: 0c82 d43d 81d5 b53d dfc3 fa3d cf3c 123e
00000030: 415f 163e 94da 2e3e 44b9 283e 79e6 423e
00000040: ffff 273e 9763 fd3e f884 4e3e 59d5 5b3e
00000050: d841 5f3e 89d0 7e3e b405 923e 1777 833e
00000060: 9843 823e 5f9f 883e 99ab 993e ce5e 8e3e
00000070: 5d4e 9c3e a8b3 963e

bn1.running_mean f4 [30]
-0.4558053 -0.48081163 -0.6250746 -0.403316 -0.5683559 -0.31836918 -0.38224825 -0.196483
-0.18074355 -0.24443397 -0.07733296 -0.14451094 0.081870355 -0.19269365 -0.059025675 -0.031181863
0.012415206 0.823052 -0.35933653 0.10573813 -0.28372896 -0.1929069 0.27707273 -0.03425297
0.2003301 0.059416737 0.20212981 0.14881976 -0.019585997 -0.46656504
00000000: 505f e9be f12c f6be e404 20bf 6f7f cebe
00000010: c67f 11bf 4901 a3be 0bb6 c3be d732 49be
00000020: d614 39be e64c 7abe be60 9ebd adfa 13be
00000030: a5ab a73d 7c51 45be e8c4 71bd 1b71 ffbc
00000040: 2669 4b3c 89b3 523f f5fa b7be 3c8d d83d
00000050: ec44 91be 6389 45be 7adc 8d3e d84c 0cbd
00000060: 5523 4d3e f75e 733d 1efb 4e3e 3564 183e
00000070: d072 a0bc 9de1 eebe

bn1.running_var f4 [30]
10.417031 11.05073 10.819264 10.3137045 10.835071 9.620441 8.75462 10.709618
10.318339 10.752613 9.768812 9.044657 8.71558 10.058005 9.182644 7.681976
8.198053 3.6299553 9.473228 7.0558076 7.390104 10.975725 5.3077374 10.105619
9.170178 8.430017 4.7192945 6.6411476 8.239436 9.404923
00000000: 29ac 2641 cacf 3041 b51b 2d41 ef04 2541
00000010: 735c 2d41 54ed 1941 ec12 0c41 985a 2b41
00000020: eb17 2541 b40a 2c41 0e4d 1c41 eab6 1041
00000030: 0473 0b41 97ed 2041 1cec 1241 bfd2 f540
00000040: 3a2b 0341 3051 6840 5892 1741 2dc9 e140
00000050: bb7b ec40 929c 2f41 fcd8 a940 9eb0 2141
00000060: 0db9 1241 5ae1 0641 7604 9740 4884 d440
00000070: bbd4 0341 917a 1641

dense1.dense.weight f4 [96, 512]
0.9215892 0.09585451 -0.42864782 0.53451586 0.401776 0.25364128 -0.3437285 -0.42181024
0.8224154 -0.36463493 -0.21928614 -0.47836483 -0.3737607 -0.30112422 -0.19109727 0.6003499
0.121444516 -0.25444782 -0.000783039 0.20940061 -0.17566805 0.19504741 -0.2912444 -0.2432006
-0.066404045 -0.008398782 -0.52304465 0.1766189 0.11065494 0.017347988 0.31766322 -0.050749164
-0.4810231 -0.13776687 -0.20513374 -0.08562394 0.7057514 -0.4300637 0.13440573 0.08248169
-0.6938808 -0.09949871 -1.0793017 -0.1524816 -0.9066762 0.5084505 0.18292084 -0.6511683
0.21209441 -0.7559922 0.3543856 0.74810016 -0.2507198 -0.013822808 0.10907939 0.23022741
-0.60041034 0.3918387 -0.064056866 0.11379783 0.11764078 -0.33601362 -0.7809659 -0.3186497
-0.16100293 -0.06793467 -0.24017145 0.59593254 -0.6989429 -0.15599799 -0.20645973 -0.09413596
0.11129041 0.04139787 0.51896834 -0.29240274 0.096056595 0.13990113 0.6106875 0.32661992
0.5881079 0.3791633 -0.9689035 0.2591286 0.077416115 0.35514256 0.13858707 0.2638202
-0.46585155 -0.4339755 1.1615757 -0.21403883 -0.73247504 -0.05482486 0.9326666 0.102992296
0.42863393 -0.22079991 -0.22448696 0.19178037 -0.4937717 -0.035048325 -0.19787204 0.02029432
0.16516122 -0.20849812 0.5483285 -0.48286408 -0.36774558 0.09326275 0.11179429 0.44360033
-0.2561619 -0.6438473 -0.50545937 0.022382025 -0.11523128 0.0245025 0.25135985 -0.26142636
0.3421506 0.5010568 -0.09396401 -0.35449836 0.1881343 0.69161075 -0.20092069 0.31756794
0.67250717 0.29709104 -0.3966491 -0.4482461 -0.46564922 0.54089415 -0.07369269 -0.18135755
0.3921196 -0.71936613 -0.2695895 1.0255206 0.92556685 0.37924036 0.07692662 -0.44563347
-0.75975823 -0.0015869548 0.20457107 -0.004225354 -0.145622 -0.58462375 -0.113494426 0.25263816
-0.15763383 0.11781998 0.6455363 -0.874428 -0.680036 -0.17885631 0.26383868 -0.38223693
-0.08888168 0.47294372 0.029421717 0.16254276 -0.21603328 -0.1724146 -0.1054921 -0.04659857
-0.4431965 -0.25635555 0.6297858 0.8941124 0.045026463 0.13120377 0.2028965 0.2442004
-0.039729692 1.2008163 0.42959085 -0.2625633 0.08899779 0.4811622 -0.7099644 -0.18745567
0.14702244 0.26756737 0.28087246 -0.30335596 0.26213166 -0.009247242 0.43914372 0.016877271
0.31462502 -0.35597664 0.31103107 -0.9867169 -0.23203994 -0.041507345 -0.09921655 0.075856425
-0.6025705 -0.52931297 0.4277043 0.6514792 0.08009237 -0.1341257 -0.48451808 -0.08760228
-0.10821486 0.3972143 0.13097136 -0.4831779 0.68469447 -0.059299093 -0.06028467 -0.17795603
0.060864367 -0.17644088 0.0664524 -0.14508693 0.122942686 -0.99023557 -0.35124686 0.7114907
0.6557425 0.5852769 0.5619475 0.13598414 -0.06907419 -0.21198948 0.063944824 -0.28191054
1.1384944 -0.234305 0.101597965 -0.45915353 0.079892814 -0.7966845 0.11165745 0.41660455
-0.6694081 -0.2833726 -0.34698513 -0.6191203 -0.029925361 0.066378415 -0.63624483 0.6435954
0.10837426 -0.6324508 0.05911235 -0.20799161 0.5017512 -0.0011215449 -0.41334677 1.046869
00000000: 45ed 6b3f 5f4f c43d ba77 dbbe 08d6 083f
00000010: 95b5 cd3e 45dd 813e 2ffd afbe 83f7 d7be
00000020: d189 523f 6eb1 babe 8c8c 60be 3cec f4be
00000030: 905d bfbe f42c 9abe 01af 43be 88b0 193f
00000040: e7b7 f83d fc46 82be dc44 4dba 1d6d 563e
00000050: 53e2 33be 82ba 473e fc1d 95be 9409 79be
00000060: d8fe 87bd 0c9b 09bc 41e6 05bf 96db 343e
00000070: 0f9f e23d 5e1d 8e3c c1a4 a23e 5bde 4fbd
00000080: a948 f6be c212 0dbe 940e 52be 9b5b afbd
00000090: 20ac 343f 4f31 dcbe a8a1 093e 29ec a83d
000000a0: 2ca2 31bf fbc5 cbbd 8f26 8abf 2324 1cbe
000000b0: ee1b 68bf d029 023f 9a4f 3b3e f7b2 26bf
000000c0: 472f 593e b488 41bf 0872 b53e 7e83 3f3f
000000d0: 585e 80be 0f79 62bc 0465 df3d bcc0 6b3e
000000e0: 7eb4 19bf 159f c83e 3f30 83bd d60e e93d
000000f0: a6ed f03d fa09 acbe 62ed 47bf 0e26 a3be
00000100: f4dd 24be 5521 8bbd 81ef 75be 098f 183f
00000110: eced 32bf f0bd 1fbe 2e6a 53be 5bca c0bd
00000120: 3aec e33d d090 293d 1cdb 043f d0b5 95be
00000130: 52b9 c43d 3e42 0f3e 0456 1c3f ba3a a73e
00000140: 3d8e 163f b121 c23e 0f0a 78bf 81ac 843e
00000150: 578c 9e3d 3fd5 b53e c5e9 0d3e 7113 873e
00000160: 1884 eebe 0932 debe 83ae 943f ff2c 5bbe
00000170: 7c83 3bbf 0890 60bd 3dc3 6e3f a0ed d23d
00000180: e875 db3e 5f19 62be e9df 65be 1362 443e
00000190: a5cf fcbe d58e 0fbd f89e 4abe 4640 a63c
000001a0: 0620 293e 8880 55be 425f 0c3f f639 f7be
000001b0: 2649 bcbe 8a00 bf3d 68f4 e43d 951f e33e
000001c0: a727 83be 2dd3 24bf c965 01bf 825a b73c
000001d0: 61fe ebbd 78b9 c83c 3db2 803e add9 85be
000001e0: 5d2e af3e 4245 003f 3470 c0bd cf80 b5be
000001f0: 47a6 403e 670d 313f 27be 4dbe 4498 a23e
00000200: 6e29 2c3f 511c 983e 9715 cbbe 8380 e5be
00000210: 9369 eebe 0a78 0a3f 31ec 96bd cbb5 39be
00000220: e6c3 c83e 6128 38bf a307 8abe 4244 833f
00000230: f3f1 6c3f cb2b c23e b48b 9d3d 122a e4be
00000240: 847f 42bf 5e01 d0ba 147b 513e d774 8abb
00000250: ef1d 15be e7a9 15bf c46f e8bd ca59 813e
00000260: c36a 21be 9a4b f13d de41 253f 83da 5fbf
00000270: d716 2ebf 1c26 37be dd15 873e 8fb4 c3be
00000280: 9907 b6bd ae25 f23e d005 f13c 9c71 263e
00000290: d437 5dbe 748d 30be 3e0c d8bd 24de 3ebd
000002a0: a7ea e2be 0941 83be a439 213f 8de4 643f
000002b0: ab6d 383d 485a 063e 1ac4 4f3e ab0f 7a3e
000002c0: 9abb 22bd 59b4 993f 55f3 db3e b26e 86be
000002d0: 7944 b63d e45a f63e 3ac0 35bf 61f4 3fbe
000002e0: 0d8d 163e 97fe 883e 84ce 8f3e 7951 9bbe
000002f0: 1f36 863e be81 17bc 72d7 e03e 3442 8a3c
00000300: 8816 a13e 9242 b6be 773f 9f3e 7b99 7cbf
00000310: e19b 6dbe 9b03 2abd 0c32 cbbd 9d5a 9b3d
00000320: 0f42 1abf 0e81 07bf 0ffc da3e 57c7 263f
00000330: 7807 a43d 3f58 09be c112 f8be d368 b3bd
00000340: c19f ddbd ac5f cb3e 5b1d 063e 1863 f7be
00000350: 2348 2f3f 9be3 72bd 0fed 76bd 1b3a 36be
00000360: ea4c 793d ebac 34be 3218 883d ab91 14be
00000370: 60c9 fb3d 1480 7dbf a1d6 b3be 4124 363f
00000380: bede 273f b5d4 153f cbdb 0f3f 6d3f 0b3e
00000390: c576 8dbd c513 59be 81f5 823d 9456 90be
000003a0: 2fba 913f a6ed 6fbe 9812 d03d 2c16 ebbe
000003b0: d89e a33d 84f3 4bbf a9ac e43d 314d d53e
000003c0: 545e 2bbf 3716 91be 09a8 b1be ab7e 1ebf
000003d0: 0826 f5bc 68f1 873d f1e0 22bf abc2 243f
000003e0: 53f3 dd3d 4ce8 21bf cb1f 723d c1fb 54be
000003f0: c472 003f cd00 93ba 30a2 d3be ceff 853f

dense1.dense.bias f4 [96]
0.22220233 0.30295017 0.22423092 0.24674936 0.159916 0.1915452 0.2113467 0.22700582
0.107941225 0.1801465 0.336951 0.25947908 0.22331262 0.2021199 0.054144654 0.14792374
1.2794634 0.16881822 0.23351449 0.01387962 0.1274201 0.29546908 0.27284053 0.2523588
0.11531727 0.18176015 0.15900387 0.22379108 0.3440036 0.30244926 0.17126435 0.28456655
0.09080613 0.23707294 0.17384811 0.2931421 0.18476903 0.15834513 0.19616984 0.11461261
0.2963813 0.3354602 0.24829037 0.2681978 0.25302026 0.22268088 0.27415037 0.15956287
0.13703461 0.22013628 0.16337018 -0.08972025 0.9201743 0.19387755 0.057345573 0.19321494
0.18906887 0.14447537 0.18410015 0.26761195 0.1851723 0.12749222 0.17243405 0.18993862
0.15562905 0.24503173 0.13959844 0.2031644 0.24778761 0.108222306 0.18927006 0.10530252
0.0051687155 0.24686405 0.20963211 0.106589876 0.15430202 0.1160287 0.27835956 0.17343093
0.07924269 0.19564518 0.16881272 0.024470014 0.1991909 0.15712446 0.2144594 0.35106283
0.16298258 0.109305464 0.26243508 0.25568363 0.30370617 0.14847815 0.11657635 0.14618368
00000000: 0289 633e 491c 9b3e ca9c 653e ddab 7c3e
00000010: 05c1 233e 6d24 443e 456b 583e 3774 683e
00000020: 4a10 dd3d 5378 383e d784 ac3e 71da 843e
00000030: 10ac 643e 85f8 4e3e c9c6 5d3d 5279 173e
00000040: 75c5 a33f afde 2c3e 6c1e 6f3e 5867 633c
00000050: 6a7a 023e b947 973e c1b1 8b3e 2c35 813e
00000060: 762b ec3d 551f 3a3e e9d1 223e 7d29 653e
00000070: 3d21 b03e a1da 9a3e ec5f 2f3e b5b2 913e
00000080: 90f8 b93d 40c3 723e 3d05 323e b916 963e
00000090: 1834 3d3e 3a25 223e bfe0 483e 04ba ea3d
000000a0: 4abf 973e 70c1 ab3e d53f 7e3e 3951 893e
000000b0: df8b 813e 7506 643e 705d 8c3e 7364 233e
000000c0: cd52 0c3e 686b 613e 834a 273e 40bf b7bd
000000d0: 8b90 6b3f d687 463e 31e3 6a3d 23da 453e
000000e0: 459b 413e 5af1 133e c084 3c3e 6f04 893e
000000f0: cf9d 3d3e 528d 023e 8d92 303e 457f 423e
00000100: 395d 1f3e 99e9 7a3e e5f2 0e3e 540a 503e
00000110: 09bc 7d3e a8a3 dd3d 03d0 413e d9a8 d73d
00000120: 545e a93b eec9 7c3e cda9 563e cb4b da3d
00000130: 5901 1e3e 74a0 ed3d 2585 8e3e e197 313e
00000140: fe49 a23d 3657 483e 3edd 2c3e 5775 c83c
00000150: b3f8 4b3e 3ce5 203e 3f9b 5b3e 82be b33e
00000160: e8e4 263e 8bdb df3d e45d 863e f7e8 823e
00000170: 607f 9b3e a80a 183e 95bf ee3d 2db1 153e

dense1.batch_norm1.weight f4 [96]
0.72732437 0.9828292 1.2735184 0.99652547 0.87453216 1.0162656 1.1288236 1.0028403
0.8902066 0.99469036 1.0630803 1.2168255 0.8669437 0.8745434 0.6284481 0.8182482
1.2132736 0.91314375 1.2228527 0.32652003 0.9806374 0.9844991 1.1270051 1.1002283
0.9456736 0.91697085 1.0011001 1.0511382 1.0602437 1.0903242 1.0550666 0.87850785
0.49056706 1.0446663 1.0817599 1.0974951 0.7621383 1.0525143 0.9647268 0.7603306
1.0707891 1.027915 1.1234657 0.9783968 1.0983207 1.0754477 1.1649294 0.8700766
1.0397834 0.99673814 0.9795873 0.78651214 1.1121737 1.0993799 0.9416789 1.1329575
1.0300368 0.91401213 0.8821733 1.0741471 0.8953449 0.97857594 0.9365297 0.996232
0.96837497 1.0470849 0.82684284 0.9410324 1.2008258 0.89046156 1.069284 0.9527861
0.67400163 0.9668498 1.0709234 1.0296577 0.99724305 0.87341404 1.0526127 1.0586684
0.9065559 0.8806639 0.9372689 0.76456344 0.8436306 0.85422385 1.1175426 1.141225
0.93194324 0.8279281 1.0273042 1.0627878 1.1455024 1.1189052 0.8804094 0.78340966
00000000: ee31 3a3f b29a 7b3f a702 a33f 4b1c 7f3f
00000010: 57e1 5f3f fe14 823f 4b7d 903f 125d 803f
00000020: 94e4 633f 07a4 7e3f 0413 883f f0c0 9b3f
00000030: 06f0 5d3f 14e2 5f3f fae1 203f b778 513f
00000040: 8d4c 9b3f cac3 693f 7086 9c3f a22d a73e
00000050: 0d0b 7b3f 2208 7c3f b441 903f 48d4 8c3f
00000060: aa17 723f 9abe 6a3f 0c24 803f b28b 863f
00000070: 11b6 873f be8f 8b3f 6c0c 873f e4e5 603f
00000080: 9b2b fb3e a0b7 853f 1c77 8a3f b87a 8c3f
00000090: 7f1b 433f cab8 863f 56f8 763f 07a5 423f
000000a0: 9e0f 893f b892 833f b9cd 8f3f 3678 7a3f
000000b0: c695 8c3f 45a8 893f 681c 953f 57bd 5e3f
000000c0: 9f17 853f 3b2a 7f3f 3cc6 7a3f dc58 493f
000000d0: b55b 8e3f 7bb8 8c3f de11 713f c004 913f
000000e0: 3fd8 833f b3fc 693f 1cd6 613f a77d 893f
000000f0: 5335 653f f483 7a3f 69c0 6f3f 0f09 7f3f
00000100: 6ce7 773f e106 863f f9ab 533f 80e7 703f
00000110: a9b4 993f 4af5 633f 4cde 883f cae9 733f
00000120: 5f8b 2c3f 7883 773f 0514 893f d3cb 833f
00000130: 524b 7f3f 1098 5f3f 03bc 863f 7282 873f
00000140: 0c14 683f 3073 613f dbf0 6f3f 6eba 433f
00000150: 2df8 573f 6aae 5a3f a30b 8f3f a913 923f
00000160: d593 6e3f 19f3 533f b47e 833f 6e09 883f
00000170: d39f 923f 4938 8f3f 8362 613f 898d 483f

dense1.batch_norm1.bias f4 [96]
-0.28238997 -0.6939102 -0.8968707 -0.73200417 -0.58581746 -0.66358 -0.69101524 -0.69197327
-0.4922665 -0.6561817 -0.77681065 -0.906991 -0.588095 -0.60014975 -0.33030167 -0.3718435
-0.07848382 -0.49168926 -0.8897073 -0.027660286 -0.6430013 -0.5724945 -0.7890503 -0.9234723
-0.6623994 -0.66316223 -0.75435114 -0.61164504 -0.7108144 -0.7987691 -0.7954814 -0.55389285
-0.08136532 -0.67899084 -0.739302 -0.7192176 -0.3395888 -0.6871025 -0.6094932 -0.40463072
-0.6895547 -0.674263 -0.6738902 -0.6539805 -0.7278561 -0.7855808 -0.7691696 -0.5601774
-0.72025824 -0.63980776 -0.69652224 -0.91668814 -2.167177 -0.72909063 -0.6774036 -0.7385137
-0.71015775 -0.70425546 -0.5010765 -0.7496281 -0.50117046 -0.7279281 -0.6860752 -0.67491347
-0.5759479 -0.702205 -0.36435178 -0.5999334 -0.88228023 -0.4606195 -0.69378465 -0.5025116
-0.22384928 -0.5673204 -0.7404737 -0.7802339 -0.7128586 -0.4938015 -0.76759756 -0.7348985
-0.7279772 -0.52533567 -0.64188474 -0.43880865 -0.5415466 -0.59645754 -0.76346827 -0.7433895
-0.4650383 -0.5744436 -0.72274995 -0.72076195 -0.80912524 -0.6816252 -0.39238244 -0.33150953
00000000: 6b95 90be 19a4 31bf 5199 65bf a064 3bbf
00000010: 22f8 15bf 61e0 29bf 60e6 30bf 2925 31bf
00000020: 5b0a fcbe 86fb 27bf 10dd 46bf 9030 68bf
00000030: 658d 16bf 6aa3 19bf 4d1d a9be 4562 bebe
00000040: 20bc a0bd b2be fbbe dcc3 63bf d397 e2bc
00000050: bc9b 24bf 008f 12bf 33ff 49bf ae68 6cbf
00000060: 0293 29bf 00c5 29bf 281d 41bf c594 1cbf
00000070: eff7 35bf 227c 4cbf aba4 4bbf eccb 0dbf
00000080: dca2 a6bd 58d2 2dbf e542 3dbf a51e 38bf
00000090: 95de adbe f3e5 2fbf bf07 1cbf c22b cfbe
000000a0: a886 30bf 809c 2cbf 1184 2cbf 446b 27bf
000000b0: c754 3abf d31b 49bf 4de8 44bf c967 0fbf
000000c0: d862 38bf 71ca 23bf 484f 32bf 13ac 6abf
000000d0: 07b3 0ac0 afa5 3abf 536a 2dbf 3c0f 3dbf
000000e0: e6cc 35bf 164a 34bf 8d46 00bf a1e7 3fbf
000000f0: b54c 00bf 7f59 3abf a0a2 2fbf 21c7 2cbf
00000100: 5271 13bf b5c3 33bf 518c babe 3c95 19bf
00000110: 1edd 61bf 52d6 ebbe df9b 31bf 9aa4 00bf
00000120: bf38 65be e93b 11bf af8f 3dbf 69bd 47bf
00000130: e77d 36bf 8dd3 fcbe 4681 44bf 4f22 3cbf
00000140: b75c 3abf 667c 06bf 8f52 24bf 87ab e0be
00000150: cca2 0abf 71b1 18bf a872 43bf c64e 3ebf
00000160: 8019 eebe bc0e 13bf 2406 39bf db83 38bf
00000170: d522 4fbf fd7e 2ebf 5ae6 c8be 9ebb a9be

dense1.batch_norm1.running_mean f4 [96]
-1.6369643 -2.8980682 -5.37111 -5.1565986 -5.526515 -5.830687 -5.4654417 -6.2994175
-5.1863084 -3.8190835 -6.279942 -5.1992383 -4.554884 -5.1321464 -6.1131186 -4.946871
5.4203057 -5.31442 -4.3313956 -0.9341021 -3.4588645 -4.7997065 -4.4683414 -7.074875
-4.510406 -4.6182866 -5.0042224 -3.83862 -3.7498965 -6.66335 -5.275301 -4.114718
-5.112715 -6.8292336 -5.9664493 -6.925026 -5.800111 -3.764429 -5.7544937 -4.348786
-3.5210526 -2.898012 -4.8788767 -4.6461644 -3.3539703 -7.357156 -4.838352 -2.9846544
-5.0475135 -4.482687 -5.642758 -1.9195297 5.7130547 -5.108324 -4.840459 -5.2116127
-5.2810183 -4.9606476 -5.2409306 -3.566269 -3.5655723 -4.949792 -4.315123 -4.5573363
-3.3053455 -4.752727 -5.0117726 -3.7381814 -4.9671793 -1.7309431 -4.342612 -6.213597
-12.696997 -4.410256 -7.296217 -3.0134017 -4.793967 -6.0107827 -5.2673492 -5.297682
-7.0927467 -2.365792 -4.618005 -6.326489 -5.1408525 -5.253143 -5.1581883 -4.3266134
-6.9474807 -3.2987816 -4.855318 -4.9975877 -5.0604634 -5.5026793 -7.940532 -1.8769848
00000000: 0c88 d1bf f379 39c0 22e0 abc0 db02 a5c0
00000010: 36d9 b0c0 fd94 bac0 e6e4 aec0 d494 c9c0
00000020: 3df6 a5c0 dd6b 74c0 49f5 c8c0 2960 a6c0
00000030: 9cc1 91c0 8b3a a4c0 ab9e c3c0 c44c 9ec0
00000040: 2573 ad40 bb0f aac0 cb9a 8ac0 5121 6fbf
00000050: 095e 5dc0 3297 99c0 a7fc 8ec0 6065 e2c0
00000060: 3f55 90c0 01c9 93c0 9722 a0c0 f3ab 75c0
00000070: 4efe 6fc0 2a3a d5c0 44cf a8c0 c5ab 83c0
00000080: 5c9b a3c0 1589 dac0 27ed bec0 d099 ddc0
00000090: 829a b9c0 68ec 70c0 d024 b8c0 4129 8bc0
000000a0: ed58 61c0 0779 39c0 c21f 9cc0 61ad 94c0
000000b0: 73a7 56c0 d26d ebc0 c8d3 9ac0 9404 3fc0
000000c0: 3b85 a1c0 2c72 8fc0 7991 b4c0 26b3 f5bf
000000d0: 58d1 b640 6477 a3c0 0ae5 9ac0 88c5 a6c0
000000e0: 1afe a8c0 a0bd 9ec0 b4b5 a7c0 c03d 64c0
000000f0: 5632 64c0 b264 9ec0 7d15 8ac0 b3d5 91c0
00000100: c88a 53c0 5716 98c0 7160 a0c0 5d3e 6fc0
00000110: 22f3 9ec0 8b8f ddbf adf6 8ac0 c9d5 c6c0
00000120: e626 4bc1 d120 8dc0 9c7a e9c0 93db 40c0
00000130: 2d68 99c0 5558 c0c0 208e a8c0 9c86 a9c0
00000140: c8f7 e2c0 2369 17c0 b2c6 93c0 9972 cac0
00000150: dd81 a4c0 bf19 a8c0 e10f a5c0 9e73 8ac0
00000160: c351 dec0 3d1f 53c0 c45e 9bc0 3dec 9fc0
00000170: 51ef a1c0 f315 b0c0 d718 fec0 0a41 f0bf

dense1.batch_norm1.running_var f4 [96]
9.547611 10.04753 15.89713 12.13678 13.714693 14.275807 19.64314 17.564556
17.540306 15.167318 16.095455 15.603263 13.436919 14.315255 38.30829 20.933008
9.808742 18.537834 15.435543 6.8864274 13.03471 20.869244 15.937202 19.91817
16.606602 15.0725765 17.65646 14.655143 15.169872 18.318571 19.095194 12.523762
17.419506 18.65356 15.688467 13.746367 22.399702 16.203234 16.352713 13.027198
8.705621 8.977017 18.704287 12.428824 15.701424 19.03682 16.682749 9.585486
17.970827 13.994662 15.22519 3.4962518 10.377683 16.417122 14.162695 17.012465
17.479107 10.924279 16.164297 10.482914 15.553621 13.275971 10.050987 14.556243
13.229395 13.245287 15.719945 15.798224 15.281275 14.403143 16.001968 19.609316
90.883255 16.954325 22.63179 14.619181 14.559336 22.167772 13.658042 12.902296
19.301043 11.466086 15.204831 24.97092 12.842615 16.85302 15.44342 17.863655
26.867443 12.626598 15.709956 12.503176 15.113214 21.140907 26.005001 12.880693
00000000: 04c3 1841 afc2 2041 a55a 7e41 4030 4241
00000010: 626f 5b41 b569 6441 2725 9d41 3684 8c41
00000020: 8c52 8c41 56ad 7241 7ec3 8041 f7a6 7941
00000030: 9ffd 5641 490b 6541 b03b 1942 cd76 a741
00000040: 9bf0 1c41 7c4d 9441 fcf7 7641 9d5d dc40
00000050: 2c8e 5041 36f4 a641 c8fe 7e41 6a58 9f41
00000060: 52da 8441 4629 7141 6e40 8d41 777b 6a41
00000070: ccb7 7241 6f8c 9241 f5c2 9841 5461 4841
00000080: 265b 8b41 7e3a 9541 f603 7b41 1ff1 5b41
00000090: 9732 b341 39a0 8141 5bd2 8241 676f 5041
000000a0: 394a 0b41 dda1 0f41 61a2 9541 77dc 4641
000000b0: 0839 7b41 684b 9841 4576 8541 275e 1941
000000c0: 41c4 8f41 23ea 5f41 619a 7341 97c2 5f40
000000d0: fd0a 2641 4456 8341 669a 6241 8719 8841
000000e0: 36d5 8b41 d9c9 2e41 7b50 8141 04ba 2741
000000f0: a2db 7841 616a 5441 d8d0 2041 5fe6 6841
00000100: 9aab 5341 b2ec 5341 e584 7b41 87c5 7c41
00000110: 1a80 7441 4673 6641 0804 8041 e1df 9c41
00000120: 3ac4 b542 75a2 8741 e80d b541 2ae8 6941
00000130: 0af3 6841 9957 b141 5787 5a41 ce6f 4e41
00000140: 8968 9a41 1775 3741 fd46 7341 72c4 c741
00000150: 5a7b 4d41 fcd2 8641 4018 7741 c4e8 8e41
00000160: 86f0 d641 8c06 4a41 fb5b 7b41 020d 4841
00000170: b9cf 7141 9420 a941 3e0a d041 5217 4e41

dense2.dense.weight f4 [15, 96]
-0.31826806 -0.0829123 0.4375764 0.1693262 -0.7266609 -0.5864093 0.22900301 -0.06400108
-0.17032138 0.25231132 -0.27866083 -0.46348083 -0.6030842 0.1501686 0.25263318 0.39911467
-0.017959403 -0.46912184 0.32951477 -0.06980509 0.051893022 -0.54761326 0.12168275 -0.6023238
-1.1686366 0.25287485 -0.26841542 -0.65319574 0.018692156 -0.5787194 -0.81441295 -0.53738123
-0.0505918 -0.113957286 -0.10495968 -0.0684877 0.1879056 -0.5478524 -0.68867546 0.2148508
0.25326365 -0.19864401 -0.65368026 -0.41657138 -0.66927624 -0.48392746 -0.31910652 0.27151796
-0.776109 -0.3822545 0.3613232 -0.33819187 -0.0015953762 -0.74951446 -0.74061614 -0.80246645
0.18052872 0.30920246 0.003005005 -0.57583404 -0.012230578 0.21543635 -0.3305919 -0.40897688
0.05872508 0.3683777 -0.33693707 -0.2725937 0.2558281 -0.30573213 0.24207538 -0.47595385
0.2160121 0.08018924 -0.1545465 -0.24301375 -0.47670734 0.28782725 0.03500267 -0.40064812
-1.1903038 -0.49257457 0.3029476 0.18178654 -0.12321975 -1.0484074 -0.24220537 0.0011210014
-0.13351698 -0.81653094 0.06682345 -0.72934616 -0.05388153 -0.3293115 -0.5748236 -0.80652195
0.10508235 -0.24587427 0.20044652 0.006719179 -0.17307939 -0.42630273 -0.23005316 -0.15104142
-0.6217556 -0.8793779 -0.096868664 -0.5655032 -0.046476968 -0.17964864 0.42159876 -0.5097094
-0.003361754 -0.50017023 -0.37146717 -0.09433747 -0.34367672 -0.15128465 0.022428853 -0.40935153
-0.083711006 0.08956219 -0.5323319 -0.31873772 -0.15065366 -0.6474679 -0.38834685 -0.20336024
-0.07880825 -0.30722034 0.04393402 -0.25450447 0.31427845 0.3581347 0.28992403 -0.6660372
-0.4018811 -0.2246849 -0.66415536 -0.48691753 0.2931768 -0.48181373 -0.06059988 0.20616867
-0.58849096 -0.5873379 -0.04782529 -0.29211298 -0.024345316 -1.0615952 -0.90188265 0.2089945
-0.35399288 -0.19269754 -0.271388 0.16754436 -0.38512254 -0.08347864 0.35575703 0.08059773
0.17745398 -0.45654005 -0.27574566 -0.4493998 -0.05800541 -0.45674112 -0.4502992 0.32181752
0.2854177 0.24436659 -0.026846899 0.18153428 0.092898116 -0.712969 0.11669821 0.2288891
0.33185583 -0.18603027 -0.77830434 -1.0367696 -0.32130867 -0.8866342 0.2674349 -0.26271665
-0.03601375 0.27197328 0.3268828 0.33129084 0.31538928 -0.26687744 -0.10090193 0.04747518
-0.18519649 -0.010474701 -0.36567888 -0.25716978 0.22909252 0.18583944 0.21301319 0.026594473
0.26942977 -0.6098695 -0.031681594 0.0037887627 0.18565683 -0.55881876 0.2332738 -0.41262215
-0.030649196 -0.27131462 0.3218504 -0.21814853 -0.24468948 -0.27097818 -0.35590765 -0.49250644
0.3123518 -0.19867177 0.37633124 -0.09739409 0.044736333 -0.5021285 -0.54731244 0.15723753
-0.12133986 -0.06452943 -0.7137524 0.29391065 -0.78907615 -0.45357132 -0.7237425 -0.7422059
-0.28555965 -0.2172469 -0.047383208 -0.2057902 0.2631137 0.32580748 -0.27266806 0.08990616
-0.12378104 0.1142764 -0.35740513 -0.6744361 -0.0180031 -0.57606643 -0.86111915 0.40490824
0.26914355 -0.5082619 -0.2962202 -0.40662214 -0.40030152 0.35137543 0.2515349 0.41334605
00000000: 08f4 a2be edcd a9bd 040a e03e d963 2d3e
00000010: 7306 3abf eb1e 16bf c47f 6a3e 0013 83bd
00000020: ba68 2ebe f32e 813e a2ac 8ebe 5c4d edbe
00000030: ba63 1abf ccc5 193e 2359 813e c258 cc3e
00000040: 991f 93bc bd30 f0be 29b6 a83e f9f5 8ebd
00000050: c78d 543d 6230 0cbf ce34 f93d e431 1abf
00000060: e295 95bf d078 813e bf6d 89be d637 27bf
00000070: 4b20 993c f426 14bf 5e7d 50bf d191 09bf
00000080: 5939 4fbd 7062 e9bd 1af5 d6bd 4743 8cbd
00000090: 536a 403e 0e40 0cbf 094d 30bf d901 5c3e
000000a0: c6ab 813e 5669 4bbe 9757 27bf d848 d5be
000000b0: b055 2bbf 57c5 f7be ee61 a3be 6704 8b3e
000000c0: 14af 46bf ddb6 c3be 5bff b83e 7c27 adbe
000000d0: f11b d1ba 2ee0 3fbf 0599 3dbf 716e 4dbf
000000e0: 85dc 383e c94f 9e3e 9eef 443b dc69 13bf
000000f0: c362 48bc 599b 5c3e 5743 a9be 6b65 d1be
00000100: b689 703d 009c bc3e 0483 acbe 6791 8bbe
00000110: e7fb 823e ec88 9cbe 9ce2 773e 39b0 f3be
00000120: 4732 5d3e 423a a43d 7041 1ebe 99d8 78be
00000130: fc12 f4be 185e 933e f65e 0f3d c021 cdbe
00000140: e05b 98bf bc32 fcbe f31b 9b3e 4026 3a3e
00000150: a35a fcbd 3732 86bf af04 78be 91ee 923a
00000160: adb8 08be 2c08 51bf bcda 883d 6eb6 3abf
00000170: e1b2 5cbd 849b a8be a427 13bf 3978 4ebf
00000180: 6a35 d73d 77c6 7bbe da41 4d3e 8f2c dc3b
00000190: b93b 31be 5a44 dabe 0e93 6bbe 9aaa 1abe
000001a0: 602b 1fbf e91e 61bf 1463 c6bd d1c4 10bf
000001b0: a25e 3ebd d0f5 37be cbdb d73e 517c 02bf
000001c0: df50 5cbb 280b 00bf f230 bebe 0134 c1bd
000001d0: 65f6 afbe 5dea 1abe b7bc b73c 8696 d1be
000001e0: ad70 abbd 626c b73d e746 08bf 9731 a3be
000001f0: f444 1abe 75c0 25bf 66d5 c6be ab3d 50be
00000200: 3866 a1bd fc4b 9dbe 29f4 333d 694e 82be
00000210: 1be9 a03e 6e5d b73e ec70 943e 6a81 2abf
00000220: 5cc3 cdbe cc13 66be 1606 2abf 414d f9be
00000230: 451b 963e 4ab0 f6be 9437 78bd e11d 533e
00000240: 58a7 16bf c75b 16bf 74e4 43bd d58f 95be
00000250: d46f c7bc 5ae2 87bf c8e1 66bf a702 563e
00000260: 8e3e b5be 8152 45be 5ef3 8abe c090 2b3e
00000270: c82e c5be d9f6 aabd c925 b63e 6c10 a53d
00000280: 7fb6 353e 9ebf e9be 892e 8dbe bb17 e6be
00000290: 1597 6dbd f9d9 e9be 9e8d e6be 44c5 a43e
000002a0: 4522 923e 3c3b 7a3e 07ee dbbc 1fe4 393e
000002b0: 5e41 be3d 2385 36bf 79ff ee3d e761 6a3e
000002c0: 02e9 a93e b87e 3ebe f43e 47bf deb4 84bf
000002d0: 9282 a4be 75fa 62bf 3aed 883e cc82 86be
000002e0: 2783 13bd 1540 8b3e 2f5d a73e f49e a93e
000002f0: b47a a13e 29a4 88be aca5 cebd 5675 423d
00000300: 26a4 3dbe 159e 2bbc 433a bbbe c2ab 83be
00000310: 3b97 6a3e b24c 3e3e 2120 5a3e a7dc d93c
00000320: b3f2 893e 6820 1cbf 8fc4 01bd e44c 783b
00000330: d31c 3e3e bf0e 0fbf 54df 6e3e 3643 d3be
00000340: 0614 fbbc c0e9 8abe 93c9 a43e 5462 5fbe
00000350: e18f 7abe a7bd 8abe 8739 b6be ce29 fcbe
00000360: 93ec 9f3e 9d70 4bbe 7dae c03e 8d76 c7bd
00000370: 723d 373d 7e8b 00bf ab1c 0cbf e002 213e
00000380: 0881 f8bd 0128 84bd 7ab8 36bf 757b 963e
00000390: e500 4abf 803a e8be 3047 39bf 3501 3ebf
000003a0: e034 92be f975 5ebe e514 42bd abba 52be
000003b0: d7b6 863e 3dd0 a63e 269b 8bbe b920 b83d
000003c0: ea80 fdbd bf09 ea3d cefd b6be d8a7 2cbf
000003d0: 3d7b 93bc 1779 13bf 4e72 5cbf 2250 cf3e
000003e0: 2fcd 893e 741d 02bf 2daa 97be c730 d0be
000003f0: 52f4 ccbe 7be7 b33e 2fc9 803e 18a2 d33e

dense2.dense.bias f4 [15]
0.6413392 0.67496496 0.5556357 3.0176353 0.5758451 0.5795904 4.6922283 0.6155576
0.70678693 0.63291645 0.689886 0.7305504 0.6957611 0.06216557 -13.740244
00000000: ce2e 243f 81ca 2c3f 243e 0e3f f020 4140
00000010: 966a 133f 0960 143f bc26 9640 2f95 1d3f
00000020: fdef 343f d006 223f 5e9c 303f 5a05 3b3f
00000030: 661d 323f 53a1 7e3d 0ad8 5bc1

dense2.batch_norm1.weight f4 [15]
6.5098505 7.11614 5.8251944 9.0040045 5.9509954 5.778452 10.1376505 6.1863327
7.0150094 6.1875486 6.728544 7.195067 6.5785956 0.42933148 18.043455
00000000: b250 d040 6bb7 e340 fe67 ba40 6710 1041
00000010: 8e6e be40 14e9 b840 d133 2241 70f6 c540
00000020: f57a e040 6600 c640 3c50 d740 fd3d e640
00000030: db83 d240 56d1 db3e ff58 9041

dense2.batch_norm1.bias f4 [15]
-4.4411507 -4.782299 -4.3371034 -4.2141385 -3.9706242 -3.817566 -4.8962593 -4.449952
-4.370309 -3.8843396 -4.24368 -4.395856 -4.4486427 -0.71171224 5.49448
00000000: e81d 8ec0 9808 99c0 8dc9 8ac0 39da 86c0
00000010: b51e 7ec0 0053 74c0 28ae 9cc0 0266 8ec0
00000020: 92d9 8bc0 0599 78c0 3acc 87c0 daaa 8cc0
00000030: 485b 8ec0 c632 36bf c8d2 af40

dense2.batch_norm1.running_mean f4 [15]
0.27529013 0.35072798 0.12534574 2.6323416 0.19651443 0.19001366 4.1647763 0.18486978
0.34429023 0.2790208 0.33170447 0.38828748 0.31739047 -0.122282974 -13.968883
00000000: d4f2 8c3e 9e92 b33e a25a 003e 4978 2840
00000010: 143b 493e f192 423e d945 8540 814e 3d3e
00000020: cf46 b03e d0db 8e3e 2bd5 a93e 9ecd c63e
00000030: 0181 a23e 7f6f fabd 8b80 5fc1

dense2.batch_norm1.running_var f4 [15]
0.5929333 0.49574703 0.49249387 1.1259433 0.5071738 0.48393518 1.7863413 0.5976115
0.5876261 0.49530816 0.5127466 0.56912404 0.5675392 0.16780981 1.4174503
00000000: 7aca 173f 8ed2 fd3e 2828 fc3e e91e 903f
00000010: 24d6 013f 5ac6 f73e d5a6 e43f 11fd 183f
00000020: aa6e 163f 0899 fd3e 5c43 033f 1db2 113f
00000030: 404a 113f 56d6 2b3e 036f b53f
