classification/model_rnafm/13_final/300Epoch/rna_type_checkpoint_fold_1.pt (torch, 252002 bytes, 24 tensors)

layer1.conv1.weight f4 [30, 30, 5]
-2.0634139 0.46003655 2.3438056 0.38845888 -0.71265274 0.634739 0.29389903 -0.11701364
0.16895533 -0.053997617 0.081396945 0.6051456 -0.38081565 -0.4002734 0.3066488 -0.25616667
-0.5149119 -0.718817 0.534864 0.16277699 0.2581744 -0.68248326 -0.36634785 -0.35163084
1.0473899 0.61110777 -0.18482032 -1.1866589 -0.056622557 0.49916512 -0.23965885 -0.38653666
-0.11683661 -0.56658864 -0.6128182 -0.24446632 -0.41131595 0.2122773 -0.17035459 -0.43173638
-0.4288346 -0.17728442 -0.034780428 0.0040110513 -0.18653949 -0.19382708 0.27866286 0.21568096
-0.21821143 0.1334562 0.38477352 0.06736316 0.06011824 -0.15873748 0.28893366 -0.15946227
-0.2519768 -0.52096367 0.3141492 0.579089 -0.09394203 0.23401976 0.2173788 0.25866655
0.111376934 0.0753843 -0.2357622 0.14895655 -0.056975693 -0.20045307 -0.033046972 -0.106030904
-0.30040205 -0.040612508 0.058830705 -0.18237384 0.09744752 -0.3087367 -0.17650089 -0.06868782
0.0028307678 0.40221217 0.10735836 0.3541975 0.12472527 -0.23992935 0.16523793 -0.15493594
0.34285805 -0.1441021 -0.1298929 -0.24326356 -0.27258956 0.053361155 -0.35603377 0.03995831
-0.6741205 -0.12343706 -0.12465346 0.39424732 -0.044978667 -0.48619804 -0.049422614 -0.38559908
0.053955633 -0.086170994 -0.23600422 0.1410734 -0.18991542 -0.2562663 0.027077788 -0.42364547
0.0719414 -0.1877784 0.051278245 -0.050136577 -0.42751747 0.24073741 0.034902807 -0.047332812
-0.11064908 -0.22608139 -0.015561941 -0.08138188 0.23207189 0.23417692 -0.0435491 0.0658852
-0.359512 -0.38714156 0.16344084 -0.21379022 -0.116769835 -0.30716804 -0.279805 -0.49190736
-0.17516722 0.47149056 -0.11431648 -0.092438355 -0.24525736 0.054341666 0.4589289 -0.06796726
-0.05305127 0.40217128 0.5064652 0.13840353 -0.2867427 0.10415673 -0.18449475 1.9834995
0.0845845 0.6216557 0.33423418 -0.0714153 -0.013653207 0.76490146 0.15749629 0.0037134169
-0.7848773 -0.69009763 -0.18625791 0.047657546 -0.40022436 -0.7248489 -0.16803774 -0.010759335
-0.4369561 -0.7626837 -0.39452153 -0.5248905 0.3557743 -0.51868093 0.69237214 -0.39073646
0.3715918 0.18697302 1.3209194 0.35691974 -0.18176639 -0.08764928 0.17827164 0.18969081
0.5274607 -0.20480525 0.05382985 0.07800935 -0.2042596 0.038451668 -0.07583875 0.252486
0.174407 -0.6655455 0.31779584 0.38730764 0.29842094 -0.113249905 -0.7109045 -0.2981865
0.35188255 0.15635201 -0.060915336 -0.07951125 -0.27386376 -0.0055609457 -0.10367577 -0.5026062
0.4249745 -0.23480932 0.13603276 0.06972298 -0.6397922 -6.8250465e-06 0.21702021 0.04884817
-0.32277045 -0.6515166 -0.13988931 -0.116055526 -0.096404284 -0.27344587 0.26436192 -0.06867931
-0.44129962 0.08587123 0.31794742 0.24783519 0.35020432 -0.15801337 0.23747344 0.44677463
-0.066836245 0.7251514 -0.027266122 0.28865737 0.08896967 -0.5665747 0.40380856 0.087613165
0.11943753 0.11005177 -0.016998868 0.1015499 0.016093144 0.4828416 0.40710765 0.14712198
0.12423043 0.16932233 0.25935343 0.1307285 0.019674225 -0.012429725 0.7982161 0.010232338
00000000: f90e 04c0 e989 eb3e e900 1640 15e4 c63e
00000010: 6970 36bf 417e 223f ef79 963e d9a4 efbd
00000020: a002 2d3e 9b2c 5dbd 71b3 a63d d2ea 1a3f
00000030: 45fa c2be a3f0 ccbe 1201 9d3e 4728 83be
00000040: 44d1 03bf 6404 38bf d9ec 083f 03af 263e
00000050: 6f2f 843e 39b7 2ebf f291 bbbe f508 b4be
00000060: df10 863f 8f71 1c3f 8a41 3dbe 70e4 97bf
00000070: 0eed 67bd 9292 ff3e 2169 75be 22e8 c5be
00000080: 0848 efbd f40b 11bf a7e1 1cbf 6155 7abe
00000090: 0198 d2be 385f 593e 6f71 2ebe 8d0c ddbe
000000a0: 3590 dbbe 0c8a 35be ec75 0ebd 236f 833b
000000b0: 3504 3fbe 9b7a 46be e6ac 8e3e 78db 5c3e
000000c0: d172 5fbe bea8 083e 0901 c53e b2f5 893d
000000d0: 8b3e 763d 148c 22be 1def 933e 144a 23be
000000e0: 1a03 81be e05d 05bf 2ad8 a03e 2d3f 143f
000000f0: ae64 c0bd e0a2 6f3e 8c98 5e3e f16f 843e
00000100: 9719 e43d 1563 9a3d a56b 71be 1188 183e
00000110: 585f 69bd 9243 4dbe 435c 07bd bb26 d9bd
00000120: 4cce 99be 4d59 26bd 77f8 703d 35c0 3abe
00000130: 9192 c73d bd12 9ebe a6bc 34be 33ac 8cbd
00000140: 6784 393b c1ee cd3e b3de db3d 6059 b53e
00000150: f66f ff3d 0ab0 75be 2234 293e 87a7 1ebe
00000160: 178b af3e 808f 13be a502 05be 151a 79be
00000170: dc90 8bbe 3a91 5a3d 0f4a b6be 53ab 233d
00000180: 2993 2cbf 92cc fcbd 504a ffbd c9da c93e
00000190: 8d3b 38bd f3ee f8be 5e6f 4abd 3e6d c5be
000001a0: 9500 5d3d 6b7a b0bd 17ab 71be 8c75 103e
000001b0: 3079 42be 5635 83be 3dd2 dd3c 0fe8 d8be
000001c0: 0356 933d fb48 40be 2309 523d 035c 4dbd
000001d0: 92e3 dabe de83 763e 3ff6 0e3d 0de0 41bd
000001e0: fc9b e2bd e181 67be 83f7 7ebc 8bab a6bd
000001f0: 41a4 6d3e 13cc 6f3e 8b60 32bd d2ee 863d
00000200: f511 b8be 6b37 c6be 095d 273e d3eb 5abe
00000210: 0625 efbd 2145 9dbe 9a42 8fbe 48db fbbe
00000220: 095f 33be 3667 f13e c21e eabd 5250 bdbd
00000230: bf24 7bbe 5e95 5e3d bbf8 ea3e 6b32 8bbd
00000240: 4a4c 59bd 65e9 cd3e b4a7 013f a8b9 0d3e
00000250: f0cf 92be 2050 d53d 31ec 3cbe 50e3 fd3f
00000260: a33a ad3d d424 1f3f be20 ab3e 2f42 92bd
00000270: b3b1 5fbc 95d0 433f b546 213e cc5c 733b
00000280: b8ed 48bf 3daa 30bf 65ba 3ebe 8f34 433d
00000290: 35ea ccbe b38f 39bf 1612 2cbe ec47 30bc
000002a0: b6b8 dfbe 3d3f 43bf bafe c9be 395f 06bf
000002b0: 0d28 b63e 46c8 04bf 4d3f 313f 9c0e c8be
000002c0: 4841 be3e db75 3f3e e313 a93f 2fbe b63e
000002d0: f820 3abe 7781 b3bd d78c 363e 4f3e 423e
000002e0: aa07 073f 78b8 51be b07c 5c3d 5ec3 9f3d
000002f0: 6e29 51be 7f7f 1d3d 5951 9bbd d845 813e
00000300: c097 323e 3161 2abf 23b6 a23e 304d c63e
00000310: a1ca 983e 91ef e7bd d6fd 35bf e7ab 98be
00000320: f329 b43e be1a 203e 5c82 79bd cbd6 a2bd
00000330: df37 8cbe 9838 b6bb f653 d4bd cdaa 00bf
00000340: 4296 d93e db71 70be 2c4c 0b3e ecca 8e3d
00000350: 6cc9 23bf b402 e5b6 8c3a 5e3e 0515 483d
00000360: 2b42 a5be cbc9 26bf 253f 0fbe 85ae edbd
00000370: 9c6f c5bd 1901 8cbe 725a 873e bda7 8cbd
00000380: 06f2 e1be 41dd af3d 01ca a23e 82c8 7d3e
00000390: fb4d b33e 42ce 21be 3d2c 733e a5bf e43e
000003a0: 71e1 88bd 86a3 393f 345d dfbc e6ca 933e
000003b0: bb35 b63d 0a0b 11bf ffbf ce3e 886e b33d
000003c0: aa9b f43d d362 e13d 3641 8bbc 65f9 cf3d
000003d0: c5d5 833c 0437 f73e 6a70 d03e 25a7 163e
000003e0: 866c fe3d d562 2d3e f9c9 843e b1dd 053e
000003f0: d72b a13c 0ca6 4bbc e457 4c3f 89a5 273c

layer1.conv1.bias f4 [30]
-0.03462023 0.06852929 0.03813384 -0.23342259 0.12008152 0.21241483 0.040377367 0.09558932
0.051917117 -0.0070568924 -0.08134393 -0.020284647 -0.07311577 0.108197026 -0.03877486 -0.029760793
0.07584268 0.109208606 -0.06793103 0.25764713 -0.0011046815 -0.026234135 -0.12362831 0.08098999
-0.03903875 0.040564228 -0.017151223 0.07611659 0.010268326 0.006432556
00000000: f1cd 0dbd 1659 8c3d 3b32 1c3d 5506 6fbe
00000010: 4ded f53d 4683 593e bd62 253d 55c4 c33d
00000020: 0ba7 543d 813d e7bb a597 a6bd fd2b a6bc
00000030: b9bd 95bd 6796 dd3d 63d2 1ebd e8cc f3bc
00000040: 6853 9b3d c3a8 df3d 6d1f 8bbd 53ea 833e
00000050: f6ca 90ba f8e8 d6bc d730 fdbd 14de a53d
00000060: 19e7 1fbd ad26 263d b980 8cbc 04e3 9b3d
00000070: 7b3c 283c 31c8 d23b

layer1.bn1.weight f4 [30]
1.1343069 0.875841 0.48929328 0.9410987 0.491045 1.0013572 0.9315087 0.416101
1.0222857 0.797186 1.0967029 0.64806753 0.87892973 0.39578378 0.800096 0.57644606
0.50698775 0.63077015 0.8787004 0.80941796 0.4118539 1.1128101 0.68649745 0.79288113
0.8629945 0.56652826 0.6805727 0.67194563 0.49969685 0.7955752
00000000: f830 913f 1e37 603f a684 fa3e d8eb 703f
00000010: 406a fb3e 792c 803f 5b77 6e3f 310b d53e
00000020: 42da 823f 6214 4c3f c360 8c3f c1e7 253f
00000030: 8a01 613f 2ca4 ca3e 17d3 4c3f f891 133f
00000040: f3c9 013f 277a 213f 82f2 603f 0436 4f3f
00000050: 84de d23e 9070 8e3f 4cbe 2f3f 42fa 4a3f
00000060: 35ed 5c3f ff07 113f 033a 2e3f a104 2c3f
00000070: 44d8 ff3e d1aa 4b3f

layer1.bn1.bias f4 [30]
-0.0009711392 0.02666304 -0.11865019 0.05677829 0.06375927 0.023009717 0.06615567 -0.05889395
-0.47795567 -0.0069707423 0.055610683 -0.01927174 -0.08879626 0.0928579 0.079950064 -0.027846908
-0.08214278 -0.004609443 0.20152363 0.0096929 -0.019903244 0.08354302 0.10561731 -0.26643974
0.107986346 -0.18260978 -0.05689493 -0.046265982 -0.040898558 -0.0035591514
00000000: 0c94 7eba 736c da3c dffe f2bd 5a90 683d
00000010: 3894 823d e07e bc3c a07c 873d c83a 71bd
00000020: 9bb6 f4be d36a e4bb 07c8 633d c5df 9dbc
00000030: d0da b5bd 482c be3d dcbc a33d 331f e4bc
00000040: 793a a8bd cf0a 97bb 365c 4e3e f8ce 1e3c
00000050: 210c a3bc 9a18 ab3d e34d d83d ca6a 88be
00000060: f227 dd3d 0ffe 3abe a80a 69bd 6681 3dbd
00000070: 3f85 27bd a740 69bb

layer1.bn1.running_mean f4 [30]
-0.05031115 0.095040396 0.035119966 -0.23159662 0.11587966 0.18555097 0.03931716 0.09118233
0.06976561 -0.013539562 -0.07644676 -0.027643617 -0.06284268 0.108450174 -0.042119395 -0.03869268
0.06674758 0.10256563 -0.07694035 0.2570739 -0.009872921 -0.045535672 -0.115913585 0.09120487
-0.053131584 0.03973647 -0.021414032 0.07287757 0.007721574 0.008933968
00000000: 1013 4ebd 8aa4 c23d f4d9 0f3d aa27 6dbe
00000010: 5152 ed3d 1301 3e3e 080b 213d cdbd ba3d
00000020: 46e1 8e3d 0ad5 5dbc 1e90 9cbd de74 e2bc
00000030: aab3 80bd 201b de3d 6385 2cbd 377c 1ebd
00000040: f5b2 883d ee0d d23d e792 9dbd 319f 833e
00000050: 08c2 21bc 9d83 3abd 1a64 edbd 9ec9 ba3d
00000060: 81a0 59bd b5c2 223d 7b6c afbc d640 953d
00000070: 4205 fd3b c75f 123c

layer1.bn1.running_var f4 [30]
4.9693823 10.0290575 2.943009 4.4485755 4.1371284 7.003749 0.80948097 5.181186
4.0763273 3.6852806 1.7856296 12.6068945 2.8684752 3.4108922 5.1812534 5.7357507
3.4741294 5.2937016 4.250186 0.9415788 1.6853697 6.4051905 4.6294737 4.044916
3.1866016 2.088601 1.6409523 4.7818904 1.5726094 4.53892
00000000: 2e05 9f40 0577 2041 425a 3c40 bb5a 8e40
00000010: 5b63 8440 b61e e040 253a 4f3f 47cc a540
00000020: 4671 8240 a3db 6b40 838f e43f d7b5 4941
00000030: 1995 3740 0f4c 5a40 d4cc a540 458b b740
00000040: 2358 5e40 0166 a940 8601 8840 4f0b 713f
00000050: 32ba d73f 52f7 cc40 a624 9440 f46f 8140
00000060: 48f1 4b40 a4ab 0540 ba0a d23f 3f05 9940
00000070: 444b c93f d53e 9140

conv1.weight f4 [30, 30, 5]
-0.7202937 -0.233338 0.7683815 -0.17446074 -0.6308211 -0.025461957 -0.40906417 -0.60721064
0.35191393 -0.64673704 0.17293978 0.06592664 0.12866561 -0.6188348 -0.0979759 0.34063065
0.36607504 0.5611287 0.41494167 -0.4260158 0.0020580573 0.13475883 0.46590537 -0.4967758
-0.49122903 0.12903248 -0.43105465 -0.5470569 -0.659223 -0.5375221 -0.09299641 -0.25815642
0.9863491 -0.3928431 -0.35930386 0.31508696 -0.09207018 -0.13449219 0.27360952 -0.31284615
-0.18145046 -0.098731816 -0.10229443 -0.3102719 -0.3956663 -0.02108466 0.41645885 -0.12039447
-0.08635059 -0.51925325 0.09597707 -0.08527994 0.8790037 -0.20012988 -0.050828733 -0.27903116
-0.29469636 0.13244693 0.53089887 -0.060642675 0.7136716 0.54773086 0.07755198 0.30434763
-0.109651975 0.12542233 0.059675127 0.19556819 0.36394283 0.032853313 0.8239748 0.32725513
-0.3036237 -0.064348064 -0.07167283 -0.30919164 0.0053127706 -0.008797269 0.10393715 -0.16631597
0.46737128 0.3084778 0.39237776 0.1461868 0.2367974 -0.5581638 -0.39378554 -0.015777182
0.13248377 0.057602666 -0.58841985 -0.5272137 -0.3940714 -0.0070645814 0.28884768 -0.42394876
0.06944359 0.39834416 -0.33099625 0.6695894 0.4583455 0.0111915255 -0.4614064 -0.30005348
0.2151346 -0.033850178 -0.1994274 -0.9614282 0.07384637 -0.14766625 0.28465015 0.46881518
-0.7198546 0.09265799 -0.19298577 -0.31510422 -0.29589 -0.46893027 -0.09163343 0.15122285
0.16493908 -0.79447705 -0.09159719 0.22195226 0.136783 0.064660706 -0.18407427 0.2812903
-0.14570813 -0.21472105 0.06389223 0.62770486 -0.18960156 -0.5596146 -0.013824646 -0.17599723
0.37282866 0.2494691 0.11236929 -0.10508935 -0.05614437 -0.011219536 -0.07027083 -0.011985861
-0.08109702 -0.19398561 0.15753904 0.23446275 -0.012460232 -0.69870424 -0.73873436 -0.21785611
0.739439 -0.1391255 -0.6536436 -0.029241428 -0.39003494 -0.5913692 0.34687817 -0.6811161
0.20177405 0.0599287 0.13644461 -0.52596366 -0.14081906 0.32892567 0.37756324 0.5878696
0.4225321 -0.47950265 -0.080206186 0.13635339 0.5061806 -0.5592571 -0.44935635 0.1075955
-0.3936896 -0.527476 -0.7017369 -0.5821286 -0.05566756 -0.24745741 0.9506733 -0.39565104
-0.35632688 0.4140916 -0.047526304 -0.06538599 0.3404265 -0.3918004 -0.21386315 -0.18534541
-0.11490957 -0.42040598 -0.35207608 -0.0114911655 0.42912692 -0.05558945 -0.09898955 -0.541001
0.06989413 -0.068866216 0.88261735 -0.18649589 -0.05165861 -0.27477202 -0.3014388 0.16109997
0.47910386 -0.105841175 0.7059191 0.51507735 0.09719564 0.29101053 -0.14656892 0.096850246
0.027526557 0.16981259 0.36525312 0.05080727 0.8232719 0.30303475 -0.29463854 -0.06462677
-0.059792824 -0.21525766 0.0861531 -0.004728302 0.057262506 -0.24579589 0.54031485 0.37481648
0.41026077 0.12427101 0.21582906 -0.591259 -0.51199216 -0.02952243 0.10343167 0.12301503
-0.56036365 -0.42543095 -0.37356406 -0.015744701 0.27756828 -0.44905806 0.06277522 0.4250391
-0.35242063 0.63978523 0.44531566 0.049707524 -0.5026411 -0.23367023 0.20613085 -0.058059957
00000000: 2b65 38bf 28f0 6ebe a6b4 443f d6a5 32be
00000010: 7e7d 21bf 9895 d0bc dc70 d1be 2872 1bbf
00000020: 102e b43e 8f90 25bf 2017 313e 8c04 873d
00000030: ebc0 033e f56b 1ebf 97a7 c8bd 2467 ae3e
00000040: 306e bb3e 21a6 0f3f 3c73 d43e be1e dabe
00000050: 79e0 063b 38fe 093e 268b ee3e 6659 febe
00000060: 5f82 fbbe 1721 043e 32b3 dcbe ec0b 0cbf
00000070: d7c2 28bf 0c9b 09bf e774 bebd 142d 84be
00000080: 6081 7c3f bb22 c9be adf6 b7be 1453 a13e
00000090: 4a8f bcbd 52b8 09be 8c16 8c3e 5f2d a0be
000000a0: 26ce 39be e833 cabd be7f d1bd f5db 9ebe
000000b0: c694 cabe bdb9 acbc 183a d53e 6091 f6bd
000000c0: 94d8 b0bd c8ed 04bf a08f c43d 40a7 aebd
000000d0: 6306 613f d9ee 4cbe ca31 50bd 2cdd 8ebe
000000e0: 71e2 96be 2ba0 073e fde8 073f 7464 78bd
000000f0: 2fb3 363f 1738 0c3f 93d3 9e3d 74d3 9b3e
00000100: 3791 e0bd b66e 003e e86d 743d 0743 483e
00000110: b756 ba3e 3291 063d 03f0 523f fc8d a73e
00000120: 9174 9bbe ebc8 83bd 34c9 92bd 5e4e 9ebe
00000130: c016 ae3b 6c22 10bc 00dd d43d bc4e 2abe
00000140: 4a4b ef3e cdf0 9d3e bde5 c83e feb1 153e
00000150: 057b 723e d3e3 0ebf 429e c9be 263f 81bc
00000160: d3a9 073e c6f0 6b3d afa2 16bf 7af7 06bf
00000170: bac3 c9be 017e e7bb d8e3 933e d00f d9be
00000180: 7138 8e3d c4f3 cb3e 5778 a9be 366a 2b3f
00000190: 43ac ea3e a95c 373c 763d ecbe 9ca0 99be
000001a0: 3f4c 5c3e 7ca6 0abd b236 4cbe 2920 76bf
000001b0: c43c 973d d235 17be aabd 913e 8b08 f03e
000001c0: 6448 38bf 79c3 bd3d 109e 45be 5755 a1be
000001d0: e57e 97be a117 f0be 4faa bbbd 2ada 1a3e
000001e0: cae5 283e d962 4bbf 4f97 bbbd 7447 633e
000001f0: d810 0c3e d56c 843d f77d 3cbe 4805 903e
00000200: 8334 15be d6df 5bbe eed9 823d 44b1 203f
00000210: e926 42be e742 0fbf c580 62bc 9e38 34be
00000220: 66e3 be3e d474 7f3e df21 e63d 1639 d7bd
00000230: a4f7 65bd 25d2 37bc 27ea 8fbd 5860 44bc
00000240: 3216 a6bd 2aa4 46be ea51 213e 0117 703e
00000250: 0026 4cbc 48de 32bf b21d 3dbf ac15 5fbe
00000260: e04b 3d3f ea76 0ebe 3055 27bf b88b efbc
00000270: a9b2 c7be f963 17bf 049a b13e a05d 2ebf
00000280: db9d 4e3e cc77 753d 23b8 0b3e 8ea5 06bf
00000290: df32 10be f268 a83e f84f c13e 9f7e 163f
000002a0: 2156 d83e 5f81 f5be 2443 a4bd 39a0 0b3e
000002b0: 0d95 013f 792b 0fbf 0912 e6be 085b dc3d
000002c0: af91 c9be ab08 07bf 08a5 33bf 6106 15bf
000002d0: ab03 64bd 7a65 7dbe 535f 733f c692 cabe
000002e0: 7a70 b6be d003 d43e f1aa 42bd 17e9 85bd
000002f0: 624c ae3e 109a c8be f1fe 5abe 30cb 3dbe
00000300: b555 ebbd 743f d7be 5143 b4be 7145 3cbc
00000310: 86b6 db3e c3b1 63bd 08bb cabd 0b7f 0abf
00000320: a724 8f3d bb09 8dbd 36f3 613f c7f8 3ebe
00000330: fb97 53bd ebae 8cbe 3056 9abe 64f7 243e
00000340: 1a4d f53e 42c3 d8bd 1db7 343f 1cdc 033f
00000350: 820e c73d 55ff 943e 2a16 16be 6c59 c63d
00000360: 607f e13c 5ae3 2d3e 7502 bb3e 491b 503d
00000370: f2c1 523f 5f27 9b3e ddda 96be 0a5b 84bd
00000380: 52e9 74bd 816c 5cbe 0971 b03d dfef 9abb
00000390: 178c 6a3d ebb1 7bbe 1352 0a3f f2e7 bf3e
000003a0: b30d d23e cd81 fe3d 4b02 5d3e c05c 17bf
000003b0: eb11 03bf 06d9 f1bc fcd3 d33d 4eef fb3d
000003c0: fe73 0fbf 16d2 d9be ca43 bfbe 08fb 80bc
000003d0: 6e1d 8e3e f0ea e5be 4b90 803d ba9e d93e
000003e0: 7a70 b4be f7c8 233f 6a00 e43e 1e9a 4b3d
000003f0: 16ad 00bf 4047 6fbe f713 533e 47d0 6dbd

conv1.bias f4 [30]
0.15667368 -0.023190204 -0.030953724 -0.09359853 0.100617215 -0.014907567 -0.0056469 0.10659429
-0.10581239 -0.047602884 -0.04828308 0.08938606 -0.014303155 -0.08075025 -0.07935295 -0.041146792
-0.004998645 -0.07202911 0.011746473 -0.07126216 -0.008167887 0.059489675 -0.03381843 -0.07706936
0.058200307 -0.020801548 0.07144843 -0.083636865 -0.07460697 -0.039938144
00000000: 116f 203e 62f9 bdbc aa92 fdbc 96b0 bfbd
00000010: 6610 ce3d de3e 74bc a109 b9bb 1b4e da3d
00000020: 2bb4 d8bd 3efb 42bd 7bc4 45bd 0a10 b73d
00000030: c857 6abc 6360 a5bd cd83 a2bd 8a89 28bd
00000040: accb a3bb ff83 93bd 4774 403c e5f1 91bd
00000050: 9ad2 05bc 72ab 733d 3285 0abd 8ad6 9dbd
00000060: 7263 6e3d 0268 aabc 8e53 923d ce49 abbd
00000070: 8acb 98bd 2e96 23bd

bn1.weight f4 [30]
1.2271734 1.2132007 1.2018398 1.1932666 1.1070918 1.1039186 1.0341474 0.98385316
0.8888857 0.92605823 0.91992867 0.88982147 0.87130016 0.85284215 0.84813076 0.8916774
0.8297109 0.914685 0.978903 1.0885127 2.135327 0.91758615 0.92770505 0.90994406
0.92656827 0.80949277 0.8433526 0.8424276 0.89533895 0.79081964
00000000: 0514 9d3f 294a 9b3f e3d5 993f f6bc 983f
00000010: 2fb5 8d3f 344d 8d3f f15e 843f cddd 7b3f
00000020: 038e 633f 2712 6d3f 7280 6b3f 57cb 633f
00000030: 870d 5f3f dd53 5a3f 191f 593f f844 643f
00000040: ef67 543f cc28 6a3f 6399 7a3f 6254 8b3f
00000050: 33a9 0840 ede6 6a3f 147e 6d3f 18f2 683f
00000060: 9433 6d3f eb3a 4f3f f5e5 573f 56a9 573f
00000070: ef34 653f 2873 4a3f

bn1.bias f4 [30]
0.03813997 0.036319137 0.049059696 0.052424148 0.067339644 0.09341009 0.12194194 0.1359069
0.14102037 0.14039871 0.15392587 0.14813556 0.1395925 0.16345932 0.17094533 0.14452463
0.15096402 0.15847388 0.17413494 0.15413103 0.5201209 0.21996602 0.24660562 0.23973767
0.2530915 0.25103045 0.29148635 0.31065306 0.2946939 0.26840216
00000000: a838 1c3d 60c3 143d d2f2 483d b4ba 563d
00000010: 5ee9 893d ca4d bf3d b2bc f93d 2e2b 0b3e
00000020: a567 103e aec4 0f3e be9e 1d3e d9b0 173e
00000030: 56f1 0e3e e161 273e 4b0c 2f3e 44fe 133e
00000040: 5096 1a3e fa46 223e 6e50 323e 86d4 1d3e
00000050: a526 053f c63e 613e 2f86 7c3e cb7d 753e
00000060: 3695 813e 1087 803e b33d 953e eb0d 9f3e
00000070: 1ee2 963e 026c 893e

bn1.running_mean f4 [30]
-0.6516152 -0.9620478 -0.65375304 -0.986396 -0.7144073 -0.6006155 -0.6278571 -0.37539837
-0.42218074 -0.29021233 -0.20635414 -0.26820004 -0.38000348 0.034684494 -0.11699619 -0.23800455
-0.079945214 -0.68332756 -0.028823595 -0.31943676 0.19430181 0.34965786 0.37707397 0.060328815
0.2771423 0.88019496 0.8146296 0.15622456 0.2617531 0.3309361
00000000: 41d0 26bf c448 76bf 5c5c 27bf 7384 7cbf
00000010: 66e3 36bf f0c1 19bf 3ebb 20bf 3734 c0be
00000020: 1328 d8be b696 94be 804e 53be 8451 89be
00000030: d18f c2be 5411 0e3d b39b efbd 77b7 73be
00000040: 51ba a3bd 8eee 2ebf 761f ecbc 378d a3be
00000050: 0ef7 463e 5b06 b33e d70f c13e 591b 773d
00000060: 98e5 8d3e 7554 613f 918b 503f 55f9 1f3e
00000070: 8104 863e 7570 a93e

bn1.running_var f4 [30]
9.9313965 10.177969 8.93993 9.220125 7.754378 7.9202924 7.565497 7.2352486
6.675954 7.460466 8.816491 7.5832343 9.927895 9.168267 9.7685375 10.201371
10.252191 12.055065 14.966161 17.733002 3.8625417 18.757652 23.310757 22.087471
24.580856 16.423403 22.992746 20.98999 20.522545 14.9044285
00000000: 00e7 1e41 f6d8 2241 f409 0f41 a285 1341
00000010: dd23 f840 0973 fd40 8d18 f240 2887 e740
00000020: 6aa1 d540 23bc ee40 5910 0d41 dba9 f240
00000030: a8d8 1e41 39b1 1241 ee4b 1c41 d138 2341
00000040: f908 2441 8ce1 4041 6575 6f41 30dd 8d41
00000050: e233 7740 ac0f 9641 6e7c ba41 24b3 b041
00000060: 98a5 c441 2163 8341 25f1 b741 80eb a741
00000070: 2c2e a441 8a78 6e41

dense1.dense.weight f4 [96, 512]
-0.7613954 -0.5638854 -0.602056 -0.12296526 -0.50616854 -0.18978763 0.90035737 -0.22485432
-0.7362637 0.47575298 -0.037681807 -0.0058742706 -0.105891235 -0.0534135 -0.32863626 0.01160771
-0.22396888 -0.5593904 -0.18310204 0.52937436 0.48470017 0.79580766 0.13835624 -0.27320433
-0.22124988 -0.048314035 -0.41692248 0.27680954 -0.8354226 0.14132555 0.017706942 0.56720924
-0.8367532 -0.09724521 -0.3575387 -0.012452067 0.37158495 -0.7144127 -0.31549078 -0.38891107
0.20056918 -0.21632425 -0.5951881 -0.040877596 0.092280984 0.2586653 -0.028413476 -0.1147904
0.21427576 0.35681477 -0.028679717 -0.45972794 0.17570996 -0.13417648 -0.2547503 0.025805645
0.15293299 0.90734065 -0.81051564 0.77484304 0.19349484 0.094304726 -0.805002 0.3743568
0.25725138 0.087359674 -0.397516 -0.2368524 0.25829345 -0.07249322 -0.21620278 -0.042544913
0.037220795 -0.071326874 0.003965783 0.2095229 -1.4829543 -0.26030666 0.6460369 0.35271594
0.17493035 -0.18398823 0.39705387 -0.12437713 0.4215245 0.113213815 0.25271463 0.3367213
0.5971833 -0.44433564 0.24559854 0.62128425 -0.09898424 -0.11018554 -0.025541274 0.3215144
0.12334593 0.003593495 -1.0333314 0.70760185 0.20118864 0.45626453 -0.21030258 -0.27022904
0.14160445 -0.36063138 0.5362793 0.1837419 0.5200001 -0.20536947 0.24725468 -0.27634552
-0.017405348 0.15352322 -0.08818491 0.7983842 0.04740509 0.47949737 0.25215757 0.07471824
-0.2181235 -0.66068244 0.27997473 0.8843939 0.57690257 0.015348258 -0.32889566 0.5621215
-0.01133228 -0.16603895 0.23710023 0.29515162 -0.4624555 -0.64322776 0.235254 0.580041
-0.4412201 0.36030298 0.12955078 0.0040355828 0.7217988 0.3373888 0.32429385 -0.984186
0.5633534 -0.2730349 -0.441129 0.06463306 0.059962425 1.0404872 0.8334654 0.16295749
0.018776031 0.70893735 -0.4878939 -0.5075021 -0.4177586 -0.45332327 0.6743791 0.7503147
0.036335725 0.18472254 0.53888506 -0.72228324 0.28098467 -0.54057264 -0.9310456 0.5313421
-0.57009053 -0.46858212 -0.31586835 0.32183912 0.52447313 0.81192744 -0.39190257 0.09611497
-0.5086425 -0.046850476 -0.14558206 0.21755044 0.17999792 -1.051037 -0.2852235 -0.5092618
-0.7440994 0.14561547 -0.1898454 -0.397565 -0.27090734 0.21008036 -0.8816263 -0.8226026
-0.4351373 -0.4054229 0.12560037 -1.0493864 -0.3143637 -0.1680453 -0.21913087 0.1661613
0.2883906 0.037743155 0.23890193 0.08532208 0.2741527 -0.4028814 -0.4477105 -0.06489541
0.4512261 -0.55704826 -0.23075692 0.046386752 -0.56213856 -0.15508184 0.006756029 0.21871644
-0.1144846 0.07729535 -0.26266485 0.24808119 -0.94965035 0.60291517 0.19147854 -0.6776893
-0.5825769 -0.70965093 0.9343856 0.56773496 0.009658382 -0.49238464 0.4214081 0.3282602
0.38407633 -0.34479755 -0.04523167 0.55546296 -0.08776463 -0.46890274 -0.41772288 -0.021004125
0.44736272 -0.021011662 -0.44935745 -0.21888393 -0.48435718 -0.02150512 -0.07224807 0.23429444
0.3494092 -0.2436299 -0.0036759092 -0.0627457 -0.0961037 0.105147704 0.43261227 0.23512484
00000000: cfea 42bf cb5a 10bf 5820 1abf 36d5 fbbd
00000010: 4394 01bf b057 42be d27d 663f 3640 66be
00000020: c77b 3cbf e595 f33e 3d58 1abd f47c c0bb
00000030: 81dd d8bd 1dc8 5abd 0343 a8be 442e 3e3c
00000040: 1958 65be 3634 0fbf 1a7f 3bbe 1485 073f
00000050: 9f2a f83e 0dba 4b3f 42ad 0d3e 70e1 8bbe
00000060: 548f 62be f0e4 45bd dd76 d5be fbb9 8d3e
00000070: 41de 55bf a5b7 103e 260e 913c a034 113f
00000080: 7535 56bf 7f28 c7bd 500f b7be c103 4cbc
00000090: 6240 be3e c0e3 36bf 0288 a1be 5a1f c7be
000000a0: 0262 4d3e 1b84 5dbe 3f5e 18bf 446f 27bd
000000b0: d0fd bc3d c76f 843e 61c3 e8bc 3b17 ebbd
000000c0: 1b6b 5b3e 6db0 b63e baf1 eabc 7661 ebbe
000000d0: 50ed 333e 8f65 09be a26e 82be 5c66 d33c
000000e0: 779a 1c3e 7a47 683f f47d 4fbf 1d5c 463f
000000f0: 8323 463e d622 c13d 9c14 4ebf b2ab bf3e
00000100: 74b6 833e a1e9 b23d 3887 cbbe 6f89 72be
00000110: 0a3f 843e 5377 94bd 4364 5dbe 9343 2ebd
00000120: d574 183d d313 92bd 66f3 813b 2c8d 563e
00000130: 72d1 bdbf ea46 85be ad62 253f 2f97 b43e
00000140: f120 333e 6967 3cbe a54a cb3e 70b9 febd
00000150: 0fd2 d73e a5dc e73d d063 813e bc66 ac3e
00000160: 01e1 183f f67f e3be 2f7e 7b3e 7c0c 1f3f
00000170: 40b8 cabd f5a8 e1bd ef3b d1bc 899d a43e
00000180: ca9c fc3d d880 6b3b 3444 84bf 6525 353f
00000190: 6504 4e3e 819b e93e 8f59 57be 765b 8abe
000001a0: c200 113e ada4 b8be 9a49 093f d626 3c3e
000001b0: ba1e 053f 604c 52be 5530 7d3e 297d 8dbe
000001c0: a995 8ebc 3135 1d3e 4a9a b4bd e862 4c3f
000001d0: d72b 423d ae80 f53e cc1a 813e e005 993d
000001e0: c45b 5fbe 7c22 29bf d958 8f3e a367 623f
000001f0: e3af 133f 4377 7b3c 0365 a8be 32e7 0f3f
00000200: 07ab 39bc 1d06 2abe 67ca 723e 1d1e 973e
00000210: f8c6 ecbe 93aa 24bf 6de6 703e 917d 143f
00000220: 9ae7 e1be a279 b83e f6a8 043e ec3c 843b
00000230: cec7 383f 3abe ac3e d809 a63e 9df3 7bbf
00000240: ee37 103f 3bcb 8bbe a9db e1be 565e 843d
00000250: 299b 753d af2e 853f fd5d 553f 54de 263e
00000260: 31d0 993c eb7c 353f 3bcd f9be a8eb 01bf
00000270: 75e4 d5be fd19 e8be 1ca4 2c3f a014 403f
00000280: c5d4 143d e827 3d3e 5ff4 093f 8ee7 38bf
00000290: 39dd 8f3e f862 0abf 0159 6ebf 0906 083f
000002a0: 74f1 11bf ffe9 efbe 7fb9 a1be 19c8 a43e
000002b0: df43 063f 7ada 4f3f 74a7 c8be edd7 c43d
000002c0: 6536 02bf 49e6 3fbd 7713 15be 8bc5 5e3e
000002d0: 6051 383e 6188 86bf d108 92be fb5e 02bf
000002e0: 4c7d 3ebf 391c 153e d566 42be a48d cbbe
000002f0: 5eb4 8abe 4e1f 573e 43b2 61bf 1696 52bf
00000300: 51ca debe 9793 cfbe 629d 003e 4b52 86bf
00000310: 47f4 a0be 1114 2cbe d863 60be 3026 2a3e
00000320: efa7 933e 9198 1a3d b5a2 743e 58bd ae3d
00000330: be5d 8c3e 7946 cebe 503a e5be e2e7 84bd
00000340: 1b07 e73e b79a 0ebf 8b4b 6cbe 0900 3e3d
00000350: 50e8 0fbf c6cd 1ebe ae61 dd3b 34f7 5f3e
00000360: e776 eabd 064d 9e3d 027c 86be ff08 7e3e
00000370: 491c 73bf a658 1a3f f312 443e 0c7d 2dbf
00000380: c223 15bf afab 35bf e533 6f3f 1457 113f
00000390: 313e 1e3c d719 fcbe cdc2 d73e b911 a83e
000003a0: a7a5 c43e 4e89 b0be d844 39bd d232 0e3f
000003b0: f1bd b3bd 0514 f0be c6df d5be d810 acbc
000003c0: ba0c e53e a620 acbc 2e12 e6be 1c23 60be
000003d0: aafd f7be 812b b0bc ccf6 93bd e2ea 6f3e
000003e0: c3e5 b23e 1e7a 79be 86e7 70bb d180 80bd
000003f0: 04d2 c4bd ae57 d73d 5b7f dd3e 91c4 703e

dense1.dense.bias f4 [96]
0.12530842 -0.042253613 0.1655981 1.2973222 0.10821671 0.20512286 0.20474364 0.53652877
0.083307974 0.08317778 0.2199616 0.019108253 0.17763096 0.08464657 0.20129469 0.24902357
0.17306203 0.22386448 0.2576779 0.21395713 -0.0038470884 0.072231576 0.21269271 0.19607657
0.08991755 0.19884266 0.06214574 0.13684472 0.19379538 0.19539404 0.24447638 0.2805816
0.1956535 0.17760636 0.16522898 0.23702501 0.20360826 0.33661628 0.12871118 0.1703529
0.16943786 0.060027774 0.23752646 0.2972425 0.28976455 0.16163038 0.26073793 0.3549723
0.1163497 0.2906673 0.1439927 0.1808769 0.28017083 0.06459108 0.06319051 0.25744292
0.26979107 0.023843803 0.16921958 0.5696153 0.23732191 0.30160835 0.26781267 0.106000975
0.17133865 0.022299642 0.16483812 0.08932161 0.13396816 0.11564285 0.15853265 0.16512154
0.20513618 0.21442336 0.2680204 0.22164865 0.18525335 0.23706499 0.12188366 0.24785417
0.2681527 0.21781178 0.28899866 0.24562398 0.19788162 0.13316537 0.18561354 0.23037043
0.123902336 0.098761365 0.20200792 0.115073636 0.37573186 0.07425366 0.19716293 0.23308395
00000000: da50 003e 2012 2dbd 8c92 293e a70e a63f
00000010: b9a0 dd3d ba0b 523e 51a8 513e f359 093f
00000020: 5f9d aa3d 1d59 aa3d 9d3d 613e e988 9c3c
00000030: e4e4 353e 2e5b ad3d 3220 4e3e 0900 7f3e
00000040: 2c37 313e bb3c 653e 5cee 833e 9417 5b3e
00000050: 6f1f 7cbb 26ee 933d 1ecc 593e 4cc8 483e
00000060: b126 b83d 699d 4b3e 888c 7e3d 0621 0c3e
00000070: 4c72 463e 6015 483e 0458 7a3e 64a8 8f3e
00000080: 6459 483e 71de 353e c931 293e afb6 723e
00000090: af7e 503e f858 ac3e ddcc 033e fe70 2e3e
000000a0: 1e81 2d3e afdf 753d 233a 733e 2b30 983e
000000b0: 055c 943e 6f82 253e 717f 853e eebe b53e
000000c0: c048 ee3d 58d2 943e d372 133e cb37 393e
000000d0: 8d72 8f3e 5448 843d 076a 813d 8fcf 833e
000000e0: 0e22 8a3e 1454 c33c e647 2d3e 4fd2 113f
000000f0: 8404 733e 696c 9a3e be1e 893e 0a17 d93d
00000100: 6673 2f3e bdad b63c 53cb 283e 40ee b63d
00000110: f32e 093e 29d6 ec3d 6256 223e 9f15 293e
00000120: 380f 523e cc91 5b3e f839 893e ddf7 623e
00000130: 0eb3 3d3e 2ac1 723e 249e f93d 7ccd 7d3e
00000140: 504b 893e 0d0a 5f3e a2f7 933e da84 7b3e
00000150: 7ba1 4a3e 815c 083e 7a11 3e3e 3ae6 6b3e
00000160: 82c0 fd3d 6643 ca3d 2adb 4e3e baab eb3d
00000170: ed5f c03e 4e12 983d 14e5 493e 8fad 6e3e

dense1.batch_norm1.weight f4 [96]
0.8520249 0.37024957 0.93753463 1.091251 0.9231795 1.0303336 1.0831332 1.0283772
1.0988657 0.8197917 1.0005654 0.7283598 1.1135899 0.63734746 0.9276398 0.98105085
1.0223132 0.96244407 1.0998327 1.0074053 0.22007912 0.7767561 1.2325484 0.97472143
1.0242678 1.0184987 1.0813311 1.0647416 0.9285412 1.0219955 1.0972613 1.0049176
1.0237297 0.9223057 0.9457535 1.0378215 1.0571254 0.9696229 0.73553437 0.67069083
0.8268641 1.0374426 0.99240506 1.1251593 0.9305113 0.9570647 0.9045667 1.1587043
0.8828715 1.089823 1.0199208 1.239338 0.9681483 0.82094944 0.97610205 0.8742371
0.9138609 0.800839 1.0230327 1.1311282 1.034124 1.0083133 1.0690484 0.65090144
0.8319335 0.79155 1.0692198 0.68653643 1.0129305 0.7228476 0.7250568 1.0171833
0.76510495 1.0310217 0.8078235 1.1058162 1.0804287 1.0830183 0.9748421 0.9530467
1.0175562 1.031246 0.9685886 1.10137 0.92829984 1.0266988 1.0164953 1.0756423
0.934977 1.1440412 0.96409035 0.7508357 1.1431224 0.99798894 1.0217721 0.8863325
00000000: 4e1e 5a3f 5a91 bd3e 4502 703f 1dae 8b3f
00000010: 7e55 6c3f f9e1 833f 1ca4 8a3f dda1 833f
00000020: a2a7 8c3f dedd 513f 8712 803f ca75 3a3f
00000030: 1d8a 8e3f 3429 233f cd79 6d3f 2626 7b3f
00000040: 29db 823f bc62 763f 51c7 8c3f a8f2 803f
00000050: 6c5c 613e 7dd9 463f 25c4 9d3f 5887 793f
00000060: 351b 833f 2a5e 823f 0f69 8a3f 7449 883f
00000070: e0b4 6d3f c0d0 823f 0f73 8c3f 24a1 803f
00000080: 9309 833f 3a1c 6c3f e71c 723f 56d7 843f
00000090: e34f 873f 3539 783f fb4b 3c3f 65b2 2b3f
000000a0: 5ead 533f ebca 843f 420e 7e3f 3805 903f
000000b0: fd35 6e3f 3102 753f af91 673f 6c50 943f
000000c0: de03 623f 527f 8b3f c48c 823f a1a2 9e3f
000000d0: 91d8 773f be29 523f d3e1 793f 01ce 5f3f
000000e0: caf2 693f c903 4d3f bcf2 823f cfc8 903f
000000f0: 2d5e 843f 6910 813f 94d6 883f 7aa1 263f
00000100: 98f9 543f 05a3 4a3f 32dc 883f dac0 2f3f
00000110: b5a7 813f 8a0c 393f 539d 393f 1033 823f
00000120: ebdd 433f 85f8 833f 85cd 4e3f 638b 8d3f
00000130: 7d4b 8a3f 58a0 8a3f 408f 793f defa 733f
00000140: 483f 823f deff 833f 6cf5 773f b1f9 8c3f
00000150: 0fa5 6d3f de6a 833f 851c 823f a6ae 893f
00000160: a75a 6f3f f16f 923f a0ce 763f c536 403f
00000170: d651 923f 347c 7f3f 6ec9 823f b0e6 623f

dense1.batch_norm1.bias f4 [96]
-0.42890397 -0.28598472 -0.5844717 -2.253624 -0.6256337 -0.80378026 -0.7211861 -0.9863415
-0.7335884 -0.5768128 -0.66844624 -0.24320388 -0.7742448 -0.24613902 -0.57752645 -0.6497584
-0.814061 -0.5961729 -0.68734294 -0.7017453 0.020920526 -0.6796939 -0.89023876 -0.5947711
-0.7793206 -0.61977875 -0.71242684 -0.7925524 -0.51778775 -0.66549706 -0.7984517 -0.7749295
-0.7285507 -0.6065726 -0.6759372 -0.753426 -0.7062054 -0.5729492 -0.27833778 -0.35266012
-0.4258664 -0.7657234 -0.67923576 -0.7746813 -0.5123913 -0.71558344 -0.5880585 -0.88498145
-0.50173324 -0.7192789 -0.69054526 -0.8482154 -0.66408277 -0.38439626 -0.6244451 -0.45954335
-0.59118223 -0.6061358 -0.64982235 -0.11903473 -0.7552557 -0.64001954 -0.8850672 -0.3956749
-0.34820673 -0.31679648 -0.7431661 -0.25834125 -0.6800735 -0.41036177 -0.32591376 -0.6470352
-0.2818017 -0.74731314 -0.40339813 -0.6653313 -0.819046 -0.6919951 -0.68607295 -0.73276454
-0.7015538 -0.7834629 -0.6698764 -0.7434776 -0.5479033 -0.7000892 -0.7194868 -0.81462157
-0.6124517 -0.8205767 -0.5830884 -0.40784198 -0.61700684 -0.7582652 -0.63696575 -0.50445384
00000000: 4d99 dbbe 976c 92be f09f 15bf 603b 10c0
00000010: 8829 20bf 8bc4 4dbf a79f 38bf e080 7cbf
00000020: 73cc 3bbf 01aa 13bf 4b1f 2bbf 700a 79be
00000030: e834 46bf de0b 7cbe c6d8 13bf 9156 26bf
00000040: 4d66 50bf ca9e 18bf b5f5 2fbf 94a5 33bf
00000050: 8661 ab3c 6b00 2ebf b0e6 63bf eb42 18bf
00000060: 8e81 47bf d2a9 1ebf 9b61 36bf b7e4 4abf
00000070: bd8d 04bf 045e 2abf 5567 4cbf c861 46bf
00000080: 4c82 3abf 5848 1bbf 380a 2dbf 87e0 40bf
00000090: e1c9 34bf ccac 12bf 4a82 8ebe de8f b4be
000000a0: 290b dabe 7306 44bf 65e2 2dbf 8451 46bf
000000b0: 142c 03bf 7a30 37bf 008b 16bf 258e 62bf
000000c0: 9771 00bf a922 38bf 93c7 30bf a524 59bf
000000d0: 5401 2abf 96cf c4be a2db 1fbf 4449 ebbe
000000e0: b857 17bf b72b 1bbf c25a 26bf 7bc8 f3bd
000000f0: 7058 41bf 52d8 23bf c493 62bf e795 cabe
00000100: 2748 b2be 2633 a2be 2240 3ebf 4e45 84be
00000110: 4c19 2ebf f01a d2be 2bde a6be 19a4 25bf
00000120: 5048 90be ea4f 3fbf 338a cebe 2753 2abf
00000130: 00ad 51bf 9726 31bf 7aa2 2fbf 7596 3bbf
00000140: 0899 33bf 0691 48bf 057d 2bbf 8c54 3ebf
00000150: 6443 0cbf 0c39 33bf 4930 38bf 0a8b 50bf
00000160: a2c9 1cbf 5111 52bf 4845 15bf aad0 d0be
00000170: 29f4 1dbf ab1d 42bf 3010 23bf e323 01bf

dense1.batch_norm1.running_mean f4 [96]
-4.718681 -2.0437815 -4.1308107 2.9152658 -4.49549 -4.634262 -3.1271956 4.245616
-4.081236 -3.787061 -4.079942 -14.49312 -6.2452106 -4.423149 -3.89975 -3.0850883
-5.1498075 -4.653529 -4.3892746 -3.1606607 -0.5499581 -2.6803296 -4.513635 -4.0675325
-3.116321 -4.470097 -1.4945155 -5.3041315 -3.5049162 -4.1390104 -4.0814967 -3.506547
-3.56578 -3.3921955 -3.297418 -1.8381604 -3.7013924 -2.6205275 -9.41149 -1.5573046
-5.4534783 -3.4495378 -3.662413 -3.3363965 -2.407815 -4.4500623 -3.0847976 -5.576534
-2.5286412 -3.1821105 -2.4026282 -4.5224776 -3.2097092 -5.842971 -3.153728 -2.115579
-1.7726855 -2.91449 -3.4088326 3.003233 -5.0453 -1.8212435 -3.3258672 -3.0329309
-2.8400388 -4.801441 -3.572332 -3.9619255 -3.53541 -1.592555 -2.8512416 -3.8161356
-1.7162441 -4.4404874 -3.5249877 -3.4970434 -4.282142 -4.1481366 -4.3463907 -4.554656
-3.9236972 -4.383827 -5.4227095 -5.4911814 -3.5958123 -3.3587763 -5.8131366 -4.0739284
-4.7382836 -4.516848 -3.538771 -3.0548182 -2.918107 -3.1090539 -2.845547 -2.6084266
00000000: 6fff 96c0 51cd 02c0 9a2f 84c0 b793 3a40
00000010: 0edb 8fc0 e04b 94c0 f923 48c0 16dc 8740
00000020: 7c99 82c0 355f 72c0 e38e 82c0 d2e3 67c1
00000030: c4d8 c7c0 708a 8dc0 8195 79c0 1672 45c0
00000040: 39cb a4c0 b6e9 94c0 f074 8cc0 4448 4ac0
00000050: 0eca 0cbf 858a 2bc0 b36f 90c0 3a29 82c0
00000060: ce71 47c0 090b 8fc0 494c bfbf 72bb a9c0
00000070: 8c50 60c0 c672 84c0 9f9b 82c0 446b 60c0
00000080: bd35 64c0 bb19 59c0 e608 53c0 d748 ebbf
00000090: 9de3 6cc0 b9b6 27c0 7795 16c1 c255 c7bf
000000a0: e582 aec0 3ac5 5cc0 f964 6ac0 8587 55c0
000000b0: a419 1ac0 e966 8ec0 536d 45c0 f772 b2c0
000000c0: 42d5 21c0 b3a7 4bc0 a9c4 19c0 23b8 90c0
000000d0: e06b 4dc0 9ef9 bac0 aed6 49c0 a565 07c0
000000e0: 5ce7 e2bf 0187 3ac0 502a 5ac0 f834 4040
000000f0: 1973 a1c0 821e e9bf 02db 54c0 8a1b 42c0
00000100: 32c3 35c0 68a5 99c0 16a1 64c0 3090 7dc0
00000110: 2844 62c0 d8d8 cbbf be7a 36c0 913b 74c0
00000120: e3ad dbbf 7918 8ec0 6699 61c0 8fcf 5fc0
00000130: 4f07 89c0 89bd 84c0 a215 8bc0 bebf 91c0
00000140: db1d 7bc0 5048 8cc0 d686 adc0 c2b7 afc0
00000150: ca21 66c0 31f6 56c0 3705 bac0 9f5d 82c0
00000160: 05a0 97c0 058a 90c0 397b 62c0 2482 43c0
00000170: 44c2 3ac0 bdfa 46c0 711d 36c0 76f0 26c0

dense1.batch_norm1.running_var f4 [96]
19.446346 3.5431201 12.736513 8.399854 15.334776 17.060308 11.869828 6.1199155
15.368908 14.122479 13.754042 101.354744 18.03154 16.432766 11.551369 13.191596
16.82438 17.536327 15.863022 10.36019 6.297677 8.12358 16.761845 11.084769
13.95955 13.679214 10.565369 18.404709 13.7012005 13.034482 13.6658 14.396345
10.883694 14.907567 11.139756 9.896227 11.746637 11.975997 43.464035 9.704698
20.603378 12.690716 11.876542 13.01475 8.6678915 13.308916 10.662364 17.371986
13.2548 12.513705 9.793851 14.945904 11.648027 27.160383 12.8787985 10.798498
9.840747 12.083444 12.799558 7.7373385 13.661547 7.979841 11.38126 14.258189
13.460645 14.710268 12.627819 14.458773 11.939561 13.453 11.110019 12.616624
9.752111 12.641778 16.353764 15.906149 13.936181 16.28159 17.156656 11.069227
12.414167 13.086959 16.097044 16.266953 14.2137375 14.529367 16.500189 13.004696
16.679201 16.25429 14.45405 15.6556015 13.615087 12.355511 10.506073 11.6668
00000000: 1e92 9b41 7bc2 6240 c2c8 4b41 cd65 0641
00000010: 3e5b 7541 837b 8841 d1ea 3d41 59d6 c340
00000020: 0ce7 7541 adf5 6141 8e10 5c41 a1b5 ca42
00000030: 9840 9041 4e76 8341 68d2 3841 c710 5341
00000040: 5598 8641 664a 8c41 f0ce 7d41 57c3 2541
00000050: 9286 c940 2ffa 0141 4218 8641 375b 3141
00000060: 515a 5f41 0fde 5a41 c00b 2941 d83c 9341
00000070: 1e38 5b41 3d8d 5041 1ea7 5a41 6e57 6641
00000080: 9c23 2e41 6585 6e41 713c 3241 f256 1e41
00000090: 3af2 3b41 af9d 3f41 2cdb 2d42 7146 1b41
000000a0: b8d3 a441 2c0d 4b41 5106 3e41 6a3c 5041
000000b0: afaf 0a41 52f1 5441 0b99 2a41 d4f9 8a41
000000c0: a913 5441 2338 4841 9db3 1c41 6c22 6f41
000000d0: 525e 3a41 7748 d941 8f0f 4e41 a6c6 2c41
000000e0: b373 1d41 c955 4141 fdca 4c41 4798 f740
000000f0: b295 5a41 dc5a ff40 a419 3641 8b21 6441
00000100: cd5e 5741 425d 6b41 8c0b 4a41 2257 6741
00000110: 7108 3f41 7d3f 5741 a3c2 3141 b1dd 4941
00000120: a608 1c41 b944 4a41 82d4 8241 967f 7e41
00000130: 99fa 5e41 b240 8241 d540 8941 8e1b 3141
00000140: 6ea0 4641 2f64 5141 bfc6 8041 b822 8241
00000150: 786b 6341 4a78 6841 6300 8441 3c13 5041
00000160: 016f 8541 c908 8241 ca43 6741 587d 7a41
00000170: 65d7 5941 2cb0 4541 e018 2841 36ab 3a41

dense2.dense.weight f4 [15, 96]
-0.52844924 -0.24300572 -0.6587308 -0.026694633 0.21035628 0.17889148 -0.33821788 -0.004657035
-0.84449947 -0.22760142 -0.0060907244 0.30862147 0.3282036 -0.0063001467 -0.104567654 0.3087737
-0.85128164 -0.39432314 -0.23697367 0.55443376 -0.06907591 -0.2344923 -0.58409935 -0.8557044
-0.69448537 0.12346994 -0.21670981 0.13413051 -0.56636304 -0.38145992 -0.82009536 0.3146609
0.399258 -0.7083253 -0.18525167 0.3525631 -0.60237235 -0.056121048 -0.015695475 -1.015448
0.23959823 -0.54119974 -0.14681797 0.36808822 -0.091629304 0.10007529 -0.1760671 -0.5972814
-0.35694295 -0.2813502 -0.47621164 -0.43870547 -0.3268083 0.39643753 -0.03648191 -0.07558518
0.26132694 0.48235065 -0.2446815 -0.0045552175 -0.6501144 -0.5375568 -0.2910333 0.12937976
0.16320999 0.0044452874 0.23525622 -0.3315437 -0.7198984 0.22928132 -0.75508004 0.3595132
-0.3352871 0.07261897 -0.3013336 -0.60599315 -0.2764169 -0.3524178 -0.8491709 -0.11306307
-0.54662347 0.2981274 -0.38084266 -0.15056773 0.22374979 -0.07345185 -0.16417648 -0.15487774
-0.44113517 -0.38402537 -0.7803922 -0.7681517 0.37798917 -0.07253342 -0.7455334 -0.34682265
-0.59833556 -0.260837 0.08682147 -0.02569059 0.36783987 -0.18834907 -0.5975331 5.0156527e-06
0.20798877 0.40465647 -0.06255891 0.4912639 0.30868608 -0.025836676 0.24145348 -0.44959396
-0.39912155 -0.67077684 -0.2212801 -0.27307376 -0.11332146 -0.116630964 0.014875669 -0.4364135
-0.15661831 -0.34258524 0.293814 -0.07253908 -0.27697167 -0.32188934 0.07202876 -0.13753726
-0.2879544 0.20908283 -0.14090708 -0.50009483 0.33879164 -0.19615245 0.1646193 -0.8969478
0.21828759 -0.32451347 -0.34972525 -0.6650191 0.16728467 0.1941594 -0.29106238 -0.09975631
0.25848478 -0.5533167 0.16812633 -0.045420036 -0.0045776474 -0.95876485 -0.3998707 -0.1859194
-0.1818715 -0.102195844 0.36194274 -0.014485635 -0.37529102 -0.20498279 -0.16729414 -0.78992575
-0.18827435 0.011791834 0.273112 0.25786123 0.34735182 -0.94767237 -0.445666 -0.24875349
-0.3240018 -0.31325328 -0.2637865 0.31770402 -0.15554327 0.34581122 -0.5831606 -0.032192674
-0.19669037 -0.45229083 -0.44770727 -0.6342917 -0.6723435 -0.33723497 -0.46591306 -0.1577796
-0.32915184 0.18942416 -0.3205282 0.2529411 0.2922642 -0.33382666 -0.14604637 -0.3547241
0.37628764 -0.53775424 -0.12515049 -0.034459785 -0.7577158 -0.2805675 -0.7323819 -0.12253468
-0.56294745 0.29500583 -0.5907719 0.33310813 0.06911873 -0.06301006 -0.3303536 0.008667166
0.71909744 -0.18871585 0.3652973 -0.10269644 -0.06745801 -0.6136829 0.044893816 0.23844394
-0.5869707 -0.22080858 -0.4105025 0.124790855 -0.3224091 -0.47462288 -0.064102784 -0.34836212
-0.51166207 -0.3910627 0.04183355 -0.63987505 0.2044501 -0.43506086 -0.35855362 -0.6344408
-1.0977513 -0.780752 -0.57718307 0.14788482 -0.074509144 -0.5875678 -0.07448241 -1.1920822
0.09297548 -0.6832893 -0.7144561 -0.7464125 -0.59349984 0.1707572 0.21969229 0.22232467
-0.123035036 0.5403968 -0.023159696 -0.0073258574 -0.5420628 0.28649923 -0.2899627 0.15852264
00000000: 7348 07bf 7ed6 78be 95a2 28bf b4ae dabc
00000010: a367 573e 542f 373e e52a adbe 0b9a 98bb
00000020: 1e31 58bf 5910 69be b394 c7bb a203 9e3e
00000030: 4d0a a83e 7671 cebb 9127 d6bd 9617 9e3e
00000040: 98ed 59bf b9e4 c9be 3aa9 72be 5fef 0d3f
00000050: ac77 8dbd c01e 70be 8987 15bf 720f 5bbf
00000060: cbc9 31bf cfdd fc3d 2de9 5dbe 8259 093e
00000070: 2bfd 10bf b74e c3be c5f1 51bf 3c1b a13e
00000080: 8b6b cc3e cf54 35bf 9db2 3dbe 2783 b43e
00000090: 1335 1abf 2fdf 65bd cc93 80bc 33fa 81bf
000000a0: 3d59 753e 118c 0abf 7357 16be 0f76 bc3e
000000b0: 25a8 bbbd 46f4 cc3d ef4a 34be 6fe7 18bf
000000c0: 3ac1 b6be 220d 90be 03d2 f3be 019e e0be
000000d0: 6b53 a7be dcf9 ca3e 0e6e 15bd 67cc 9abd
000000e0: a5cc 853e aaf6 f63e ca8d 7abe ef43 95bb
000000f0: e66d 26bf 539d 09bf 5102 95be 217c 043e
00000100: 8520 273e c6a9 913b 02e7 703e 19c0 a9be
00000110: 434b 38bf b9c8 6a3e ed4c 41bf 1d12 b83e
00000120: c0aa abbe 41b9 943d 6648 9abe 5e22 1bbf
00000130: 8486 8dbe 1b70 b4be 4463 59bf 9c8d e7bd
00000140: 84ef 0bbf 28a4 983e cffd c2be 6d2e 1abe
00000150: aa1e 653e ec6d 96bd e11d 28be 4598 1ebe
00000160: 78dc e1be f99e c4be c9c7 47bf 97a5 44bf
00000170: cc87 c13e 678c 94bd 47db 3ebf bd92 b1be
00000180: 852c 19bf 6d8c 85be 74cf b13d 1275 d2bc
00000190: 8255 bc3e 94de 40be eef7 18bf 214c a836
000001a0: 02fb 543e 222f cf3e e31e 80bd f186 fb3e
000001b0: 1a0c 9e3e 70a7 d3bc 953f 773e 2e31 e6be
000001c0: a959 ccbe 08b8 2bbf 4097 62be 53d0 8bbe
000001d0: 1515 e8bd 37dc eebd 14b9 733c 9771 dfbe
000001e0: 8d60 20be 5567 afbe ca6e 963e 5f8f 94bd
000001f0: 3bcf 8dbe aece a4be d183 933d 91d6 0cbe
00000200: c26e 93be cf19 563e f249 10be 3706 00bf
00000210: 1976 ad3e 30dc 48be f691 283e 5f9e 65bf
00000220: c886 5f3e a126 a6be 300f b3be b13e 2abf
00000230: ac4c 2b3e b9d1 463e 2106 95be 094d ccbd
00000240: 1e58 843e 2aa6 0dbf 4f29 2c3e 5c0a 3abd
00000250: 1700 96bb 9d71 75bf dabb ccbe a861 3ebe
00000260: 863c 3abe 0e4c d1bd 8f50 b93e 2855 6dbc
00000270: 2526 c0be 02e7 51be 284f 2bbe 9338 4abf
00000280: feca 40be 8932 413c 56d5 8b3e 6306 843e
00000290: 19d8 b13e a89a 72bf 552e e4be 3cb9 7ebe
000002a0: 90e3 a5be bc62 a0be 060f 87be 1aaa a23e
000002b0: bc46 1fbe 2b0e b13e 034a 15bf 77dc 03bd
000002c0: 3369 49be aa92 e7be e339 e5be f160 22bf
000002d0: b41e 2cbf 10aa acbe 288c eebe fa90 21be
000002e0: 9786 a8be 68f8 413e 461c a4be 7f81 813e
000002f0: a7a3 953e 54eb aabe 2e8d 15be 669e b5be
00000300: c6a8 c03e 43aa 09bf 7327 00be b425 0dbd
00000310: aaf9 41bf 8ba6 8fbe 617d 3bbf 76f3 fabd
00000320: 531d 10bf 010b 973e d43c 17bf 268d aa3e
00000330: 1f8e 8d3d 6b0b 81bd 1b24 a9be bb00 0e3c
00000340: c516 383f ba3e 41be 3f08 bb3e 8352 d2bd
00000350: 6d27 8abd 531a 1dbf 94e2 373d a62a 743e
00000360: b643 16bf a51b 62be 622d d2be 5992 ff3d
00000370: ce12 a5be c501 f3be 5248 83bd 855c b2be
00000380: 49fc 02bf 5f39 c8be a859 2b3d dace 23bf
00000390: 5e5b 513e 4cc0 debe 5794 b7be b66a 22bf
000003a0: 1d83 8cbf 5ddf 47bf 45c2 13bf 1e6f 173e
000003b0: 4098 98bd d86a 16bf 3c8a 98bd 2696 98bf
000003c0: ee69 be3d 0cec 2ebf 98e6 36bf e414 3fbf
000003d0: 9bef 17bf fada 2e3e 04f7 603e 14a9 633e
000003e0: cbf9 fbbd 7257 0a3f 67b9 bdbc bf0d f0bb
000003f0: a1c4 0abf 07b0 923e fe75 94be c253 223e

dense2.dense.bias f4 [15]
0.61947006 0.5820589 0.5095174 3.0055609 0.6161816 0.54132235 4.8524914 0.5521251
0.8592918 0.65915245 0.6510257 1.1712914 0.65109426 0.0423535 -12.467659
00000000: 9795 1e3f d001 153f bb6f 023f 1c5b 4040
00000010: 14be 1d3f 1a94 0a3f 9c47 9b40 1258 0d3f
00000020: 8cfa 5b3f 37be 283f 9fa9 263f e0ec 953f
00000030: 1dae 263f dd7a 2d3d 887b 47c1

dense2.batch_norm1.weight f4 [15]
6.4334707 6.971641 5.492563 8.562456 6.010657 5.8832917 9.654722 5.996737
6.9524574 6.329001 6.697462 7.8552547 6.4756045 0.39231884 16.526035
00000000: fede cd40 af17 df40 13c3 af40 d2ff 0841
00000010: 4d57 c040 ed43 bc40 be79 1a41 45e5 bf40
00000020: 887a de40 2d87 ca40 9c51 d640 3f5e fb40
00000030: 2738 cf40 04de c83e 5235 8441

dense2.batch_norm1.bias f4 [15]
-4.441861 -4.7392817 -4.0402875 -4.292 -4.0564337 -3.902128 -4.941599 -4.386402
-4.3791523 -4.0910954 -4.3327436 -4.497287 -4.39998 -0.6183902 6.4021215
00000000: ba23 8ec0 32a8 97c0 094a 81c0 1058 89c0
00000010: 4ece 81c0 77bc 79c0 9421 9ec0 685d 8cc0
00000020: 0422 8cc0 41ea 82c0 d6a5 8ac0 c6e9 8fc0
00000030: a3cc 8cc0 d24e 1ebf 2ede cc40

dense2.batch_norm1.running_mean f4 [15]
0.19417863 0.21640615 0.061040945 2.581805 0.15084828 0.15187038 4.2986617 0.09805843
0.45566788 0.22874236 0.19195515 0.7348849 0.23436067 -0.1402295 -12.710549
00000000: c3d6 463e 9399 5d3e 1206 7a3d 4b3c 2540
00000010: f977 1a3e e983 1b3e a38e 8940 dcd2 c83d
00000020: 4d4d e93e 703b 6a3e e48f 443e 6b21 3c3f
00000030: 3efc 6f3e 5298 0fbe 695e 4bc1

dense2.batch_norm1.running_var f4 [15]
0.78445286 0.64818555 0.58812934 1.1346442 0.688514 0.5426388 1.5619974 0.64921224
0.7653024 0.60173714 0.7038693 0.88388926 0.7036774 0.09704267 2.093846
00000000: e7d1 483f 7def 253f a58f 163f 053c 913f
00000010: 7442 303f 60ea 0a3f 88ef c73f c632 263f
00000020: dcea 433f 720b 1a3f c730 343f 9146 623f
00000030: 3424 343f 4fbe c63d 9301 0640
