classification/model_rnafm/13_final/300Epoch/rna_type_checkpoint_fold_5.pt (torch, 252002 bytes, 24 tensors)

layer1.conv1.weight f4 [30, 30, 5]
000000 03 5e b4 be 5d f1 4c bf 08 10 ad 3f dd ee 6a 3f
       -0.35227975 -0.8005579 1.3520517 0.91770726
000010 6b 9a 5c 3f 05 4b 3d 3c 5c a3 05 3f a6 e7 ba bf
       0.86173123 0.011553531 0.5220239 -1.4601943
000020 c4 6c 92 bf 00 07 ae 3e 67 81 0f 3f 31 dd 00 bf
       -1.1439443 0.33989716 0.5605683 -0.5033751
000030 ed 9b 7f bf c3 7e bf be 5d d0 91 bd 3a 4f ec bc
       -0.998473 -0.374014 -0.0711982 -0.028846372
000040 ff 22 1b 3f 73 8a 68 bf 44 d5 86 bf 82 7a 41 bf
       0.60600275 -0.90836257 -1.0533834 -0.7557756
000050 f0 87 bb be e8 18 cf 3d 34 5f f6 3e 9f e2 9c 3f
       -0.3662715 0.10112172 0.4811951 1.2256659
000060 06 7f d4 bc de a3 30 be 2d 73 9b be 35 f5 1b 3f
       -0.025939476 -0.1725001 -0.3036131 0.6092103
000070 eb 8d 04 bf c9 fa 2d bf fb eb ca bd b3 2f 06 3e
       -0.5177905 -0.6796079 -0.09908291 0.13104133
000080 16 61 ee 3e 9a 11 0c 3f 1a 43 ce 3c 7c 41 cc bd
       0.46558446 0.5471436 0.02517848 -0.09973428
000090 53 96 11 bf 77 e5 a8 3e 7b a2 00 bf 8b 40 77 be
       -0.5687 0.32987568 -0.50247926 -0.24145715
0000a0 69 b1 8d be 5f 03 83 be d5 aa 9c be 6c 1e 6d bf
       -0.27674416 -0.2558851 -0.30599084 -0.92624545
0000b0 f0 97 ff be df 7e 6a 3e 1b 65 3a 3e f9 39 9f be
       -0.49920607 0.2289996 0.18202631 -0.31098917
0000c0 b3 95 29 be b5 a1 71 bd 3b a3 8d 3e 5b d8 40 3d
       -0.16561012 -0.058992106 0.27663597 0.047081333
0000d0 30 c5 31 bf 62 9e dd 3d 33 a7 1c 3e 3d 30 5a 3d
       -0.6944151 0.10821225 0.15298156 0.05326866
0000e0 8a de 73 3e 16 eb 49 3e 52 ad 01 3e 8b 36 79 ba
       0.2381536 0.19718584 0.12663773 -0.0009506724
0000f0 56 bf 51 3d 2e df 01 bd 29 69 f9 3e 82 ae e6 3e
       0.051207863 -0.03170698 0.48713043 0.45055014
000100 d6 e7 84 3e 8f 1a 79 bd 3a a4 51 3e 0e 07 2f 3d
       0.25958127 -0.060816344 0.20472804 0.042731337
000110 96 65 93 be 2c bb 9e 3e cc d5 4b bd 90 1f ad 3e
       -0.2878844 0.31002176 -0.04976444 0.33813143
000120 a5 46 66 3e 66 c0 94 3d c4 06 81 be 03 8f 60 3e
       0.22487886 0.072632596 -0.25200474 0.21929555
000130 2f 47 ab be 8a 79 ac bc b0 be 18 bc 23 ce 9e be
       -0.33452746 -0.021054048 -0.009322807 -0.31016645
000140 dd ac 24 3e 48 a7 93 3d 0f 62 97 3d c6 69 10 bd
       0.16081567 0.07209641 0.0739175 -0.035257123
000150 6c 19 a9 bd 36 74 9b be 19 e8 a8 be cc 83 ea bd
       -0.08256802 -0.303621 -0.32989576 -0.114509195
000160 7b 67 d1 3e 75 2a cf be be 19 dc 3c 35 5a 74 3d
       0.40899262 -0.4046208 0.026867744 0.05965634
000170 ce 31 12 bf 55 13 49 3e 46 c9 ba be c7 10 f2 3d
       -0.57107246 0.19636281 -0.36481684 0.11819606
000180 2b e2 35 be d3 21 2d be 7d 3d 6a 3e 83 a6 ec bd
       -0.17762057 -0.16907434 0.22875018 -0.11555197
000190 a2 ee cb 3e 39 5d c9 3d 0e 2b 26 3e fd 0f 0d be
       0.398305 0.09832234 0.16227362 -0.1377563
0001a0 ce d3 8f be 3c 33 26 bd 25 35 4e 3e 62 c6 68 bd
       -0.28091282 -0.040576205 0.2013746 -0.056829818
0001b0 56 3f 10 bf 30 d1 ed 3c f4 2f 23 be d5 e9 3c bc
       -0.5634664 0.029030412 -0.15936261 -0.011530359
0001c0 a0 07 13 3e c7 5e 87 be c5 13 3a 3d c9 d3 a4 be
       0.14358377 -0.26439497 0.04542901 -0.3219283
0001d0 e7 83 4d 3e 13 98 57 3e 9c a4 0f 3d a3 16 20 3e
       0.20069848 0.21054105 0.035069093 0.15633635
0001e0 c8 11 49 be de 86 66 3e b6 20 19 3d ba c6 31 3d
       -0.1963569 0.22512385 0.03738471 0.04340241
0001f0 2b d3 da bd b9 30 73 3e 0f 2c fb 3d 8a 12 a9 bc
       -0.10684808 0.23749055 0.12264263 -0.020638723
000200 3c e6 43 be 00 1f bf be 2d b2 60 be b0 e4 ab be
       -0.19130796 -0.3732834 -0.21942969 -0.33572912
000210 30 54 bc 3d 87 8d ae bd 9e 60 93 be e7 68 bf 3d
       0.09195745 -0.08523088 -0.2878465 0.093461804
000220 ae 98 9e bd 17 90 66 3e b4 b4 2d 3d 26 19 97 be
       -0.07743965 0.22515903 0.04240866 -0.29511374
000230 bc f7 43 be 86 a8 30 bc cc 0d f3 3e 7a 53 ab bb
       -0.19137472 -0.010782367 0.47471464 -0.005228457
000240 65 fb f1 bc 58 89 a5 3d 68 7e 38 bd 74 26 3f 3e
       -0.02953882 0.08082837 -0.045042425 0.18667012
000250 13 b9 16 bb 21 a2 c9 3e 92 49 1f 3f 16 d1 d0 3f
       -0.0022998496 0.39381507 0.62221634 1.6313808
000260 80 66 03 c0 70 be 07 bf e2 7a 7a 3e 49 ba d1 3e
       -2.053131 -0.5302496 0.24460939 0.40962437
000270 32 f8 7c bf 0c 78 6a 3f f3 ca 55 3f 84 ae fa bf
       -0.98816216 0.91589427 0.835128 -1.9584508
000280 ec 83 7f be 72 f1 e9 3d f6 f7 3e 3f c2 75 c8 bd
       -0.24952668 0.11423005 0.7459711 -0.097880855
000290 26 03 ff 3e fa e0 1d 3e 43 09 9a 3e 57 d3 c4 bb
       0.4980709 0.15417853 0.3008519 -0.006006639
0002a0 f9 f1 24 bf 4f c9 3d 3f 18 cf d8 3e 73 a1 01 be
       -0.6443172 0.741353 0.423455 -0.12659244
0002b0 75 91 f4 bf c9 df 76 be 73 7c e5 3e 6c 6a aa bf
       -1.910689 -0.24108805 0.4482151 -1.3313727
0002c0 2b 35 4c be 60 a2 e1 bd a9 11 79 3e e8 ae 16 be
       -0.19942157 -0.11017299 0.24323143 -0.14715159
0002d0 98 eb af 3e d2 51 e9 be 3a dc 4e 3e fb de 0d 3f
       0.3435943 -0.45570236 0.20201197 0.55418366
0002e0 49 11 f6 3e 8d a0 70 3e e0 4e 1a be 31 7e 63 3e
       0.48060063 0.23498745 -0.15069151 0.22216107
0002f0 28 b8 15 3e 03 70 7f 3e 4f fc 24 be d9 10 d4 bd
       0.14621031 0.24945073 -0.16111873 -0.10354776
000300 eb 00 90 be ab 5b 0c 3e 3e b0 9e 3e 78 01 be bd
       -0.281257 0.13706844 0.30993837 -0.09277624
000310 d9 e7 d9 3e 03 08 e2 3d 1e f3 58 3e 25 d7 8e be
       0.42559698 0.11036684 0.21186492 -0.27898517
000320 5b 59 f0 3d 9d a3 81 3e 50 d7 52 be 52 3a f7 bc
       0.11735793 0.2532014 -0.20589948 -0.030179176
000330 90 bd 8a be 4c 08 8d 3c 48 17 b0 3d e3 fb 9b be
       -0.2709775 0.01721587 0.085981905 -0.30465612
000340 f4 58 9c bd 7f 35 15 3d bb 35 96 3e 36 61 ed bb
       -0.07634154 0.03642797 0.29337868 -0.0072442545
000350 83 41 ee bd 2a db 6b bd 27 1e 90 3e bf 32 a9 3c
       -0.11633589 -0.057582058 0.28148004 0.02065408
000360 e1 64 b5 bd b1 60 b2 3e ba 42 c7 3d c9 5b f1 bd
       -0.08857132 0.34839395 0.09729524 -0.11785085
000370 01 70 31 be ce 24 90 be 89 65 ae 3d 44 b1 2c 3e
       -0.17327882 -0.2815308 0.0851546 0.16864496
000380 84 bd 37 be 6b c0 f8 bd 14 81 6c 3c 49 71 1f be
       -0.17943388 -0.12146076 0.0144350715 -0.15570559
000390 e4 b1 c1 3e 16 e2 f5 3d 45 e6 2b bd 4a 98 3f be
       0.37831032 0.12006013 -0.04196765 -0.18710437
0003a0 ab bf 0e be 5a 39 6f 3e cf 9a c3 bd 47 de a2 3a
       -0.13940303 0.23361722 -0.09551012 0.0012425863
0003b0 96 ed da bd 91 99 ad 3d 8c 72 4d be 2b f5 4c bb
       -0.10689847 0.08476556 -0.20063227 -0.0031274061
0003c0 5b e5 17 be 49 75 7b be f7 78 48 3e 30 e6 2c 3d
       -0.14833586 -0.2455646 0.19577394 0.04221171
0003d0 6c 88 76 be 26 9b 23 3e 00 0a 83 3e 86 b4 5c be
       -0.24075478 0.15977153 0.25593567 -0.21553239
0003e0 95 db 62 3e a1 cb 22 be f9 5d 5b 3e 10 4a 53 3e
       0.22154076 -0.15897991 0.21422566 0.20633721
0003f0 e7 8c 15 be 61 f4 e6 be fc 81 13 3d e3 9f 25 3e
       -0.14604531 -0.4510832 0.036012635 0.16174273

layer1.conv1.bias f4 [30]
000000 a6 d7 05 bc 18 26 1c be 6e d5 a9 bd 3b 6a 32 3e
       -0.00816909 -0.15248907 -0.082926616 0.17423336
000010 20 2a b6 bd e3 09 22 be e0 01 c4 3b c3 87 18 3e
       -0.088947535 -0.15824084 0.005981669 0.14895539
000020 b6 09 82 bc 1d 15 01 3d 49 e0 a5 bd 35 db 65 bd
       -0.015873771 0.031514276 -0.080994196 -0.056117255
000030 ec 18 be bd ef 20 3c be 06 41 81 3c 04 42 9e 3c
       -0.09282097 -0.18371938 0.015778076 0.019318588
000040 cc 67 27 bd 91 5f 49 3d 80 c9 4e 3d 01 0d 8b 3d
       -0.040870473 0.049163405 0.050485134 0.0678959
000050 3f 08 ff 3c 97 17 33 bc c5 85 35 bd 4a e5 1f be
       0.031131862 -0.010930917 -0.044317026 -0.1561481
000060 14 bf ba bc e4 2a da bd e9 04 91 bd bf ec 54 3d
       -0.022796191 -0.10652712 -0.07081015 0.05198359
000070 aa 8b 73 3c 97 a9 e1 bd
       0.0148648415 -0.11018675

layer1.bn1.weight f4 [30]
000000 b3 ff f8 3e 27 f7 9e 3f 4a 27 4b 3f 63 ef 52 3f
       0.48632583 1.2419175 0.79356825 0.82396525
000010 fa ed 4a 3f 07 d9 7f 3f af f7 0d 3f 99 92 5c 3f
       0.79269373 0.9994053 0.5545606 0.8616119
000020 4b ab 42 3f 14 cc 31 3f 23 68 83 3f 9b f3 80 3f
       0.7604262 0.69452024 1.0266155 1.0074342
000030 d1 24 8c 3f 15 2a 50 3f a7 39 93 3f a9 8f 45 3f
       1.0948735 0.8131421 1.1501969 0.77172333
000040 af 9c 8f 3f 51 76 6c 3f c8 be 5d 3f ac ac 86 3f
       1.1219691 0.92368037 0.86619234 1.0521445
000050 1d b2 49 3f bb 72 4e 3f 06 21 94 3f 09 62 7a 3f
       0.78787404 0.80643815 1.1572578 0.9780584
000060 28 73 20 3f 35 ca 58 3f 7b 67 2d 3f 33 ca 83 3f
       0.62675714 0.84683543 0.67736024 1.0296081
000070 4d ea 4f 3f f2 eb 88 3f
       0.8121689 1.0697005

layer1.bn1.bias f4 [30]
000000 2e b3 72 3e a6 f5 d7 3e 5b 0b 18 bd 58 c1 de 3c
       0.23701164 0.42179602 -0.037120204 0.027191803
000010 7a d4 c6 3d 36 51 0e 3e 61 4e 04 3e 80 46 be 3d
       0.097084954 0.13898167 0.12920524 0.092907906
000020 92 52 f9 3d 32 e5 f3 bb 93 23 b5 3c d9 89 9e 3c
       0.12173952 -0.0074430937 0.02211169 0.01935284
000030 0f 48 9d 3d f2 41 36 3e 01 cb 96 3d 99 45 f1 3c
       0.0767976 0.17798594 0.07362939 0.029452132
000040 5b d1 68 bd a5 31 f9 3d ae 2f ea bc 99 45 28 3d
       -0.056840282 0.12167672 -0.028587189 0.041082
000050 71 bd f5 3c 5d 4f 23 be 69 c6 cf bc 9a ae 2f bd
       0.02999756 -0.15948243 -0.025363164 -0.042891122
000060 d5 85 82 3d 79 5a b3 3d 92 71 e6 bd 49 fe 5c bc
       0.06373183 0.08757491 -0.112521306 -0.013488361
000070 b7 09 e0 3b 67 b1 9c 3c
       0.0068370956 0.01912756

layer1.bn1.running_mean f4 [30]
000000 33 7a 9f bc 2d 0e 1d be b9 05 f2 bd 80 4e 2f 3e
       -0.019467449 -0.15337439 -0.11817498 0.17119789
000010 2f 58 d5 bd 36 a6 22 be ef f1 f1 bb 60 dd 00 3e
       -0.1041721 -0.15883717 -0.007383577 0.12584448
000020 b4 97 10 bd e9 b9 1c 3d 1f 49 c0 bd 10 2a 99 bd
       -0.035300925 0.038263235 -0.09388947 -0.07478726
000030 26 e7 be bd 88 77 4b be ed d5 48 3c 1b 9b 0a 3c
       -0.09321432 -0.19869816 0.012258035 0.008459832
000040 74 ac 75 bd 05 5a 34 3d 07 f4 ea 3c 22 33 61 3d
       -0.059978917 0.04403116 0.028680814 0.054980405
000050 94 19 69 3c 36 a5 c5 bc a5 7f 07 bd 1e b5 10 be
       0.01422729 -0.02412663 -0.033080716 -0.1413159
000060 6a 51 f3 bc 16 4f d3 bd 99 43 87 bd 37 3f fe 3c
       -0.029701907 -0.10317819 -0.0660469 0.031036003
000070 15 29 76 3c c3 6e fc bd
       0.015024443 -0.123258136

layer1.bn1.running_var f4 [30]
000000 b4 c3 42 40 78 0d e8 3f d5 32 75 41 54 96 5a 40
       3.0431948 1.812911 15.32491 3.4154253
000010 7b ee 93 40 5b 73 d0 40 fd b9 8f 40 0b b3 d2 40
       4.6228614 6.5140815 4.4914536 6.584356
000020 b6 36 73 40 22 ae db 40 97 3a b3 40 07 9e 7c 40
       3.8002143 6.8650064 5.600902 3.9471452
000030 9a 7f 28 40 e9 80 32 40 8f 36 7b 40 f1 52 00 40
       2.6327882 2.789118 3.925205 2.0050623
000040 ea a1 9a 40 4a 86 34 40 15 be fa 40 79 24 6f 40
       4.832265 2.8206964 7.8357034 3.736601
000050 63 0e bc 40 68 16 23 40 24 4b 0c 41 97 02 bf 40
       5.876756 2.5482426 8.768345 5.969066
000060 e3 f1 19 40 36 a1 00 41 b8 70 9e 40 b6 9d de 40
       2.4053886 8.039358 4.9512596 6.956752
000070 e4 a4 2a 41 c5 3e 86 40
       10.6652565 4.1951623

conv1.weight f4 [30, 30, 5]
000000 9b 04 7b 3e e4 71 fb 3e 8f cc 8f be 7a 74 4d 3e
       0.24513476 0.4911033 -0.28085753 0.20063964
000010 7c ba 34 3f 2f 8c a4 be d1 35 48 be bb 51 57 3f
       0.7059705 -0.32138202 -0.1955178 0.84109086
000020 45 b4 bc bd 08 14 45 bf 4b 4b 84 be f6 bf 20 bf
       -0.09214071 -0.7698369 -0.25838694 -0.6279291
000030 bd 4c 2d bf 17 d5 08 bf 59 73 84 3e 93 dc 09 be
       -0.6769522 -0.5345015 0.25869253 -0.13463049
000040 3e fd b9 3d ff 40 ff 3e 9c 3a e3 3c 49 69 30 3f
       0.09081505 0.49854276 0.027737908 0.6891065
000050 13 40 8f 3e 0e a3 73 3d 4d 76 1e bd dc d3 26 bf
       0.27978572 0.059481673 -0.03868704 -0.6516702
000060 84 6e 10 bf ec aa f8 be 56 57 20 bf c5 20 5d bd
       -0.56418633 -0.48567903 -0.62633264 -0.05398633
000070 af 94 c2 be 08 15 80 3c 38 e8 21 3e 64 d0 4e 3e
       -0.38004062 0.015635028 0.1581124 0.20196682
000080 3e 26 12 3e 53 35 1b be 5c 63 0c 3d e0 90 ca 3e
       0.142724 -0.1515706 0.034274444 0.39563656
000090 36 88 de bd 46 96 1c be 89 aa 3e 3f 07 62 ea 3e
       -0.10865824 -0.152917 0.74478966 0.45777914
0000a0 c8 72 e5 3e 7c 69 94 3e 47 f0 45 3e b1 9b 92 3d
       0.44814134 0.28986728 0.1932994 0.07158602
0000b0 37 f9 16 3f 70 b2 ef 3e 02 b3 93 3d bd 96 59 3e
       0.5897402 0.46815825 0.072118774 0.21248908
0000c0 c5 00 19 be 60 69 89 be 87 98 97 bd c9 49 09 3f
       -0.149417 -0.26838207 -0.07402139 0.5362821
0000d0 5e 21 71 3d 77 e6 a1 3e 91 e8 16 3f 0c d1 34 3b
       0.058869712 0.31621143 0.5894862 0.0027590422
0000e0 0f af b4 be e5 c2 43 bf 2f 41 7d 3e 0c 44 bd be
       -0.3528981 -0.7646926 0.24731897 -0.36965978
0000f0 13 c4 ac bd 51 db 39 be bd 31 c0 be b7 95 24 3f
       -0.08435836 -0.18150069 -0.37537947 0.64290947
000100 72 75 e0 3e bf fa 1e 3e 16 ed a1 3e 49 f5 93 be
       0.43839604 0.1552534 0.31626195 -0.28898075
000110 9c 8b 18 3f 70 87 09 3f c2 6e 11 3d 15 03 b7 be
       0.59588027 0.53722286 0.035506018 -0.3574454
000120 b4 93 e6 bc b0 f3 49 3f dd 33 81 be 53 db 5c bd
       -0.028146602 0.7888746 -0.2523488 -0.0539201
000130 30 05 25 bf 51 ac af 3e 6a 3c 55 3d 0c 22 a0 be
       -0.6446104 0.34311154 0.05205957 -0.31275976
000140 c6 0b 7b be bb 60 da be 40 38 b9 bd b4 b2 46 be
       -0.2451621 -0.42651924 -0.09043932 -0.19404107
000150 73 4b 1a bf f6 69 92 be ba 3b cd be 88 5e c4 be
       -0.60271376 -0.28596467 -0.4008463 -0.38353372
000160 3c fc 2e 3c 4d 4d 47 be 48 8d 23 be ff 9f a3 bd
       0.010680255 -0.19463082 -0.15971863 -0.07989501
000170 58 28 e3 3d eb f3 29 bf 1a ee 1a bf 2d ca bd 3e
       0.11091679 -0.66387814 -0.60519564 0.3706831
000180 df 2e ed be 4a 44 02 be 03 dd 32 bf d4 ec c1 be
       -0.46324822 -0.12721363 -0.6986849 -0.37875998
000190 53 55 9b 3e 38 de 87 be e3 47 c0 be a7 7a 70 be
       0.30338535 -0.26536727 -0.37554845 -0.23484288
0001a0 fd fb 0c bf b5 19 66 3e fc 78 3c be c8 c8 a3 bb
       -0.55072004 0.22470744 -0.18405527 -0.0049983
0001b0 31 ff 15 bf 94 6d 91 3d b6 74 89 be 32 52 34 bf
       -0.58592516 0.071009785 -0.26846856 -0.7043792
0001c0 88 84 9b 3e e2 d0 a2 be 52 80 0f 3d 4c 2d 03 bf
       0.3037455 -0.3179999 0.035034485 -0.5124099
0001d0 ef ae de be 5f 52 a9 be 30 99 33 be b7 36 eb 3e
       -0.4349284 -0.33070657 -0.17538905 0.45940182
0001e0 3f 57 47 3e 8f 38 86 bd 2f 07 d3 be d0 21 9d be
       0.19466875 -0.065537564 -0.41216418 -0.3068986
0001f0 e5 28 a5 3e c3 88 13 bf ac fa 23 be ec dc e8 be
       0.32257763 -0.57630557 -0.16013592 -0.4548105
000200 7c a6 a2 3d 3a f5 c0 be 8f f3 c9 bd 70 9a 70 bc
       0.079419106 -0.37687093 -0.09860908 -0.014685258
000210 bb 23 97 3e f0 ee 0e 3d 5a b7 4e bf 17 9b da 3e
       0.29519448 0.034895837 -0.8074852 0.4269645
000220 ab 8d d9 be 4b cc bd bd 11 9b 11 be c7 fc 3a bf
       -0.42490897 -0.092674814 -0.1421931 -0.7304196
000230 9f a3 15 3d fd 9e 02 bf 9c de 74 be 9b fa fb bd
       0.036532994 -0.51023847 -0.23913044 -0.123036586
000240 7a 35 1e 3c b3 4d e6 3d e2 40 c1 3d 5d b0 05 bf
       0.0096563045 0.11245289 0.094362035 -0.52222234
000250 5d 0e 8c be 6f 00 cc 3c 51 6e 85 3e 1a 60 10 3f
       -0.27354708 0.02490255 0.26060727 0.5639664
000260 36 5f ad be 7b 9b 4d 3e bc 96 1f 3f 3e 72 96 be
       -0.33861703 0.20078842 0.6233938 -0.29384035
000270 f9 de 8b be fa 1f 52 3f 07 ef f4 bd dc 13 4b bf
       -0.27318552 0.8208004 -0.11959653 -0.7932718
000280 77 7b 8d be c1 48 1d bf f2 18 19 bf 51 0a 08 bf
       -0.2763326 -0.6143914 -0.5980369 -0.5314074
000290 83 33 88 3e 6d 08 30 be d5 24 d4 3d fa a3 f8 3e
       0.266018 -0.17190714 0.10358588 0.48562604
0002a0 be 75 eb bc 51 d3 29 3f d1 ea be 3e 4d 24 94 bd
       -0.028742667 0.6633807 0.37288526 -0.07233486
0002b0 e5 42 6a bd 1c 11 2a bf b7 19 17 bf f6 5d 0a bf
       -0.0571927 -0.66432357 -0.5902361 -0.54049623
0002c0 84 d4 29 bf 26 b4 fa bc 3c 9c c7 be ba ef cf 3d
       -0.663399 -0.03060348 -0.38986385 0.10153146
0002d0 94 c5 e6 3d ed a6 19 3e cc b5 0c 3e 4e 42 27 bd
       0.11268154 0.15005083 0.13741225 -0.040834717
0002e0 c2 68 49 3d 6c cb db 3e 61 47 46 bd 07 97 f6 bd
       0.04917217 0.42928636 -0.048407916 -0.12040525
0002f0 4a 5d 44 3f 29 33 c6 3e ae 8d d4 3e a0 62 72 3e
       0.7670485 0.38710907 0.41514343 0.23670435
000300 07 0b 4f 3e 9f 1d f6 3d b6 ec 17 3f 45 7c c6 3e
       0.2021905 0.120173685 0.5934557 0.38766685
000310 08 ed 04 3e 94 bb a0 3e a4 c8 4e be 8e a0 4f be
       0.12981045 0.3139311 -0.20193726 -0.2027609
000320 6a 3a ba bd 2c 44 1d 3f 22 02 a6 3d ea e3 b1 3e
       -0.09093173 0.6143215 0.081058756 0.34744197
000330 a3 fd 20 3f 0c fa a3 3d bb de b9 be 22 73 3d bf
       0.6288702 0.08006677 -0.36302742 -0.74003804
000340 d2 a1 4b 3e dc f8 ac be dd 8e 70 bd 58 fb 85 be
       0.19885948 -0.33783615 -0.058729995 -0.26168323
000350 c9 75 cc be 87 d4 38 3f 43 57 e0 3e de 13 f5 3d
       -0.39933613 0.7219929 0.43816575 0.1196668
000360 b7 07 98 3e 30 56 4c be d9 45 18 3f fb da 00 3f
       0.29693386 -0.19954753 0.5948158 0.5033414
000370 75 24 37 bd 9e 2e c7 be 45 cf a3 3c 61 42 3d 3f
       -0.044712503 -0.38902754 0.019996295 0.7392941
000380 8d 65 94 be 61 d1 7a bb 56 a4 18 bf f1 cf be 3e
       -0.28983727 -0.0038271772 -0.59625757 0.37268022
000390 0a 45 dc 3d d9 89 b9 be 52 2e 7c be ba 22 de be
       0.10755356 -0.36237982 -0.24627045 -0.4338587
0003a0 fd 0b 99 bd 00 89 60 be 3d 53 2a bf 6d 5f b0 be
       -0.0747299 -0.21927261 -0.6653326 -0.34447804
0003b0 08 5e cb be e4 85 e0 be 0e 23 83 3d 8a e5 32 be
       -0.39720178 -0.4385215 0.064031705 -0.17470375
0003c0 06 2c 0b be fa 2e e1 bd cc 7d a6 3d 68 7f 3c bf
       -0.13591012 -0.10995288 0.081294626 -0.73631907
0003d0 89 c7 11 bf 9c 77 9b 3e 53 29 e8 be 9b b0 d2 bd
       -0.5694509 0.30364692 -0.45344028 -0.10287591
0003e0 e9 39 35 bf b9 33 a4 be 7c 5a 87 3e 69 52 80 be
       -0.7079149 -0.3207071 0.26436222 -0.25062874
0003f0 ba 1f d1 be f7 55 7d be 2e a6 10 bf 5d e4 73 3e
       -0.40844518 -0.24739824 -0.5650357 0.23817582

conv1.bias f4 [30]
000000 67 bd 80 3c 74 b2 f7 bc e5 2a e7 bd 5e ba 75 3c
       0.015715314 -0.03023646 -0.11287478 0.014998047
000010 8a 7e 91 3b 28 68 c5 bd b0 4c 83 bd a2 52 3e 3c
       0.0044401335 -0.09639007 -0.06411111 0.011616381
000020 9c be bc 3c 26 d5 b4 bd df aa 4e bd 3d df aa bc
       0.023040108 -0.08829717 -0.050455924 -0.020858401
000030 f1 a5 4d 3c f3 22 12 3d 77 5f 93 bd a4 21 c5 3d
       0.012551771 0.03567786 -0.07195943 0.09625557
000040 47 c3 df bc b3 a0 2e bd e1 b2 a0 3d b3 00 0b 3d
       -0.027314795 -0.042633723 0.078466184 0.033936214
000050 14 7b 97 bd c9 ef f8 3c 7f 7b a7 3a 12 56 83 bd
       -0.07396522 0.030387776 0.0012777894 -0.06412901
000060 69 15 56 3d ef f0 4b 3d 97 c9 58 bd 93 b7 ad bc
       0.052266512 0.04979032 -0.052926626 -0.0212057
000070 1c 85 9a bd 13 ee 25 3d
       -0.0754492 0.04051025

bn1.weight f4 [30]
000000 13 36 9b 3f 15 8a 9a 3f 2c 8b 95 3f cf 09 8e 3f
       1.2125877 1.2073389 1.1683097 1.1096743
000010 c7 1e 92 3f ce 27 8b 3f 6a 67 85 3f e1 ad 76 3f
       1.1415642 1.0871522 1.0422184 0.9635907
000020 15 bf 6f 3f b6 9a 62 3f 44 0b 5d 3f 3e c3 56 3f
       0.93650943 0.8851732 0.86345315 0.83891666
000030 45 bc 58 3f 48 ff 43 3f a6 fc 44 3f 50 ad 51 3f
       0.84662277 0.76561403 0.7694801 0.8190508
000040 69 50 4a 3f c0 b1 4c 3f ae 60 3d 3f 28 0e 46 3f
       0.79028946 0.79958725 0.73975646 0.7736535
000050 35 28 35 3f 08 c1 36 3f ce e9 2b 3f 18 27 2d 3f
       0.70764476 0.7138829 0.6715363 0.6763778
000060 77 b6 20 3f aa 89 28 3f 07 1b 37 3f a7 0d 49 3f
       0.6277842 0.6583506 0.71525615 0.78536457
000070 74 ad 50 3f 8c 92 07 40
       0.8151467 2.1183195

bn1.bias f4 [30]
000000 24 13 6d bc 75 a3 97 3b ca e3 0d bc d9 05 5c 3c
       -0.0144698955 0.00462764 -0.008660266 0.013429129
000010 99 6a 9b 3c 50 89 ae 3c 86 33 24 3d 04 5c 5f 3d
       0.018971728 0.02130571 0.0400882 0.054531112
000020 c7 c5 a3 3d d7 d7 8d 3d df a0 c2 3d a3 1a d7 3d
       0.079967074 0.06925934 0.0950334 0.105031274
000030 37 bd f0 3d 61 43 04 3e b2 e5 05 3e 03 aa c3 3d
       0.1175484 0.12916328 0.13075903 0.095539115
000040 a7 ff e1 3d aa ed ff 3d f5 d6 0d 3e 13 ea 15 3e
       0.1103509 0.12496503 0.13851531 0.14640073
000050 18 b0 46 3e 8d 12 56 3e 70 94 54 3e 26 ed 5e 3e
       0.19403112 0.20905514 0.2075975 0.21770152
000060 27 c6 85 3e d4 a3 84 3e 72 4d 87 3e 4b dd 73 3e
       0.2612774 0.2590624 0.26426274 0.23814885
000070 e8 18 65 3e a9 06 98 3e
       0.22372782 0.2969258

bn1.running_mean f4 [30]
000000 30 4d 0b c0 8f 68 0e c0 c9 93 06 c0 f0 87 fc bf
       -2.1765862 -2.2251318 -2.10277 -1.9728985
000010 5c 48 08 c0 2e a3 f4 bf 97 21 05 c0 87 1e e6 bf
       -2.1294165 -1.9112298 -2.0801752 -1.7978066
000020 3e a1 c2 bf 87 01 11 c0 5f 6e 03 c0 7d 2e 05 c0
       -1.5205457 -2.2657182 -2.0536115 -2.0809624
000030 0a 88 05 c0 df b2 03 c0 62 79 16 c0 c1 c7 15 c0
       -2.0864282 -2.0577924 -2.3511586 -2.340317
000040 65 10 14 c0 43 d5 27 c0 36 c4 0f c0 b1 a4 20 c0
       -2.3135006 -2.6223915 -2.2463508 -2.510052
000050 13 e9 11 c0 78 55 fd bf 75 bf 07 c0 14 f6 00 c0
       -2.2798507 -1.9791708 -2.1210606 -2.0150194
000060 b3 5a f6 bf b0 17 f0 bf cf 01 14 c0 3d 0b 1e c0
       -1.9246429 -1.8757229 -2.3126104 -2.469436
000070 ee 28 13 c0 d6 40 28 3f
       -2.2993731 0.6572393

bn1.running_var f4 [30]
000000 47 c7 94 41 ac a9 93 41 b9 b4 89 41 2f 1e 87 41
       18.597303 18.457848 17.213243 16.889738
000010 2d 9f a0 41 f9 41 9c 41 7d 2a 95 41 a8 8d 8e 41
       20.077723 19.532213 18.645746 17.819168
000020 19 8f 89 41 e5 d5 9c 41 fc 9a a8 41 cb d0 b8 41
       17.194872 19.60444 21.075676 23.10195
000030 f9 a0 b4 41 ba a5 b1 41 a3 ee b7 41 7a e8 dd 41
       22.5786 22.205921 22.991522 27.738514
000040 ae 69 af 41 e9 02 aa 41 6a 9b a2 41 57 b1 a8 41
       21.926601 21.251421 20.325886 21.086592
000050 77 ff 9f 41 8e 20 c4 41 fa 08 bb 41 a2 a4 bd 41
       19.999739 24.515896 23.379383 23.705387
000060 8c 69 98 41 46 a1 9c 41 2e 8e bc 41 33 1f ef 41
       19.051537 19.578747 23.569424 29.890234
000070 cc 23 e6 41 82 e7 aa 40
       28.767479 5.34076

dense1.dense.weight f4 [96, 512]
000000 bd a0 9b be e9 cf de be 06 34 13 3e 19 93 4a 3f
       -0.3039607 -0.43517998 0.14375314 0.79130703
000010 38 5e 95 3e 71 22 9b 3f 52 40 2f be dd 71 d1 3e
       0.29173446 1.2119886 -0.1711438 0.40907183
000020 09 15 b1 3f 1c c0 c1 be 3b ba 8c 3e b7 41 6a 3d
       1.3834544 -0.3784188 0.27485833 0.057191577
000030 23 55 1b bf 6b 74 59 3e 1e d3 72 3d bb 5e 13 3d
       -0.60676783 0.21235816 0.05928337 0.035979014
000040 34 7b 59 be 98 21 b7 be 74 68 8b be 20 8f 96 bd
       -0.21238405 -0.35767817 -0.2722813 -0.07351518
000050 19 50 a5 3e d8 e1 73 3d 9e f7 15 be d0 4d 69 be
       0.32287672 0.059541553 -0.1464524 -0.2278359
000060 69 f9 01 3b 56 c3 45 bf 64 49 d8 be 21 bc 12 3e
       0.0019832498 -0.77251184 -0.42243493 0.14329578
000070 3e f8 83 3d b5 f4 22 3f 0b ef 98 3e e0 58 03 bf
       0.06443833 0.63654643 0.29869875 -0.5130749
000080 86 14 9a 3e 5e f5 b2 bd 18 ce e4 be 43 22 f1 bf
       0.30093783 -0.08738206 -0.44688487 -1.8838581
000090 fd 10 08 3e d5 f9 80 3e df f7 81 be b9 a3 7d 3e
       0.1328773 0.25190607 -0.25384423 0.24769486
0000a0 da 56 10 3e c7 91 ec bc 81 6c e9 3d 96 8d 84 3d
       0.14095631 -0.028878106 0.113976486 0.06472318
0000b0 4c 2b 13 bf 5b 58 df 3e bb a3 d4 3e 34 13 ca 3e
       -0.5748794 0.43622097 0.41531166 0.39467776
0000c0 69 5e b6 3e 65 0f eb 3c e2 92 23 3e 9b 05 22 bf
       0.35618904 0.028693864 0.15974 -0.63289803
0000d0 a7 ba 31 bf e8 3d 09 3d f9 98 84 3e 29 ec f1 3e
       -0.69425434 0.033506304 0.2589796 0.47250488
0000e0 99 d7 62 3f ce a3 54 3f 2b 57 a7 3d 25 4d d3 be
       0.88610226 0.83062446 0.08170923 -0.41269794
0000f0 b5 3a b4 3e d6 95 a0 3e 42 d2 61 3e 29 9b a4 bf
       0.3520104 0.31364316 0.22052863 -1.2859851
000100 3e 47 38 3d ba cc f6 be e8 c8 2e 3e 12 26 03 3f
       0.044989817 -0.4820307 0.17068827 0.51229966
000110 9e b0 25 bd 62 e7 76 3e 87 18 96 3e ae ea 4d 3e
       -0.04045164 0.24111703 0.29315588 0.20109054
000120 0d 29 81 3e 1b af 1f bf 2e 50 0f bf 8b 80 9b be
       0.25226632 -0.62376565 -0.5598172 -0.30371508
000130 99 8d 18 3a 90 6e 89 3e 3b 5c 9c 3d d3 27 dd bd
       0.00058194395 0.26842165 0.07634779 -0.107986115
000140 00 1a 08 3e 42 79 37 be 01 90 92 bd 66 ca fc 3d
       0.13291168 -0.1791735 -0.07156373 0.12343292
000150 ad 3c 57 be 5b 4a 72 bd 8b 04 a1 3e 5d 9f 25 bf
       -0.2101924 -0.059152942 0.3144878 -0.64696294
000160 89 6a bb be 03 03 f9 bd 59 b9 8b 3d 1d 26 97 3e
       -0.36604717 -0.121587776 0.06822462 0.29521266
000170 e8 49 e7 be 35 fc 92 be e0 d7 2b bf 95 2f 80 3f
       -0.45173573 -0.28708044 -0.67126274 1.0014521
000180 ba d1 ef be b1 09 b6 be 9d 0d 08 be 7b 3e fc bd
       -0.46839696 -0.3555427 -0.13286443 -0.12316605
000190 22 25 11 3d f3 69 f2 3e da 8d 97 3e 26 57 77 3d
       0.035435803 0.47346458 0.29600412 0.060385846
0001a0 e3 7d af bd 1d 68 e1 be 3f f4 a2 bd 04 5c 7e 3f
       -0.08568933 -0.44024745 -0.079567425 0.99359155
0001b0 47 e1 38 3e 83 74 ea 3e 90 9b 56 3e a3 ee cd 3e
       0.18054686 0.45792016 0.2095778 0.40221128
0001c0 53 61 9a bc 60 7e 24 be 8f 4c 58 bd 89 15 3c be
       -0.018845236 -0.16063833 -0.052807387 -0.1836759
0001d0 68 3f ba 3e db 2a b7 be 0d 0a 9c 3e 1a d3 06 bc
       0.363765 -0.35774884 0.30476418 -0.0082290415
0001e0 e7 51 7f be a8 7f 0f 3e 12 27 35 3d 84 f1 2b 3f
       -0.24933587 0.1401354 0.044226713 0.671654
0001f0 12 73 ab bc b1 5c e8 be f0 d1 c6 be f5 12 1c be
       -0.020928893 -0.45383218 -0.38832045 -0.15241607
000200 9b a9 13 be 3f 4c 64 be d3 71 27 bf 15 09 4b 3e
       -0.14420168 -0.2229471 -0.65408057 0.19827683
000210 cf c7 b6 3e 34 54 18 3e 5b 47 f8 3d 19 39 1d bf
       0.35699317 0.14875871 0.12122985 -0.6141525
000220 66 47 be be 77 61 e8 3e d2 f5 3f 3f a0 ce 1d bf
       -0.37163848 0.4538686 0.7498447 -0.6164341
000230 a6 12 67 bd d5 d1 ef 3e e0 fb 89 3e a5 1d b5 bc
       -0.05641427 0.46839777 0.26949978 -0.022108862
000240 bf 39 27 3e 01 ba ff 3e 69 99 2f be 74 2d 4c bf
       0.16330622 0.49946597 -0.17148365 -0.79756856
000250 b0 4c 71 3d 36 1d a0 bd 45 00 d7 bd 73 3b d9 3e
       0.058911026 -0.078180715 -0.10498098 0.4242817
000260 ac 99 81 3b a0 8f e2 be e1 86 13 be ec b3 19 3e
       0.0039550867 -0.44250202 -0.14406921 0.15010041
000270 56 53 a3 be 56 3f 00 3f f6 56 11 3f 8b 44 51 bf
       -0.31899518 0.5009664 0.56773317 -0.81745213
000280 47 9d 83 3e bb 5d a4 be 26 3a 6b 3c e5 d0 38 be
       0.2570593 -0.3210276 0.014357125 -0.18048437
000290 73 ae 0b be ed 4f cb 3e c4 8a 51 3f 5d 10 6a be
       -0.13640766 0.39709416 0.81852365 -0.22857805
0002a0 4a 93 98 be 60 1d b8 3e 94 d3 e3 bd 58 23 26 bd
       -0.29799873 0.3595991 -0.1112434 -0.04056105
0002b0 94 53 a5 be de 9d b8 3e ea 62 e7 be 39 38 9e be
       -0.32290328 0.36057943 -0.45192653 -0.3090227
0002c0 43 56 5c 3e 93 3b 09 3f 77 6f da be a4 af 7c 3f
       0.21517281 0.5360653 -0.42663166 0.98705506
0002d0 64 da 6a be 7b 69 b6 bd b7 ca 54 bf a7 78 bb be
       -0.22934872 -0.089068376 -0.8312182 -0.36615488
0002e0 c3 3e ef bd 5a 3a b9 be d8 3b 6d 3e 36 0f 23 be
       -0.11681893 -0.3617733 0.2316736 -0.15923771
0002f0 5f e5 ba be 38 c6 9a 3e 1e 08 b2 3c c2 58 8f bf
       -0.3650312 0.30229354 0.021732386 -1.1198962
000300 4a d4 1a 3f b9 ca a7 3e bc c0 ca bd a7 bf b3 3e
       0.6048018 0.32771853 -0.099000424 0.35107157
000310 43 0d 27 3f f5 ce ed bd 42 5b 44 be b2 0e 4d 39
       0.6525461 -0.116117395 -0.19175437 0.00019555798
000320 80 06 f0 be db 38 5f bd a5 ee 3c be ee 57 14 bf
       -0.4687996 -0.05449758 -0.1845041 -0.5794667
000330 9a 6e 42 be c9 c2 2b be a2 79 62 be 9e 17 28 be
       -0.18987504 -0.16773523 -0.22116712 -0.16415259
000340 db 58 a4 3d db 6f 96 3d d1 75 1d 3f 2d 4d 2c be
       0.0802476 0.073455535 0.615079 -0.16826315
000350 4e 99 1c bf 41 fd 9b 3f a4 38 f9 3d 71 14 5d 3e
       -0.61171424 1.2186662 0.121690065 0.21589829
000360 be df 5d be d3 ae 38 be 67 7d d6 3d 62 7a 11 3f
       -0.21667382 -0.1803544 0.10473137 0.56827366
000370 49 ca 25 bf 10 37 04 3f 74 61 b2 3e 75 7a 0d be
       -0.6476179 0.5164652 0.34839976 -0.13816245
000380 06 e8 88 be be 47 ca bc f6 41 e2 3e 6b 2c ac be
       -0.2673952 -0.024692412 0.4419095 -0.33627638
000390 ff d7 72 3e 2b 1d 35 3f 40 c4 07 be 24 64 58 be
       0.23715208 0.7074763 -0.13258457 -0.2113195
0003a0 a9 6e 4a bd f8 0d 78 3e ce ad 84 3c 84 11 7a be
       -0.04942194 0.24224079 0.016196158 -0.24420744
0003b0 17 9b 27 bf b8 b9 a3 3e 44 05 90 3c 2f 0f d6 be
       -0.65471023 0.3197763 0.017580636 -0.4180846
0003c0 e6 cb 9f 3e c5 f1 22 3f 9a b6 95 be 9c 83 52 3d
       0.3121025 0.6365016 -0.29240876 0.051395044
0003d0 8c cc f6 3e 21 04 cd be 72 e3 88 3e 20 05 3e 3f
       0.48202932 -0.40042213 0.26736027 0.7422657
0003e0 36 94 14 3e 68 dd e0 be 4b 08 39 bf e8 0a 63 3f
       0.14509663 -0.4391892 -0.7227828 0.88688517
0003f0 fa 22 2f bc 0f f7 68 3e 88 76 5f bd a9 21 41 be
       -0.010689491 0.22750495 -0.0545564 -0.18860497

dense1.dense.bias f4 [96]
000000 d3 b0 b8 3d d5 b5 13 3e fb 49 7c 3e 72 a4 2e 3e
       0.090181015 0.14424832 0.24637596 0.17054918
000010 94 c4 f8 3d 20 c3 45 3d 98 90 05 3e a1 bb 23 3e
       0.12146869 0.04828179 0.1304344 0.15989543
000020 36 67 61 3e 95 6b a8 3e ad ba 23 3d 3f cc a9 3d
       0.22012028 0.3289458 0.03997295 0.0829091
000030 ca a7 b3 3e 7d b9 1a 3e 15 36 45 3e 46 cb 5d 3e
       0.3508895 0.1510982 0.19258912 0.21659574
000040 23 aa 1f 3e 94 dc 7e 3d 6b 79 c8 bd a7 2e d6 bd
       0.15592246 0.06222208 -0.09788784 -0.10458117
000050 ac f6 08 3e f5 4d 40 bf 3c 56 b5 3d 87 58 f2 3d
       0.13375348 -0.75118953 0.088543385 0.118332915
000060 76 a9 88 3d f5 2b 1d 3e 71 7b 55 3e a0 44 9c 3d
       0.06672947 0.153488 0.2084787 0.07630277
000070 4f ba 53 3e c5 c9 93 3e 9d e8 13 3e ec a8 9e 3e
       0.2067654 0.28864875 0.14444204 0.30988252
000080 d5 8a 04 3e 9d 92 72 3e 50 40 8d 3e ee 93 47 3e
       0.12943585 0.23688741 0.2758813 0.19490024
000090 8d 70 84 3d 50 9a bd 3e 23 92 22 3e ff ae be 3d
       0.0646678 0.37031794 0.15876059 0.093107216
0000a0 91 4e 24 3e 33 10 28 3e bb ac 50 3e 61 a5 56 3e
       0.16045596 0.1641243 0.20378391 0.20961525
0000b0 09 42 53 3e 77 da 04 3d 76 67 8f 3e 74 c2 1b 3e
       0.20630659 0.032434907 0.28008622 0.15210897
0000c0 b1 f4 a6 3d 74 38 d7 3d de 67 24 3e 08 b7 08 3e
       0.0815214 0.105088145 0.16055247 0.13351071
0000d0 0c ee 28 3e 84 90 3b 3e f6 fb b8 3d 13 66 09 3e
       0.16497058 0.18316847 0.09032433 0.13417844
0000e0 a7 21 16 3e 42 85 36 3e 86 f0 8a 3e 60 80 15 3e
       0.14661275 0.17824271 0.2713663 0.14599752
0000f0 0a ea be 3d b7 4b 8e 3e 81 1f 81 3e e5 49 22 3e
       0.09321983 0.2779214 0.25219348 0.15848501
000100 2a 05 9a 3d 01 13 4f 3e ee 33 0a 3d 8c d9 0f 3e
       0.07520516 0.20222093 0.03374093 0.14047831
000110 b3 07 8b 3e 7a e9 06 3e 84 84 27 3e 3b 62 74 3d
       0.27154312 0.13175002 0.16359144 0.059663992
000120 1c f9 05 3d 5e bf 4d 3e 2e cd 59 3e a9 55 94 bf
       0.032708272 0.20092532 0.21269676 -1.1588641
000130 67 d3 e7 3d ba e9 10 3e 88 6c 02 3e 02 e7 70 3d
       0.11319619 0.1415166 0.12736714 0.058814056
000140 83 8d 30 3e 6a 4d 0a 3e 29 b3 11 3e b7 5f 43 3d
       0.17241482 0.13506094 0.142285 0.047698703
000150 88 2a d5 3d b7 00 89 3e 70 73 a4 3e a2 f4 a2 3e
       0.10408503 0.26758358 0.32119322 0.31827265
000160 29 14 82 3e da c3 4e 3e 34 01 18 3e 30 fe 19 3e
       0.25406006 0.20191899 0.14844209 0.15038371
000170 7a 21 8b 3e 50 e3 89 3e 25 77 4d 3e 24 db 18 3e
       0.27173978 0.26931238 0.20064981 0.14927346

dense1.batch_norm1.weight f4 [96]
000000 9b a6 77 3f d1 44 4f 3f a3 1d 7f 3f 0a c2 8b 3f
       0.96738595 0.8096438 0.996546 1.0918591
000010 27 25 29 3f 3a 48 f2 3e 2f fa 7c 3f 60 49 87 3f
       0.66072315 0.4732073 0.9881925 1.0569267
000020 f6 5e 9a 3f c9 9d 5a 3f f4 4e 8c 3f 3d 86 82 3f
       1.206023 0.8539701 1.0961595 1.0197216
000030 08 ca 8b 3f d9 12 63 3f b3 fb 91 3f 18 78 8e 3f
       1.092103 0.88700634 1.1404938 1.11304
000040 0a 51 8c 3f 9a 0d 8a 3f 37 85 77 3f 49 43 65 3f
       1.0962231 1.0785401 0.96687645 0.89555794
000050 3e 44 55 3f 40 d7 8e 3f dc 0d 3c 3f 79 7a 8e 3f
       0.83307254 1.1159439 0.7345865 1.1131126
000060 8e c5 55 3f e7 9e 76 3f a5 f1 90 3f 5e db 90 3f
       0.8350457 0.96336216 1.1323744 1.1316946
000070 1d 43 87 3f bf 97 83 3f 2f b5 53 3f e6 a9 83 3f
       1.0567356 1.0280684 0.8269834 1.0286224
000080 1d 8f 75 3f 14 b7 8f 3f 53 b5 84 3f 01 f5 80 3f
       0.959215 1.1227746 1.0367836 1.0074769
000090 e9 11 8c 3f 3e 05 82 3f 60 2b 65 3f 62 78 68 3f
       1.0942966 1.015785 0.8951931 0.9080869
0000a0 2a db 8e 3f b9 13 91 3f 05 69 80 3f b0 60 89 3f
       1.1160634 1.1334144 1.003205 1.0732632
0000b0 63 01 83 3f a6 f6 31 3f 6f 62 8d 3f b7 38 76 3f
       1.0234798 0.6951698 1.1045665 0.9618029
0000c0 d9 cc 63 3f 1b 51 9c 3f 0e 09 90 3f 48 81 88 3f
       0.8898445 1.2212251 1.1252763 1.0664454
0000d0 1b 3a 92 3f b0 0a 8a 3f 05 e1 93 3f c6 99 81 3f
       1.1423982 1.0784512 1.1553046 1.0125053
0000e0 51 14 74 3f d0 34 1f 3f 33 1e 86 3f 35 5c 6c 3f
       0.953435 0.6218996 1.0477966 0.92328197
0000f0 53 9c 89 3f 86 d5 90 3f f7 46 5e 3f 5c fa 6d 3f
       1.0750831 1.1315162 0.86827034 0.92960143
000100 10 b9 72 3f ad 2d 69 3f a3 ae c5 3e bd dc 9c 3f
       0.9481363 0.9108532 0.386098 1.2254864
000110 ef 7d 89 3f c9 85 5c 3f cf a9 89 3f 8d 90 24 3f
       1.0741557 0.8614164 1.0754946 0.64283067
000120 9f 33 96 3f e2 2f 86 3f ee c0 80 3f c8 e1 8a 3f
       1.1734504 1.0483363 1.0058877 1.0850153
000130 7f 41 81 3f 01 e2 91 3f 28 b7 8c 3f 4f 51 00 3f
       1.0098113 1.1397096 1.0993395 0.5012407
000140 1b ed 7f 3f ff 81 6b 3f 07 09 8d 3f 7f d4 2a 3f
       0.9997117 0.91995233 1.101838 0.66730493
000150 f2 78 8d 3f e6 02 76 3f b0 4d 8b 3f da 47 63 3f
       1.1052535 0.9609817 1.0883083 0.8878151
000160 75 bd 8c 3f e7 62 6b 3f 97 b9 7e 3f 6e 22 65 3f
       1.0995318 0.9194779 0.9950194 0.8950566
000170 80 e6 7b 3f 70 d6 8c 3f 40 1e 7e 3f 4f 2d 52 3f
       0.9839859 1.1002941 0.9926491 0.82100385

dense1.batch_norm1.bias f4 [96]
000000 2b b9 20 bf bf 12 d9 be ed 84 2e bf 21 02 32 bf
       -0.62782544 -0.42397115 -0.6817158 -0.695345
000010 04 8a c1 be c0 d4 fd bd f3 81 17 bf c2 8f 11 bf
       -0.3780061 -0.123940945 -0.5918266 -0.5685998
000020 fa ab 5a bf e3 11 0f bf af b2 43 bf db 21 d0 be
       -0.85418665 -0.5588667 -0.76444525 -0.4065083
000030 e2 04 17 bf 4e 63 15 bf 6d e3 3d bf 82 14 2d bf
       -0.58991826 -0.5835465 -0.7417515 -0.6760942
000040 1f 41 32 bf 4f d0 38 bf ad 26 74 bf c2 f5 16 bf
       -0.69630617 -0.72192854 -0.95371515 -0.58968747
000050 ef f5 ea be 91 e0 be bd 6b 7a 89 be 7d a6 40 bf
       -0.45890757 -0.093201764 -0.2685121 -0.7525404
000060 9c d7 f0 be a6 f7 0e bf c2 ac 59 bf dc 73 5b bf
       -0.47039497 -0.5584663 -0.8502923 -0.8572366
000070 54 0e 27 bf 31 0b 11 bf 59 97 c7 be b6 7e 24 bf
       -0.6525624 -0.566577 -0.38982657 -0.64255846
000080 3e db 22 bf 7d dc 4a bf f5 16 3c bf 16 f8 1e bf
       -0.6361579 -0.7924269 -0.7347253 -0.620973
000090 93 c3 24 bf 68 72 12 bf a2 03 f9 be 30 22 15 bf
       -0.6436092 -0.5720582 -0.48635584 -0.5825529
0000a0 3e 93 4d bf d7 76 3c bf 34 8a 16 bf da 48 2a bf
       -0.803028 -0.73618835 -0.5880463 -0.6651741
0000b0 9e 85 2d bf e3 e1 c8 be f7 37 58 bf 2c bd 0b bf
       -0.6778201 -0.39234838 -0.84460396 -0.5458553
0000c0 a4 8d e5 be 47 64 56 bf b9 f4 58 bf a8 13 2e bf
       -0.44834626 -0.8374676 -0.8474842 -0.67998743
0000d0 26 5e 4e bf fb 9c 19 bf b4 7a 5b bf 05 b1 23 bf
       -0.8061241 -0.6000516 -0.85734105 -0.63941985
0000e0 6f 90 10 bf 50 0d 6f be 9b 18 3a bf cf bb f6 be
       -0.5647039 -0.23344922 -0.72693795 -0.48190162
0000f0 90 c6 4d bf 65 ca 4f bf dd 3b fa be 35 40 ae be
       -0.8038111 -0.81168205 -0.48873797 -0.3403336
000100 f4 cd 0c bf d2 e8 11 bf 30 e0 de bd 5b 38 57 bf
       -0.5500176 -0.5699588 -0.10882604 -0.84070367
000110 70 59 32 bf b9 e3 fd be b5 5d 2d bf c3 e5 0f bf
       -0.6966772 -0.495878 -0.6772111 -0.56209964
000120 71 34 5e bf a1 7b 39 bf 27 75 28 bf dd bb 12 c0
       -0.8679877 -0.7245427 -0.6580376 -2.2927163
000130 22 2f 29 bf fc cb 33 bf 7c 89 35 bf 8c 0d 27 be
       -0.66087544 -0.7023313 -0.7091291 -0.16313761
000140 77 b2 48 bf e8 74 19 bf e8 6b 3c bf b2 9e 6a be
       -0.78397316 -0.5994401 -0.7360215 -0.229121
000150 21 07 39 bf 7d 93 0a bf 5d 33 1b bf 39 51 09 bf
       -0.722765 -0.541313 -0.6062525 -0.5363956
000160 8a b6 31 bf 64 16 0f bf f8 63 29 bf 52 60 b6 be
       -0.6941916 -0.5589354 -0.66168165 -0.35620362
000170 8e f0 26 bf 80 f1 42 bf a1 20 1f bf 99 ae ed be
       -0.6521081 -0.7614975 -0.6215916 -0.4642227

dense1.batch_norm1.running_mean f4 [96]
000000 54 91 ed bf 55 2a 2e c0 55 3b 0e c0 56 48 42 c0
       -1.8559976 -2.7213337 -2.2223713 -3.035665
000010 9a 24 98 bf 03 5f cb bf 73 8f b7 bf ca 09 e0 bf
       -1.188617 -1.588837 -1.4340652 -1.7502987
000020 03 6d f8 bf 41 b9 01 bf d0 41 aa bf 63 b6 5b c0
       -1.9408268 -0.506733 -1.3301334 -3.433007
000030 8f 8b 0e c0 84 03 0c c0 c2 a0 05 c0 2d b0 2f c0
       -2.227268 -2.1877146 -2.0879369 -2.745128
000040 d7 b7 11 c0 39 32 f9 bf b7 d4 0f bd 86 33 44 c0
       -2.2768457 -1.9468452 -0.03511497 -3.0656447
000050 33 32 ff bf ab cf 2c 3f 44 73 66 bf 06 91 02 c0
       -1.9937195 0.67504376 -0.9001963 -2.0401015
000060 c0 cb f2 bf ab 87 30 c0 bb a0 2d c0 65 fb c3 bf
       -1.896843 -2.7582805 -2.7129352 -1.5311095
000070 f9 a4 28 c0 a2 34 d5 bf 7e 1b 02 c0 78 c2 05 c0
       -2.6350691 -1.6656687 -2.032928 -2.0899944
000080 3c 8e e1 bf fb f5 07 c0 1c 22 20 c0 08 7c 03 c0
       -1.7621531 -2.1243885 -2.5020819 -2.0544453
000090 43 48 e8 bf 49 a2 a1 bf 19 55 d6 bf ad e2 08 c0
       -1.8147053 -1.262765 -1.674472 -2.1388352
0000a0 33 98 16 c0 38 fe 15 c0 83 9f 05 c0 ec 89 fc bf
       -2.3530395 -2.3436413 -2.0878608 -1.972959
0000b0 ae 77 03 c0 61 31 c2 bf 42 f4 10 c0 e4 e1 1e c0
       -2.0541797 -1.5171319 -2.2649083 -2.4825373
0000c0 44 1a e7 bf 9c e5 d5 bf ba 3f a8 bf 0a ec 1a c0
       -1.8054891 -1.6710696 -1.3144448 -2.4206567
0000d0 dc be 06 c0 d2 4c e0 bf 6a 7d 3b c0 7f 59 01 c0
       -2.1053991 -1.7523444 -2.9295297 -2.0210874
0000e0 a4 5c 35 c0 83 db 3e c0 a7 4a 20 c0 31 70 97 bf
       -2.8337793 -2.982148 -2.5045564 -1.1831113
0000f0 a1 90 6a c0 fe be dc bf ae f3 e8 bf 82 48 69 bf
       -3.6650774 -1.7245786 -1.8199365 -0.91126263
000100 15 d6 20 c0 d7 e5 d8 bf 59 02 0f c0 2c b7 1c c0
       -2.5130665 -1.6945142 -2.2345183 -2.44868
000110 c3 cb 20 c0 a8 7a f4 bf bb f5 11 c0 4c f2 24 c0
       -2.5124366 -1.9099932 -2.2806232 -2.5772886
000120 9a e1 0e c0 a4 f2 e5 bf 00 b4 0f c0 56 00 d0 bf
       -2.2325196 -1.7964673 -2.2453613 -1.6250103
000130 b0 9c 09 c0 65 5e 19 c0 2e c5 2f c0 ac cc 95 c0
       -2.1501884 -2.3963864 -2.74641 -4.6812344
000140 9c 1b 1a c0 b3 13 0d c0 bf 7d 30 c0 34 a0 ab c0
       -2.4079351 -2.2043273 -2.757675 -5.363306
000150 c2 3c 22 c0 5d 40 7f bf cd 3e fa bf 67 2c 93 bf
       -2.5349584 -0.99707586 -1.9550415 -1.1497926
000160 33 3f 6c bf 84 37 fe bf 85 3d 5b bf 43 d5 af bf
       -0.92283934 -1.9860692 -0.85640746 -1.3736957
000170 1a 76 1b c0 1d a8 04 c0 0d 95 07 c0 61 06 f7 bf
       -2.4290833 -2.0727608 -2.1184723 -1.9298822

dense1.batch_norm1.running_var f4 [96]
000000 91 e3 db 40 24 2f 15 41 d4 11 e6 40 eb f2 2e 41
       6.871529 9.324009 7.1896763 10.934306
000010 e5 d4 28 41 be dd ef 41 70 62 1a 41 a6 c1 0b 41
       10.551976 29.983273 9.649033 8.734777
000020 1d 1c 22 41 5b 3b a2 40 00 47 27 41 7b 97 da 41
       10.131864 5.0697455 10.454834 27.323965
000030 06 70 1e 41 9a c0 03 41 d4 1c 63 41 6b 02 1e 41
       9.902349 8.234522 14.194538 9.87559
000040 b4 d2 1a 41 f8 a1 f7 40 1c 8a 35 40 54 7b 22 41
       9.676441 7.7385216 2.8365545 10.155109
000050 84 6f fa 40 46 29 af 40 66 2a 18 41 18 bf 1c 41
       7.8261127 5.4737883 9.510351 9.796654
000060 b5 90 0c 41 01 c1 08 41 61 45 3b 41 09 39 19 41
       8.785329 8.54712 11.704438 9.576425
000070 8d f4 41 41 c5 0d 1d 41 0b 48 38 41 7d 3c 0d 41
       12.122205 9.815862 11.517589 8.827268
000080 d1 a8 e2 40 cd 18 03 41 b7 b3 1f 41 dc 3a 12 41
       7.0831075 8.193555 9.981376 9.13937
000090 9d b7 33 41 de 96 eb 40 b6 6d 0a 41 1f 7f 0e 41
       11.232327 7.3621664 8.651785 8.906035
0000a0 e4 31 11 41 63 41 2c 41 ad 9a 0a 41 fd e8 17 41
       9.07468 10.765964 8.662763 9.494382
0000b0 ff 8c 1b 41 cb 48 b7 40 06 4c fc 40 5a bf 1d 41
       9.721923 5.727636 7.88428 9.859217
0000c0 3e 66 4f 41 d0 a3 3c 41 23 c0 ec 40 99 e5 34 41
       12.962461 11.789993 7.398454 11.306054
0000d0 25 52 40 41 d9 b2 20 41 bb 7a 4e 41 5a b5 14 41
       12.020055 10.043664 12.9049635 9.294275
0000e0 dd 8f 33 41 83 80 1f 41 b5 6c 02 41 6d 7c 13 41
       11.222623 9.968875 8.15154 9.217877
0000f0 43 04 35 41 35 93 0e 41 94 58 14 41 4c cf df 40
       11.31354 8.910939 9.2716255 6.994055
000100 59 47 18 41 44 c4 0d 41 06 ae 00 42 2e df 52 41
       9.517419 8.860416 32.169945 13.179487
000110 85 f4 2c 41 53 06 cf 40 7f ef 33 41 1d 28 4b 40
       10.809697 6.469522 11.245971 3.1743233
000120 6c 3e 29 41 71 ca 06 41 b7 ba 2c 41 3d 2e 91 40
       10.57774 8.424424 10.795585 4.5368943
000130 7e b5 07 41 e3 fd 3c 41 21 d6 33 41 ab 43 2f 42
       8.48181 11.811984 11.239778 43.816082
000140 11 c0 25 41 c4 38 f0 40 1e f4 45 41 d0 57 0a 42
       10.359391 7.5069294 12.372099 34.585754
000150 7d 6b 2e 41 e7 53 0e 41 49 95 30 41 1b e6 da 40
       10.901242 8.895484 11.036447 6.840589
000160 34 70 03 41 83 00 26 41 b6 d8 0d 41 1b 40 06 41
       8.214893 10.375125 8.865408 8.390651
000170 31 fd 0f 41 df 3e 05 41 1b f0 fd 40 7d 0b 1d 41
       8.999314 8.327849 7.9355597 9.815305

dense2.dense.weight f4 [15, 96]
000000 77 42 7c 3e b9 5e 82 3e 9c d1 af be f7 44 ba 3e
       0.2463473 0.25462893 -0.34339607 0.3638074
000010 90 61 bc 3d f0 37 00 3e 56 f1 8a 3e b0 6d 81 be
       0.09198296 0.12521338 0.2713725 -0.25278997
000020 8f 50 a4 3e 37 f2 63 bd c6 46 dd 3e 29 19 36 3c
       0.3209271 -0.055650916 0.43218058 0.011114397
000030 a2 39 9c 3e 04 7f ca be 9e 03 f6 3d f9 ae b0 3e
       0.3051272 -0.3955003 0.12012409 0.34508494
000040 c7 d5 cc bc b9 9a 87 3e 87 c5 1f be b3 57 95 3e
       -0.02500428 0.26485232 -0.15602694 0.29168472
000050 11 75 6d be 57 5f ab bc 1d 8b 07 bf 61 75 cb be
       -0.23189189 -0.020919485 -0.52946645 -0.3973799
000060 9f 3e 32 bf 84 4b a4 be ee 98 ad be 99 99 7f 3e
       -0.696268 -0.32088864 -0.3390574 0.24960937
000070 91 86 61 be c0 91 c4 be 38 87 3d bf d7 45 a1 be
       -0.2202399 -0.38392448 -0.7403445 -0.31498596
000080 02 3b f2 be 12 4e cd be d1 78 c1 be 89 19 4e 3e
       -0.47310644 -0.40098625 -0.37787488 0.20126928
000090 cc c7 73 3e 1a 41 6f be 81 4a 18 bf 4d fa ab bc
       0.23806685 -0.23364678 -0.59488684 -0.020993376
0000a0 74 6a 9d 3e b3 43 27 bf df f3 cb be ce c4 60 bf
       0.3074528 -0.65337676 -0.39834496 -0.878003
0000b0 67 b3 28 bf 74 b1 77 bf 5a c6 f2 bd 10 fd d7 be
       -0.65898746 -0.96755147 -0.11854239 -0.4218526
0000c0 1a 5e 0b bf fd 6c 0b bf 24 ac ca be 1b 2c c0 be
       -0.5444046 -0.5446318 -0.39584458 -0.3753365
0000d0 0d a5 f8 bc cf 45 2d be 72 e2 12 bf f4 e9 34 bf
       -0.03035214 -0.16921161 -0.5737678 -0.70669484
0000e0 13 8e 82 3e 2c 07 40 3e 43 2e 90 be 76 b2 9b be
       0.2549902 0.18752736 -0.28160295 -0.30409592
0000f0 48 8d be be c5 3e 83 bd 4f d4 59 3e 94 36 8b be
       -0.37217164 -0.06408457 0.21272396 -0.27190077
000100 e5 a9 26 bf 63 26 18 bf c2 f9 23 3e c9 aa d3 3e
       -0.6510299 -0.59433573 0.16013244 0.41341236
000110 aa a5 11 bf 65 20 98 3e ea 89 c2 3e 6d 9d bd be
       -0.5689341 0.29712215 0.37995845 -0.3703417
000120 e6 4a 18 bf 0f 89 1a 3e ce 6c c0 bd 97 61 e6 bc
       -0.59489286 0.15091346 -0.09395753 -0.028122706
000130 44 47 ad 3e 50 25 fb be 6b 73 1b bf c5 38 19 3d
       0.33843434 -0.49051905 -0.6072299 0.037407655
000140 d5 6e 80 be c3 b0 60 bf c5 66 14 bd 46 5b a9 3e
       -0.25084558 -0.87769717 -0.03623082 0.3307745
000150 33 40 ba 3e 90 6e 82 3b 90 ba 8a 3e d9 5a c3 bd
       0.36377105 0.0039804652 0.2709546 -0.09538812
000160 dd 7e 0f bf a6 e3 20 bf 21 67 3f bf 9a 95 22 be
       -0.56052953 -0.62847364 -0.7476674 -0.15877381
000170 5e 9a cb 3c 70 fe c8 be f5 f1 15 bf 36 6c 6d bf
       0.024853881 -0.3925662 -0.5857232 -0.9274324
000180 5a b8 ee be 6a f7 11 bf fc f7 4f be ab b0 05 be
       -0.46625024 -0.5701815 -0.20309442 -0.13055675
000190 39 0f 81 bf 63 14 91 bf 18 0a 06 bf c8 ca 95 be
       -1.008277 -1.1334347 -0.5235915 -0.29256272
0001a0 a2 b3 99 be 69 d9 bc be 94 c8 5d 3e 26 14 33 bc
       -0.3001986 -0.3688462 0.21658546 -0.010930097
0001b0 dd 34 14 3e 28 a6 b4 3e b7 50 66 3e 51 ed 66 3e
       0.1447329 0.35283017 0.22491728 0.22551467
0001c0 69 fd 9b bc 8e 6f 34 bc 5d 4e 6c ba a7 5e 24 3e
       -0.019041734 -0.011012925 -0.00090143626 0.16051732
0001d0 af 3f 23 bf 60 a4 90 bc ba 2f 6e 3e 8e b9 ac be
       -0.6376905 -0.017656505 0.23260394 -0.33735317
0001e0 40 d8 4a be 8b fc 99 be f5 f2 18 bf 3c 63 c4 3e
       -0.19809055 -0.30075487 -0.59745723 0.3835696
0001f0 80 b4 de bd c1 a3 d2 bd 12 43 7b 3e 1f 73 b3 be
       -0.108742714 -0.1028514 0.24537304 -0.35048768
000200 94 2c 93 bd 32 5d 03 bf a5 93 9f be 06 65 07 3e
       -0.07186237 -0.5131408 -0.3116733 0.13222131
000210 24 92 26 bf 73 f6 f3 bd 3e 1b da be fa 03 82 be
       -0.6506674 -0.11912241 -0.4259891 -0.2539366
000220 12 1d 9b 3e a1 f2 d9 be 36 de 6b 3e 01 bb b2 3e
       0.30295616 -0.42567924 0.23033985 0.34908298
000230 46 7b ba 3e a6 de 2d bf 5e 6e c6 be b7 c0 7b 3e
       0.36422175 -0.6791786 -0.38756078 0.24585234
000240 fd 84 ab be 27 79 d6 bd 09 25 b9 be ac 17 92 3e
       -0.334999 -0.10472327 -0.36161068 0.28533685
000250 2b 39 02 bf e4 44 12 3e 83 44 12 bf 5e 8a ed be
       -0.5086848 0.14284092 -0.5713579 -0.46394628
000260 26 5c 9e 3d 0d eb 17 bf aa 59 a7 3e 28 d9 0d bf
       0.0773242 -0.59343034 0.32685596 -0.5540948
000270 d4 c4 50 be ac 3d b8 be 65 58 f9 be 11 d5 52 3e
       -0.20387584 -0.35984552 -0.48700252 0.20589091
000280 2d 6f 94 3e 24 03 47 bf 39 1d 67 3e bc 83 88 3d
       0.2899107 -0.7773917 0.22569741 0.06665751
000290 34 bb cf be 44 42 8b 3e 7d a6 80 be d0 63 e1 be
       -0.40572512 0.27198994 -0.2512702 -0.44021463
0002a0 45 b0 53 3e 94 37 db bd 4e 9c a4 bd 9e 50 a6 bd
       0.2067271 -0.1070396 -0.08037625 -0.08120845
0002b0 bc 34 a4 be 88 12 9a be d5 df c6 be 5a 10 c6 3e
       -0.32071483 -0.30092263 -0.38842645 0.3868435
0002c0 a1 42 03 3b 52 dd 83 bf da ce 39 be 97 d7 86 3e
       0.0020028728 -1.0301917 -0.18145314 0.26336357
0002d0 a4 a9 a2 be b5 e0 0d bf a3 f6 c8 be c8 28 a1 be
       -0.3177005 -0.55421 -0.3925067 -0.31476426
0002e0 77 f9 f7 3d 2d a6 23 bf d7 55 23 bd c2 a1 b8 be
       0.121081285 -0.6392544 -0.039876785 -0.3606091
0002f0 11 bf fb be 45 18 0e 3e 2b bc d2 3e 92 3e 34 3e
       -0.4916921 0.13876446 0.41159186 0.17601994
000300 b7 fa f9 bd 8f f5 de be 70 9d 89 3e c0 e3 92 be
       -0.12206023 -0.4354672 0.26877928 -0.28689384
000310 c2 5f 49 bf d1 11 1e 3e 9d 44 7a 3e 31 e3 52 bf
       -0.7866174 0.15436484 0.24440236 -0.82377917
000320 15 a9 23 bf 84 77 a0 3d d0 f1 c1 3e 3f 3b 5d bc
       -0.63929874 0.07835296 0.378798 -0.013502895
000330 fc ec 9e 3e 91 bd ac bc fb 82 09 bf e1 aa c9 be
       0.3104018 -0.021086486 -0.53715485 -0.39388183
000340 37 15 c7 bd 18 83 0b 3e 58 d3 43 bd 67 87 82 bd
       -0.09720843 0.13624227 -0.047808975 -0.06373482
000350 c2 f1 5e 3e db 93 a1 bc 51 15 7f be 06 dd ab be
       0.21771911 -0.019723823 -0.24910475 -0.33567065
000360 b4 47 a0 3e 9d 2c 1f bf b6 a9 f8 be 02 05 52 bf
       0.31304705 -0.6217745 -0.4856698 -0.8203889
000370 a3 bb 5f bf 74 40 21 bd cb 94 01 bf 36 77 9c 3e
       -0.87395686 -0.039368108 -0.50617665 0.305597
000380 0b 22 74 be 31 06 ab be 29 61 73 be 29 d3 90 3e
       -0.23841111 -0.3340316 -0.23767532 0.28286102
000390 24 26 09 bf 9b df 3e bd e0 7e 89 3e 88 10 c6 3c
       -0.5357382 -0.046599966 0.2685461 0.024177805
0003a0 8d d9 20 be b7 29 8c be 79 50 4c bf 04 cf 85 be
       -0.15707989 -0.27375576 -0.7981029 -0.26134503
0003b0 14 87 ab 3e d1 2e 29 3e 9d cf 7c bf 9b e2 f5 be
       0.33501494 0.16521765 -0.9875429 -0.4802445
0003c0 25 ab f2 be 8c f8 12 bf 85 27 1b 3c 6e 3d 20 bf
       -0.47396198 -0.574105 0.009469871 -0.62593734
0003d0 d4 6e 5a bf c1 3f 64 bf da 9b 24 bf 01 ce 00 bf
       -0.8532536 -0.8915978 -0.6430031 -0.50314337
0003e0 3d 33 8c 3e 4b 15 0d bf 3e 93 2e be 37 22 6b 3e
       0.27382842 -0.55110615 -0.17048356 0.2296227
0003f0 e9 e7 c3 bc 55 04 f7 3e 64 d2 c2 bd 1f fc 90 be
       -0.023914294 0.48245493 -0.09512785 -0.28317353

dense2.dense.bias f4 [15]
000000 fb 62 17 3f 80 1f 20 3f 77 6f 02 3f 12 dd 4c 40
       0.5913541 0.62548065 0.5095133 3.200993
000010 23 20 0e 3f 44 a5 0f 3f 38 9a 71 40 1f 73 05 3f
       0.55517787 0.5611155 3.7750378 0.52128786
000020 7e 2d 37 3f fd 42 14 3f 0a fd 21 3f 03 2c 75 3f
       0.7155379 0.57914716 0.6327673 0.9577028
000030 74 2e 20 3f cb 70 3b 3c 4b a4 55 c1
       0.6257088 0.011440466 -13.352611

dense2.batch_norm1.weight f4 [15]
000000 25 1d d5 40 85 e9 dd 40 bc b6 b4 40 d6 1e 0b 41
       6.6598077 6.934756 5.6473064 8.695028
000010 5c a1 c1 40 b2 c8 bc 40 b5 b4 1b 41 c4 83 ba 40
       6.050947 5.899499 9.731618 5.8285847
000020 73 65 da 40 c2 d3 cd 40 a9 cc d0 40 7a a1 f3 40
       6.824884 6.4320993 6.524983 7.6134615
000030 65 70 ce 40 17 0b ef 3e 44 c2 94 41
       6.45122 0.46688148 18.594856

dense2.batch_norm1.bias f4 [15]
000000 04 08 91 c0 14 eb 9d c0 fa 1a 7e c0 3b 59 84 c0
       -4.5322285 -4.934946 -3.9703965 -4.1358924
000010 2d a2 80 c0 68 f2 78 c0 98 c4 98 c0 28 bb 85 c0
       -4.019797 -3.8897953 -4.7739983 -4.179096
000020 1a ab 89 c0 fe 88 81 c0 d2 ab 86 c0 00 cc 8c c0
       -4.3021364 -4.0479727 -4.208474 -4.3999023
000030 3c a6 8c c0 59 cc 29 bf 81 66 98 40
       -4.3952923 -0.66327435 4.7625127

dense2.batch_norm1.running_mean f4 [15]
000000 86 20 6e 3e 51 aa 88 3e 90 78 fb 3d aa 22 39 40
       0.23254594 0.2669244 0.12278855 2.8927407
000010 5a 7a 45 3e f3 2d 35 3e 2a 93 55 40 9d 78 16 3e
       0.19284955 0.1769331 3.3371072 0.14694448
000020 90 8d cd 3e d7 52 8e 3e ba 01 9d 3e 37 99 25 3f
       0.40147066 0.27797577 0.3066538 0.6468691
000030 db c4 86 3e 6c ba 49 be b5 c0 5b c1
       0.26322064 -0.1970002 -13.734548
