classification/model_rnafm/13_final/300Epoch/rna_type_checkpoint_fold_6.pt (torch, 252002 bytes, 24 tensors)

layer1.conv1.weight f4 [30, 30, 5]
000000 60 08 86 bf a1 d1 ce 3f 35 03 3a 3f 1e 83 7d 3e
       -1.0471306 1.6157724 0.72661144 0.24757048
000010 bb 51 41 bf b8 d3 42 bf af 73 61 bf 06 f2 02 c0
       -0.75515336 -0.7610431 -0.88067144 -2.046022
000020 f0 ab 02 bf 1a 39 ec 3e 79 74 3e be 4c 55 89 be
       -0.51043606 0.46137315 -0.18599118 -0.2682289
000030 72 de 52 bf 69 1b ae 3e 78 51 f8 3e d4 27 3e 3f
       -0.82370675 0.34005287 0.48499656 0.7427952
000040 7a 64 24 bf b5 ea cb 3e c2 8b 8f bd c4 2f 17 3e
       -0.64215815 0.39827505 -0.070090786 0.14764315
000050 fd f3 10 3e c0 ae e0 3e 37 f1 6b be fe 78 84 3f
       0.14155574 0.43883324 -0.23041235 1.0349424
000060 3b 94 e6 be 81 43 b0 3e 20 9b b5 3e fe 76 d1 bd
       -0.45034966 0.344265 0.35469913 -0.10227774
000070 ba 44 5c 3f da d1 87 bd 48 7d 1f 3f b4 89 a4 3e
       0.8604237 -0.06631823 0.6230054 0.3213631
000080 70 2c 17 3f 30 1e 3e 3f cc 12 22 3f 18 22 bc 3c
       0.5905218 0.7426481 0.6330993 0.022965476
000090 0d bc e5 3d 93 79 8c be 90 29 a8 be 85 2d 3e 3d
       0.112175085 -0.27436504 -0.3284421 0.04643013
0000a0 5c 78 03 bd 31 fe 56 be 2b d7 d2 be e9 f8 cb be
       -0.032097206 -0.20995404 -0.41179785 -0.3983834
0000b0 50 28 a6 bd 80 e2 9f be b7 bb 45 bc 16 c2 24 bd
       -0.08113158 -0.31227493 -0.0120686805 -0.040224157
0000c0 29 2d e1 bd 96 91 92 3d ce ea 18 be 65 56 a6 3d
       -0.10994942 0.071566746 -0.14933321 0.08121947
0000d0 8d e7 0e 3e d0 1d 11 bf 56 be 04 bf e7 79 01 3f
       0.13955517 -0.56686115 -0.5185293 0.50576633
0000e0 3b 52 99 3d 38 b5 23 3f 38 8b 31 be 1c 79 b7 3c
       0.07486387 0.6394839 -0.17338264 0.022396617
0000f0 8d 5c 49 3e 32 35 c5 be e2 9b 0d 3e 1e e4 c8 be
       0.19664212 -0.38517147 0.13828996 -0.3923654
000100 24 4e 69 be 9a e5 09 3e 06 a3 02 3f 13 43 4f 3d
       -0.22783715 0.13466492 0.51030004 0.050601076
000110 f2 46 27 ba 7b 9e 3b 3f f0 35 30 be 6f 6a 39 3f
       -0.0006381116 0.73288697 -0.17208076 0.7242803
000120 44 1b 9d be cb f6 09 3e 25 b5 aa 3e 44 38 2a bd
       -0.30684865 0.1347305 0.33341327 -0.041557565
000130 1c 44 13 3d 27 88 31 bc 54 13 9a 3d cf d7 bb be
       0.035953626 -0.010835684 0.07523218 -0.36688086
000140 08 0a 2e be 2e 5e bd be 66 e6 5c 3c 70 2e d3 3d
       -0.16996014 -0.36985916 0.013482666 0.103115916
000150 4b 15 5a be 8b 86 52 be cf de 0c be 5d 33 0c 3e
       -0.21297185 -0.20559137 -0.1375687 0.13691469
000160 5d c1 b6 bd 35 69 14 bf c7 24 f1 bd b2 31 94 3d
       -0.089236 -0.57973033 -0.11774593 0.07236041
000170 a7 4c c5 3e 9d d9 dd bd 9a 6c 2b bf 37 7f 85 bd
       0.38535044 -0.10832522 -0.6696259 -0.06518405
000180 a8 45 8f bd 44 36 72 bd 44 9f b8 3d 5e bf da be
       -0.06995708 -0.059133783 0.090147525 -0.42724127
000190 ea 76 33 bc 48 ed bd 3e f2 ef 38 be 63 f8 09 3e
       -0.010953644 0.37095094 -0.18060282 0.13473658
0001a0 8a df 05 3e b4 42 64 be b9 49 84 3e 1b 65 ad 3c
       0.13073555 -0.2229107 0.25837496 0.021166375
0001b0 c0 56 2d be cb 54 c2 3e c7 8d 0b be a6 81 88 3e
       -0.16927624 0.37955317 -0.13628303 0.26661414
0001c0 0a 07 c4 3c 14 f8 25 3d 03 6e 46 bd ec 55 7d bd
       0.023929138 0.04051979 -0.04844476 -0.06184952
0001d0 3a 08 b7 be fe 04 ea be 20 72 91 3d 34 f3 be be
       -0.35748464 -0.45706934 0.07101846 -0.37294924
0001e0 13 2f 91 bd 5e 3d 0b bf e7 af ab be a5 82 93 3d
       -0.07089057 -0.54390514 -0.3353264 0.07202653
0001f0 e7 dd 95 be 79 3b 2d be 8e 2d 0c be fe 63 62 3e
       -0.2927086 -0.16917218 -0.13689253 0.22108456
000200 64 db 66 3e d0 62 83 3e 24 ab 1a be 48 e9 b7 bd
       0.22544628 0.25661325 -0.15104347 -0.08980042
000210 bd 4c 3d 3e 79 50 a4 3d ee 67 64 bd b2 95 8e bd
       0.18486305 0.080231614 -0.055763178 -0.06962146
000220 c2 51 a6 bc 36 7e 12 3d c1 8f fb bc a3 cf 3f 3e
       -0.020302657 0.035764895 -0.030708196 0.18731551
000230 07 db 07 3e fd cb 3d bd 65 60 7f bc 6e 41 d4 3d
       0.13267146 -0.046337117 -0.015586947 0.10364042
000240 4c 2d 05 3e 6e 0c 7e 3e fc 24 4b 3b 72 fd 37 bd
       0.1300556 0.24809429 0.0030997386 -0.04491944
000250 3a fa 83 be 4a 76 89 3d 34 58 bc 3e 78 b6 17 3f
       -0.25776845 0.06712015 0.36786044 0.592628
000260 84 f4 26 3f c3 5a 06 bf f7 7d 07 bf ee de 36 bf
       0.6521685 -0.5248224 -0.5292658 -0.71433914
000270 56 32 b1 bf d5 c8 f5 bc b6 a7 fd 3e 41 51 9a be
       -1.3843486 -0.03000299 0.49542016 -0.30140117
000280 b7 09 cc 3d dd 4e 88 3e ad ad c9 be 5d 68 8d 3e
       0.099627905 0.26622668 -0.39390317 0.27618685
000290 d2 bc 09 3e 29 e7 19 be 54 da d9 be cf 38 81 3f
       0.13450935 -0.15029587 -0.42549384 1.0095462
0002a0 54 98 34 3f 4e 76 5f 3f 1e b7 14 3f c6 96 19 bf
       0.70544934 0.87289894 0.58091915 -0.59995687
0002b0 63 d8 68 3f 5d 34 c7 be ab 7c 03 3f ba d5 53 3e
       0.9095518 -0.38907138 0.51362103 0.20686999
0002c0 5c 29 06 bf fd 1f fb be 1f 54 c3 3e c7 c8 35 bf
       -0.5240686 -0.49047843 0.38150117 -0.71009487
0002d0 cc 63 a3 be b1 16 06 3f 61 a9 fb bc cd 69 2f 3f
       -0.31912076 0.52378374 -0.030720415 0.68520814
0002e0 2a 2e 2d be f8 ef 39 3e 86 f0 38 3f 0f 08 88 3f
       -0.16912141 0.18157947 0.7224201 1.0627459
0002f0 2b 45 54 3f ae d5 9e bd 88 4e a2 be f7 1a 45 3d
       0.8291804 -0.077556 -0.3170054 0.04812142
000300 6d 14 17 3f 6b b7 f5 3e 1f bf b2 3d 33 4e 47 bf
       0.5901554 0.479915 0.0872786 -0.778537
000310 98 55 79 be 88 52 9b be 05 3d 11 3f e8 b5 62 be
       -0.24349058 -0.30336404 0.56733733 -0.22139704
000320 65 57 2c bd 4b 9c cd be 32 67 0b bf 24 45 a0 3f
       -0.042075533 -0.40158305 -0.5445434 1.25211
000330 e0 f6 01 bf ba 2b 02 3e b1 70 88 be 03 55 23 3e
       -0.50767326 0.12711993 -0.26648477 0.15950398
000340 45 f0 a3 3e 4f 69 ee bd 84 61 0b 3e db c1 46 be
       0.3201925 -0.1164118 0.13611418 -0.19409887
000350 4f a2 03 bf a5 79 c9 bc d6 ec 5a bd 76 96 54 3e
       -0.5141954 -0.024594137 -0.05344852 0.20760521
000360 30 11 65 be 6b 68 d4 3d 7d 4e 0f 3e 85 1f 3e 3e
       -0.22369838 0.10371479 0.13994785 0.18566711
000370 ec f4 ee 3e 76 4d 5f bf 99 b9 44 3e 90 f0 02 3e
       0.46671236 -0.8722757 0.19211425 0.1278708
000380 fc 10 b9 be 12 49 4e 3e 25 3e bc 3e 75 f1 60 3e
       -0.3614577 0.20145062 0.36766163 0.21967109
000390 fd 62 38 be ee aa 7e 3d e0 e5 6a 3e 31 ff b3 be
       -0.18006511 0.06217473 0.22939253 -0.35155633
0003a0 d7 62 b3 bd a5 f6 f2 bd 32 f2 7e 3e a2 cb 9e bd
       -0.087590866 -0.1186345 0.24897078 -0.077536836
0003b0 80 54 08 3c 42 65 ca bd bb b7 57 3e ab 6a a5 3e
       0.008320928 -0.09882595 0.21066181 0.32307944
0003c0 ac b3 b1 be 8a 3a d2 bd 15 c5 46 be 42 b9 a1 3e
       -0.3470739 -0.10265072 -0.19411118 0.31586653
0003d0 1d d8 a2 bc 0e fb 2e be 80 34 44 3e b3 90 23 be
       -0.019878441 -0.17087957 0.19160652 -0.15973167
0003e0 c0 f5 8e 3e 38 0f 2c 3e 37 2d 4b 3e 5f 1b e6 3d
       0.27921867 0.1680268 0.19841467 0.11235689
0003f0 cb 98 6a be 9c 2b 9a bd fc 43 71 3e ca 82 03 3e
       -0.22909848 -0.07527849 0.2356109 0.12842861

layer1.conv1.bias f4 [30]
000000 e2 b8 bc bd 9c b5 65 3c 8f e0 49 bc 24 1d 7c 3d
       -0.09214951 0.01402035 -0.012321605 0.06155123
000010 1f 58 60 bd d9 99 ba bd d3 e1 db 3d 0b ee 1c 3c
       -0.05477154 -0.09111375 0.10736432 0.009578238
000020 95 ad b1 3d d8 fd ec bc c5 9f c5 bc ce f5 89 3c
       0.08675686 -0.028929636 -0.024124036 0.016840842
000030 1a 3e 91 3c 6d f8 4e 3d 14 b4 f4 bc d0 7f 52 bd
       0.017729808 0.050529886 -0.029871024 -0.051391423
000040 ea b1 8a bd 13 d0 08 bd fd e7 4b 3d e4 2a ff bd
       -0.06772216 -0.03340156 0.04978179 -0.124593526
000050 3b ac b1 3d ba 4c e4 ba a8 fd 1e be 63 61 95 3e
       0.086754285 -0.0017417886 -0.1552645 0.29175863
000060 26 3f 32 3c 5d a2 b9 3d da f5 a4 3d 58 0f 44 3d
       0.010879314 0.090641715 0.08054705 0.047866195
000070 9a e2 ef bd 89 f9 15 3c
       -0.11713143 0.009153732

layer1.bn1.weight f4 [30]
000000 1b 29 24 3f ba 95 b2 3f 01 cf 90 3f 57 70 0d 3f
       0.6412522 1.3951943 1.1313173 0.5524954
000010 46 4a 2c 3f 68 86 6f 3f 9d 25 89 3f 14 f7 2d 3f
       0.6730083 0.9356446 1.0714604 0.67955136
000020 2b f3 42 3f 92 19 60 3f 6d fb 60 3f 5b b7 63 3f
       0.76152295 0.8753902 0.87883645 0.88951653
000030 41 42 62 3f 7f ac 60 3f 51 20 b4 3f cc ce 70 3f
       0.88382345 0.8776321 1.4072362 0.94065547
000040 80 8b 2b 3f aa 09 2e 3f c7 fa 65 3f a4 79 18 3f
       0.67009735 0.67983496 0.8983578 0.5956061
000050 86 41 8f 3f e3 10 8f 3f 31 8a 9d 3f 92 0f 66 3f
       1.1191871 1.1177028 1.2307798 0.8986751
000060 55 3e 52 3f 6f 93 66 3f 74 20 51 3f 7d bc a9 3f
       0.8212636 0.90068716 0.81690145 1.3260647
000070 db e7 24 3f 02 ed 4f 3f
       0.64416283 0.8122102

layer1.bn1.bias f4 [30]
000000 68 22 91 3d 6e 64 f6 3d cf d1 11 3e c2 60 34 3e
       0.070866406 0.12030874 0.14240192 0.17615035
000010 1e a2 3c 3c 8b f7 f2 3d 78 db ad 3d eb 85 3f 3d
       0.011513261 0.11863621 0.08489126 0.046758574
000020 18 00 a4 3d 41 9d 33 3e b6 cd 0a 3e f4 5e 31 3e
       0.080078304 0.17540456 0.13555035 0.17321378
000030 44 a9 43 bd ea d4 8e 3a a1 7c 13 3e d1 db e7 bc
       -0.047768846 0.0010897194 0.14403011 -0.028303059
000040 38 90 5c be 41 68 11 3e 7d 05 15 3d 25 ee 16 3e
       -0.2153939 0.14199926 0.036382187 0.14739282
000050 e9 4a 4b 3d e8 5a a6 bd a9 78 82 3e 9a a6 5a 3e
       0.049631987 -0.08122808 0.2548268 0.21352616
000060 21 cd 79 bd 76 d5 23 bd f6 ba d7 ba a5 1b 3d be
       -0.06098664 -0.039998494 -0.0016458917 -0.18467577
000070 0f 12 5b 3d 41 54 d4 bc
       0.05348402 -0.025919082

layer1.bn1.running_mean f4 [30]
000000 c6 2b c9 bd 4c 4d c6 3c 53 05 da 3b 53 38 47 3d
       -0.09822802 0.02420678 0.0066534667 0.0486377
000010 fc 8a 93 bd c1 00 a6 bd e9 c9 04 3e c9 f9 14 bc
       -0.072042435 -0.081056125 0.12967648 -0.009092757
000020 28 96 83 3d cd 24 8d bc a8 8b 50 bc 12 c3 fb 39
       0.064251244 -0.017229462 -0.012728609 0.0004801979
000030 e7 e0 16 bb 34 f1 2c 3d 1e 55 33 bb 74 2c 2a bd
       -0.0023022236 0.042222217 -0.0027363966 -0.0415463
000040 c3 39 9c bd 8c ef 4b bd a4 7c 7b 3d 0a 88 0c be
       -0.07628205 -0.049788997 0.061398163 -0.1372377
000050 26 28 ae 3d 3e 98 38 3c fe 4a 2e be a1 e6 92 3e
       0.085037515 0.011266766 -0.17020795 0.2869158
000060 3d c6 55 bb 47 fd a1 3d 5b 18 63 3d 18 5f 61 3d
       -0.003261938 0.07909637 0.05544315 0.05502233
000070 35 4f fa bd f1 75 16 bc
       -0.12222139 -0.009183393

layer1.bn1.running_var f4 [30]
000000 87 3a 07 40 c2 fa 1e 41 35 c9 8a 40 4b 77 e2 3f
       2.1129472 9.93622 4.3370614 1.7692655
000010 03 42 ec 40 13 c0 c1 40 bb 30 c4 40 33 9c aa 40
       7.383058 6.0546966 6.1309485 5.3315673
000020 d3 b2 0c 41 ff ee 3b 40 a7 7c 4c 40 fb d0 fe 40
       8.793658 2.9364622 3.1951082 7.9630103
000030 e2 31 b5 40 ed 94 97 3f 3e c9 a5 40 9f 79 92 40
       5.662339 1.1842324 5.1808157 4.5773463
000040 a0 b6 91 40 f5 c7 96 40 63 eb 83 40 a1 d3 42 40
       4.553543 4.711909 4.1224837 3.0441668
000050 8c e4 46 40 dc e9 7e 40 2f 35 71 40 e5 a0 7c 3f
       3.1076994 3.9830236 3.768871 0.98683006
000060 2f 97 45 40 c2 52 e3 3f 1f 9b a8 40 03 d3 f8 40
       3.0873525 1.7759631 5.2689357 7.7757583
000070 e5 94 92 3f 39 ea 3f 40
       1.1451689 2.9986708

conv1.weight f4 [30, 30, 5]
000000 36 cf d4 be 24 a8 f6 be 7c db ca be e1 de 8d be
       -0.4156434 -0.48175156 -0.39620578 -0.27709106
000010 12 3a e4 3e 7a 4d 4f be a8 7c 8e be d7 c1 e6 be
       0.44575554 -0.20244399 -0.2782948 -0.45069763
000020 b6 a4 27 bf 14 40 b8 be 80 9a 8f be 5b 03 83 3d
       -0.65485704 -0.35986388 -0.28047562 0.063971244
000030 34 ae 0b be 70 79 c8 be 7e 32 60 bf 65 64 26 3e
       -0.13640672 -0.3915515 -0.87577045 0.16249235
000040 26 40 80 be 37 01 0b bf 65 e7 8e 3d 3c 66 1d 3f
       -0.2504894 -0.5429873 0.06977729 0.6148412
000050 ae 9b d8 be a0 15 d6 be 3f 64 1d 3e ad 67 a2 3d
       -0.42306274 -0.41813374 0.15370272 0.07929931
000060 8d 99 04 bd 07 bc a8 be 98 90 4a bf 1f 75 88 be
       -0.032373 -0.32955953 -0.7912688 -0.26651856
000070 80 c2 b1 be f4 0b 2d be 4c 98 78 be d1 91 08 be
       -0.34718704 -0.16899091 -0.24276847 -0.13336875
000080 f7 db 2b 3f e9 62 83 be 11 39 d9 3d c6 85 57 be
       0.67132515 -0.256614 0.10606588 -0.21047124
000090 e6 39 12 be ca d4 1f 3e ec 14 6d 3d c7 2a 05 3e
       -0.14279899 0.15608516 0.05788128 0.130046
0000a0 d6 88 d1 bd c4 7f 4c be 74 d4 7c 3e 1c 96 6d be
       -0.102311775 -0.19970614 0.2469042 -0.23201793
0000b0 8a 0a ab be 92 4b b6 be d8 82 78 3d 17 a4 2b 3d
       -0.33406478 -0.3560453 0.060671657 0.041904535
0000c0 f3 7e 3c bf c5 3b ef be 78 23 b5 be 7f 43 ac 3d
       -0.7363121 -0.46725288 -0.35378623 0.08411311
0000d0 3a 51 fd 3e a1 c2 dc be d2 07 b4 be 66 7f 15 bf
       0.49476033 -0.4311724 -0.35162216 -0.5839752
0000e0 00 6e 06 3e 6f 58 a5 3e 18 00 c3 3e 17 bd cb bd
       0.13127899 0.32294032 0.3808601 -0.099481754
0000f0 86 52 20 3e 77 be ad be 60 79 4f bf 6b 75 ae be
       0.1565648 -0.33934376 -0.8104458 -0.34073958
000100 2b 2f c6 bc 2e 5a c2 be 28 02 82 be a8 0e 20 3f
       -0.024192413 -0.37959427 -0.2539227 0.62522364
000110 ff b0 e5 3d 4d e2 b7 be aa 41 1a bf 11 24 02 be
       0.112154 -0.3591484 -0.60256445 -0.1270907
000120 53 ea b5 3e 07 a1 9d bd fb 52 b1 be 65 51 49 bd
       0.35530338 -0.07696729 -0.34633622 -0.04914989
000130 37 f3 1b bf 94 0a fa be 1f 07 87 be 42 ef a5 3e
       -0.6091799 -0.48836195 -0.2637262 0.32409102
000140 8e 03 c4 bd f1 aa 88 3e 2c 64 c3 bd 89 eb ef 3e
       -0.095709905 0.26692918 -0.09540591 0.46859387
000150 48 ee a1 3e 7e 83 5a be 11 b2 51 3d cf df 51 3e
       0.31627107 -0.21339223 0.051195208 0.20495532
000160 d3 de 9d 3d 71 f1 3f bd 37 2e 46 bd d3 52 3b bf
       0.07708516 -0.046861116 -0.048383918 -0.73173255
000170 ca bb f8 3c 5b 34 79 bd 92 53 cd be 68 99 86 be
       0.030362982 -0.060840946 -0.40102822 -0.26288915
000180 b8 73 05 be 7a 93 4d be 09 ee a8 3e aa 84 c3 3e
       -0.13032424 -0.20075789 0.32994106 0.38187152
000190 74 10 58 3f 74 55 25 bd dc c4 06 be 9d 59 a3 be
       0.84400105 -0.040364698 -0.13161033 -0.31904307
0001a0 d4 b4 c6 be 4d b4 9e be 50 c5 36 3e 54 b5 69 3f
       -0.38809836 -0.30996934 0.17848706 0.9129231
0001b0 3d 37 6e 3e 02 a5 f3 3d ab c1 25 3f 4c a6 ed 3e
       0.23263259 0.11896707 0.6474864 0.46415937
0001c0 eb 04 cb 3e c9 1f c3 be 35 76 a4 be 9c 3f 6e 3f
       0.3965219 -0.38110188 -0.32121435 0.9306581
0001d0 7a 1d 87 bd 16 59 a7 be d7 d9 42 3d 88 38 ab bd
       -0.06597419 -0.32685155 0.04757103 -0.08360392
0001e0 29 4e 92 3e 64 32 93 be 9a 22 1c bf 67 b6 ef be
       0.28575256 -0.28749382 -0.609903 -0.4681885
0001f0 75 88 38 bd 14 b6 92 3d 2e 13 1c 3e e8 d5 c1 be
       -0.04505201 0.07163635 0.15241691 -0.3785851
000200 0c 09 2d 3f 04 84 39 3e 19 f4 2b 3f 90 56 cc 3e
       0.6759193 0.18116766 0.6716934 0.39909792
000210 e3 25 4d 3b 9e 58 37 3e 26 4e 45 3e 27 ca ab 3e
       0.00313031 0.17904899 0.19268093 0.33552667
000220 3a b5 b5 3e c4 1c aa 3e 9e a3 06 3f 05 5b ac 3c
       0.35489827 0.3322507 0.5259341 0.021039495
000230 97 ff 2f be 16 56 ae be 5c 26 84 be 90 d1 9f 3e
       -0.17187344 -0.34050053 -0.25810516 0.3121457
000240 f6 27 28 3f 2e 28 c3 3e 99 54 95 be 3a c5 2b 3c
       0.65685976 0.38116592 -0.29166105 0.010484034
000250 5f cf da 3e a0 dc e7 3e 5d 34 a1 be 09 fa f7 be
       0.42736337 0.4528551 -0.31485263 -0.4843295
000260 42 b6 dd be 52 dc 5c be 9c dd fe 3e e6 f9 e8 bd
       -0.43303114 -0.2156842 0.4977845 -0.11375789
000270 4e 09 89 be 64 24 dc be e2 db 2c bf 8a 94 87 be
       -0.2676491 -0.42996514 -0.67523015 -0.26480514
000280 1f 70 a4 be b2 5d 32 3d b3 48 05 be 71 16 c9 be
       -0.32116792 0.043546386 -0.13016014 -0.39274934
000290 d4 a4 5a bf fd eb e4 3d c7 20 2d be 23 17 02 bf
       -0.8540776 0.11177824 -0.16907035 -0.50816554
0002a0 c4 19 97 3d 80 38 1e 3f da 19 b3 be 9a d3 c1 be
       0.07377961 0.6180496 -0.3498066 -0.37856752
0002b0 31 85 4d 3e ca b4 99 3d 88 05 14 be 3f 07 ae be
       0.2007034 0.07505186 -0.14455235 -0.33989903
0002c0 cf fd 58 bf 33 61 a1 be 8a 9b c6 be 73 56 14 be
       -0.8476228 -0.3151947 -0.38790542 -0.14486103
0002d0 8a c6 63 be a5 16 dc bd a3 52 2c 3f 9a 55 4f be
       -0.22243705 -0.107465066 0.67313594 -0.20247498
0002e0 a5 90 cf 3d 8d ea 2b be 35 e8 31 bd 39 7e 40 3e
       0.10135011 -0.16788693 -0.04343434 0.1879815
0002f0 86 62 f1 3d b1 96 b4 bb ed 5f fe bc 96 31 ac bd
       0.1178637 -0.005511128 -0.0310516 -0.08407895
000300 fd eb 83 3e 54 94 2f be cb 94 ce be de 2d d2 be
       0.25765982 -0.17146426 -0.40347895 -0.4105062
000310 fd 78 83 3d 0e 2c ef 3c 46 ac 34 bf 86 00 ce be
       0.06419561 0.029195812 -0.7057537 -0.40234774
000320 f1 60 b9 be 90 f5 e5 3d 02 be 0b 3f 2f 37 da be
       -0.36206773 0.11228478 0.54586804 -0.42620227
000330 b3 90 a9 be ac d6 26 bf be df 07 3e 73 a0 b7 3e
       -0.3311821 -0.65171313 0.13268945 0.358646
000340 6a 30 d3 3e 5e 26 aa bd ef 6e eb 3d 75 59 d2 be
       0.41247874 -0.08308099 0.11495768 -0.41083875
000350 81 05 41 bf 26 3a be be f3 ba 6b bb 30 ad b8 be
       -0.75399023 -0.3715374 -0.0035969585 -0.36069632
000360 c2 a0 7c be 09 95 0a 3f 49 ea 15 3e 8d 4f a2 be
       -0.24670699 0.5413366 0.14640154 -0.31701317
000370 65 34 22 bf 0a 31 10 be e1 ca c1 3e 2a a0 f9 bd
       -0.633612 -0.14081207 0.37850097 -0.12188752
000380 5f 6a b3 be e0 ac 8b bd 8e 14 1f bf fb 13 e7 be
       -0.35042092 -0.06820083 -0.6214074 -0.4513243
000390 bc 49 8a be e7 49 9b 3e d2 56 05 be 21 d2 73 3e
       -0.2700938 0.3032982 -0.130214 0.23810627
0003a0 73 56 3b be 6c eb ec 3e 2a 5b a1 3e 30 c6 66 be
       -0.18294697 0.46273363 0.31514865 -0.2253654
0003b0 45 3a 88 3c 84 5d 74 3e df 26 66 3c 50 f3 21 bd
       0.016629348 0.23863798 0.0140473535 -0.03953868
0003c0 a4 01 ca bd 7a b6 37 bf 30 3e 9c bd 9d bc 66 bd
       -0.09863594 -0.7176281 -0.07629049 -0.05633222
0003d0 90 90 ce be 11 4f 62 be 27 8f 0b be 5b b2 e6 bd
       -0.40344667 -0.22100474 -0.13628827 -0.11264487
0003e0 e0 bb fa 3e 8d 48 40 3e 96 71 63 3f fa 47 99 bd
       0.48971462 0.18777676 0.88845193 -0.074844316
0003f0 bc 1c fc bd fc 4c 95 be a8 f5 c5 be 0c 21 ad be
       -0.12310168 -0.29160297 -0.38663983 -0.33814275

conv1.bias f4 [30]
000000 43 a6 cb bd 36 b9 2b be 36 2e c4 bd bb b0 b8 3d
       -0.09943821 -0.16769871 -0.095791265 0.09018084
000010 90 c8 e0 3d 3c 5a 63 bd 3e 92 95 3d 48 df 9f bd
       0.10975754 -0.055505976 0.07303284 -0.078062594
000020 71 2e b0 3d 95 b6 e8 bd a5 be 8c 3c 90 b8 4f bd
       0.08602608 -0.1136295 0.01718075 -0.050713122
000030 df 87 4a bd 7e cf 78 3d 9b 27 0c bd e4 44 11 bd
       -0.049445983 0.060744755 -0.03421746 -0.03546609
000040 46 80 49 bd 22 77 61 bc 69 b2 50 3d 0c 83 a9 3d
       -0.049194597 -0.013761314 0.050951395 0.08276948
000050 5a 2e 1d 3c 86 b1 ca bc 35 c4 11 3d 86 c1 a9 3c
       0.009593571 -0.024742853 0.03558751 0.020722162
000060 2c 63 7f bd 05 7e 81 bd 7d 02 71 3d 39 2c 9f bd
       -0.062350437 -0.063228644 0.058840264 -0.07772107
000070 91 f6 47 3d 41 8b de 3c
       0.04881913 0.02716601

bn1.weight f4 [30]
000000 38 a1 ac 3f 8f c1 a8 3f 2e ab a8 3f 50 ea a7 3f
       1.34867 1.3184069 1.317724 1.3118382
000010 af ea a1 3f f8 1e a4 3f e1 be 96 3f 29 94 85 3f
       1.2649745 1.2821951 1.1777002 1.043584
000020 c7 9b 84 3f 6a e6 81 3f 38 d1 7b 3f f9 56 64 3f
       1.036004 1.0148442 0.9836612 0.8919521
000030 90 f2 65 3f 2e e4 54 3f a0 dd 47 3f 58 8b 4a 3f
       0.89823246 0.83160675 0.7807255 0.7911887
000040 17 06 42 3f b2 b6 46 3f c8 81 45 3f 45 dd 3c 3f
       0.7579054 0.7762252 0.77151155 0.7377513
000050 2f d4 33 3f f9 c9 45 3f fc c2 16 3f 53 1c 34 3f
       0.7024564 0.7726131 0.5889127 0.7035572
000060 9b 1a 1d 3f 4c 22 2d 3f 00 64 1b 3f 64 db 01 40
       0.6136872 0.6763046 0.6069946 2.0290155
000070 ce cc f8 3e 10 e3 2a 3f
       0.48593754 0.6675272

bn1.bias f4 [30]
000000 b1 fc d1 bc 7f d9 29 bc 54 0f e1 bb 93 df 41 bc
       -0.025633188 -0.0103667965 -0.0068682823 -0.011833089
000010 51 2c a0 bc 43 4a f8 ba 0e da 6d 3c 74 dc a0 3d
       -0.019552382 -0.001894303 0.01451732 0.07854548
000020 fe 7e 28 3d cb 59 77 3d a1 ca 80 3d 4b 4c ca 3d
       0.041136734 0.060388368 0.062886484 0.09877833
000030 10 eb c9 3d 2d e9 d5 3d c7 16 d2 3d 3a 8e f4 3d
       0.09859288 0.104448654 0.10258251 0.1194119
000040 89 9d ed 3d 32 a9 16 3e 8d b8 0f 3e 9f 27 ea 3d
       0.11602313 0.1471298 0.14035244 0.114333384
000050 c3 13 27 3e bb 2c 21 3e a9 f3 49 3e c8 cc 42 3e
       0.16316132 0.1573972 0.19721855 0.1902343
000060 36 99 4e 3e 89 de 6d 3e fc 80 7d 3e 20 7a ec 3e
       0.20175633 0.23229422 0.24756235 0.46186924
000070 dc 58 8a 3e f8 fe 67 3e
       0.2702092 0.22655857

bn1.running_mean f4 [30]
000000 ba 47 23 c0 1c 1f 1f c0 f3 eb 11 c0 4f 20 0f c0
       -2.5512528 -2.4862738 -2.2800262 -2.236347
000010 5b fa fa bf 8e 0e 1b c0 3c 7b fb bf 84 55 ea bf
       -1.9607652 -2.4227633 -1.9646983 -1.8307347
000020 7c 14 e3 bf 3b 86 0a c0 42 e2 ce bf b4 77 cc bf
       -1.7740626 -2.1644428 -1.6162798 -1.597403
000030 77 b0 eb bf 44 90 b1 bf 35 31 c2 bf 11 f3 d8 bf
       -1.8413228 -1.3872151 -1.5171267 -1.6949178
000040 7c b0 ae bf d3 40 d6 bf 31 be b0 bf 62 d6 01 c0
       -1.3647609 -1.6738533 -1.3808042 -2.02871
000050 2b 5a ae bf e4 44 90 bf 38 44 be bf 8d 27 95 bf
       -1.3621267 -1.1271024 -1.4864569 -1.1652695
000060 e5 65 86 bf 17 bd 51 bf 15 55 df be dc e5 ad 3f
       -1.0499846 -0.81929153 -0.436196 1.3585773
000070 b1 1b b0 3e d6 e1 34 3e
       0.34396127 0.17664275

bn1.running_var f4 [30]
000000 48 56 d0 41 0c 65 cc 41 a3 a1 c0 41 ed 85 cd 41
       26.04213 25.54934 24.078924 25.690393
000010 aa 12 ca 41 34 35 d3 41 4c 50 b7 41 37 50 ad 41
       25.259113 26.400978 22.914207 21.664167
000020 31 90 b5 41 1b 2d c5 41 88 00 bb 41 a8 05 a9 41
       22.695406 24.647024 23.37526 21.127762
000030 85 90 b6 41 81 b4 93 41 d7 cd a3 41 c4 f4 b6 41
       22.820566 18.463137 20.475508 22.869514
000040 1f c4 8e 41 0d 65 a0 41 3b 46 a6 41 f2 d8 b8 41
       17.845762 20.049341 20.784292 23.10593
000050 12 e0 99 41 84 8a a4 41 d4 04 80 41 60 3e aa 41
       19.23441 20.567635 16.002357 21.280457
000060 ce 56 9b 41 d5 85 8a 41 52 59 8a 41 88 77 b6 40
       19.417385 17.315348 17.293613 5.702091
000070 5a 50 1a 41 ab 8d 83 41
       9.644617 16.444174

dense1.dense.weight f4 [96, 512]
000000 a4 a2 d4 be 2e d1 9c be ec a0 0a 3e 1e 06 7c bf
       -0.41530335 -0.3062834 0.1353795 -0.98446834
000010 cc 3e da be b0 e6 62 3f 1c 98 3f 3e ec f1 06 bf
       -0.42626035 0.8863325 0.18710369 -0.52712893
000020 bb f5 cb 3e 80 4b a1 3e 40 87 8e bd 2b eb ed be
       0.39835915 0.31502914 -0.06959391 -0.4646848
000030 da 9a 43 bf f1 cc 9d 3e 3e 07 9a 3e 22 fb e6 3a
       -0.7640816 0.3082042 0.3008365 0.0017622451
000040 c1 3a fc bd 4d 38 9c 3e 74 2b 85 bd d4 fe 57 3e
       -0.12315894 0.30511704 -0.06502429 0.21093303
000050 48 a1 33 be e8 5b d7 be 77 dd e2 3e df d9 3b bf
       -0.17541993 -0.42062306 0.4430959 -0.7337932
000060 e3 f3 8d bf 63 28 79 bf 03 f6 a9 3e 8e 2f 09 3f
       -1.1090053 -0.9732725 0.33195505 0.5358819
000070 fb 84 3e 3f 76 1d 40 3e 2b db 0a 3e 09 fe 73 3e
       0.7442166 0.18761238 0.13560168 0.23827375
000080 eb f5 85 bc 51 43 da bd 1f 27 7b be ae a6 0e bf
       -0.016352614 -0.10657371 -0.24526642 -0.55723083
000090 35 6e 86 3e bf 8c 63 3d 8e 99 20 3f 6f 5f bd 3e
       0.26255956 0.055554148 0.62734306 0.36986873
0000a0 27 6e fd 3e 43 53 97 bf f5 65 b4 be 91 4c a3 3e
       0.49498102 -1.1822284 -0.35234037 0.31894353
0000b0 58 4b eb 3e 0d 45 db 3d dd 2b 0a 3e 67 f2 77 3e
       0.4595592 0.1070653 0.13493295 0.24213563
0000c0 8d 64 0a bf a4 1f 8b 3f 0f 13 22 3f 79 ad dc 3e
       -0.5405968 1.0869031 0.6331033 0.431011
0000d0 56 fd 0e bf 83 a7 02 3f 2d ce f1 3e 58 61 ef 3c
       -0.5585531 0.5103685 0.47227612 0.029221222
0000e0 6d 19 43 bd 10 9c b2 be 0f c0 95 3e 99 72 2e 3f
       -0.04763167 -0.3488469 0.29248092 0.6814361
0000f0 70 de df 3d eb 67 44 3f 38 fc 56 bf f5 46 e0 be
       0.109310985 0.76721066 -0.83978605 -0.43804136
000100 93 c1 9d bd 8c 43 a0 bd 76 f1 82 be ad 2a 4e 3e
       -0.07702937 -0.078253835 -0.25574845 0.20133467
000110 72 ab 80 3e 9f 8d 41 bf e8 f1 fa be af 3f 22 be
       0.25130802 -0.7560672 -0.49012685 -0.15844606
000120 d7 f9 ca 3d b2 f6 f4 3d 8a 29 85 3e 41 62 35 bf
       0.099109344 0.11961116 0.26008254 -0.7085305
000130 4d 7f 82 3d b3 4c 23 3f 5e 4c ae 3e 66 3f 07 be
       0.06371937 0.6378891 0.3404264 -0.13207778
000140 fb b3 05 bf 25 7e e7 3e 2d eb 9a bc 31 b4 86 bd
       -0.52227753 0.45213428 -0.018910969 -0.065773375
000150 e9 09 45 bf 94 60 94 bd 84 d8 4e 3e 74 ae 0f 3e
       -0.76968247 -0.07244983 0.20199782 0.14031392
000160 33 49 2a 3d 10 29 d1 3d 54 1f db 3e 0d 6e 25 bf
       0.041573714 0.1021291 0.4279734 -0.6462105
000170 50 d3 b6 3e de 77 87 bd 0b 1d 45 bf fa 5e 2a 3f
       0.35708094 -0.0661466 -0.7699744 0.6655117
000180 9d b5 9e be 52 d1 2c bf 5e 66 ab 3e cf f7 de bd
       -0.30997935 -0.675069 0.33476537 -0.108871095
000190 7f 5c 18 3f 4e 61 8e be ff e3 79 be af 60 ae 3e
       0.5951614 -0.27808613 -0.2440338 0.3405814
0001a0 2e e5 da be 23 15 66 3e 9d b1 50 3f 90 6c 25 3f
       -0.42752975 0.22469 0.81521016 0.6461878
0001b0 ce 79 2b bf e6 e5 d8 3d f9 98 60 3e 46 93 be 3e
       -0.66982734 0.10590725 0.21933354 0.37221736
0001c0 fb f6 5c bb 67 47 c0 bd 47 7b ad 3e 2e bd 86 be
       -0.0033716548 -0.09388619 0.33883116 -0.26316208
0001d0 23 00 4e bc c5 f1 4d bf fb 9c ed be f2 11 39 be
       -0.012573275 -0.80447036 -0.4640883 -0.18073252
0001e0 cc 2d 89 bd 86 9f b3 3c 3c 31 79 bf 23 55 25 3d
       -0.06698188 0.021926653 -0.9734075 0.040364396
0001f0 29 74 09 3f ab d6 9f 3e fd 28 41 3e 91 3c 88 be
       0.5369287 0.31218466 0.18863292 -0.26608709
000200 18 4b 18 3e ee d6 47 be 29 bc dc be b3 0a e8 bf
       0.14872396 -0.19515583 -0.43112305 -1.8128265
000210 25 b4 2c bf 16 12 8b be 0d 97 06 be 04 46 a9 be
       -0.6746238 -0.27162236 -0.13143559 -0.3306123
000220 ad a6 3a 3e cc 34 7f 3e 3a 5d 01 3e 56 86 40 bf
       0.18227644 0.24922484 0.1263322 -0.7520498
000230 35 95 09 be b5 c9 1a be 09 e4 ad 3e 69 9f ac 3b
       -0.13435824 -0.15116008 0.3396304 0.0052680266
000240 b1 91 a4 be 1e e9 e9 3e 6a 3a 17 3e df 9f 01 bf
       -0.32142404 0.45685667 0.14768377 -0.5063457
000250 bc 1c ca 3d 9e 49 73 3c 26 6e 93 3d 19 7b a7 3d
       0.09868762 0.014849095 0.071987435 0.08177776
000260 a3 d7 34 bf 22 fc e4 bd 13 64 73 3e 73 d7 b5 be
       -0.70641536 -0.11180903 0.23768644 -0.35515937
000270 89 df 6e bf 31 e9 31 be b8 18 69 3e 94 96 b4 3d
       -0.9330984 -0.17374112 0.22763336 0.08817783
000280 73 f1 f2 3d b0 c8 9f 3d 77 de 8c 3e 04 52 34 be
       0.11862459 0.0780195 0.27513477 -0.17609411
000290 58 8f 14 be 95 f6 05 be c6 f5 22 3e 48 1d 10 3d
       -0.14507806 -0.13082345 0.15914068 0.035184175
0002a0 00 47 92 3e b1 c2 11 bf 30 b8 10 be a4 5e 81 3e
       0.28569794 -0.569377 -0.14132762 0.25267518
0002b0 e4 a2 8a 3e b2 f8 80 3e 06 f3 2d bd 4d 7b 91 be
       0.270774 0.2518974 -0.042468093 -0.28414384
0002c0 db ce 02 be eb a5 d1 bd 26 31 ed be c3 f1 58 be
       -0.12774222 -0.102367245 -0.4632656 -0.21185975
0002d0 2d dc 21 bd 0f c9 cb 3e 9e 6e 66 3e 81 6d 8f be
       -0.039516617 0.39801833 0.22503135 -0.28013232
0002e0 dd 99 10 bf e3 c2 e2 bd c4 1f ce 3e 59 59 ce 3c
       -0.56484777 -0.11072328 0.4025861 0.025189089
0002f0 16 f2 19 3e a3 9b 96 be d4 90 a0 3e 8a 42 14 3f
       0.15033755 -0.29415616 0.31360495 0.5791403
000300 45 8b 22 3d 22 91 2e 3f 3a ae 07 3e 7d 5b 1e bf
       0.0396836 0.68190205 0.13250056 -0.6185835
000310 67 e5 38 3e 82 df 8e bc f9 99 95 3e 11 b9 3b be
       0.1805626 -0.017440561 0.29219034 -0.18332316
000320 dc 96 5a bd 6a 77 8e 3e f2 6f d2 3d d0 b9 96 bd
       -0.053366527 0.2782548 0.10275258 -0.0735966
000330 7e 96 39 be 76 19 03 3f 7b 61 b1 3e 4d 5a 21 bf
       -0.18123814 0.51210725 0.34644684 -0.63028413
000340 1e c1 2f 3f 48 03 8d be 42 ab 29 bf 40 45 ea be
       0.6865405 -0.27541566 -0.66276944 -0.4575596
000350 b5 e0 3a 3e b2 76 01 bf a1 0d 36 be 60 19 8b 3e
       0.18249781 -0.5057174 -0.17778637 0.27167797
000360 3a f2 9c 3d 8c 44 2f 3d f2 d0 1a 3e 03 46 f0 bd
       0.076633886 0.04278998 0.15118769 -0.11732104
000370 3c 65 12 3f 91 b2 e6 3e 2e c5 e8 3e 76 1a 07 3d
       0.5718572 0.4505811 0.45462936 0.03298422
000380 44 54 a5 3d 35 a1 26 3f 15 ae d3 be d1 48 a2 3e
       0.08072713 0.6508973 -0.41343752 0.3169618
000390 58 ad ae 3c ee 2a a5 be b5 a7 ec 3e f0 4d ca 3d
       0.021322891 -0.32259315 0.462217 0.09878147
0003a0 8d 5a 10 3e 46 4b 01 3f 50 85 f8 3c 1c f7 19 bd
       0.14097042 0.50505483 0.030337006 -0.037589177
0003b0 64 0c 0f be 45 38 41 3e ba 51 6b 3d c2 64 46 bf
       -0.1396957 0.18869121 0.057450987 -0.77497494
0003c0 87 fe 6f 3e a1 21 a0 3e 05 b6 0a 3f 51 d5 01 3f
       0.23436938 0.31275657 0.5418399 0.5071612
0003d0 ba be 81 3e ab e8 c3 bd 28 19 ad be a5 93 4c 3d
       0.25340825 -0.09565862 -0.33808255 0.049945492
0003e0 09 4a 5d 3c a1 58 ff 3d 82 d8 b4 3e a8 c2 eb bd
       0.013506421 0.124680765 0.35321432 -0.11511737
0003f0 a9 43 aa be 55 cf f0 3e 4c b0 1a bf e3 95 b0 bd
       -0.33254746 0.47033182 -0.6042526 -0.086223386

dense1.dense.bias f4 [96]
000000 87 10 45 3e 29 eb 05 3e fa 97 31 bc ee ba 5a 3e
       0.19244586 0.13077988 -0.010839457 0.2136037
000010 27 d2 4b 3e 82 c0 c8 3c ab 31 77 3e 6d f0 62 3e
       0.19904386 0.024505857 0.2414004 0.22162028
000020 f8 83 47 3e cc 56 c7 3d b9 2a 74 3e 93 88 03 3e
       0.19483936 0.09733352 0.23844422 0.12845068
000030 a0 b8 99 3e 1c e3 0d 3e 7f 5c af bc 74 2a 0d 3e
       0.3002367 0.13856167 -0.02140641 0.13785726
000040 cd b1 28 3e 54 9d 1d 3e 5a 52 72 3e be 6a 55 3e
       0.16474076 0.15392047 0.23664227 0.208415
000050 e0 2a 27 3e 1b c5 96 bf f6 24 92 3e 44 1c b1 3e
       0.1632495 -1.1778902 0.28543824 0.34591877
000060 46 bf 8b 3e 27 1a f1 3d a3 92 3f 3e 75 50 6f 3e
       0.27294368 0.11772566 0.18708281 0.23370536
000070 f9 3c cb 3d 0b 22 b3 3e a3 34 17 3e 9b 6b 83 3e
       0.09923739 0.3498691 0.14766173 0.25668034
000080 f3 a5 5d 3e e4 7e 97 3e 83 b9 06 3e 03 cb 91 3e
       0.21645336 0.29588997 0.13156705 0.28475198
000090 d7 98 69 3e 70 b6 2e 3e c4 f9 6f 3e cf d9 56 3e
       0.2281221 0.17061782 0.23435122 0.20981525
0000a0 35 8b 5a 3e 6b db 66 3d 44 f6 91 3e b2 3a 04 3e
       0.21342166 0.056361597 0.28508198 0.12913015
0000b0 75 9c 27 3e ba 07 6e 3e 88 2a 84 3e de dc 87 3e
       0.16368277 0.23245135 0.258137 0.26535696
0000c0 d6 ba 5f 3e bd 97 1e 3e 65 70 5f 3e 8f af 00 3e
       0.21848616 0.15487571 0.21820219 0.1256697
0000d0 e2 64 d4 3d 3d 97 74 3e 72 71 6d 3e 4e f6 7b 3e
       0.10370804 0.23885818 0.23187807 0.24605677
0000e0 91 3a 3c 3c 2e 96 75 3e a0 f9 7e 3e d7 14 5f 3e
       0.011488573 0.2398307 0.24899912 0.21785294
0000f0 77 0b 43 3e 72 89 41 3e 41 da 62 3e 57 3a 9e 3e
       0.19047342 0.18900087 0.2215357 0.30903885
000100 20 df 80 3e 65 61 88 3e e2 b1 70 3d 28 dd 90 3e
       0.2517023 0.26636806 0.058763392 0.2829373
000110 c1 53 61 3e 3e 0b 81 3e fb dc 09 3e 0b 8e 83 3e
       0.22004606 0.2520389 0.13463204 0.25694308
000120 cb 82 f8 3d ed 07 61 3e 03 68 45 3e f1 a1 8d 3e
       0.12134322 0.2197568 0.19277959 0.27662614
000130 3a a8 3f 3e 45 0a 53 3e 9d 28 66 3e 26 e3 7b 3e
       0.18716517 0.20609386 0.2247643 0.24598369
000140 6c 98 48 3b a4 85 8c 3e fe 4b c2 bf 44 94 6a 3e
       0.0030608429 0.2744571 -1.5179441 0.22908121
000150 b9 20 aa 3e 43 ba 55 3e 86 24 88 3e 2f bb 92 3d
       0.3322809 0.20871834 0.26590365 0.07164609
000160 85 c3 27 3e a0 3f 2f 3e 62 a6 4a 3d 3e db 90 3e
       0.16383179 0.17114115 0.04947508 0.2829227
000170 cd 94 80 3d 82 89 10 3e 37 f7 8b 3e 30 74 46 3e
       0.062783815 0.14114955 0.27337047 0.1938026

dense1.batch_norm1.weight f4 [96]
000000 7b b4 7e 3f 48 6e 41 3f 04 1f 24 3f 10 e1 78 3f
       0.9949414 0.755589 0.64109826 0.9721842
000010 ca 32 8c 3f ba ea 4d 3f ee ad 82 3f c6 1a 96 3f
       1.0953 0.8043629 1.0209329 1.1726921
000020 21 4d 89 3f 03 4f 78 3f 3f 97 5d 3f 41 9f 83 3f
       1.0726663 0.9699556 0.8655891 1.0282975
000030 7c 20 78 3f a3 68 7a 3f e6 bc c3 3e e3 69 78 3f
       0.9692457 0.9781591 0.38230056 0.9703657
000040 ee 84 72 3f e8 17 66 3f 7d 5b 93 3f a2 b2 84 3f
       0.94734085 0.8988023 1.1512295 1.0367014
000050 ba ff 95 3f ec 8d 8b 3f 9f 26 85 3f 04 35 86 3f
       1.1718667 1.0902686 1.0402411 1.0484929
000060 5a 35 83 3f 89 e6 8c 3f b0 dd 7d 3f c8 7c 88 3f
       1.0250657 1.1007854 0.99166393 1.066308
000070 af c6 8e 3f fb 0f 95 3f f6 2b 75 3f 47 c5 8c 3f
       1.1154383 1.1645502 0.95770204 1.0997704
000080 db 73 6b 3f cb c7 8e 3f 0e e9 5f 3f c7 ff 6b 3f
       0.91973656 1.1154722 0.8746499 0.9218716
000090 b8 47 86 3f 39 31 7f 3f f2 fd 83 3f 15 19 79 3f
       1.0490637 0.9968448 1.0311873 0.973039
0000a0 c3 94 92 3f 23 81 76 3f 28 2c 8e 3f 1f f4 78 3f
       1.1451648 0.96290797 1.1107225 0.972475
0000b0 c0 75 91 3f 25 1d 84 3f d8 0a 54 3f 6b 45 86 3f
       1.136406 1.0321394 0.82829046 1.0489935
0000c0 db dd 39 3f cb 24 92 3f 8c f5 9e 3f 2d 61 f2 3e
       0.7260415 1.1417478 1.2418685 0.47339764
0000d0 db 98 f3 3e d3 58 90 3f 0c 52 75 3f fb 37 85 3f
       0.47577557 1.1277107 0.9582832 1.0407709
0000e0 e5 c9 44 3f c0 01 74 3f f5 7d 81 3f 72 18 99 3f
       0.76870567 0.9531517 1.0116564 1.1960585
0000f0 94 4f 50 3f cd 3c 8c 3f ee 0c 7c 3f 90 93 5f 3f
       0.81371427 1.0956055 0.9845723 0.8733454
000100 b0 ff 8c 3f 62 ca 8b 3f 2d 81 72 3f 71 63 45 3f
       1.101553 1.0921137 0.94728357 0.7710486
000110 fe bd 77 3f 48 bb 73 3f 64 e5 71 3f 05 2a 70 3f
       0.9677428 0.95207644 0.9449065 0.93814117
000120 31 e6 54 3f f0 ed 84 3f a8 bb 72 3f 14 5a 7c 3f
       0.83163744 1.0385113 0.9481759 0.9857495
000130 11 76 74 3f 8a ee 85 3f a5 32 81 3f 03 f3 78 3f
       0.95492655 1.0463421 1.009358 0.97245806
000140 01 6f f6 3e 26 17 73 3f 78 a3 8e 3f c4 8c 84 3f
       0.48131564 0.94957197 1.1143637 1.0355458
000150 60 13 67 3f 6e 2d 85 3f 3b 2c 84 3f fe 46 7b 3f
       0.9026394 1.0404489 1.0325998 0.981552
000160 02 a5 88 3f bd c7 8a 3f 4c 08 1d 3f d6 40 8a 3f
       1.0675356 1.0842205 0.61340785 1.0801036
000170 a2 1d 23 3f f5 ce 45 3f 45 a4 83 3f 44 14 64 3f
       0.6371709 0.77268916 1.0284506 0.8909342

dense1.batch_norm1.bias f4 [96]
000000 2c 8a 24 bf 40 8b a9 be 64 cc e6 be 1e 92 0f bf
       -0.64273334 -0.33114052 -0.45077813 -0.5608233
000010 ef 78 56 bf ae 00 d7 be 6c ec 35 bf fb d7 63 bf
       -0.8377828 -0.41992706 -0.71063876 -0.89001435
000020 2c 2b 2c bf a9 f9 29 bf cc 8e fc be 3c cb 32 bf
       -0.67253375 -0.66396576 -0.49327695 -0.6984136
000030 0f 96 2a bf c7 a8 27 bf 21 d9 ff bd 8b a4 17 bf
       -0.6663522 -0.6549191 -0.12492586 -0.5923545
000040 c0 1f 21 bf 7a d5 13 bf ae 73 42 bf c3 4e 1f bf
       -0.6293907 -0.57747614 -0.75957763 -0.62229556
000050 51 f4 5e bf 21 b6 11 c0 08 e3 19 bf f2 d2 33 bf
       -0.8709155 -2.2767413 -0.6011205 -0.7024375
000060 bf d6 23 bf ec c0 28 bf a5 c2 34 bf cb 9c 21 bf
       -0.6399955 -0.65919375 -0.70609504 -0.6312987
000070 3e cb 3e bf f7 c9 3d bf 8f cb 18 bf 50 92 3c bf
       -0.7452887 -0.741363 -0.59685606 -0.73660755
000080 e4 70 f8 be d8 c9 2b bf 4e 10 f5 be b3 37 12 bf
       -0.4852363 -0.67104864 -0.47864002 -0.5711624
000090 b4 ef 43 bf c8 e4 28 bf 68 48 13 bf d2 e8 0d bf
       -0.7653763 -0.6597409 -0.5753236 -0.5543338
0000a0 5a 53 4a bf 09 dd 14 bf 69 3a 3d bf 81 1b 20 bf
       -0.79033434 -0.5814977 -0.7391725 -0.6254197
0000b0 77 0b 4d bf 5e 7d 2d bf 72 7d f0 be d1 a4 24 bf
       -0.8009562 -0.6776942 -0.46970707 -0.6431399
0000c0 3e cd 7f be 64 ee 4d bf 3c ab 60 bf 34 d0 a8 bd
       -0.24980637 -0.8044188 -0.8776128 -0.082428366
0000d0 55 37 fc be 7f 0d 39 bf 00 64 11 bf d2 89 2e bf
       -0.49260965 -0.7228622 -0.5679321 -0.6817905
0000e0 5c 40 c4 be 35 ad 0e bf 0a c9 12 bf a6 99 39 bf
       -0.38330352 -0.5573304 -0.5733801 -0.72500074
0000f0 ed d3 c0 be 49 bd 30 bf df be 20 bf ea 45 11 bf
       -0.37661687 -0.69038826 -0.62791246 -0.56747305
000100 60 11 41 bf b0 71 38 bf c6 94 31 bf 9d f4 c4 be
       -0.7541714 -0.72048473 -0.69367635 -0.38467875
000110 23 90 43 bf a2 6a 17 bf da 79 0e bf 73 2c 11 bf
       -0.7639181 -0.59147084 -0.5565468 -0.5670845
000120 e7 85 ec be 69 65 1f bf 94 26 14 bf ec 2e 25 bf
       -0.4619591 -0.62264115 -0.57871366 -0.6452472
000130 69 c2 24 bf 32 c9 15 bf 3f c4 25 bf ad 5b 16 bf
       -0.64359146 -0.58510125 -0.6475257 -0.58733636
000140 f0 00 0c be 94 f1 1b bf b8 63 21 c0 54 15 2e bf
       -0.13672233 -0.60915494 -2.5217113 -0.68001294
000150 50 50 19 bf fa c0 3d bf 51 5b 2e bf 01 ee 34 bf
       -0.5988817 -0.74122584 -0.6810809 -0.70675665
000160 d4 8e 27 bf bd 42 42 bf 60 aa 6b be 83 3c 26 bf
       -0.65452313 -0.75883085 -0.23014212 -0.64936084
000170 8e 3e e8 be 07 04 b9 be f1 fa 22 bf eb 3f d8 be
       -0.45360225 -0.36135885 -0.63664156 -0.42236266

dense1.batch_norm1.running_mean f4 [96]
000000 f1 28 3b c0 27 b0 2e c0 a0 ac d6 bf 14 94 23 c0
       -2.9243739 -2.7295015 -1.6771431 -2.555913
000010 65 e7 3b c0 f0 bb a0 bf e7 5c 49 c0 f1 48 5f c0
       -2.9359982 -1.2557354 -3.1462953 -3.488827
000020 5c b6 84 c0 18 8a 3d c0 d2 7d c5 bf 35 95 3a c0
       -4.1472607 -2.9615536 -1.5429022 -2.9153569
000030 12 67 1e c0 82 7a 42 c0 9e ee c0 c0 2a e9 37 c0
       -2.475041 -3.0387273 -6.029128 -2.8736062
000040 ef 09 31 c0 40 8f 24 c0 dc b1 4b c0 45 6c 1e c0
       -2.7662313 -2.5712433 -3.1827307 -2.4753582
000050 db c1 1b c0 4b 93 a6 3e 40 e3 43 c0 29 79 36 c0
       -2.433707 0.3253425 -3.0607452 -2.851145
000060 da b2 0a c0 c8 af 2f c0 82 e9 10 c0 d5 95 5c c0
       -2.1671662 -2.7451038 -2.2642522 -3.446645
000070 64 65 06 c0 a7 28 2a c0 87 9d 31 c0 03 eb 23 c0
       -2.0999384 -2.6587312 -2.7752397 -2.561219
000080 7a f8 db bf 08 73 0f c0 5f 68 2a c0 dc ca 12 c0
       -1.7185204 -2.241396 -2.6626203 -2.2936316
000090 72 28 48 c0 e5 e9 34 c0 a9 c2 0d c0 7e 24 5e c0
       -3.1274686 -2.8267758 -2.215006 -3.4709773
0000a0 9f db 5b c0 50 58 2d c0 65 fe 3a c0 6e 22 e3 bf
       -3.4352796 -2.7085152 -2.921777 -1.7744882
0000b0 d3 0f 29 c0 8a 48 28 c0 4e e3 1a c0 62 03 1d c0
       -2.6415908 -2.6294274 -2.4201236 -2.4533315
0000c0 31 ea a9 bf 0c 57 2a c0 43 59 1b c0 42 df 91 c0
       -1.3274595 -2.661563 -2.427323 -4.558503
0000d0 f5 73 38 be 0b b9 32 c0 6c 48 0e c0 79 2d 44 c0
       -0.18012984 -2.7925441 -2.2231703 -3.0652754
0000e0 dc ee 22 c0 a7 c1 14 c0 e4 3d 0f c0 51 5c 74 c0
       -2.5458288 -2.3243196 -2.2381525 -3.8181345
0000f0 e4 38 02 c0 1a 3a 3f c0 01 40 3c c0 b8 ab 4f c0
       -2.0347223 -2.9879212 -2.9414065 -3.2448559
000100 49 11 26 c0 c8 26 41 c0 46 2d 4e c0 51 b2 cf bf
       -2.594805 -3.017992 -3.2215133 -1.6226293
000110 f3 02 5c c0 c9 1f 61 c0 0f fc 29 c0 70 d0 f7 bf
       -3.43768 -3.517565 -2.6560094 -1.9360485
000120 06 1f 2f c0 5e ba 23 c0 9c 7c 20 c0 84 65 26 c0
       -2.7362685 -2.55825 -2.5076056 -2.599946
000130 8a 18 4a c0 d6 28 11 c0 db d7 15 c0 6d c1 72 c0
       -3.1577477 -2.2681174 -2.3412998 -3.7930558
000140 49 b3 de c0 c4 aa 3d c0 d4 73 00 c0 3a e4 31 c0
       -6.9593854 -2.9635477 -2.0070696 -2.7795548
000150 fe ec eb bf e8 94 46 c0 5a ad 34 c0 d4 4f 2a c0
       -1.8431699 -3.1028385 -2.8230805 -2.6611223
000160 72 02 13 c0 bd 44 3c c0 83 f0 b2 c0 d2 be ab bf
       -2.2970243 -2.9416955 -5.5918593 -1.3417609
000170 df 56 63 c0 79 ed 14 c0 78 e7 bb bf fc 45 05 c0
       -3.5521772 -2.3269942 -1.4680014 -2.0823965

dense1.batch_norm1.running_var f4 [96]
000000 84 70 6b 41 e0 d5 26 41 6d 60 16 41 3c 63 6b 41
       14.71497 10.427216 9.398541 14.711727
000010 07 f6 61 41 58 e4 a3 41 de 84 91 41 f3 db 7e 41
       14.122565 20.486496 18.189877 15.928699
000020 b1 30 8d 41 0a e8 81 41 83 9d 0d 41 e7 4c 67 41
       17.648775 16.2383 8.850955 14.456275
000030 43 18 2f 41 cc 9c 3e 41 38 b3 3d 42 90 e0 3d 41
       10.943423 11.9132805 47.42502 11.867325
000040 6d d5 2a 41 39 ca 71 41 15 19 5a 41 fe 8e 3f 41
       10.677106 15.111871 13.631124 11.97241
000050 35 9e 4c 41 69 00 d2 40 6f 23 6b 41 55 04 2a 41
       12.788625 6.56255 14.696151 10.626058
000060 2f 29 49 41 da 00 7a 41 1e 01 84 41 00 94 89 41
       12.572555 15.625208 16.500546 17.197266
000070 93 b2 60 41 4e 09 4a 41 86 38 77 41 0f 25 26 41
       14.043597 12.627272 15.4513 10.3840475
000080 e5 39 37 41 81 db 47 41 ad 1c 4c 41 8c 77 28 41
       11.451634 12.49109 12.757001 10.529186
000090 f1 5b 5a 41 fd 05 6a 41 c3 15 76 41 88 24 9c 41
       13.647447 14.626462 15.380313 19.517838
0000a0 ea d5 63 41 8a c1 6f 41 9f 4a 7f 41 42 6c 3f 41
       14.239725 14.984751 15.955718 11.96393
0000b0 6e 81 96 41 cc 49 75 41 65 11 4d 41 93 64 2a 41
       18.813198 15.330517 12.816747 10.649554
0000c0 11 58 0c 41 43 33 7a 41 4f 3c 5c 41 f0 72 5f 41
       8.771501 15.637515 13.764724 13.965561
0000d0 9a 6c 7a 40 a1 ea 37 41 f6 e7 3f 41 de 2b 54 41
       3.9128785 11.494782 11.994131 13.26071
0000e0 ee db 20 41 12 20 42 41 a9 3f 5b 41 37 cf 89 41
       10.053694 12.13283 13.703042 17.22618
0000f0 94 12 4c 41 99 ef 6d 41 4b a0 40 41 76 8c 4c 41
       12.754536 14.8709955 12.039134 12.784292
000100 f5 65 62 41 5e 66 66 41 81 fe 85 41 85 43 0e 41
       14.149892 14.399992 16.74927 8.891484
000110 73 b1 49 41 4e f9 58 41 79 35 86 41 e8 d0 52 41
       12.605823 13.560865 16.77611 13.1760025
000120 05 0c 6c 41 19 7d 42 41 53 98 4f 41 c1 6e 3a 41
       14.752934 12.155541 12.974689 11.65204
000130 65 de 82 41 0e 67 3f 41 0a 16 47 41 0c 18 8d 41
       16.358591 11.96266 12.442881 17.636742
000140 9b 46 9c 42 da 2f 6f 41 06 bd 0c 41 74 07 39 41
       78.1379 14.9491825 8.796148 11.56432
000150 be 6e e5 40 c3 fd 4e 41 58 17 4d 41 24 cb 56 41
       7.1697683 12.936954 12.818199 13.424595
000160 ca 7b 93 41 32 80 75 41 58 9f 28 42 cd d4 1f 41
       18.435444 15.343798 42.15561 9.989453
000170 98 61 3a 41 ce d8 6e 41 06 3a 01 41 e9 10 4a 41
       11.648827 14.927931 8.076666 12.629128

dense2.dense.weight f4 [15, 96]
000000 11 b6 64 3e 86 44 12 bf 28 92 62 bf e6 9e f9 bd
       0.22335078 -0.5713581 -0.88504267 -0.121885106
000010 9f 40 94 3e 16 a6 29 3c c2 6a a2 be f2 d0 30 3e
       0.28955552 0.010354539 -0.31722075 0.17267206
000020 41 c7 dd be d7 b7 c6 be 64 6a aa be d8 03 11 bf
       -0.4331608 -0.38812134 -0.33284295 -0.5664649
000030 d3 5e e0 3d c8 6b f6 be 74 a6 64 3e ba 83 a2 3e
       0.10955586 -0.48129106 0.22329122 0.31741124
000040 98 03 fd be ca 2f a2 3d 22 ca bd be 6c fd 63 bd
       -0.49416804 0.07919271 -0.37068278 -0.055661604
000050 c5 61 19 be 16 0a 4a bc 40 66 ba 3e 6c 0c 24 bc
       -0.14978702 -0.012331506 0.36406136 -0.010012727
000060 9d 38 e7 be 0a 6e d2 3e 54 80 93 be 8f b0 84 be
       -0.4516038 0.41099578 -0.28808844 -0.25915954
000070 cb b2 3d bf 6b 05 ea be 6e 6a ac 3e c8 f0 9a 3e
       -0.7410094 -0.4570726 0.3367495 0.30261827
000080 91 a1 f9 be 88 68 bf be d7 74 05 be 18 82 b7 be
       -0.48756078 -0.3738444 -0.13032852 -0.3584144
000090 8e 75 e2 be cf bc 1d bf 67 e0 ce 3d 98 d5 4e bf
       -0.44230312 -0.61616224 0.10101395 -0.8079467
0000a0 d3 b3 32 bf c9 c3 df be 41 32 2b bf ee a6 56 bb
       -0.6980564 -0.4370406 -0.66873556 -0.0032753306
0000b0 a3 2e bf be e0 94 ba 3e dd 1a 35 3e 85 67 86 be
       -0.37340268 0.36441708 0.17686029 -0.26250854
0000c0 59 9a 1d 3e d7 2e 3b bf 91 dc 95 be dd ff 63 bd
       0.1539091 -0.73118347 -0.2926984 -0.055663932
0000d0 fb f3 01 bf b2 7a cd be bb 56 12 3e 87 15 4f 3d
       -0.5076291 -0.40132672 0.14290898 0.05055764
0000e0 7b 0e 65 be b9 fc ee be ad 6f f5 be 2e 4a 04 bf
       -0.22368805 -0.46677187 -0.47936764 -0.5167569
0000f0 99 78 37 3e d0 66 1e 3d 89 b3 a5 be 5b fd d9 be
       0.17917098 0.03867227 -0.32363537 -0.42576107
000100 0c b5 ab 3e 0d 03 88 3e 4c 9d 09 bf 37 3e 33 bf
       0.33536565 0.26564828 -0.5375564 -0.7001681
000110 b8 ad 9c be ac c5 9f be e4 64 3e bf 93 5e 64 be
       -0.30601287 -0.312055 -0.74372697 -0.22301702
000120 4a 3f 80 bf d6 9d d0 be 62 2d a4 be f2 c0 04 3e
       -1.0019314 -0.4074542 -0.32065874 0.12964228
000130 ee cd 08 bf b2 c4 fa bd d3 4f af be a0 73 1c bf
       -0.53439224 -0.12244548 -0.3424059 -0.6111393
000140 5d 7b 3e 3e b0 c7 32 be 85 72 62 bc 3b 27 a3 3e
       0.18601747 -0.17458987 -0.013821249 0.31865868
000150 40 fb 4d be 03 f0 b5 3e dc 5b b6 be 12 fa 2c bf
       -0.20115376 0.35534677 -0.35616958 -0.67569077
000160 43 ec 62 be 4e b5 3d bf 7c cb c7 3e 11 c5 b5 3e
       -0.22160439 -0.74104774 0.39022434 0.35501912
000170 7e ba bb 3e 7a 45 36 bf 48 f6 9c 3e 43 d1 c0 be
       0.3666572 -0.7119976 0.30656648 -0.37659654
000180 9a b5 2f bf 13 97 6b be 62 8f 0e be 26 30 8d be
       -0.68636477 -0.23006849 -0.13921884 -0.27575797
000190 9d 29 97 be 4f 23 67 bc 99 90 a9 be 30 33 3f bf
       -0.29523936 -0.014107539 -0.33118132 -0.7468748
0001a0 f5 87 95 3e 24 ee 11 bf 1e bd af be 87 5e 10 bf
       0.2920529 -0.57004 -0.34323972 -0.5639424
0001b0 d7 b5 72 be 1c 4a 15 be ff 6f b3 3e c9 2f ff be
       -0.23702179 -0.14579052 0.35046384 -0.49841145
0001c0 6c 3b e1 bc b8 e9 61 bf 1b 79 94 3d 69 b4 90 bc
       -0.027494155 -0.8824725 0.072496615 -0.017664151
0001d0 c6 bd 20 bf 29 5b 1f bc 95 9f 40 be b0 27 b7 be
       -0.6278957 -0.009726324 -0.18810876 -0.35772467
0001e0 2e f2 dd bd 8a d1 1f bf 7c 09 11 be b7 2d 86 be
       -0.10837208 -0.62429106 -0.14163774 -0.26206753
0001f0 5c a8 13 be 79 20 0b bd 99 7e 35 bf 34 cc 60 be
       -0.14419693 -0.033966515 -0.708963 -0.21952897
000200 8c fc cc 3c dd 1a 00 3e 91 32 ac 3e 28 56 09 bf
       0.025022767 0.12510248 0.3363233 -0.5364709
000210 d3 5a 0b be 33 b7 80 3e 23 32 4f be ae e9 aa be
       -0.13608865 0.2513977 -0.2023397 -0.33381408
000220 48 04 cd 3e c8 45 8e 3e b3 33 fa be 4c d8 d4 be
       0.4004233 0.27787614 -0.48867568 -0.4157127
000230 26 f4 48 bf 54 74 5c 3e e4 94 8b 3d b5 89 17 bf
       -0.7849754 0.2152875 0.06815508 -0.591945
000240 52 6d 1c 3e 18 89 b4 3e 0a c2 81 be e8 5c 85 bd
       0.15276077 0.35260844 -0.25343353 -0.06511861
000250 ed e2 e3 be 28 01 30 3e 5b 0a b0 3e 06 2c 86 be
       -0.44509068 0.17187941 0.343829 -0.26205462
000260 69 aa 45 be 21 4c 8d 3e 24 1f ce be 0f 1b 88 3e
       -0.19303288 0.27597144 -0.40258133 0.26583144
000270 15 a7 1c bf 4c f6 0d bf b2 d9 b3 bd 8a b8 54 bd
       -0.61192447 -0.55453944 -0.087817565 -0.051933803
000280 c0 73 1d bf 50 21 9b 3e 64 de 0f 3f 7d 1a 9c be
       -0.61504745 0.30298853 0.56198716 -0.3048896
000290 6f 54 5c be 24 d5 8c be 24 54 2b bf 6a 0a 15 3c
       -0.21516584 -0.27506363 -0.66925263 0.009096721
0002a0 b3 5c b1 bf df e3 16 bf 35 4b ad 3e c3 78 c1 be
       -1.3856415 -0.58941454 0.3384644 -0.37787446
0002b0 32 2c d2 3e e3 19 20 be fd 4c 46 3e fe 44 1c bf
       0.41049343 -0.15634875 0.19365306 -0.61042774
0002c0 b3 f6 b8 3e 35 63 aa bd a8 89 99 bb d3 3b 54 be
       0.36125717 -0.083197035 -0.0046855994 -0.20725946
0002d0 31 1d c2 bd 44 af 8b be e9 41 50 be 58 4a 65 be
       -0.09478224 -0.27282155 -0.20337643 -0.22391641
0002e0 41 8c bc 3e d5 a3 b1 be c4 4d 44 be e3 1e 46 be
       0.36825755 -0.34695306 -0.1917029 -0.1934772
0002f0 ff 02 4c be 33 a8 f7 be 36 c4 a4 be 77 5b 97 be
       -0.19923018 -0.48370513 -0.32180947 -0.2956197
000300 4d c6 9b be 65 88 9b bc 13 5f 90 3e 50 9e 38 bf
       -0.3042473 -0.018985936 0.28197536 -0.72116566
000310 b8 b6 0a bf 78 6b 83 bd 70 56 ff be f7 f0 61 bf
       -0.54185057 -0.064169824 -0.49870634 -0.8825831
000320 d6 13 01 bf 91 dd 5b 3e ba 99 81 be c4 3b 1c be
       -0.5042089 0.2147124 -0.25312597 -0.15257174
000330 47 6b 3d be bc 17 fa bd f7 87 1b 3e 33 f2 90 be
       -0.18497954 -0.12211558 0.15188585 -0.28309783
000340 a5 2e e7 3d 40 61 9b 3e 1f 99 12 3e 3c a9 79 3e
       0.112881936 0.30347633 0.14316224 0.24380964
000350 63 1c 37 bf e0 6e ca bc 9b cd e1 be 0f 4c ed be
       -0.7152769 -0.024711072 -0.44102177 -0.4634709
000360 1a 68 7d 3e 3f 6c ef bd e4 a0 74 be c7 65 eb bd
       0.24746743 -0.11690568 -0.238895 -0.11494022
000370 ef 1c e9 be 1d 09 0b bf c5 6e b2 3e 44 1f f8 3d
       -0.45529887 -0.5431078 0.34850135 0.121153384
000380 b3 3a 7b 3e 71 4f c7 3e e9 61 32 bf d8 4d ba 3d
       0.2453411 0.38927796 -0.6968065 0.09096879
000390 27 20 80 be 3a d4 bd be 9a 36 0d be e0 a1 bc bd
       -0.2502453 -0.3707598 -0.1379036 -0.09210563
0003a0 a4 fc 7b bc a1 97 36 3e 70 f0 24 be d7 b8 71 bf
       -0.015380058 0.1783128 -0.16107345 -0.9442267
0003b0 f1 f4 49 bf a0 32 1f be bf b5 67 3e 48 8f 67 be
       -0.78889376 -0.15546656 0.22627924 -0.22613251
0003c0 ad dd e6 be 60 70 39 3e 57 36 20 3f d1 2a 35 bd
       -0.45091 0.18109274 0.62582916 -0.044230286
0003d0 a1 54 86 bf 18 a1 13 bf 9c b1 4c bf 56 eb ab be
       -1.0494577 -0.57667685 -0.7995851 -0.33577985
0003e0 e3 c2 87 be a8 d3 a9 3e 74 48 62 3e fb df 38 bf
       -0.26515874 0.33169293 0.22097951 -0.7221677
0003f0 da a6 cc be 01 20 46 bf 3f e7 a4 be 46 df 2b be
       -0.39971048 -0.77392584 -0.32207677 -0.16784391

dense2.dense.bias f4 [15]
000000 10 7d 11 3f d4 ff 12 3f ed f0 f0 3e 22 d7 29 40
       0.56831455 0.5742161 0.47058812 2.6537557
000010 34 4b 06 3f 0b 56 ff 3e 4e cf 89 40 23 f3 f9 3e
       0.524585 0.49870333 4.3065557 0.4881831
000020 a5 9e 24 3f 0b 44 16 3f dd 06 2b 3f 41 98 37 3f
       0.6430457 0.58697575 0.6680735 0.71716696
000030 7e 29 29 3f 95 62 67 3d f9 08 4a c1
       0.6607894 0.0564905 -12.627191

dense2.batch_norm1.weight f4 [15]
000000 27 e4 d2 40 d5 be da 40 5f 49 b3 40 2c 55 0b 41
       6.5903506 6.835795 5.6027064 8.708294
000010 f1 ea bd 40 8e 70 bf 40 1c 15 1a 41 d5 02 bd 40
       5.9349294 5.9824896 9.630154 5.9065957
000020 f0 45 e0 40 8e 0e cb 40 e7 23 d5 40 58 89 e2 40
       7.0085373 6.3455267 6.6606326 7.0792656
000030 52 4f d3 40 3f 60 fd 3e 29 40 91 41
       6.6034327 0.49487492 18.156328

dense2.batch_norm1.bias f4 [15]
000000 b9 95 8f c0 fa b1 91 c0 fd 01 81 c0 e3 d7 87 c0
       -4.4870267 -4.5529757 -4.0314927 -4.2451034
000010 3b 0a 7c c0 e6 eb 79 c0 3d d3 80 c0 65 89 85 c0
       -3.9381244 -3.905023 -4.025786 -4.173022
000020 db 9a 8a c0 36 50 80 c0 d9 e5 86 c0 c5 f4 8b c0
       -4.3314033 -4.0097914 -4.2155576 -4.373629
000030 34 ed 8c c0 57 72 23 bf 92 98 b8 40
       -4.4039555 -0.63846344 5.7686243

dense2.batch_norm1.running_mean f4 [15]
000000 04 f5 8f 3e d6 52 a3 3e a4 e2 0f 3e 9b f7 16 40
       0.2811662 0.31899136 0.140513 2.3588626
000010 ee 9d 4d 3e f6 8f 5c 3e 27 57 80 40 b5 58 1b 3e
       0.20079777 0.21539292 4.0106387 0.15170558
000020 6b a6 a7 3e 91 58 8c 3e 25 f6 b4 3e 8e 9c c8 3e
       0.32744154 0.2741132 0.35344043 0.39181942
000030 39 14 a2 3e fb 2a 98 bd a3 b9 4d c1
       0.31656054 -0.07430073 -12.857821
