classification/model_rnafm/13_final/300Epoch/rna_type_checkpoint_fold_7.pt (torch, 252002 bytes, 24 tensors)

layer1.conv1.weight f4 [30, 30, 5]
000000 23 b8 f8 be 5d 5f 27 3e 14 a0 37 3f 68 80 ab bf
       -0.48577985 0.16344972 0.71728635 -1.3398561
000010 4c 62 d9 bf 4b e0 98 be af 21 07 3f 92 e0 33 3e
       -1.6983123 -0.29858622 0.5278577 0.17566136
000020 1e 2c 1d 3e dd 51 51 3e 3a 3a ae 3e 20 d8 f8 3d
       0.1534886 0.20441385 0.34028798 0.121505976
000030 26 fb 5f be 99 43 e7 3e 32 db 0e 3f e1 7f 3c 3f
       -0.2187315 0.4516876 0.55803216 0.7363263
000040 64 23 ac 3d 24 d8 fa be 7c ae 50 3f 89 ea 55 3f
       0.08405188 -0.48993027 0.8151624 0.83561
000050 71 32 26 3f d8 7c 9b be 6e 58 4a bf 5d 05 c5 3e
       0.6492072 -0.30368686 -0.79041183 0.38480654
000060 47 13 0c 3f 07 2e e7 3e ff 80 33 bf 93 07 38 bf
       0.54716915 0.45152304 -0.7011871 -0.7188656
000070 00 14 ff 3e da 82 36 3f 56 58 af 3e c1 94 88 3e
       0.49819946 0.71293414 0.34247082 0.2667599
000080 9e e0 16 3d 8b c2 fd 3e 4b a4 26 3e 57 6c cd 3e
       0.036835305 0.49562487 0.1627361 0.4012172
000090 f6 c8 96 3e ee 9d 11 3f 81 a1 ad 3e 5d db 4d bf
       0.29450196 0.56881607 0.3391228 -0.80412847
0000a0 73 3f 16 bd 17 8c 5b 3b c4 6c 10 be 07 fb 53 be
       -0.036681604 0.0033500248 -0.14103991 -0.20701228
0000b0 a6 2f f5 bc a9 16 88 bd ca 37 07 bd 45 76 3d 3d
       -0.029929947 -0.06644947 -0.03301219 0.04625537
0000c0 89 82 08 be 43 55 48 3f aa 99 cb 3d 89 ae 38 bf
       -0.13331045 0.782551 0.099414185 -0.7214132
0000d0 fc c1 b8 be 00 26 66 3e 0c 9b a9 3e ac 64 dc bd
       -0.36085498 0.22475433 0.33126104 -0.10761389
0000e0 fb fa 08 be 78 a6 0d bd 97 87 d2 3e 45 78 55 3d
       -0.13376991 -0.034582585 0.41119072 0.05211665
0000f0 2f a5 54 be a5 76 01 3f 5d df 5f 3e b8 08 5f be
       -0.20766138 0.5057166 0.2186255 -0.2178067
000100 a0 53 1b 3f 63 cb a8 bc c8 fe 3c 3f 62 c8 56 3f
       0.60674477 -0.020604795 0.73826265 0.8389951
000110 6e f0 08 bf 89 bb ed 3e 9c eb 85 be 93 08 05 be
       -0.53491867 0.4643214 -0.26156318 -0.12991552
000120 19 ef 89 3d 45 dc 98 be 17 7e e5 3e cb 94 18 bf
       0.067350574 -0.29855552 0.4482276 -0.5960204
000130 46 ea 5c bd 2c 51 02 be 6c d0 5d be 76 84 54 3f
       -0.053934358 -0.12726277 -0.21661538 0.8301462
000140 2c f1 0e bf 31 a9 ab 3e b8 78 2e be 50 59 b2 3d
       -0.5583675 0.3352752 -0.17038238 0.08708441
000150 d9 ad 25 3f e1 01 39 bd 16 b7 0f 3e 5b 43 36 be
       0.64718395 -0.045167807 0.14034685 -0.17799132
000160 bb 42 4b be 82 1d b8 be 2f b1 a8 bd d4 9b 8c 3c
       -0.19849674 -0.35960013 -0.0823692 0.017164148
000170 7a b0 6d 3e 1a 25 d5 be 38 7c db be ca b6 65 bb
       0.23211852 -0.4162987 -0.4286821 -0.0035051578
000180 34 ee 6c 3e 8c 09 41 be b8 f5 13 bf 8c bc 8b be
       0.23137742 -0.18851298 -0.5779681 -0.27292287
000190 91 d4 13 3d 27 7e 19 3e 1a 2f e0 be da 8d 1b bc
       0.03609139 0.1498953 -0.43785936 -0.009494269
0001a0 c6 73 51 be 8b a8 bb bd 4d 54 e0 bc 81 fc 34 be
       -0.2045432 -0.091630064 -0.027383948 -0.17674448
0001b0 34 cd 8d be b7 d2 ca be df 02 be be 03 53 e4 3d
       -0.2769562 -0.39613888 -0.37111565 0.11148646
0001c0 1d 4c 41 bc 81 2f 3b bc a5 3f 83 3d c6 d3 ae 3a
       -0.011797932 -0.0114249 0.064086236 0.001333826
0001d0 c2 83 9b be 34 50 b0 bd 92 d4 a6 3d 57 9b 1c 3d
       -0.3037396 -0.086090475 0.08146013 0.03823408
0001e0 89 ab 3f 3d cc f3 f8 bd d4 a6 76 bc 46 fc 17 3e
       0.046794448 -0.121558756 -0.015054423 0.14842328
0001f0 93 73 ac bd dd 6c 42 bd 2c c3 d8 bb 6f 0d 93 3e
       -0.084204815 -0.0474671 -0.006615063 0.28721187
000200 1c f2 db 3d 6e 81 3c be c8 d1 fc 3d 23 b4 5d 3e
       0.10739538 -0.18408749 0.123447 0.21650748
000210 68 ae b2 3e 9b e8 14 be eb 5d 5b be 51 bd 2c bd
       0.34898686 -0.14541857 -0.21422546 -0.042172734
000220 17 65 5e 3e 72 7c d6 3c 6f 18 11 3e 08 b0 49 be
       0.2171825 0.026182387 0.14169477 -0.19696057
000230 62 39 50 be eb e2 c1 3d 25 bc f4 3c c8 3e 3e 3e
       -0.2033439 0.09467109 0.02987487 0.18578637
000240 ba 27 84 3e 00 d0 44 be 5b 64 a0 be d8 b2 0c bc
       0.2581156 -0.1921997 -0.31326565 -0.008587562
000250 7f 83 04 be b6 0e 5e 3e ea a9 aa 3f 1f c5 30 be
       -0.12940787 0.216853 1.3333104 -0.17262696
000260 2a fa 79 3f db 03 55 3f 94 f5 8c 3f 24 ad 5e 3e
       0.97647345 0.8320901 1.1012444 0.21745735
000270 11 bf 51 bf 9b ad 88 bf 74 61 1a bf ba e2 03 bf
       -0.8193217 -1.067798 -0.6030495 -0.5151783
000280 1a 76 a1 be ab b4 a0 be 80 dc 19 bf a9 42 f9 be
       -0.31535417 -0.3138784 -0.6010208 -0.4868367
000290 f8 2e 5a be e0 96 9d 3d 5a 97 05 bf d5 e1 0f bf
       -0.2130698 0.07694793 -0.5218407 -0.5620397
0002a0 d0 5d 02 3e 50 5d 08 3f 97 28 9c 3d dd 1e 1f bf
       0.12731099 0.53267384 0.076249294 -0.6215647
0002b0 65 45 22 3f 0a fe 58 be ae c3 0e be ea 30 0b bf
       0.6338714 -0.21190658 -0.13941833 -0.5437151
0002c0 a5 86 de be e9 8e 26 bf 09 fc 66 be 62 62 32 be
       -0.434621 -0.65061814 -0.22557081 -0.17420343
0002d0 9d f6 12 bc aa de d6 3e f9 17 9a bf 02 50 86 3e
       -0.00896993 0.41966754 -1.2038566 0.26232916
0002e0 5f bf 62 bc 64 46 00 3e 0e f9 cf 3e 44 00 07 bf
       -0.013839572 0.12526852 0.406197 -0.5273478
0002f0 fb 37 fb 3d e6 5a 41 bc bb fc 68 3e 5d f4 53 3f
       0.12266537 -0.011801457 0.22752659 0.82794744
000300 f9 92 6e bf 8b 32 68 bd 7e d7 82 3d 0d d1 6e be
       -0.9319301 -0.056688827 0.06388758 -0.23321934
000310 66 37 2c bc 0e 75 9c be 08 07 29 be 80 33 64 be
       -0.010511255 -0.30558056 -0.16506588 -0.2228527
000320 48 81 78 3e 2c b5 31 3f ba 3d 8a bf b0 48 d9 3e
       0.24268067 0.6941707 -1.0800087 0.4243827
000330 e2 62 d5 3d 62 7d f8 3d f9 01 94 3e 0a 86 a9 be
       0.10419251 0.1213329 0.28907755 -0.33110076
000340 7c 49 6b bd d7 c2 9f bd 6b d1 30 be 57 fd ff be
       -0.057443127 -0.078008346 -0.17267387 -0.4999797
000350 d6 0e d8 3e 1a fb 13 bf cd 1b aa be 80 a6 ee be
       0.4219882 -0.57805026 -0.33224335 -0.46611404
000360 ef 6d ff 3d ea ce f7 3d a1 19 9f 3b 9c dd 38 bd
       0.1247214 0.121000126 0.00485535 -0.04513322
000370 d3 47 bf be 57 46 b7 bd 40 45 c9 3d 60 e8 84 be
       -0.37359485 -0.08948963 0.098276615 -0.25958538
000380 e4 d2 a1 3e 6f ed 1f bf 09 df 66 3e d9 08 89 3e
       0.3160621 -0.6247167 0.22546019 0.26764563
000390 34 78 b2 be 7a c7 ce 3e 21 e4 03 3d 19 bd 3a 3d
       -0.34857333 0.40386564 0.032199983 0.045590494
0003a0 db f0 82 be b8 03 55 3e 09 34 ac 3d 2c fa 1e 3f
       -0.25574383 0.208022 0.084083624 0.6210048
0003b0 04 a7 08 3f 5c 2b ed be f0 ff 44 be ae cf 16 bd
       0.53379846 -0.46322143 -0.19238257 -0.036819153
0003c0 c0 54 1a 3f 81 8c 50 3e 18 bc a9 be 21 36 8f bc
       0.6028557 0.20366098 -0.33151317 -0.017481865
0003d0 1b a9 5b bd 4d ff d4 3b 50 ea 01 3e 82 be 0e bf
       -0.05362807 0.006500161 0.1268704 -0.5575944
0003e0 a7 fd a3 be a4 ab bf 3e 91 bb 78 3d ee a3 69 be
       -0.3202946 0.3743564 0.060725752 -0.2281644
0003f0 4f ed aa be e3 7d e3 3d 0e d8 73 bd af 8f 96 3e
       -0.33384177 0.11107995 -0.059532218 0.29406497

layer1.conv1.bias f4 [30]
000000 e6 7d cd bd 8c 99 5a bd 73 fd c5 bb c7 42 ab bc
       -0.10033779 -0.05336909 -0.0060421764 -0.020905865
000010 5a 71 8f 3d 14 10 63 3d 14 75 6e bc cc 7b 7a 3d
       0.07004042 0.055435255 -0.014554281 0.06115322
000020 f4 c8 07 be cc 84 28 3d 8c a9 88 3d c0 37 82 3d
       -0.13260251 0.04114227 0.066729635 0.0635829
000030 2c d3 19 be 21 45 7c 3d b6 01 29 3d 8d 56 f2 3d
       -0.15021962 0.061589364 0.041261397 0.118329145
000040 9e 2f 11 3d 0c f6 16 bd 03 44 d8 3c ed 76 50 bc
       0.035445802 -0.036855742 0.026399618 -0.012723667
000050 a4 27 07 bd 66 77 25 3b 61 77 d5 3c d4 0a 3e bc
       -0.03299679 0.002524817 0.0260579 -0.011599261
000060 e8 83 f0 bd b4 7d 1b 3c eb ef 8a bd 16 5e 5c bd
       -0.11743909 0.009490419 -0.06784042 -0.053800665
000070 ef ec dd 3d 95 7a 00 3d
       0.10836207 0.031366903

layer1.bn1.weight f4 [30]
000000 79 e5 01 3f 84 37 6c 3f f7 36 25 3f bb 5a 03 3f
       0.5074077 0.9227221 0.64536995 0.5131032
000010 4d d8 3a 3f ee a7 ac 3f 7d b8 20 3f 41 3d 12 3f
       0.729863 1.3488748 0.62781507 0.57124716
000020 7c 57 6f 3f 6f 62 fb 3e 2b a8 11 3f 41 1c 30 3f
       0.93492866 0.49098536 0.5689723 0.6879311
000030 64 3a 40 3f 5d ba 22 3f ea 4e e1 3e ba ac 55 3f
       0.750891 0.6356562 0.4400552 0.83466685
000040 f5 ab 46 3f b6 4a 3f 3f 82 eb 0c 3f ce ef 7e 3f
       0.77606136 0.74723375 0.55046856 0.9958466
000050 ec cc 50 3f 29 d8 2e 3f 87 0a e8 3e 86 00 4a 3f
       0.81562686 0.68298584 0.45320532 0.7890705
000060 c6 7a 94 3f c2 41 22 3f 2d 8d 80 3f 38 a6 39 3f
       1.1599967 0.6338159 1.0043083 0.72519255
000070 34 af 80 3f fe 44 50 3f
       1.0053468 0.81355274

layer1.bn1.bias f4 [30]
000000 b1 30 a2 3b 5f 24 6b bd fa 9a 84 3c c1 4b f4 bc
       0.004949652 -0.057407733 0.01618718 -0.029821279
000010 e0 d7 52 3d ac 06 35 3e ca dc c0 bc dc 13 cb 3c
       0.051475406 0.17678326 -0.02354278 0.024789743
000020 74 0f 1f 3d 03 96 8e 3c 7d e6 b1 bd 8f 19 8d bd
       0.038833097 0.017405516 -0.0868654 -0.068896405
000030 f5 d8 93 3e a4 8f 86 3d 98 31 a8 3d 95 b8 cf bd
       0.28876463 0.06570366 0.08212584 -0.10142628
000040 c1 54 e0 3d a8 9d c4 bd 16 da dd 3d 03 fe cd 3d
       0.109536655 -0.09600383 0.10832612 0.100582145
000050 47 0e 7a bd 0e 40 8b 3d fa ff 82 3a 90 53 9a 3c
       -0.061048772 0.06799327 0.00099945 0.018838674
000060 43 7d 1b 3e aa 16 85 bc 2f 4b 96 3d f0 a8 16 3d
       0.15184502 -0.016246159 0.07338559 0.036782205
000070 19 35 94 bc c0 ee a7 3d
       -0.018091725 0.08199835

layer1.bn1.running_mean f4 [30]
000000 d0 ed be bd d4 61 85 bd cb 2b a3 bc 12 c6 20 bd
       -0.09322703 -0.065128 -0.019918343 -0.039251395
000010 21 bb 16 3d 7c 38 6f 3d 89 76 e0 bc 30 f2 54 3d
       0.036799554 0.058403477 -0.027400272 0.05198878
000020 0d 91 15 be 23 e3 9c 3c f9 59 46 3d b1 00 3d 3d
       -0.14606114 0.019151276 0.04842565 0.046143238
000030 1c fa 2d be 43 c0 46 3d 21 f2 a6 3c eb 4c 11 3e
       -0.1698994 0.0485232 0.020379128 0.14189498
000040 37 99 00 3d 6a 17 41 bd cd f0 7b 3c c1 d9 fd bc
       0.031396117 -0.04714147 0.015377236 -0.030987622
000050 ce 2e 3f bd ef d7 55 bc 56 44 d0 3c c0 4f 34 bc
       -0.046675496 -0.013051971 0.02542321 -0.011005342
000060 fb 88 03 be a2 25 fe 3b 9b e0 96 bd 3e dd 93 bd
       -0.12845223 0.007755951 -0.07367059 -0.07219933
000070 5b 9e b6 3d e8 ee 8d 3c
       0.08916923 0.017325833

layer1.bn1.running_var f4 [30]
000000 2b 2e 5d 40 c8 a0 16 41 b3 ab 39 40 9b dc 9c 40
       3.4559429 9.414253 2.9011047 4.9019294
000010 3c 78 75 41 96 8b 1f 3f 52 33 59 41 e3 3a 0a 41
       15.341854 0.62322366 13.575029 8.639377
000020 3c 1b c7 40 8e 7c 02 41 59 71 21 41 65 ff 40 41
       6.2220745 8.155409 10.090173 12.062352
000030 e9 ac b2 40 f2 8b 16 40 71 71 86 40 07 34 dc 40
       5.583607 2.3522916 4.201348 6.881351
000040 ea 75 f1 40 90 a4 8d 41 37 ce 55 40 76 d4 0f 41
       7.545644 17.705353 3.3407114 8.98937
000050 54 4b 38 41 41 f3 57 40 85 9a d8 40 92 5b c3 40
       11.518391 3.374222 6.7688622 6.104928
000060 7b 89 3d 41 47 6f d8 40 bb 58 a5 40 6f 0c be 40
       11.846065 6.7635837 5.1670814 5.939018
000070 9c a7 c3 40 7c cb cb 40
       6.11421 6.3685894

conv1.weight f4 [30, 30, 5]
000000 67 2a 79 3e fc 39 b0 3d 74 c9 2b 3f 70 31 0d 3f
       0.24332581 0.0860481 0.6710427 0.5515356
000010 c5 da 7b be 4d 9e 46 3d be 7d 9b bd 0b 4c 49 be
       -0.24595173 0.04849081 -0.07592343 -0.19657914
000020 71 76 9d be 0b 6a 46 be 73 bf 48 3e f4 a7 05 3f
       -0.30754426 -0.1937639 0.19604282 0.522094
000030 0c 45 80 be a0 6d 89 3d d6 14 6f 3f fa 31 d5 be
       -0.2505268 0.067103624 0.9339117 -0.41639692
000040 3f fb 9b 3e 5d f9 60 be 77 3f 84 bf 17 9d d8 3e
       0.30465123 -0.21970125 -1.0331868 0.4230735
000050 f7 dd d4 3e c6 de 17 3e 60 29 11 bf 71 40 49 bf
       0.41575596 0.14831075 -0.5670376 -0.78613955
000060 95 91 37 be 00 61 41 3f 82 e8 df be 5b 11 ac be
       -0.17926629 0.75538635 -0.43732077 -0.3360699
000070 f0 e0 a4 be b7 49 dd be 8e d8 57 be fb 39 fe be
       -0.32202864 -0.43220302 -0.21078703 -0.4965361
000080 29 25 37 bd 22 97 30 bd e8 27 05 be e1 1e 69 be
       -0.044713173 -0.04311288 -0.13003504 -0.22765686
000090 f5 b9 1b be 79 58 e1 3d 2e 6a 55 bf 5d 9a 5c bd
       -0.15207656 0.11003203 -0.8336514 -0.05385815
0000a0 de c6 86 3d 4d 5a c0 be 8e cf 85 3c ac a0 22 bf
       0.065809 -0.37568894 0.016334321 -0.63526416
0000b0 cf 40 43 bf 4d eb 18 3e 6c b6 60 3e db b0 24 be
       -0.76270765 0.1493351 0.21944588 -0.1608309
0000c0 84 77 04 bf f0 78 fe be bf c4 d5 bc 27 1d 01 3f
       -0.51744866 -0.49701643 -0.026094792 0.5043511
0000d0 20 4d 58 3e e2 d0 0c 3e 56 8c 15 3e fb ac da be
       0.21123171 0.13751557 0.14604315 -0.427101
0000e0 b0 e6 83 3e b5 62 69 bf a0 6c 0b bd f3 09 aa bd
       0.25761938 -0.9116624 -0.03403914 -0.08302679
0000f0 53 54 55 bf e8 a6 b6 3e 01 c0 12 bd 54 42 26 bd
       -0.83331794 0.35674214 -0.03582764 -0.0405906
000100 47 31 b9 3d 41 03 8c 3e e9 f3 60 be ce a9 c4 be
       0.09042602 0.27346233 -0.21968044 -0.384108
000110 32 2a 2a bf 18 f9 69 be ec 3f 8e be 76 6b c8 be
       -0.66470635 -0.22848928 -0.27783144 -0.39144486
000120 09 2b 51 be a7 f1 67 3e f0 55 1d be e1 48 18 bf
       -0.20426573 0.22650777 -0.15364814 -0.59486204
000130 0d 8b d0 be 2b b4 be be 12 aa 12 3e c0 c9 15 3d
       -0.40731087 -0.37246832 0.14322689 0.036569357
000140 37 67 5e 3e ed 48 13 3c 7a 17 8c be 5d 1f 2a bf
       0.21719061 0.008989555 -0.2736166 -0.66454107
000150 60 f7 a2 bb 34 fd 1d bd 89 f4 37 be da 21 b3 3e
       -0.004973337 -0.03857155 -0.17964377 0.34986764
000160 d0 f4 0b 3c 45 b7 d1 be e3 1f 36 3d 96 d8 5f 3d
       0.008542255 -0.40960136 0.044464003 0.05464991
000170 6e f7 0e bc 97 84 04 be cb 4d 1f bd 2d d0 19 3e
       -0.008725984 -0.12941204 -0.03889255 0.15020819
000180 da 1a 2e 3d ab 5f 54 be 4f aa 33 3f 25 ec 02 3f
       0.042506076 -0.2073962 0.70181745 0.5114158
000190 a4 c7 23 bf 35 82 52 3e 5c 82 2a bf 17 df fc be
       -0.639765 0.20557483 -0.6660516 -0.49388954
0001a0 b5 4c 81 3c 13 f0 0f 3f 39 f9 29 bd 1a 27 70 be
       0.015783647 0.562257 -0.041497443 -0.23452416
0001b0 a9 1c 07 3f 6e 37 cf 3e cf a9 1e 3e 0f 54 13 bf
       0.52778107 0.40471977 0.15494464 -0.5755014
0001c0 fb 3e 64 3e ce ae 0b 3e 34 d8 fa 3d 7d d9 95 3d
       0.2228965 0.13640901 0.12248269 0.07316873
0001d0 8f 23 8a be f0 cd d0 3d be 12 b0 3c 72 c9 45 bf
       -0.26980254 0.101955295 0.021493312 -0.77260506
0001e0 6e cf a5 be ec 75 e7 3d 75 85 92 be 42 9f bb be
       -0.3238482 0.11301789 -0.28617445 -0.36644942
0001f0 86 99 ff be 46 a2 6f be a1 d0 90 bd ef 93 91 be
       -0.49921817 -0.23401746 -0.07071043 -0.28433177
000200 81 5f aa 3e e8 b8 9d 3e 03 59 c0 be f0 5b c4 be
       0.3327599 0.30805135 -0.3756791 -0.38351393
000210 6e 2b f0 3e b4 9b af 3e 97 b4 25 be d5 5a 3e bf
       0.46908134 0.3429848 -0.16182171 -0.7435735
000220 a0 20 9a be ff 35 96 be 74 90 15 be 65 1e 45 bc
       -0.30103016 -0.2933807 -0.14605886 -0.012031172
000230 2d 08 e8 3e 96 d6 d4 3e 7a 46 b2 3e 1a 2e a9 be
       0.45318738 0.41569966 0.34819394 -0.33042985
000240 e9 2a c8 be df 1b 86 3e 97 60 03 be 71 b0 0a bf
       -0.39095238 0.2619314 -0.12829815 -0.5417548
000250 56 7e d5 be 17 a6 18 3e 47 e7 5b 3e 38 1d 27 3c
       -0.4169795 0.14907108 0.21474944 0.010199837
000260 dc 63 32 3f 15 56 10 3f 14 42 20 be a6 dd 00 3e
       0.69683623 0.5638135 -0.15650207 0.12584552
000270 80 7f 09 be c3 67 45 be 3e 86 98 be 4b f6 6c be
       -0.13427544 -0.19277863 -0.2978992 -0.23140828
000280 fa 78 26 3e 53 9a 05 3f 58 5d 5d be 84 91 d3 3d
       0.16257086 0.52188605 -0.21617639 0.10330489
000290 af 6b 66 3f 89 9c f6 be 16 2e 87 3e 1d 5c 44 be
       0.9000806 -0.48166302 0.26402348 -0.19175763
0002a0 ae f2 84 bf 0f 33 02 3f eb 53 cf 3e 00 a5 fa 3d
       -1.038656 0.5085916 0.40493712 0.122385025
0002b0 89 45 15 bf ed fe 4a bf aa 79 51 be c1 b5 47 3f
       -0.5830923 -0.79295236 -0.20456567 0.7801171
0002c0 db 16 dc be 3b 5b a8 be 8b 69 9f be 29 f9 d7 be
       -0.42986187 -0.32882103 -0.3113521 -0.42182282
0002d0 5e 52 1e be 73 d9 08 bf 3c 92 94 bd 8e 23 2f be
       -0.15461108 -0.534568 -0.072544545 -0.17103407
0002e0 3c ba 31 be e5 1b c0 be 20 fc 7f bd 7f c2 77 3b
       -0.17356199 -0.37521282 -0.062496305 0.0037805138
0002f0 3a bd 3f bf eb fb 97 bd 57 21 88 bc dc 6f 8a be
       -0.7489811 -0.074210964 -0.01661746 -0.27038467
000300 7a 0b 48 3d b3 ea 31 bf e1 6d 36 bf 21 78 06 3e
       0.04883907 -0.6949875 -0.7126141 0.13131763
000310 4a 2b 63 3e f0 4d 11 be 02 3c ce be 5d e4 c8 be
       0.22184482 -0.14189887 -0.40280157 -0.39236727
000320 ba cc cc 3d bb 03 06 3f 34 f0 8a 3e 0d cf 15 3e
       0.09999986 0.5234944 0.27136385 0.14629765
000330 f1 30 94 3d 40 7c f9 be 26 3b 89 3e 3c 06 68 bf
       0.07235897 -0.48727608 0.2680294 -0.9063451
000340 21 d6 35 be ec eb 1f be 4f 38 51 bf 03 9a b6 3e
       -0.17757465 -0.15617341 -0.81726545 0.35664377
000350 c6 0b 40 bd e3 97 46 bc 2e 6d d3 3d 7a 16 48 3e
       -0.046886228 -0.012121174 0.10323559 0.19539824
000360 01 d0 30 be c4 71 b1 be bd e1 2c bf 3e f4 6b be
       -0.17266847 -0.3465711 -0.6753195 -0.2304239
000370 12 8c 62 be 6a fc e7 be ca 2c da bd 2a e4 78 3e
       -0.22123745 -0.45309764 -0.10653074 0.24305788
000380 35 e6 16 be 63 a9 17 bf 51 f1 d0 be b0 cc a1 be
       -0.14736255 -0.5924284 -0.4080911 -0.31601477
000390 02 63 fa 3d 71 db 7d 3d a7 75 9f 3e 1b 32 11 bd
       0.122259155 0.061976854 0.3114445 -0.035448175
0003a0 07 55 6f be db 04 2c bf a9 81 81 3d 55 5e ab bc
       -0.23372279 -0.6719491 0.06323559 -0.020919004
0003b0 b8 e4 64 be 8d 28 bf 3e 52 d1 76 bd 1c a8 ed be
       -0.22352874 0.37335625 -0.060258217 -0.4641732
0003c0 38 16 e7 3a fc a9 5b 3c a7 e5 fe 3c 04 c8 e9 bd
       0.0017630523 0.013407227 0.031115366 -0.11415103
0003d0 23 5e a8 bd 1b ed 23 3e b2 5e 18 3d 1d e8 6d be
       -0.0822108 0.16008417 0.037199683 -0.23233075
0003e0 a3 d8 32 3f 6e 9f 01 3f f3 2a 26 bf ec dd 60 3e
       0.6986181 0.50633895 -0.64909285 0.21959656
0003f0 62 80 23 bf 26 66 bb be 1d 0e c1 3c fc c4 24 3f
       -0.6386777 -0.3660137 0.0235663 0.64363074

conv1.bias f4 [30]
000000 f7 0f 36 3c bf 8a e9 3c 0b 4c be bb 6f 9c a5 3d
       0.011112205 0.028508542 -0.005807405 0.08086478
000010 25 c6 0d 3d 06 41 fa bd 22 4d 9e bc ef 13 bd 3b
       0.034612793 -0.122194335 -0.01932389 0.0057701985
000020 19 87 b2 bd a4 dd 91 bd ce bb 5a 3c 30 61 91 bd
       -0.08717174 -0.07122353 0.01335044 -0.07098615
000030 74 49 b1 bd c2 2f 81 bd 2f 78 aa bd f5 fa 37 bd
       -0.08656588 -0.06307937 -0.083237045 -0.044917066
000040 b6 85 29 3d 07 dc 6d 3d ea 2b ce bc 50 85 52 3d
       0.041387282 0.058071163 -0.025167424 0.051396668
000050 e0 0e 5c 3d 39 f4 be 3d 6f 81 4b bc c2 01 8e 3c
       0.053725123 0.093239255 -0.012420996 0.017334823
000060 86 f1 43 bc b8 b2 11 3d 7b d8 87 bd a4 35 ae bd
       -0.011959439 0.03557083 -0.06633087 -0.08506325
000070 36 38 50 3d 09 ef ab 3d
       0.050834857 0.08395202

bn1.weight f4 [30]
000000 ff b8 a7 3f ca 34 a0 3f a4 6a a3 3f 55 dd a3 3f
       1.3103331 1.251611 1.2766919 1.280192
000010 d9 b2 a0 3f 6d f0 9a 3f 54 d5 90 3f 29 fc 90 3f
       1.255458 1.2104622 1.1315103 1.1326953
000020 0d f2 88 3f 33 23 8a 3f d3 5c 82 3f f4 d0 81 3f
       1.0698868 1.0791992 1.0184578 1.0141892
000030 ec a9 88 3f 50 ff 83 3f e1 a6 6f 3f 90 3d 69 3f
       1.0676856 1.031229 0.9361401 0.9110956
000040 3a c6 60 3f 5a ac f8 3f a9 62 49 3f 66 42 49 3f
       0.8780247 1.9427598 0.7866617 0.7861694
000050 38 6e 4a 3f 73 e5 3f 3f f9 5f 37 3f 9b 44 20 3f
       0.7907443 0.74959487 0.7163082 0.62604684
000060 47 f5 1a 3f a1 57 12 3f 4a 9e 16 3f c5 ac 0d 3f
       0.60530514 0.5716496 0.5883528 0.5534175
000070 40 c3 10 3f 37 30 01 3f
       0.5654793 0.50464195

bn1.bias f4 [30]
000000 76 32 d8 ba 78 b9 80 bc a7 19 d1 bb 39 23 dc bb
       -0.0016494531 -0.015713438 -0.006381232 -0.006718066
000010 48 fc df 3b b0 2c 21 3c 9b 18 d0 3c 6f a1 67 3c
       0.006835494 0.0098373145 0.025402358 0.01413761
000020 5b 1d 01 3d 5a 16 4f 3d 19 2b 2b 3d d6 9e 33 3d
       0.031522136 0.050558425 0.041789148 0.04385265
000030 97 9e 83 3d 05 e3 a3 3c 03 7a 80 3d 43 29 cf 3d
       0.06426733 0.020005712 0.06273272 0.10115292
000040 c8 ef e5 3d cd 99 6b 3e 66 f5 33 3e d0 c3 42 3e
       0.11227375 0.23007889 0.17574081 0.19020009
000050 c0 ac 3d 3e 48 41 50 3e 80 fd 61 3e 24 77 6d 3e
       0.1852293 0.20337403 0.22069359 0.2318998
000060 46 1e 8f 3e bc e3 91 3e 0e 8d a3 3e 94 73 95 3e
       0.27952784 0.2849406 0.31943554 0.29189742
000070 6c 0f 96 3e 50 93 9f 3e
       0.2930864 0.31167078

bn1.running_mean f4 [30]
000000 97 4f 2b c0 c0 ad 22 c0 70 ef 28 c0 ff d5 1c c0
       -2.6767328 -2.5418549 -2.639614 -2.4505613
000010 86 e6 33 c0 87 d2 2a c0 21 28 25 c0 36 5c 28 c0
       -2.810945 -2.6690996 -2.5805743 -2.630628
000020 77 bf 29 c0 e6 28 37 c0 f2 81 2a c0 26 9e 2e c0
       -2.652311 -2.8618712 -2.6641812 -2.7284026
000030 84 50 35 c0 2a cb 3a c0 00 11 26 c0 ac ed 26 c0
       -2.8330393 -2.9186502 -2.5947876 -2.6082563
000040 92 7f 17 c0 64 24 5a bf 56 9b fd bf 05 91 e8 bf
       -2.3671613 -0.8521178 -1.981303 -1.8169256
000050 23 81 f4 bf 55 d6 f3 bf d5 03 cf bf cf ac d7 bf
       -1.9101909 -1.9049784 -1.6173044 -1.6849612
000060 e3 db b7 bf 49 95 ab bf db 6c d1 bf 12 ae a1 bf
       -1.4363979 -1.3404933 -1.6361345 -1.2631247
000070 fc 8d a7 bf 55 8b 92 bf
       -1.3090205 -1.1448771

bn1.running_var f4 [30]
000000 ec 55 57 41 8d 4a 4c 41 7e 70 5f 41 26 dd 51 41
       13.458477 12.768201 13.964964 13.116491
000010 43 57 63 41 d6 55 50 41 64 ec 41 41 91 b3 57 41
       14.208804 13.020956 12.120213 13.481339
000020 fc 7b 6b 41 55 c0 82 41 0c 61 82 41 6c 20 7b 41
       14.71777 16.343912 16.297386 15.6954155
000030 97 14 99 41 58 8c 9f 41 7c 3d 8d 41 83 ef 93 41
       19.135054 19.943527 17.655022 18.49195
000040 ef ac 9b 41 bb cc 47 40 5c 18 71 41 28 1d 82 41
       19.45944 3.1218708 15.068447 16.264236
000050 c2 5c 92 41 91 93 8c 41 47 ad 7c 41 85 fe 60 41
       18.295292 17.572054 15.792304 14.062139
000060 3e 41 77 41 16 94 64 41 a3 66 94 41 d4 69 62 41
       15.453428 14.286154 18.550116 14.150837
000070 06 52 7e 41 1d 38 58 41
       15.895025 13.5137

dense1.dense.weight f4 [96, 512]
000000 eb 63 a5 3e 10 80 24 be aa 2f 81 be c0 97 07 bf
       0.32302794 -0.16064477 -0.25231677 -0.5296593
000010 e5 7e c7 bd 5b 57 a3 3e b1 4a 8d be a5 ae 39 bf
       -0.09741 0.31902584 -0.27596048 -0.7253211
000020 70 6a dd be c9 48 0e bf 02 9d d3 be 3b c2 28 bd
       -0.43245268 -0.5557981 -0.41330725 -0.041200858
000030 12 5e 8e be 2a f0 03 bf ba 02 c8 3e 7c d6 c4 3e
       -0.27806145 -0.51538336 0.3906458 0.3844489
000040 14 b7 1d bf d4 6f 0b bf 8b b4 6f 3f 1f 46 56 bf
       -0.6160748 -0.5446751 0.9363486 -0.83700746
000050 00 10 ad be a3 59 20 3f bc 9d 00 bf 92 16 10 bf
       -0.3380127 0.62636775 -0.50240684 -0.5628444
000060 6c 36 9a be 5b e5 4a be f1 e1 01 bf 56 0a 5e be
       -0.30119646 -0.19814055 -0.50735384 -0.2168363
000070 75 2b d3 be a6 d9 04 3f 01 68 2b be 5c fc e3 3d
       -0.41244093 0.51894605 -0.16738893 0.11132118
000080 6b de aa 3d 4c 74 98 3e 3c d5 d5 3e fc 8f 4b 3e
       0.08343204 0.29776227 0.41764247 0.19879144
000090 7e a3 82 3f 16 b8 41 be 15 93 e8 3c ba c8 57 3e
       1.0206144 -0.1891788 0.028390447 0.21072665
0000a0 15 3d e6 3d ec 7a c4 be fe 69 c6 bd f5 48 54 3d
       0.11242119 -0.38375032 -0.09688185 0.05182739
0000b0 5c 84 64 3e 53 08 73 3e 28 04 cd be 3f d7 2e 3e
       0.22316116 0.23733644 -0.40042233 0.17074297
0000c0 d7 98 74 3e 9e a2 c9 be bc 20 1a 3e 9f 45 4c be
       0.23886429 -0.3938188 0.1505155 -0.19948433
0000d0 5e e4 aa 3e ed 8a 30 3f 30 db 06 bc 1b 4e d4 3e
       0.33377355 0.68961984 -0.008230969 0.4146584
0000e0 b2 a1 ee 3d c3 00 c7 be 5d 50 15 bf b6 c7 48 be
       0.11651935 -0.3886777 -0.5832575 -0.19607434
0000f0 dc 7e 1f be f5 03 2f be f9 25 0a 3e 13 2a 92 3e
       -0.15575737 -0.17091353 0.13491048 0.28547725
000100 4f d7 36 bd 62 e1 73 3e fd 51 23 3e 88 4b 90 be
       -0.044638928 0.23816445 0.15949245 -0.28182626
000110 6f ff c5 be b4 04 6e 3f 13 f3 4a 3e d8 45 ab 3e
       -0.38671443 0.92975926 0.19819288 0.33451724
000120 f2 6a a5 be fb 77 b5 3d 25 58 c3 3b 9d 97 53 be
       -0.32308155 0.08860775 0.0059614354 -0.20663305
000130 9f 51 2e bd 85 cf e1 3d 36 41 cb be 35 3a b4 3e
       -0.04255831 0.11025909 -0.3969819 0.35200658
000140 2e 88 0e bf 67 aa 1d bd 50 a0 a3 be fe bd f7 be
       -0.55676544 -0.038492586 -0.31958246 -0.4838714
000150 0e 98 c8 3e e0 bf a0 3e 7c f5 cc bd a4 56 3a 3f
       0.3917851 0.3139639 -0.1000776 0.72788453
000160 5f 57 2b bd 23 6e ea 3e 7e b4 e8 bd 43 00 27 3e
       -0.04183137 0.45787153 -0.11362551 0.16308694
000170 9a 60 44 3d a1 bd 9e bc 42 d2 1f 3f fb 59 54 bc
       0.04794369 -0.019377531 0.624302 -0.012960906
000180 97 59 e7 bd 0a 36 1e 3f 94 c3 43 be 94 13 6a 3f
       -0.11296385 0.6180121 -0.19117576 0.91436124
000190 94 ae e7 bd 9f 1a 1a be d6 a2 90 be 2a b0 b3 be
       -0.11312595 -0.15049218 -0.28249234 -0.3509534
0001a0 af 60 fe 3d 4f ea 34 bd b5 7c 29 3e 0e ef 54 bc
       0.12420785 -0.044168767 0.16551478 -0.012996448
0001b0 c6 10 a2 bd 9d 57 49 bd 30 6d 10 be 78 91 f7 be
       -0.079133555 -0.04915582 -0.14104152 -0.4835317
0001c0 e6 2b 29 bd 64 99 99 3d a2 de 80 3e d0 19 77 be
       -0.04130163 0.0749996 0.25169855 -0.2413094
0001d0 91 11 43 3f e0 79 88 3e 69 81 7f bd 73 02 09 3e
       0.7619868 0.26655483 -0.062379275 0.1337984
0001e0 09 98 89 be 1f 0c 11 bd 9d 61 02 be cc 3e 60 3e
       -0.26873806 -0.03541195 -0.12732549 0.21898955
0001f0 cd 78 56 be 5e 83 3a bf 50 f5 fb 3e 6f 46 c4 3e
       -0.2094452 -0.728567 0.49210596 0.38334987
000200 1e 9c 9e bd 17 84 00 3e 8c 19 be be ea 3e c9 bf
       -0.07744621 0.12550388 -0.37128866 -1.5722325
000210 28 0e f4 be 67 69 7d 3e fa 02 f4 3e 77 2c be 3d
       -0.4766705 0.24747239 0.4765852 0.09285825
000220 8f ba f6 bd 91 ef 35 be 17 2b 39 3f 8b c3 2d 3d
       -0.12047302 -0.17767169 0.72331375 0.042422812
000230 9e 50 3c bf d6 6d e0 be 88 93 2e bf a9 e9 96 be
       -0.7356051 -0.43833798 -0.68193865 -0.29475144
000240 6f 67 42 3e 69 c5 0a bf 71 d7 1e 3e 3b 56 84 3e
       0.1898477 -0.54207474 0.15511872 0.2584704
000250 6c a3 ca be 53 44 b1 3e 41 2d 1e bf 1b a8 7e 3f
       -0.39577806 0.3462244 -0.617878 0.9947526
000260 b5 e0 0a bf 70 0b 67 be 68 d6 11 3f 1c 80 d5 bd
       -0.54249126 -0.22562957 0.5696778 -0.104248255
000270 26 b5 d5 be 40 b2 1a bf 2e f3 6a be 47 02 6c 3f
       -0.41739768 -0.6042824 -0.22944328 0.92190975
000280 fe 06 ea 3e 31 8a 98 be a1 3a fc bd 27 2a 05 3f
       0.4570846 -0.29792932 -0.1231587 0.52017444
000290 46 ea 84 bf 9d c2 4a bf e5 9d c3 be b2 1a 80 3c
       -1.0383995 -0.79203206 -0.382064 0.01563773
0002a0 74 51 81 3e 20 47 71 bd 4c e2 e8 bb ad c3 e1 3e
       0.25257456 -0.05890572 -0.007107055 0.440946
0002b0 d2 0f 23 bf ed 73 2a be bd 40 cd be 64 c5 cf 3d
       -0.63696015 -0.16645785 -0.40088454 0.10145071
0002c0 99 4f 6d 3e ab ad 92 be e8 8a 92 bd 90 2b 38 be
       0.23174895 -0.28648123 -0.071554005 -0.17985368
0002d0 d7 90 b8 3e c7 00 35 be 37 7b e5 3b 3f aa 98 3e
       0.36048004 -0.17676078 0.0070032137 0.29817387
0002e0 2a eb 1a 3f 6f f6 56 3f f1 65 00 be fc db ff 3e
       0.6051508 0.8396978 -0.12538888 0.49972522
0002f0 85 f4 51 be c5 03 b1 be d7 f4 61 bd 74 a0 e0 3d
       -0.20503433 -0.34573188 -0.055165138 0.10968104
000300 73 30 67 be a5 63 93 be 33 87 ca bb af 72 c6 3e
       -0.22577076 -0.2878696 -0.006180668 0.38759372
000310 42 f0 a7 bc 96 f1 c7 be fd 84 92 be 27 d3 27 bf
       -0.020500306 -0.39051503 -0.28617087 -0.6555657
000320 59 73 b5 3d 45 5a a3 bd a7 f0 87 3e 50 ba d9 be
       0.088598914 -0.07976202 0.2655079 -0.42524958
000330 0c 95 be bc 0d 1b 7c bd fe 5e 84 bb b7 df ba 3e
       -0.02326443 -0.061549235 -0.0040396443 0.36498806
000340 8c fc c9 bd 39 de 89 3d df 26 30 3d 22 48 92 be
       -0.098626226 0.06731839 0.04300582 -0.28570658
000350 96 1b 0c 3f 92 ed 2f 3e 72 96 79 3e b9 ec 0c bd
       0.5472959 0.1718047 0.24373797 -0.034405444
000360 b8 a5 29 bf 75 e3 0f 3f e1 3c 03 bf e5 02 03 bf
       -0.6626849 0.56206447 -0.5126477 -0.5117629
000370 d8 b8 b6 bd f3 25 b3 3d 66 3d 41 3d 3c 0b f0 3e
       -0.08921975 0.087474726 0.047177695 0.4688357
000380 d2 ec ad 3e 80 38 0e 3f 26 83 76 be 2b ad 16 bf
       0.33969742 0.5555496 -0.24073467 -0.58857983
000390 51 3b 79 bd 12 9f da bd f9 2d c2 3e 19 45 1e be
       -0.060847584 -0.106748715 0.379257 -0.15456046
0003a0 d2 c8 79 be b6 2a 51 bf bb 53 89 3e ea 21 04 be
       -0.24393013 -0.81705797 0.26821694 -0.12903562
0003b0 f6 aa 03 bf 81 fe cf be 94 f6 37 3c 77 13 da 3d
       -0.5143274 -0.4062386 0.011228222 0.10648244
0003c0 bd b6 24 3f f4 f5 d5 be 75 fd e0 3d 3b 0c d6 3d
       0.64341336 -0.4178921 0.10985843 0.104515515
0003d0 ae 54 b5 be cd d7 22 bf 20 75 bd be 10 ba ee 3e
       -0.35416168 -0.63610536 -0.37003422 0.4662633
0003e0 ac c1 5c bf 1d 4c 2d be f4 a7 14 3f 92 74 19 bf
       -0.8623302 -0.16923566 0.58068776 -0.599435
0003f0 61 f9 30 bd 15 9b a4 be 64 51 14 bf 96 0c 4a be
       -0.043206576 -0.32149568 -0.5793669 -0.19731364

dense1.dense.bias f4 [96]
000000 7c f7 a0 3e ea 33 88 3e ac 19 a7 3e b5 ba 72 3e
       0.31438816 0.26602107 0.32636774 0.23704036
000010 51 51 52 3e f7 8e 90 3e 1a 32 84 3e 30 34 de 3d
       0.20538832 0.28234074 0.25819474 0.10849798
000020 75 4b b4 3f a0 36 03 3e 05 5d f8 3d 4b c4 0d 3e
       1.4085528 0.12813807 0.12127117 0.13844411
000030 1d 6e de bf 2d bc 51 3d ac 4b 57 3e ae 0f 94 3e
       -1.7377354 0.05120485 0.2102496 0.28918213
000040 88 26 2c 3d cb fa b8 3e 59 39 3d 3e da 93 17 3e
       0.042028934 0.3612884 0.18478908 0.14802495
000050 56 b3 41 3e b2 d8 98 3e eb 33 27 be 3c 6b 55 3e
       0.18916067 0.29852825 -0.16328399 0.20841688
000060 cd 03 d8 3e 92 11 46 3e d2 f6 f4 3c 0f 42 21 3e
       0.421904 0.1934264 0.02990285 0.15747856
000070 61 ee 75 3e c2 b7 46 3e 10 45 8b 3d a8 0a 8a 3e
       0.24016716 0.19406036 0.06800282 0.26961255
000080 ed cb ab 3e 56 80 88 3e e6 08 8d 3e fb 16 16 3d
       0.3355402 0.26660413 0.2754585 0.03664301
000090 a9 72 82 3e a1 0e 7f 3e 92 2b 82 3e 1d 25 eb 3e
       0.25478104 0.24907924 0.25423867 0.45926753
0000a0 d8 fa ae 3e c6 da a4 3d b0 c4 b5 3e 3f 36 57 3e
       0.34175754 0.0804954 0.35501623 0.21016787
0000b0 d8 b8 bd 3d 83 68 46 3e 65 c6 92 3e fe 1a ab 3d
       0.09263772 0.19375806 0.28666988 0.08354758
0000c0 dd 31 8c 3e c0 3b 67 3e 40 74 11 3e 27 7a 86 3e
       0.27381793 0.22581387 0.14204502 0.2626507
0000d0 75 48 ad 3e 09 89 48 3e 85 36 e1 3d 2d 92 43 3e
       0.33844343 0.19583525 0.10996727 0.1909873
0000e0 91 0f 39 3e eb 11 80 3e 8f 7d fa 3d a7 6d 5b 3e
       0.18072344 0.2501367 0.1223098 0.21428548
0000f0 94 14 46 3e fc 7d e7 3d 81 0a aa 3e 65 dc 7e 3d
       0.19343787 0.113033265 0.3321114 0.062221903
000100 46 c2 6d 3e b7 46 a5 3e 0c b3 bf 3d c8 43 55 3e
       0.2321864 0.32280514 0.09360322 0.20826638
000110 64 b8 af 3d dd c7 3d 3e b2 ab 07 3e 28 1d 20 bc
       0.085800916 0.18533273 0.1324909 -0.009772576
000120 3b 24 95 3e 7d 1f 95 3e 50 19 04 3e 44 75 a6 3e
       0.29129204 0.29125586 0.12900281 0.32511342
000130 19 ad cb 3d c3 9c 63 3e 9c 80 72 3e 0f 3a 89 3e
       0.09945125 0.22227769 0.23681873 0.26802108
000140 f2 67 43 3e 97 40 45 3e b8 cf 01 3e 18 5d 58 3e
       0.1908262 0.1926292 0.12676895 0.21129262
000150 1e c4 b1 3e 5c bc 50 3e f9 13 89 3e fc e6 bd 3e
       0.34719938 0.20384353 0.2677305 0.3709029
000160 22 ff 9f 3e c6 7d 08 3e 82 0a 29 3e c6 10 8d 3e
       0.31249338 0.13329229 0.16507915 0.2755186
000170 a4 8a 92 3e 05 93 89 3e ea fb 3f 3e 8d 57 2d 3e
       0.286214 0.2686998 0.18748441 0.16927929

dense1.batch_norm1.weight f4 [96]
000000 ec 62 7c 3f c6 fb 8b 3f a2 78 51 3f 1b 47 8e 3f
       0.9858844 1.093621 0.81824696 1.111545
000010 81 6a 46 3f 01 97 92 3f 43 9c 95 3f a3 0a 67 3f
       0.7750626 1.1452333 1.1688312 0.90250605
000020 c9 0f a6 3f a6 f3 47 3f c6 62 81 3f 0e 70 70 3f
       1.2973567 0.78106153 1.0108268 0.9392098
000030 65 ad 9e 3f a3 56 72 3f 4b 4a 74 3f ce eb 63 3f
       1.2396666 0.9466345 0.9542586 0.89031684
000040 b9 88 81 3f 3a ca 76 3f 38 a4 64 3f 2f 8f 85 3f
       1.011985 0.96402323 0.8931308 1.0434321
000050 8e f7 72 3f 75 79 82 3f 68 89 97 3f fc e5 54 3f
       0.9490899 1.0193316 1.1838808 0.8316343
000060 be f0 7c 3f b8 ab 9a 3f 79 8c 60 3f 1e 90 8d 3f
       0.98804843 1.2083654 0.87714344 1.1059606
000070 df cf 88 3f 80 75 2c 3f 82 e3 6a 3f 79 4d 76 3f
       1.0688437 0.6736679 0.917534 0.96211964
000080 5d 93 87 3f 75 8c 84 3f fe 7d 59 3f 23 38 81 3f
       1.0591847 1.0355364 0.84957874 1.0095257
000090 93 42 77 3f 55 82 a1 3f cc cb 92 3f 3f ac 61 3f
       0.9658596 1.2617899 1.1468444 0.8815345
0000a0 2b ed 73 3f e6 9a 5d 3f cc 98 81 3f e0 89 4e 3f
       0.95283765 0.8656448 1.0124755 0.8067913
0000b0 2b 33 64 3f 66 51 7e 3f d9 5a 8e 3f 1f a3 6a 3f
       0.89140576 0.99342954 1.1121475 0.91655153
0000c0 cd 59 83 3f 4c 89 95 3f 18 5e 5b 3f 3a fd 9a 3f
       1.026178 1.1682525 0.8569045 1.2108529
0000d0 b7 67 97 3f 03 cd 88 3f d8 7c 6c 3f 2c de 90 3f
       1.1828526 1.0687565 0.92377996 1.1317801
0000e0 aa 96 01 3f fe 45 91 3f f1 8f 7c 3f 81 6c 42 3f
       0.5062052 1.1349485 0.9865714 0.75946814
0000f0 87 87 76 3f d7 62 86 3f dc 97 85 3f 08 3e 38 3f
       0.9630055 1.0498914 1.0436969 0.7196965
000100 90 97 83 3f 2e fb 7f 3f 4f 35 8d 3f 50 7c 51 3f
       1.0280628 0.99992645 1.1031893 0.8183031
000110 e1 09 20 3f 1a 44 62 3f c2 1f 89 3f 29 45 62 3f
       0.62515074 0.88385165 1.0712817 0.8838678
000120 80 68 72 3f 1b d0 41 3f 24 8e 64 3f a1 d1 76 3f
       0.94690704 0.7570817 0.8927939 0.9641362
000130 ed cb 1a 3f 96 c6 16 3f 37 0e 9d 3f 70 8c 6a 3f
       0.60467416 0.5889677 1.2269963 0.9162054
000140 32 8b 6e 3f 82 0a 8a 3f 52 7c 8a 3f f7 f8 46 3f
       0.93181145 1.0784457 1.081919 0.7772364
000150 1e 69 82 3f 0d 9d 8a 3f 06 bd 3c 3f 17 5b 8e 3f
       1.0188329 1.0829178 0.73725927 1.1121548
000160 08 24 83 3f 8d d0 80 3f 21 ae 82 3f b3 05 57 3f
       1.0245371 1.0063645 1.020939 0.8399307
000170 b9 a6 86 3f 90 72 7d 3f 54 f3 83 3f db 76 7e 3f
       1.051963 0.99002934 1.0308633 0.9940011

dense1.batch_norm1.bias f4 [96]
000000 da 43 2b bf b6 e7 55 bf a9 c2 f3 be 5a d9 5c bf
       -0.6690041 -0.8355669 -0.4760945 -0.8626915
000010 a4 16 ea be ed 31 51 bf 70 51 46 bf 47 06 1f bf
       -0.45720398 -0.81716806 -0.77468014 -0.62118953
000020 3e cc b2 bd 4c f7 e7 be 0a a7 12 bf 7a dd 44 bf
       -0.08730362 -0.4530586 -0.5728613 -0.76900446
000030 be 34 28 c0 33 6a 40 bf ec ed cd be 4b 07 f1 be
       -2.6282191 -0.7516205 -0.40220582 -0.47075877
000040 da 76 2e bf ee 6b 29 bf 20 9c 18 bf 13 ec 41 bf
       -0.68150103 -0.6618031 -0.5961323 -0.75750846
000050 24 2a 39 bf a7 c5 31 bf 5e 36 82 bf d3 9b f8 be
       -0.72329926 -0.6944222 -1.0172842 -0.48556384
000060 f8 7d 2d bf 1e 74 6e bf bb 2e 8f bf e0 c0 5b bf
       -0.6777034 -0.9314593 -1.1186136 -0.8584118
000070 df 72 37 bf b0 28 80 be df ce 39 bf 79 79 14 bf
       -0.71659654 -0.25031042 -0.72581285 -0.5799785
000080 e2 32 53 bf 25 f5 16 bf b7 e8 07 bf ff c8 57 bf
       -0.82499516 -0.5896781 -0.5308947 -0.8429107
000090 f8 87 33 bf 61 19 6f bf ba ea 42 bf ac ef 0b bf
       -0.70129347 -0.933981 -0.76139414 -0.54662585
0000a0 b5 d8 3c bf 05 8f 16 bf 05 a4 33 bf fd 86 cf be
       -0.7376817 -0.5881198 -0.7017215 -0.40532675
0000b0 aa 5c 05 bf b7 b1 39 bf af d5 6b bf e5 0a 1b bf
       -0.5209452 -0.72536796 -0.9212293 -0.605635
0000c0 53 27 60 bf 3a b7 79 bf 18 a9 b5 be 64 58 79 bf
       -0.87560004 -0.97545207 -0.3548057 -0.974005
0000d0 ed 1e 50 bf 33 28 26 bf fb 32 05 bf 5e b6 5d bf
       -0.8129719 -0.6490509 -0.52030915 -0.86606395
0000e0 17 1c 5b be b7 5f 41 bf 3c a5 16 bf 25 87 c1 be
       -0.21397434 -0.75536674 -0.5884588 -0.3779842
0000f0 e4 35 15 bf 3a 05 5f bf 26 5b 2c bf f9 5f ef be
       -0.58285356 -0.8711735 -0.6732658 -0.4675291
000100 d1 78 43 bf 2c ed 35 bf ad 79 44 bf fc 9b ea be
       -0.76356226 -0.7106502 -0.7674816 -0.45822132
000110 df be 81 be 8b e9 e6 be 28 9e 54 bf 7c 86 f8 be
       -0.25340936 -0.45100054 -0.8305383 -0.48540103
000120 1e ac 14 bf 1d 1a ba be 0a e3 0e bf d0 ad 33 bf
       -0.5807513 -0.36348048 -0.55815184 -0.7018709
000130 10 bd 46 be 85 9c df bd 30 00 73 bf 70 b0 ff be
       -0.19408059 -0.109185256 -0.9492216 -0.499393
000140 c4 a1 1b bf 26 ee 40 bf 76 d5 73 bf 77 34 e4 be
       -0.6079371 -0.75363386 -0.9524759 -0.44571277
000150 3b f2 33 bf 96 d4 40 bf 82 e0 de be 6f ae 56 bf
       -0.7029149 -0.7532438 -0.4353066 -0.83859915
000160 e0 59 2a bf 7b 11 3c bf 42 c6 29 bf 70 e6 08 bf
       -0.6654339 -0.73464173 -0.6631814 -0.5347662
000170 e9 ed 28 bf 6e 67 31 bf df 66 30 bf b5 ad 3a bf
       -0.6598802 -0.69298446 -0.6890697 -0.72921306

dense1.batch_norm1.running_mean f4 [96]
000000 46 b0 22 c0 60 96 20 c0 c1 5b 03 c0 34 b2 54 c0
       -2.5420089 -2.5091782 -2.0524752 -3.3233767
000010 10 cc a2 bf 47 99 b3 bf 2f 81 b2 bf de 87 e5 bf
       -1.2718525 -1.4031152 -1.3945674 -1.7932088
000020 e8 dc 86 40 a1 be 13 c0 e7 a5 b8 bf 23 6b 13 c0
       4.214466 -2.30851 -1.4425629 -2.303414
000030 9d 92 c6 3d 25 d0 e8 bf 4c 94 f1 bf a7 5c 1f c0
       0.09695933 -1.8188521 -1.8873382 -2.49003
000040 b8 15 ea bf d6 ef ea bf 63 ba 09 c0 5e 6c 52 c0
       -1.8287878 -1.8354442 -2.1520011 -3.2878642
000050 18 57 41 c0 9a c6 09 c0 1f 4b 25 c0 12 d5 00 c0
       -3.0209408 -2.1527467 -2.58271 -2.0130048
000060 06 cc 17 c0 c3 74 64 c0 4f 89 06 c0 cd 3c da bf
       -2.3718276 -3.5696266 -2.1021307 -1.7049805
000070 71 a9 65 c0 8b 64 10 c0 0c e9 bd bf c4 0f 0f c0
       -3.588467 -2.2561367 -1.4836745 -2.2353373
000080 6c 6d 29 c0 38 81 fb bf 09 20 25 c0 93 6e e8 bf
       -2.6473036 -1.964881 -2.5800803 -1.8158745
000090 ce 0e eb bf d7 71 05 c0 cf 53 88 bf 7b e6 02 c0
       -1.8363893 -2.0850732 -1.0650576 -2.0453174
0000a0 7d cc ec bf 7b 02 ef bf cc d2 08 c0 a3 7e 09 c0
       -1.8499905 -1.8672632 -2.137866 -2.1483543
0000b0 46 35 33 c0 15 42 0e c0 7a 13 0a c0 ba 6f 87 bf
       -2.8001266 -2.2227833 -2.1574388 -1.0580971
0000c0 58 09 16 c0 4f 82 6c c0 0d 31 41 c0 20 d8 a2 bf
       -2.3443203 -3.6954534 -3.0186188 -1.2722206
0000d0 77 ea ef bf 83 8a ab bf 04 f3 16 c0 50 6f 35 c0
       -1.8743428 -1.3401645 -2.3585825 -2.834919
0000e0 ad 0f 39 be a3 50 c4 bf 60 ad e5 bf 13 14 a1 be
       -0.18072386 -1.5337108 -1.7943535 -0.31460628
0000f0 37 70 76 bf a3 5a a9 bf 68 23 9a bf a1 b3 0d c0
       -0.96264976 -1.3230785 -1.2042055 -2.2140887
000100 ce 0d db bf a1 ac 0a c0 f1 cd 89 bf 94 74 e9 bf
       -1.7113588 -2.1667864 -1.0765973 -1.8238702
000110 1f 06 19 c0 9b d1 f1 bf 4f 07 0f c0 6c 24 eb bf
       -2.3909986 -1.8892092 -2.234821 -1.837049
000120 5e a8 42 bf 22 82 d1 bf 91 67 c1 bf 71 a7 24 c0
       -0.7603816 -1.6367838 -1.5109731 -2.5727198
000130 a8 41 a9 bf 54 67 c8 bf 6b 3f 29 c0 70 cb 5e bf
       -1.3223162 -1.5656533 -2.6444957 -0.8702917
000140 2b 38 c4 bf d0 b7 d5 bf 94 6e 2c c0 f1 f2 e6 bf
       -1.5329641 -1.669672 -2.6942492 -1.804289
000150 6d 2b af bf 85 dd 02 c0 82 67 b7 be 38 5d 31 c0
       -1.3685127 -2.0447705 -0.35821158 -2.7713146
000160 83 05 59 bf 19 a3 0a c0 c3 4c a9 bf 94 2f 2c c0
       -0.84774035 -2.1662047 -1.3226551 -2.690404
000170 99 00 98 be 98 34 20 c0 04 57 62 bf 5b e5 19 c0
       -0.29687956 -2.50321 -0.88414025 -2.4046237

dense1.batch_norm1.running_var f4 [96]
000000 77 a7 c9 40 29 c0 f9 40 75 b3 e4 40 f0 39 17 41
       6.3016925 7.804707 7.1469064 9.451645
000010 25 7b bc 40 83 aa d1 40 e0 da 13 41 c4 17 ce 40
       5.8900323 6.5520644 9.240936 6.440401
000020 44 89 be 40 92 76 fa 40 2c bb ea 40 91 69 03 41
       5.954256 7.826974 7.335348 8.213273
000030 67 db 7d 40 81 34 f3 40 23 f3 ec 40 e1 4f fe 40
       3.9665163 7.600159 7.40468 7.947251
000040 fb d4 fc 40 10 9d c7 40 8a fd cf 40 d4 85 0b 41
       7.9009986 6.2379227 6.4996996 8.720173
000050 02 df df 40 90 67 fb 40 e9 86 e5 40 bd af 00 41
       6.9959726 7.856392 7.1727185 8.042905
000060 6b 6c 06 41 96 0c 1d 41 3a 94 e8 3f a3 f0 bd 40
       8.401469 9.815573 1.8170235 5.9356246
000070 f4 10 13 41 e9 96 3b 41 f5 f6 e5 40 a4 ed d6 40
       9.191639 11.724343 7.186396 6.716509
000080 1d b6 f8 40 e6 18 ed 40 7a cf e0 40 6d 75 14 41
       7.7722306 7.4092894 7.0253267 9.278668
000090 fc 02 a3 40 fd ac ca 40 3c f8 d7 40 7c ca b4 40
       5.0941143 6.3336167 6.749052 5.6497173
0000a0 71 3f ba 40 62 b6 d8 40 0a a2 f0 40 1d 2e 0a 41
       5.8202443 6.7722635 7.51978 8.636258
0000b0 83 b2 02 41 6f 20 dc 40 14 af c0 40 fe 8c a4 40
       8.168582 6.878959 6.021372 5.142211
0000c0 c3 0f ea 40 58 4c 2f 41 dd 81 8c 41 95 0f aa 40
       7.314424 10.956139 17.56341 5.314402
0000d0 17 fb f4 40 d1 d6 c4 40 e9 ca f3 40 ba db 1e 41
       7.6556506 6.1512227 7.6185193 9.928644
0000e0 fa 73 b0 40 fd fa e5 40 85 d6 1e 41 9a 20 9c 40
       5.5141573 7.186888 9.927373 4.8789797
0000f0 63 22 c0 40 3b 83 a5 40 68 66 cd 40 eb 0b c0 40
       6.0041976 5.1722693 6.418751 6.001455
000100 9b 3a ea 40 c8 59 b8 40 ac a7 dd 40 51 fe de 40
       7.319654 5.7609596 6.9267178 6.9685445
000110 b3 f8 19 41 19 7f 06 41 ed aa 00 41 98 73 f6 40
       9.623218 8.40603 8.04173 7.7016106
000120 84 49 91 40 59 b4 a6 40 ba 7e 93 40 98 03 dc 40
       4.540224 5.209515 4.6092196 6.8754387
000130 cc c0 07 41 03 b4 94 40 43 c4 0e 41 9b ca 9c 40
       8.48457 4.646974 8.922915 4.899732
000140 35 dd cb 40 cc 20 be 40 b5 07 12 41 28 e1 e4 40
       6.370753 5.9415035 9.126882 7.152485
000150 ee 37 af 40 2a 67 26 41 7b d9 87 40 72 19 f6 40
       5.4755774 10.400187 4.245298 7.690606
000160 11 9b b7 40 8e ce c9 40 cb ba bf 40 ad 5c bc 40
       5.737679 6.306464 5.991552 5.886313
000170 fc 68 b5 40 e3 fe cf 40 14 84 c0 40 1d 00 dc 40
       5.6690655 6.499864 6.016123 6.875014

dense2.dense.weight f4 [15, 96]
000000 c5 60 95 3e f2 92 58 be eb dc 94 be 9a 1d 60 3d
       0.29175392 -0.21149805 -0.29074797 0.05471573
000010 8f b2 56 3e 88 d1 cc 3e 9d af 04 3f c0 38 b1 3e
       0.20966552 0.4000361 0.51830465 0.3461361
000020 47 57 ce bb bd 74 15 3e ee 0c 6e 3e cb 9c 64 bf
       -0.0062970254 0.14595313 0.2324712 -0.8930175
000030 ab a2 20 bd a3 7c 0c bf 4d 9c b4 bc 50 89 f1 be
       -0.039217632 -0.5487768 -0.022047186 -0.47175074
000040 8e 6f 98 3e 20 f0 59 be 9f 4b 24 bf 35 98 27 bf
       0.2977261 -0.21283007 -0.6417789 -0.65466624
000050 aa 66 08 bf d4 14 33 3e 80 cf 4a be e0 0e 69 3e
       -0.5328165 0.17488414 -0.19805717 0.2275958
000060 b4 dd a0 be 4b 09 c7 3e 5a 15 c0 be b6 fe 05 bf
       -0.31419146 0.38874277 -0.3751629 -0.52341783
000070 d9 c6 91 3e 1c 4f 45 bf aa a6 b9 bd b7 ef 2b bf
       0.2847202 -0.77073836 -0.09064992 -0.6716265
000080 ab e2 2a bf d3 26 c8 be d5 c7 fa be db c5 d3 3e
       -0.6675212 -0.3909212 -0.48980585 0.4136189
000090 b9 60 e8 3c b0 4e a2 be e1 39 0f be 37 1d 81 3e
       0.028366433 -0.3170066 -0.13986923 0.25217602
0000a0 e6 51 59 3e 8c 6c 69 3e 02 57 0d bd 1f d7 0b 3e
       0.21222648 0.22795314 -0.034506805 0.13656281
0000b0 65 54 8e 3e 2a b3 61 bf 4d 95 96 be 0f 96 59 3e
       0.27798763 -0.8816401 -0.29410782 0.21248649
0000c0 4a 3e 76 be 1f a0 a3 bd 1e dd 13 bf 9b 11 f7 be
       -0.24047199 -0.07989525 -0.57759273 -0.4825562
0000d0 a0 9a 5f bd 7b f3 a9 be 18 d7 a1 3e 82 4c 5b 3e
       -0.05459082 -0.33193573 0.31609416 0.21415904
0000e0 89 e4 81 bf ef e1 ef be 3c 40 98 3e f1 9c d5 be
       -1.0147868 -0.4685206 0.29736507 -0.417213
0000f0 42 87 99 be aa 43 11 bf 25 33 f2 be 89 2f 80 3e
       -0.29986006 -0.5674387 -0.47304645 0.25036266
000100 e2 14 df be b8 b2 37 3e 72 12 32 bf e2 b5 31 bf
       -0.4357062 0.1793927 -0.69559395 -0.69418156
000110 1d d0 52 bf 1f 13 9d be 70 b4 3d bd 4f d4 ee be
       -0.82348806 -0.3067865 -0.046314657 -0.46646354
000120 4b 26 b2 bd 12 aa 15 bf 7f 22 39 bf 73 b7 c0 3d
       -0.0869871 -0.5846263 -0.7231826 0.0940999
000130 76 b2 b5 3e d3 fe 86 bd 64 2c c5 be 5e a0 e5 be
       0.35487717 -0.065915726 -0.3851043 -0.44848913
000140 f5 b2 2e bf 91 f2 c5 be fe 76 87 bc 7b f5 9f 3e
       -0.68241817 -0.38661626 -0.016536232 0.31241974
000150 65 1b c1 3d 9b 56 d5 be a9 7f 96 be 26 28 38 be
       0.09429053 -0.41667637 -0.29394272 -0.17984065
000160 d2 41 dd 3d 5c d0 95 3e 12 c6 b7 3c 99 7f 4a bf
       0.1080357 0.29260528 0.022433314 -0.7910095
000170 19 6d aa 3e 63 1e 41 3e 7b 8c b7 be 5c 36 a5 3e
       0.3328636 0.18859248 -0.35849366 0.32268035
000180 be f5 78 be 31 05 4f bf 63 c9 dd 3c b3 7b bf be
       -0.24312493 -0.80867296 0.027073568 -0.37399063
000190 64 0c 91 3e fc 89 7a be 1a 30 97 be 9d e7 6c bf
       0.28329766 -0.244667 -0.29528886 -0.92540914
0001a0 52 14 90 bc 16 c7 98 3e 21 bf 3d 3e 8e ea 19 bf
       -0.017587814 0.2983939 0.18529941 -0.6012353
0001b0 32 9e d7 bc a1 87 0f 3f 66 36 a5 3d c7 80 a4 be
       -0.02632055 0.5606633 0.08067016 -0.321295
0001c0 c9 d5 c4 3e 12 58 81 be 9f 8b 8d bf 33 63 7d bf
       0.38444355 -0.25262505 -1.1058234 -0.9897949
0001d0 8f 32 cb be b9 47 03 bf 30 69 c4 be 92 12 56 bf
       -0.3968701 -0.51281315 -0.38361502 -0.83622086
0001e0 ab 08 ba be 07 c1 35 bc 90 cb 7f be 2c d5 1a bf
       -0.36334738 -0.011093385 -0.24979997 -0.60481524
0001f0 a0 ed 21 bd cd c6 ab 3e 10 7f 4d bf f7 c7 80 3e
       -0.039533257 0.3355011 -0.80272007 0.2515256
000200 09 3e e0 be 9e 10 0d bf fe 36 8a 3d 6d 20 bb be
       -0.4379733 -0.5510348 0.0674877 -0.36548176
000210 18 a8 43 be d3 92 12 bf 64 a4 aa 3e e0 cb 6f be
       -0.19107091 -0.57255286 0.33328545 -0.23417616
000220 00 f2 f5 bd b4 ed cb be 70 b9 09 bf 98 42 fc be
       -0.120090485 -0.3982979 -0.5379858 -0.49269557
000230 88 60 38 bf 98 8a b9 3d ec 85 91 3e ff c6 85 3e
       -0.72022295 0.09059638 0.28422487 0.26128384
000240 1e 5d 7f 3d 4c a7 f1 bd 76 8b 4a 3e f0 7e 8a bb
       0.062344663 -0.117994875 0.19779763 -0.004226558
000250 82 2b a8 3e ad 6f ab be a2 90 fd be eb b2 04 bf
       0.32845694 -0.3348364 -0.4952441 -0.5183551
000260 33 28 30 bf 9c 05 9d be 93 86 ad 3e 34 96 52 3e
       -0.6881134 -0.30668342 0.33891734 0.2056511
000270 96 31 34 3e 50 30 e5 3e b9 4a 0c bf 5e b6 f4 3d
       0.1759704 0.44763422 -0.5480152 0.11948846
000280 e4 b5 f0 be f1 8e 2c bd e9 bb dd 3d 61 41 66 bf
       -0.47013772 -0.042128507 0.10826857 -0.8994351
000290 64 19 6b 3e 99 b4 b7 be 98 61 c6 3e 85 8c e2 3d
       0.22958905 -0.35879973 0.38746333 0.11061958
0002a0 29 d0 60 be 52 31 e1 be 8b 31 81 3e 4d 6d 02 bf
       -0.21954407 -0.4398294 0.2523311 -0.5094803
0002b0 da 45 9a be 6c b2 95 bd df 5c 91 be 2e b4 16 3e
       -0.30131418 -0.07309422 -0.28391168 0.1471717
0002c0 6b f7 89 3e 39 87 af be c3 a6 a3 be c4 52 80 bf
       0.26946577 -0.34282854 -0.31963167 -1.0025258
0002d0 16 2f e3 be 9d d7 44 3e 44 85 9a be 7f 26 bf bd
       -0.4437186 0.19222875 -0.301798 -0.093335144
0002e0 4a 0f 16 bf 4e 68 9a be 1c c3 10 be 32 ac 99 be
       -0.5861708 -0.30157703 -0.14136928 -0.30014187
0002f0 76 16 3f 3e bd 68 fb bd 51 fa 50 3e 7a 8a 1a 3e
       0.18660912 -0.122758366 0.20407988 0.15091887
000300 c2 10 09 3e 36 ff 27 bf 3b 98 70 be 2c 9d e5 be
       0.13385299 -0.65623796 -0.23495571 -0.44846475
000310 13 6c c6 be ba bd 36 bf 40 9d bf be ef c5 75 3e
       -0.3875433 -0.7138325 -0.3742466 0.24001287
000320 75 81 fd bc 6a 63 42 bf 55 72 54 3e 44 ce 36 be
       -0.030945519 -0.75932944 0.20746739 -0.17852122
000330 0b f8 97 bd dc b7 33 be 71 dc 1f be c2 e8 7c be
       -0.07420357 -0.17550606 -0.15611435 -0.24698165
000340 cd fa 10 bf 80 b6 87 bd fb 15 54 3e 5e 15 3d bf
       -0.5663269 -0.06626606 0.2071151 -0.7386073
000350 71 8d 8c 3e f6 1a e2 3d 24 a7 bd bd 91 76 54 3e
       0.2745166 0.11040299 -0.09260395 0.20748354
000360 9e bf 07 be 59 8d a5 bd 13 22 0f bf be 70 4a be
       -0.1325669 -0.080836006 -0.5591137 -0.1976957
000370 bc b0 2c bf e5 f4 02 bf 9f 74 ef 3d 8c de c0 3d
       -0.67457175 -0.5115493 0.116921656 0.094174474
000380 14 04 7a be a9 4b 87 3c df 65 a1 3e 1d 0d 8a be
       -0.24415618 0.01651557 0.31523034 -0.2696313
000390 ca 72 4e be 60 f7 e8 3e ef da 46 be cc 5d 0d bf
       -0.20160976 0.45501232 -0.19419454 -0.5522125
0003a0 9c 7d b1 be 6a ea 5f 3e 8c 83 4b be 70 e8 43 3e
       -0.34666145 0.21866766 -0.198744 0.19131637
0003b0 65 55 41 bf cf f3 d2 3e 10 75 a8 be 01 76 53 3e
       -0.75520927 0.41201636 -0.32901812 0.20650484
0003c0 8b f0 46 be 9a 37 f5 be 71 11 e4 be 63 f1 06 bf
       -0.19427697 -0.47893983 -0.44544557 -0.52712077
0003d0 d4 ad dc be 92 3a a2 be 08 2d c3 be 3f 24 bc be
       -0.4310137 -0.3168531 -0.38120294 -0.36746404
0003e0 ba 0e 97 3e d0 c4 bb be 07 95 c6 3e 09 ea 01 3e
       0.29503423 -0.36673594 0.38785574 0.12686934
0003f0 b3 8e 5c bd 03 d3 27 bd fc 1f 83 be 05 b9 2d bf
       -0.053847026 -0.04097272 -0.2561034 -0.6786044

dense2.dense.bias f4 [15]
000000 10 c5 3b 3f 4f 55 3a 3f a5 d0 17 3f f5 cd 3e 40
       0.7334757 0.7278642 0.5930274 2.9813206
000010 54 6d 1b 3f 57 42 14 3f 1a 72 89 40 66 ee 23 3f
       0.60713696 0.57913727 4.2951784 0.6403564
000020 26 7f 57 3f 57 4e 35 3f 87 98 35 3f c0 e8 52 3f
       0.8417839 0.7082266 0.70935863 0.823864
000030 35 a2 3f 3f ab 8f 91 3d d0 30 3f c1
       0.74856883 0.071074806 -11.949417

dense2.batch_norm1.weight f4 [15]
000000 3b bd cc 40 41 60 de 40 04 48 ba 40 0e 3b 0d 41
       6.3980994 6.9492497 5.821291 8.826918
000010 f4 af be 40 a4 cc c1 40 1a 5c 1e 41 f2 77 c2 40
       5.9589787 6.0562305 9.897486 6.077142
000020 c0 8c df 40 e6 f4 cb 40 ac fa d5 40 fb bf e9 40
       6.9859314 6.373645 6.6868496 7.304685
000030 80 c0 d0 40 9c 60 ee 3e bc df 8d 41
       6.5234985 0.46558082 17.734245

dense2.batch_norm1.bias f4 [15]
000000 10 75 8f c0 05 c8 95 c0 79 b8 85 c0 49 b8 82 c0
       -4.48304 -4.6806664 -4.1787686 -4.0849957
000010 09 00 7b c0 bb 01 78 c0 8d 95 94 c0 2b a0 8c c0
       -3.9218771 -3.8751056 -4.6432557 -4.3945518
000020 1a 38 89 c0 6e 51 80 c0 a5 ee 87 c0 30 24 8e c0
       -4.2880983 -4.00994 -4.2478814 -4.4419174
000030 96 f2 8a c0 19 18 27 bf c3 f8 a0 40
       -4.3421125 -0.65271145 5.0303664

dense2.batch_norm1.running_mean f4 [15]
000000 61 b5 a3 3e 1d dd c3 3e 5a 7c 1b 3e 65 63 24 40
       0.3197432 0.38254634 0.15184155 2.5685666
000010 46 d7 5a 3e ae 09 53 3e 34 35 72 40 0e 8d 4f 3e
       0.21371183 0.20609161 3.7844973 0.20268652
000020 b8 2c d3 3e 0a e9 ad 3e 6b e3 a5 3e 74 95 dc 3e
       0.41245055 0.33966857 0.3240007 0.43082774
000030 60 12 bb 3e 89 5b df bd 68 05 46 c1
       0.36537457 -0.10906131 -12.37632
