classification/model_rnafm/13_final/300Epoch/rna_type_checkpoint_fold_4.pt (torch, 252002 bytes, 24 tensors)

layer1.conv1.weight f4 [30, 30, 5]
-1.4340795 0.24094126 0.32493177 -0.3197192 -0.7076437 -1.0644145 0.027968016 -0.54293966
-0.5942921 1.2964319 -0.19275919 -1.0420526 0.7410741 0.6107853 0.17262568 0.6336793
-0.9959246 0.469749 0.24823673 -0.5189247 0.48646054 -0.43854707 -0.43255082 -0.9787037
-0.51163375 -0.0632092 0.10994559 -0.82137764 -0.33057424 -0.29415268 0.101866744 0.9760714
0.86701757 0.18803482 -0.23538227 0.19399853 0.9163014 0.6818104 0.3104016 0.089342475
0.7445979 0.3033749 0.0118453195 -0.36471736 0.035230618 0.014051905 -0.18848418 -0.092063576
0.05824696 0.2581378 -0.36333612 0.5077938 0.12791345 0.3676962 -0.2497225 -0.04340823
-0.019764729 -0.06593711 0.16606742 0.120631255 -0.27050516 -0.0520897 -0.021942278 0.23716356
0.20356913 0.17728928 0.08362094 0.0263085 0.16874906 0.19976291 -0.2495028 -0.08418746
0.05916768 -0.37754756 0.056697425 -0.50519025 -0.09016222 0.13393714 -0.6725293 -0.36110544
-0.43778455 -0.04096475 -0.080492586 0.10067167 -0.033951342 0.13142784 0.4726909 -0.029358944
-0.043741964 -0.13693514 -0.49301058 0.096162416 -0.0067617465 0.33387688 -0.34734547 -0.29724032
0.102035716 0.395706 0.2589272 -0.46891144 -0.15483691 0.2853448 0.3653266 0.1134426
-0.10649757 -0.009848725 0.15445507 -0.20873661 0.15319757 0.1466489 0.11526186 0.337959
0.048954345 -0.38534975 0.5675995 0.36544943 0.2807843 -0.0522061 -0.14277448 0.11612997
0.21919525 0.0222262 -0.42362922 -0.07152121 -0.38555515 -0.31569168 -0.4343365 -0.44219032
-0.19783431 -0.21080744 -0.22029917 -0.25129685 -0.23478772 -0.11375041 -0.034563083 0.14365089
-0.19135118 0.15065992 -0.08555697 0.045720227 0.38541612 -0.34424108 0.32340187 -0.09257141
0.43637934 0.13814454 0.039993957 -0.07152783 -0.025170632 0.44176045 -1.4931129 -1.2322543
0.39015666 0.45215306 -1.069238 -0.5534827 0.4815791 0.6509891 -1.1143053 0.046580233
0.18026038 -0.37084243 -0.011383807 0.33746344 0.82895124 -0.20490155 -0.3643161 0.04840295
0.9845595 0.35968602 -0.010451114 0.7152359 1.4571195 0.82759655 0.25633052 -0.11552705
0.9138706 0.39893454 0.37682426 0.46092677 -0.42294535 -0.4848276 0.298913 -0.24478203
-0.03204546 -0.5839291 -0.5044145 0.1207085 0.1664794 -0.023200043 0.52278554 -0.051921096
-0.44867256 -0.63072056 0.16593213 -0.13003142 -0.39619344 -0.37404278 -0.47841465 0.11273466
0.2383154 0.35892674 -0.053569507 -0.05099252 -0.13295661 0.3601278 0.61382633 -0.021087484
-0.63421804 0.20219438 0.06989163 -0.1686157 0.012918147 -0.25909698 0.4776136 0.17391971
-0.47102332 0.069022834 -0.009734827 0.35710388 -0.6043644 -0.39044452 0.23204574 0.0681349
0.152406 -0.52810436 -0.4216876 0.07973496 -0.17546764 -0.050339423 -0.42553556 -0.1058596
-0.62336916 -0.03337894 -0.066995285 -0.340886 0.022634849 -0.6904615 0.15499134 -0.18901123
-0.12899785 0.113807246 0.09447978 0.0796679 -0.14443883 -0.09763149 -0.55688184 -0.3650497
0.18534544 0.31916916 0.056231704 -0.24419416 -0.12106462 0.0015717848 0.52418846 -0.1109815
00000000: eb8f b7bf 4eb9 763e 755d a63e 3cb2 a3be
00000010: 2328 35bf bc3e 88bf 2e1d e53c 18fe 0abf
00000020: 8723 18bf 7bf1 a53f aa62 45be fb61 85bf
00000030: 08b7 3d3f 6d5c 1c3f c9c4 303e ce38 223f
00000040: eaf4 7ebf f182 f03e c531 7e3e 40d8 04bf
00000050: 5b11 f93e 3e89 e0be 4d77 ddbe 538c 7abf
00000060: 6efa 02bf d373 81bd 272b e13d ce45 52bf
00000070: 0741 a9be 2e9b 96be 839f d03d d1df 793f
00000080: ddf4 5d3f 338c 403e 0d08 71be 8da7 463e
00000090: bb92 6a3f 208b 2e3f f5ec 9e3e 30f9 b63d
000000a0: f89d 3e3f f453 9b3e df12 423c 3cbc babe
000000b0: fb4d 103d f639 663c ff01 41be d48b bcbd
000000c0: 5d94 6e3d a32a 843e 3107 babe c6fe 013f
000000d0: befb 023e ad42 bc3e 41b7 7fbe d4cc 31bd
000000e0: a4e9 a1bc 090a 87bd 940d 2a3e 850d f73d
000000f0: a77f 8abe 025c 55bd 4bc0 b3bc 01db 723e
00000100: 6d74 503e 528b 353e 7541 ab3d ec84 d73c
00000110: 8ecc 2c3e a68e 4c3e a97d 7fbe 7a6a acbd
00000120: cf59 723d ea4d c1be 8f3b 683d 2654 01bf
00000130: f8a6 b8bd d126 093e e12a 2cbf d0e2 b8be
00000140: 4c25 e0be a7ca 27bd 4cd9 a4bd f32c ce3d
00000150: 9010 0bbd 0595 063e 8b04 f23e 2b82 f0bc
00000160: c62a 33bd ba38 0cbe e26b fcbe cdf0 c43d
00000170: a491 ddbb e9f1 aa3e 44d7 b1be e22f 98be
00000180: 1af8 d03d fa99 ca3e 1b92 843e 2915 f0be
00000190: 918d 1ebe b718 923e 170c bb3e 9854 e83d
000001a0: 661b dabd 8c5c 21bc 7829 1e3e 0dbf 55be
000001b0: d3df 1c3e 212b 163e 690e ec3d f608 ad3e
000001c0: 5a84 483d 904c c5be 334e 113f 301c bb3e
000001d0: f6c2 8f3e 10d6 55bd 7933 12be 8dd5 ed3d
000001e0: b874 603e b813 b63c eee5 d8be b679 92bd
000001f0: 7c67 c5be 57a2 a1be 5b61 debe c566 e2be
00000200: 1495 4abe e8dd 57be 1b96 61be fba9 80be
00000210: 316c 70be faf5 e8bd 0592 0dbd 3819 133e
00000220: 90f1 43be 9846 1a3e 7e38 afbd 2245 3b3d
00000230: 4355 c53e 5e40 b0be ee94 a53e 1496 bdbd
00000240: 1d6d df3e c375 0d3e b4d0 233d 2f7d 92bd
00000250: a432 cebc 6d2e e23e 531e bfbf 82ba 9dbf
00000260: 9dc2 c73e 9b80 e73e cadc 88bf 0bb1 0dbf
00000270: 8991 f63e 39a7 263f 8ea1 8ebf eaca 3e3d
00000280: 2d96 383e 0fdf bdbe 2683 3abc 02c8 ac3e
00000290: 2636 543f b6d1 51be a487 babe 2c42 463d
000002a0: 170c 7c3f c428 b83e 263b 2bbc b319 373f
000002b0: e482 ba3f 5edd 533f c13d 833e 7299 ecbd
000002c0: 6cf3 693f 2641 cc3e 1cef c03e 98fe eb3e
000002d0: 4b8c d8be 533b f8be 200b 993e 24a8 7abe
000002e0: 1a42 03bd 617c 15bf 4f21 01bf 0536 f73d
000002f0: 9379 2a3e 040e bebc 46d5 053f 37ab 54bd
00000300: 69b8 e5be e776 21bf 1dea 293e f526 05be
00000310: ded9 cabe 8982 bfbe c4f2 f4be 6ee1 e63d
00000320: f408 743e 3fc5 b73e b36b 5bbd 88dd 50bd
00000330: c725 08be ac62 b83e b923 1d3f a9bf acbc
00000340: 1d5c 22bf 0b0c 4f3e 5823 8f3d 98a9 2cbe
00000350: a3a6 533c 5ca8 84be c589 f43e 0218 323e
00000360: f829 f1be d85b 8d3d d37e 1fbc 52d6 b63e
00000370: a0b7 1abf 58e8 c7be 669d 6d3e 4f8a 8b3d
00000380: 5210 1c3e d931 07bf 70e7 d7be 154c a33d
00000390: caad 33be b630 4ebd ccdf d9be ebcc d8bd
000003a0: 1f95 1fbf 5bb8 08bd d334 89bd 9c88 aebe
000003b0: b86c b93c 16c2 30bf 0db6 1e3e 298c 41be
000003c0: 0318 04be c613 e93d 9d7e c13d ed28 a33d
000003d0: c6e7 13be 05f3 c7bd cf8f 0ebf cbe7 babe
000003e0: 32cb 3d3e 246a a33e 3753 663d 090e 7abe
000003f0: baf0 f7bd 5904 ce3a 3731 063f 454a e3bd

layer1.conv1.bias f4 [30]
-0.044591933 -0.054751094 0.035470195 -0.09871852 -0.11187811 0.08254166 -0.06894482 0.1120969
0.031336956 -0.07391258 -0.018939301 0.0165896 -0.1701318 0.04811189 -0.084876575 -0.056948446
-0.016288377 -0.2677503 0.018723771 0.034652688 0.047254924 0.01478672 -0.07582623 0.028632125
0.037997406 0.02309011 0.016441911 0.07167383 -0.09387066 0.014154234
00000000: 08a6 36bd af42 60bd 3249 113d ef2c cabd
00000010: 5a20 e5bd 9a0b a93d f132 8dbd 0f93 e53d
00000020: 2e5b 003d 7b5f 97bd 9826 9bbc eae6 873c
00000030: 0837 2ebe f910 453d c5d3 adbd c642 69bd
00000040: 346f 85bc 9116 89be 9862 993c faef 0d3d
00000050: 618e 413d 0044 723c c84a 9bbd eb8d ea3c
00000060: 2ba3 1b3d 7827 bd3c 30b1 863c bbc9 923d
00000070: 433f c0bd 29e7 673c

layer1.bn1.weight f4 [30]
0.4344577 1.2061653 0.73252916 1.35183 0.5733935 0.47399914 1.213234 0.73246396
0.94032794 1.278083 0.7147318 0.5536845 0.8858999 0.7064021 0.679545 0.79600525
0.79783267 1.3249267 0.97497886 0.93717283 0.8916822 1.0405955 0.7293347 0.93256193
0.67465776 0.8062598 0.5179777 0.6973221 0.9053242 0.98073626
00000000: 3d71 de3e a063 9a3f 0887 3b3f c408 ad3f
00000010: ebc9 123f 04b0 f23e 404b 9b3f c282 3b3f
00000020: 55b9 703f 3998 a33f aaf8 363f 44be 0d3f
00000030: 56ca 623f c5d6 343f a9f6 2d3f 00c7 4b3f
00000040: c33e 4c3f 3397 a93f 3798 793f 8fea 6f3f
00000050: 4945 643f 3c32 853f aeb5 3a3f 61bc 6e3f
00000060: 5fb6 2c3f 0b67 4e3f 309a 043f b383 323f
00000070: 54c3 673f 8811 7b3f

layer1.bn1.bias f4 [30]
0.10805142 0.110460475 0.015877564 0.20890774 0.07589331 0.036816966 0.04928128 0.00807484
0.14273955 -0.08127336 0.004201948 -0.28582856 0.10176627 0.087170824 -0.08406066 0.020580774
0.26239568 0.31570596 0.29000622 0.27695525 0.141426 0.10706598 0.100508876 0.13387597
0.05350334 -0.34723815 0.054226633 -0.17330842 -0.039239474 0.032323193
00000000: 104a dd3d 1a39 e23d aa11 823c e9eb 553e
00000010: f46d 9b3d 63cd 163d 2bdb 493d 554c 043c
00000020: 512a 123e a672 a6bd 7fb0 893b 1f58 92be
00000030: d66a d03d 9e86 b23d ff27 acbd 0399 a83c
00000040: ba58 863e 36a4 a13e b27b 943e 14cd 8d3e
00000050: fad1 103e 6945 db3d 99d7 cd3d c816 093e
00000060: 5126 5b3d 33c9 b1be bf1c 5e3d c377 31be
00000070: 92b9 20bd 5365 043d

layer1.bn1.running_mean f4 [30]
-0.05144006 -0.06330831 0.037396915 -0.109484345 -0.12591282 0.06402463 -0.07374893 0.101694934
0.027285926 -0.075325206 -0.019417513 0.011630407 -0.17731087 0.033013225 -0.08356298 -0.0649944
-0.028265398 -0.2842469 0.0101839965 0.02488101 0.028267864 0.010679688 -0.08916693 0.010715253
0.025121791 0.02454225 0.01195376 0.07288361 -0.113425344 -0.014299022
00000000: d0b2 52bd caa7 81bd 822d 193d 5439 e0bd
00000010: 4aef 00be 581f 833d ae09 97bd 6f45 d03d
00000020: bc86 df3c 1a44 9abd 7a11 9fbc 768d 3e3c
00000030: fb90 35be e038 073d 1123 abbd c91b 85bd
00000040: d68c e7bc cf88 91be c7da 263c 43d3 cb3c
00000050: 0292 e73c dcf9 2e3c 279d b6bd 078f 2f3c
00000060: 37cc cd3c d40c c93c b4d9 433c 0144 953d
00000070: 8c4b e8bd 7246 6abc

layer1.bn1.running_var f4 [30]
2.5325844 6.1460505 5.3887324 7.0677958 3.1739037 5.0108695 3.0157208 3.2733512
4.3966546 2.4122252 9.725257 1.0589268 3.7796557 7.021518 2.8917382 6.760826
18.377098 2.5353847 12.915089 3.7453754 10.688252 6.6769605 6.3562646 4.7847795
4.274675 2.24792 4.4393587 1.4177111 6.8758287 8.676986
00000000: dd15 2240 72ac c440 7f70 ac40 622b e240
00000010: 3d21 4b40 0b59 a040 9201 4140 967e 5140
00000020: 65b1 8c40 e661 1a40 a79a 1b41 ea8a 873f
00000030: e1e5 7140 47b0 e040 3d12 3940 b058 d840
00000040: 4c04 9341 be43 2240 34a4 4e41 3bb4 6f40
00000050: 1503 2b41 a9a9 d540 8566 cb40 ea1c 9940
00000060: 23ca 8840 ecdd 0f40 3a0f 8e40 8f77 b53f
00000070: ca06 dc40 efd4 0a41

conv1.weight f4 [30, 30, 5]
-0.10541818 0.82473207 0.14339799 -0.5019271 0.12555532 0.61318064 0.3640986 -0.47325853
-0.01715984 0.35866368 -0.5841507 0.27879068 0.2742049 -0.3147252 -0.10972021 0.14538439
-0.4502577 -0.7530699 0.16995695 0.028128203 0.07857054 0.69870985 0.41833064 -0.15882286
0.3892232 0.3093391 0.119699426 0.38659576 -0.5923496 0.30147654 -0.460773 -0.070305936
0.90328383 0.03769894 -0.029283904 -0.46853286 -0.56844085 -0.25815248 0.24679409 0.22474644
-0.602405 -0.22774187 0.4996332 0.22529954 0.4863223 0.22663616 -0.14782842 0.041906416
-0.67188513 -0.7563807 -0.0027513835 -0.4451342 -0.17980653 -0.57132083 -0.50898516 0.24526133
0.20090969 -0.054796387 -0.5425456 -0.08343669 -0.2921442 -0.2842633 0.10443256 -0.54198587
-0.24056058 -0.13727564 -0.2273152 -0.3529204 0.2634991 -0.3166857 0.6754495 0.124160394
-0.28430572 0.31402996 -0.19188006 0.07897308 0.07027972 0.08255049 -0.71972346 -0.4789583
0.62788856 0.21671483 0.16171677 0.3089933 -0.30382973 -0.053581227 0.22047582 -0.57463783
-0.84449595 -0.15082793 -0.07973375 -0.3218348 0.30040735 -0.5727024 0.3414276 0.66380286
-0.49395984 -0.33368185 0.35320583 -0.024478057 -0.30704805 0.018365782 -0.24598569 -0.15200625
-0.54476744 -0.11013117 0.5890185 0.5629205 -0.12607683 -0.52121717 0.026392266 0.06689634
0.24330671 0.061720107 0.06530662 -0.2671978 0.5972934 0.26669788 0.2037365 0.4845015
-0.07031124 -0.30093184 -0.23329793 0.5998849 -0.04033863 -0.015892573 -0.70445275 0.26495695
-0.103716634 -0.45597902 0.1451553 -0.2917639 -0.61963814 0.2965852 -0.3412669 -0.16804901
-0.33197862 -0.32980132 -0.10911538 -0.22042543 -0.2635078 -0.6965977 -0.16111721 -0.0019545623
0.47008678 0.40047958 -0.31896323 -0.27594355 -0.09102766 -0.12808986 -0.18529858 0.6873381
0.21261975 -0.47724283 0.14786004 0.63499814 0.31558278 -0.44384462 -0.02581803 0.4041999
-0.5593608 0.2702692 0.26006943 -0.34665275 -0.071868286 0.14999782 -0.4690844 -0.79822373
0.16776727 0.008031123 0.09108094 0.7168553 0.3665008 -0.10478568 0.33688608 0.3194134
0.13909139 0.46148127 -0.53961974 0.33235955 -0.44429997 0.0004163694 0.9806108 0.00024519637
-0.04213169 -0.41972873 -0.50463736 -0.2606271 0.27929735 0.2978829 -0.5754975 -0.25707045
0.52689534 0.21445383 0.51076156 0.21745975 -0.11560759 0.04874802 -0.68916523 -0.7303971
0.04797587 -0.3959122 -0.04408873 -0.62232393 -0.52475816 0.14674444 0.16356753 -0.032048043
-0.4826652 -0.105283804 -0.25860274 -0.27510035 0.14767554 -0.5710219 -0.17536649 -0.063388616
-0.1755531 -0.39873075 0.24205552 -0.20084025 0.6934445 0.19564793 -0.30195692 0.2556232
-0.24583878 0.121908434 0.04831612 0.09581107 -0.6800006 -0.48058966 0.6696393 0.28375858
0.21000236 0.24635075 -0.2556337 -0.14035247 0.19184604 -0.5674798 -0.88624907 -0.12981646
-0.047359776 -0.32145315 0.32206225 -0.56090355 0.2660362 0.66144705 -0.43671206 -0.37211236
0.37283862 -0.040266834 -0.2562952 -0.072794214 -0.2409508 -0.2488072 -0.53157866 -0.04189747
00000000: 7de5 d7bd a421 533f ecd6 123e 4b7e 00bf
00000010: 9391 003e 68f9 1c3f 226b ba3e f14e f2be
00000020: cb92 8cbc c4a2 b73e e68a 15bf a7bd 8e3e
00000030: 9664 8c3e a923 a1be fdb4 e0bd a5df 143e
00000040: 2d88 e6be 30c9 40bf 3209 2e3e 1e6d e63c
00000050: 97e9 a03d a6de 323f 6f2f d63e 76a2 22be
00000060: 4348 c73e b261 9e3e f924 f53d e1ef c53e
00000070: 39a4 17bf 225b 9a3e 70ea ebbe 8ffc 8fbd
00000080: 9c3d 673f 346a 1a3d cce4 efbc 8ae3 efbe
00000090: 5785 11bf 902c 84be 97b7 7c3e ee23 663e
000000a0: 3737 1abf 2a35 69be eccf ff3e ecb4 663e
000000b0: 3dff f83e 4f13 683e 5560 17be 10a6 2b3d
000000c0: aa00 2cbf 2aa2 41bf 8e50 34bb a1e8 e3be
000000d0: 341f 38be 1542 12bf da4c 02bf c925 7b3e
000000e0: 45bb 4d3e 2d72 60bd 45e4 0abf dbe0 aabd
000000f0: ed93 95be f68a 91be bde0 d53d 96bf 0abf
00000100: 8355 76be fc91 0cbe 51c5 68be fcb1 b4be
00000110: 5be9 863e a124 a2be 42ea 2c3f ce47 fe3d
00000120: 8590 91be 89c8 a03e 357c 44be a3bc a13d
00000130: d0ee 8f3d 3b10 a93d cc3f 38bf 063a f5be
00000140: 4ebd 203f 7eea 5d3e 1599 253e 5f34 9e3e
00000150: 928f 9bbe fd77 5bbd 6ac4 613e 771b 13bf
00000160: e330 58bf a372 1abe 734b a3bd 88c7 a4be
00000170: fece 993e a09c 12bf 99cf ae3e fcee 293f
00000180: 4ee8 fcbe 59d8 aabe 65d7 b43e 3586 c8bc
00000190: 6735 9dbe d673 963c ace3 7bbe 87a7 1bbe
000001a0: e175 0bbf 738c e1bd ebc9 163f 8f1b 103f
000001b0: 491a 01be 7d6e 05bf 9834 d83c f300 893d
000001c0: 6525 793e 39ce 7c3d 7abf 853d 26ce 88be
000001d0: 38e8 183f a08c 883e 4da0 503e 9510 f83e
000001e0: 57ff 8fbd bd13 9abe a7e5 6ebe 0f92 193f
000001f0: 1f3a 25bd 2431 82bc 0457 34bf 70a8 873e
00000200: 6369 d4bd 1576 e9be 97a3 143e 1462 95be
00000210: 9ba0 1ebf 04da 973e 89ba aebe 0a15 2cbe
00000220: 1af9 a9be b8db a8be e277 dfbd 34b7 61be
00000230: 7fea 86be 3a54 32bf e9fb 24be 1d18 00bb
00000240: 37af f03e a90b cd3e 264f a3be 7948 8dbe
00000250: b66c babd fd29 03be e9be 3dbe 64f5 2f3f
00000260: feb8 593e 2c59 f4be 9f68 173e 3d8f 223f
00000270: 1194 a13e 9a3f e3be 5580 d3bc 4af3 ce3e
00000280: 4532 0fbf b960 8a3e d227 853e 787c b1be
00000290: ae2f 93bd 0799 193e d52b f0be 6458 4cbf
000002a0: 2fcb 2b3e f994 033c a588 ba3d d483 373f
000002b0: fea5 bb3e e099 d6bd 557c ac3e 278a a33e
000002c0: f96d 0e3e 4647 ec3e 8524 0abf 082b aa3e
000002d0: 497b e3be 284c da39 4f09 7b3f b38d 8039
000002e0: 4792 2cbd afe6 d6be ea2f 01bf ea70 85be
000002f0: 1000 8f3e 1c84 983e ce53 13bf bd9e 83be
00000300: 9de2 063f c999 5b3e 45c1 023f c5ad 5e3e
00000310: acc3 ecbd 01ac 473d 226d 30bf 4efb 3abf
00000320: 5982 443d 01b5 cabe 6296 34bd 9f50 1fbf
00000330: 8d56 06bf 2d44 163e 3f7e 273e cf44 03bd
00000340: e51f f7be 099f d7bd 9467 84be f4d9 8cbe
00000350: 4238 173e 7e2e 12bf 4693 33be e4d1 81bd
00000360: 31c4 33be 7026 ccbe 67dd 773e 11a9 4dbe
00000370: 9485 313f ee57 483e 199a 9abe 0be1 823e
00000380: 29bd 7bbe 21ab f93d 20e7 453d 9838 c43d
00000390: 8514 2ebf d90f f6be 7b6d 2b3f ce48 913e
000003a0: dc0a 573e 5f43 7c3e 6ce2 82be 8fb8 0fbe
000003b0: 4a73 443e 5b46 11bf 38e1 62bf 9bee 04be
000003c0: 53fc 41bd 8295 a4be 58e5 a43e 6097 0fbf
000003d0: e635 883e 9854 293f b998 dfbe 8385 bebe
000003e0: b4e4 be3e d6ee 24bd 2039 83be 2215 95bd
000003f0: cebb 76be 51c7 7ebe 8a15 08bf ae9c 2bbd

conv1.bias f4 [30]
0.087207705 0.15731663 0.055384155 -0.030222002 0.035808865 -0.032922614 0.08173765 -0.07265218
-0.016044091 0.013102305 -0.008522469 -0.057041146 0.022059329 0.051179733 0.10480827 -0.04593991
-0.029502003 0.12132469 -0.074277505 -0.0369184 -0.04233059 0.057580616 -0.017546974 0.015729493
0.07628908 0.069132425 -0.014001516 -0.036388673 0.008968411 0.080683425
00000000: f499 b23d 9c17 213e 7fda 623d 2294 f7bc
00000010: 51ac 123d ddd9 06bd 1266 a73d abca 94bd
00000020: e66e 83bc 0dab 563c d3a1 0bbc faa3 69bd
00000030: c4b5 b43c d7a1 513d b8a5 d63d 7d2b 3cbd
00000040: 2fae f1bc 1479 f83d ce1e 98bd c037 17bd
00000050: d762 2dbd a7d9 6b3d acbe 8fbc 23db 803c
00000060: 733d 9c3d 4d95 8d3d 9d66 65bc 4a0c 15bd
00000070: 3ef0 123c 5a3d a53d

bn1.weight f4 [30]
1.3192034 1.3036953 1.2587794 1.2308986 1.2209997 1.1508756 1.1001074 1.0489881
0.95330614 0.91435105 0.93370247 0.8453291 0.8570011 0.7885678 0.74034965 0.72397864
0.67733973 2.0457711 0.9145566 0.7778314 0.54245234 0.7505849 0.7741849 0.5403285
0.76233286 0.7293512 0.79597884 0.6656802 0.59133494 0.6445126
00000000: a8db a83f 7ddf a63f af1f a13f 168e 9d3f
00000010: b849 9c3f e44f 933f 52d0 8c3f 3e45 863f
00000020: df0b 743f e912 6a3f 2007 6f3f 7d67 583f
00000030: 6d64 5b3f 94df 493f 8e87 3d3f aa56 393f
00000040: 2366 2d3f eaed 0240 6220 6a3f f51f 473f
00000050: 28de 0a3f 5526 403f fb30 463f f852 0a3f
00000060: 3f28 433f c3b6 3a3f 45c5 4b3f 056a 2a3f
00000070: ba61 173f c7fe 243f

bn1.bias f4 [30]
-0.069862545 -0.06400718 -0.037706587 -0.036660783 -0.014195205 0.016946424 0.030543603 0.03872372
0.038027186 0.0704978 0.07511802 0.08312233 0.095691115 0.10379812 0.09429871 0.1354512
0.15886362 0.36675712 0.1853438 0.21328475 0.2646234 0.24236508 0.25389946 0.290766
0.27186584 0.24354811 0.24958813 0.27814567 0.27724767 0.29516467
00000000: 1814 8fbd 3216 83bd 3972 1abd 9e29 16bd
00000010: 0193 68bc 3ad3 8a3c 9436 fa3c c39c 1e3d
00000020: 65c2 1b3d 2761 903d 7ad7 993d 0a3c aa3d
00000030: b4f9 c33d 1c94 d43d af1f c13d b8b3 0a3e
00000040: 25ad 223e 97c7 bb3e c4ca 3d3e 5167 5a3e
00000050: b87c 873e 8d2e 783e 1cff 813e 48df 943e
00000060: 0032 8b3e ad64 793e 0894 7f3e 1c69 8e3e
00000070: 68f3 8d3e d31f 973e

bn1.running_mean f4 [30]
-1.566694 -1.4567678 -1.4585408 -1.7316251 -1.6846182 -1.9271822 -1.8299963 -1.8719711
-1.818858 -1.5997612 -1.6011306 -1.4226509 -1.6299545 -1.9405895 -1.8606176 -0.87273264
-1.1510997 -0.50901216 -1.3014278 -1.1120896 -0.44826537 -0.49675813 -0.23271175 0.43764755
-0.2997768 -0.38101035 -0.8659944 -0.02726884 0.16896106 0.10395313
00000000: 6e89 c8bf 5e77 babf 77b1 babf e4a5 ddbf
00000010: 92a1 d7bf e8ad f6bf 523d eabf c09c efbf
00000020: 57d0 e8bf fac4 ccbf d9f1 ccbf 6d19 b6bf
00000030: 59a2 d0bf 3d65 f8bf b828 eebf 686b 5fbf
00000040: 3c57 93bf 9f4e 02bf 3095 a6bf f458 8ebf
00000050: 0a83 e5be 1557 febe fd4b 6ebe 5713 e03e
00000060: 587c 99be ca13 c3be cfb1 5dbf e762 dfbc
00000070: 2104 2d3e 61e5 d43d

bn1.running_var f4 [30]
13.821678 13.485816 13.177593 11.951527 12.452385 12.079264 11.052175 10.8931465
12.922565 11.706299 12.592549 11.496216 11.433532 11.290994 12.670737 10.2424555
9.284848 5.293168 17.469015 14.238078 9.425407 14.042688 15.218719 10.12633
18.940338 22.988447 24.918846 21.607384 16.673056 15.840022
00000000: 9825 5d41 e7c5 5741 6cd7 5241 7439 3f41
00000010: f83c 4741 aa44 4141 b5d5 3041 544a 2e41
00000020: d4c2 4e41 004d 3b41 157b 4941 80f0 3741
00000030: bfef 3641 e9a7 3441 57bb 4a41 19e1 2341
00000040: bd8e 1441 a261 a940 8bc0 8b41 2bcf 6341
00000050: 78ce 1641 daae 6041 df7f 7341 7305 2241
00000060: d085 9741 57e8 b741 cc59 c741 ecdb ac41
00000070: 6b62 8541 bb70 7d41

dense1.dense.weight f4 [96, 512]
0.30472198 0.1794897 0.23242716 -0.84377533 -0.29845485 0.19475083 -0.12097408 0.13765958
0.06437908 -0.60098964 0.6312017 -0.08242963 -0.5799947 -0.7323188 -0.26617256 0.44167903
0.015294463 -0.19307223 0.26521182 0.11573483 -0.006540693 0.15803505 -0.9994964 0.033991195
0.43668488 0.008657963 0.30655482 -0.030200938 0.33078015 -0.69051176 -0.289668 0.7658359
-0.008231188 -0.25188044 -0.5132854 -0.6348608 0.7262229 0.30269867 -0.31585214 -0.28247485
0.05045483 -0.28882614 -0.44446704 -0.30894396 -0.41622797 -0.32459074 -0.28622 -0.05920324
0.2658062 0.6559077 0.037706632 0.20221576 0.36573797 -0.5334359 -0.42765749 0.90841883
-0.04355313 -0.14403246 -0.20146388 0.4927345 0.5847242 -0.75199175 -0.3213474 -0.00097083097
0.038394947 0.32233998 -0.30555102 0.24526137 -0.027478267 -0.2528154 0.19059257 -0.26749337
0.24496149 0.09236323 -0.19291833 0.4275025 0.3781363 0.5527234 0.7638789 0.3394652
-0.09200401 0.3309718 0.33122298 0.10849291 0.34195104 1.0362406 0.58183295 0.35803506
-0.23835762 -0.7115803 0.9078488 0.20263807 0.042283036 -0.22684567 -0.43643823 0.13359475
0.43112424 0.035047393 0.11986144 -0.1334278 0.42719284 0.5782789 -0.350321 0.55997443
0.12555943 -0.34623247 -0.011233939 0.492148 -0.23163125 0.082160644 0.20153739 -0.053320594
0.60363 0.32597184 -0.44244024 0.055404924 0.3521599 0.33513212 0.34484977 0.47633046
-0.12107419 -0.14472753 -0.16676441 0.08728768 0.17626134 -0.0069782855 -0.042818807 -0.1285773
-0.08414149 0.43678564 -0.37699246 -0.2900926 0.35561174 0.29598618 -0.65344965 -1.6205236
0.29644516 0.12815657 0.09935168 0.08228955 -0.6542081 0.23091973 0.23621464 -0.06954433
0.03267987 -0.1801791 0.32931703 0.29123673 -0.2291794 0.15437448 -0.0666094 0.09365401
-0.038129937 0.10554139 0.20820008 0.040229045 0.45452118 0.061914828 0.42001605 0.123486504
-0.81205255 1.0776899 -0.51488006 0.019603385 0.5575118 0.34679335 0.40034756 -0.17992198
-0.50765616 -0.5727269 -0.79051024 0.4902945 -0.30718514 0.1216566 0.6989939 -0.034817856
-0.14921126 0.19888185 0.26264453 0.2561633 -0.64487916 0.14008597 -0.072426304 -0.21099812
0.034106173 0.40289015 0.31664306 -0.52821225 -0.6032733 0.42217222 0.043067053 -0.32757273
-0.21087797 -0.7008934 0.026272673 0.69425046 0.19397828 -0.38098916 0.88864946 -0.10663166
-0.2501859 -0.011067297 0.40702924 -0.011332515 0.16308336 0.064532146 -0.1733223 -0.27271578
-0.010733363 -0.104465574 0.12349485 -0.3069483 0.74423945 0.12356927 -0.37557477 -0.19671296
0.188599 0.1304491 0.42303908 -0.48368186 -0.51531035 -0.33592558 0.33854946 0.15413222
-0.47507057 0.7876309 0.011088984 -0.60378355 0.6867713 0.034026496 -0.16058777 -0.40196234
-0.700186 0.10338037 0.29621315 -0.11484841 0.23894282 -0.029326133 -0.48945642 0.45980117
0.49168786 -0.24632806 -0.30940405 -0.11560463 0.3424966 -0.12612581 0.01639035 0.63186026
-0.013509985 -0.22827931 -0.3393501 0.10837039 0.10294979 -0.53533816 -0.27406296 0.18134724
00000000: 8504 9c3e 26cc 373e 6301 6e3e a901 58bf
00000010: 13cf 98be c36c 473e 42c1 f7bd a2f6 0c3e
00000020: 2ed9 833d 75da 19bf 6f96 213f ded0 a8bd
00000030: 887a 14bf 3f79 3bbf c547 88be c123 e23e
00000040: a195 7a3c bab4 45be d8c9 873e 6206 ed3d
00000050: 4f53 d6bb f1d3 213e ffde 7fbf 5a3a 0b3d
00000060: 2995 df3e 21da 0d3c c1f4 9c3e f567 f7bc
00000070: 045c a93e 61c5 30bf 5d4f 94be d20d 443f
00000080: 1bdc 06bc 79f6 80be ac66 03bf 3d86 22bf
00000090: bee9 393f 52fb 9a3e 5fb7 a1be 8ba0 90be
000000a0: b9a9 4e3d 05e1 93be 2f91 e3be e72d 9ebe
000000b0: d51b d5be c230 a6be 6e8b 92be 197f 72bd
000000c0: c017 883e 91e9 273f 4572 1a3d a611 4f3e
000000d0: 0242 bb3e 418f 08bf ecf5 dabe 238e 683f
000000e0: c464 32bd 3f7d 13be 8c4c 4ebe b247 fc3e
000000f0: 7cb0 153f 8882 40bf a587 a4be 5d7f 7eba
00000100: 0544 1d3d bf09 a53e 2f71 9cbe cc25 7b3e
00000110: 1a1a e1bc 0571 81be b32a 433e e4f4 88be
00000120: 2fd7 7a3e ef28 bd3d 628c 45be 9ce1 da3e
00000130: 159b c13e 487f 0d3f 918d 433f 62ce ad3e
00000140: 996c bcbd 2375 a93e 0f96 a93e 8831 de3d
00000150: 3514 af3e 88a3 843f 01f3 143f 5f50 b73e
00000160: 0514 74be 202a 36bf c768 683f 5b80 4f3e
00000170: fa30 2d3d 3b4a 68be d574 dfbe 10cd 083e
00000180: 51bc dc3e db8d 0f3d ea79 f53d 4ca1 08be
00000190: 05b9 da3e 160a 143f 465d b3be 7c5a 0f3f
000001a0: a792 003e 6245 b1be 8e0e 38bc d3fa fb3e
000001b0: be30 6dbe d743 a83d d15f 4e3e b266 5abd
000001c0: 7f87 1a3f c8e5 a63e 8787 e2be 46f0 623d
000001d0: 4d4e b43e 7096 ab3e 2690 b03e 96e1 f33e
000001e0: bff5 f7bd 7433 14be 4ac4 2abe e2c3 b23d
000001f0: da7d 343e 1aaa e4bb c662 2fbd c5a9 03be
00000200: 6052 acbd 5ea2 df3e 2805 c1be 0487 94be
00000210: be12 b63e 808b 973e 7a48 27bf 516d cfbf
00000220: a9c7 973e 7a3b 033e e578 cb3d 6c87 a83d
00000230: 2f7a 27bf 3976 6c3e 40e2 713e 426d 8ebd
00000240: 54db 053d df80 38be 3e9c a83e fb1c 953e
00000250: 01ae 6abe 5814 1e3e 826a 88bd accd bf3d
00000260: 232e 1cbd 1626 d83d 6732 553e 36c7 243d
00000270: 00b7 e83e 679a 7d3d 580c d73e 7ee6 fc3d
00000280: ade2 4fbf bef1 893f 2ecf 03bf 4797 a03c
00000290: 18b9 0e3f e68e b13e 5bfa cc3e 783d 38be
000002a0: c1f5 01bf 3b9e 12bf e15e 4abf e107 fb3e
000002b0: 5f47 9dbe 1827 f93d 44f1 323f 2b9d 0ebd
000002c0: d6ca 18be afa7 4b3e 5879 863e d627 833e
000002d0: cd16 25bf b272 0f3e 3e54 94bd e40f 58be
000002e0: eab2 0b3d 9e47 ce3e 0a1f a23e eb38 07bf
000002f0: 1e70 1abf f526 d83e 1467 303d 9db7 a7be
00000300: 65f0 57be c06d 33bf ca39 d73c 66ba 313f
00000310: 3ea2 463e 0311 c3be 887e 633f b361 dabd
00000320: 5e18 80be 9c53 35bc 2366 d03e 03ac 39bc
00000330: 53ff 263e 6e29 843d 677b 31be 67a1 8bbe
00000340: fdda 2fbc 0cf2 d5bd deea fc3d 5428 9dbe
00000350: 7a86 3e3f e311 fd3d 564b c0be 1f6f 49be
00000360: 1920 413e 7394 053e 9498 d83e 26a5 f7be
00000370: 61eb 03bf 70fe abbe 5b56 ad3e d6d4 1d3e
00000380: 733c f3be 2ea2 493f 92ae 353c 8f91 1abf
00000390: 3ed0 2f3f 5e5f 0b3d 1f71 24be 02ce cdbe
000003a0: 643f 33bf 16b9 d33d 40a9 973e a535 ebbd
000003b0: 6dad 743e 5c3d f0bc 089a fabe 0f6b eb3e
000003c0: 83be fb3e 6c3d 7cbe 356a 9ebe 1fc2 ecbd
000003d0: b75b af3e 2027 01be 0e45 863c 98c1 213f
000003e0: fc58 5dbc 0dc2 69be 4cbf adbe 4cf1 dd3d
000003f0: 57d7 d23d ec0b 09bf fb51 8cbe 17b3 393e

dense1.dense.bias f4 [96]
0.86832243 0.19370803 0.3728772 0.30098268 0.039780054 0.23924544 0.0950722 0.13416237
0.27201837 0.12076298 0.255493 0.10497404 0.11459515 0.15956059 0.18815729 0.35735273
0.26788414 0.1802608 0.3453734 0.21778221 0.2723618 0.09846693 -0.0009057135 0.2644925
0.30309287 0.3206973 0.130935 0.17867577 0.09534862 -1.0963786 0.16491517 0.18707822
0.16329458 0.1508387 0.2654863 0.08829914 0.2586006 0.21263257 0.2138075 0.0932256
0.14240019 0.16737147 0.14100698 0.18214568 0.08209269 0.2989763 0.23922025 0.20252475
0.21073215 0.1622946 -0.0063731815 0.123871066 0.2089696 0.19745047 -0.03888525 0.21990426
0.19855969 0.2376168 0.20054205 0.19346708 0.2752626 0.22951128 0.14216617 0.16869971
0.06363008 0.21290421 0.18801767 0.054390315 0.3437119 0.2099237 0.40466878 0.15061425
0.13323854 0.2688307 0.3379125 0.08478855 0.13675521 0.2832156 0.15363508 0.10938383
0.2286913 0.21993087 0.16620374 0.2774716 0.06826646 0.20633295 0.17248614 0.13392378
0.259122 0.23874867 0.19197212 0.30600774 0.06224556 0.19320954 0.25723574 0.14167523
00000000: 614a 5e3f 665b 463e c3e9 be3e 671a 9a3e
00000010: 69f0 223d c2fc 743e 37b5 c23d dc61 093e
00000020: fe45 8b3e 9552 f73d facf 823e a1fc d63d
00000030: ddb0 ea3d da63 233e 4eac 403e f0f6 b63e
00000040: 1c28 893e 4a96 383e c8d4 b03e 4d02 5f3e
00000050: 0173 8b3e 08a9 c93d 676d 6dba 906b 873e
00000060: fd2e 9b3e 7032 a43e d313 063e c8f6 363e
00000070: 2346 c33d 2256 8cbf 86df 283e 6f91 3f3e
00000080: b236 273e 7675 1a3e d2ed 873e 2ed6 b43d
00000090: 4c67 843e 5abc 593e 5af0 5a3e 10ed be3d
000000a0: 5bd1 113e 6d63 2b3e 2264 103e 6684 3a3e
000000b0: 3620 a83d 6c13 993e 27f6 743e a662 4f3e
000000c0: 2bca 573e 8e30 263e 1fd6 d0bb 1db0 fd3d
000000d0: 20fc 553e 7530 4a3e 2446 1fbd 952e 613e
000000e0: 3b53 4b3e d251 733e e55a 4d3e 3c1c 463e
000000f0: 38ef 8c3e 0105 6b3e 0294 113e 9ebf 2c3e
00000100: 7d50 823d 9003 5a3e b487 403e 61c8 5e3d
00000110: 02fb af3e 3df6 563e bf30 cf3e 9f3a 1a3e
00000120: af6f 083e 2da4 893e de02 ad3e 9fa5 ad3d
00000130: 8f09 0c3e a301 913e 8452 1d3e a104 e03d
00000140: 0d2e 6a3e 8f35 613e 5031 2a3e c210 8e3e
00000150: 49cf 8b3d f248 533e 35a0 303e 5123 093e
00000160: a4ab 843e 887a 743e 5794 443e 0cad 9c3e
00000170: 33f5 7e3d b9d8 453e 67b4 833e 5013 113e

dense1.batch_norm1.weight f4 [96]
1.1559024 0.9527694 1.0209398 0.92168504 0.9045396 1.1690513 1.0382363 1.0329936
1.0326303 1.0180275 1.0030322 0.41416758 1.0957706 0.9553534 0.9263221 1.0105383
0.8951778 1.1298188 1.1374743 1.0540836 0.8885739 1.0331352 0.6152683 0.98246413
1.0654156 0.9970243 0.89176154 1.1517094 0.54730374 1.0954396 0.91281456 0.9864638
0.8605532 1.0353931 1.0421778 1.0180885 1.1373016 1.1311524 1.0170195 1.0673379
0.93276983 1.0207325 0.9854053 0.8853804 0.9338371 1.1171513 0.88465315 0.873911
0.71919346 0.869822 0.72746056 0.9526456 0.9963726 0.9736932 0.56993717 0.97294754
0.9904865 0.9875842 0.74242085 1.0268378 1.012519 0.982068 1.1017803 0.9578027
0.89101154 1.0998931 0.9153959 0.67574316 1.0028919 0.9964264 0.8913079 0.92196405
0.8681663 1.0732104 1.06514 0.76875114 0.9205985 0.9940296 0.83087456 0.9386322
0.9135769 0.98373836 0.9252515 0.85996544 0.8131712 0.946024 0.89376616 0.92404157
0.87952197 1.1166457 0.95822906 1.1201313 0.6028252 0.90544343 1.0340755 0.8723071
00000000: 9cf4 933f b2e8 733f 28ae 823f 8df3 6b3f
00000010: e88f 673f 79a3 953f ede4 843f 2239 843f
00000020: 3b2d 843f ba4e 823f 5c63 803f c60d d43e
00000030: 3642 8c3f 0a92 743f 7223 6d3f 5259 813f
00000040: 5f2a 653f e79d 903f c298 913f 36ec 863f
00000050: 9479 633f c63d 843f 3982 1d3f c582 7b3f
00000060: 8a5f 883f fc3c 7f3f 7c4a 643f 376b 933f
00000070: 191c 0c3f 5d37 8c3f 37ae 693f e488 7c3f
00000080: 374d 5c3f c387 843f 1566 853f b950 823f
00000090: 1993 913f 9ac9 903f b22d 823f 879e 883f
000000a0: 01ca 6e3f 5da7 823f 8643 7c3f 4aa8 623f
000000b0: f30f 6f3f d0fe 8e3f a178 623f a2b8 5f3f
000000c0: 101d 383f a8ac 5e3f db3a 3a3f 95e0 733f
000000d0: 4612 7f3f f543 793f 67e7 113f 1713 793f
000000e0: 8690 7d3f 51d2 7c3f 4b0f 3e3f 6c6f 833f
000000f0: 399a 813f cf68 7b3f 2307 8d3f 8f32 753f
00000100: 5519 643f 4cc9 8c3f 6357 6a3f 81fd 2c3f
00000110: c35e 803f cd15 7f3f c12c 643f d605 6c3f
00000120: 2640 5e3f f55e 893f 8256 883f e0cc 443f
00000130: 58ac 6b3f b978 7e3f 32b4 543f 334a 703f
00000140: 2de0 693f 47d6 7b3f 48dd 6c3f b226 5c3f
00000150: fd2b 503f a12e 723f dccd 643f fd8d 6c3f
00000160: 5a28 613f 3fee 8e3f 804e 753f 7660 8f3f
00000170: c152 1a3f 24cb 673f 965c 843f 854f 5f3f

dense1.batch_norm1.bias f4 [96]
-2.0842996 -0.6337287 -0.60952353 -0.51612777 -0.6557883 -0.9080728 -0.73590827 -0.8190983
-0.8000121 -0.6294155 -0.7263582 -0.11907016 -0.90359575 -0.71192205 -0.7856597 -0.71105254
-0.6431796 -0.79661375 -0.9453382 -0.810149 -0.62021834 -0.7315879 -0.72990984 -0.70885825
-0.80088586 -0.8524716 -0.5148951 -0.8383061 -0.30209363 -2.995906 -0.5681464 -0.6826101
-0.61822337 -0.6803237 -0.7676177 -0.8059906 -0.78873 -0.82382953 -0.63864124 -0.81638235
-0.5726775 -0.8607585 -0.6938367 -0.57966626 -0.51440346 -0.7713051 -0.5490924 -0.40031755
-0.23158294 -0.6158891 -0.24176537 -0.61531526 -0.58715737 -0.68545604 -0.34582052 -0.6955563
-0.6005269 -0.7456521 -0.30025542 -0.7166027 -0.8800275 -0.68870854 -0.75339204 -0.51921767
-0.6062354 -0.89767015 -0.4586769 -0.390923 -0.8184036 -0.68868154 -0.5968087 -0.6137056
-0.5408199 -0.83385617 -0.7936489 -0.392258 -0.7163416 -0.70942396 -0.41583362 -0.5848922
-0.6108783 -0.74019164 -0.60583127 -0.47587204 -0.31207845 -0.76587045 -0.47448686 -0.609569
-0.5803654 -0.8204625 -0.73462063 -0.7416598 -0.19726193 -0.75058466 -0.7483038 -0.7001146
00000000: 2a65 05c0 0b3c 22bf bc09 1cbf f320 04bf
00000010: bee1 27bf 7677 68bf 7c64 3cbf 6db0 51bf
00000020: 98cd 4cbf 6021 21bf 9cf2 39bf 0edb f3bd
00000030: 0d52 67bf 8640 36bf fe20 49bf 8a07 36bf
00000040: 6ba7 24bf e1ee 4bbf af01 72bf ed65 4fbf
00000050: a1c6 1ebf 5849 3bbf 5fdb 3abf bc77 35bf
00000060: db06 4dbf 943b 5abf 2ad0 03bf 3b9b 56bf
00000070: 04ac 9abe edbc 3fc0 0b72 11bf 89bf 2ebf
00000080: e343 1ebf b229 2ebf 9882 44bf 6655 4ebf
00000090: 36ea 49bf 7ee6 52bf fe7d 23bf 6ffe 50bf
000000a0: fe9a 12bf ab5a 5cbf 489f 31bf 0265 14bf
000000b0: f2af 03bf 4074 45bf 5291 0cbf 6cf6 ccbe
000000c0: 1424 6dbe e8aa 1dbf 5791 77be 4d85 1dbf
000000d0: f24f 16bf 0c7a 2fbf 630f b1be fa0f 32bf
000000e0: 22bc 19bf 0ee3 3ebf 14bb 99be 4673 37bf
000000f0: 7b49 61bf 344f 30bf 4dde 40bf 73eb 04bf
00000100: 3e32 1bbf b6cd 65bf b3d7 eabe 0f27 c8be
00000110: e682 51bf 6f4d 30bf 74c8 18bf cf1b 1dbf
00000120: 2c73 0abf 9977 55bf 932c 4bbf 0ad6 c8be
00000130: 2a62 37bf cf9c 35bf 25e8 d4be 7fbb 15bf
00000140: 8562 1cbf 337d 3dbf c217 1bbf 80a5 f3be
00000150: bfc8 9fbe 1610 44bf f1ef f2be b70c 1cbf
00000160: d492 14bf d509 52bf 1910 3cbf 6bdd 3dbf
00000170: 08ff 49be 5126 40bf d690 3fbf b63a 33bf

dense1.batch_norm1.running_mean f4 [96]
2.874067 -2.720112 -3.2071671 -2.8417337 -3.0974603 -4.6953125 -4.2522936 -3.9026256
-4.7291203 -2.9668038 -4.574013 -4.1051283 -4.0946245 -2.6111805 -5.329616 -2.825116
-3.438864 -3.21433 -4.1724143 -3.9423947 -2.1168544 -2.1556122 -2.8503487 -2.4284747
-4.736447 -3.4946737 -4.074875 -4.1839776 -3.6635437 0.886119 -2.5219436 -3.475576
-3.9016066 -4.399088 -3.6305833 -2.7560647 -3.9393065 -4.110945 -3.063366 -4.636077
-4.3116493 -3.4200444 -2.689984 -2.2897828 -3.4454613 -3.4758344 -2.9721036 -2.878697
-2.6409926 -3.292492 -4.331931 -3.0932598 -4.475236 -3.7670026 -2.9092982 -3.6627514
-3.7611754 -4.095889 -4.0898952 -4.7196226 -4.5458126 -2.7903671 -3.808726 -4.359643
-3.5084283 -4.07514 -2.5716596 -4.1101995 -3.648601 -4.402223 -3.3700662 -2.7301483
-3.136258 -4.462026 -2.6268885 -5.8378186 -4.294551 -4.3400316 -3.6039102 -3.2974708
-4.50913 -3.620482 -2.3619583 -3.0054138 -8.163525 -2.6209412 -2.969787 -2.6581736
-3.8535447 -3.8138483 -3.1764224 -3.7517319 -2.9797745 -3.8233645 -3.2785118 -4.858265
00000000: b7f0 3740 5116 2ec0 3a42 4dc0 f7de 35c0
00000010: ca3c 46c0 0040 96c0 ca12 88c0 9ec4 79c0
00000020: f454 97c0 1de0 3dc0 515e 92c0 365d 83c0
00000030: 2a07 83c0 951d 27c0 378c aac0 b3ce 34c0
00000040: 5916 5cc0 95b7 4dc0 6b84 85c0 3250 7cc0
00000050: 8b7a 07c0 8df5 09c0 1d6c 36c0 216c 1bc0
00000060: f990 97c0 bca8 5fc0 6065 82c0 25e3 85c0
00000070: 8077 6ac0 b2d8 623f 8667 21c0 d66f 5ec0
00000080: ecb3 79c0 54c5 8cc0 7a5b 68c0 5d63 30c0
00000090: 991d 7cc0 dd8c 83c0 300e 44c0 be5a 94c0
000000a0: 08f9 89c0 02e2 5ac0 b328 2cc0 cd8b 12c0
000000b0: 7082 5cc0 1274 5ec0 f236 3ec0 923c 38c0
000000c0: 0606 29c0 30b8 52c0 2e9f 8ac0 f8f7 45c0
000000d0: 2235 8fc0 9216 71c0 f131 3ac0 856a 6ac0
000000e0: 19b7 70c0 8611 83c0 6ce0 82c0 2607 97c0
000000f0: 4c77 91c0 6095 32c0 2bc2 73c0 3282 8bc0
00000100: 178a 60c0 8c67 82c0 1296 24c0 c186 83c0
00000110: ae82 69c0 03df 8cc0 2aaf 57c0 c0ba 2ec0
00000120: 73b8 48c0 ebc8 8ec0 f11e 28c0 69cf bac0
00000130: f66c 89c0 8ae1 8ac0 77a6 66c0 c309 53c0
00000140: cb4a 90c0 fab5 67c0 532a 17c0 b358 40c0
00000150: cc9d 02c1 80bd 27c0 fd10 3ec0 841f 2ac0
00000160: 7aa0 76c0 1716 74c0 814a 4bc0 601c 70c0
00000170: a0b4 3ec0 01b2 74c0 23d3 51c0 e876 9bc0

dense1.batch_norm1.running_var f4 [96]
7.2400613 9.646195 13.532153 11.537635 12.399291 16.104383 13.705485 15.264992
11.840483 14.252521 14.528386 8.495332 13.619849 7.842727 14.100733 9.5511875
10.4195385 11.615286 12.125966 14.300456 11.427251 9.652682 4.143492 9.98192
11.677226 7.2621574 12.980399 12.957711 7.580135 12.043797 9.614054 12.562818
9.084855 14.414753 12.244363 10.557016 16.055332 13.6744585 13.201703 11.630965
13.61161 12.121529 12.008319 7.07426 15.22528 12.779616 13.5951805 11.802108
9.556309 9.689654 16.88208 13.606751 13.550142 12.964208 13.325547 11.280826
13.814076 10.002679 21.447708 13.773159 12.915326 10.515103 13.020282 15.156202
11.052427 10.539663 12.075064 15.860374 9.608509 13.640452 9.491603 10.432858
10.448835 13.497076 12.037306 13.961151 10.88082 11.152347 14.5172415 13.117808
16.092983 12.40492 9.128632 11.389056 51.09003 10.895898 11.856075 11.385273
11.102185 11.233385 12.993587 15.629446 18.983242 11.840805 13.420346 12.497762
00000000: 95ae e740 d156 1a41 b383 5841 279a 3841
00000010: 7f63 4641 c7d5 8041 ab49 5b41 683d 7441
00000020: 9e72 3d41 530a 6441 4574 6841 e1ec 0741
00000030: e7ea 5941 9ff7 fa40 9a9c 6141 aad1 1841
00000040: 6eb6 2641 36d8 3941 f503 4241 abce 6441
00000050: 05d6 3641 6371 1a41 7d97 8440 f2b5 1f41
00000060: ebd5 3a41 9863 e840 b7af 4f41 c952 4f41
00000070: 7790 f240 64b3 4041 2ad3 1941 4d01 4941
00000080: 915b 1141 d4a2 6641 e9e8 4341 8ae9 2841
00000090: 5271 8041 95ca 5a41 2d3a 5341 6f18 3a41
000000a0: 28c9 5941 c8f1 4141 1322 4041 5760 e240
000000b0: bf9a 7341 4f79 4c41 dc85 5941 6fd5 3c41
000000c0: a4e6 1841 d308 1b41 800e 8741 41b5 5941
000000d0: 62cd 5841 656d 4f41 7135 5541 437e 3441
000000e0: 7506 5d41 f90a 2041 e894 ab41 dc5e 5c41
000000f0: 2da5 4e41 dd3d 2841 1353 5041 ce7f 7241
00000100: bed6 3041 76a2 2841 7633 4141 18c4 7d41
00000110: 74bc 1941 4b3f 5a41 9bdd 1741 fdec 2641
00000120: 6e2e 2741 06f4 5741 ce98 4041 e060 5f41
00000130: d717 2e41 0370 3241 9f46 6841 8be2 5141
00000140: 6ebe 8041 8d7a 4641 e00e 1241 9339 3641
00000150: 315c 4c42 9955 2e41 7cb2 3d41 142a 3641
00000160: 8da2 3141 f2bb 3341 bbe5 4f41 3612 7a41
00000170: aedd 9741 f073 3d41 bdb9 5641 d5f6 4741

dense2.dense.weight f4 [15, 96]
-0.041314613 -0.71241355 -0.10098055 0.28763178 -0.5757071 -0.5440515 -0.28128484 -0.14582384
-0.6327003 -0.35163522 -0.5026585 -0.049828775 -0.7529401 -0.8640081 -0.28036764 -0.087873794
-0.41067362 -0.0557607 -0.4537858 -0.23575789 -0.093803234 -0.63738585 -0.27492148 0.09326608
0.35754696 0.21669705 -0.01243613 0.39921284 -0.04505491 -0.0017742336 -0.14507678 -0.04672476
-0.49033615 -0.43527782 -0.33010057 -0.2644341 -0.54893714 -0.54951066 0.25415245 0.09283768
0.06239199 -0.5196269 -0.57595104 -0.45101425 -0.5321831 -0.39372563 0.14630891 -0.4328625
-0.13696481 0.26866594 -0.04232016 -0.90549904 0.25652677 -0.6126701 0.19212994 0.31490666
-0.33037344 -0.6088663 -0.02492841 0.51994383 -0.5822425 -0.6545627 0.38412914 -0.14695181
-0.7594448 0.05571299 -0.39905998 0.21159886 0.30075333 -0.18945797 0.072076246 0.02763098
-0.03488213 0.021757573 -0.12522745 0.27350762 -0.4900437 -0.47352818 -0.14092855 -0.6801188
0.05119857 -0.62893474 -0.41584414 0.28973246 -0.022089668 -0.7052443 0.2607251 -0.5530778
-0.5896535 -0.5105156 -0.79542315 -0.661928 -0.31387612 0.46882161 0.35524663 -0.88420475
-0.019139605 0.2627011 -0.30967042 -0.041408747 0.26521692 0.19260494 -0.7228599 0.093084306
-0.24216367 0.0692356 -0.1364273 -0.09482866 0.17212597 0.42172912 -0.44414413 -0.12475681
0.010370684 -0.49759412 -0.32447144 -0.20093383 -0.13561063 0.2650137 -0.36710954 0.06362305
-0.31734386 -0.35595068 -0.25037545 0.3193248 -0.58369976 -0.014069384 -0.20066841 -0.24792239
0.31903633 0.2574393 0.06878448 0.12172241 0.22807541 0.28665233 -0.056503348 -0.2029534
0.06390317 -0.43775785 -0.8193215 0.05351 -0.06292577 -0.1428959 0.22927786 -0.24459867
-0.1093538 -0.60488844 -0.055146948 -0.9537532 0.2551102 0.3434064 -1.2670591 -0.32742602
0.32216918 0.028585916 0.41948277 0.24098265 0.27483228 -0.5829858 -0.68428725 -0.31106123
-0.5366072 -0.15781164 0.170901 -1.0478183 -0.044687092 -0.05938071 -0.49483073 -0.7207029
0.26638627 -0.24489881 -0.13813737 0.3055927 0.2895101 -0.17238222 -0.4017864 -0.059024084
-0.004659297 -0.33135992 -0.47913373 0.24292633 -0.4407511 0.36129645 -0.13564464 -0.41463134
-0.18508165 -0.3381759 0.30724585 -0.78077817 -0.36218643 -0.46505833 -0.090777405 0.108410805
-0.01712327 -0.20921251 -0.47329402 -0.4120018 0.061531898 -0.55433273 -0.58082217 -0.375084
-0.26659283 0.38457212 -0.7845495 -0.046925347 -0.41969594 -0.6317816 -0.3869373 -0.0028419811
-0.011472598 -0.2648147 -0.8374074 -0.4937346 0.08663679 0.16691773 -0.909447 0.17533307
-0.27311525 -0.40032274 -0.31280443 -0.5943776 0.18890655 -0.016204845 0.28356922 -0.5667641
-0.44596967 -0.21281467 -0.08599156 -0.33312312 0.22847308 0.3186899 0.24770424 -0.023647757
0.06619654 -0.1021224 0.14207312 -0.43984714 0.25070047 -0.20316108 -0.72433555 -0.30694243
-0.18272072 0.0633668 -0.0784074 0.022774957 -0.639898 0.23940969 0.2038953 0.39109325
-0.5417076 0.16589025 -0.04273963 0.2685131 -0.22063005 -0.2967487 0.24657848 -0.59921855
00000000: 8339 29bd bc60 36bf e4ce cebd 7944 933e
00000010: 8a61 13bf f646 0bbf 9104 90be d852 15be
00000020: a6f8 21bf 8809 b4be 3aae 00bf 4219 4cbd
00000030: afc0 40bf a32f 5dbf 598c 8fbe 2df7 b3bd
00000040: d043 d2be 5565 64bd 9d56 e8be 846a 71be
00000050: e91b c0bd b82b 23bf 82c2 8cbe 4902 bf3d
00000060: 6510 b73e d5e5 5d3e e9c0 4bbc a065 cc3e
00000070: 7f8b 38bd 678d e8ba 028f 14be 7662 3fbd
00000080: 570d fbbe bcdc debe f102 a9be e863 87be
00000090: 2587 0cbf bbac 0cbf 4520 823e ae21 be3d
000000a0: be8e 7f3d 4506 05bf 8771 13bf 57eb e6be
000000b0: 273d 08bf 6896 c9be 01d2 153e 27a0 ddbe
000000c0: 8140 0cbe 958e 893e e757 2dbd c9ce 67bf
000000d0: 7a57 833e f3d7 1cbf b6bd 443e 723b a13e
000000e0: b526 a9be a9de 1bbf aa36 ccbc 0a1b 053f
000000f0: d80d 15bf 6c91 27bf 93ac c43e 897a 16be
00000100: f96a 42bf 4e33 643d 9751 ccbe 5fad 583e
00000110: 57fc 993e 4501 42be b69c 933d 5d5a e23c
00000120: 90e0 0ebd f03c b23c a03b 00be 3109 8c3e
00000130: 02e7 fabe 4972 f2be 934f 10be 441c 2ebf
00000140: 97b5 513d de01 21bf 86e9 d4be d057 943e
00000150: 64f5 b4bc e48a 34bf c37d 853e 8296 0dbf
00000160: 88f3 16bf 26b1 02bf daa0 4bbf 1d74 29bf
00000170: 5fb4 a0be 6309 f03e e3e2 b53e 3e5b 62bf
00000180: a9ca 9cbc c280 863e 1f8d 9ebe 389c 29bd
00000190: 83ca 873e 3b3a 453e 590d 39bf fca2 be3d
000001a0: c1f9 77be 65cb 8d3d 99b3 0bbe 8735 c2bd
000001b0: ca41 303e e1ec d73e dc66 e3be 8080 ffbd
000001c0: cde9 293c a8c4 febe 1f21 a6be 99c1 4dbe
000001d0: 83dd 0abe e0af 873e c8f5 bbbe cd4c 823d
000001e0: e57a a2be 2b3f b6be 3631 80be 8a7e a33e
000001f0: 596d 15bf 4683 66bc 057c 4dbe 5edf 7dbe
00000200: bb58 a33e 15cf 833e e1de 8c3d 9949 f93d
00000210: 9a8c 693e 18c4 923e 0e70 67bd 04d3 4fbe
00000220: aadf 823d cc21 e0be 0ebf 51bf 4d2d 5b3d
00000230: 3adf 80bd 4e53 12be d1c7 6a3e 1378 7abe
00000240: e3f4 dfbd f8d9 1abf c4e1 61bd 2b29 74bf
00000250: ce9d 823e f7d2 af3e fe2e a2bf 62a4 a7be
00000260: 5cf3 a43e 032d ea3c 72c6 d63e 28c4 763e
00000270: d1b6 8c3e 8f3e 15bf 732d 2fbf 6b43 9fbe
00000280: 175f 09bf 6099 21be ac00 2f3e e91e 86bf
00000290: d009 37bd 3039 73bd 745a fdbe fc7f 38bf
000002a0: c863 883e c1c6 7abe e273 0dbe a576 9c3e
000002b0: ab3a 943e f784 30be f2b6 cdbe 3dc3 71bd
000002c0: 04ad 98bb 02a8 a9be 0451 f5be aec1 783e
000002d0: 21aa e1be d9fb b83e 6ee6 0abe 8f4a d4be
000002e0: 0b86 3dbe 6425 adbe 544f 9d3e 14e1 47bf
000002f0: 8070 b9be 201c eebe 81e9 b9bd 7c06 de3d
00000300: 1a46 8cbc ce3b 56be 9853 f2be e6f1 d2be
00000310: df08 7c3d c0e8 0dbf c3b0 14bf 030b c0be
00000320: db7e 88be a3e6 c43e 3cd8 48bf cb34 40bd
00000330: 63e2 d6be 70bc 21bf a51c c6be 8840 3abb
00000340: 90f7 3bbc cb95 87be 5560 56bf c8ca fcbe
00000350: a16e b13d 7bec 2a3e 85d1 68bf 838a 333e
00000360: c3d5 8bbe 1af7 ccbe e727 a0be 2129 18bf
00000370: b870 413e 06c0 84bc fc2f 913e 7417 11bf
00000380: 2356 e4be 17ec 59be 581c b0bd 1d8f aabe
00000390: d9f4 693e 532b a33e 2ea6 7d3e f1b8 c1bc
000003a0: 0d92 873d 8d25 d1bd 9e7b 113e a533 e1be
000003b0: d05b 803e 7509 50be 0e6e 39bf 8f27 9dbe
000003c0: 241b 3bbe 74c6 813d 0f94 a0bd 8c92 ba3c
000003d0: 5bd0 23bf d027 753e eec9 503e 603d c83e
000003e0: 59ad 0abf 22df 293e c00f 2fbd 8d7a 893e
000003f0: d8ec 61be 72ef 97be 127f 7c3e 6366 19bf

dense2.dense.bias f4 [15]
0.56118274 0.7292909 0.559208 2.8135784 0.61758953 0.55042285 5.2772226 0.6129932
0.7445874 0.6806079 0.704187 0.77162826 0.6873704 0.0028428854 -14.640648
00000000: aca9 0f3f cfb2 3a3f 4128 0f3f ab11 3440
00000010: 591a 1e3f 83e8 0c3f 02df a840 1fed 1c3f
00000020: 489d 3e3f 523c 2e3f 9945 343f 6e89 453f
00000030: 82f7 2f3f b44f 3a3b 1840 6ac1

dense2.batch_norm1.weight f4 [15]
6.535828 7.0665927 5.739947 8.726536 6.0069075 5.966183 9.511732 6.026642
6.886963 6.381181 6.5435805 7.1557155 6.5860286 0.33944124 17.714283
00000000: 8125 d140 8721 e240 a5ad b740 e49f 0b41
00000010: 9638 c040 f9ea be40 0e30 1841 40da c040
00000020: 0062 dc40 a232 cc40 0365 d140 9ffb e440
00000030: bfc0 d240 3ecb ad3e dab6 8d41

dense2.batch_norm1.bias f4 [15]
-4.2698574 -4.5157394 -4.179592 -4.084436 -4.010257 -3.9070985 -3.8511147 -4.2084417
-4.2043405 -3.9910421 -4.164734 -4.4321504 -4.3869133 -0.7401574 5.3486485
00000000: aca2 88c0 f080 90c0 38bf 85c0 b3b3 82c0
00000010: 0654 80c0 e70d 7ac0 aa78 76c0 8eab 86c0
00000020: f589 86c0 3c6d 7fc0 8045 85c0 2dd4 8dc0
00000030: 9861 8cc0 f57a 3dbf 2128 ab40

dense2.batch_norm1.running_mean f4 [15]
0.19130035 0.371501 0.13839263 2.4485192 0.21313575 0.15039337 4.995234 0.20908028
0.40966916 0.3428466 0.33445922 0.39478835 0.31882435 -0.21703555 -14.960148
00000000: 3de4 433e 6135 be3e ccb6 0d3e 8ab4 1c40
00000010: 4240 5a3e b800 1a3e f5d8 9f40 2419 563e
00000020: 28c0 d13e 9789 af3e 3d3e ab3e b321 ca3e
00000030: f23c a33e 913e 5ebe c45c 6fc1

dense2.batch_norm1.running_var f4 [15]
0.61196727 0.568004 0.63764733 1.1013072 0.57952034 0.5491228 0.99622494 0.6130235
0.629602 0.5096574 0.5435106 0.579432 0.51515657 0.27582186 1.4995239
00000000: e3a9 1c3f b668 113f db3c 233f a2f7 8c3f
00000010: 725b 143f 5093 0c3f 9908 7f3f 1cef 1c3f
00000020: 992d 213f e878 023f 8323 0b3f a855 143f
00000030: 4de1 033f 8638 8d3e 66f0 bf3f
