classification/model_rnafm/13_final/300Epoch/rna_type_checkpoint_fold_3.pt (torch, 252002 bytes, 24 tensors)

layer1.conv1.weight f4 [30, 30, 5]
00000000: 63b6 ccbf ec5a d5bf 812a e03f 49d1 713f
00000010: 7ad6 743f 9de3 b2be f23c 90be 7ee8 9bbe
00000020: b21f ddbe 3e23 133f 9ef8 483f f944 073f
00000030: 1dcc 9bbe e48b b93d cf1d e63e 0907 863f
00000040: 143e e03e 5293 7cbd 8ee4 313f 7ba4 89be
00000050: dec5 06be 442f b33c e4e7 b8bc 1d0e 34bd
00000060: 9b9e 3cbf b352 c0bd 7180 9abe d8d9 dabd
00000070: 768b 3f3d 7c89 aabe 1e63 f3be 3f19 7e3e
00000080: 62f6 d53e 086d cf3d 5e1f ca3e acfc 9f3e
00000090: db92 babd 0f68 edbe 2b26 ba3e 64d2 f23e
000000a0: 9cee 623f 0e48 3dbf fde8 dbbe da80 3e3e
000000b0: 8d29 8fbe 40fc 673f 0618 2abf 77f0 15bf
000000c0: 2c26 58bd 03ad 9bbe bfc4 73be f00c 963e
000000d0: 4d4a 44be 7669 fdbe 8369 dbbd f533 a2be
000000e0: f41a c83e 06c1 91be fa6b 8fbe 313e 92be
000000f0: 2c8f d3be cf34 e73e 43f6 82be 0ce5 3d3e
00000100: 68b6 833d 201f 62be 78f6 9f3d 09a1 42bd
00000110: 7d1d 93be f7a7 b8be a5a8 8dbe d7e2 973d
00000120: d262 a23e a30c 35be 7358 47be 65bc 273d
00000130: 6149 803e 2f22 28be 61bb 43be 3e21 2cbd
00000140: 735e 5ebe 76ba a43d 69ec 8dbe 99a5 553e
00000150: 20c3 9bbd a452 2ebe 498f e6bd 9c9a 81bd
00000160: bbae d73d 62c8 b43d 5310 17be cca1 29bb
00000170: d1e0 b33e c513 223e 4220 d13c 709b 293e
00000180: 13d6 4bbe 0ff9 0a3e 5bc1 563e 5070 fc3d
00000190: f039 623d 748e d8be 5390 603e 26b7 9c3b
000001a0: f574 093e 9174 97be 6b03 88be 1472 db3d
000001b0: 1890 cebd a635 b53d da3d fdbd c934 8f3e
000001c0: 470e d13e bb16 d63b aafb 013e bee3 013e
000001d0: 65f3 6c3e 6b88 d9bd 7230 1dbe 88a1 eabd
000001e0: 12e6 c13c 9353 7cbe ebe9 8ab9 8436 c6bb
000001f0: 1f4c 29be 649f 9ebd d905 493e f3f4 123e
00000200: 13af 3dbe 17ed d53d 7718 4fbe 9479 253d
00000210: 5a6f ea3d 5e5c b7be 08a8 863e eec2 9a3e
00000220: 0fee cabd e705 953e d9f2 acbe 3256 c83d
00000230: 981e d83e e73d 903c db87 783e ae8d 83bc
00000240: 1244 93bd e584 0d3f 4938 9c3e 0633 6f3e
00000250: 9c3a 9d3e c8f7 013e 4e0f 003e 0602 55bf
00000260: 6dae e23e 0e7c a63d 27d8 543d 0c51 a43f
00000270: e5bc 5bbe 87ff 723f b260 37bf 4bef 93bf
00000280: 0ad0 ae3c 3a46 c0bf 9289 163f 22f9 4ebe
00000290: b22a 57be c13d 27be 5205 893e c8b4 94be
000002a0: 75b1 733f 47cb 96be 293e 82bf f7cf 183f
000002b0: f85c ecbe 3bdd 7c3e 7b3c dbbe 9446 17be
000002c0: 851e 833f 0180 5abf 683c a33e 16fa c53b
000002d0: d114 82be d98b fabe 147b c1be 3829 813e
000002e0: 5077 6cbe 7e00 883e 1393 39bf 9138 b13d
000002f0: 2616 823e cd90 cabe b511 e7bc 9c7f e5bd
00000300: a641 143f f240 1f3f 8540 08bf 6128 94be
00000310: b304 0ebd 26f5 ee3d 0dbe 043a d743 afbc
00000320: 6fb3 a2be 1411 6b3e fbc9 e1be 656c d6be
00000330: 1f84 d6be c68b d23c 0d3c 19bf ee74 febe
00000340: 58c9 27be 68c2 64be 3543 8e3e dc9e 6d3d
00000350: 78e9 3ebe 908e 45be af4e 5a3d 67f5 463e
00000360: 294f bf3e 36c8 873b 21ee 963e fa2b 27bd
00000370: 03c6 b03d 965b 0f3e 1258 fe3d 04c4 e7be
00000380: 0e16 3bbd 860b f0bd 6ab1 90bd efd3 2dbf
00000390: 6b78 aebe 71c8 023f dec9 d3bc 3e19 6cbe
000003a0: c41b adbe 5b0a 6abd bd4b dd3e 8d27 a5bd
000003b0: 5ebb c63e 4c70 b5bc b017 40be 9a61 7c3e
000003c0: 94b6 093e 7ad2 bc3d 4126 bd3e e2d2 7fbe
000003d0: cf90 073d 5675 b03a 5e6c 06bd 786e 0a3f
000003e0: 8e75 e2be 96da e13e 6d19 a9be 3b75 653d
000003f0: 04fd cb3e 4949 90be aff8 063d cda8 863e
-1.599316 -1.6668372 1.7512971 0.9445997 0.95639765 -0.3493928 -0.28171498 -0.30450815
-0.43188244 0.5747565 0.7850436 0.5283962 -0.30429164 0.09059885 0.44944617 1.0470897
0.43797362 -0.061663933 0.6948937 -0.268833 -0.13161418 0.021873124 -0.022571512 -0.043958772
-0.7367951 -0.093907736 -0.30176118 -0.10686082 0.04676386 -0.33308017 -0.47536558 0.24814318
0.41789538 0.10128218 0.39477056 0.3124746 -0.09110042 -0.46368453 0.36357245 0.4742614
0.8864534 -0.7393807 -0.42951193 0.1860384 -0.27961388 0.9061928 -0.66442907 -0.58570045
-0.05277078 -0.30405435 -0.23805521 0.29306746 -0.19168968 -0.49494523 -0.10713484 -0.31680265
0.39083064 -0.28467578 -0.28012067 -0.28563073 -0.4132017 0.45157477 -0.25578508 0.18544406
0.064312756 -0.22082186 0.07810682 -0.047516856 -0.28733435 -0.36065647 -0.27667728 0.07416313
0.3171602 -0.17680602 -0.19467334 0.04095115 0.25055984 -0.1641929 -0.19114448 -0.04202389
-0.21715717 0.08043377 -0.2771943 0.20863952 -0.076055765 -0.17023712 -0.11257798 -0.063283175
0.10531374 0.088272825 -0.14752321 -0.0025883792 0.3513246 0.15827854 0.025528077 0.16563201
-0.19905882 0.13571571 0.20972197 0.123261094 0.055231035 -0.42296183 0.21930055 0.004782575
0.13423522 -0.2958112 -0.26565108 0.10715118 -0.100860775 0.08848123 -0.12365313 0.2796996
0.40831205 0.0065334714 0.12693658 0.12684533 0.23139723 -0.10621723 -0.15350512 -0.11456591
0.023669276 -0.24641256 -0.00026495694 -0.0060489792 -0.16532944 -0.07745245 0.19631137 0.14351253
-0.18523817 0.10445612 -0.20224176 0.04039915 0.1144702 -0.35812658 0.26300073 0.30226845
-0.09908687 0.29106066 -0.33779028 0.097820655 0.4221084 0.017607642 0.24270575 -0.01605877
-0.07190718 0.55280906 0.30511692 0.23359308 0.30708778 0.12692177 0.12505838 -0.8320621
0.442737 0.0812913 0.05196395 1.2837234 -0.21458776 0.94921154 -0.7163192 -1.1557401
0.021339435 -1.5021431 0.58803666 -0.20212224 -0.2101238 -0.16332151 0.26761872 -0.29044175
0.9519265 -0.29451963 -1.017522 0.5969233 -0.4616468 0.24693768 -0.4281958 -0.14773017
1.0243689 -0.8535157 0.31882024 0.0060417755 -0.25406507 -0.4893482 -0.37789214 0.2522676
-0.23092389 0.26562876 -0.7249004 0.08653367 0.25407523 -0.395636 -0.028206686 -0.1120598
0.5791267 0.62208474 -0.5322345 -0.28937057 -0.03467245 0.11667852 0.000506372 -0.021394653
-0.31777522 0.22955734 -0.4409941 -0.41879573 -0.41897675 0.025701415 -0.59857255 -0.49698585
-0.163854 -0.22339785 0.2778565 0.05801283 -0.18643749 -0.19292665 0.053297695 0.19429551
0.37365082 0.00414374 0.29478553 -0.040813424 0.08631518 0.13999781 0.12419142 -0.45266736
-0.04567533 -0.11720948 -0.07065089 -0.6790151 -0.34076247 0.510871 -0.025853094 -0.23056504
-0.33810246 -0.057138782 0.43221846 -0.08064184 0.38814825 -0.022148274 -0.18759036 0.24646607
0.13448554 0.09219833 0.36943248 -0.24982789 0.033097085 0.0013462703 -0.03281819 0.5407481
-0.44230312 0.4411208 -0.3302721 0.056020003 0.39841473 -0.28180912 0.032952007 0.2630066

layer1.conv1.bias f4 [30]
00000000: 1036 9a3d 07b0 a2bd c71e e53c 79db 25bd
00000010: ba51 5a3d 340f 90bd 138d 93bd 2370 d3bd
00000020: 6c50 27bc a398 243c e46b 993d 2680 38bd
00000030: f5e7 06bd 11e9 273d 9b86 833d a10c 00be
00000040: 275b c03c 0f25 bdbc 36ae 973d 93ae 29be
00000050: 32dc 113c 554b 063c 0f3d 893b 6f28 473d
00000060: 71f3 71bd 705f 98bd 7d2e 043e c670 63bd
00000070: bb3f 06bb ceb0 12bd
0.07529843 -0.07943731 0.027968777 -0.04049251 0.053300597 -0.0703415 -0.07204642 -0.10324123
-0.010212045 0.010046157 0.07491282 -0.045044087 -0.032936055 0.040993754 0.06422158 -0.12504818
0.023480965 -0.02308896 0.07406275 -0.16570501 0.008902596 0.0081966715 0.004188187 0.048622545
-0.059070054 -0.07440078 0.12908359 -0.05552747 -0.0020484764 -0.035813145

layer1.bn1.weight f4 [30]
00000000: d5d5 8d3f ef61 403f 7e45 503f 4f81 293f
00000010: 902a 253f c6b8 393f f0fe 703f a060 673f
00000020: 0c26 263f b009 493f d34d 263f 5352 1f3f
00000030: 70e7 323f a444 2b3f 2c88 713f 2526 503f
00000040: cdc3 7c3f 5617 083f 5e91 8a3e af6c 733f
00000050: eb85 573f 10bb 423f 6ea2 893f 25d4 0b3f
00000060: c11f 9e3f e304 833f 1652 8e3f 2595 5b3f
00000070: 1578 893f 656d 3d3f
1.1080881 0.75149435 0.81356037 0.66212934 0.6451807 0.72547567 0.94139004 0.90381813
0.64901805 0.78530407 0.649625 0.6223499 0.69884396 0.6690161 0.94348407 0.81308204
0.9873627 0.5316061 0.2706403 0.95087713 0.8418872 0.76066685 1.0752695 0.5462058
1.235344 1.0235866 1.1118801 0.8577445 1.0739771 0.7399505

layer1.bn1.bias f4 [30]
00000000: b3bf 873e fe17 43bd 2efb 7e3d cee2 e5bd
00000010: 2889 403d e75c c63d 9175 613e de2d 00bc
00000020: 40d3 e9bd 62de d73d 9fbc cd3d 5777 733e
00000030: 5db5 2dbd 3302 86be a597 583e ecae 8c3d
00000040: d566 0b3e b8d9 f23d e238 c93d 5efd e73c
00000050: 02cf 57bd 8621 1f3e b3fb bc3d 060a 233e
00000060: 6318 eebd 6dc8 4b3e b6f6 d03d 892d 143c
00000070: 9a65 183e 1809 ca39
0.26513442 -0.047630303 0.062251262 -0.112249 0.047005802 0.096856885 0.22017504 -0.007823436
-0.11417246 0.10540463 0.10045742 0.23775993 -0.04240929 -0.26173553 0.21151598 0.06869301
0.13613446 0.11857933 0.09825303 0.028319057 -0.052687652 0.15540132 0.09227695 0.15921792
-0.11625745 0.19900675 0.102033064 0.00904406 0.14882508 0.00038535218

layer1.bn1.running_mean f4 [30]
00000000: f0f7 a53d e82c b0bd 4b61 e23c 6819 24bd
00000010: c56c 5a3d 5b68 bcbd e6e7 a1bd c84b efbd
00000020: 7c5e a8bc d4f2 f43b 2523 803d 1633 71bd
00000030: 13a8 66bd 5d6e 1c3d d912 6c3d 6da9 18be
00000040: 7375 153a d9ea 04bd 3c04 903d 9335 3abe
00000050: 63ac 27bb 6685 b2ba 4c0d 783c 3c2c 183d
00000060: 877e 3bbd 6460 b9bd 5e64 f23d 0aca 4fbd
00000070: 7666 d7bb 1f9b 3abd
0.08103931 -0.08602315 0.027634284 -0.04006329 0.053326387 -0.09199592 -0.07905559 -0.11684376
-0.020552866 0.0074752364 0.06256703 -0.05888661 -0.05631263 0.038191188 0.057635162 -0.14908381
0.00057014 -0.03245053 0.07032058 -0.181845 -0.0025584928 -0.0013620078 0.015139889 0.03715156
-0.045774963 -0.09051588 0.1183555 -0.05072979 -0.0065734936 -0.04555809

layer1.bn1.running_var f4 [30]
00000000: 5ae1 9b3f 5cee 7240 fbce 1141 edb3 1b40
00000010: 225e 9040 4045 a440 c4ac 1b40 aeec 0541
00000020: d1b0 8440 2752 a240 e39b fb40 35ca 1440
00000030: 3f0a a340 f754 f83f a477 a940 3a97 f440
00000040: 7f9f 7640 87e5 bb40 ac01 683f 01fd 0040
00000050: 5696 9040 b3fd b940 bffe b840 a502 2740
00000060: c4bf 2641 b8e4 4940 4b24 8040 0840 1741
00000070: 4882 0941 aa50 9f40
1.2178147 3.7957983 9.113032 2.4328568 4.511491 5.1334534 2.4324198 8.370283
4.146584 5.0725284 7.862779 2.3248417 5.0950007 1.9400929 5.2958546 7.6434603
3.8534849 5.8717685 0.9062755 2.0154421 4.5183516 5.812219 5.781097 2.6095364
10.421818 3.154585 4.0044303 9.453133 8.594307 4.9785967

conv1.weight f4 [30, 30, 5]
00000000: adc1 493f 177c 683e 9e48 16bf 1aa0 41be
00000010: a9c9 ad3e 9cd5 b0bd a3d9 c6be c182 e6be
00000020: 4212 10bf a5dd 6ebc d5e9 343f 3313 00be
00000030: 33aa 0c3f d1c8 a93e 6dc0 3fbe 79e8 bb3e
00000040: 12b2 223d 2152 3cbe aabf e83b 6f16 2bbf
00000050: 9562 65bf 2069 6dbd 6ade e23d 711f 103e
00000060: 78f3 463e 4bce 94be 7dc9 983e b2fe 293f
00000070: 6fe4 3a3f 6592 af3b cb86 b03e 7862 013f
00000080: 7796 11be 22a4 e9be 078c 16bf 2164 55bd
00000090: 47f2 dabd 8ebe 68bf 7bc5 9cbe 274e b33e
000000a0: fb3e e6be 9276 afbd bf6d f03d 9a5a 86be
000000b0: 58b2 a83e e312 01bf f825 81be 31bd 4f3e
000000c0: 0800 dfbe 5ee4 a9be c811 643c 80a2 8cbe
000000d0: ff4e e83d e322 b13d e14b 883e 3e8a edbe
000000e0: f3cf 21be 1b07 a83d 56fb 86be b0f8 b3be
000000f0: 38af 67be b635 4fbd 4808 223d d8b0 3b3f
00000100: 4609 3d3e 838b 1f3f 1bec 2abe 089a 05be
00000110: a5f9 bc3c 0556 543e 677f 7f3d 02db c23e
00000120: 0b2f c53e 5d54 2dbd c054 23bf 4839 a13d
00000130: 1f5a 663e d52b 2d3f dd2f 3d3d 9759 1b3e
00000140: c699 e33e 190d 10bf ec67 3f3e 6892 243f
00000150: a611 9b3e ac8e f2be 0546 b0bc 0b24 a3bd
00000160: a02c 9bbe 7916 8dbe 6bf8 dabd f67f 513e
00000170: 281d 4f3e 67d4 2f3e 82db 73be 3e5f 433d
00000180: c7c0 a0be dcca a9be 8fa1 303f d9a1 d13e
00000190: 7d6b 08be f845 99be c2e5 8abe 3a90 14bf
000001a0: 3f20 aabe 0cec b53e 2cbb a93e 1164 94be
000001b0: 6176 9fbe 327e 7c3e e21e dabe 23ad 46bf
000001c0: cf66 47be 5f5d 0f3e ad76 11bd 9c58 9d3d
000001d0: d3ad 3bbd 8a56 6c3e 2c7e df3e 9e2e 05be
000001e0: 3cc8 0c3e 11cc 90be 4c98 01bf 1aff 023f
000001f0: b322 f8be 3d53 7c3d 73dc 473f d665 da3c
00000200: fd91 573e fea8 b83e 4aec f6be 6501 ccbe
00000210: 7621 debe 1f9f 0e3d 365b 033f 387f 0b3d
00000220: 98f8 ad39 b2da 07bf 0e1f 93be 3090 3abf
00000230: 7db1 f13d 5795 b839 47c2 babe 594f 61bf
00000240: d57e febd 46b6 a03d 0627 293f 90d6 273e
00000250: 407d 1bbe 3a25 8abd e229 463f 05b8 3e3e
00000260: d0d1 1dbf f538 16be ebc8 a53e b3ce 0fbe
00000270: 1c69 c7be 83b7 b4be 34c7 16bf 9ead 5cbd
00000280: f559 313f 1e3c abbd 725e 0b3f 704a c23e
00000290: e237 5cbe f769 e63e 744f 4b3a f746 42be
000002a0: 312b 2c3d 4963 24bf 9348 67bf 9a08 e23c
000002b0: 0cca dd3d 7624 093e cab9 6d3e 2e37 a6be
000002c0: 7597 9e3e cc5b 2c3f 89f5 303f d5e7 9c3c
000002d0: 5d83 b33e 1f8d 013f 66a4 4abe c32f bdbe
000002e0: 2b85 0fbf 4b54 c2bb 521c 5bbe 2c96 6bbf
000002f0: e9ba b0be e705 c23e 04bd d6be 50e5 dfbd
00000300: e5dd d03d a96c 8abe d2ee b33e 92f2 d6be
00000310: dcd1 72be a702 4a3e 147d e0be a002 9bbe
00000320: 03af 95bd 2c83 19be 410f d23d 7f8d 583d
00000330: 66dd 313e bedd e7be 2447 dabd 9697 f63d
00000340: cb70 90be e0db c3be 1918 9fbe d805 c2bd
00000350: 6d9f 7e3c 91da 2e3f 989c 383e ccd3 143f
00000360: 0376 45be 225a 48be 5081 923b 2f7c 5b3e
00000370: de14 df3d b85d 053f 025f be3e a145 31bd
00000380: 2192 28bf 4f6a 943d 5b01 363e 1cfa 2a3f
00000390: beb3 243d 2d11 323e 88b7 cd3e 5605 10bf
000003a0: e5d8 473e 9edb 0e3f 8266 ae3e 4097 04bf
000003b0: 17d5 8dbd 8823 41bd c134 8bbe c46d 97be
000003c0: 9587 45bd 4629 753e 1d38 2e3e ff10 6a3e
000003d0: 8407 97be 43ef 8f3d 1020 97be acc9 bdbe
000003e0: b879 2b3f 08d2 d73e 8098 bebd 1c7b a5be
000003f0: 9d01 87be a97b 1cbf 87a2 a8be 6611 b73e
0.7881115 0.22703587 -0.58704555 -0.1890873 0.33942917 -0.08634493 -0.3883792 -0.45021632
-0.5627786 -0.014579211 0.706693 -0.12507324 0.54947203 0.33161023 -0.18725748 0.367008
0.039720602 -0.18390705 0.0071029263 -0.66831106 -0.8960355 -0.057961583 0.11077578 0.14074494
0.19428813 -0.2906364 0.29841223 0.6640426 0.7300481 0.0053580278 0.3447784 0.50540876
-0.14217554 -0.45633036 -0.58807415 -0.052097443 -0.10690742 -0.90915763 -0.30619416 0.35020563
-0.44969925 -0.08567537 0.117396824 -0.26240999 0.32948565 -0.50419444 -0.2522428 0.20287015
-0.4355471 -0.33182043 0.013920255 -0.27467728 0.11343192 0.08649232 0.2662039 -0.46394533
-0.15801983 0.0820448 -0.2636363 -0.3515067 -0.22625434 -0.050588332 0.03955868 0.7331672
0.18460569 0.62322253 -0.1669163 -0.1304704 0.023068259 0.20735939 0.06237736 0.38057715
0.38512453 -0.042316783 -0.63801193 0.07872254 0.22495316 0.6764501 0.046188224 0.15170895
0.44453257 -0.56269985 0.18691987 0.642859 0.30286902 -0.47374475 -0.021517763 -0.07965859
-0.30307484 -0.27556208 -0.10691913 0.2045897 0.20225966 0.17170869 -0.23814204 0.047698252
-0.31397077 -0.33162582 0.6899652 0.40943792 -0.13322254 -0.29936194 -0.27128416 -0.5803257
-0.33227727 0.35531652 0.33150613 -0.28982595 -0.31145003 0.24657515 -0.42601687 -0.77607936
-0.19472812 0.14000462 -0.03551357 0.076829165 -0.04582007 0.23079887 0.4365095 -0.13006064
0.13748258 -0.2828069 -0.5062301 0.51170504 -0.48463973 0.06160282 0.78070754 0.026659887
0.21051784 0.3606643 -0.4822715 -0.39844814 -0.43384904 0.03481972 0.5131105 0.034056872
0.00033182348 -0.5306808 -0.2873463 -0.7287626 0.11801431 0.00035206482 -0.36476347 -0.880117
-0.12426535 0.07847266 0.6607517 0.16390443 -0.15184498 -0.06745382 0.7740766 0.18624885
-0.61648273 -0.14670165 0.3237985 -0.14043693 -0.3894738 -0.35296258 -0.5889771 -0.05387651
0.6927789 -0.08361076 0.5444099 0.37947416 -0.21505693 0.4500272 0.0007755675 -0.18972383
0.042033378 -0.64214 -0.90345114 0.027591992 0.10829553 0.13392815 0.23215404 -0.32463974
0.30974928 0.6732757 0.69124657 0.019153515 0.3506116 0.5060596 -0.19789276 -0.36950502
-0.56062573 -0.0059304587 -0.21397522 -0.9202602 -0.345176 0.37895128 -0.41941082 -0.1093241
0.10198573 -0.27036026 0.35143143 -0.4198194 -0.23712867 0.19727574 -0.43845427 -0.3027544
-0.073087715 -0.14991444 0.10256816 0.052869316 0.17369613 -0.45286363 -0.106581 0.120406315
-0.28211054 -0.3825369 -0.31073073 -0.09473771 0.01554094 0.68302256 0.18028486 0.58135676
-0.19283299 -0.19565633 0.0044709817 0.21434091 0.10892652 0.5209613 0.3718186 -0.043279294
-0.65847975 0.07246839 0.17773955 0.66787887 0.040210478 0.17389365 0.40179086 -0.5625814
0.19516332 0.5580386 0.34062582 -0.5179329 -0.06925409 -0.047153026 -0.27188686 -0.29575932
-0.048225004 0.23941526 0.17013593 0.22858046 -0.2949792 0.070280574 -0.2951665 -0.37067926
0.66982603 0.4215243 -0.09306431 -0.32320487 -0.26368418 -0.6112619 -0.329365 0.3575546

conv1.bias f4 [30]
00000000: c249 713e 1dc4 97bd 425d 7bbd c8f8 d53b
00000010: 98f1 2f3c bed2 443c ced5 c13b 7259 62bd
00000020: 9473 13bd 5afb 433c 9da1 833d dd53 b13d
00000030: 69d7 2b3c 3fba 55bd 1918 143d 1e75 3cbd
00000040: cbac 883d 64aa ba3d 7326 123d eddb 6dbc
00000050: 569f 0dbd 0467 64bd 3204 f0ba a5d1 9b3c
00000060: 9317 56bd 6a17 813d 21f6 66bd 1186 b03d
00000070: 616f 833d 950c 1cbb
0.23563293 -0.074104525 -0.061368234 0.006529901 0.010738753 0.0120131355 0.00591538 -0.055261083
-0.035998896 0.011961782 0.0642731 0.08658574 0.0104883695 -0.05217957 0.036155794 -0.04601013
0.06673583 0.09114531 0.0356812 -0.014517766 -0.034575783 -0.055762306 -0.0018311797 0.019020865
-0.052268576 0.06303294 -0.05638707 0.08619321 0.06417728 -0.002381121

bn1.weight f4 [30]
00000000: 908a b43f 9652 b93f 73b3 b43f 2b32 b63f
00000010: 079b b33f 7ee2 a53f 199b a63f 70d2 993f
00000020: 856c 913f fcc3 823f 6780 7b3f 0f26 703f
00000030: a212 683f b8fc 5d3f be2a 5e3f 2e60 f93f
00000040: 6e61 543f 53cc 4e3f 5cf2 3b3f 3980 493f
00000050: 1f9e 493f dc42 423f 2977 2c3f 2bec 343f
00000060: ab05 2b3f 9694 273f 9f48 e93e b345 e53e
00000070: aaf1 eb3e 0681 de3e
1.4104786 1.4478328 1.4117264 1.423406 1.4031686 1.2959745 1.3016082 1.2017345
1.1361243 1.021606 0.982428 0.9380807 0.9065343 0.86713743 0.8678397 1.9482477
0.82961166 0.80780524 0.73416686 0.7871128 0.787569 0.7588327 0.67369324 0.70672864
0.66805524 0.654611 0.45563218 0.4477974 0.46082813 0.43457812

bn1.bias f4 [30]
00000000: 8220 11bd b510 28bd 1d37 c5bc c98a 18bd
00000010: a379 febc f850 743b 430a 8c3c fbd0 013d
00000020: 8353 383d dd7f 673d 43ec 253d 6df5 233d
00000030: 6cc6 4a3d fdb9 643d af74 903d af9d 193e
00000040: 1a5c a43d 2cd1 b43d 3d7e f93d 3d9d 013e
00000050: d5e9 063e e805 243e 3e5b 2c3e 54ec 303e
00000060: 8a45 3b3e 7ec8 323e a4fd 6b3e ed2a 643e
00000070: f51f 703e b973 6e3e
-0.035431392 -0.041031558 -0.024074132 -0.03724173 -0.03106386 0.0037279706 0.017094737 0.03169344
0.045001518 0.056518424 0.04050852 0.04002898 0.049505636 0.055841435 0.07053506 0.15001558
0.080253795 0.08828959 0.12182281 0.12657638 0.13175137 0.16017878 0.16831681 0.17277652
0.18288246 0.17459294 0.23045975 0.22282 0.2344969 0.23286332

bn1.running_mean f4 [30]
00000000: 4793 88bf e329 b1bf 4d2c 99bf 184c 9abf
00000010: f81a 8ebf c425 88bf 808b 93bf c988 9cbf
00000020: e1c3 98bf 5132 93bf c19b b5bf 5552 acbf
00000030: fe8e b4bf 3c5e bebf b9fe ddbf 0998 dbbe
00000040: fd1e c6bf 0b12 a5bf 8e1c 97bf b49f b2bf
00000050: ac88 e4bf 6a43 0bc0 d7a5 e7bf bf05 dbbf
00000060: 588f eebf d735 b0bf 7220 a9bf 1b4e 97bf
00000070: abd6 86bf 4d8f 9cbf
-1.0669945 -1.3840908 -1.1966645 -1.2054472 -1.110198 -1.0636525 -1.1526947 -1.2229244
-1.1934777 -1.149973 -1.4188157 -1.3462626 -1.4106138 -1.4872508 -1.734336 -0.4288943
-1.5478207 -1.2896131 -1.1805589 -1.3954988 -1.7854209 -2.1759896 -1.8097485 -1.7111129
-1.8637495 -1.3766431 -1.3213027 -1.1820711 -1.0534261 -1.2231232

bn1.running_var f4 [30]
00000000: 1502 9841 19ad 9741 7944 9441 b99f 9641
00000010: 704a 8941 8f01 8141 128a 8341 1d6d 8541
00000020: 07ab 6d41 323c 6741 0ed0 8741 e9ef 8441
00000030: 0bfe 5d41 486c 6041 bb5b 9241 d82f a340
00000040: 66c6 8a41 1f87 8241 a562 5641 b723 8641
00000050: c6af bc41 15a5 ba41 2059 a241 ee65 cc41
00000060: 5ad9 b541 2773 b041 fb9f 3841 c3a1 6241
00000070: d7b8 6741 2291 3f41
19.001017 18.95952 18.533434 18.82799 17.161346 16.125761 16.442417 16.678278
14.854255 14.452196 16.97659 16.617144 13.874522 14.026436 18.29479 5.0995903
17.346874 16.315977 13.399083 16.767439 23.585827 23.330606 20.293518 25.54977
22.731129 22.056227 11.539058 14.164493 14.482627 11.972933

dense1.dense.weight f4 [96, 512]
00000000: e05e 52be fcc5 9bbf d664 1ebd 8949 5d3e
00000010: 4d4f c6bd 127c b03c 2baf ea3b 5885 ff3e
00000020: 18e6 0f3f 595e b6bd 3ac2 f5bc 1c0b ff3d
00000030: 290d 593f dbd9 e4bc 190d 18bf f332 0dbf
00000040: b770 693f e544 1fbe cf4c d53e 02e7 853e
00000050: 1519 0cbf 9258 b43d 5318 debe 7e23 00bf
00000060: 1ab6 b7be 7161 c7be a82b 05bf 3d91 adbd
00000070: 70fe d43c c4e1 0f3e a019 a63e a1e1 233f
00000080: d816 a6be e37f 92be 68c3 c2be cfd6 2a3e
00000090: 8abc f3be 0cd6 6b3e d2e8 503f 0229 3dbf
000000a0: 9694 03bf dbcb 45be 934b 34bf 558c a7bc
000000b0: f538 c23d 69cb a03d e0ab a63d 02d9 26bf
000000c0: 2510 b5bd fa32 bb3e f88d 82be 2525 32bf
000000d0: ff22 00bd 8805 8a3e 9acc 18be b4cd c73d
000000e0: 0adb c53e 4aff 5c3e df6e e43d 14d7 6abe
000000f0: 7ad6 433f b310 b4be e144 39bd d7bd 3abf
00000100: dead a4bf caa3 353f d4bc 3fbe 0158 fbbd
00000110: dfc1 40be b298 37bf 1626 3c3d eeb4 34bf
00000120: 7cfb 28bf 92d9 47bf 0cc7 983e b198 dfbe
00000130: ab22 b93e 18e7 47bf aba9 76bd 245f ec3d
00000140: 4b73 22bf 6195 43be e7fe 893e a67d e8bd
00000150: a888 d03e 5cb6 25be 5cb7 34bf 293c babd
00000160: 9a1d c0be 2396 e1bd 5996 2a3f f4db dfbe
00000170: 9a23 0e3e 0c09 c0be 4d2d cc3d d3d8 9b3d
00000180: 49ed b73e 078d 07bf 90d6 02bf 7fc5 c1be
00000190: 443e ad3e bbc1 25bf 195b ec3e 043c a03e
000001a0: c5fb f33e fe69 9abe e9b5 e6be 2e23 ef3d
000001b0: b6c9 27bc 539b 97be 0539 693d 8f3e 943e
000001c0: bd3c 09bf 0726 2cbb 820d 743e 7da8 afbd
000001d0: 226d 463e 7955 29be 5f3d 733d 0501 d5bd
000001e0: 2438 8ebe 2be7 89be 958a 8d3e 53c0 623e
000001f0: 98cd 07be d6e2 35bd bc97 033e 7e67 96bd
00000200: 1fe8 05be a0ab ac3e ac89 9bbc ca6c 3dbe
00000210: 2531 9bbb fceb 20bc 5e93 173d 63de 9abe
00000220: 6eff 6dbe 8cb8 633e 4aba af3d 8132 7bbe
00000230: 7f23 d53d 9597 6cbe 5009 0fbd 06be c8be
00000240: be95 aabe ad1e 11bf 96d6 81bf 3bdf b9be
00000250: 9bb2 a7be be8a 313e 954b 1abf c01a a8be
00000260: 304f f4bd 113c a0bc 03ac ac3e bc85 773e
00000270: 3427 4cbe 6c5c 243e 133c a3bd ccd1 9bbe
00000280: 2a57 38bf 6050 283f 607d 323d ec11 e4be
00000290: c5eb 68be 7256 d33d 6bd3 f23d c214 123e
000002a0: 0a61 e33e da0b 823c 1b12 043e cc2e 153f
000002b0: 8773 713f ae71 8b3e 6019 383f 7ca7 ae3b
000002c0: 2489 013f a287 5d3f c401 9c3e 4faf 8b3e
000002d0: 925a 14be 8686 80be d34b 283f 2407 bc3d
000002e0: 913a 07bf 9758 bfbd 01d6 b33d 9d73 263e
000002f0: 9aeb 1f3e 546d a6be 9b1d 8e3c a98a ae3b
00000300: 433b 0abf 0f1d cfbd e6c8 463f f5a1 cf3d
00000310: 341d 0dbf af34 39bf 7a6a 46be 879a cfbe
00000320: b54e 29be 4113 3a3e d2f4 103f 5cb0 febd
00000330: bcc8 16bf b6ea c2be d6fa 2c3e b96b 303f
00000340: 0984 20be 378f a0be 4c9a 4c3d 9102 b8bd
00000350: f4eb 00bf f8c5 20be 1619 173e b06c 90be
00000360: 8972 ed3d ebb9 a3be e799 1bbe af22 af3c
00000370: 703f cd3e 09b3 ae3e f55d 34bf 06b0 bd3e
00000380: d2ca d3be 6af0 b93d 49ee e73d d5ca 063f
00000390: 30cd bfbe e82f 30bf f554 163f 662d e23e
000003a0: ff0c 3fbf ef20 a43e fe2a 2cbe fe22 c7bd
000003b0: f82a 11bd ed04 90bd 14b7 323e fd41 d3be
000003c0: c536 353f ff3a d7bd 3fca 1d3d b47d 26bd
000003d0: 4e41 493f 15fd c53d 8496 d4bd 6dfd 7cbf
000003e0: 4bf6 47be ca6f c0be 15a5 11be 17d6 363f
000003f0: 9105 183e 5c7a 9abe 8d7f 103c 596b 2a3f
-0.20544004 -1.2169795 -0.038670383 0.21610083 -0.09683094 0.021543536 0.007161995 0.4990642
0.5621047 -0.08904714 -0.029999841 0.12453291 0.84785706 -0.027935913 -0.59394985 -0.5515587
0.91187614 -0.15553625 0.41660163 0.26152807 -0.5472577 0.08805956 -0.43377933 -0.50054157
-0.3588112 -0.3894153 -0.5201974 -0.08474968 0.026000232 0.14050967 0.32441425 0.6401616
-0.32439303 -0.28613195 -0.38039708 0.16683505 -0.4760478 0.23030871 0.81605256 -0.738907
-0.513986 -0.19316046 -0.7042782 -0.020452658 0.0948352 0.078512974 0.08138251 -0.6517488
-0.0884097 0.3656233 -0.2549894 -0.6958793 -0.031283375 0.26957345 -0.149218 0.09756032
0.38643676 0.2158176 0.111539595 -0.22933608 0.7649914 -0.3516899 -0.045231704 -0.7294592
-1.286556 0.7095305 -0.18724376 -0.12272645 -0.18823956 -0.7171737 0.04593476 -0.70588577
-0.66008735 -0.7806636 0.2983936 -0.43671182 0.36159262 -0.78086996 -0.0602204 0.11541584
-0.63457173 -0.19099952 0.26952288 -0.113520905 0.4072926 -0.16182846 -0.70592284 -0.09093506
-0.37522584 -0.110149644 0.6663566 -0.43722498 0.13880768 -0.37506902 0.09969578 0.07609715
0.35923222 -0.52949566 -0.51108646 -0.3784599 0.33836567 -0.64748734 0.46163252 0.31295788
0.47653022 -0.3015899 -0.4506066 0.11676632 -0.010240963 -0.2961069 0.056939144 0.28953978
-0.53608304 -0.0026267783 0.23833278 -0.085770585 0.19377568 -0.16536511 0.0593847 -0.10400585
-0.27777207 -0.2693418 0.27644792 0.22143678 -0.13262022 -0.04440578 0.12850851 -0.07343958
-0.13076828 0.3372469 -0.018986546 -0.18498531 -0.004736083 -0.009821888 0.037005775 -0.30247793
-0.2324197 0.22238368 0.08580454 -0.24530984 0.10407161 -0.23104699 -0.03492099 -0.39207476
-0.3331737 -0.5668743 -1.0143611 -0.36303124 -0.32753453 0.17338082 -0.6027158 -0.3283291
-0.11929166 -0.019559892 0.33724985 0.2417211 -0.1993683 0.16050881 -0.079704426 -0.304335
-0.72008 0.6574764 0.0435766 -0.44544923 -0.22746189 0.103192225 0.11856731 0.14265731
0.44409972 0.015874792 0.12897532 0.5827453 0.94316906 0.27235168 0.7191372 0.0053300243
0.50599885 0.86535084 0.30470097 0.27282187 -0.14487675 -0.25102633 0.657407 0.091810495
-0.5282374 -0.09343069 0.087810524 0.1625504 0.15617219 -0.32505286 0.017348101 0.005326588
-0.53996676 -0.10112964 0.77650297 0.10138313 -0.55122685 -0.72346014 -0.19376555 -0.40547583
-0.1653393 0.18171407 0.56623566 -0.12435982 -0.58900046 -0.38069695 0.16892561 0.6891437
-0.15675367 -0.31359264 0.049951836 -0.089848645 -0.50360036 -0.15700519 0.14755663 -0.28207922
0.115941115 -0.31977782 -0.15195428 0.021378843 0.4008746 0.34120968 -0.7045587 0.37048358
-0.41365677 0.090790585 0.11324746 0.5265325 -0.37461233 -0.688231 0.58723384 0.4417526
-0.74629205 0.32056376 -0.16813275 -0.09723471 -0.03544137 -0.070321895 0.17452651 -0.41261283
0.70786697 -0.105092995 0.038522955 -0.040647224 0.7861527 0.09667412 -0.10380271 -0.988242
-0.19527547 -0.37585288 -0.1422313 0.71420425 0.14845873 -0.30171478 0.008819473 0.6657005

dense1.dense.bias f4 [96]
00000000: 470d b43e 3017 553e e37a 023e 1e0b 2f3e
00000010: 6a25 e43d e316 5e3e 4fa6 383e 4e6b 273e
00000020: cf8c 8e3e 952c 5b3e 3f22 f03d 120d 163e
00000030: eb9a 373e 054d 673e 6269 2c3e 0de5 0a3e
00000040: aec2 183e 1efd d73e 06d9 8e3e 6744 db3c
00000050: da47 4f3e 8cfa 9e3e 7176 c0bf 4474 a83e
00000060: 2a67 663e e5a2 563e 7189 8d3c 514a 8b3d
00000070: f1b3 813e f861 be3d f1cb 0a3e e88d 9d3e
00000080: d2b3 2d3e 83b6 743e a0cb c23e fb8b 823e
00000090: 71c1 6e3e 32db 34bc a3bd 3e3e 5c4e e43d
000000a0: 434a 393e d368 0d3e 7035 9e3e 3efd 903e
000000b0: 56d8 b6bc 69fd bd3e 14b5 a63e 07a3 4b3e
000000c0: 6e4e 0c3e 4bc6 373e 1015 7d3e dd43 b63d
000000d0: abb2 0b3e b56a 8c3e b16d 573e 909c 713e
000000e0: 7abb c63d 6486 7f3e 7a3e f03d e548 573e
000000f0: 4e91 753e 5097 623e d879 943e 8273 2a3e
00000100: 350b 7a3e 2db6 7f3d 122b fd3d db20 6f3e
00000110: e5e2 b13e 181e 803d 5b99 8c3e 6efc b53e
00000120: 6acd 403e b0d6 bd3e 01df 643e b55a fd3d
00000130: 0ff2 413e 06a2 a73e e37d c13e aa37 933d
00000140: 4c8b d13d f64a 8d3e 6022 1d3e 5455 ac3e
00000150: 8a0c 893d 263b 3f3e 9d0a 233e 3e74 a03d
00000160: 5bb5 9f3e 5eb3 4d3e 0968 ac3e 730d ce3d
00000170: 85c0 2f3e f9b5 4a3e 65c0 853e 6b4e 723e
0.3516638 0.20809627 0.1274219 0.17094085 0.11139949 0.21688418 0.18032192 0.16349527
0.27841803 0.21403725 0.11725282 0.14653423 0.1793019 0.22587974 0.16837075 0.13563938
0.14918014 0.421853 0.2789995 0.026766015 0.20242253 0.31050527 -1.5036145 0.32901204
0.22500291 0.20960577 0.017277451 0.06801284 0.25332597 0.0929603 0.1355436 0.30772328
0.16963127 0.23897748 0.3804598 0.25497422 0.2331598 -0.011038588 0.18627028 0.11147758
0.18094735 0.13809519 0.30900145 0.28318208 -0.022319954 0.371074 0.32560027 0.19886409
0.13701794 0.17946737 0.24715066 0.08899663 0.13642375 0.2742516 0.21037938 0.2359488
0.09703727 0.2495361 0.117306665 0.21023901 0.2398121 0.22128034 0.2899921 0.16645625
0.24418338 0.062429596 0.12361731 0.23352377 0.3474342 0.0625574 0.2746075 0.3554415
0.18828359 0.37077856 0.22350694 0.123708166 0.18939994 0.32740802 0.37791356 0.071883515
0.10231647 0.27596253 0.15345144 0.3365885 0.06691845 0.18674907 0.15922017 0.078346714
0.3119305 0.20087954 0.33673123 0.10061159 0.17163284 0.1979598 0.26123348 0.23662727

dense1.batch_norm1.weight f4 [96]
00000000: 54f6 8b3f 360c 813f 21d7 803f 723d 823f
00000010: 82f7 713f 0936 853f f790 5d3f e5db 4f3f
00000020: 399b 7f3f 9a8c 563f 240d 3d3f d95a 183f
00000030: eb9f 843f 4622 713f b1b0 613f 99a3 683f
00000040: 9409 6d3f 9702 913f ca88 9c3f a184 c63e
00000050: de74 673f e1d5 8d3f 39c2 8e3f 2ced 703f
00000060: 863a 843f 95f9 833f e5da 303f b620 8d3e
00000070: 95b7 833f debf 3e3f 733c 463f ed30 743f
00000080: ffa6 4d3f fc3b 7f3f cf06 773f d313 463f
00000090: 4f16 4e3f f3c3 943e f4f8 4d3f 328e 823f
000000a0: 9250 6b3f 90e5 613f b6b9 953f 5824 743f
000000b0: bef7 903f fd48 6f3f ab38 8a3f f01e 5b3f
000000c0: 1c67 633f 20a7 833f 5ce3 6a3f d869 533f
000000d0: d1f3 6c3f 7ed8 503f ed31 7f3f 6383 783f
000000e0: 8357 5a3f c9e7 873f d01a 7e3f d895 823f
000000f0: 76ca 623f 8fc7 8b3f f0c4 833f 9a94 513f
00000100: a222 773f 72a7 f83e 7db1 2f3f 80a3 623f
00000110: afea 6d3f fc56 563f 9986 693f fe91 8a3f
00000120: 7e5f 523f cbad 5b3f 6fcf 2f3f 3ffd 583f
00000130: e524 7e3f ff10 8a3f 75ec 893f b3d8 313f
00000140: 8b74 523f f007 7d3f 4397 763f 6873 893f
00000150: d8b4 8c3f a04c 753f db86 763f aafd 493f
00000160: 01a5 883f ac7a 723f c82d 873f bddc 6d3f
00000170: 3009 653f f795 553f 7a23 773f c99a 603f
1.0934548 1.0081851 1.0065652 1.0175002 0.9451829 1.0407115 0.86549324 0.8119491
0.99846226 0.8380829 0.73848176 0.5951362 1.0361303 0.9419292 0.88160235 0.9087463
0.9259274 1.1328915 1.2229245 0.38773063 0.904127 1.1080896 1.1153022 0.94111896
1.033036 1.0310541 0.69084007 0.2756402 1.02904 0.74511516 0.7743599 0.95387155
0.8033294 0.99700904 0.96494764 0.77374 0.8050279 0.29055747 0.80458 1.0199645
0.91919816 0.8824091 1.16973 0.95367956 1.1325605 0.93470746 1.0798544 0.8559408
0.8882921 1.0285378 0.9175317 0.8258338 0.92559534 0.8158034 0.99685556 0.9707548
0.8528978 1.061761 0.9925966 1.0201979 0.8859018 1.0920275 1.0294476 0.81867373
0.9653722 0.4856525 0.686302 0.8853073 0.92936224 0.8372648 0.91221005 1.0825803
0.8217696 0.8581206 0.68675894 0.8476142 0.99275047 1.0786437 1.0775286 0.6947128
0.8220908 0.98840237 0.9632456 1.0738344 1.0992689 0.95820045 0.96299523 0.78902686
1.0675355 0.9471843 1.0560846 0.92914945 0.89467144 0.83431953 0.9653851 0.87736183

dense1.batch_norm1.bias f4 [96]
00000000: 3ec7 57bf af18 34bf 644b 40bf 96f2 32bf
00000010: 3906 26bf d100 5bbf 5c13 04bf 1435 0cbf
00000020: 6432 35bf 0f7b 14bf 1620 c0be 89c6 2fbe
00000030: c650 40bf d6e6 33bf d6bb cabe 372f 3ebf
00000040: 5630 f9be 5f39 5bbf fc2e 67bf 2d51 57bd
00000050: fc1b 2cbf c53a 5fbf 9378 3cc0 9d42 23bf
00000060: f56f 1fbf 9105 25bf fc9e 04bf 19d6 1d3d
00000070: 21b3 26bf 2a9d 05bf 745b fbbe 8d01 29bf
00000080: a3af ebbe cee4 2ebf dd5d 2ebf e807 d8be
00000090: 539d f8be 1ffc d9bc aeb9 ecbe 7771 80bf
000000a0: 32bc 29bf ce89 39bf 1302 7bbf f805 19bf
000000b0: 7a18 1ec0 4f70 0fbf c47b 51bf 856d 12bf
000000c0: aa16 30bf 702c 31bf f4ed 08bf d371 82bf
000000d0: dcd1 12bf 1322 ecbe 2e96 2fbf 6d27 2fbf
000000e0: f631 18bf 1274 55bf 85ee 42bf 0b53 3cbf
000000f0: c46f 1dbf 707c 3ebf 4ee3 70bf 1c8f 05bf
00000100: e6cf 2dbf a03b 2bbe a055 89be 2b25 fcbe
00000110: 178d 30bf 9676 2cbf 5f1b 28bf f39d 5cbf
00000120: 2193 38bf efb0 15bf 7acb bbbe 5b8d a4be
00000130: c774 43bf ced4 50bf b390 5cbf bad2 22bf
00000140: 924b c8be a9b5 2abf 3630 12bf 163c 4cbf
00000150: a951 82bf 1394 3bbf 5012 69bf 2631 86bf
00000160: 3ecd 50bf 05ae f2be 49ad 53bf 4576 2bbf
00000170: 2879 08bf fcf4 bbbe 0623 2dbf 3aba 0fbf
-0.84288394 -0.70350164 -0.75115037 -0.69901407 -0.64853245 -0.8554812 -0.5159204 -0.5476849
-0.70780015 -0.5800027 -0.3752448 -0.17165579 -0.7512325 -0.702741 -0.39596432 -0.74290794
-0.4866969 -0.85634416 -0.9030607 -0.05256765 -0.672302 -0.8719905 -2.9448593 -0.6377352
-0.6228021 -0.6446162 -0.5180509 0.038534258 -0.6511708 -0.5219294 -0.4909321 -0.6601799
-0.46032438 -0.6831788 -0.68111974 -0.42193532 -0.4855753 -0.026609479 -0.46235412 -1.0034627
-0.6630279 -0.724759 -0.9805004 -0.5977473 -2.470244 -0.56030744 -0.81829476 -0.57198364
-0.6878458 -0.6920843 -0.5348809 -1.0190986 -0.5735147 -0.46119747 -0.6858853 -0.68419534
-0.59451234 -0.83380234 -0.761452 -0.73564214 -0.61498666 -0.74408627 -0.9409684 -0.5217149
-0.6789535 -0.16721964 -0.2682314 -0.49247107 -0.68965286 -0.6736845 -0.65666765 -0.8617851
-0.720995 -0.58473104 -0.36678678 -0.32139096 -0.76350063 -0.81574714 -0.86158293 -0.63602793
-0.39120156 -0.6668344 -0.57104814 -0.79779184 -1.0181171 -0.7327282 -0.9104357 -1.0483749
-0.81563175 -0.4739839 -0.8268629 -0.6697734 -0.5330987 -0.36710346 -0.67631567 -0.56143534

dense1.batch_norm1.running_mean f4 [96]
00000000: 034a 63c0 eee5 57c0 4df6 22c0 942a 46c0
00000010: f467 12c0 2a98 3cc0 3d78 52c0 0ec3 82c0
00000020: 9ea3 90c0 a4ca 23c0 c056 e7bf f9e9 08c0
00000030: dec8 47c0 8844 82c0 c3bf 1bbf 37a5 70c0
00000040: 1289 6cc0 3e69 37c0 2191 36c0 057e 83c0
00000050: 23f1 90c0 ce17 6ec0 5700 90bf 0cb2 41c0
00000060: 0b49 55c0 4435 73c0 ac33 41c0 62ca 83c0
00000070: 4563 22c0 d649 1dc0 6391 19c0 68bb 0dc0
00000080: 7640 51c0 b5a5 53c0 e25f 2bc0 0110 e0bf
00000090: a9e9 31c0 8ba5 61c0 9a69 5ec0 a948 0240
000000a0: 89bb 13c0 ef22 68c0 9931 42c0 31da 43c0
000000b0: 83e9 3040 6cdb 17c0 411e 7bc0 3b20 0ec0
000000c0: 410e 56c0 6b63 dfbf 5176 21c0 d0e1 72c0
000000d0: b336 0bc0 db6b 53c0 5994 1bc0 c853 45c0
000000e0: eb95 04c0 9638 34c0 341b 30c0 5b82 4bc0
000000f0: 70d9 29c0 a36b 50c0 6417 74c0 73b9 3bc0
00000100: 8eaf 73c0 920f 7fc0 df35 3cc0 b10c 1cc0
00000110: 83c5 73c0 1b3e ccbf 25f8 69c0 c4d9 68c0
00000120: ac1e 1dc0 43ba 4bc0 6af2 1ac0 3d3d 18c1
00000130: 2203 41c0 6dfb 27c0 eaf9 2cc0 21e2 43c0
00000140: d734 d6bf ae87 f5bf a32f b2bf d36a 2ec0
00000150: 107a 05c0 1f68 76c0 c93f 87c0 80e5 49c0
00000160: 1172 65c0 8f59 16c0 c92d 27c0 60c1 22c0
00000170: 5542 59c0 6820 44bd f9c4 2fc0 1022 01c0
-3.5513923 -3.3734088 -2.546283 -3.0963488 -2.2875948 -2.9467874 -3.2885888 -4.0863104
-4.519973 -2.5592432 -1.8073349 -2.1392806 -3.121635 -4.0708656 -0.6083948 -3.760084
-3.695866 -2.8657985 -2.852608 -4.1091332 -4.5294356 -3.720203 -1.1250104 -3.026492
-3.3325832 -3.800126 -3.0187788 -4.118455 -2.537309 -2.4576316 -2.3994987 -2.2145634
-3.2695594 -3.306989 -2.6777272 -1.7504884 -2.7798865 -3.525729 -3.4751954 2.0356848
-2.3083212 -3.6271322 -3.0342772 -3.0601923 2.7642524 -2.3727674 -3.9237216 -2.2207172
-3.34462 -1.7452215 -2.5228465 -3.7950325 -2.1752136 -3.303458 -2.4309294 -3.0832386
-2.0716503 -2.8159537 -2.7516603 -3.1798313 -2.6538963 -3.2565696 -3.8139277 -2.933194
-3.80759 -3.9853253 -2.940788 -2.4382746 -3.8089302 -1.5956453 -3.6557705 -3.6382914
-2.454997 -3.1832435 -2.4210458 -9.514951 -3.0158162 -2.6247208 -2.7027535 -3.0606768
-1.6734875 -1.9182031 -1.3920788 -2.72527 -2.085575 -3.850105 -4.2265363 -3.1546326
-3.585087 -2.3492162 -2.6121695 -2.5430527 -3.3946736 -0.047882468 -2.7463973 -2.017704

dense1.batch_norm1.running_var f4 [96]
00000000: 68e9 0641 569e 0a41 7b86 0741 4eba 3941
00000010: 3258 f940 2c89 0541 5e20 3541 b8a6 f240
00000020: 029d 3341 23b5 f140 7075 d640 be7a d740
00000030: c61b 0941 5eaf 0c41 bbf0 f840 ccf9 4341
00000040: a7bb 6041 fe33 1041 f6c9 3641 820a 0f41
00000050: d525 1741 fcd1 2941 0308 e440 b80c 1f41
00000060: 9dfa 0d41 ee98 3241 3e3d f040 fe0f 9c40
00000070: 09b0 ef40 8fad ed40 d67a 0341 04ce 0b41
00000080: e176 2941 5f16 0d41 3e64 1941 56ff 8840
00000090: 4409 f840 1365 7440 52cb 1f41 be5f 5f40
000000a0: 1c60 e640 191d fc40 6a17 1241 62aa d140
000000b0: e423 d640 1280 2541 0100 2741 3481 0141
000000c0: 7b0b e240 ca17 1541 536d 2041 0c27 2040
000000d0: f358 b040 fca0 3f41 d8f5 e440 27f7 0a41
000000e0: da9e e540 2d56 ca40 ac29 2a41 e84e 0141
000000f0: 0ab9 0d41 bc24 1741 98f5 0b41 a51d 0341
00000100: 0a4e 3741 2d66 c040 f11a 5141 f713 2a41
00000110: ed71 1041 59e6 cc40 3b5b 0741 d3ba 1641
00000120: 773d cd40 4870 de40 ec7a 4641 d9de 5542
00000130: a89a ed40 9ddf fa40 308f 0541 162d d240
00000140: 55a5 0541 1f39 0c41 e751 f140 9b8b 0541
00000150: 1e29 e540 b758 3e41 ee3d 1f41 19fa 0840
00000160: a3ce 3741 766f 3041 99cf f740 2b8e 1541
00000170: 9d52 0f41 56bb ae40 32f2 1841 49c7 ee40
8.431984 8.663656 8.470332 11.607985 7.792016 8.345989 11.320402 7.5828514
11.225832 7.5533614 6.7018356 6.733733 8.569281 8.792814 7.779386 12.248486
14.045814 9.012693 11.424307 8.940065 9.446736 10.613766 7.125978 9.940605
8.873685 11.162336 7.507476 4.876952 7.4902387 7.4274364 8.217489 8.737797
10.591523 8.817962 9.586973 4.281169 7.751131 3.818669 9.987139 3.4902186
7.199232 7.878552 9.130716 6.5520487 6.691881 10.343767 10.437501 8.094044
7.0639014 9.318308 10.0266905 2.5023832 5.510858 11.976803 7.15501 8.68534
7.175641 6.3230195 10.635174 8.081764 8.857676 9.446468 8.747459 8.194737
11.4565525 6.0124726 13.0690775 10.629874 9.027814 6.4031186 8.459773 9.420611
6.413753 6.951206 12.40501 53.467625 7.425129 7.8397965 8.347458 6.5680037
8.352864 8.763946 7.541248 8.346583 7.161269 11.896659 9.95262 2.1402647
11.487948 11.027212 7.7440915 9.347209 8.957669 5.460368 9.55913 7.461827

dense2.dense.weight f4 [15, 96]
00000000: 9a5b 0dbf cf02 25bf 7016 8e3e 62ea 0abf
00000010: a4f0 6a3e 47ac 823d 6e13 78be 950c 70bf
00000020: 3adc 2c3b aab3 28bc f80d 713e 4067 123e
00000030: 26f9 bcbb a944 483e f1c4 a6be 20c7 3fbf
00000040: 493e cebe 91b3 c4be 797b d8be 31c6 5b3d
00000050: 8113 14bf fcff 0fbf 753b 39bc 85a4 ed3e
00000060: b62e 723e a0b9 c33e 0efa c93e 97cf 49bd
00000070: 03ca ddbe cabc ae3e f1d7 01bf 7b6e 803e
00000080: 4611 92bd 2181 54be 8fc9 c0bd 9fd4 65bd
00000090: 5b0b 94be 247f 76bd cd77 233e eb74 22be
000000a0: a976 0dbf f178 083e ad5c 2abf 05c6 99be
000000b0: 2a70 e93a 2e91 1cbf 51c6 403e 88d9 bb3e
000000c0: 07e4 13bd a639 d0be 0db6 793e 6396 aabe
000000d0: e491 1abf 5257 2fbf b83a 16bf 3c66 fbbe
000000e0: 43f1 1f3e 9e5d b5be 17d2 20bf 8dc9 04bf
000000f0: cfb8 2abf 2d48 f43e b6a6 b83e 7154 85bf
00000100: 82cd 2fbf 7980 05bd 01c6 63bf b97d 6a3e
00000110: ef4f 513c 2de6 28bf b7b8 12bf 53c2 efbe
00000120: 0bec c8bd 5a99 443d 72f2 1d3e 7c2a a03e
00000130: 7a4a 18bd 0707 b43e 3cdd b5be 64fb bc3e
00000140: 4faf dabe 0f34 44be 0ddb e73d 36a0 e0be
00000150: 0dab 39bf 2ac0 9d3e a055 1dbf 7150 b1be
00000160: f407 9dbe 56d5 913c 34f3 02be acbb 71be
00000170: 3b6e 7abe caad cdbe d5d7 07bf 45a4 1ebf
00000180: fd01 0a3e 79f1 65be ac8a 52bf 83ef 21be
00000190: bb84 693e 0366 a8bd 201c 803d 21a5 60bf
000001a0: b8db 96be 1958 9fbe 3676 56bf 091f 65bf
000001b0: 5d51 c6be 588c babe 93bf 0a3e 467c a1be
000001c0: 3e02 543e d415 bdbe d270 89be c148 6ebd
000001d0: 8486 ffbd 502d debe 09c2 66bc 6b1d f5be
000001e0: 2eb3 f0be b918 9bbe 113a cf3e 8aac ddbd
000001f0: daf3 61bd 1c47 ac3e 66f6 a13e 2d25 18be
00000200: b440 913e 04bb 4e3e 2793 c0be 0fb2 5cbe
00000210: 2eb7 2fbf e111 b7bd 991e 02bf f077 503b
00000220: 811c 543e 9ddf f3bd 9b24 53be d772 babe
00000230: 9b17 cdbb a8e1 1b3e 1f72 56be 4be7 453b
00000240: 6072 d63d cdf1 963e 4668 8f3e e850 c1be
00000250: d874 e53d 04d5 9d3e c027 c53e fa9d cb3c
00000260: 2937 2dbf 9510 01bf bc58 e03e c9bd 153e
00000270: 44b0 3cbf eadd 23bd 7ef0 d63d 2228 27bf
00000280: 28e8 70be 677c bcbd 553c 43bf a02a b7be
00000290: 8696 c8be f2c6 bb3e 4a46 0fbf 5b91 e73e
000002a0: b8a0 25bf 5a3e 07be 4763 6cbf 5ca5 eb3e
000002b0: d0d7 d3be a078 41be fd8e 02bf 4e36 db3d
000002c0: ed99 173e ac02 97be 5ade 2cbf 7014 bdbe
000002d0: a1c3 9cbe d4ae 1ebe a2a2 3e3e f1fc 13bf
000002e0: e1f6 44be 47c8 793e e4d2 d83d 9faf 68be
000002f0: 3881 153e 70f5 1bbf 692c 2c3c d928 3cbf
00000300: 108d c4be 1ae2 1c3f 8f2e ab3d b29c 263d
00000310: 799c 2d3e 2a03 ffbe dac3 a1be 933f f2be
00000320: f2be bebe 373b 37bf c998 583e 58dd dabe
00000330: 9784 853e c44e 173e 0585 643e d201 143e
00000340: 164b c9be 62bb 50bf fd4b 4dbf c2c4 053f
00000350: c6e9 cdbe edbf f9be 7743 a03c 8ffc e3be
00000360: 7d82 0abf 495e d1be 49fe edbe 8d90 3fbe
00000370: 4727 f13e 04bc e93d 2f41 efbe d736 23bf
00000380: 1a2e 97be e050 c6be 0cdf 8e3b 27f2 00be
00000390: ff73 99be 2542 5bbe 76c9 59bf b500 b3be
000003a0: feb2 203e 2b08 71bf 118e 28bf 67d3 00bf
000003b0: b5de 553c 67d7 30bf 43ac ecbc 72d3 723e
000003c0: 059c b13e fa60 623e 5e1f cfbe df46 47bf
000003d0: b3f6 56be 725b 63bf 2780 99be 0341 bb3e
000003e0: c7f7 d23d e251 ca3d e8dd 0cbe e00a 14bf
000003f0: 1276 1ebf c7cd 19bf be1f e5be d83c 2fbd
-0.552179 -0.6445741 0.27751493 -0.5426389 0.2294336 0.063805155 -0.24226162 -0.937692
0.0026376382 -0.0102967415 0.23540485 0.14297199 -0.0057670055 0.19557442 -0.3257213 -0.74913216
-0.40281895 -0.38418248 -0.42281702 0.053655807 -0.5784226 -0.56249976 -0.01130568 0.4641458
0.23650631 0.38227558 0.3944859 -0.04927024 -0.43318185 0.3412841 -0.50720125 0.2508429
-0.07132201 -0.20752384 -0.09413444 -0.056110974 -0.28914914 -0.060179844 0.15963669 -0.15864913
-0.55259186 0.13327385 -0.6654766 -0.3003389 0.0017809917 -0.61159027 0.18825652 0.366894
-0.036106136 -0.40668982 0.24385853 -0.3331786 -0.6037886 -0.68492615 -0.5868335 -0.49101436
0.15619378 -0.35422987 -0.6282057 -0.5187004 -0.66688246 0.47711316 0.3606469 -1.0416394
-0.68672955 -0.032593224 -0.88974005 0.22899522 0.012775405 -0.6597622 -0.573131 -0.46827945
-0.098106466 0.04799781 0.15424517 0.31282413 -0.0371804 0.3516161 -0.3552035 0.36910546
-0.42711875 -0.19160484 0.113210775 -0.4387223 -0.7252663 0.30810672 -0.6145878 -0.34631684
-0.3067013 0.017801922 -0.12788087 -0.23606747 -0.24456112 -0.40171653 -0.5306371 -0.61969405
0.13477321 -0.22455396 -0.82242846 -0.15814023 0.22804539 -0.08222582 0.062553644 -0.87751967
-0.29464507 -0.311219 -0.83774126 -0.8950048 -0.3873395 -0.364352 0.13549642 -0.31540126
0.2070398 -0.36930716 -0.26843888 -0.058174852 -0.12476829 -0.43393946 -0.0140843475 -0.47874007
-0.47011703 -0.302923 0.4047399 -0.10823925 -0.055164196 0.33648002 0.316333 -0.14857931
0.28369677 0.20188528 -0.37612268 -0.21552299 -0.68638885 -0.08938957 -0.5082794 0.003180977
0.20713998 -0.11907885 -0.20619433 -0.3641574 -0.0062589175 0.152228 -0.20941971 0.0030197676
0.10471034 0.29481354 0.28009242 -0.3775704 0.11203927 0.3082658 0.3850689 0.024855603
-0.6766229 -0.5041593 0.438177 0.14623179 -0.7370646 -0.040006556 0.10495089 -0.6529561
-0.2352606 -0.09203415 -0.76263934 -0.35774708 -0.3917734 0.3667522 -0.5596663 0.45228085
-0.6469836 -0.13207379 -0.92338985 0.46024597 -0.4137559 -0.18893671 -0.5099943 0.10703717
0.14804812 -0.29494226 -0.6752678 -0.36929655 -0.30618003 -0.15496379 0.18616727 -0.5780783
-0.19234802 0.24392806 0.10587099 -0.22723244 0.14600074 -0.6092138 0.010508635 -0.7349983
-0.38388872 0.61282504 0.0835849 0.04067678 0.16954221 -0.498071 -0.31594735 -0.47314128
-0.37255055 -0.7157473 0.21152033 -0.42746997 0.2607772 0.1477614 0.22316368 0.1445382
-0.393151 -0.81535923 -0.80194074 0.52253354 -0.40217417 -0.4877924 0.01956342 -0.44528624
-0.5410536 -0.40892246 -0.46483067 -0.18707485 0.4710028 0.11412814 -0.4672942 -0.63755554
-0.2952736 -0.38733578 0.0043600854 -0.12592374 -0.2997131 -0.21411951 -0.8507303 -0.34961477
0.1569328 -0.9415309 -0.65841776 -0.50322574 0.013053586 -0.6907868 -0.028890735 0.23713472
0.34689346 0.22107306 -0.4045362 -0.77842516 -0.20992546 -0.8881141 -0.29980585 0.36573038
0.10301166 0.09878899 -0.13756526 -0.57829094 -0.6189891 -0.60079616 -0.4475078 -0.042782634

dense2.dense.bias f4 [15]
00000000: ff9c 2f3f 2f7f 2b3f 3bad 053f b479 1140
00000010: 58b2 343f 2ad0 1f3f 025b 9540 bf1b 2f3f
00000020: 0c0d 543f c58d 443f 9c9a 403f a016 823f
00000030: 0a98 433f 0e1b babc bd04 45c1
0.6859893 0.6699094 0.52217454 2.2730532 0.7058463 0.6242701 4.6673594 0.6840171
0.8283241 0.76778823 0.75235915 1.0163155 0.7640387 -0.022717979 -12.313657

dense2.batch_norm1.weight f4 [15]
00000000: f9bf ce40 c7e2 de40 d619 b040 2eea 0a41
00000010: 1372 bc40 628f c140 3912 1741 f646 c140
00000020: f4fe e140 31ad c540 6fa7 d140 5eb1 fa40
00000030: 6b61 cd40 f20b ee3e 5837 8541
6.460934 6.965183 5.503154 8.682173 5.888925 6.048753 9.441949 6.039912
7.062372 6.1773915 6.5516887 7.8341513 6.418142 0.4649349 16.652023

dense2.batch_norm1.bias f4 [15]
00000000: 4722 91c0 78a6 9ec0 4c95 8ec0 d6ec 90c0
00000010: d6fe 81c0 5c4c 82c0 b6d2 86c0 f4d0 8bc0
00000020: 2577 8ec0 849a 80c0 3832 8bc0 a356 8ec0
00000030: ec1b 8dc0 c27d 35bf 4f6b ea40
-4.5354342 -4.957821 -4.4557247 -4.5289106 -4.062358 -4.071821 -4.2132215 -4.369257
-4.452044 -4.018862 -4.34988 -4.448076 -4.4096584 -0.70895016 7.325599

dense2.batch_norm1.running_mean f4 [15]
00000000: 8b25 903e aa23 423e 504d c83d 1de5 e53f
00000010: 211c 943e 30bd 1b3e 9b8e 8940 daa2 6a3e
00000020: b482 b93e a371 b43e 3d54 af3e 9d01 083f
00000030: 037a 983e ba69 63be ce9c 45c1
0.28153643 0.18958917 0.09780371 1.7960545 0.2892771 0.15208888 4.298658 0.22913685
0.3623253 0.35242948 0.34243956 0.5312746 0.29780588 -0.222083 -12.350782

dense2.batch_norm1.running_var f4 [15]
00000000: 7893 2f3f ed69 4c3f 6342 273f b12f 953f
00000010: 1261 123f 0e3d 243f b5eb 8d3f 7040 303f
00000020: 6d80 403f d280 153f d6c0 2b3f 11e3 743f
00000030: eec2 3b3f 53d9 3f3e d0bc fb3f
0.68584394 0.7984913 0.65335673 1.1655179 0.5717937 0.6415566 1.1087557 0.68848324
0.7519596 0.5839969 0.6709112 0.95658976 0.73344314 0.18735246 1.9666996
