classification/website/models/scc1.pt (torch, 251714 bytes, 24 tensors)

layer1.conv1.weight f4 [30, 30, 5]
00000000: e3e2 7ebe 943e e0bd b048 2c3f 195e bc3d
00000010: ad8b d33d e8ee 0dbf 238b 0c3d 88dc 91be
00000020: 6f7e 91be c548 3c3e e7d9 5dbe 2fda 8a3e
00000030: d82f b73d eef5 60be f489 623e e8cb 023e
00000040: 15cf c13c d228 973b 499f f9bd 74d9 a13e
00000050: 62db 353f e99c f93e 9be2 b3be 33a3 61be
00000060: 2450 583e 1c28 b93d dc30 a63d a769 aabd
00000070: 3527 dbbe 1570 c0bd 16c9 9a3e 3397 babd
00000080: 8f5a a6ba 062b 6ebe 53e6 833e b6a3 8a3e
00000090: bfc6 ba3d d8f5 343e 5fa2 cebd b893 903d
000000a0: ec67 a63d aeb0 783d ae41 03bd bea4 8f3e
000000b0: b01d 45be 2501 033f 0151 353d 0acf a0be
000000c0: a3ae 353e b3f5 f23d b38f c53e c471 383b
000000d0: 3e1f 89bd bcbf 3dbd 7e6a 113d d4e5 b33e
000000e0: 0834 61bd ea76 a93d 5229 363e 19b3 48bd
000000f0: 54b9 54be 05d9 6bbd 74d6 44be 7497 b5bd
00000100: 4f30 54be 0c85 c43d 34b0 083d d23f 4d3d
00000110: 19d6 b0bd 4dd0 10bd a5b4 b43d 6d79 8fbd
00000120: 5762 003e 9572 da3d ef21 b93c 8a01 1d3e
00000130: 26be 1dbb 00ac b13d c369 e63d ca41 f13d
00000140: bc8f e13b dab0 743c 19d3 5c3e c7ac 293e
00000150: 251a 61bd 4438 3c3e ae41 7a3d 3387 b43d
00000160: 5d50 833e ce30 3dbc c418 133e 125f 063e
00000170: efce 0cbc f299 f63d aad5 8ebd cc41 633e
00000180: 0a69 3dbe 3ac4 82bd 1b07 c23c b86d 28be
00000190: 1f8d 143e 8eeb 81bd b482 ac3d 67de 10bd
000001a0: cce7 2dbe 0551 573e cb3e 1cbd 5cff 583c
000001b0: 672f 29bd 5117 bdbd aa47 c03d b9ed 78bd
000001c0: 1fdf 9fbc 2e86 e5bb 8bc0 aabe 3d2c 83bd
000001d0: 0368 a03d 6afd 1fbd c78c b5bd 2c47 22be
000001e0: ecfa 11be 3c54 333b 7291 e13c 6841 90bd
000001f0: 4633 0cbe 5802 bbbd f060 4bbb 5890 e9bc
00000200: 3b2d 7fbd 7cb7 aebd 9fd3 153e 8f8b 743d
00000210: 0296 98bc 5343 54be 0899 293d ec5f d23e
00000220: af81 743d 5941 47be 90f5 efbd dcc3 103e
00000230: 9ef3 6f3e 6147 6c3e c75d 43be 4224 3abd
00000240: 7048 a03e f09c 413d 12e6 413e d0a9 2dbe
00000250: 2916 31be 721e 273e 154b 153c 04e8 883e
00000260: 42e5 31be feba 71bf 7d09 dcbe 86ad dd3e
00000270: 60bf 153e e10c 623f 66c0 0fbd f596 cabc
00000280: 1d27 c93d 0c56 833d 19b0 d13d 0bfa 8fbe
00000290: 054b 233e d710 913e 4bd0 d43d 0b9d adbd
000002a0: 432f 4fbe 9b9c b83c f944 ebbc 093d 4abe
000002b0: ff8c 02bd bf17 0fbf 570c e4bd d13e 87bc
000002c0: dc93 963d 7ece 8fbe d82b 66be a642 bbbd
000002d0: 4a86 be3e e465 a1be fd01 91bd f9b9 bebe
000002e0: ee53 243e a557 73be 6bd2 1ebe 7de0 2bbe
000002f0: f667 11bf 5c50 8b3e 09b4 973d ade2 c5bd
00000300: 0417 83bd 3f53 b1be 83c3 923c fe0d 0abe
00000310: 5fdf ba3e abb0 403b 74ae 92bc 3ce6 873e
00000320: 0fb9 273e bbc7 4b3e fefb 903e 831c b0be
00000330: 9d6e 003d 8ce6 25bd a65c d63d 721b dbbc
00000340: 2364 69be 1a15 033e e476 b43c fcbd b13e
00000350: 5488 93bd 59a3 0a3e 6601 8b3e d44a bd3d
00000360: 1f96 133e a9b5 e6bc d4e8 75ba 4b7e 07bd
00000370: b187 a93d 7302 c2bc e55c 45bc dad0 093e
00000380: 8963 9dbc 9db9 0bbe fbc6 a33d b45c b23d
00000390: ead2 b6bd 1a0f 763d 92f2 80be 27c1 593e
000003a0: 23e1 053e cf24 ca3d bd3e f6bd c6ad 6ebd
000003b0: 8610 c63d e9d9 583e 69d3 b93c 6e60 bcbd
000003c0: 4707 133b 09f7 e33c 72e8 c03d b2d9 efbd
000003d0: 91d0 c8bd 5c6b 3bbd 1716 1f3d 2bbe e13d
000003e0: 566e 02be 432e 16bd 4a4c 5c3d 172a 25be
000003f0: bbc1 91bd d6f5 85bb ee7c 05be 7780 3d3d
-0.24891238 -0.10949436 0.6729841 0.09197635 0.103293754 -0.55442667 0.03431238 -0.28488564
-0.28416774 0.18387134 -0.21665154 0.27119586 0.08944672 -0.21968815 0.22122937 0.12773097
0.023658315 0.0046130205 -0.12188584 0.31611216 0.71037877 0.48752525 -0.35133824 -0.22034912
0.21124321 0.090408534 0.08114788 -0.08320933 -0.4280335 -0.09396378 0.3023154 -0.0911087
-0.0012691783 -0.232586 0.2576166 0.27078027 0.09119939 0.17671907 -0.100895636 0.07059425
0.0812529 0.06071537 -0.03204506 0.28055376 -0.19249606 0.5117362 0.044266704 -0.31407958
0.177424 0.1186327 0.38586196 0.0028143981 -0.06695412 -0.04632543 0.03550195 0.35136282
-0.05498126 0.08274634 0.177892 -0.048998926 -0.20773822 -0.057580013 -0.19222432 -0.08866778
-0.20721553 0.09595689 0.033371165 0.050109692 -0.08634586 -0.0353549 0.08823518 -0.07005582
0.12537514 0.10666386 0.022599189 0.15332618 -0.0024069636 0.086753845 0.11250641 0.117801264
0.0068835896 0.014934743 0.21564902 0.16569816 -0.054956574 0.18380839 0.061097793 0.0881485
0.2564725 -0.0115472805 0.14364916 0.13122204 -0.008594259 0.120410815 -0.06974347 0.22193068
-0.184971 -0.063850835 0.023685029 -0.16448104 0.14506958 -0.063437566 0.08423367 -0.03536835
-0.16982955 0.21027 -0.03814582 0.013244476 -0.041304972 -0.09232963 0.09388669 -0.060773585
-0.019515572 -0.007004521 -0.33350024 -0.06404922 0.07832339 -0.039060034 -0.08864742 -0.15847462
-0.14255875 0.002736344 0.027535174 -0.07043725 -0.13691434 -0.091313064 -0.003103312 -0.028511211
-0.062298995 -0.085310906 0.14631508 0.059703406 -0.018626217 -0.20728807 0.041405708 0.41088808
0.05969399 -0.19458522 -0.11716759 0.14137214 0.23432776 0.23074104 -0.19078742 -0.045444734
0.31305265 0.047268808 0.18935421 -0.1695931 -0.1729361 0.16320208 0.009112139 0.26739514
-0.17372611 -0.9442595 -0.4297599 0.4329645 0.14623785 0.883009 -0.035095595 -0.024730185
0.098219134 0.064128965 0.10238666 -0.28120455 0.15946586 0.2833316 0.10391291 -0.08477219
-0.20232873 0.022535613 -0.028719412 -0.19749846 -0.031872746 -0.5589561 -0.11135166 -0.016509445
0.07352421 -0.2808723 -0.22477663 -0.091435716 0.3721183 -0.3152305 -0.07080457 -0.3725126
0.16047642 -0.23763902 -0.15509956 -0.16784854 -0.56799257 0.27209747 0.07407386 -0.096623756
-0.06400874 -0.34633824 0.017915493 -0.134819 0.36498544 0.0029402177 -0.017905451 0.26542842
0.16379188 0.1990041 0.28317255 -0.34396753 0.03135549 -0.04050307 0.1046689 -0.026746485
-0.22792105 0.12801018 0.022029348 0.3471526 -0.07203737 0.13538875 0.27149504 0.09242788
0.14412735 -0.028162794 -0.00093807024 -0.033079427 0.08277834 -0.023682809 -0.012046074 0.13458577
-0.019212501 -0.13645025 0.07996937 0.08709088 -0.089269474 0.060072996 -0.25185066 0.21265088
0.13074164 0.09870302 -0.12023685 -0.058271192 0.0967112 0.21176876 0.022683816 -0.0919808
0.0022434758 0.027827756 0.094193354 -0.11711444 -0.09805406 -0.045756683 0.038839426 0.110226
-0.12737402 -0.036665212 0.053783692 -0.16129337 -0.07117029 -0.004088144 -0.13035938 0.04626509

layer1.conv1.bias f4 [30]
00000000: a3d5 68bd 1e5a 74bd 0fa5 be3d 1e9b 9a3d
00000010: 5fcb cf3b 2f8d 063d 089b df3a 0acb a63d
00000020: fb31 a6bb f62a 343d a71a 20bc 9ca6 1d3c
00000030: 3575 a43c 59ac 88bd 146f 84bd 8dce 80bd
00000040: 1360 3fbd eb30 4cbd e527 8fbd a11e 783c
00000050: 49ce c73d fad8 babb 8fc6 a23d 3588 a43d
00000060: d256 05bd 6317 86bb 3796 9cbc d95f 38bd
00000070: 06dc 643e 2ab8 e53d
-0.056844365 -0.059656255 0.09308826 0.075491175 0.0063413824 0.032849487 0.0017059753 0.081441954
-0.005071876 0.043986283 -0.009771979 0.009622242 0.02007542 -0.06673498 -0.06466499 -0.062893964
-0.046722483 -0.04985134 -0.06990031 0.015144021 0.09756143 -0.005702135 0.07948028 0.08033792
-0.0325535 -0.0040921434 -0.019114597 -0.045013282 0.22349557 0.11216767

layer1.bn1.weight f4 [30]
00000000: c618 843f 06e5 633f c508 743f 0fc2 7f3f
00000010: 37d9 513f 6086 f83e f33c 203f 6180 6e3f
00000020: 9783 273f a426 803f fcb8 7d3f 8df3 043f
00000030: 2f04 363f fed5 443f 72de 373f 9b7a 323f
00000040: be07 413f 7988 423f 2536 2f3f fea5 903f
00000050: da21 8a3f e09d 7d3f e603 343f 431a 3f3f
00000060: 402a 273f 738c 073f c019 0e3f 47c4 4f3f
00000070: 2d55 5f3f c5b1 a13f
1.032006 0.8902134 0.9532588 0.99905485 0.8197207 0.4854002 0.62593 0.9316464
0.65435165 1.0011792 0.9911039 0.5193413 0.71100134 0.76889026 0.718238 0.6971833
0.7540244 0.7598949 0.68441993 1.1300657 1.0791581 0.99069023 0.7031845 0.7464945
0.65298843 0.52948684 0.5550804 0.8115887 0.8723934 1.2632376

layer1.bn1.bias f4 [30]
00000000: b036 ad3e 5770 1f3e 8ee9 143e 7f30 f93d
00000010: 74fe 763d 74bb 4dbd ca28 2f3e 7fa2 273d
00000020: e0bb 1e3d b2b7 113e 1887 133e c425 8b3d
00000030: 9429 163e 5e4d 07be b4f4 913d b775 063e
00000040: 34cf 6f3c 9eb1 e23d 0e64 d93d 6149 103e
00000050: b36a 6bbd 9381 813d efeb 603d b7aa 00be
00000060: d248 313b 32e5 0cbd 1092 df3c 664c 8739
00000070: 077c 483e c467 83bd
0.33830786 0.15570198 0.14542219 0.12167453 0.06030126 -0.050227597 0.17105404 0.040926453
0.03875339 0.1423023 0.14407003 0.067943126 0.14664298 -0.13213107 0.071267515 0.13130842
0.014636803 0.11069034 0.10614787 0.14090492 -0.057474803 0.063235424 0.054912504 -0.12565123
0.002705146 -0.034398265 0.027291328 0.00025806128 0.19578563 -0.06416276

layer1.bn1.running_mean f4 [30]
00000000: 5064 35bd d092 7cbd 5d1e b43d ebe5 893d
00000010: fa22 18bb 8070 2e3d ca01 1fbc 75b6 a13d
00000020: 1932 3cbc 3b1d 3f3d 8fd9 99bc e242 f2ba
00000030: 6273 273c a180 89bd 2a53 99bd ff01 95bd
00000040: 1f2b 63bd 534f 5fbd b3bf 9ebd 10cf 3d3c
00000050: 0f8c b63d d5df 3abc 74be 923d 7c6b b03d
00000060: dd45 fcbc 75fd 41b9 c56b c6bc 9ba0 56bd
00000070: 7cad 5b3e df5e e03d
-0.04428512 -0.06166345 0.08794854 0.067333065 -0.0023214207 0.042587757 -0.009705016 0.07896129
-0.011486554 0.046658736 -0.018780498 -0.0018483067 0.0102203805 -0.06713987 -0.074865654 -0.07275771
-0.055461045 -0.05451901 -0.077514075 0.011585012 0.08913433 -0.011405905 0.07165232 0.08614251
-0.030795032 -0.00018500334 -0.02422131 -0.05239926 0.21452898 0.10955595

layer1.bn1.running_var f4 [30]
00000000: 755b 8240 2eac a540 c107 453f 6f8d 1440
00000010: 8c56 6b3f dfaf cb3f 5b9f 6540 f06f b53f
00000020: dfc6 2f3f 66dc 8c3f c042 1440 1033 e63f
00000030: fffb a83f 8b75 3540 c284 e83f bff2 d63f
00000040: 2654 6f3f 20f6 9a3f ba91 963f af77 863f
00000050: e524 523f c587 233f 6e46 923f 398d 7b40
00000060: f38c 6040 7d90 703f 3bc1 9a3f 251c 0840
00000070: df43 9a3f 19e9 ae3e
4.073664 5.177268 0.76964957 2.3211324 0.91928935 1.5913047 3.5878513 1.4174786
0.6866283 1.100476 2.316574 1.7984333 1.3201903 2.8352993 1.8165514 1.679283
0.93487775 1.2106361 1.1763222 1.0505275 0.82087547 0.6387904 1.1427743 3.9304945
3.5086029 0.9397047 1.2090219 2.1267178 1.2051963 0.34162214

conv1.weight f4 [30, 30, 5]
00000000: 0f93 86bc a088 e4bd 229b 18be 1778 7cbe
00000010: bada 03bf daca 833e 481b fd3e b9aa d039
00000020: a9bf cfbd 91ac 263e 843c c03e aa53 a7bd
00000030: 929d 1f3d ed6c 15be ccc3 4abe cc4b 44be
00000040: 9742 63be 1471 c7bc 1404 503e a1bf e33e
00000050: 4899 81be 45be 6fbe 6d70 e2bd d6d0 36be
00000060: 9dd7 eabc 2085 533e 94fd db3d 0833 4dbe
00000070: 3bfc 5fbd 612e fbbc f2be 3a3e 0024 34be
00000080: ac6d 5abe 52fc 343d 54d3 8c3e 874d 723d
00000090: fa10 ff3d 185e f03c e5de 1c3e 146d ec3d
000000a0: 8c60 173e ca35 3a3d a083 023e 4f6b 0739
000000b0: ffca 84be 48bc c93d d1b7 7abd 30b6 fbbc
000000c0: c516 95be ae72 b1be 9f81 a9bc 580b c6be
000000d0: 8854 14be 524f fb3d 2a95 1f3e 89ce 8d3d
000000e0: 2279 82bc 239b 253c 3505 003e 12fb 993d
000000f0: aed9 8c3d ad12 383e 9cfe 713e 3e7c 493e
00000100: 6903 323b 08f0 d73d 8d00 ec3b f70a 3c3c
00000110: 51ca 3c3e eecd 15be 022b f039 b86f 5dbe
00000120: c55a 6bbc b69c 4c3c 8d11 733d db81 7c3d
00000130: 5a30 673d 0ef6 0d3d ac59 043e 9f19 a93d
00000140: ba66 b93d 116e 2d3e 805e 19be a900 6d3d
00000150: d7b7 97be 7281 973e 444a f4bd 8425 39bd
00000160: 4211 14be abdb 9dbd 1c15 8f3b 918f 59bd
00000170: 1f0c 60bc 9424 b7bd 68d2 93bc 2590 78be
00000180: 30c2 503d 7db5 cabd 47d7 c0be 774a 93be
00000190: 8b17 89bc 8a5c 263d 46ae ad3e 40ff 543e
000001a0: ecc2 98be 9bdc 523d 0d84 81bd 22f7 e83e
000001b0: 89df fc3d 567e 073d a800 18be 888b 00be
000001c0: 00e7 f3bc da06 033e 8533 06be 366c e4bd
000001d0: d05f d4bd a837 6e3c a48f 333d 9608 5ebe
000001e0: 1de2 3bbe 7054 383e 3b7d 003e 4494 9cbd
000001f0: a404 1d3c 9fc0 ff3c 7073 1e3d f045 cbbb
00000200: 6e8f 86be 1394 283d 7812 e03a 458b afbd
00000210: fa86 823d 715c 333d 4317 233e edf5 54be
00000220: 246f 84be 765d 2abe 4770 d7bd 063c 03bd
00000230: 58b6 e0bc e23f 35be 5aa3 61be d01b 273e
00000240: 17a0 2e3e 9eb6 83bd aca5 7c3e d376 5a3e
00000250: 9021 d63e 4dd1 9a3e c9a6 45bb 47e5 e7bd
00000260: 18b3 02be 3b33 73be c2ad 05bf 7c35 7d3e
00000270: 373c f33e 980f 13bd 6819 8ebd c98a 3c3e
00000280: afbe c13e 8264 58bd b0b7 053d 4b6c 15be
00000290: 2b66 45be 5edd 47be f8ae 5bbe ba49 51bd
000002a0: c612 4d3e a8f5 e23e 037c 82be 693f 72be
000002b0: 3f77 dcbd fc35 43be 4bdd 4dbc 9877 633e
000002c0: d462 fd3d 6ac8 55be 6c6c 37bd e82b 4fbd
000002d0: 24b7 3b3e 594d 31be 30f7 77be a60e 783d
000002e0: c44a 953e cde5 833d 897b b53d 8ae2 77bc
000002f0: ac5d 193e fecb e63d e559 113e 773e 363d
00000300: 3f7d d63d 52ac ee3c e7bf 8abe 2f67 a73d
00000310: dbb3 a6bd c6d5 eabb cc5b 9bbe 7e6f aabe
00000320: 7b34 f2bb 2379 babe 62cd 28be e572 f83d
00000330: 4238 1d3e 47ce 2b3d 970b ae39 bd56 21bb
00000340: 06f1 2d3e c8bc 133d 6586 9c3d ab8f 383e
00000350: e7cb 693e b04d 2d3e 3298 bd3c f1ab ef3d
00000360: ea48 883b fc16 41bc eb74 233e dce5 12be
00000370: 36cb 203c a2aa 6cbe 5a67 3abd 3adc 9a3c
00000380: 018a 7f3d 53a9 3e3d a26c a33d b3e9 c43c
00000390: 5765 d93d d737 c93d 23c4 bd3d 59b1 153e
000003a0: 8972 23be f9cf 903d 5cca 93be f964 993e
000003b0: fc13 02be 1036 97bc da5d 10be fb65 c6bd
000003c0: 9e40 e83c 38c8 00bd 61f7 823c dfd6 48bd
000003d0: ba2e 253c 9c14 79be 3a04 613d 6a69 d9bd
000003e0: 7992 b8be eb4b 90be 3c00 ecbb 8259 b73c
000003f0: 7f26 b23e 3954 583e 5321 a1be d66c 0d3d
-0.016427545 -0.11158872 -0.14902928 -0.24655186 -0.51505625 0.257407 0.49434876 0.0003980005
-0.10143978 0.16276766 0.3754617 -0.081702545 0.03896863 -0.14592333 -0.19801253 -0.19169539
-0.22193371 -0.024345912 0.20314056 0.4448214 -0.25312257 -0.23412426 -0.110566 -0.17853102
-0.028667266 0.20656252 0.107417256 -0.20038998 -0.054683905 -0.030661764 0.18236902 -0.17591858
-0.21330899 0.044185944 0.2750498 0.059155967 0.1245441 0.029341742 0.15319403 0.115442425
0.14782923 0.045461453 0.12745523 0.00012914579 -0.25936124 0.09850365 -0.061210457 -0.030726522
-0.29118934 -0.34657806 -0.020691691 -0.3868053 -0.14485371 0.122709885 0.15584245 0.06924159
-0.015926901 0.010107788 0.12501986 0.07518591 0.068774566 0.17975874 0.23632282 0.19676301
0.0027162677 0.10543829 0.007202214 0.011477224 0.18436553 -0.14629337 0.0004580841 -0.21624649
-0.014364903 0.012488535 0.05934291 0.061647277 0.056442596 0.034658484 0.12924832 0.0825684
0.09052797 0.16936518 -0.14977455 0.057861958 -0.29632446 0.29590946 -0.119282275 -0.045201793
-0.14459708 -0.07707914 0.00436653 -0.05311543 -0.013674765 -0.089425236 -0.018044665 -0.24273737
0.05096644 -0.098978974 -0.37664244 -0.2876775 -0.016734859 0.040615596 0.33922023 0.20800495
-0.29836214 0.051479917 -0.06324015 0.45501047 0.123473234 0.033079468 -0.14844 -0.12553227
-0.029773235 0.12795582 -0.1310559 -0.11153452 -0.10369837 0.014539637 0.04383816 -0.21682963
-0.18347974 0.1800096 0.12547772 -0.07645467 0.009583626 0.031219779 0.03868431 -0.0062034056
-0.26281303 0.04115684 0.0017095348 -0.085714854 0.06373401 0.04378933 0.15926842 -0.20796938
-0.25866044 -0.16637215 -0.10519462 -0.032039665 -0.027430698 -0.1770015 -0.2203497 0.16319203
0.17053257 -0.06431316 0.24672574 0.2133439 0.4182248 0.3023781 -0.0030159226 -0.11323028
-0.12763631 -0.23750012 -0.5221826 0.24727434 0.47506878 -0.035903543 -0.069384396 0.18412317
0.37840793 -0.052830227 0.03264588 -0.14592092 -0.19277255 -0.19518039 -0.21453464 -0.0510957
0.20026693 0.44328046 -0.25485238 -0.23657002 -0.10764932 -0.19063562 -0.012564967 0.2221359
0.123723656 -0.20877233 -0.044781134 -0.05057898 0.18331581 -0.17314662 -0.24215388 0.060560845
0.29158604 0.064403154 0.08861453 -0.015129695 0.14977139 0.11269377 0.14194448 0.044493165
0.104731075 0.029134903 -0.27099535 0.081739776 -0.081397735 -0.007166597 -0.30343473 -0.33288187
-0.00739151 -0.36420545 -0.16484597 0.121312894 0.15353492 0.04194477 0.000331965 -0.002461835
0.16986474 0.036068708 0.07642821 0.18023555 0.22831689 0.16924167 0.023143861 0.11702717
0.0041590827 -0.011785265 0.1596257 -0.14345497 0.009814074 -0.23111966 -0.04550872 0.01890384
0.06238747 0.0465482 0.079797044 0.024037218 0.10615032 0.09825104 0.09265926 0.14618434
-0.1596166 0.07070918 -0.28865325 0.2995985 -0.12702936 -0.018458396 -0.14098302 -0.0968742
0.028351124 -0.031440943 0.0159871 -0.049033042 0.010081941 -0.24324268 0.05493567 -0.10615809
-0.3604925 -0.2818292 -0.0072021764 0.022381548 0.34794995 0.21125878 -0.31470737 0.034527622

conv1.bias f4 [30]
00000000: 88ae 44bc b26b af3d 195c b8bd e517 04be
00000010: 1b0c 05be 8f23 b8bc 7555 813d 2fdc a73d
00000020: a47b 9a3d 91a1 8f3d cc60 58bd 3ad9 abbd
00000030: 24eb c6bc 3f18 173d 9455 44bc 20a7 c0bd
00000040: 24b4 ce3c e70a 8fbd 8f65 1bbc 8312 92bd
00000050: bff0 abbd 384f 593d 01b7 8cbd 2a02 0e3c
00000060: a2b8 473d 5b9e a1bc bef5 28bd 2c79 c4bc
00000070: 2b3b 5f3c cb41 253c
-0.012004502 0.08565463 -0.09001941 -0.1289974 -0.12992899 -0.022477893 0.06315128 0.081962936
0.07543114 0.07013238 -0.052826688 -0.08391042 -0.024282046 0.036888357 -0.011983294 -0.094068766
0.025232382 -0.06984501 -0.009484663 -0.07132437 -0.08395528 0.053054065 -0.06870843 0.008667508
0.048760064 -0.01972883 -0.041249983 -0.02398356 0.013624947 0.010086487

bn1.weight f4 [30]
00000000: 5141 913f 0bc6 933f 5aeb 963f d5d8 933f
00000010: 7491 933f aaba 923f 2e0a 903f 1353 8d3f
00000020: 7625 833f 1261 c53f 3bf3 7f3f b077 833f
00000030: b732 823f 5f02 603f 1e90 583f 2c5e 623f
00000040: f6d7 653f d91d 493f 5c07 523f 5fda 613f
00000050: efc1 593f 90a1 623f adc5 613f fd3f 583f
00000060: 25c0 5b3f 011f 293f 9838 473f f903 4d3f
00000070: 2d8e 2b3f c682 453f
1.1348058 1.1544813 1.1790574 1.1550547 1.1528764 1.1463215 1.1253107 1.1040977
1.0245807 1.5420249 0.99980515 1.0270901 1.0171727 0.8750362 0.84594905 0.88424945
0.89782655 0.7856117 0.8204248 0.8822383 0.85061544 0.88527775 0.88192254 0.8447264
0.85840064 0.66062933 0.7782073 0.80084187 0.6701382 0.7715267

bn1.bias f4 [30]
00000000: 13d0 a43c e00b 063d b659 e83c 1890 0a3d
00000010: c270 433d d434 363d 12a3 9e3d 6477 a63d
00000020: adb3 c23d d0ea 743e 4097 dd3d 8826 b33d
00000030: 318a c83d 6459 f63d c946 013e fc45 073e
00000040: 8366 0e3e 5465 343e 7223 353e fce7 2b3e
00000050: c3c7 483e ef2e 3b3e 8e9a 353e 1a98 443e
00000060: 30ea 2a3e d7d2 4c3e 6818 263e 0d13 293e
00000070: 913a 5e3e 5fb2 353e
0.020118749 0.03272617 0.02836309 0.033828825 0.047714956 0.044483975 0.07745947 0.08128241
0.09506927 0.23917699 0.10819864 0.08747584 0.09791983 0.12028769 0.12624659 0.1321029
0.13906293 0.17616779 0.17689303 0.16787714 0.19607453 0.18279622 0.17734739 0.19198647
0.16690898 0.20002304 0.16220248 0.16511174 0.21702029 0.17743824

bn1.running_mean f4 [30]
00000000: 63ef 9ebe bb78 5abe 7c97 0fbf b07c e3be
00000010: 61b9 03bf d69b 86be 5d5c cbbe db31 87be
00000020: 734e bdbe 09a5 6cbd fd96 b5be dae7 1cbf
00000030: cbc6 c5be 026b d7be 9d75 fabe c1f5 f9be
00000040: 43d9 a5be b60d bfbe 2048 b0be 8624 cfbe
00000050: bd64 98be 8fce 2dbe 1dd0 b7be c878 07be
00000060: ba71 bfbe c502 56be 1573 a5be 53ce 0fbf
00000070: 7c32 38be 2bb9 d5be
-0.31042013 -0.21335118 -0.5609052 -0.44431067 -0.5145474 -0.26290768 -0.39718905 -0.26405224
-0.36973915 -0.057774577 -0.35466757 -0.6129128 -0.3862823 -0.42073828 -0.48917857 -0.48820308
-0.3239232 -0.37315148 -0.34430027 -0.40457553 -0.29764357 -0.16973327 -0.35900965 -0.13229668
-0.37391454 -0.20899494 -0.32314363 -0.561742 -0.17988008 -0.41742834

bn1.running_var f4 [30]
00000000: 6e63 1340 fa40 2440 3b16 2c40 1ecb 1940
00000010: d535 2940 1fd1 2040 b03f 1240 c9cf 1940
00000020: 7cf7 2840 46f9 a13f 37d6 2b40 4a00 6640
00000030: 6a42 7340 eaf0 3040 2336 2940 991c 3840
00000040: 1c09 5c40 be5d 3c40 81d4 4940 b44e 7040
00000050: 617a 8840 6f7d 9440 8e8b 9440 cbdd a540
00000060: f75b a140 d53f 4140 f1da 8f40 eddb b340
00000070: 88d8 a840 8920 8840
2.3029437 2.5664659 2.6888568 2.4030223 2.6439106 2.5127637 2.2851372 2.4033072
2.6401052 1.2654197 2.6849496 3.5937676 3.8009286 2.7647042 2.6439292 2.8767455
3.438056 2.9432216 3.1535952 3.7548037 4.264939 4.6403117 4.6420355 5.1833243
5.042476 3.019521 4.4954762 5.6205964 5.276432 4.2539716

dense1.dense.weight f4 [96, 512]
00000000: 5676 ccbd 4f00 69bc 55e5 eebe 74dc 52be
00000010: 1a0f e7be d9ac e5bd e13e e6bd 7dda 7ebe
00000020: 6df9 ba3d 75c4 d0bc ee74 38be e667 0c3e
00000030: af39 20bd 0323 e63d 4347 a8bd 6f5f 57be
00000040: 260c c0bc fab6 5abd 127e d6bd e324 b33d
00000050: cedb 883d 17e3 4fbe 73c2 213e 6f6c 993e
00000060: 8487 7a3e 0251 58be 71ab 78be 827d 3bbe
00000070: 092b 583d 3a25 b2bd 9c38 ec3d 6def 47bc
00000080: ffc2 b2be 6556 2e3c 84f0 e0bd f965 95bd
00000090: c5b7 373d d0f6 023e c9e7 1fbd f9c3 853e
000000a0: 5658 99be 0528 2dbd 5b06 053d 6906 5c3d
000000b0: 1e00 94be a754 b4bc 2efb bc3d b826 3c3e
000000c0: 4243 14bc d9d5 a0bd 0769 b4be 8cba 853c
000000d0: 9da9 e63d 7fdd 49bc 023a 553d f09f 473e
000000e0: 7324 92bd 7387 7bbd 9722 703e 7820 0e3e
000000f0: 3ec4 653b 8357 7c3e cdb1 aebe 65ff 20bc
00000100: 885a 3bbd e90b c53e 9313 913e 9c55 d83c
00000110: 0732 cbbe 0342 7ebe 82e9 d4bd e8f8 c0be
00000120: bcbe 3fbe d38e 003e 52f8 dabb b68c 0a3e
00000130: df17 c53e f6bf 963e 1416 7f3e 2647 313e
00000140: f2c4 173d ec31 a83e 9ef9 99be 7a4d b5bd
00000150: 9ff4 f13d d250 d7bd 2f73 debd 073b 98be
00000160: 8b35 4cbc 9a67 3a3e 2f45 e4bd 746a 93be
00000170: 257f a23d 3933 45be a096 fa3c 3dc9 fb3d
00000180: ee8b b53d 47e4 be3c 7cc0 f8be 1235 f53e
00000190: 2ced 093e 8a19 c23d d9e2 48be 2be7 ecbd
000001a0: 4502 cabe beb3 c4be 17ad 293e 7eb6 773d
000001b0: bbb4 963d 4f73 803d fedf dfbd 767f f13d
000001c0: f6fd 9a3e 3449 d8be 38a9 8ebd 5649 ab3e
000001d0: c4d0 c03e 4aab e4be 5282 88be f820 afbd
000001e0: 847e 933c bb57 9fbe a195 903d cd30 5ebd
000001f0: df50 953d 3620 843e ca47 1bbe b615 3d3d
00000200: bcc5 d7bd be54 a2bd 0fed 10bd 8307 53be
00000210: 852c 9ebe bd93 253e 0629 ee3c b93d b2be
00000220: d79f b7be 97fd 04be 29df 3a3c f911 93be
00000230: 8e59 2cbe f4cc d2bd 2dfc 9f3c a284 04bd
00000240: 17f8 bdbe f4ca 8cbc a406 2e3e 099c f33d
00000250: 9a95 dd3d aca6 29be 3d32 27be 758c e93d
00000260: 6a57 9cbd baa8 1cbe b052 fc3d 30f3 88bc
00000270: 6582 86be 3ee8 f13d 8ba3 e33d d9ee cd3e
00000280: 808f 04be ac4b 433e ec55 33be 23c6 923e
00000290: 8f4e 9d3d 99f5 9c3d c68d 8cbe f0b1 ea3c
000002a0: 5c1e 583e 8f1c 2ebe 7b1f c2be e538 4d3e
000002b0: 2307 dcbd ba5d b2bd df1e 573d fb22 e23c
000002c0: ad94 76bd 97c3 8fbd af57 83bc 9bb6 e1bd
000002d0: af85 c63d f03e f5bd aed8 733e 2a60 afbd
000002e0: 8ea1 e0be dc37 063e 68a1 683e d20f 9bbe
000002f0: 0a53 853e e3a2 173d 3c23 82bd fd19 4f3e
00000300: 76dd 1a3c 7949 c8be b4db cbbe cff7 cf3d
00000310: 0a2f 983d b7da 3bbe 82de c43c c2eb 293c
00000320: 9ced 133b b245 073e 5b91 993d 77db e23d
00000330: 1b37 fa3d 2bc8 74be bde1 32bd c3e2 3a3d
00000340: e0d3 12bf 0bfd 69be 735a 56ba 1926 67be
00000350: 9ae9 de3d 8a1f 883c f46d 5e3e 410b e7bc
00000360: 6630 de3c 19b8 f3bd 1bb9 c63b 2281 2fbc
00000370: 314f 87bd 06e9 1a3e 25e0 933d b47a 9ebe
00000380: af17 03be d415 00bd 3b9e 6d3d 174c b1bd
00000390: c956 31be b478 283e d571 5cbe 6f90 babe
000003a0: 2381 5e3d 8a19 6f3d 7381 7bbd 8388 843c
000003b0: 65d2 573c f929 99be add5 afbd 63a5 033d
000003c0: 20e3 a03e a2e4 7e3e 2ac3 133e cc6d 01be
000003d0: f30b b9bd 4394 7fbd 5dab 8cbd 57f5 29be
000003e0: 4ea4 00bf 0b20 24be 2aa3 9d3d 998c 8f3d
000003f0: bddd 3abd 2f0b d8bd 7797 19be 7721 38be
-0.09983508 -0.014221265 -0.4665934 -0.20591909 -0.4512871 -0.11214609 -0.11242462 -0.24888034
0.091296054 -0.025484303 -0.18013355 0.13711509 -0.03911751 0.11237147 -0.08216717 -0.21032499
-0.023443293 -0.053397156 -0.10473265 0.0874727 0.066825494 -0.20301472 0.15796833 0.2996554
0.24465758 -0.21124652 -0.2428415 -0.18309596 0.052775417 -0.08698507 0.11534235 -0.01220308
-0.34914395 0.010640715 -0.10983375 -0.0729484 0.04485299 0.12789464 -0.039039407 0.26126078
-0.29950207 -0.042274494 0.032476764 0.05371705 -0.2890634 -0.022013022 0.09227596 0.18374145
-0.009049239 -0.07853288 -0.3523638 0.016324304 0.1126282 -0.012320875 0.052057274 0.19494605
-0.071358584 -0.06140847 0.23450695 0.13879573 0.0035059596 0.24642758 -0.34120026 -0.009826516
-0.045740634 0.3848565 0.28335246 0.02640801 -0.39686605 -0.24829869 -0.103961006 -0.376899
-0.18725103 0.12554483 -0.006682434 0.1353024 0.38494775 0.2944333 0.24910766 0.17312297
0.037053056 0.32850587 -0.30073255 -0.08852668 0.11814236 -0.10513462 -0.10861813 -0.29732534
-0.0124639375 0.18203583 -0.11146008 -0.28792155 0.07934407 -0.19257821 0.030589402 0.122942425
0.0886458 0.02330221 -0.48584354 0.47892052 0.1346938 0.094775274 -0.19617786 -0.11567529
-0.39454857 -0.38418382 0.16569935 0.060476772 0.0735869 0.06271993 -0.10931395 0.11791889
0.30271882 -0.4224335 -0.0696587 0.33454388 0.37659276 -0.44661933 -0.26661927 -0.0855121
0.018004663 -0.3112162 0.070597894 -0.05424576 0.072908156 0.25805825 -0.15164104 0.046163283
-0.10535762 -0.079263195 -0.035382327 -0.20608334 -0.3089334 0.16169639 0.029072296 -0.34812716
-0.35864136 -0.12987362 0.011405745 -0.2872465 -0.16831037 -0.10292998 0.019529426 -0.03235305
-0.3710334 -0.01718662 0.1699472 0.11894996 0.1081955 -0.16567487 -0.16327758 0.11403743
-0.076338604 -0.15298739 0.12320459 -0.016717523 -0.26271358 0.11811875 0.11115178 0.4022129
-0.12945366 0.19071835 -0.17513245 0.2866679 0.076809995 0.076640315 -0.27451915 0.0286493
0.21105331 -0.17003082 -0.37914643 0.20041235 -0.10743549 -0.08709283 0.052519675 0.02760457
-0.060200382 -0.07019728 -0.016033022 -0.11021157 0.09693467 -0.11974895 0.23813125 -0.08563264
-0.43873256 0.13107246 0.22717822 -0.30285507 0.26039916 0.037020575 -0.06354377 0.20224757
0.009452214 -0.39118555 -0.39816058 0.101546876 0.07430847 -0.18345152 0.024031881 0.01037115
0.0022572046 0.1321018 0.074984275 0.11077016 0.12217542 -0.23904483 -0.043672312 0.045626413
-0.57354546 -0.22850434 -0.000817693 -0.22573127 0.108844 0.016616601 0.21721631 -0.028203608
0.027122688 -0.11900348 0.0060645468 -0.01071194 -0.066069014 0.15127954 0.072204866 -0.3095299
-0.12802003 -0.031270817 0.05801223 -0.08657091 -0.17318262 0.16452295 -0.21527798 -0.3643832
0.054322373 0.058373965 -0.06140275 0.016178375 0.013172721 -0.29914835 -0.08585677 0.032140147
0.31423283 0.24891904 0.14429918 -0.1263954 -0.09035482 -0.062397253 -0.068686225 -0.16597496
-0.5025071 -0.16027848 0.07697137 0.07009239 -0.045621622 -0.10549008 -0.14999186 -0.17981516

dense1.dense.bias f4 [96]
00000000: 6afb 7b3e e176 7d3e 9a85 843e 757d 733f
00000010: f023 a73e 61ce 133e bd9d 5e3e ed8b 2b3e
00000020: a6b5 a43d e941 db3c 563f b23e fef6 a53d
00000030: 1f27 5b3d e409 e33d 88fb c43e f966 0c3e
00000040: e035 413c 6f24 263e 44f7 493e 5070 9e3e
00000050: 6731 6e3e 6334 143e ce26 b43d 2058 963e
00000060: dbaa 6d3e 8407 263e e465 043e f9c4 8d3d
00000070: 1dd8 603e 9512 ad3e bb5b 233e 7778 343e
00000080: 0f05 693e aa88 1d3e 6244 c33c 6eb3 883e
00000090: 5917 a13d 0e15 8ebd 79ed 833e 41d4 963e
000000a0: 414e 293e 1751 ce3d 7826 523e cdaa be3d
000000b0: 6a8a 583e 1311 2b3e 9117 f63d faa9 593e
000000c0: dce8 073e 3934 053e 3bbe 5b3e be73 793e
000000d0: 378b 8f3e 10a5 283e 89c1 463e 9de3 4d3d
000000e0: e068 283e 2ca5 2b3e de49 403e 6776 343e
000000f0: 4086 3d3e 3417 353e 3287 843e 6f07 3f3e
00000100: 47e9 5d3e 38c5 423e f7b7 653e 3717 0e3e
00000110: 89bb cb3d 6381 2e3e 6ed8 333e ddad 66bc
00000120: b3c1 5b3e 1c8a 103e 8b24 323e 9331 5f3e
00000130: a2d9 4b3e 0cdd 063e d5a3 ae3d 44f8 8e3e
00000140: bb91 483e ab68 b13d 9b8d 4b3e 0940 353e
00000150: e911 b83d 0504 3e3e cc26 a73d 37e7 153b
00000160: ca06 fa3d 66d7 0d3e 0969 4d3e 6e07 333e
00000170: dd15 193e a967 723e d79b e13d 37c9 603e
0.24607626 0.2475238 0.2588318 0.9511331 0.32644606 0.14434196 0.2173986 0.16752596
0.08042459 0.026764827 0.34813946 0.08103751 0.053504106 0.11085871 0.38473153 0.13711156
0.01179263 0.16224836 0.1972323 0.30945063 0.23261033 0.14473109 0.08796464 0.2936411
0.23209707 0.16213804 0.12929493 0.06922335 0.2195744 0.3380324 0.15952961 0.17624079
0.22755836 0.15384164 0.023836318 0.26699394 0.07865781 -0.069376096 0.25767115 0.29458812
0.16533758 0.100740604 0.20522487 0.093099214 0.21146551 0.16705732 0.12016214 0.21256247
0.13272423 0.13008203 0.21459286 0.24360558 0.280359 0.16469216 0.19409765 0.050265897
0.16446257 0.16762227 0.18778178 0.17623292 0.18508244 0.17684633 0.25884396 0.1865518
0.2167102 0.19020545 0.22433458 0.13876043 0.09947879 0.17041545 0.1756303 -0.014079538
0.21460609 0.14115185 0.17396753 0.21796255 0.19907239 0.1317026 0.08527342 0.27923787
0.19586842 0.08662542 0.19878237 0.17700209 0.08987791 0.18556221 0.08161697 0.002287341
0.12208326 0.13851699 0.20059599 0.17483303 0.14949746 0.23672356 0.11016052 0.21951757

dense1.batch_norm1.weight f4 [96]
00000000: 9e9a 713f dff1 5d3f 419d 5f3f 78a5 913f
00000010: f7f7 513f feb8 593f 62dd 643f 20a6 673f
00000020: c164 373f b51f 363f 5688 473f d05a 3c3f
00000030: d1e6 223f ebb4 463f c9fc 573f de3d 563f
00000040: 88e7 d43e f389 5e3f 13d5 683f 0ebc 663f
00000050: 7205 5a3f 7840 623f 2a56 5f3f d0c8 683f
00000060: abfb 653f 91d0 7b3f d710 543f cea6 3e3f
00000070: 3ee2 863f 4907 623f 4f00 603f c2ad 643f
00000080: feb5 543f 5141 673f 6107 703f 056c 543f
00000090: 7b6c 4a3f 141e 463f 72f2 6e3f ec04 6f3f
000000a0: b2de 673f 04e1 4c3f 08b5 493f 9674 423f
000000b0: b558 313f 104d 4b3f b123 4d3f 3008 733f
000000c0: ff36 463f 39f6 4a3f 5555 5f3f e732 653f
000000d0: 42fc 483f e8a3 6f3f 1e89 623f 9972 1e3f
000000e0: b65b 523f 137b 5c3f 9a5f 533f b80b 533f
000000f0: 8c53 483f c74b 583f 51ed 5e3f 61db 623f
00000100: 8db6 5f3f ed3a 603f 6d21 5b3f 0f59 643f
00000110: 834c 543f d5be 543f 6135 553f cc2c 813f
00000120: bc6e 773f 6ef7 373f b054 743f 9f6c 733f
00000130: 9f5f 633f bd03 5d3f 4c0e 7e3f cda9 603f
00000140: 3e47 813f b9d3 443f dc0d 673f da91 483f
00000150: 16b3 4a3f 3d13 843f 3014 4e3f 2394 6e3f
00000160: 8143 1e3f 8beb 5a3f 0f83 5f3f cb31 6d3f
00000170: c9f2 523f c6d1 5b3f ac40 593f 8798 6d3f
0.9437655 0.8669719 0.87349325 1.1378622 0.8201899 0.850479 0.89400303 0.9048786
0.71638113 0.7114213 0.7794241 0.7357607 0.6363345 0.7761981 0.84370095 0.8368815
0.41582894 0.86929244 0.90950125 0.901307 0.8516456 0.8837962 0.8724085 0.90931416
0.8983714 0.9836512 0.82838196 0.74473274 1.0537794 0.88292366 0.8750047 0.89327633
0.830902 0.9033404 0.9376126 0.82977325 0.7907178 0.77389646 0.9333869 0.93366885
0.9057418 0.80030847 0.78791857 0.75959146 0.6927598 0.79414463 0.80132586 0.9493437
0.7742767 0.79281956 0.8723958 0.89530796 0.78509915 0.93609476 0.88490474 0.6189361
0.8217119 0.86125296 0.8256775 0.82439756 0.7825248 0.8449063 0.87080866 0.88615996
0.87387925 0.87589914 0.8559788 0.8919839 0.8292925 0.83103687 0.83284575 1.0091796
0.9665334 0.7186192 0.9544172 0.9508762 0.8881778 0.8633383 0.99240565 0.87759095
1.0099866 0.76885563 0.9025552 0.7834755 0.79179513 1.0318371 0.80499554 0.9319479
0.6182175 0.8551566 0.87309355 0.92654103 0.8240171 0.85866964 0.84864306 0.92810863

dense1.batch_norm1.bias f4 [96]
00000000: 54e2 56bf fe12 31bf da35 26bf ea8d e4bf
00000010: 1138 1ebf 61e3 1ebf 2d2a 37bf 2dc1 2fbf
00000020: ef8e b3be 7364 a1be 0f23 f5be 2381 1dbf
00000030: 828b 43be 0cc7 90be 1254 1ebf d4fc f2be
00000040: 67ec eabd 038a 59bf 62af 2abf 61dc 25bf
00000050: 63e9 25bf e087 36bf 63fb 26bf 05ea 2dbf
00000060: 63aa 2dbf 2315 3dbf f65d 4ebf 626a 01bf
00000070: 63cc cabf cb4e 45bf 48b8 19bf 49cc 3cbf
00000080: ab8d 22bf 8401 4abf ac34 2fbf b080 25bf
00000090: 2312 1abf 9aae 7dbe e5b4 63bf 8ba6 08bf
000000a0: 475d 28bf c6f3 11bf a159 09bf dbe7 18bf
000000b0: 3e6b acbe 4102 cbbe 1819 19bf e984 37bf
000000c0: d9b6 dcbe 4f24 1cbf 0891 11bf 3968 13bf
000000d0: dc29 0abf a510 25bf 2760 43bf 60b7 39be
000000e0: c25b 20bf 0ed6 e5be 1c12 19bf 50d5 37bf
000000f0: 14f3 c2be 04da 1fbf 272e 1bbf 87d9 2cbf
00000100: 4987 38bf 1b38 24bf 389a 1ebf ba48 53bf
00000110: 7421 11bf a953 23bf 47fd e0be f0fe 83bf
00000120: d6ce 2ebf 4c96 42bf c61d 37bf b299 4bbf
00000130: 16b8 36bf ae4f 51bf 9757 55bf 4e22 39bf
00000140: 6785 5bbf b501 a7be 3f83 12bf 932d 1abf
00000150: 244a 82be 1342 37bf 343d 1abf 7dc6 6bbf
00000160: c1c0 6bbe 7290 31bf 6782 39bf 29be 35bf
00000170: 36ae 49bf 4f62 0abf c69f 36bf 806c 59bf
-0.839391 -0.69169605 -0.6492592 -1.7855809 -0.618043 -0.620657 -0.7154873 -0.6865414
-0.35069987 -0.3152195 -0.4787831 -0.6152517 -0.19096187 -0.2827686 -0.6184703 -0.47458518
-0.114708714 -0.84976214 -0.6667386 -0.64789397 -0.64809245 -0.7130108 -0.65227336 -0.6793521
-0.67838115 -0.7386038 -0.80612123 -0.5055295 -1.5843624 -0.77073354 -0.60046816 -0.73749214
-0.6349742 -0.7890856 -0.68439746 -0.64649487 -0.60183924 -0.24773636 -0.889479 -0.53379124
-0.6576733 -0.57012594 -0.5365239 -0.59728783 -0.3367557 -0.39650157 -0.59803915 -0.7168718
-0.43108252 -0.609929 -0.56861925 -0.57580906 -0.5397012 -0.6447852 -0.7631859 -0.18136358
-0.6264001 -0.44889873 -0.5979326 -0.71809864 -0.3807608 -0.6244204 -0.606173 -0.6751942
-0.7208143 -0.6414811 -0.6195407 -0.82532847 -0.5669167 -0.6379953 -0.43943235 -1.0312176
-0.68284357 -0.76010585 -0.71529806 -0.79531395 -0.7137464 -0.81762207 -0.83336776 -0.7231797
-0.8575043 -0.3261849 -0.57231516 -0.6022579 -0.2544719 -0.71585196 -0.6024964 -0.92099744
-0.23022749 -0.6936103 -0.72464603 -0.70993286 -0.7878145 -0.54056257 -0.71337545 -0.8493118

dense1.batch_norm1.running_mean f4 [96]
00000000: 1d78 82c0 9521 1cc0 87b2 07c0 86a4 1340
00000010: e322 9ebf 3bc4 fcbf 4200 fcbf 7a00 41c0
00000020: eb91 cfbf cea3 49c0 0fff f1bf 6851 15c0
00000030: 5ee8 67c0 5f47 68c0 eea5 cfbf 9f11 07c0
00000040: 6957 3cc0 8630 4cc0 f174 02c0 6535 0cc0
00000050: 81cf ddbf a59c 0dc0 e524 ecbf 6589 00c0
00000060: 9a0d 00c0 a2ff d0bf 375c b5bf e6e5 b1bf
00000070: 411b 9e3f defe 10c0 f59f 10c0 db03 23c0
00000080: 4a90 2ec0 f93a 29c0 dd85 a8bf be63 d6bf
00000090: 5835 05c0 a30a 04c0 9b06 2dc0 53b4 8dbf
000000a0: 5aa5 11c0 d83e 13c0 0083 91bf 8ccb e1bf
000000b0: cf07 a9bf 4605 09c0 dd6e 1ac0 4cca 3bc0
000000c0: a98d b2bf ff70 10c0 1dcb 50c0 379e 2cc0
000000d0: 772f e2bf b9c5 37c0 6a6f 41c0 b965 2ac0
000000e0: 5205 30c0 bfce dcbf 267d b7bf 34db 22c0
000000f0: 2c37 bbbf 38ae 29c0 8bcb 26c0 bef3 f6bf
00000100: 987c e5bf 777c f0bf 4b7d 0dc0 127f 3fc0
00000110: 84fb cbbf 7fde 07c0 b3fa 63bf 9ab7 38c0
00000120: ff57 31c0 a476 20c0 581f 23c0 f60b 43c0
00000130: 0efb fcbf c273 36c0 c60c f4bf 4a56 08c0
00000140: 077e 11c0 7daf 03c0 b392 edbf 5958 cbbf
00000150: 7253 c5c0 1fe1 45c0 4f4f e5bf 6e1c 3fc0
00000160: 12c5 6ebf 6c9e 96bf ace5 f5bf 1ee6 04c0
00000170: 6e85 33c0 fae8 0cc0 11d8 efbf 2081 2fc0
-4.0771623 -2.4395497 -2.1202714 2.3069167 -1.2354397 -1.9747385 -1.9687579 -3.015654
-1.6216406 -3.1506228 -1.8905963 -2.3330936 -3.6235576 -3.6293561 -1.6222513 -2.1104505
-2.942835 -3.1904616 -2.0383875 -2.190759 -1.732895 -2.2126858 -1.8448759 -2.008386
-2.0008302 -1.6328013 -1.4168767 -1.3898284 1.2352067 -2.2655559 -2.259763 -2.5471103
-2.7275567 -2.6442244 -1.3165852 -1.6749189 -2.0813808 -2.0631492 -2.7035282 -1.1070656
-2.2757173 -2.3007107 -1.1368103 -1.7640243 -1.3205508 -2.1409469 -2.4130166 -2.9342222
-1.3949481 -2.2568967 -3.262397 -2.6971567 -1.7670735 -2.871443 -3.0224252 -2.6624587
-2.7503247 -1.7250594 -1.4335067 -2.544629 -1.4626212 -2.6512585 -2.6061733 -1.9293134
-1.7928648 -1.8787984 -2.2107723 -2.9921308 -1.5936131 -2.122955 -0.8905441 -2.8862062
-2.7709959 -2.5072412 -2.548788 -3.047605 -1.9764116 -2.8508153 -1.9066398 -2.1302667
-2.273317 -2.057586 -1.8560394 -1.5886337 -6.166436 -3.0918653 -1.7914828 -2.9861102
-0.93269455 -1.1767097 -1.9210715 -2.0765452 -2.805019 -2.2017198 -1.8737813 -2.7422562

dense1.batch_norm1.running_var f4 [96]
00000000: ce76 5340 8011 c43f da34 ce3f 0515 8d3f
00000010: 360e b43f eeab e13f 1237 be3f 0943 1140
00000020: 72d6 1340 fbab 7240 7e5b 3d40 78c0 fe3f
00000030: df4e 5840 95ee ac40 18f2 fc3f dce4 1940
00000040: ac34 2241 b825 1d40 babf 2040 d2c6 2540
00000050: 5edc 0040 e8d1 e63f 4cf5 0340 196c fb3f
00000060: eca6 0840 fda4 1740 324a cf3f 6524 cb3f
00000070: 55fd 783f 19a6 f83f fc0c f13f 84be 1540
00000080: 7876 2140 a9d1 e13f 3918 2840 4f9b ee3f
00000090: 2801 e93f 4902 5140 8bf1 0040 d483 fd3f
000000a0: ef2b 1940 1992 0140 5282 c93f 3c75 703f
000000b0: 659d 0140 e325 2c40 f0f4 1640 4453 1040
000000c0: b6d2 1340 23a6 eb3f 8904 1040 eae8 3040
000000d0: f136 de3f fc17 1240 d676 0840 8a72 2140
000000e0: 5157 d93f d493 2140 340f 0840 5f4d d53f
000000f0: b98e 1140 1a03 fc3f d781 0240 0016 0b40
00000100: 9d96 1140 3a44 1440 1381 4740 704a cf3f
00000110: b13d 0140 d587 0640 84f6 1740 682d 1240
00000120: 155b 4e40 a65d d83f e387 f73f d02b 2e40
00000130: 8e61 d33f e1c1 2140 1392 f43f 7090 0140
00000140: 35c0 1140 d452 4440 9570 0d40 68bc b93f
00000150: 0800 4241 c0eb 6740 f8a3 bd3f 6f59 2840
00000160: 9e54 1440 040b ee3f 5ebf fa3f 0091 f93f
00000170: a579 4140 6401 eb3f ccc4 f83f f201 dc3f
3.3041263 1.531784 1.6109879 1.102204 1.4066837 1.7630594 1.4860556 2.2697165
2.3099637 3.7917469 2.9587092 1.9902487 3.379814 5.404124 1.9761381 2.4045935
10.137859 2.4554272 2.511702 2.59026 2.0134501 1.8032808 2.0618467 1.9642364
2.135188 2.369445 1.6194518 1.5870482 0.97261554 1.9425689 1.8832088 2.3397532
2.5228558 1.7642108 2.6264784 1.8641146 1.8203478 3.2657645 2.0147426 1.9805856
2.3933065 2.024542 1.5742896 0.93928885 2.0252316 2.6898124 2.3586998 2.2550821
2.3097358 1.8410076 2.2502768 2.764216 1.7360517 2.282714 2.1322532 2.522616
1.6979772 2.5246477 2.125928 1.6664237 2.274336 1.9688447 2.0391748 2.1732178
2.2748177 2.3166642 3.117253 1.6194592 2.0193903 2.1020405 2.3744211 2.2840214
3.2243092 1.6903579 1.9338344 2.721424 1.6514146 2.5274584 1.9107078 2.0244408
2.2773564 3.0675554 2.2099965 1.4510622 12.125008 3.623764 1.4815664 2.6304586
2.3176646 1.8597112 1.9589651 1.9497375 3.0230496 1.8359799 1.9435058 1.7188094

dense2.dense.weight f4 [15, 96]
00000000: 29e4 713d 95f8 efbc ffe0 023e 32e4 78bd
00000010: 47c2 41bd 16a7 4dbe cc51 86be 8464 573e
00000020: 6787 a2be 1d80 e73d 620a 30be 9264 85be
00000030: 39a9 c5bc 8b93 aabe 018c 4ebd 7897 bbbe
00000040: 4660 8f3d a33c a4be dd6d 95be 1ec3 6d3e
00000050: 3e4e 6dbe 2c28 6fbe 31d8 d13d b1f9 5fbe
00000060: 6a70 3abe 5b36 0fbe d7c1 923d e03d 1a3e
00000070: a232 51bd 0d0a d5bd 9760 0c3e 97f6 55be
00000080: bc35 52be a7f4 73bd d601 e3bd 14e9 f8bd
00000090: 67d0 cebe c3b0 e3bd 226a 49be cf98 003e
000000a0: b74e 57be 88b8 a8be ce7b 90be 27c6 06be
000000b0: 8129 29be 72c6 8dbe 96f4 c4be 917f 1bbd
000000c0: 9414 ea3d b626 0c3e 77a7 4ebe 9954 2ebe
000000d0: 1ccc 143e a7ac 333e 3629 afbe 5d27 00bd
000000e0: 36ca db3d a826 3b3e e94b 27be eaf2 273e
000000f0: 7ab1 c43d beb8 2c3e 2d14 62be 620f 0e3e
00000100: 2557 95be a24f 92bd 2176 86bd dc34 74be
00000110: a099 a93d 9423 ee3d 5410 3fbe 6daa a2be
00000120: ef2c 92be 6776 15be 9509 103e 976d b1bd
00000130: a2f2 723e 2021 44be 18ee c9bd feae 373e
00000140: 5da7 cdbb 2c3d 3dbe de26 90be ce45 d7bd
00000150: 94e1 233e c9a6 febc 848d d33d 0999 7cbd
00000160: 2a4b cd3d 9b2a 84be 6f77 87be e2f5 403e
00000170: c2fa 613d 61be c53d 1f25 85be bb22 f63d
00000180: e535 10be 668c 0ebe 7d51 1dbe 3e40 3a3a
00000190: 5ca7 cb3d e3bf f2be 99e5 17be 8ef3 97be
000001a0: 7b23 8abe 1f77 05be b5c8 17bd 64f8 e63d
000001b0: bccf 23ba eabe 71be d8c5 e1bd 30e0 61be
000001c0: 4052 1f3e f87a debd 8269 a93d cca2 08be
000001d0: 2280 0ebe e9b9 8cbd df08 1d3e 4d70 1f3e
000001e0: 325b 363e 8370 453e 0e90 84be 2ea3 e43d
000001f0: 1050 3fbc 25f2 1c3e b357 a5be 1553 3dbe
00000200: f7ba e53d 6ecf 503e e5d7 a7be 6623 03be
00000210: 63f1 2c3e eced e3be e980 b7bd 8ed1 1abe
00000220: d187 33be d709 153e 41a8 d1bd 7e09 c8bd
00000230: 1037 12be 0832 473e dd2d bebe 361b 4f3e
00000240: 5388 88be c041 ac3d b8df 173e 2e5b 13be
00000250: ace4 c3bd f967 f93c 8588 24be 2788 f0bc
00000260: bf56 bc3d 452b d6bd 9504 25bd 7b4b eabc
00000270: cf82 c73d fec9 cabd 709e 31be 3d20 3cbe
00000280: e9ae 6abe af4d 073e f4cf 353e 5151 333d
00000290: e9b1 5ebe a2b0 153d a3ca 083e 4f0d 6bbe
000002a0: 65cc 7abd 2b70 f8bb b127 a43d c1e1 89be
000002b0: 9cf7 cebd 051d 58be 3748 3f3e 491b 97be
000002c0: 8a4f b8be 0070 0b3e 48a7 48bd badb 5e3d
000002d0: 6d3f 473e aa5d 2ebe 4b3a 86be 091e 07be
000002e0: a0a9 48be 8679 a73d cdd0 4cbe 19f4 463e
000002f0: 1c7f 8bbe 0a2a a4be 2c22 313e 1b80 56be
00000300: 8d6c c0bd aa39 b9bd afeb 1cbe e6ef 07bd
00000310: 9a97 b53c fe00 3abd e788 edbd ee9d e8bd
00000320: 8b72 003e 7d19 8c3d 2ba7 a5bc 2242 f2bd
00000330: d087 edbc bb5d 033e ac93 78bd 0306 fc3d
00000340: 0657 cc3d 2d92 99be 3835 533e ba1e 84be
00000350: 6717 bf3d 81de 233e 8765 86be 9060 a1bd
00000360: b697 94be ab5e debd 13e7 2e3e ebbc 71be
00000370: d04e 45bc c2f5 cabd 3d3e 563e d5d2 7dbe
00000380: d3c5 82be 5478 543e 4d21 123e 2124 bc3c
00000390: 8211 bdbd 9662 483d 2e90 323e 5689 e13d
000003a0: e710 10be 173d 93be a3e1 8fbe 3d69 8cbe
000003b0: 0f48 e5bd 2c9d 9ebd 7678 c6be 14da 1bbe
000003c0: 91de 36be 19b2 9cbe 6016 7ebe dccb 983d
000003d0: 8974 94be 4908 dabd 77d9 933e e305 dcbd
000003e0: bd49 31be 3fe2 28be f1b2 733d 8aa2 2c3e
000003f0: b347 54bd 342d cdbd da99 dbbd c580 6dbd
0.05905548 -0.029293338 0.12781142 -0.0607645 -0.047304418 -0.2008327 -0.2623428 0.21034437
-0.3174393 0.113037325 -0.1719146 -0.26053292 -0.024128543 -0.3331569 -0.050426487 -0.36639
0.070007846 -0.32077512 -0.29185382 0.23218963 -0.23174378 -0.23355168 0.10246313 -0.21872593
-0.18206945 -0.13985579 0.07165878 0.15062666 -0.051073678 -0.10402308 0.13708721 -0.20894848
-0.2052831 -0.05955949 -0.110843346 -0.12153831 -0.40393373 -0.11117699 -0.19669393 0.12558292
-0.21026121 -0.32953286 -0.28219455 -0.13161527 -0.16519739 -0.27690464 -0.38467854 -0.037963454
0.11429706 0.13686642 -0.2018107 -0.17024459 0.14530987 0.1754633 -0.3421113 -0.03128754
0.10731928 0.18276465 -0.16337551 0.16401258 0.096041635 0.16867349 -0.22078009 0.13873056
-0.29168049 -0.07144095 -0.065655 -0.23848289 0.08281255 0.1162788 -0.18658572 -0.3177065
-0.28549907 -0.14595948 0.14066155 -0.08663481 0.2372537 -0.19153261 -0.09859866 0.17937848
-0.006276055 -0.18480366 -0.28154653 -0.10511361 0.1600402 -0.031085389 0.10329726 -0.061669383
0.10024102 -0.25813755 -0.26458308 0.18843797 0.055170782 0.096554525 -0.26004884 0.12018343
-0.14083059 -0.13920745 -0.15363117 0.000710491 0.09944031 -0.47412023 -0.14833678 -0.29678005
-0.26980194 -0.13033722 -0.037056644 0.112778455 -0.00062489114 -0.23607984 -0.11024064 -0.22058177
0.1555872 -0.10863298 0.08272077 -0.13343352 -0.13916066 -0.06871397 0.15335415 0.15570183
0.17808226 0.19281201 -0.25891155 0.111639366 -0.011676803 0.15326746 -0.32293472 -0.18488725
0.11217301 0.20391628 -0.32781902 -0.12806472 0.16888957 -0.44517457 -0.089601345 -0.15119001
-0.17532279 0.14554535 -0.1023717 -0.097674355 -0.14278817 0.19452679 -0.37144366 0.20225224
-0.26666507 0.08410978 0.14831436 -0.14390251 -0.095651 0.030445086 -0.16067703 -0.029361797
0.09196233 -0.10457472 -0.040287573 -0.028600445 0.09741747 -0.09901808 -0.17345595 -0.18371673
-0.22918285 0.13213228 0.17755109 0.04377872 -0.21747555 0.036545403 0.1335855 -0.22954296
-0.061230082 -0.007581731 0.08015383 -0.2693005 -0.101058215 -0.2110482 0.18679892 -0.29513004
-0.35998183 0.13616943 -0.048987657 0.054408766 0.19457789 -0.17027918 -0.2621635 -0.13195051
-0.19595957 0.08177476 -0.20001526 0.19429053 -0.27245414 -0.32063323 0.17298192 -0.20947306
-0.093957044 -0.09044202 -0.15324281 -0.03318777 0.022167016 -0.045411102 -0.11598378 -0.11358248
0.12543695 0.06840799 -0.020221313 -0.1182902 -0.028995425 0.12828724 -0.060687706 0.12305834
0.09977536 -0.29994336 0.2062577 -0.25804693 0.093306355 0.16002847 -0.26249334 -0.07879746
-0.29021996 -0.108579 0.17080335 -0.23607223 -0.012042716 -0.09910156 0.2092218 -0.24787457
-0.25541553 0.20749027 0.14270516 0.022966446 -0.09231855 0.048922144 0.17437813 0.11012523
-0.14068948 -0.28757545 -0.28101835 -0.2742404 -0.11195385 -0.07744822 -0.3876378 -0.15219909
-0.1785834 -0.30604628 -0.24813223 0.07460758 -0.2899516 -0.106461115 0.2887685 -0.1074331
-0.17313285 -0.16492556 0.059496824 0.16858879 -0.05182619 -0.100183874 -0.10722704 -0.057984132

dense2.dense.bias f4 [15]
00000000: 35c3 e23e c574 f13e 2cf8 823e 30a1 e63f
00000010: 7998 953e 05c7 903e ccb9 0340 be71 ae3e
00000020: 04d0 af3e 4bd7 bc3e 56f0 a53e f489 ac3e
00000030: aa0f c53e e965 4fbc 23ad 1ec1
0.44289556 0.471594 0.25579965 1.801794 0.2921789 0.2827684 2.0582151 0.34071153
0.3433839 0.36883005 0.32409924 0.33699 0.38488513 -0.012658575 -9.91727

dense2.batch_norm1.weight f4 [15]
00000000: 3e78 6940 6fda 7b40 c4fe 3c40 5902 8e40
00000010: bc91 3a40 00b7 3b40 0d5d 9540 357f 5440
00000020: 6bdb 5d40 cbe5 4340 ac96 5c40 822e 6140
00000030: a617 5440 5782 0f3f cf5d 4141
3.647964 3.9352071 2.9530497 4.4377866 2.915145 2.9330444 4.6676087 3.320264
3.4665172 3.0609004 3.4466963 3.5184636 3.3139434 0.5605826 12.0854025

dense2.batch_norm1.bias f4 [15]
00000000: 65c6 16c0 bbb4 1fc0 f59d f6bf 1edd efbf
00000010: cbff dabf 614c d8bf 523c d6bf ccf5 06c0
00000020: 466e edbf cf0c dcbf 9138 fbbf a14d febf
00000030: 002f fcbf b6a7 eabe fb32 9a40
-2.355859 -2.495406 -1.9266955 -1.8739355 -1.7109312 -1.6898309 -1.6737158 -2.1087523
-1.8549278 -1.7191409 -1.9626638 -1.986744 -1.9701843 -0.45831078 4.818723

dense2.batch_norm1.running_mean f4 [15]
00000000: 232f 723e aa5d 933e a1b3 953d 0af3 d23f
00000010: 3a90 e93d 4b0a fc3d 22e0 f83f da8a 083e
00000020: 73a5 523e a56f 4e3e 4252 163e 8554 2e3e
00000030: b448 503e 1fe2 e4bd e716 23c1
0.23650794 0.28782398 0.07309652 1.648042 0.11404462 0.12306651 1.94434 0.13334218
0.20570926 0.20159777 0.14679816 0.17024429 0.20340234 -0.11175942 -10.193091

dense2.batch_norm1.running_var f4 [15]
00000000: 22ce 463e e069 453e f60f 053e c213 6a3e
00000010: f8b5 163e c2bf 003e 176e 3f3e cfd9 533e
00000020: 866f 1a3e d3e7 143e f3d2 333e a59b 323e
00000030: 7e1a 3a3e f145 043d 7c85 353f
0.19414571 0.1927867 0.1299437 0.228591 0.14717853 0.1257315 0.1869434 0.20688556
0.15081605 0.14541559 0.1756094 0.17442186 0.18174168 0.032293264 0.70906806
