classification/website/models/scc2.pt (torch, 252098 bytes, 24 tensors)

layer1.conv1.weight f4 [30, 30, 5]
0	0xbee8e9ba	-0.4549082
1	0x3ea65a97	0.3249099
2	0x3edee507	0.4353411
3	0x3efcc44d	0.49368516
4	0xbda5f693	-0.08103671
5	0xbde35312	-0.11099829
6	0xbe17b1e8	-0.1481396
7	0xbe36c2ec	-0.17847794
8	0xbd848a19	-0.064716525
9	0xbed24891	-0.4107099
10	0x3da4daf1	0.08049572
11	0xbe932a64	-0.2874328
12	0x3d84cb0f	0.06484043
13	0x3d16e4cd	0.036839295
14	0xbdf39bae	-0.11894928
15	0x3de9df83	0.114195846
16	0xbe5e920e	-0.21735403
17	0xbda6fae8	-0.08153325
18	0x3d330976	0.043710195
19	0x3c610644	0.013734404
20	0x3e53650b	0.20644014
21	0xbe0c4fa0	-0.1370225
22	0xbd8d92eb	-0.06912788
23	0x3dc8dd15	0.09807793
24	0xbdc8fa3f	-0.09813356
25	0x3daabbd3	0.08336606
26	0xbe2bc0d5	-0.16772778
27	0xbe9e601f	-0.3093271
28	0xbb96089e	-0.004578664
29	0x3dc85d49	0.09783418
30	0x3ea3fdd1	0.32029584
31	0x3d9d5fdb	0.076842986
32	0xbcf9d85f	-0.030498682
33	0xbd29ae13	-0.041425776
34	0x3e818cde	0.25302786
35	0x3bf599a9	0.0074951244
36	0x3e138225	0.14405115
37	0xbd0c6807	-0.034278896
38	0x3e08057f	0.13283347
39	0x3e35e81b	0.17764322
40	0xbd7cf85e	-0.0617603
41	0xbdabef9f	-0.083953135
42	0x3cd86bb1	0.026418539
43	0xbced7ca1	-0.028990092
44	0x3e1674a3	0.14692931
45	0xbcbfc35f	-0.02340859
46	0x3d56b46c	0.052418157
47	0xbd3c4fc3	-0.045974504
48	0x3d7b6ad5	0.06138118
49	0x3ce7a4a6	0.028276753
50	0x3e3909bf	0.18070124
51	0x3d553f9d	0.05206262
52	0xbd395250	-0.045244515
53	0x3d9ba6f4	0.07600203
54	0xbd7b4f5f	-0.06135499
55	0x3e0fbeb4	0.14037591
56	0x3c6bf573	0.014401781
57	0x3c102f1c	0.008800294
58	0x3d413940	0.04717374
59	0x3cbb9964	0.02290029
60	0x3caac92b	0.020847877
61	0x3e48137f	0.19538687
62	0x3e23077f	0.15920828
63	0xbd74b307	-0.059741046
64	0xbb998b9c	-0.004685832
65	0x3e0588a6	0.13040408
66	0x3dc54a15	0.09633271
67	0x3c957b5f	0.018247304
68	0xbd2b2fe2	-0.04179371
69	0x3df99fb6	0.121886656
70	0xbd146aa4	-0.036234513
71	0x3d3a4eca	0.045485295
72	0xbd20fadc	-0.03930174
73	0xbd053f0b	-0.032530826
74	0xbc620ba5	-0.013796722
75	0x3d56b504	0.052418724
76	0xbc35fe3d	-0.011107978
77	0xbdeed1d9	-0.11661119
78	0xbd7cc40e	-0.06171041
79	0xbe25ebc7	-0.16203223
80	0x3c641096	0.01391997
81	0xbe1593d7	-0.14607178
82	0x3df25390	0.118323445
83	0x3b61ed76	0.0034473813
84	0xbebcab15	-0.36849275
85	0xbc50fb10	-0.01275517
86	0xbe0705bd	-0.13185783
87	0x3dafc95e	0.085833296
88	0xbd5a1ab7	-0.053248134
89	0xbe3989a1	-0.18118908
90	0x3d4efdf7	0.05053517
91	0xbe86f8db	-0.26361737
92	0xbc900e3d	-0.017584914
93	0x3d5b4691	0.053534094
94	0xbe441fa9	-0.19152702
95	0xbce2da94	-0.027692117
96	0xbc6e7b6e	-0.014555795
97	0x3e18b11d	0.14911313
98	0x3da0cb41	0.078512676
99	0xbe319285	-0.17341049
100	0xbc78bfea	-0.015182475
101	0x3e0fe7ee	0.14053318
102	0x3e859d43	0.26096544
103	0xbdac8b93	-0.08425059
104	0xbe1368d7	-0.14395462
105	0xbe43dc45	-0.19126995
106	0xbdb0f50f	-0.08640491
107	0xbd86a92f	-0.06575238
108	0xbbf58ef9	-0.0074938503
109	0xbd802e2f	-0.06258809
110	0xbe246383	-0.16053586
111	0xbc9fbf5d	-0.019500429
112	0xbe195597	-0.14974056
113	0xbe047e42	-0.12938789
114	0xbd3a9d1b	-0.045559984
115	0x3cc4654e	0.023974087
116	0xbc311151	-0.010807351
117	0xbcd37285	-0.025811443
118	0xbd373bae	-0.04473465
119	0x3d063d45	0.032773275
120	0x3e140126	0.14453563
121	0x3dd300b2	0.10302867
122	0x3d4993ca	0.04921321
123	0x3dc6a854	0.09700075
124	0x3d4e3fee	0.050353937
125	0xbd51c279	-0.051210854
126	0xbdbf1208	-0.09329611
127	0xbd9396d5	-0.07206503
128	0x3de2bc99	0.110711284
129	0x3db506bc	0.08839175
130	0x3c020bc7	0.007937378
131	0xbdc4d9fd	-0.096118905
132	0xbdf57ef2	-0.119871035
133	0x3cdb9ab2	0.026807163
134	0x3d92385d	0.07139657
135	0x3d8efb3a	0.069815114
136	0xbe821d2e	-0.25412887
137	0xbd5a76a8	-0.053335816
138	0xbe122f60	-0.14275885
139	0x3d0d7f0c	0.03454499
140	0x3e3409cd	0.17581864
141	0x3d0c944f	0.034321126
142	0x3ca35b13	0.019940889
143	0xbaea24a5	-0.0017863704
144	0xbe1e68c7	-0.15469657
145	0x3d6a7b83	0.057246696
146	0xbe63d4de	-0.22249171
147	0xbd44004e	-0.047851853
148	0xbd87d93d	-0.06633232
149	0xbe8ddffe	-0.27709955
150	0x3ce7306b	0.02822133
151	0xbd85afe1	-0.06527687
152	0x3db70caa	0.08937962
153	0x3e3766f4	0.17910367
154	0x3dd777cd	0.10520897
155	0x3e6ca3f1	0.23109414
156	0xbac59999	-0.0015075683
157	0x3ddbd03d	0.10733078
158	0xbde72f3c	-0.11288306
159	0xbe133028	-0.14373839
160	0x3cdd40ae	0.02700838
161	0xbe0a7ff1	-0.13525368
162	0x3e593b6c	0.21214074
163	0xbe6f58b9	-0.23373689
164	0x3d95a9a6	0.073077485
165	0x3e460aa9	0.19340004
166	0x3dd74037	0.10510295
167	0x3e301363	0.17194895
168	0x3dccceb9	0.10000367
169	0x3d6064a6	0.054783486
170	0x3c964d06	0.018347275
171	0x3daa75e7	0.08323269
172	0x3e432490	0.19056916
173	0x3d2fa6f1	0.042883817
174	0x3d2703d1	0.040775124
175	0xbe991758	-0.29900622
176	0xbe38b5bb	-0.18038075
177	0xbdcc7e6a	-0.09985049
178	0xbdfb3d6d	-0.122675754
179	0xbe0af0b3	-0.13568382
180	0xbccbdfbd	-0.02488696
181	0x3e3f3413	0.18672208
182	0x3e67d300	0.22639084
183	0xbe362532	-0.17787626
184	0xbe81e261	-0.25368026
185	0xbecce691	-0.40019658
186	0x3d2e2864	0.04251899
187	0x3d9e72d4	0.077367455
188	0x3c62d503	0.013844731
189	0xbecf9796	-0.40545338
190	0xbeacc21c	-0.33741844
191	0x3de40209	0.11133201
192	0xbe211536	-0.15730748
193	0x3e2b45b2	0.16725805
194	0xbc19e3f5	-0.009392728
195	0xbe48c950	-0.19608045
196	0x3df93096	0.1216747
197	0xbd9dc267	-0.07703095
198	0x3c6e4fad	0.014545363
199	0xbd4370b0	-0.04771489
200	0x3d079743	0.03310324
201	0x3ea31340	0.31850624
202	0x3e3338fa	0.17502204
203	0x3d2aca36	0.04169675
204	0xbd977bd5	-0.07396666
205	0xbedf7a72	-0.43648106
206	0x3ce69885	0.028148899
207	0x3d9e5945	0.077318706
208	0x3e283597	0.16426693
209	0xbe339b85	-0.17539795
210	0xbe8b590b	-0.27216372
211	0xbe42e53c	-0.19032758
212	0xbdd3b087	-0.10336404
213	0x3d4b6c83	0.04966403
214	0xbeb692ae	-0.35658783
215	0xbea21e2e	-0.3166365
216	0xbe897012	-0.26843315
217	0xbdb3cd66	-0.08779411
218	0x3e299e99	0.16564406
219	0xbdb507f9	-0.08839411
220	0xbdabda15	-0.08391205
221	0x3d50622c	0.050874874
222	0xbd02de83	-0.031950485
223	0xbd66220b	-0.05618481
224	0xbe596db1	-0.2123325
225	0xbdb7391a	-0.08946438
226	0xbb84a8fd	-0.0040484653
227	0xbd9df1e9	-0.07712156
228	0xbd3e7445	-0.046497602
229	0xbe85a6b8	-0.2610376
230	0xbe207c69	-0.15672459
231	0xbe4f2bb4	-0.20231515
232	0xbd12c848	-0.035835534
233	0x3dd86d52	0.10567726
234	0xbe673bed	-0.22581454
235	0xbd088f5e	-0.03333985
236	0xbdca937a	-0.0989141
237	0x3d63ab90	0.055583537
238	0x3e206488	0.1566335
239	0xbe67ba90	-0.22629762
240	0x3da4c53c	0.08045432
241	0xbbdf8de0	-0.0068223327
242	0x3df69630	0.12040365
243	0x3d986aa2	0.074422136
244	0xbd5c803c	-0.05383323
245	0x3cd5284f	0.026020197
246	0xbde3331b	-0.11093732
247	0xbc8975dd	-0.016779834
248	0xbd72d266	-0.059282683
249	0x3daa3ab8	0.08311981
250	0xbe2780a6	-0.16357669
251	0x3cc108b1	0.023563715
252	0x3df5636c	0.11981854
253	0x3d3aba7e	0.04558801
254	0x3e1143d7	0.14186035
255	0xbda4f26a	-0.08054049

layer1.conv1.bias f4 [30]
0	0xbd4fe339	-0.050753806
1	0xbd2bfc5d	-0.04198872
2	0x3da13c45	0.078728236
3	0x3dff51ae	0.12466751
4	0xbd72a04a	-0.059234895
5	0xbd90b607	-0.07065969
6	0xbd752178	-0.05984637
7	0x3dd7df72	0.10540666
8	0xbd423b89	-0.04742006
9	0xbda18156	-0.07885997
10	0xbc974c50	-0.018469006
11	0x3cf31b70	0.02967617
12	0xbc9b42db	-0.018952778
13	0xbca987b4	-0.020694591
14	0xbdbe2ec7	-0.09286266
15	0x3dc91f7c	0.09820458
16	0x3b33dba5	0.002744415
17	0x3a706ab5	0.0009171174
18	0xbd82ad83	-0.06380751
19	0xbc890265	-0.016724775
20	0xbd462f3f	-0.0483849
21	0x3e0622ad	0.13099165
22	0x3da4d080	0.08047581
23	0x3db55d64	0.088557035
24	0xba631d2d	-0.00086637103
25	0xbd7c2be9	-0.061565313
26	0x390fc888	0.00013712246
27	0x3c986453	0.018602526
28	0xbc06ba9a	-0.0082232
29	0xbd136239	-0.035982344

layer1.bn1.weight f4 [30]
0	0x3f587aa0	0.8456211
1	0x3f595376	0.84892976
2	0x3f5edf70	0.8705969
3	0x3f8d6e27	1.1049241
4	0x3f841d2d	1.0321404
5	0x3f81c7cf	1.0139102
6	0x3f6adb6d	0.9174107
7	0x3f84c0ee	1.0371377
8	0x3f489858	0.7835746
9	0x3f745198	0.95437
10	0x3f5ab1cb	0.8542754
11	0x3f692175	0.91066676
12	0x3f7a5e54	0.97800183
13	0x3f8d650a	1.104646
14	0x3f447ce0	0.76753044
15	0x3f7149c7	0.942532
16	0x3f57cf25	0.8430045
17	0x3f3ec699	0.74521786
18	0x3f8b2688	1.0871134
19	0x3f7fd262	0.99930394
20	0x3f374177	0.71584266
21	0x3f8ed591	1.1158925
22	0x3f5495d9	0.8304115
23	0x3f5923b5	0.8482011
24	0x3fa89bb5	1.3172518
25	0x3f48ad7a	0.78389704
26	0x3f43b08d	0.7644127
27	0x3f50d7e3	0.81579417
28	0x3f8c9e58	1.0985823
29	0x3f8ffbfc	1.1248775

layer1.bn1.bias f4 [30]
0	0x3cf4f1f9	0.029900538
1	0xbdae10ee	-0.08499323
2	0xbde2c607	-0.11072927
3	0x3db10eb5	0.08645383
4	0xbe33bae4	-0.17551762
5	0x3e622099	0.22082748
6	0xbd69ba3e	-0.05706238
7	0xbc1d55e7	-0.009603
8	0xbe18fced	-0.14940234
9	0xbbd67520	-0.006544724
10	0x3d512f4f	0.051070508
11	0xba2128b5	-0.00061477284
12	0x3e5999b3	0.21250038
13	0x3d70302e	0.058639698
14	0x3dd35b92	0.103202
15	0x3cc02d7c	0.023459189
16	0x3e13c1d0	0.14429402
17	0xbe0b3601	-0.1359482
18	0x3d2558ed	0.04036801
19	0xbcb5298c	-0.022114538
20	0x3d94f17a	0.072726205
21	0xbe3aa1d3	-0.18225794
22	0xbd4df039	-0.050277922
23	0xbedc37bc	-0.43011272
24	0x3d1b2417	0.037876215
25	0xbd0262bd	-0.031832445
26	0xbccc81ff	-0.02496433
27	0xbd2dfbc7	-0.04247644
28	0x3dc2f5bd	0.09519527
29	0xbd982c47	-0.0743032

layer1.bn1.running_mean f4 [30]
0	0xbd5c142c	-0.053730175
1	0xbd52a90e	-0.051430754
2	0x3d9aae53	0.07552781
3	0x3df6a3f7	0.120429926
4	0xbd863198	-0.06552428
5	0xbd6d1e76	-0.057890378
6	0xbd832111	-0.06402791
7	0x3dcffc01	0.10155488
8	0xbd2de4bf	-0.042454477
9	0xbdbbd21f	-0.09170937
10	0xbceebbca	-0.02914228
11	0x3cd14504	0.025545605
12	0xbc534df1	-0.012897001
13	0xbcbef345	-0.02330936
14	0xbdcc4369	-0.09973795
15	0x3dc178d2	0.09446873
16	0xbba5c1c5	-0.0050584995
17	0xbbb010bf	-0.00537309
18	0xbd8e6864	-0.06953505
19	0xbce5f62c	-0.028071485
20	0xbd661432	-0.056171604
21	0x3e00b7ac	0.12570065
22	0x3d90d5f5	0.07072059
23	0x3dab6e80	0.083706856
24	0xbc31e2f3	-0.010857332
25	0xbd906843	-0.07051136
26	0xbbfb911f	-0.007677212
27	0x3c464e8d	0.012103689
28	0xbc871f9c	-0.016494565
29	0xbd32e9d9	-0.043680046

layer1.bn1.running_var f4 [30]
0	0x3f811bee	1.0086648
1	0x402c2437	2.6897104
2	0x3f9da8a0	1.2317085
3	0x4000e4c4	2.0139627
4	0x3f2f7286	0.68534124
5	0x3ffbb611	1.9664937
6	0x3fb32fcf	1.3998965
7	0x3e45dbce	0.1932213
8	0x3f9f2b05	1.2435004
9	0x4003f862	2.062035
10	0x3f9a037b	1.2032312
11	0x3f6b8f65	0.9201568
12	0x400f8072	2.2422147
13	0x406c9f01	3.6972048
14	0x3f3312d5	0.6995061
15	0x3eba2cc6	0.36362284
16	0x3f301ce8	0.6879411
17	0x3f97c404	1.1856694
18	0x3ec84504	0.39115155
19	0x3ff744fb	1.9317926
20	0x3f4b9055	0.7951711
21	0x3f80e413	1.0069603
22	0x3fb6a352	1.4268591
23	0x3f1991e5	0.5998824
24	0x3fe1fd39	1.7655402
25	0x3f638de4	0.8888838
26	0x3f8d6b26	1.1048324
27	0x3f0b3214	0.5437329
28	0x3f35d4fc	0.71028113
29	0x3f1ad7a2	0.6048528

conv1.weight f4 [30, 30, 5]
0	0xbded741b	-0.11594411
1	0xbe2f527b	-0.17121308
2	0xbe34245c	-0.17591995
3	0xbe8cde5c	-0.27513397
4	0x3c172a8a	0.009226451
5	0xbdb3fa4c	-0.08787975
6	0xbe2b5673	-0.16732197
7	0xbe2978f5	-0.16550048
8	0xbe296fc9	-0.16546549
9	0x3dbfe832	0.093704596
10	0x3dc66550	0.096872926
11	0xbe2eaed7	-0.17058884
12	0xbe85dd9d	-0.2614564
13	0xbde962dc	-0.11395809
14	0x3d662da9	0.05619589
15	0xbe39818a	-0.18115821
16	0xbdbc8fb2	-0.09207095
17	0x3d87ce90	0.066311955
18	0x3e7e07ef	0.24807714
19	0x3d007478	0.031361073
20	0x3b894756	0.004189412
21	0xbe001e45	-0.12511547
22	0xbe2066a9	-0.15664162
23	0xbe69e262	-0.22840264
24	0xbc7ecee1	-0.015552253
25	0xbdf40ab7	-0.11916106
26	0xbe685c93	-0.22691564
27	0xbe036e39	-0.12835015
28	0xbd9f8203	-0.0778847
29	0xbe27ee33	-0.1639946
30	0xbca2cd15	-0.019873181
31	0xbe890168	-0.26758885
32	0x3be5328a	0.00699455
33	0x3d317dae	0.043332748
34	0xbe0188ae	-0.12649795
35	0xbbdd3ba7	-0.006751496
36	0x3e80cdd8	0.25157046
37	0xbd9b058a	-0.07569416
38	0xbe65ac1b	-0.22428934
39	0xbda12f18	-0.078703105
40	0x3da68bb2	0.081321135
41	0x3ea0dfaa	0.31420642
42	0x3d50e3cc	0.050998494
43	0x3e46db07	0.1941949
44	0xbc9f7962	-0.01946706
45	0x3d8fe621	0.070263155
46	0x3e2b0dee	0.16704533
47	0xbd33d651	-0.04390556
48	0x3d6f7587	0.058461692
49	0xbe066e7b	-0.13128082
50	0x3e0145c4	0.1262427
51	0xbc9519b9	-0.018200742
52	0xbdf05bcb	-0.11736258
53	0x3e3077be	0.17233178
54	0x3d1152ab	0.03547923
55	0xbe0dbddc	-0.13841957
56	0x3bef92ac	0.007311186
57	0x3d1e1e81	0.03860331
58	0x3e0ae882	0.13565257
59	0xbc965b2e	-0.018354025
60	0xbd9d3e53	-0.07677903
61	0xbe300d0b	-0.17192475
62	0xbe08b704	-0.13351065
63	0xbe79b3d6	-0.24385008
64	0x3be8e7ec	0.0071077254
65	0x3d3dfc4a	0.04638318
66	0x3e1de9e8	0.1542126
67	0x3dc53ecf	0.096311204
68	0x3e594259	0.21216716
69	0x3d91c312	0.07117285
70	0xbd80a03e	-0.06280564
71	0x3d2c7002	0.042099006
72	0x3e0800c6	0.13281545
73	0x3dbbc23e	0.09167908
74	0xbd44f30a	-0.048083343
75	0x3d3fcc53	0.046825718
76	0xbdb2b1a1	-0.08725286
77	0xbe4dea9d	-0.20109029
78	0x3e3a41f0	0.18189216
79	0x3dde166e	0.10844122
80	0x3dd7891a	0.10524197
81	0xbdb3f1c2	-0.08786346
82	0xbcbe33ff	-0.023218153
83	0x3e6a2a37	0.22867666
84	0x3d067cb6	0.032833777
85	0xbe646543	-0.22304253
86	0x3c54751a	0.012967372
87	0x3d90feac	0.07079825
88	0xbd81a36a	-0.06329997
89	0xbdd20354	-0.10254541
90	0xbe25463c	-0.16140074
91	0x3d00ee30	0.031477153
92	0x3e5e4abb	0.21708195
93	0xbd75b5d4	-0.059987858
94	0xbe85555c	-0.26041687
95	0x3d6cf45e	0.057850234
96	0x3e1dedcc	0.15422744
97	0x3e2bad15	0.16765244
98	0x3dab0df1	0.083522685
99	0x3e103bdf	0.14085339
100	0xbcb990e9	-0.022652106
101	0x3d36b604	0.044607177
102	0xba05e850	-0.00051081646
103	0xbde98f1c	-0.11404249
104	0x3c3209e2	0.010866614
105	0x3d843665	0.064556874
106	0x3e76f7e5	0.24118002
107	0x3de8fae5	0.11375979
108	0xbd9ec2d5	-0.07752005
109	0xbdcd189d	-0.1001446
110	0x3e4dda85	0.2010289
111	0x3e02a414	0.12757903
112	0xbcb5353c	-0.02212011
113	0x3dee3b47	0.116324
114	0x3ddf49d4	0.109027535
115	0xbe76700e	-0.24066183
116	0x3d9f389f	0.077744715
117	0xbd753212	-0.059862204
118	0xbdcaecf4	-0.099084765
119	0xbd6cc3a1	-0.057803754
120	0x3e47e3f8	0.19520557
121	0x3e0714d8	0.13191545
122	0x3e83f4b0	0.2577262
123	0x3e34f09f	0.17669915
124	0xbe0bc27e	-0.13648412
125	0x3e3cffb7	0.18456922
126	0xbcd0085b	-0.02539461
127	0x3e108941	0.14114858
128	0x3c7b6350	0.015343502
129	0xbd90a315	-0.070623554
130	0x3d62b940	0.05535245
131	0xbb34278c	-0.0027489392
132	0x3c27e117	0.010246537
133	0x3d5012f8	0.05079934
134	0x3d9d50e2	0.07681443
135	0xbc049e87	-0.0080944365
136	0x3e2c52f6	0.16828522
137	0xbe2ef4c5	-0.1708556
138	0x3d7179fe	0.05895423
139	0x3d5b7be6	0.053584956
140	0x3dd581bb	0.10425135
141	0x3e8c4636	0.27397317
142	0x3d620d41	0.05518842
143	0xbe3e537d	-0.18586536
144	0xbd48b9cb	-0.04900531
145	0x3df3afbc	0.11898753
146	0x3ce00525	0.027346203
147	0xbde89635	-0.11356775
148	0xbe899017	-0.26867744
149	0x3e426be6	0.18986472
150	0xbe14f47c	-0.14546388
151	0xbe38d0b1	-0.1804836
152	0xbe3831a0	-0.1798768
153	0xbe8ca422	-0.27468973
154	0x3c9fb67f	0.0194962
155	0xbd9844fe	-0.07435034
156	0xbe1e6074	-0.15466481
157	0xbe03a8b7	-0.12857328
158	0xbe3b36fb	-0.18282692
159	0x3db39a01	0.08769608
160	0x3db867c3	0.09004166
161	0xbe1517e6	-0.14559898
162	0xbe869c45	-0.262911
163	0xbdf4c4e5	-0.11951617
164	0x3dc5e27e	0.096623406
165	0xbe4efe20	-0.20214128
166	0xbdc59196	-0.09646909
167	0x3dabc3c5	0.083869494
168	0x3e834aad	0.2564291
169	0x3d21bcc9	0.03948668
170	0x3c22dce6	0.009940362
171	0xbdf8dc73	-0.12151422
172	0xbe248fcf	-0.16070484
173	0xbe5481f4	-0.20752698
174	0x3bd67253	0.00654439
175	0xbddb6e15	-0.10714356
176	0xbe53c8c8	-0.2068206
177	0xbe05a9ea	-0.13053098
178	0xbd7e9a4b	-0.062158864
179	0xbe1d073d	-0.15334792
180	0xbc4edd49	-0.012626001
181	0xbe7f6446	-0.24940595
182	0x3ca761f0	0.020432442
183	0x3d6a3b01	0.057185177
184	0xbdcc6b01	-0.09981347
185	0xbbc6a488	-0.006062094
186	0x3e801174	0.25013316
187	0xbdc878e9	-0.09788687
188	0xbe6eb514	-0.23311263
189	0xbd964e09	-0.07339103
190	0x3db27f37	0.087156706
191	0x3eb2b4cf	0.3490357
192	0x3d2271bd	0.03965925
193	0x3e333a88	0.17502797
194	0xbd0e173e	-0.034690134
195	0x3d98ba98	0.07457465
196	0x3e1c2611	0.15248896
197	0xbd44c328	-0.048037678
198	0x3d89d781	0.06730557
199	0xbdf0c356	-0.117560074
200	0x3db596cb	0.08866652
201	0xbd44a657	-0.048010197
202	0xbdbd576e	-0.092451915
203	0x3e0dc89c	0.13846058
204	0x3d473d1f	0.048642274
205	0xbde00fc8	-0.1094051
206	0x3c17204d	0.00922401
207	0x3d822ba1	0.06355978
208	0x3e0c0813	0.13674955
209	0xbc8eb019	-0.017417954
210	0xbdad40ac	-0.08459601
211	0xbe30b53b	-0.17256634
212	0xbe060c5d	-0.13090654
213	0xbe8bc7f2	-0.27300984
214	0x3c1881e8	0.009308316
215	0x3d7c0460	0.06152761
216	0x3e0bbcc3	0.13646226
217	0x3d9a5c88	0.0753718
218	0x3e665258	0.22492349
219	0x3db39731	0.08769072
220	0xbd9e81b5	-0.077395834
221	0x3d054c3e	0.032543413
222	0x3dfe4c06	0.12416844
223	0x3dea6053	0.11444154
224	0xbdca9c54	-0.098930985
225	0x3d36f43d	0.044666518
226	0xbdeb6d1c	-0.1149542
227	0xbe659e22	-0.22423604
228	0x3e430aa1	0.19047023
229	0x3dd5c53e	0.104380116
230	0x3dc175a7	0.094462685
231	0xbdbf4ba9	-0.09340603
232	0xbcbeb5a8	-0.02327998
233	0x3e6ba25a	0.23011151
234	0x3d42463a	0.047430255
235	0xbe28f0d4	-0.16498119
236	0xbd0a571f	-0.03377449
237	0x3de44a63	0.11147001
238	0xbda084e7	-0.07837849
239	0xbe0b1c4c	-0.13585013
240	0xbe3614b4	-0.17781335
241	0x3d2803f2	0.041019388
242	0x3e346047	0.17614852
243	0xbd21ec63	-0.039532077
244	0xbe8b46e3	-0.2720252
245	0x3d870560	0.06592822
246	0x3e0b7b25	0.13621195
247	0x3e2e6df1	0.17034127
248	0x3d9e50c5	0.07730249
249	0x3e2793b3	0.16364937
250	0x3cdbcb8a	0.026830453
251	0x3d217b71	0.039424364
252	0xbc2e79d4	-0.010649163
253	0xbdec28f2	-0.11531247
254	0x3d03a942	0.03214384
255	0x3d58fa31	0.052972976

conv1.bias f4 [30]
0	0x3d109182	0.035295017
1	0x3d30bd06	0.043149017
2	0x3d4025bd	0.04691099
3	0x3c9cf1f6	0.019158345
4	0xbda85345	-0.082190074
5	0xbd898d4c	-0.06716403
6	0x3cf322df	0.029679714
7	0x3e0ad7dc	0.13558906
8	0x3d627838	0.05529043
9	0xbc14f0d1	-0.009090618
10	0xbdac09e6	-0.084003255
11	0x3c2c4758	0.010515057
12	0x3d9a7635	0.075420775
13	0xbcad20f5	-0.02113388
14	0x3cbe784a	0.023250718
15	0xbd947b96	-0.07250135
16	0x3da226f4	0.07917586
17	0xbbd6a18e	-0.0065500205
18	0x3d135317	0.035967913
19	0x3d84dc89	0.06487376
20	0x3d899527	0.06717902
21	0x3b7bb599	0.0038407801
22	0xbd5d2166	-0.05398693
23	0x3da4444c	0.08020839
24	0x3cf97190	0.030449659
25	0x3d181688	0.037130862
26	0xbd81712a	-0.063204125
27	0xbb523f13	-0.0032081052
28	0x3d60d9b5	0.05489512
29	0x3d2f057a	0.042729832

bn1.weight f4 [30]
0	0x3f8c54de	1.09634
1	0x3f8be120	1.0928078
2	0x3f8c66a2	1.0968821
3	0x3f87bc19	1.0604278
4	0x3f865a17	1.0496243
5	0x3f8612ca	1.0474484
6	0x3f861888	1.0476236
7	0x3f7de3b7	0.9917559
8	0x3f608666	0.87705076
9	0x3f67b57b	0.9051129
10	0x3f7019b8	0.93789244
11	0x3f57096e	0.83998764
12	0x3f5f48fd	0.87220746
13	0x3f4dfb69	0.80461746
14	0x3f4e09fb	0.8048398
15	0x3f420068	0.7578187
16	0x3f475372	0.778617
17	0x3f454240	0.77054214
18	0x3f33b482	0.7019731
19	0x3f56e196	0.83937967
20	0x3f4339bd	0.76259977
21	0x3f543043	0.8288614
22	0x3fac6511	1.3468343
23	0x3f5f3bc6	0.8720058
24	0x3f57dd49	0.8432203
25	0x3f539ff9	0.82665974
26	0x3f3a5c2b	0.7279689
27	0x3f2676f7	0.65025276
28	0x3f55a087	0.8344807
29	0x3f5a540c	0.85284495

bn1.bias f4 [30]
0	0x3d672e89	0.056440864
1	0x3d6983b0	0.057010353
2	0x3d94bce9	0.07262594
3	0x3da2bf67	0.07946663
4	0x3dbafdf4	0.09130469
5	0x3dcb5734	0.09928742
6	0x3dc084a2	0.09400298
7	0x3dc6afe7	0.097015195
8	0x3e1a37a0	0.15060282
9	0x3e0f64a3	0.14003234
10	0x3df79af6	0.12090103
11	0x3e0f09e9	0.13968624
12	0x3e0ebebd	0.13939948
13	0x3e1a53cd	0.1507103
14	0x3e068b8a	0.13139167
15	0x3e0fa61f	0.14028214
16	0x3e1173bc	0.14204305
17	0x3e20fd52	0.15721634
18	0x3e2846b7	0.16433226
19	0x3d97e0e9	0.07415945
20	0x3e084344	0.1330691
21	0x3d8f9c7b	0.07012268
22	0x3e70a5d0	0.23500752
23	0x3db49e90	0.08819306
24	0x3dddcefa	0.10830493
25	0x3e0669db	0.13126318
26	0x3e1d73c5	0.15376194
27	0x3e1d356d	0.15352412
28	0x3d6bc5d9	0.05756173
29	0x3da29e46	0.079403445

bn1.running_mean f4 [30]
0	0xbdd067d1	-0.101760514
1	0xbd911df7	-0.070857935
2	0xbd02ec6f	-0.031963762
3	0xbd9b4561	-0.07581592
4	0xbde196ee	-0.11015116
5	0xbe0494ad	-0.1294734
6	0xbddd4e14	-0.10805908
7	0x3dab5954	0.08366647
8	0x3e07482e	0.13211128
9	0x3dd7f656	0.10545032
10	0xbda3c58b	-0.07996663
11	0xbd1a7c2d	-0.03771608
12	0x3c6c70d1	0.014431194
13	0xbd726678	-0.059179753
14	0xbdd30f6c	-0.10305676
15	0xbdd47f88	-0.10375887
16	0x3d7f3c5b	0.06231342
17	0xbd200589	-0.03906778
18	0xbd649503	-0.05580617
19	0x3bfcb5bf	0.0077120955
20	0x3c95183f	0.018200038
21	0xbd3f5acb	-0.046717446
22	0x3e4e0119	0.20117606
23	0x3bbf50ed	0.0058385045
24	0xbd9e04c1	-0.077157505
25	0xbe81d7ad	-0.2535986
26	0xbe67d946	-0.22641477
27	0xbda32b30	-0.07967222
28	0xbe141a41	-0.1446314
29	0xbe25593c	-0.16147321

bn1.running_var f4 [30]
0	0x3f7eb667	0.99497074
1	0x3f6c154e	0.9222001
2	0x3f5af0b6	0.85523546
3	0x3f5c5e13	0.86081046
4	0x3f54c629	0.8311487
5	0x3f610bea	0.87908804
6	0x3f6f8f91	0.9357844
7	0x3f4203bf	0.75786966
8	0x3f4fcbe7	0.81170505
9	0x3f49c7e8	0.7882066
10	0x3f705d33	0.9389221
11	0x3f82f796	1.0231807
12	0x3f8899fa	1.067199
13	0x3f8a6509	1.0812083
14	0x3fa0d064	1.2563596
15	0x3f82f109	1.0229808
16	0x3f8d138f	1.1021594
17	0x3f99c512	1.2013266
18	0x3f64d0c4	0.8938105
19	0x3f965b38	1.1746588
20	0x3fbc30ab	1.4702352
21	0x3faf07ce	1.3674257
22	0x3f194afd	0.5988005
23	0x3ff82ff3	1.9389633
24	0x3fee2eef	1.8608073
25	0x400861ba	2.1309648
26	0x40098fd8	2.1494045
27	0x4001b94e	2.026935
28	0x3ffe7c06	1.9881599
29	0x3fe5af7b	1.7944177

dense1.dense.weight f4 [96, 512]
0	0x3eb73c33	0.35788116
1	0x3dc94d43	0.0982919
2	0xbc5391bd	-0.012913165
3	0xbe854e69	-0.26036385
4	0x3dd068e8	0.10176259
5	0x3e40a2e7	0.18812142
6	0x3da5346c	0.08066639
7	0x3e60172f	0.21883844
8	0x3e544f11	0.20733286
9	0x3d0fc436	0.03509923
10	0xbe016fa0	-0.12640238
11	0x3ec9e08e	0.39429134
12	0xbdf92be8	-0.121665776
13	0xbd38316c	-0.044969007
14	0x3e3d5656	0.18489966
15	0x3df75cb7	0.12078231
16	0x3e3592bb	0.17731754
17	0xbdf487b9	-0.119399495
18	0xbdcf21aa	-0.10113843
19	0xbdd127c2	-0.10212661
20	0xbdabc100	-0.08386421
21	0xbe1955fc	-0.14974207
22	0xbd4b59d6	-0.04964622
23	0xbdb2930a	-0.08719452
24	0xbd3760e1	-0.044770125
25	0x3e4ff48a	0.20308128
26	0x3b50a172	0.003183451
27	0xbd37ca2a	-0.044870533
28	0x3e752ec9	0.23943628
29	0x3ec54267	0.38527223
30	0x3defed24	0.11715153
31	0xbdf1edb4	-0.118129164
32	0x3bcfd7c4	0.00634286
33	0x3c6b30b5	0.014354874
34	0x3e9a8a8d	0.3018383
35	0x3edb02ff	0.42775723
36	0x3d4d2169	0.05008069
37	0xbcb93b10	-0.022611171
38	0x3c488cb5	0.012240578
39	0x3e819a17	0.25312874
40	0x3e4848fd	0.19559093
41	0xbd29da89	-0.041468177
42	0xbddd193d	-0.107958294
43	0xbe117fa0	-0.14208841
44	0x3da336a6	0.07969408
45	0x3d154998	0.036447138
46	0x3d432f68	0.047652632
47	0xbc77ec23	-0.015131983
48	0xbd699ee8	-0.05703631
49	0xbe3bfd56	-0.18358359
50	0xbe00762d	-0.1254508
51	0x3dd86471	0.10566033
52	0xbd5ea96f	-0.054360803
53	0x3d3a8d73	0.045545053
54	0x3dc41cdf	0.09575819
55	0x3d2358c5	0.03987958
56	0xbd70d326	-0.058795117
57	0xbe0700c5	-0.13183887
58	0xbe12bb93	-0.14329366
59	0xbed144af	-0.40872714
60	0xbe5ac9bd	-0.2136602
61	0x3c6b152e	0.014348311
62	0x3e848672	0.25883824
63	0x3e89c0ef	0.2690501
64	0xbd530532	-0.051518627
65	0x3c471aee	0.012152417
66	0xbe5947ba	-0.21218768
67	0x3d7fa83e	0.062416308
68	0xbdb836b4	-0.08994809
69	0xbd543074	-0.05180402
70	0x3d9739a2	0.073840395
71	0x3e99d64e	0.30046314
72	0xbcefdbcb	-0.02927961
73	0x3d445570	0.047933042
74	0x3d0c203b	0.034210425
75	0xbd651fd2	-0.05593855
76	0xbde05a49	-0.109547205
77	0x3e144064	0.14477688
78	0x3e4f9a53	0.20273714
79	0x3d8aadb1	0.0677141
80	0xbe8b8126	-0.2724697
81	0x3d0cd3a3	0.03438152
82	0x3d6aa869	0.057289515
83	0x3e06f6fd	0.13180156
84	0xbea1a749	-0.3157294
85	0x3e2810e1	0.16412689
86	0x3e325fd1	0.17419364
87	0xbd53a3f7	-0.05167004
88	0xbe503316	-0.20331988
89	0xbe112cc0	-0.14177227
90	0x3e06a233	0.13147812
91	0x3e334ce3	0.17509799
92	0x3daff65f	0.085919134
93	0xbe1bec17	-0.1522678
94	0x3df4f351	0.119604714
95	0x3d3b5852	0.045738526
96	0xbd5fd62d	-0.054647613
97	0x3c730148	0.014831848
98	0xbe79e088	-0.24402058
99	0xbe176294	-0.14783698
100	0x3e5d2483	0.2159596
101	0x3d90da3c	0.07072875
102	0x3df15b27	0.11784964
103	0x3da1fdd3	0.07909741
104	0xbd89ec11	-0.06734479
105	0x3d6aa64d	0.057287503
106	0x3df3a995	0.118975796
107	0x3db4f2f7	0.08835404
108	0xbe78128c	-0.24225825
109	0xbe61ecf8	-0.22063053
110	0x3c9ced7d	0.019156212
111	0x3d7febb7	0.062480655
112	0x3da057e5	0.078292646
113	0xbe2b3d29	-0.1672255
114	0xbd5c63bd	-0.053806055
115	0xbaf75c0c	-0.0018872037
116	0x3e017acd	0.12644501
117	0xbc88526e	-0.016640868
118	0x3e074206	0.1320878
119	0x3d7d1210	0.061784804
120	0xbd284f4f	-0.04109126
121	0xbdd47316	-0.103735134
122	0xbe34c239	-0.17652215
123	0x3d54f015	0.051986773
124	0xbd04269a	-0.032263376
125	0x3d414861	0.047188167
126	0xbdaf4a9a	-0.08559151
127	0x3e3b4416	0.18287691
128	0xbed25b98	-0.41085505
129	0xbed85c81	-0.42258075
130	0x3d9fd671	0.07804573
131	0xbe218e32	-0.157769
132	0xbebcde01	-0.36888126
133	0x3df592f2	0.11990918
134	0x3d9b12be	0.07571934
135	0x3ec79f23	0.389886
136	0xbcac166b	-0.021006783
137	0x3dbb1ab1	0.0913595
138	0xbd20c1b7	-0.03924724
139	0xbe057154	-0.13031512
140	0x3d87240b	0.065986715
141	0x3d3f27e8	0.046668917
142	0xbdca39f8	-0.09874338
143	0xbe40de4d	-0.18834801
144	0xbea7dea4	-0.3278705
145	0xbe81cb14	-0.2535025
146	0x3df75101	0.12075997
147	0x3e96930d	0.29409066
148	0x3e5f1cc9	0.21788324
149	0x3e1f7279	0.15571012
150	0xbd3e47f4	-0.04645534
151	0xbd40eeea	-0.047102846
152	0x3c3f55cc	0.01167817
153	0xbc67f7d2	-0.014158206
154	0x3d8ded54	0.06930032
155	0x3e68f6a3	0.22750334
156	0x3dbccd99	0.09218902
157	0x3e2dd74d	0.16976662
158	0x3d80076d	0.06251416
159	0xbd8e4c92	-0.069481984
160	0xbae67178	-0.0017581424
161	0x3d0124a1	0.031529073
162	0x3e3921be	0.18079278
163	0xbd37abac	-0.044841453
164	0x3cb2370c	0.021754764
165	0xbcc0887b	-0.023502579
166	0x3de5a08e	0.11212264
167	0x3e0bd722	0.13656285
168	0xbe26f4cb	-0.16304319
169	0x3c635ad9	0.01387664
170	0xbbff3271	-0.0077879955
171	0x3beafd4c	0.0071713086
172	0xbc7132e6	-0.014721608
173	0xbda4cb13	-0.08046546
174	0xbd7e6b78	-0.06211421
175	0xbc988a10	-0.01862052
176	0x3e307c1a	0.17234841
177	0xbdd32c2e	-0.10311161
178	0xbe2897eb	-0.16464202
179	0x3e330b2b	0.17484729
180	0xbdcd56b0	-0.100263
181	0xbd75596c	-0.059899732
182	0xbc158736	-0.009126475
183	0xbc5648a3	-0.013078841
184	0x3d270908	0.040780097
185	0xbe9829ba	-0.29719335
186	0xbe2b9118	-0.16754568
187	0x3d827ce4	0.06371477
188	0xbc92a090	-0.017898828
189	0xbcdf8080	-0.027282953
190	0x3d72dcee	0.059292726
191	0x3de9d740	0.11418009
192	0x3db8364a	0.0899473
193	0xbe3c0d34	-0.18364412
194	0xbe1a5291	-0.15070559
195	0xbd930a95	-0.07179753
196	0xbd5cdf6c	-0.05392401
197	0xbcd07542	-0.025446538
198	0xbe2ef4c4	-0.17085558
199	0xbd6b52f5	-0.05745216
200	0x3d885ef1	0.06658734
201	0xbdb06ca9	-0.08614475
202	0xbe1448c4	-0.14480883
203	0xbcb7a076	-0.02241538
204	0xbd96490c	-0.07338151
205	0xbdd27050	-0.10275328
206	0xbdd5c93a	-0.104387715
207	0xbc5d83e7	-0.0135202175
208	0x3d327e3d	0.04357742
209	0xbc9ff91e	-0.019527968
210	0xbdd6ac2a	-0.104820564
211	0xbd5ecdaa	-0.054395355
212	0xbdffa1b5	-0.12482015
213	0x3c2fc430	0.010727927
214	0x3e0460d8	0.12927568
215	0x3c08b761	0.008344502
216	0x3bad791b	0.005293978
217	0xbca34938	-0.019932374
218	0xbdb43dbb	-0.08800837
219	0xbd1059a6	-0.035241745
220	0x3c4f39bb	0.012648041
221	0x3ad49791	0.0016219487
222	0xbb8ce17d	-0.0042993412
223	0xbe3231a7	-0.17401753
224	0xbc2dfeb5	-0.010619809
225	0xbe23f055	-0.16009648
226	0xbeb5d031	-0.355104
227	0xbdb67dbd	-0.089107014
228	0xbe01fe0f	-0.12694572
229	0x3d8a7719	0.06760997
230	0xbc178c83	-0.009249809
231	0x3cd4b16b	0.025963506
232	0x3d2e1b23	0.04250635
233	0x3ddf0820	0.108902216
234	0x3d99e6a9	0.07514698
235	0x3babd357	0.0052436995
236	0x3db2d48a	0.08731945
237	0xbdca39db	-0.09874316
238	0xbdb6e7e1	-0.08930946
239	0xbe5f7170	-0.21820617
240	0xbe1edfc8	-0.15515053
241	0xbdab1c0f	-0.08354961
242	0xbd776d19	-0.060406778
243	0x3e36dd76	0.17857918
244	0x3cf7ac2d	0.030233467
245	0xbcf9dbef	-0.03050038
246	0x3e873b7a	0.26412565
247	0xbe6283e7	-0.22120629
248	0x3daa7db4	0.08324757
249	0xbc7c2067	-0.015388585
250	0x3d975a1d	0.073902346
251	0xbe583544	-0.21114069
252	0xbcc060f8	-0.023483738
253	0x3d3c8104	0.046021476
254	0xbe164c27	-0.14677487
255	0xbe6034d3	-0.21895151

dense1.dense.bias f4 [96]
0	0x3dc166f4	0.09443465
1	0x3ddb4a98	0.10707587
2	0x3d73f940	0.059563875
3	0x3dc8bf6d	0.098021366
4	0x3d82a713	0.06379523
5	0x3dc32884	0.09529212
6	0x3d8ad78d	0.06779394
7	0x3db8da51	0.090260155
8	0x3e19d509	0.15022673
9	0x3db1fbdc	0.086906165
10	0x3e15593b	0.1458482
11	0x3d94233f	0.07233285
12	0x3de0fc75	0.10985652
13	0x3dc2fab1	0.09520472
14	0x3db6d335	0.08927003
15	0x3d4af2f6	0.04954811
16	0x3cac240b	0.02101328
17	0x3ddc62e3	0.10761049
18	0x3dca2586	0.09870438
19	0x3da3bec8	0.07995373
20	0x3e092a67	0.13395081
21	0x3d9e1221	0.077183016
22	0xbcbba2b2	-0.022904728
23	0x3cb23428	0.021753386
24	0x3d5b5650	0.05354911
25	0x3d824bf6	0.06362145
26	0x3d785811	0.06063086
27	0x3e1524d9	0.14564838
28	0x3e1ea6e4	0.15493351
29	0x3dbac1d6	0.091190025
30	0x3e158ea7	0.14605199
31	0x3da75c09	0.08171851
32	0x3ddcf073	0.107880495
33	0x3e06a6f5	0.13149627
34	0x3e24cab3	0.16092949
35	0x3daf6bfd	0.08565519
36	0x3e413d68	0.18871081
37	0x3dc2f113	0.095186375
38	0x3e0a2e53	0.13494234
39	0x3e05225b	0.13001387
40	0xbeab699b	-0.33479008
41	0x3db13161	0.086519964
42	0x3e284659	0.16433086
43	0x3e25a97c	0.16177934
44	0x3cd36104	0.025803097
45	0x3dd9a38a	0.10626896
46	0x3d924bed	0.07143388
47	0x3da2b16d	0.079439975
48	0x3e0afb9a	0.13572541
49	0x3dcdebcb	0.100547396
50	0x3d9c8608	0.07642752
51	0x3d824960	0.063616514
52	0x3db2271a	0.08698864
53	0x3dd31bad	0.10308013
54	0x3e2fe836	0.17178425
55	0x3e1d9d19	0.15391959
56	0xbc919cf7	-0.017775042
57	0x3dfe2880	0.124100685
58	0x3dd5f23c	0.10446593
59	0x3e0b8d2c	0.13628072
60	0x3dde4a44	0.10854009
61	0x3dc38290	0.09546387
62	0x3de970e6	0.11398487
63	0x3e1fa514	0.15590316
64	0x3cd53fe6	0.026031446
65	0x3d395c40	0.045253992
66	0x3debbd16	0.11510675
67	0x3dcf4059	0.10119695
68	0x3dd719a4	0.105029374
69	0x3e00e32f	0.12586664
70	0x3defe245	0.11713079
71	0x3d9afd52	0.07567848
72	0x3e0270e5	0.12738378
73	0x3e3d699f	0.18497322
74	0x3e3f6fd9	0.1869501
75	0x3e267897	0.16256939
76	0x3dce45b8	0.100718915
77	0x3e07d567	0.13265
78	0x3dccda80	0.10002613
79	0x3e0759b4	0.13217813
80	0x3d2d4c60	0.042309165
81	0xbbf9855e	-0.0076147756
82	0x3ccbe448	0.024889126
83	0x3d7bfb49	0.06151894
84	0x3e361081	0.17779733
85	0x3dc71abe	0.097218975
86	0x3df8dea1	0.12151838
87	0x3d93f086	0.072236106
88	0x3d94e068	0.072693646
89	0x3d2a186b	0.041527193
90	0x3d6c06b7	0.05762359
91	0x3cd7635a	0.026292492
92	0x3dd00f92	0.1015922
93	0x3dc8c49c	0.09803125
94	0x3de026db	0.10944911
95	0x3dee1a32	0.1162609

dense1.batch_norm1.weight f4 [96]
0	0x3f6971b5	0.9118913
1	0x3f6d9677	0.92807716
2	0x3f439d23	0.76411647
3	0x3f700681	0.93759924
4	0x3f744ac5	0.9542659
5	0x3f59d73f	0.85094064
6	0x3f5973ab	0.8494212
7	0x3f5c0f21	0.85960585
8	0x3f6e943f	0.93194956
9	0x3f68a4b3	0.9087631
10	0x3f5bd1ba	0.8586689
11	0x3f514461	0.8174496
12	0x3f425226	0.759066
13	0x3f6cca68	0.9249635
14	0x3f599301	0.84989935
15	0x3f5aac06	0.85418737
16	0x3f5347a3	0.82531184
17	0x3f6593bc	0.8967855
18	0x3f700c3f	0.93768686
19	0x3f802567	1.0011414
20	0x3f403faa	0.75097144
21	0x3f51f79b	0.8201844
22	0x3f549b25	0.8304923
23	0x3f674687	0.9034199
24	0x3f46ecdc	0.7770517
25	0x3f634097	0.8877043
26	0x3f5f1541	0.87141806
27	0x3f472950	0.7779741
28	0x3f76a6e9	0.96348435
29	0x3f5b4f72	0.856681
30	0x3f6afe22	0.91794026
31	0x3f6c8c63	0.92401713
32	0x3f5e37ba	0.8680378
33	0x3f38e20e	0.7221993
34	0x3f4227a2	0.75841725
35	0x3f5bb2c7	0.8581967
36	0x3f5329af	0.8248548
37	0x3f5c416f	0.86037344
38	0x3f72c819	0.94836575
39	0x3f6ab8ca	0.91688216
40	0x3f9b3106	1.2124336
41	0x3f68d441	0.90948874
42	0x3f60af82	0.87767804
43	0x3f75b6e1	0.95982176
44	0x3f46160c	0.7737739
45	0x3f60a91d	0.87758046
46	0x3f528a42	0.82242215
47	0x3f563c3d	0.83685666
48	0x3f66c5d5	0.9014562
49	0x3f500477	0.8125681
50	0x3f707691	0.9393092
51	0x3f88aafc	1.067718
52	0x3f6e36f4	0.930526
53	0x3f747cbf	0.9550285
54	0x3f7cbe08	0.98727465
55	0x3f578bcb	0.8419768
56	0x3f605886	0.87635076
57	0x3f703945	0.93837386
58	0x3f6d6afc	0.9274137
59	0x3f6435b6	0.89144456
60	0x3f5eba4f	0.87003034
61	0x3f70296a	0.9381319
62	0x3f7d34c6	0.9890865
63	0x3f6c7e34	0.9238007
64	0x3f5a0dd0	0.85177326
65	0x3f2d8a4b	0.67789143
66	0x3f5f5f43	0.8725473
67	0x3f726c9e	0.94696987
68	0x3f5bbbb7	0.85833305
69	0x3f76321d	0.96170217
70	0x3f6f99e2	0.9359418
71	0x3f663222	0.89920247
72	0x3f6c18fd	0.9222563
73	0x3f704329	0.9385248
74	0x3f7b4c35	0.9816316
75	0x3f661300	0.8987274
76	0x3f69eb4d	0.91374665
77	0x3f6b86f0	0.92002773
78	0x3f6f84bd	0.9356192
79	0x3f66ff52	0.9023334
80	0x3f63ae3c	0.88937736
81	0x3f2e7bc8	0.68157625
82	0x3f538f09	0.8264013
83	0x3f5f34ac	0.87189746
84	0x3f85b1b3	1.0444854
85	0x3f670b3c	0.9025152
86	0x3f6439f4	0.8915093
87	0x3f402add	0.75065404
88	0x3f57da0f	0.84317106
89	0x3f64f255	0.8943227
90	0x3f6062cc	0.8765075
91	0x3f4545f4	0.77059865
92	0x3f81298c	1.0090804
93	0x3f5a8f29	0.85374695
94	0x3f5fe005	0.874512
95	0x3f5e86b5	0.86924297

dense1.batch_norm1.bias f4 [96]
0	0xbf25727b	-0.6462781
1	0xbf22ce5d	-0.63596135
2	0xbf1f538f	-0.62236875
3	0xbf26af6c	-0.6511142
4	0xbf23b735	-0.63951427
5	0xbf1e9bad	-0.6195629
6	0xbe95e465	-0.29275814
7	0xbedd7962	-0.4325667
8	0xbf23bfeb	-0.6396472
9	0xbf040947	-0.51576656
10	0xbf3b91a6	-0.73269117
11	0xbf0b9791	-0.54528147
12	0xbee68a5a	-0.4502743
13	0xbf0e6793	-0.5562679
14	0xbeea54e2	-0.45767885
15	0xbed677ab	-0.41888174
16	0xbf2080a2	-0.6269628
17	0xbed19428	-0.40933347
18	0xbf172959	-0.59047467
19	0xbf2d55a3	-0.67708796
20	0xbf0ec5f2	-0.5577079
21	0xbebf1d9f	-0.37327287
22	0xbdc1cfcf	-0.094634645
23	0xbebf9eea	-0.3742593
24	0xbed54acc	-0.41658628
25	0xbf07836e	-0.5293492
26	0xbed37a18	-0.41304088
27	0xbf1984e1	-0.5996838
28	0xbf2f4d08	-0.68476915
29	0xbe73a70b	-0.2379419
30	0xbf1181d7	-0.56838745
31	0xbed85134	-0.42249453
32	0xbf20b236	-0.6277193
33	0xbed025d7	-0.4065387
34	0xbf2b4468	-0.66901255
35	0xbf0be6d5	-0.54649097
36	0xbecdc97f	-0.40192792
37	0xbeedb720	-0.46428776
38	0xbf2317cd	-0.6370819
39	0xbf26f552	-0.6521808
40	0xbfb3494b	-1.4006742
41	0xbf15b71b	-0.5848252
42	0xbf33c152	-0.7021686
43	0xbed7dcdf	-0.421607
44	0xbe34a8ea	-0.1764256
45	0xbf25b251	-0.64725214
46	0xbe9a1a60	-0.30098248
47	0xbecbe6c6	-0.39824504
48	0xbf3f20cc	-0.7465942
49	0xbea6bac1	-0.32564357
50	0xbf0c71d4	-0.5486119
51	0xbfc916d2	-1.5710089
52	0xbf1c70bf	-0.61109537
53	0xbf00315b	-0.5007531
54	0xbf22d814	-0.6361096
55	0xbed25281	-0.4107857
56	0xbf297aed	-0.66203195
57	0xbf36b695	-0.7137235
58	0xbf1a62b2	-0.6030685
59	0xbf0b64c8	-0.54450655
60	0xbecc020b	-0.3984531
61	0xbf1417c3	-0.5784876
62	0xbf4cabfb	-0.7994992
63	0xbed2f9fe	-0.41206354
64	0xbf2073ad	-0.6267651
65	0xbe010ed0	-0.12603307
66	0xbed3c8c0	-0.41364098
67	0xbf28421a	-0.6572586
68	0xbef5cd07	-0.48007986
69	0xbf256738	-0.64610624
70	0xbf23dafb	-0.6400601
71	0xbf2249e5	-0.63394004
72	0xbf1ff5b8	-0.6248431
73	0xbf28fe37	-0.660129
74	0xbf171e54	-0.5903065
75	0xbed55f2e	-0.4167418
76	0xbf246dc3	-0.64229983
77	0xbef8daaa	-0.48604327
78	0xbeece907	-0.46271536
79	0xbf2180d3	-0.63087195
80	0xbefee821	-0.49786475
81	0xbe92ba23	-0.28657636
82	0xbef6e723	-0.48223218
83	0xbf3f5657	-0.7474112
84	0xbe8f4a39	-0.27986315
85	0xbeeb1680	-0.45915604
86	0xbf198b1a	-0.5997788
87	0xbe466509	-0.1937448
88	0xbe83c4cd	-0.25736085
89	0xbf176f63	-0.5915434
90	0xbf1c1911	-0.6097575
91	0xbf289b82	-0.65862286
92	0xbeca92c3	-0.39565095
93	0xbf283730	-0.6570921
94	0xbf11034e	-0.5664567
95	0xbf249639	-0.6429172

dense1.batch_norm1.running_mean f4 [96]
0	0xbf95ae15	-1.1693751
1	0xc004a701	-2.072693
2	0xbf5b0ad1	-0.8556338
3	0xbff40df9	-1.9066764
4	0xc000b433	-2.0109985
5	0xbd594a26	-0.05304923
6	0xbfc2eb11	-1.5227987
7	0xc01506cf	-2.3285406
8	0xbfee623b	-1.8623728
9	0xbfd07224	-1.6284833
10	0xbfb972e8	-1.4488192
11	0xbff101ab	-1.8828634
12	0xbfa7b063	-1.3100704
13	0xc007bcc7	-2.120897
14	0xc00138a7	-2.0190828
15	0xbfadd130	-1.3579464
16	0xbfb9f6db	-1.4528459
17	0xbfd8d94c	-1.6941314
18	0xbfb63670	-1.4235363
19	0xbfe501a7	-1.7891129
20	0xbfc0a2d7	-1.5049695
21	0xbf0b6f49	-0.5446668
22	0xbfcdb92b	-1.6072134
23	0xbfb873e1	-1.4410363
24	0xbfb2bacb	-1.3963255
25	0xbf897a2b	-1.0740408
26	0xc018f382	-2.3898625
27	0xc0227d33	-2.5388916
28	0xc00c1f71	-2.189419
29	0xc0171989	-2.3609335
30	0xbf15c2d3	-0.58500403
31	0xbf8e1587	-1.110032
32	0xbfcd5f49	-1.6044704
33	0xbfa5619c	-1.2920413
34	0xbf05d4a7	-0.52277607
35	0xc0245b8b	-2.5680873
36	0xbfc4d29f	-1.5376776
37	0xbfa87af9	-1.3162528
38	0xbf8d17aa	-1.1022847
39	0xc00b3152	-2.1748853
40	0xbe8c26cc	-0.2737335
41	0xbf623ea5	-0.8837684
42	0xc014f030	-2.32716
43	0xbf363036	-0.71167314
44	0xc0183d28	-2.3787327
45	0xc01220ac	-2.2832441
46	0xbf9a32e8	-1.2046785
47	0xbf902afe	-1.126312
48	0xc0105197	-2.2549798
49	0xbf13a02c	-0.5766628
50	0xbfa57426	-1.2926071
51	0xbefa6c9b	-0.48910984
52	0xc00871cb	-2.1319454
53	0xbfe821f7	-1.8135365
54	0xbfeab4b3	-1.8336395
55	0xbfba39c2	-1.4548876
56	0xbe8b877e	-0.2725181
57	0xbfa86547	-1.3155907
58	0xbfaced9e	-1.3510015
59	0xbfc19505	-1.5123602
60	0xc0391318	-2.8917904
61	0xbff475f4	-1.9098496
62	0xbfcef5fe	-1.6168821
63	0xbfc60f4c	-1.5473418
64	0xc009d208	-2.1534443
65	0xc0750a83	-3.8287666
66	0xbfa71224	-1.3052411
67	0xc00d4c82	-2.2077947
68	0xc002caf9	-2.0436385
69	0xbfc2252a	-1.5167592
70	0xbfdec858	-1.740489
71	0xc0211c86	-2.517366
72	0xbfa9b1b9	-1.3257362
73	0xbfe6e04a	-1.8037198
74	0xbfa2a8a4	-1.2707715
75	0xc004f9b2	-2.0777402
76	0xbfc9b334	-1.5757813
77	0xbfc055a7	-1.5026139
78	0xc020c92f	-2.5122793
79	0xbfa5e2b3	-1.2959808
80	0xbfa3fb77	-1.2811116
81	0xbf234619	-0.63778836
82	0xbfcff13b	-1.6245493
83	0xbfa5d22d	-1.2954766
84	0x3f3e9253	0.74442023
85	0xbfa6680f	-1.3000506
86	0xbffb0d02	-1.9613345
87	0xc00339a1	-2.0503924
88	0xc0112a93	-2.2682235
89	0xbfb8010c	-1.437532
90	0xbfb30668	-1.398633
91	0xbffa3a1c	-1.9548984
92	0x3e1aabcf	0.15104602
93	0xbfefdeda	-1.8739884
94	0xbfc43fbc	-1.533195
95	0xc0097986	-2.1480422

dense1.batch_norm1.running_var f4 [96]
0	0x400893de	2.134025
1	0x40016004	2.0214853
2	0x3f712b84	0.94207025
3	0x3fdcc24e	1.7246797
4	0x4000d155	2.0127766
5	0x3f7488dc	0.9552133
6	0x4049928e	3.14957
7	0x4048e7f4	3.1391573
8	0x3ff2af14	1.895968
9	0x3fed0485	1.8517004
10	0x3f52f638	0.8240695
11	0x400865a4	2.1312037
12	0x3f9ff734	1.2497315
13	0x40104dce	2.2547488
14	0x402ad646	2.6693282
15	0x3fbf1d90	1.4930897
16	0x3fd405fd	1.6564327
17	0x4001e0f6	2.0293555
18	0x3fc7b707	1.560273
19	0x3ff387fc	1.9025874
20	0x3f30d1f9	0.6907039
21	0x3fb93a28	1.4470873
22	0x40ad17ad	5.40914
23	0x4033936b	2.8058727
24	0x3fbcad63	1.4740413
25	0x40086797	2.1313226
26	0x401f4fa5	2.489236
27	0x3fc86595	1.5656
28	0x3ffa4e06	1.9555061
29	0x40560c04	3.3444834
30	0x3fd54de8	1.66644
31	0x401192b7	2.2745798
32	0x3fde4207	1.73639
33	0x3faa0e61	1.3285638
34	0x3f43490e	0.7628335
35	0x4010bf71	2.2616847
36	0x3fc6c57a	1.5529015
37	0x3ffa2528	1.9542589
38	0x3fc01899	1.5007507
39	0x3fafce5c	1.3734851
40	0x400c40f9	2.1914656
41	0x3fd103fa	1.6329339
42	0x3fc11aff	1.5086364
43	0x404ba036	3.1816535
44	0x40e0113e	7.0021048
45	0x3fc9bdb9	1.5761024
46	0x40311026	2.7666106
47	0x3ff36267	1.9014405
48	0x3fb3b58b	1.4039778
49	0x3ffcbcf1	1.974516
50	0x4005a466	2.088159
51	0x4069611c	3.646552
52	0x3ff162cd	1.8858277
53	0x4012663b	2.2874897
54	0x3fdb98e8	1.7156038
55	0x3fc49b3d	1.5359875
56	0x3f9f56c6	1.2448356
57	0x3fcaaa21	1.5833169
58	0x3feb1e8f	1.8368701
59	0x3fed4b44	1.8538594
60	0x40365975	2.84921
61	0x3ff1d5b2	1.889334
62	0x3fea6de3	1.8314785
63	0x4032c8a9	2.7934973
64	0x3fbf919b	1.496631
65	0x41275500	10.458252
66	0x3ff8441d	1.9395787
67	0x3fcf8c03	1.6214603
68	0x40018f8f	2.0243871
69	0x3fa0a3ef	1.2550029
70	0x3fcf8d53	1.6215004
71	0x400e282e	2.2212024
72	0x3fa3dc56	1.2801616
73	0x3fdefa93	1.7420219
74	0x4012fdde	2.2967448
75	0x402e2741	2.7211459
76	0x3fd7294e	1.680948
77	0x3fbc6447	1.4718102
78	0x401ef8c9	2.4839346
79	0x3fa84e1a	1.3148835
80	0x40123d88	2.2850056
81	0x3fdf1192	1.7427237
82	0x40225ab1	2.5367854
83	0x3f9c5858	1.221446
84	0x408c1523	4.37758
85	0x401a7da8	2.4139194
86	0x3fb943b1	1.4473783
87	0x4091472f	4.5399394
88	0x4047fbd3	3.1247451
89	0x3fec04f5	1.8439013
90	0x3f93c3ba	1.1544106
91	0x3fb1a955	1.3879801
92	0x3f9e8656	1.2384746
93	0x3fb7b5b1	1.4352323
94	0x3fcdc2fd	1.6075131
95	0x3ff3a205	1.903382

dense2.dense.weight f4 [16, 96]
0	0x3e11e349	0.14246859
1	0xbda9feba	-0.08300538
2	0x3dcdae00	0.100429535
3	0xbd68c946	-0.056832574
4	0xbe91940a	-0.28433257
5	0xbe337f63	-0.17529063
6	0xbdf2b2ce	-0.118505105
7	0x3bbd84f3	0.005783671
8	0x3c11b810	0.008893982
9	0xbe1b75db	-0.15181677
10	0x3ddb1e94	0.10699192
11	0xbd6aa2d6	-0.0572842
12	0xbd12f68e	-0.035879664
13	0xbe399ba8	-0.18125784
14	0xbdd38e8f	-0.10329925
15	0xbd8c812b	-0.06860574
16	0x3df367d6	0.118850395
17	0x3dd2a694	0.102856785
18	0x3df31054	0.11868349
19	0xbe1069a6	-0.14102802
20	0xbb1344e7	-0.002247149
21	0x3dce83e6	0.100837514
22	0x3c6a2f0f	0.014293446
23	0xbe6d6b06	-0.23185357
24	0xbd497494	-0.049183443
25	0xbe9c0290	-0.30470705
26	0x3e01a7b9	0.12661637
27	0xbe32cc79	-0.17460813
28	0x3dcc159c	0.09965059
29	0xbe1a0d35	-0.150441
30	0x3e1d2ae9	0.153484
31	0xbde152e7	-0.110021405
32	0xbe011566	-0.12605819
33	0xbd19775b	-0.037467342
34	0x3c64aafe	0.013956783
35	0xbda6e7a1	-0.081496485
36	0xbcdfa81f	-0.027301846
37	0x3dc167b4	0.09443608
38	0xbe3fd104	-0.18732077
39	0xbc3b0b8f	-0.01141633
40	0xbc48bbae	-0.012251778
41	0xbe77d8cb	-0.24203794
42	0xbdacb297	-0.08432501
43	0xbd571c78	-0.052517384
44	0xbdbfe9c3	-0.093707584
45	0xbe5726c9	-0.21010889
46	0xbdaf60e9	-0.08563406
47	0xbe33138c	-0.17487925
48	0xbd88adf6	-0.066738054
49	0x3d8d5b09	0.06902129
50	0xbe1019bd	-0.14072318
51	0xbb597ad5	-0.0033184786
52	0x3d92f7a5	0.07176141
53	0x3ddef26f	0.10886084
54	0xbe16d957	-0.14731346
55	0x3b61b42c	0.0034439666
56	0xbdc4c477	-0.09607785
57	0xbe174b9f	-0.14774941
58	0xbd9ad990	-0.07561028
59	0x3da4c9f4	0.08046332
60	0x3dd6b6bf	0.10484075
61	0x3e664c66	0.22490081
62	0x3de8b631	0.11362875
63	0xbc182a95	-0.009287496
64	0xbe31df9e	-0.1737046
65	0x3d78c97a	0.060739018
66	0xbe2c589c	-0.16830677
67	0xbd373a6f	-0.04473346
68	0x3e21f3c0	0.1581564
69	0x3e456a09	0.1927873
70	0x3db825f1	0.08991612
71	0x3d5d92dc	0.054095134
72	0xbdf3ce64	-0.119046
73	0xbe5c6bde	-0.21525523
74	0x3df9f4d3	0.122049
75	0xbe29ca51	-0.16581084
76	0x3e0f156d	0.13973017
77	0xbda2aa50	-0.07942641
78	0x3dee3888	0.11631876
79	0xbdc39f7c	-0.095519036
80	0xbe30fec3	-0.17284684
81	0x3cd3a9a4	0.025837727
82	0xbe9b8a4c	-0.3037895
83	0x3d25a641	0.040441755
84	0xbb5a8906	-0.0033345832
85	0xbdf78d3d	-0.12087486
86	0xbe864e18	-0.26231456
87	0x3d7bde7f	0.061491486
88	0x3deed038	0.11660808
89	0xbdc45269	-0.09586031
90	0xbec2ead9	-0.380698
91	0x3d36a36a	0.044589438
92	0xb7b1ece8	-2.1210362e-05
93	0x3d2dd801	0.042442326
94	0xbeb2ea5c	-0.34944427
95	0x3d51d64d	0.051229764
96	0xbe3ba031	-0.18322827
97	0x3dc5cf26	0.09658651
98	0xbe1d95e9	-0.15389217
99	0xbdbce5ce	-0.09223519
100	0x3e11ed27	0.14250623
101	0x3d94a097	0.072571926
102	0xbe162af9	-0.1466483
103	0xbe4e95b2	-0.20174292
104	0xbd86fecb	-0.06591567
105	0xbd973186	-0.07382493
106	0x3dc64cb5	0.096825995
107	0xbe337cbb	-0.1752805
108	0xbd28baba	-0.0411937
109	0x3dd1636a	0.1022404
110	0xbddbd61b	-0.10734197
111	0x3b8e5389	0.0043434543
112	0x3e09471f	0.13406037
113	0xbdb42375	-0.087958254
114	0xbe58dcdc	-0.21178001
115	0x3e2343ff	0.15943907
116	0x3d63cf09	0.055617366
117	0x3bf0da2e	0.007350228
118	0xbc9462cd	-0.018113518
119	0x3da5fa97	0.08104437
120	0xbc33f2dc	-0.010983195
121	0x3e048fd4	0.12945491
122	0xbe5fa22e	-0.2183921
123	0xbdfe63dd	-0.12421391
124	0xbe73c746	-0.23806486
125	0x3dc8be35	0.09801904
126	0xbdef8d5d	-0.11696885
127	0xbd56b9dd	-0.052423347
128	0xbe5446bb	-0.20730107
129	0x3c726f10	0.014796987
130	0xbc5467fc	-0.012964245
131	0xbdeb43ad	-0.114875175
132	0xbe11ee82	-0.1425114
133	0x3e403786	0.1877118
134	0xbe3fc642	-0.18727973
135	0x3e4b4a67	0.19852601
136	0xbd002dee	-0.031293802
137	0x3dd01668	0.10160524
138	0xbd9e6a33	-0.077351
139	0xbe0b196f	-0.13583921
140	0xbdfecede	-0.124418005
141	0xbe3e5336	-0.1858643
142	0xbd5e1ef0	-0.054228723
143	0xbe212a39	-0.15738763
144	0x3def4656	0.116833374
145	0xbdd486de	-0.103772864
146	0x3db6d754	0.08927789
147	0xbc2fa1d6	-0.010719737
148	0x3ca3a0bd	0.019974107
149	0x3e151929	0.14560379
150	0xbe2f9e8b	-0.17150323
151	0xbd059796	-0.032615267
152	0xbf05e7ab	-0.5230662
153	0xbd897752	-0.06712212
154	0xbdaf8660	-0.08570552
155	0xbd257abb	-0.040400248
156	0x3dcad162	0.09903218
157	0xbe0f3fca	-0.13989177
158	0xbe2baacd	-0.16764374
159	0x3d7b1fc7	0.061309602
160	0xbe158d4d	-0.14604683
161	0x3d8d798e	0.0690795
162	0x3e05d1fb	0.13068382
163	0x3b07df7d	0.0020732575
164	0xbde39002	-0.11111452
165	0xbe2a562d	-0.16634436
166	0x3dc04354	0.09387842
167	0xbd5fda6c	-0.054651663
168	0x3da1b5b0	0.07895982
169	0xbe0b041f	-0.13575791
170	0xbdad76eb	-0.084699474
171	0xbe3eae9d	-0.18621297
172	0x3d57450b	0.05255608
173	0x3dd7d63b	0.10538908
174	0x3e03a1a7	0.12854634
175	0x3cb08be7	0.021551086
176	0xbdb8d1c7	-0.09024387
177	0x3c28d03e	0.010303555
178	0xbc958b7f	-0.018254993
179	0x3e2b4dc2	0.16728881
180	0xbc5fea92	-0.013666766
181	0x3e560610	0.2090075
182	0xbe07e62e	-0.132714
183	0x3d8f21e8	0.06988889
184	0xbe0b2228	-0.13587248
185	0xbdcaa810	-0.09895337
186	0x3cd91d28	0.02650316
187	0xbd8f10b7	-0.0698561
188	0xbcd868c5	-0.026417146
189	0x3d0be1d3	0.03415091
190	0x3d7de8cc	0.06198959
191	0xbe4d860d	-0.20070668
192	0xbe4e7fc3	-0.20165925
193	0xbe8f1bdf	-0.2795095
194	0x3d8522e1	0.06500793
195	0xbe929490	-0.2862897
196	0x3d683e9e	0.05670034
197	0x3c3bb907	0.011457688
198	0x3c22a621	0.0099273035
199	0x3de22eae	0.1104406
200	0xbde50d02	-0.11184122
201	0xbdc95dfc	-0.09832379
202	0xbe25bcbb	-0.16185276
203	0xbdb1a838	-0.08674663
204	0xbd431506	-0.04762747
205	0x3c28b95d	0.0102981
206	0x3e536a11	0.2064593
207	0x3e381c07	0.17979442
208	0x3d970f3d	0.07375953
209	0xbde8e37f	-0.113715164
210	0xbe9ef016	-0.31042546
211	0xbe5df91f	-0.21677063
212	0xbd5cb64a	-0.053884782
213	0xbd6320d8	-0.055451244
214	0xbc38c552	-0.011277514
215	0x3da5bd3a	0.08092733
216	0xbe0bf1cc	-0.13666457
217	0xbd9241ba	-0.071414426
218	0xbe183ae7	-0.1486622
219	0xbd0d8007	-0.034545925
220	0xbeb48747	-0.35259458
221	0xbcdc33b2	-0.026880119
222	0x3e0f5bca	0.13999858
223	0x3dbedfb0	0.09320009
224	0xbd60215b	-0.05471931
225	0xbd4f8754	-0.05066617
226	0xbe04ee74	-0.12981588
227	0xbd58b74b	-0.052909177
228	0xbd846b78	-0.064658105
229	0xbe77cc97	-0.24199139
230	0xbe167783	-0.14694028
231	0xbc742b7d	-0.014902947
232	0xbcc87689	-0.024470584
233	0xbe6054e6	-0.21907386
234	0xbcc3316f	-0.023827283
235	0x3e06a674	0.13149434
236	0xbcfa0edc	-0.030524664
237	0x3e1fbe47	0.15599929
238	0x3e0847dd	0.13308664
239	0xbde22c9d	-0.110436656
240	0xbb672eaf	-0.0035275628
241	0xbe30729b	-0.17231219
242	0xbe88817a	-0.26661283
243	0xbd2bf972	-0.041985936
244	0xbe8956ab	-0.26823935
245	0x3dbe5724	0.092939645
246	0xbe699c73	-0.22813587
247	0xbd0c7966	-0.034295462
248	0x3bc15469	0.005899955
249	0xbdb2fb44	-0.08739331
250	0xbbe64d01	-0.0070282225
251	0x3df5f709	0.12010009
252	0xbd19dd8f	-0.03756481
253	0xba84ecc3	-0.0010141361
254	0x3dd1d5f7	0.10245889
255	0xbe1254f7	-0.14290224

dense2.dense.bias f4 [16]
0	0x3e7987aa	0.24368158
1	0x3e97f3e6	0.29678267
2	0x3e1c38d8	0.15256059
3	0x3f20a16f	0.6274633
4	0x3e48b936	0.19601902
5	0x3e2c6de2	0.16838792
6	0x3f090cc1	0.53535086
7	0x3e5f9782	0.2183514
8	0x3ea01d32	0.31272274
9	0x3e4ffeb9	0.20312013
10	0x3e8db8d5	0.27680078
11	0x3ebb0ae6	0.36531752
12	0x3e833204	0.25624096
13	0x3fdb9bcb	1.7156919
14	0x3c518ab3	0.012789416
15	0xc115cf00	-9.363037

dense2.batch_norm1.weight f4 [16]
0	0x401a3824	2.4096766
1	0x40365ce5	2.8494198
2	0x400015c6	2.001329
3	0x40432807	3.049318
4	0x3fe4fa3e	1.7888868
5	0x3fce98ec	1.6140418
6	0x40414570	3.0198631
7	0x400f7a7c	2.2418509
8	0x400d971d	2.2123482
9	0x3fd50702	1.6642764
10	0x4001e3ca	2.0295281
11	0x400cf616	2.20252
12	0x4009d45f	2.153587
13	0x407b4150	3.9258614
14	0x3f15bdf2	0.5849296
15	0x4101e2a9	8.117837

dense2.batch_norm1.bias f4 [16]
0	0xbfc59461	-1.5435907
1	0xbfd40a35	-1.6565615
2	0xbfb5d99e	-1.4207036
3	0xbf8739d6	-1.0564525
4	0xbf88a829	-1.0676318
5	0xbf76a80b	-0.96350163
6	0xbf921ae4	-1.1414456
7	0xbfc39795	-1.5280634
8	0xbf91c0a6	-1.1386917
9	0xbf66e809	-0.9019781
10	0xbf8f5857	-1.1198834
11	0xbf9a810f	-1.2070636
12	0xbfaf4071	-1.3691541
13	0xbf5bde88	-0.8588643
14	0xbf035004	-0.5129397
15	0x4071916a	3.7745004

dense2.batch_norm1.running_mean f4 [16]
0	0x3d975aa6	0.07390337
1	0x3e1bde6b	0.15221564
2	0xbcb298d4	-0.02180139
3	0x3f03259b	0.51229256
4	0x3d0cec42	0.034405
5	0x3c779442	0.015111031
6	0x3eba901d	0.36438075
7	0x3d9ea1e8	0.07745725
8	0x3e159135	0.14606173
9	0x3d696461	0.056980494
10	0x3ddcf620	0.10789132
11	0x3e5085db	0.20363562
12	0x3db73e52	0.089474335
13	0x3fcca04c	1.5986419
14	0xbe195f51	-0.14977767
15	0xc11d56e1	-9.833711

dense2.batch_norm1.running_var f4 [16]
0	0x3e1051c2	0.14093688
1	0x3e16a1f2	0.14710215
2	0x3ddd3789	0.10801608
3	0x3e474dc0	0.19463253
4	0x3e008c05	0.12553413
5	0x3da92bcb	0.08260306
6	0x3ea84524	0.3286525
7	0x3e082d45	0.13298519
8	0x3e10a1c1	0.14124204
9	0x3dd6c5d1	0.10486949
10	0x3e052630	0.13002849
11	0x3e123cf5	0.14281066
12	0x3e0415a9	0.12898888
13	0x3ea36904	0.31916058
14	0x3e7ff087	0.24994098
15	0x3f427cf5	0.7597192
