classification/baseline/13_ncRNA_RNAFM/rna_type_checkpoint.pt (torch, 34976 bytes, 2 tensors)

fc.weight f4 [13, 640]
000000 b2 5e cc be 6f 30 cf be bc 76 de 3e cb 00 fa 3e
       -0.39915997 -0.4046664 0.43449962 0.4882873
000010 e4 d0 1d bf e1 78 0e 3f 5b 4c 48 3e e0 31 d0 be
       -0.61646867 0.55653197 0.19560377 -0.40663052
000020 ca 9a 75 be c2 df b5 be 76 d8 8d be 1d c5 14 bd
       -0.23984829 -0.35522276 -0.2770421 -0.036320794
000030 28 28 86 3b fa 07 aa be b2 94 cf be 6e db 25 3d
       0.0040941425 -0.3320921 -0.40543133 0.040492468
000040 0a e0 27 3f 75 2c 48 bd 23 e5 9f be 60 b2 5e be
       0.6557623 -0.048870523 -0.31229505 -0.21747732
000050 da ca 4e 3f 05 fd ac 3e b4 dd d1 3e e3 ff 06 be
       0.80778277 0.3378679 0.4098946 -0.1318355
000060 b8 8e d3 be 58 c6 ac be 03 d5 30 3f ed b6 c8 be
       -0.41319823 -0.33745074 0.6907503 -0.3920206
000070 6c 3d 5b 3e a2 67 6a 3d 71 50 ea be aa 83 01 bf
       0.2141015 0.05722774 -0.45764497 -0.5059153
000080 23 96 5a be c4 a9 6e 3e 03 9f a2 3e 25 98 d8 bd
       -0.21346335 0.23306948 0.3176194 -0.10575894
000090 94 52 ac 3e df fb 8c 3d 2f 8a 28 3f fe 50 99 be
       0.33656752 0.06883978 0.6583585 -0.29944605
0000a0 f8 b2 5e be fc 8d 47 bc e8 7c 9c be b6 3f cf bc
       -0.21747959 -0.012179848 -0.30564046 -0.025298934
0000b0 77 b7 74 be 64 3e ae be bf 75 23 be 28 39 da 3e
       -0.23898111 -0.34031975 -0.15962885 0.42621732
0000c0 97 b3 f5 be 79 4b 2c bf c5 5d c6 be 60 c3 83 be
       -0.4798858 -0.6730266 -0.38743415 -0.25734997
0000d0 1e e2 14 3e de be dd be 56 25 d2 be ee 25 23 bf
       0.14539382 -0.43309683 -0.4104411 -0.6372975
0000e0 2b a0 e8 3e 90 0b ab 3e a6 79 bf b8 d3 2d 85 be
       0.45434698 0.3340726 -9.1302485e-05 -0.26011524
0000f0 eb cc 00 3f 17 f2 b1 3e 7a 60 9a be 30 8a c9 3e
       0.5031268 0.34755012 -0.3015173 0.3936324
000100 98 3a 22 3f 02 db ef bc 51 5b 0c 3f cd 7e 4d 3f
       0.63370657 -0.029279236 0.5482684 0.8027161
000110 b9 59 d1 3e f5 ff cb be 71 8e b7 3e 67 4c e4 3d
       0.40888765 -0.39843717 0.35850862 0.11147385
000120 80 b6 11 be 99 ea 46 bd 0a 50 fb 3e 9a 46 63 be
       -0.14229774 -0.048563574 0.49084502 -0.22194901
000130 23 38 17 3f 99 be bd 3e f3 14 e8 3e b1 aa de 3e
       0.5907003 0.37059477 0.45328483 0.43489602
000140 ef 8f 32 be 10 24 08 be 8a fb 98 3e 6a 34 7f 3e
       -0.17437719 -0.13295007 0.2987941 0.24922338
000150 5d 3c c7 be e1 1a 52 be 3a 12 48 bf 26 82 0e be
       -0.3891324 -0.20518066 -0.7815281 -0.13916835
000160 eb 5b ed be fb e6 fa bb 70 0a 81 3e 81 e1 06 3e
       -0.4635919 -0.0076569295 0.25203276 0.1317196
000170 e0 fc 7b 3d 95 1f 1d bf d4 56 89 3e 9a 63 1c bf
       0.061520457 -0.61376315 0.26824057 -0.6108948
000180 4e f8 45 3e 62 2f d4 3e 67 f5 fd bd 8f 94 dd 3e
       0.19333002 0.414424 -0.124003224 0.43277404
000190 4d 1f 42 3f 53 ae a2 3d 1a 49 fd be 72 5c 0c be
       0.7582901 0.07943406 -0.49469835 -0.1370714
0001a0 a3 38 29 3f cd 90 3f be 87 bd bc 3e 7e 61 05 3d
       0.66102046 -0.18707581 0.36863348 0.03256368
0001b0 ee d3 01 bf 12 5c d6 3e 2e bf ff be 16 ec 18 3f
       -0.50714004 0.4186712 -0.49950546 0.5973524
0001c0 eb 07 25 3e c4 1c 09 be 05 66 41 3e 65 00 a0 3e
       0.16116302 -0.1338988 0.18886574 0.312503
0001d0 4d 3b 66 be 1a 11 2f be f9 59 30 3e 8c 98 00 bf
       -0.22483559 -0.17096367 0.17221822 -0.5023277
0001e0 e7 d7 26 3f d7 31 1d be b2 7c 34 3f 2b 1b 80 be
       0.6517319 -0.15351044 0.7050277 -0.25020728
0001f0 6d d5 61 3e 7a 41 9c bc e4 97 23 3e 0c 07 80 3d
       0.22054072 -0.01907419 0.1597591 0.06251344
000200 df 84 39 3f 88 e9 22 3e d4 53 a3 3e 09 49 0c 3f
       0.7246837 0.15909398 0.31899893 0.5479894
000210 7b 24 16 bb 7e df 64 bd ab 47 be 3e 46 60 6e be
       -0.0022909928 -0.0558772 0.37164053 -0.23278913
000220 59 39 45 bf 41 e1 12 3f 71 54 34 be 57 b7 86 3e
       -0.7704063 0.5737496 -0.17610337 0.26311752
000230 ca 41 d4 be 45 be 0e bf a7 95 1f 3f 94 df ee be
       -0.41456443 -0.5575908 0.62337726 -0.46654952
000240 99 51 3d be e8 d2 73 3d 17 f2 21 be 57 e0 0e bf
       -0.18488158 0.059527308 -0.15815006 -0.55811065
000250 3c 62 d3 be 16 81 6a be 80 cf 88 be ab 24 d2 3d
       -0.41285884 -0.22900805 -0.2672081 0.102609
000260 c6 c5 c3 be 1b e6 e0 3e 31 98 96 bd 44 92 27 3f
       -0.38236827 0.43925557 -0.07353247 0.6545756
000270 7d 9c a1 3c 0b ea 0c 3e 27 93 6f be e5 4f ea bd
       0.01972794 0.13761155 -0.23395978 -0.1144102
000280 b3 78 78 3c 96 e0 16 3f a6 38 1e 3e c7 7e 08 bf
       0.015165496 0.5893644 0.15451297 -0.53318447
000290 e0 d8 c6 3d 93 d7 31 be ca 5a cb be 1d df 23 be
       0.097093344 -0.17367391 -0.39717704 -0.1600308
0002a0 a8 70 85 3d 1f 76 1d 3f 98 b7 16 bf a0 c3 c7 3e
       0.06515628 0.61508363 -0.5887389 0.39016438
0002b0 e7 21 28 3e 8d d0 0c 3f 6e 80 94 be f5 64 6f be
       0.16419183 0.55005723 -0.29004234 -0.23378356
0002c0 ba 1c 95 3e ff a4 26 3f 9f 49 72 be 58 19 74 3d
       0.2912348 0.65095514 -0.23660897 0.059594482
0002d0 e2 1a b2 be 5d e6 84 3e f1 be 15 3e d4 19 9f 3c
       -0.34786135 0.25957003 0.1462362 0.019421495
0002e0 a4 90 be 3e 0b aa e2 3d 3d af 82 be 70 eb e2 3d
       0.37219727 0.11067589 -0.2552432 0.110800624
0002f0 5e 6e f8 be 0e 9e cc 3e b9 b4 3e be ac a1 bd be
       -0.48521703 0.39964336 -0.18623628 -0.37037408
000300 67 90 d4 bd ca b2 0a bf 76 40 fb 3e 98 fb 4b bf
       -0.10379105 -0.5417906 0.49072617 -0.79680777
000310 cc 65 e6 bd b8 ed a6 3e 6f c1 dc 3e 0b 5e 89 be
       -0.11249885 0.3260324 0.43116328 -0.26829562
000320 6b 06 25 bf c3 e1 8f bd 28 fc 02 bf 7f c3 67 be
       -0.6446292 -0.070254825 -0.5116601 -0.2263317
000330 ca cc 71 3d 50 d9 94 be fb 10 44 3e df 59 92 3e
       0.059033193 -0.29072046 0.19147103 0.2858419
000340 69 0a b0 be aa 39 b2 be 90 5a 28 3d ad c2 47 3f
       -0.34382942 -0.3480962 0.041101992 0.78031427
000350 34 72 ae be a8 c6 cd be 83 55 66 3e ab d2 67 be
       -0.34071505 -0.40190625 0.22493558 -0.22638957
000360 1c d4 ae 3e 7a 62 92 be 32 c8 1d be 4a 04 f5 3e
       0.34146202 -0.28590757 -0.154084 0.47854835
000370 62 fd c8 be 2a 58 31 3f 9d d7 1a 3e f0 27 f8 be
       -0.39255816 0.6927515 0.15121312 -0.4846797
000380 cb 46 c3 3e d8 80 0a bf 44 c5 40 3f 63 d4 bd 3e
       0.38139948 -0.5410285 0.75301003 0.370761
000390 3a fd c1 3d c2 24 a5 be 1a 1e 6a 3e 95 85 ba 3c
       0.09472127 -0.32254606 0.22863045 0.022768775
0003a0 14 c8 eb 3e cd 9b 17 bf f0 66 0f 3f 87 94 05 3f
       0.46051085 -0.5922211 0.56016445 0.5217976
0003b0 2c b7 16 bf e0 e4 2c 3f ec 71 ba 3e fe 56 f7 be
       -0.5887325 0.67536736 0.3641504 -0.48308557
0003c0 ad 2d 39 bd 9b c2 b4 3e 82 15 85 be bf e6 20 be
       -0.045209575 0.35304722 -0.25992972 -0.15713023
0003d0 fa 71 0a 3e 59 f4 c3 be 1c 5d 02 3e 41 e1 22 3f
       0.13520041 -0.3827236 0.12730831 0.6362496
0003e0 4c 5a 82 3d 9a aa 71 be 53 8c 97 be b7 45 40 be
       0.06364879 -0.23600236 -0.29599246 -0.18776594
0003f0 0d cf 4b 3f b7 00 7d 3f 2a 27 0d bf 38 c3 d7 bd
       0.7961281 0.98829216 -0.55137885 -0.10535282

fc.bias f4 [13]
000000 30 41 78 3e 99 20 50 3e 69 e8 b0 3e 01 4e a6 be
       0.24243617 0.20324935 0.34552315 -0.32481387
000010 2a 49 32 3d ce 9e 6e 3d 5f b7 ce be eb 06 72 3e
       0.043526806 0.058256917 -0.40374276 0.23635451
000020 d0 fe b5 be ec 2d fe 3c c1 fc 02 3c be 01 fa be
       -0.3554597 0.031027757 0.007994832 -0.48829454
000030 f1 b2 5d 3e
       0.21650292
