classification/model_rnafm/14_final/rna_type_checkpoint.pt (torch, 252098 bytes, 24 tensors)

layer1.conv1.weight f4 [30, 30, 5]
000000 88 58 ef bd 4c 83 be 3c 96 b6 16 3d c8 98 0b 3d
       -0.11686808 0.023255967 0.03679522 0.03408125
000010 88 ef bd 3d ac d0 21 be a9 ca 37 3c d4 68 06 3d
       0.092742026 -0.15802258 0.011217752 0.032814816
000020 d4 aa 6f bd e3 33 31 3d 53 53 a8 bc 42 c9 8d 3d
       -0.058512524 0.043262374 -0.020547545 0.069231525
000030 64 c9 49 3d ff c6 29 bc 31 0f 00 3d 2b 82 fa 3b
       0.049264327 -0.010362386 0.031264488 0.0076449118
000040 5a 95 f5 bc c0 13 db 3c 5d 0a 9a bd 93 c3 80 3d
       -0.029978443 0.026742816 -0.07521508 0.06287303
000050 cd 5a 0d 3d 3d 64 22 bd 11 5d 0c bd 98 bb 5f 3d
       0.034510422 -0.039646376 -0.034268443 0.054622263
000060 9a a1 6c bc e2 ea cd bc 50 b2 22 bd 9b dc 8c 3d
       -0.014442826 -0.025136415 -0.039720833 0.06878015
000070 03 27 bf 3d 25 2f 47 3d bb fa b2 3d 2c 95 6b bc
       0.09333613 0.048628945 0.08739229 -0.014378827
000080 f9 cd f7 bb 6d f7 11 bc ba fa f3 bd cc 2b e8 3c
       -0.0075623957 -0.008909089 -0.11913057 0.028341196
000090 8a 80 81 bd 8d 1f ed 3c 6b 74 bb 3d 10 b9 8e bd
       -0.06323345 0.028945709 0.09153064 -0.069688916
0000a0 44 e6 6e bd b0 eb c2 bd 7f a4 27 bd 7a 94 0d 3d
       -0.058325067 -0.0951761 -0.04092836 0.034565426
0000b0 30 86 c2 bd e9 48 12 3c 82 8b 66 bc f9 56 91 3d
       -0.094982505 0.008928516 -0.014071347 0.07096667
0000c0 30 dd b9 3d 75 80 be bd 43 1d 55 3c 94 5b d3 bc
       0.09075391 -0.09301845 0.013007465 -0.025800504
0000d0 8d d2 d2 bc 2d 16 ad bc 98 a6 96 bd 90 19 4b 3d
       -0.025735164 -0.021128738 -0.07355994 0.049584925
0000e0 7c a5 36 bd 13 e5 ce 3d 09 27 c7 3c 0c 0e 8a bd
       -0.044591412 0.10102286 0.024310606 -0.067409605
0000f0 53 51 4a bc 93 d9 42 bd e2 95 17 3c 6f fa 8f 3d
       -0.012348491 -0.047570776 0.009252043 0.07030188
000100 d0 d7 22 bd db b4 98 bd 54 74 d4 bd 2d 7e e9 3d
       -0.039756596 -0.074563704 -0.1037375 0.11401019
000110 02 0e 32 bc 37 6c cd bd 67 c9 b0 bc 20 ee 07 be
       -0.010867598 -0.10030406 -0.021580411 -0.13274431
000120 6a f4 80 bd 7a 59 6e bd 78 21 a4 bd e8 ce 33 bd
       -0.06296618 -0.0581908 -0.08014196 -0.043898493
000130 d0 47 75 bd cd c1 31 bd 50 32 4e 3c 12 69 f5 3c
       -0.05988294 -0.043397713 0.012585238 0.029957328
000140 b3 8e ef bc 70 c7 c9 bc 67 59 99 3d 59 72 22 3d
       -0.029242849 -0.024631232 0.07487755 0.03965983
000150 7a b4 93 bc 54 f9 88 bc 08 99 ba bd cf b2 c9 bc
       -0.018030394 -0.016720451 -0.0911122 -0.024621395
000160 57 84 4c 3d 3d 26 f7 bc b1 b1 3e bd 02 46 fd bd
       0.049930897 -0.0301696 -0.04655618 -0.123668686
000170 fa da 91 3d a6 31 ac bd f6 85 08 3e 2b db 02 3d
       0.071218446 -0.08407907 0.13332352 0.031947296
000180 dc 0f 31 be 92 c5 99 3d 2d 07 22 3d 1d a7 0e bd
       -0.17291206 0.07508387 0.039557625 -0.03482734
000190 e9 40 98 bd b1 da 09 bd 06 ab 8a 3c 11 da 75 bc
       -0.07434256 -0.033655826 0.016927253 -0.015005604
0001a0 15 27 e1 bc 35 f6 90 3c c4 79 04 bd 45 06 d4 3c
       -0.027484456 0.017695526 -0.032342687 0.025881896
0001b0 ae 2c 63 bd 9e a1 9a bb de 20 7e 3c 03 56 84 bd
       -0.05546253 -0.0047189733 0.015510766 -0.06461718
0001c0 8d ec e2 bc 5e 21 77 3d 73 e6 38 bd 21 94 95 bd
       -0.027700687 0.060334556 -0.04514165 -0.07303644
0001d0 5b 10 bf bc 62 a9 39 3d 40 f7 34 bc 9a 09 01 3d
       -0.023323229 0.04532755 -0.011045277 0.031503297
0001e0 11 26 b0 bd 0f 9d a2 bd 92 a9 85 bd 21 0e 09 3d
       -0.086010106 -0.07940113 -0.065264836 0.03346074
0001f0 4f dd 27 3d f4 09 d0 3c 86 29 8f bc 4b a6 99 3c
       0.04098254 0.025395371 -0.017475855 0.018756052
000200 62 da cb 3c fb 19 a9 bd 3b 9a 44 3d ac a9 83 bc
       0.024884406 -0.082569085 0.047998648 -0.016072117
000210 a6 e2 09 bd e6 89 81 3c 60 3c 9b bd fa d5 13 bd
       -0.033663414 0.015812825 -0.07579875 -0.036092736
000220 03 65 49 bc 99 e1 a5 bd 09 c9 cd bd 1b 55 09 bd
       -0.0122921495 -0.0809967 -0.1004811 -0.03352843
000230 9e 75 a2 3d e0 b9 c8 3c 5c 82 02 bc 8e 4b c1 bd
       0.0793259 0.024502695 -0.00796565 -0.09438239
000240 51 22 c7 bd 3d ee c1 bc 13 d6 5b bd 3a 1f 9d bb
       -0.09723342 -0.023673171 -0.053670954 -0.0047949823
000250 6f ce 8a bc 9c b9 0b bc c6 e5 1c be 8e b0 ff bd
       -0.016944138 -0.008528139 -0.15322027 -0.12484847
000260 5d 5e 0a 3e 54 91 96 3c c9 5a 2a 3e 34 b4 31 be
       0.13512559 0.018379845 0.16636194 -0.17353898
000270 a4 1f 1b bd 7a d4 3a 3d 18 c6 28 be a6 19 b9 3c
       -0.03787197 0.04561279 -0.16481817 0.022595238
000280 86 53 bf bd 8d 96 5a bd 83 04 fd 3d f7 35 72 3d
       -0.09342103 -0.053366233 0.12354376 0.059133496
000290 9a 84 c1 bd f7 6e b2 bb ba b2 e3 3d fa 20 1f 3e
       -0.0944912 -0.005445357 0.11118074 0.15539923
0002a0 4b 89 09 bd ae 37 03 be 95 fc 82 bd bc 32 da 3d
       -0.0335782 -0.12814209 -0.063958324 0.10654208
0002b0 49 f8 1e 3d d6 0c 80 bd 63 93 02 be 43 85 06 3c
       0.038811002 -0.06252448 -0.12751536 0.008210483
0002c0 f8 8a ad 3a 19 90 b0 3d 9d 02 cb bc 55 c7 9d bd
       0.0013240268 0.086212344 -0.02478152 -0.07704035
0002d0 6c a1 47 3c 97 0c c5 3d 1b 70 a5 bd b6 ce 0a 3e
       0.012184482 0.09621542 -0.08078023 0.13555416
0002e0 37 c7 8d 3c 74 96 65 bd 55 7d af bc fc 72 70 3c
       0.017306907 -0.056051686 -0.021422068 0.014675852
0002f0 3e c1 9b ba dc ee 8c bd 48 68 17 bc 9f 64 99 bc
       -0.0011883152 -0.06881496 -0.009241171 -0.018724738
000300 52 b3 9a bd 07 30 c0 bc 1c 99 52 3d e5 91 ce bd
       -0.07553734 -0.023460401 0.051415548 -0.10086421
000310 67 cf 1e bd 40 ee 9f bd 8a 13 d6 bc 76 dc 34 3c
       -0.038772013 -0.078091145 -0.026132364 0.01103889
000320 7c 83 c7 bd 7f 70 57 bd 2c cb ce 3a 31 5f 10 3d
       -0.097418755 -0.05259752 0.0015777103 0.03524703
000330 bb 65 c8 bd e6 28 c4 bd d7 b8 14 bd 1d d8 72 bd
       -0.097850285 -0.09578113 -0.03630909 -0.059288133
000340 8d 39 18 3d cd 52 22 3d 88 54 f5 3a 23 37 88 3d
       0.03716426 0.039629746 0.0018717209 0.066511415
000350 f2 69 09 bd 3c b3 36 3c 62 bc 81 bd d4 f7 7a 3d
       -0.033548303 0.011151131 -0.06334759 0.061271504
000360 6e 80 0f bd 8f ea bb bd 73 07 56 3c cc 95 61 3c
       -0.03503459 -0.09175598 0.0130632995 0.0137686245
000370 30 e7 29 3d 15 a1 02 3d 39 c3 ee bd f9 c7 99 bd
       0.041480243 0.0318919 -0.116583295 -0.07508845
000380 7f a6 93 3d 26 4d 5a bd 80 4a 00 bb ce d1 67 bd
       0.07209491 -0.05329623 -0.0019575655 -0.05659657
000390 ba ed c4 bd 58 01 d6 3d 05 f0 33 3d eb 37 dd bc
       -0.09615655 0.10449475 0.043930072 -0.027004203
0003a0 3e 6a dd bc b5 4a 95 3d 75 be 21 3d f2 c1 86 3d
       -0.0270282 0.0728964 0.039488275 0.06579961
0003b0 31 e8 bc 3d b5 4a 9d 3d 08 99 45 bd ac 22 b0 3d
       0.092239745 0.07680265 -0.048241645 0.08600363
0003c0 25 c4 1d bd e6 63 5e bb dd b8 10 bd 88 34 b7 bc
       -0.038517136 -0.0033934056 -0.03533255 -0.022363916
0003d0 65 57 62 3d 53 13 8a bd a9 1d 8d bc ac 89 36 bc
       0.055259127 -0.06741967 -0.017226057 -0.011141222
0003e0 86 d8 59 3c a1 74 8c bd 3c 8d 22 bd cb 0c 9a 3c
       0.013296252 -0.06858183 -0.039685473 0.018804928
0003f0 df 03 24 bd b4 21 3e bb d8 9b b3 bc 26 14 06 be
       -0.040042754 -0.0029011788 -0.021924898 -0.13093624

layer1.conv1.bias f4 [30]
000000 9f 77 65 bc 39 79 1f 3c 59 13 9b 3c 14 c8 80 3d
       -0.014005571 0.009733492 0.018930124 0.06288162
000010 5b 67 b0 3d 3f 3d 4d 3d 49 c3 a1 bd 44 5b 80 bd
       0.086134635 0.050107237 -0.07898576 -0.062674075
000020 61 84 88 3c 94 b8 3f bd 95 71 d9 bc c7 46 3c bd
       0.016664686 -0.046806887 -0.026543418 -0.045965936
000030 79 c1 67 3d c7 89 3b 3d eb fb 28 ba b4 07 3c bd
       0.056580994 0.04578569 -0.000644623 -0.045905784
000040 65 1c ab 3d 0f e9 25 bd 51 07 6d 3d 95 60 ef 3c
       0.08355025 -0.040505465 0.057868306 0.029220859
000050 33 1c 93 3d a4 da 2c bd d2 5c bd bb c7 eb 94 3d
       0.07183113 -0.0422007 -0.0057788873 0.072715335
000060 56 a7 21 3d 56 22 54 3d 63 83 ff bc ca f9 dc bc
       0.039466225 0.051790558 -0.03119058 -0.026974577
000070 f7 3a 22 3d a3 6d 9b 3d
       0.039607015 0.07589271

layer1.bn1.weight f4 [30]
000000 70 35 86 3f f2 1f 81 3f 64 7a 84 3f b2 0b 7d 3f
       1.0485058 1.0087874 1.0349851 0.9884597
000010 14 1e 6d 3f 9c 80 79 3f de bd 83 3f ba 1e 8e 3f
       0.9262402 0.9746187 1.0292318 1.1103127
000020 a5 4b 85 3f f4 51 80 3f 64 fc 86 3f ab cb 7b 3f
       1.041371 1.002501 1.0545774 0.9835765
000030 e4 72 75 3f be 29 7b 3f a9 75 83 3f 72 00 7b 3f
       0.95878434 0.9811057 1.0270282 0.98047554
000040 10 59 6c 3f 5b 25 72 3f 65 15 6f 3f af 03 6c 3f
       0.923234 0.9458825 0.9339202 0.9219312
000050 ad 22 77 3f ac 76 6c 3f 7c 29 76 3f 19 b3 69 3f
       0.96537286 0.9236858 0.9615705 0.91288906
000060 bd 8d 7a 3f da a1 74 3f 8a 88 86 3f 4b 8d 84 3f
       0.97872525 0.95559466 1.0510418 1.0355619
000070 df 57 71 3f 45 94 87 3f
       0.94274706 1.0592123

layer1.bn1.bias f4 [30]
000000 a5 df 5d 3d ac c8 86 3d 4b b0 bc 3d f5 07 91 bd
       0.054168362 0.06581244 0.09213313 -0.07081596
000010 7b 7e d0 3b b2 46 16 3d dc f3 6b bc 7e c3 2b 3d
       0.006362734 0.036688514 -0.014401402 0.041934483
000020 d4 a4 ab 3d 38 27 09 bd 13 d2 1c 3d e4 6f 1d bc
       0.08381048 -0.033484668 0.03828628 -0.009609196
000030 6c 90 ab 3c e4 d6 82 bd a8 05 eb 3b 18 15 ae 3c
       0.02094289 -0.063886434 0.007172305 0.021250293
000040 2f a5 a2 3b 1c e7 a1 3b 7f 6d 2d bd 04 13 99 bd
       0.004963539 0.0049408805 -0.04234075 -0.0747433
000050 bb 0f a0 3c fa 54 05 3c cd 30 a5 3c 12 fa 23 3d
       0.01953875 0.008137936 0.020164872 0.040033408
000060 58 df 43 bd c8 23 88 3d 46 a9 14 3e f6 56 b5 3d
       -0.04782042 0.0664745 0.14517698 0.08854477
000070 48 4b ba 3d 4e ed fd 3d
       0.0909639 0.12398778

layer1.bn1.running_mean f4 [30]
000000 e4 d7 99 bc 1e f8 e1 3b e9 68 87 3c 4e 02 66 3d
       -0.018779702 0.006896033 0.016529517 0.05615454
000010 1a 93 ae 3d 20 4c 41 3d b0 de 91 bd 6c 24 86 bd
       0.08524151 0.04719174 -0.071225524 -0.06549916
000020 10 6a 5f 3c da 4d 46 bd a7 51 ed bc a3 ee 3e bd
       0.013636127 -0.04841409 -0.028969599 -0.0466143
000030 24 f9 5f 3d 97 80 31 3d 78 96 2e bb 04 14 42 bd
       0.05468096 0.043335523 -0.002663998 -0.04738237
000040 bd fd a4 3d 01 61 37 bd f2 54 5c 3d 8e 92 05 3d
       0.08056209 -0.044770245 0.053791948 0.03261047
000050 2b 21 91 3d 6e 0e 30 bd 2e f9 0d bc 27 fc 8e 3d
       0.070864044 -0.04298251 -0.008665366 0.06981688
000060 0c cb 2f 3d 64 1c 45 3d ad f1 0b bd 67 20 e9 bc
       0.04291825 0.04812278 -0.034166027 -0.028457833
000070 64 71 39 3d 85 1c 93 3d
       0.045274153 0.07183174

layer1.bn1.running_var f4 [30]
000000 fe 8d 2d 3f 09 ec 9f 3e f6 13 95 3e 3e 5d 1e 3f
       0.6779479 0.31234768 0.2911679 0.61861026
000010 f8 aa 08 3e 1f 81 b8 3e bd e9 e6 3e c4 93 22 3e
       0.1334647 0.36036012 0.45100203 0.1587668
000020 cf 90 2d 3e 06 e6 86 3d c1 b5 81 3e f5 80 57 3e
       0.16949771 0.06586842 0.2533398 0.21045287
000030 41 8f 0d 3f 9c 3f cb 3e 09 30 0e 3e 59 7a 85 3e
       0.55296713 0.39696968 0.13885511 0.26069906
000040 2f fb 38 3e 4d af 99 3e 8d 77 90 3e 7f c1 01 3e
       0.18064569 0.30016556 0.2821621 0.12671469
000050 e5 0d 83 3e ae 9f 81 3e 58 70 ec 3d b7 3a c3 3e
       0.25596538 0.25317138 0.11544865 0.38130733
000060 a5 71 44 3e 32 70 98 3e 36 a4 45 3e 80 b6 2c 3e
       0.19183977 0.29773098 0.19300923 0.16866493
000070 b3 d8 3e 3f b8 d4 ab 3d
       0.74549407 0.08390182

conv1.weight f4 [30, 30, 5]
000000 93 54 ef bd b8 da 3e bc 85 0f f7 3d 36 b5 f5 3c
       -0.11686053 -0.011648826 0.12063507 0.029993635
000010 ac a8 23 3d bf 0c d8 bd 0c ab 72 3d f9 fe dd 3d
       0.03995578 -0.10549306 0.059245154 0.10839648
000020 cd 03 88 3d 29 ce 89 bd 44 7c 47 3d cb 4a 0e bd
       0.0664135 -0.06728775 0.048702493 -0.034739297
000030 0c a5 9f bc 9e 25 48 3d 36 c1 ba bd 9e f7 77 bd
       -0.01948788 0.048864 -0.09118883 -0.06053888
000040 19 55 74 3c 73 63 f3 3d dc 1f 53 bc e8 a0 d3 bd
       0.014912867 0.11884203 -0.012886014 -0.10333425
000050 52 f9 73 bd 90 1c 9d bd 12 96 5a bd c2 8e a0 3d
       -0.059563942 -0.076714635 -0.053365774 0.07839729
000060 5a 0c dc bc 6f 71 24 bd 39 d3 e1 bd a6 88 3f 3d
       -0.026861358 -0.04014724 -0.11026616 0.046761177
000070 79 08 a2 3d b6 26 9a 3c 2f f9 b4 bc d5 e7 6c bd
       0.07911772 0.018817287 -0.022091476 -0.05783828
000080 f1 69 04 3d ff e4 92 bd a5 a8 aa bd 3f ba 12 3c
       0.032327596 -0.07172584 -0.08332948 0.008955537
000090 8b 77 a3 3d 86 f7 1b 3e a8 5b e7 3c 36 e2 a4 bd
       0.079817854 0.15231141 0.028241947 -0.08050959
0000a0 e2 64 c7 3c 8c 9c 9d bd bf a6 58 3d 03 e6 12 3e
       0.024340097 -0.076958746 0.052893396 0.14345555
0000b0 4c 22 9b bc b3 90 48 bd 08 27 8a bb 81 f9 db bd
       -0.018937252 -0.04896612 -0.0042160787 -0.107409485
0000c0 74 c4 ea 3d 8c 01 73 3d 6f 14 8f bd a3 1d 84 bc
       0.11463252 0.059327647 -0.06986319 -0.016127413
0000d0 61 d8 4c 3d db db 81 3d 11 07 a0 3d 79 8f 5f 3d
       0.050011043 0.06340762 0.07813848 0.054580186
0000e0 2a 4a a3 3d 4e 0b 76 3d 7f 10 99 3d c2 4f 92 3c
       0.0797313 0.060069375 0.074738495 0.017860297
0000f0 b3 0a b1 3d bf bf 2c 3d 47 c3 4f bc ba bb 91 bc
       0.08644619 0.04217505 -0.012680835 -0.01778971
000100 04 2c 0f bc 50 00 e6 3c 0d fa b1 bc 13 33 78 bd
       -0.0087385215 0.02807632 -0.021725679 -0.060595583
000110 c4 81 05 bd 04 2b 15 3c 47 93 82 bd df 92 94 ba
       -0.032594457 0.009104494 -0.06375747 -0.0011335275
000120 02 18 1b 3d 69 dd 3b 3d 69 bf 01 3d 3f c5 4f 3c
       0.037864693 0.04586545 0.031676684 0.0126813045
000130 ac 91 66 bd 1b 81 e1 3c f6 69 ae bc b4 47 02 bd
       -0.056291267 0.027527383 -0.02129076 -0.031806663
000140 f7 40 ce 3b be b9 9b bd 0b a0 9c bd 23 a9 11 bd
       0.0062943655 -0.07603787 -0.07647713 -0.035561692
000150 ee c6 d5 3d d7 49 a3 3c 8a bb 12 3d 7f a6 07 bd
       0.104383335 0.01993267 0.035823382 -0.033117767
000160 12 6b 92 bc c9 ef 00 bc a5 0f 7f 3c 0b cd 70 3d
       -0.01787332 -0.007869669 0.015567695 0.058789294
000170 3d 40 1d 3d a4 df a3 3d 46 6c 52 3d 48 22 26 bd
       0.03839134 0.080016404 0.05137279 -0.040560037
000180 74 c8 92 bd e5 a3 6b 3d 71 0c da 3a 9f f4 09 3c
       -0.0716714 0.05752935 0.0016635788 0.008420139
000190 33 a3 55 bc 55 a7 78 bc 6b ea 4a bd fa 11 e6 bc
       -0.013039398 -0.015176614 -0.049539965 -0.028084744
0001a0 57 25 b3 3b c8 1c 2b 3d e3 ad 00 bd 12 29 ba bc
       0.0054670977 0.041775495 -0.03141583 -0.022724662
0001b0 a7 35 aa bd 1c 56 1b 3d 92 4f 2a 3c 6a 6d 0f bd
       -0.083110146 0.037923917 0.010394948 -0.035016455
0001c0 3e ed 99 3d 20 1c bd 3d 3b 76 d2 3d f8 b2 a1 3c
       0.075159535 0.0923388 0.10276457 0.01973866
0001d0 4e 12 98 bc 5c d8 8b 3c a3 eb 83 bb df 59 4b bc
       -0.018563416 0.017070942 -0.004025893 -0.012411564
0001e0 74 4f 37 bd 15 1b 35 bd 3f 83 ad 3c 87 74 af bd
       -0.044753507 -0.04421528 0.021180747 -0.08567148
0001f0 55 9d b2 bc 29 f0 c5 bc c6 6d be 3d 43 fa 27 bd
       -0.021803537 -0.024162369 0.09298281 -0.041010153
000200 b7 60 db bd e7 08 09 bd 49 1d af bd c1 cd a2 bc
       -0.10711806 -0.033455756 -0.085505076 -0.019873502
000210 63 0e 0f bd 09 19 c8 3c d4 79 61 3d 0c e1 9b bc
       -0.03492583 0.024426 0.055047825 -0.01902821
000220 9a 76 94 bd 95 81 f0 bc 92 af bd 3d 19 0d e0 3d
       -0.07249184 -0.029358665 0.09262003 0.10939998
000230 3f b6 b6 3c 0e 23 04 3d bc 68 89 bd 13 55 8c bd
       0.022303699 0.032259993 -0.067094296 -0.06852164
000240 0c b0 7b bc 07 30 9f 3d 81 f5 e6 3d 32 56 f5 3d
       -0.015361797 0.07772832 0.11277295 0.11979331
000250 2a 7a 35 bd b4 de ae bd 63 38 de bd 74 74 4b bd
       -0.044305958 -0.08538571 -0.10850599 -0.049671605
000260 a2 8f f3 3d 50 02 1c 3c 31 aa 24 3d 02 8f 19 bd
       0.1189263 0.009522036 0.04020137 -0.0374899
000270 25 b9 a5 3c 12 39 4c 3e 9d 55 22 3d 95 69 8f bd
       0.020229885 0.19943646 0.03963243 -0.0700256
000280 01 a6 37 3d 27 f3 00 bd c1 0a 2b 3d 83 a6 57 3d
       0.044836048 -0.03148189 0.041758303 0.052649032
000290 3c 1b 80 bd 18 0a 0e bd c7 79 03 3b 16 d7 0b 3d
       -0.062551945 -0.034677595 0.0020061599 0.03414067
0002a0 87 4e 7b bc 8c 62 21 bd 4e 14 83 bd dd 85 44 bd
       -0.015338547 -0.039400622 -0.06400357 -0.047979224
0002b0 ab 8a 9f bc dd 7b 31 3d c5 6e e9 3c d6 14 a3 bd
       -0.019475302 0.043331016 0.028495202 -0.079629585
0002c0 f4 85 c9 bd 32 f4 e9 39 a5 01 03 3e 49 a9 1c bd
       -0.09840003 0.00044623163 0.12793596 -0.03824738
0002d0 16 1b 1f bd 2d 45 aa bd dd c3 47 bc 67 8a b9 bd
       -0.03884419 -0.083139755 -0.012192694 -0.09059601
0002e0 8d a1 d8 bd c6 f7 65 bc cf 64 89 3d 8b 8e 38 3e
       -0.10577688 -0.014036125 0.06708681 0.18023126
0002f0 3f 79 c9 3d 97 ee c4 bd e6 33 2d 3d 89 6d 9c bd
       0.09837579 -0.0961582 0.042285822 -0.0763808
000300 72 1b 2a 3d 8a 8b ee 3d df e6 32 bc b7 b3 94 bd
       0.04153008 0.11647709 -0.010919302 -0.072608404
000310 e5 bc 44 bc 2c 03 bf bd 72 e4 b4 3d aa 8b 96 3d
       -0.012007927 -0.09326777 0.08832635 0.073508576
000320 61 ce bb bd ed d4 52 3c c7 80 3f 3d bd a1 8a 3d
       -0.09170223 0.012868148 0.04675367 0.067691304
000330 bf d5 84 3d e1 f0 30 3d fe b4 a7 3d cb ef 1f 3d
       0.06486081 0.04319847 0.081888184 0.039047044
000340 55 24 64 3c f8 c6 89 3c 64 73 3b 3d 1c 02 09 3d
       0.013924678 0.016818509 0.045764342 0.033449277
000350 54 e0 49 bd b8 47 98 bc 13 ec 09 bd ee 7b 6d 3d
       -0.0492862 -0.018588886 -0.033672404 0.057979517
000360 cc f1 4a bd 31 69 fe bc e6 e8 c0 bc 97 91 85 bb
       -0.049547 -0.031056019 -0.023548555 -0.0040761936
000370 c2 a8 16 bd 10 da cc 3c 8f f4 43 3d 0b b7 00 3d
       -0.036782034 0.025006324 0.04784065 0.031424563
000380 d5 56 09 3d f0 93 39 bb c3 17 86 bd e6 a6 1f 3d
       0.033530075 -0.0028316937 -0.06547501 0.038977526
000390 23 ec 9a bc 87 d5 64 bc 8a 38 2b bb c1 f5 55 bd
       -0.018911427 -0.0139669245 -0.002612623 -0.052236322
0003a0 fc 2d 65 bd a7 f3 31 3c fd ae 5d 3d d2 1f 3e 3d
       -0.055952057 0.010861314 0.05412196 0.046417065
0003b0 f0 e1 d7 bc fc 54 81 bd 17 ee 0f bd 07 e7 b0 bc
       -0.026352853 -0.063150376 -0.03513917 -0.021594537
0003c0 b4 d9 2f 3d 9f c8 97 3b df ff 0c 3d 98 6e e6 3d
       0.042932227 0.00463207 0.034423705 0.11251563
0003d0 21 d9 4f 3d 5d 54 09 bd 27 57 44 bd 23 83 ac 3d
       0.05074418 -0.03352772 -0.047934677 0.0842345
0003e0 1d 36 f2 bc fa 26 15 bd 10 43 e0 bc 9b 0b 31 bd
       -0.029566819 -0.036414124 -0.027375728 -0.04322396
0003f0 3f 56 16 3d 6f 7f 7b 3c 96 a0 d2 bc 55 96 01 3b
       0.036703344 0.015350207 -0.025711339 0.0019773443

conv1.bias f4 [30]
000000 47 c9 91 bc a7 5a 9c 3c 3b 95 6a 3d d1 0c 1b b6
       -0.017796172 0.019086195 0.057271224 -2.310426e-06
000010 06 be b9 bc 2d 69 ca bc 45 0e 19 bd 23 a6 16 bd
       -0.022673618 -0.024708355 -0.037367124 -0.036779534
000020 ff d2 1c 3d 47 60 7f bd 7e 6f 43 bb f7 c1 48 3d
       0.03828716 -0.062347677 -0.0029821093 0.049013104
000030 76 8e 04 bc 34 48 6a 3c df 03 fc 3a 81 0e 06 3b
       -0.008090606 0.014299441 0.0019227228 0.0020455422
000040 da 9e 9c bb 7b 25 f3 3c 65 e5 ed 3c fa 05 f0 bc
       -0.004779679 0.029680958 0.029040048 -0.029299725
000050 75 3e 41 bc 01 01 27 bc 17 7f a9 39 5e 49 63 bd
       -0.011794676 -0.01019311 0.0003232888 -0.05548989
000060 dc 9b 98 3d de 81 8a bd 36 cd 80 3d 9c 29 7c bd
       0.07451603 -0.067630515 0.06289141 -0.06156312
000070 c6 aa a4 bd ac 76 5e bc
       -0.08040385 -0.013578098

bn1.weight f4 [30]
000000 57 ae 84 3f f2 ae 82 3f 52 1d 84 3f d4 be 84 3f
       1.0365704 1.0209639 1.0321448 1.0370736
000010 e4 61 8c 3f 1c a4 84 3f 76 92 81 3f 59 2f 84 3f
       1.0967374 1.0362582 1.0122821 1.0326949
000020 a1 58 84 3f 98 33 82 3f 4e f8 80 3f 93 63 7b 3f
       1.0339547 1.0171995 1.0075777 0.98198813
000030 3c e6 7b 3f c2 9c 8d 3f 47 44 7d 3f 02 54 82 3f
       0.98398185 1.1063464 0.9893231 1.0181887
000040 38 b9 77 3f 28 9f 7b 3f 9c 12 7a 3f 6f 50 70 3f
       0.96766996 0.9828973 0.97684646 0.9387273
000050 d4 eb 76 3f e7 5d 73 3f 8d 0f 7a 3f 90 9c 6d 3f
       0.96453595 0.9506516 0.9767998 0.9281702
000060 f6 bf 76 3f c8 21 71 3f 75 22 76 3f 63 35 79 3f
       0.9638666 0.9419217 0.9614633 0.97347087
000070 fd c8 6c 3f 74 06 72 3f
       0.92494184 0.94541097

bn1.bias f4 [30]
000000 73 37 9c 3c ea 7a a6 3c 6f 71 b5 3c e0 46 1c 3d
       0.019069409 0.020322282 0.022148816 0.03815353
000010 32 10 db 3c 44 9b 73 3d 70 62 36 3d ec 3a 7c 3c
       0.026741121 0.059474245 0.04452747 0.015394907
000020 16 09 4d 3d cd 6e 38 3d 73 f0 47 3d 18 6d 08 3d
       0.050057493 0.045027543 0.048813295 0.033307165
000030 02 af e1 3c 6f 79 c1 3d ce 16 06 3d fd 3c ff 3c
       0.02754927 0.0944699 0.032736592 0.031157011
000040 bd 1c 13 3d 2a c7 05 3c f1 4b fb 3c 37 34 88 bb
       0.03591608 0.00816516 0.03067586 -0.004156615
000050 9b 50 c5 bb 15 d2 32 3d e5 3c 4d 3d 87 8b 55 3c
       -0.006021572 0.04365738 0.0501069 0.013033754
000060 f0 aa 9f 3c 74 78 0e 3d c4 12 3f 3c 91 dc ba 3c
       0.019490689 0.03478284 0.011662189 0.022810252
000070 ea a8 f6 3b d6 50 26 bb
       0.0075274603 -0.0025377772

bn1.running_mean f4 [30]
000000 bd 57 e8 3d 4b 00 f0 3d 0a 9e 34 3e a6 66 98 3d
       0.1134486 0.11718806 0.17638412 0.07441454
000010 ff 31 69 3b a5 ea 3c 3d e2 71 b3 3d 52 12 b5 3c
       0.0035582779 0.046122212 0.08761956 0.022103462
000020 b9 81 cc 3d 0e 36 44 bd 2e 29 65 bc 65 b8 cf 3d
       0.0998568 -0.047903113 -0.013986869 0.10142592
000030 af eb 3a 3c 0e 06 49 3e ea cb 74 bb c2 d5 bf 39
       0.01140873 0.19631216 -0.0037352988 0.0003658962
000040 d1 b5 84 3c 12 30 c9 3c 52 c5 f9 3d cb 8e 5c bd
       0.016199978 0.024559055 0.12195839 -0.053847115
000050 09 0e 86 bd 7c 29 04 3e 89 e2 41 3d a6 b7 d9 bd
       -0.06545646 0.1290645 0.04733518 -0.10630731
000060 fb dd c8 3d d5 26 ef 3d 88 26 1e 3e 31 5f d7 bd
       0.098079644 0.116773285 0.15444386 -0.10516203
000070 42 a1 45 be 33 91 00 be
       -0.19299796 -0.12555389

bn1.running_var f4 [30]
000000 5e 28 ec 3e ce a2 de 3e 3a 54 ed 3e c0 3d f3 3e
       0.46124548 0.43483585 0.46353322 0.4750805
000010 fd 07 f6 3e 37 23 d0 3e 77 79 d0 3e 1e e5 fd 3e
       0.4805297 0.40651867 0.4071767 0.49588865
000020 77 d6 26 3f ab 9d 08 3f 47 f4 35 3f 47 43 4a 3f
       0.65171 0.5336558 0.7107586 0.7900891
000030 85 2e 28 3f 67 86 9c 3e 59 9b 25 3f 5d e3 2a 3f
       0.65695983 0.3057129 0.64690167 0.6675318
000040 9d c7 2f 3f 13 2b 1f 3f 10 b7 12 3f 63 2f 02 3f
       0.6866396 0.621751 0.5731058 0.50853556
000050 13 49 53 3f d0 59 ad 3f 7e d8 59 3f e4 09 2f 3f
       0.8253338 1.3543034 0.85095966 0.68374467
000060 ff dd 99 3f 0f 89 d1 3e 49 4d 2a 3f d7 bc 4c 3f
       1.2020873 0.4092488 0.6652418 0.79975647
000070 df 0a 10 3f d2 71 40 3f
       0.5626659 0.75173676

dense1.dense.weight f4 [96, 512]
000000 2f ee 1e bc 4c 76 13 bd 92 03 70 bb 78 24 6f bd
       -0.009700342 -0.03600149 -0.0036623222 -0.05838439
000010 23 36 1d bd 15 c2 d4 bc 36 f7 25 bc 2c e4 aa bc
       -0.038381707 -0.025971452 -0.01012974 -0.020860754
000020 59 09 69 bd 33 d9 b4 bb 0c 7b b1 3c 8a a8 3a 3d
       -0.05689368 -0.005519056 0.021665119 0.045570888
000030 19 a3 12 3d 66 1c 52 bc 87 73 03 3d b2 73 87 3c
       0.035800073 -0.0128241535 0.032092597 0.01653466
000040 4c d2 81 3d f0 a2 8a 3c d1 9c ba 3c c2 ac 20 bd
       0.06338939 0.016923398 0.022779854 -0.039227255
000050 b2 2a a1 bd 99 69 4b bd 9a d0 05 bd 8f 7d 8b bd
       -0.078694716 -0.049661253 -0.03266964 -0.06811058
000060 06 53 12 3d 53 f4 d2 3a 97 6b 71 bd 0e 6c d5 bd
       0.03572371 0.0016094543 -0.058940496 -0.104210004
000070 37 40 09 bd 8d 91 81 bc be 7d ff bc cd 0d 2b bc
       -0.033508506 -0.015816474 -0.031187888 -0.010440302
000080 28 56 31 bc 25 4e 52 3c 4a f4 e2 3c 7f 20 34 bd
       -0.010823764 0.012836014 0.027704377 -0.043976303
000090 ed b5 de 3d 16 de 90 3d 40 d4 3d bc 9e 71 d3 bb
       0.10874543 0.070736095 -0.011586249 -0.006452753
0000a0 2f dd 82 bb dd 88 15 3c 49 40 57 bc 4a dd 76 bc
       -0.0039936523 0.009126869 -0.013137885 -0.015067408
0000b0 3a de 03 3d 72 8a 5c bd 04 38 14 3c 4e c3 20 bd
       0.032194354 -0.05384297 0.009046558 -0.039248757
0000c0 eb a9 33 3d ff ae a8 3c 8d 24 bb bc b0 7c d0 3c
       0.04386322 0.020591257 -0.022844577 0.02545008
0000d0 b4 dd 64 bc e9 ea 28 bd 42 e5 e2 3c 11 a0 d7 3c
       -0.013968874 -0.041239653 0.02769721 0.026321443
0000e0 73 19 25 38 d2 9f c3 bc 3f 54 03 36 84 21 d9 bc
       3.9362767e-05 -0.02387992 1.9569559e-06 -0.02650524
0000f0 59 15 42 bd 7b cb 00 bb ef 46 c4 bd ca d6 07 bd
       -0.04738364 -0.0019652534 -0.09583842 -0.033163823
000100 24 85 af 3c 02 1d 93 bd f3 da d5 bb ec bd 2c bc
       0.021425791 -0.07183267 -0.006526345 -0.010543328
000110 ca 4f 35 bc d0 bd 20 ba 32 86 03 3d 7e 4d c3 bc
       -0.0110663865 -0.00061318 0.0321104 -0.023840662
000120 ad d4 02 bd af e7 26 bd 21 4e 92 bc 57 ab 39 3d
       -0.031941105 -0.040748294 -0.01785952 0.045329418
000130 86 d5 66 3d 75 86 f7 bc e3 a9 07 bd 5e 7e 15 bc
       0.056355976 -0.030215481 -0.033121 -0.009124367
000140 bb 0c 9d 3c b1 ab 2e 3d a5 5a 43 bb 1a f4 5a bd
       0.01917111 0.042644206 -0.0029808667 -0.05345545
000150 3a ba 13 bc 1c b1 0e 3c a0 67 01 bd 2c 43 26 bc
       -0.009016568 0.008709218 -0.031592965 -0.010147851
000160 f1 34 b0 bc 3f 57 e6 3d 30 e9 c9 3d 9b 54 30 3d
       -0.02150962 0.112471096 0.0985893 0.043049436
000170 6d 9b 86 3c c5 20 66 bd ad 64 e7 bc 43 4a 3d bd
       0.016431535 -0.056183595 -0.028246248 -0.0462134
000180 4d 49 af 3c 58 00 16 bd d6 32 28 bd cb ec 7b 3b
       0.021397257 -0.03662142 -0.041064106 0.00384407
000190 2e 1c be 3c 93 ae 10 3d bc aa 63 3d fe fb 51 3b
       0.023206796 0.035322737 0.055582747 0.0032041068
0001a0 b1 69 ba bc c6 9a ed bc 09 fe b2 bc 5b b0 02 b9
       -0.022755476 -0.029004466 -0.021849649 -0.00012463464
0001b0 13 9b b6 3c d7 57 ce 3b 8d f7 fd bb aa 2d fa 3c
       0.022290742 0.0062970924 -0.0077504576 0.030539352
0001c0 56 8a 93 3c 86 86 3c 3d 24 b7 1c 3d 8d 28 c1 3c
       0.0180103 0.04602673 0.038260594 0.023578906
0001d0 65 a7 ea 3c c7 a4 9e ba fd 4e 0d bc da ff 18 3c
       0.028644273 -0.0012103551 -0.008624789 0.0093383435
0001e0 5e d6 74 bd a8 94 9f bc 84 0e 94 39 ff a4 f6 3a
       -0.05977475 -0.019480065 0.00028239575 0.0018817483
0001f0 3b d1 d2 3c 65 cf a7 bd a1 d4 0c bd de 0d 8f 3c
       0.025734534 -0.08193854 -0.034382466 0.017462667
000200 74 f2 9c bd 04 3e 2d bd 00 4e 57 bd 56 25 0d bd
       -0.07663432 -0.04229547 -0.05256462 -0.034459434
000210 cd 10 2a 3b 44 a9 82 3c a5 6f 48 3d 07 26 23 bd
       0.0025949955 0.015949853 0.048934598 -0.039831188
000220 7e 6a 12 3d 73 1e 55 bd 10 95 bb bc f7 9b 5d 3b
       0.03574609 -0.05203099 -0.022898227 0.0033814886
000230 02 a5 02 3c e5 44 8c bd 6d fb 1c bd 4d b2 10 bd
       0.007973911 -0.06849078 -0.038325716 -0.03532629
000240 7d 81 b1 3d 53 cd d8 3b bb 57 66 3c 33 aa e1 3b
       0.08667276 0.0066162734 0.0140590025 0.0068867444
000250 66 d6 67 bd 13 f4 97 bc 4b d1 08 3b cd 69 73 3c
       -0.05660095 -0.018549 0.0020876701 0.014856768
000260 a8 d8 00 3d 5e bb 0e bd 5c 31 c4 3c a5 97 c8 3c
       0.03145662 -0.034846656 0.023949318 0.024486372
000270 10 b8 8d 3d f1 29 a0 3d 80 ba 13 bc b3 49 5f 3d
       0.06919873 0.078205 -0.009016633 0.054513644
000280 5b 49 1b bb 01 33 c8 3c 5f fa 1e 3d f7 45 26 3d
       -0.0023694846 0.024438383 0.03881299 0.040594067
000290 ad dc 02 3d da 29 d4 3c d3 1f 13 3d 99 43 1c bc
       0.031948734 0.025898863 0.03591902 -0.009537601
0002a0 1b 79 8f 3c 05 f3 25 3d 70 4f 15 3c 07 5d 38 3c
       0.017513802 0.040514965 0.009113178 0.011252648
0002b0 16 6b 00 3d 1d e2 54 3c 06 1e 76 bc e7 86 b0 3b
       0.031352125 0.012993363 -0.015021807 0.0053871754
0002c0 e2 10 9c 3c c5 d2 3e 3d 5e 2d 58 3d 1c f6 90 3d
       0.01905102 0.046587724 0.05277764 0.07078192
0002d0 b8 68 a4 3d 1f a5 95 bd 47 ee 68 bd 38 89 bd 3d
       0.08027786 -0.07306885 -0.056867864 0.09254688
0002e0 2d d0 c8 3d cd e7 20 3d f7 69 6c 3d 80 98 df b9
       0.098053314 0.039283562 0.057718243 -0.00042647496
0002f0 40 09 aa 3b a7 02 27 bd 2b 05 96 3c c2 14 e4 3c
       0.005189091 -0.040774014 0.018313011 0.02784193
000300 29 ea c9 bb 37 a4 14 bd 5d e6 cd bc 6f 06 73 bc
       -0.0061619473 -0.03628942 -0.02513426 -0.014833077
000310 bb f7 89 3c 6b 32 df 3b 13 e6 6b 3b 25 2b eb 3c
       0.01684176 0.00681143 0.003599529 0.028707096
000320 a6 90 d1 3b bd db c5 bc a4 1f 49 3d 4d 2e 42 3d
       0.0063954173 -0.024152631 0.04910244 0.047407437
000330 36 fb 1d bc 13 80 3a 3c c9 40 f1 3a a7 c7 93 3c
       -0.009642413 0.011383074 0.0018406148 0.018039538
000340 f0 a6 98 3c 2c 79 06 3c b7 53 b2 3c 0b 97 90 bc
       0.01863429 0.008207601 0.021768434 -0.017650148
000350 43 87 ef 39 fa ec b6 3c 4e 14 b4 bb 57 15 53 bd
       0.0004568641 0.022329796 -0.0054955846 -0.051534023
000360 75 a0 9a bc 64 48 29 3d 92 de 18 3d 55 1e 9d 3c
       -0.01887534 0.041328803 0.037321635 0.019179503
000370 70 1a 3a bc 18 28 2a bd 48 50 df bc a7 53 09 bb
       -0.011358842 -0.041542143 -0.02725996 -0.0020954402
000380 79 3d 34 3c 83 6c 19 bd f0 7e d2 bc 72 36 1c bd
       0.011000984 -0.037457 -0.025695294 -0.03813786
000390 fb e7 8e bb 21 d5 6f ba 98 9c 90 bc 4c 89 02 bd
       -0.0043611503 -0.0009148885 -0.017652795 -0.031869218
0003a0 44 c5 cc bd 59 7e 3c 3a cf a5 91 ba 8e c0 b3 bd
       -0.09998563 0.0007190458 -0.0011112037 -0.08776961
0003b0 79 d2 9a bc b5 39 21 3d 2d 61 81 3d 27 23 a7 3c
       -0.01889919 0.039361674 0.06317363 0.020402504
0003c0 e0 d9 b5 3c ac 93 16 3c 7b 86 9c bd a7 2a 5f bd
       0.022198617 0.009190481 -0.076428376 -0.054484036
0003d0 17 ae cc 3c de ad a7 3d d8 a8 8a 3d 0d 7c 2e 3b
       0.024985356 0.081874594 0.06770486 0.0026624233
0003e0 51 9d 32 bd 48 76 4a 3a a9 b0 f4 bc e7 0f 18 bc
       -0.04360706 0.0007723314 -0.029869394 -0.009281135
0003f0 d2 8f 6f 3d 7e 97 59 3c 03 e1 9b 3c 52 bb bd bc
       0.058486767 0.013280747 0.019028192 -0.02316061

dense1.dense.bias f4 [96]
000000 11 10 91 ba 53 e6 45 3d 83 cd 62 3d f3 9a 08 bd
       -0.001106741 0.048315357 0.055371772 -0.033350896
000010 84 93 2d 3d 9b 9e ed bc 19 f8 92 3c 2f 22 15 bc
       0.04237701 -0.029006293 0.017940568 -0.009102388
000020 90 fe 1a 3b fd 2e 23 bc 5a aa 94 bc a7 22 78 ba
       0.0023650266 -0.009959933 -0.018147636 -0.0009465613
000030 c9 fe a3 3d c1 b0 de bc 3f 9e cc 3c 5c 75 2e 3b
       0.08007581 -0.027183892 0.024977801 0.0026620245
000040 af 6c 05 3d 58 64 96 3b 51 4c 31 bb 60 4e d6 3c
       0.032574352 0.0045895986 -0.0027053545 0.026160419
000050 be 0a 4b bc 22 3b 90 3b 9d 87 bb 3c ad 5b 33 3d
       -0.012392698 0.0044015804 0.022891814 0.0437886
000060 95 a1 9c 3c ea 4b b9 bb 7b 1a f1 bc d3 69 26 3d
       0.019120017 -0.0056548016 -0.029431572 0.040628266
000070 95 7a 8c 3d c0 7c 72 3d 1b 98 29 3d 58 14 9b bc
       0.06859318 0.059201002 0.041404825 -0.0189306
000080 4d 66 b6 3c f8 2f 8e 3b c3 c4 8c 3c 62 0c 2d bc
       0.022265578 0.0043392144 0.017183667 -0.010562034
000090 0a 3d 48 3d e6 33 08 3d 30 9d e8 3c 25 9f 3c bc
       0.048886336 0.03325262 0.028395265 -0.011512552
0000a0 35 4a df bc 25 9b 5f 3d 99 11 2d 3d 05 89 1f 3d
       -0.027257064 0.054591317 0.04225311 0.03894903
0000b0 6c c3 a0 3c c2 33 5c 3d 46 10 0e 3c f7 40 0c 3d
       0.019624434 0.053760298 0.008670872 0.034241643
0000c0 ee cb 79 bc a7 85 87 3d 24 29 6b 3d f9 88 19 bd
       -0.0152463745 0.06617289 0.05741228 -0.037484143
0000d0 cf 73 07 3d bb 02 80 3b fc ad 2b 3c 37 8e 33 3d
       0.033069428 0.0039065755 0.010478493 0.0438368
0000e0 ac ed 31 3d 82 b0 3f 3d 60 87 28 3c 83 9b 7b 3c
       0.043439552 0.04679919 0.010286182 0.015356901
0000f0 1c ec f6 3c 8e 25 b7 bb 10 fd 1b 3d 04 e2 67 bb
       0.030141883 -0.0055891937 0.038083136 -0.0035382519
000100 8c c6 ca 3c 7d f9 24 3c 00 52 4e 3d 43 39 58 3d
       0.024752878 0.010069248 0.05037117 0.052788984
000110 b4 ef a5 3d ae c7 1c 3c 95 c2 a1 3d 7a 62 2c 3d
       0.0810236 0.009569092 0.07898442 0.042086102
000120 d6 b6 fd bc 55 23 59 3d 3f 8f 88 3d 6b 77 e9 bc
       -0.030970972 0.05301221 0.06667947 -0.028499326
000130 01 f8 c1 3d 57 47 f5 3c 3a ac 19 3d 31 ab 78 3d
       0.09471131 0.029941244 0.037517764 0.060710136
000140 88 2d 0b 3d e3 59 97 bc 6d 26 04 3d a3 89 63 3d
       0.03397897 -0.018475479 0.03226321 0.055551182
000150 3f b8 b7 bb 35 b1 6e 3d 59 43 09 3d 25 8e 4b 3d
       -0.0056066806 0.058274467 0.033511493 0.049696106
000160 24 5b 35 3c fd 50 6b 3c 76 28 51 bc a8 8b dd bb
       0.011069093 0.014362571 -0.012765994 -0.006761033
000170 fe 30 1d 3a b9 01 b7 bc 41 1c 3a 3d d5 69 60 bc
       0.0005996375 -0.022339689 0.0454371 -0.013697107

dense1.batch_norm1.weight f4 [96]
000000 63 c4 6b 3f d8 64 82 3f 12 c8 80 3f 4e e2 72 3f
       0.9209654 1.0187025 1.0061057 0.94876564
000010 dc e8 73 3f 28 91 7f 3f 36 54 84 3f 44 59 69 3f
       0.9527719 0.99830866 1.0338199 0.91151834
000020 84 f8 87 3f 1a 70 83 3f 44 a7 71 3f a8 44 6f 3f
       1.0622716 1.0268586 0.9439585 0.93464136
000030 06 87 7b 3f 7d 79 59 3f 7f 65 6b 3f 8c e6 79 3f
       0.98252904 0.84951 0.91951746 0.9761741
000040 90 97 7f 3f 10 ce 7a 3f 5d fd 7d 3f 81 31 6b 3f
       0.9984064 0.97970676 0.99214727 0.9187241
000050 33 34 7f 3f 6f 7d 89 3f ff 3d 7f 3f 93 3c 80 3f
       0.99689025 1.0741404 0.99703974 1.0018486
000060 90 c7 7b 3f c2 fa 7c 3f 02 95 79 3f 8c a1 87 3f
       0.98351383 0.98820126 0.9749299 1.0596175
000070 32 2e 74 3f ae 4e 85 3f ca 86 80 3f 32 28 73 3f
       0.9538299 1.0414636 1.0041134 0.9498321
000080 3d 64 87 3f e7 90 7d 3f 2f a0 73 3f e4 d6 62 3f
       1.0577465 0.9904923 0.95166296 0.8860915
000090 b7 6f 82 3f 92 56 66 3f 8b 55 67 3f d7 c5 81 3f
       1.0190343 0.89975846 0.90364903 1.0138501
0000a0 cc 3e 80 3f 5c da 81 3f 23 d0 56 3f a1 78 80 3f
       1.0019164 1.0144763 0.8391134 1.0036813
0000b0 a9 c8 5e 3f 5b 23 82 3f c1 bf 57 3f 37 f4 7f 3f
       0.87024933 1.016704 0.8427697 0.9998202
0000c0 63 fb 70 3f d3 c0 6b 3f ff 84 79 3f 49 7b 51 3f
       0.94133586 0.920911 0.9746856 0.81828743
0000d0 09 e8 72 3f 67 31 80 3f 71 38 85 3f 0a d8 6e 3f
       0.9488531 1.0015076 1.040785 0.932984
0000e0 bb 50 74 3f 34 47 7e 3f 73 39 5d 3f b1 c0 81 3f
       0.95435685 0.993274 0.86415786 1.013693
0000f0 e1 75 7e 3f 59 bd 59 3f 69 d2 83 3f b2 b4 84 3f
       0.9939862 0.85054547 1.0298587 1.0367644
000100 72 2d 74 3f 8a 5b 87 3f 31 a0 7b 3f 5b a0 83 3f
       0.95381844 1.057481 0.9829131 1.0283312
000110 52 4c 85 3f 9b 00 84 3f 78 4d 77 3f 6d d8 79 3f
       1.0413916 1.0312685 0.9660258 0.97595865
000120 76 17 55 3f 37 8f 81 3f 26 4e 83 3f a5 e2 7a 3f
       0.83238924 1.0121831 1.0258224 0.9800208
000130 7e 37 6b 3f 6f 93 89 3f ac 70 80 3f 72 3b 7b 3f
       0.9188155 1.0748118 1.0034385 0.9813758
000140 a0 ce 83 3f ec 4a 62 3f 26 71 82 3f ef 8d 7f 3f
       1.0297432 0.8839557 1.019078 0.9982595
000150 c6 d9 7b 3f e0 f4 62 3f 40 f0 84 3f 8e 5d 7e 3f
       0.9837917 0.886549 1.0385818 0.99361503
000160 8c 14 7c 3f dd 20 80 3f 88 bf 83 3f 66 59 77 3f
       0.9846885 1.0010029 1.0292826 0.96620786
000170 e8 77 5c 3f 55 13 7f 3f f1 cd 7c 3f db e4 59 3f
       0.8612046 0.99638873 0.9875174 0.8511483

dense1.batch_norm1.bias f4 [96]
000000 8c 59 c3 bd 99 4f b4 bd 24 cc 40 be 27 41 57 be
       -0.09538564 -0.088042445 -0.18827873 -0.21020947
000010 e8 d3 f6 bd d4 d4 81 be 5d 3a 89 be 17 8c 9d bd
       -0.12052137 -0.25357687 -0.2680234 -0.07692736
000020 9a 29 3a be 3f 63 18 be 7e 0c 10 be 6b 9f 26 be
       -0.18179932 -0.1488161 -0.14067265 -0.1627175
000030 3a 1b 5d be f1 b7 cf bd 2e 8c a4 be 27 82 89 be
       -0.21592417 -0.10142506 -0.321382 -0.2685711
000040 2e 10 a2 be a0 46 24 be 7b 51 86 be ac ec 72 be
       -0.3165297 -0.16042566 -0.2623404 -0.23723096
000050 30 5b b6 be 7a 41 41 be b9 15 33 be 89 82 9f be
       -0.35616446 -0.18872634 -0.17488755 -0.31154278
000060 c0 01 90 be f5 8b 4f be 2f 06 30 be de 9f 60 be
       -0.28126335 -0.20268233 -0.17189859 -0.21935984
000070 4a dd ed bd 71 2f 26 be 28 e8 48 be bd 09 b2 be
       -0.11614473 -0.16229035 -0.1961981 -0.34773055
000080 f3 3e c6 bd eb b9 61 be 99 79 04 be 9b ea de bd
       -0.09679975 -0.22043578 -0.12937011 -0.10884591
000090 3c 7b 4a be 35 7b bf bd 5e 40 15 3d c2 39 a0 bd
       -0.19773573 -0.09349672 0.03643834 -0.078235164
0000a0 a8 59 96 be 6a b9 b2 bd 69 e0 1f be a2 57 5d be
       -0.29365277 -0.08726771 -0.1561295 -0.2161546
0000b0 44 f2 81 3c ce 8f 18 be c4 8f b5 bd b6 9a 84 be
       0.015862592 -0.14898607 -0.08865312 -0.25899285
0000c0 6d 34 00 be c3 13 15 be e5 7d 0d be 69 6f c2 bd
       -0.12519999 -0.1455832 -0.13817556 -0.09493906
0000d0 0d 15 62 be 92 d0 44 be 74 6f 21 be d8 10 99 be
       -0.22078343 -0.19220188 -0.15765172 -0.29895663
0000e0 af 92 37 be 99 b9 93 be 90 13 e7 bc 59 2b d4 bd
       -0.17927049 -0.28852537 -0.02820757 -0.103598304
0000f0 86 9b b8 be a6 24 49 bd 1d d4 3d be e5 26 2c be
       -0.36056155 -0.049107216 -0.18537946 -0.16811712
000100 b8 43 aa be 8f 4e 0c be ad 3d 4b be 4b 78 b5 be
       -0.3325479 -0.13701843 -0.19847746 -0.3544334
000110 9b ad 7d be 81 1d 9e be a2 fc c4 be 18 cc 9c be
       -0.24773256 -0.30881885 -0.38473994 -0.3062446
000120 c5 66 09 be b9 f5 fd be 5d f3 22 be ed 10 14 be
       -0.1341811 -0.49601534 -0.15913148 -0.14459582
000130 3e 88 48 be b8 e0 a6 be ca e0 d1 be 79 57 a3 be
       -0.19583222 -0.32593322 -0.40991813 -0.31902674
000140 d3 70 41 be fd 26 f1 bd 3e f0 32 be c6 3c 4d be
       -0.18890695 -0.117750145 -0.17474458 -0.20042714
000150 30 5a 8c be c9 12 82 be a0 e3 3c be f2 f8 34 be
       -0.27412558 -0.25404957 -0.18446207 -0.1767309
000160 80 3b 1b be 18 98 53 be 18 80 f0 bd fc 9b 52 be
       -0.15159416 -0.20663488 -0.11743182 -0.20567316
000170 af 7b ec bc 33 40 6e be 6c 37 84 bb 48 a3 9b bd
       -0.02886757 -0.23266678 -0.004034927 -0.07599503

dense1.batch_norm1.running_mean f4 [96]
000000 c6 74 91 bf 0b 91 d2 be fe 20 6a bf 69 db ed 3c
       -1.1363761 -0.41126284 -0.9145659 0.029035287
000010 ca c5 08 bf c5 25 d9 be ba 63 32 be 98 18 04 bf
       -0.534268 -0.42411628 -0.17420855 -0.5160003
000020 e4 9f f0 be df b4 0d 3f 5e 04 87 bf 76 22 1c bf
       -0.46996987 0.5535411 -1.0548208 -0.60990083
000030 f9 55 70 3f b7 b5 4a bf 69 69 3d 3e ef 68 02 bf
       0.93881184 -0.79183525 0.18497242 -0.50941366
000040 62 52 9f be 03 8e f1 be 2a e6 1c bf 93 f1 74 bc
       -0.3111754 -0.4717866 -0.612887 -0.014950174
000050 6e 70 fe be d4 9d 8f be 37 73 60 bf c7 1f bd be
       -0.49695152 -0.280501 -0.87675804 -0.36938307
000060 85 0c 97 bf e3 db 6c be 77 0b 95 be 6e 69 1d bf
       -1.1800696 -0.23130755 -0.2911031 -0.61489
000070 78 37 65 bf 49 30 7f 3d db 00 0b bf 69 7b ca be
       -0.89537764 0.062301908 -0.5429818 -0.3954728
000080 8d 58 9e bd bf 87 03 bf 7f fd 59 bf e9 b0 90 bf
       -0.077317335 -0.5137901 -0.8515243 -1.1303989
000090 f1 9c cc be 02 de d6 be 98 5e 26 be 1a ed 6a be
       -0.39963487 -0.41966254 -0.16247022 -0.2294201
0000a0 ea 36 fe be cb 5f 3b bd bb 52 d0 be 3b d7 41 bf
       -0.4965127 -0.045745652 -0.40688118 -0.7571904
0000b0 ec c1 d4 be db e3 d1 bc fd 6f 16 bf 33 2f 1c be
       -0.415542 -0.025621345 -0.5876463 -0.1525238
0000c0 16 bf 3b bf 1d 90 27 be a7 d8 29 bf 51 c4 99 be
       -0.7333845 -0.16363569 -0.6634621 -0.3003259
0000d0 96 43 ee be 01 48 f2 be 00 42 d9 3e d5 ea 0a bf
       -0.4653594 -0.4732056 0.42433167 -0.54264575
0000e0 fd 17 a8 bf 2b b7 fd be 67 3a 16 bf 54 01 2a bf
       -1.3132321 -0.4955381 -0.58682865 -0.66408277
0000f0 c6 cb 6f bf 92 3b 28 bf 7a f6 3f bf 10 5b 4a bf
       -0.9367031 -0.657159 -0.7498547 -0.790452
000100 b8 68 f2 be 53 e2 53 be 44 e3 ff be 72 3a 0c bf
       -0.4734552 -0.20691805 -0.49978077 -0.5477668
000110 35 0d 33 bf 6b 48 56 bf 6f 2e 05 bf 42 e5 dc be
       -0.6994203 -0.8370425 -0.5202398 -0.4314366
000120 85 e0 5d bf 4b 3c 09 bf 74 c0 91 be 99 8d be be
       -0.86670715 -0.53607625 -0.28467143 -0.37217405
000130 38 75 0a bf c9 42 dd be 28 00 15 bf 07 61 0e bf
       -0.5408511 -0.43215016 -0.58203363 -0.556168
000140 b0 29 0f bf f0 c0 59 bf e7 d7 15 bf 02 6f 95 bc
       -0.55922985 -0.85060024 -0.58532566 -0.01824141
000150 30 85 01 bf 1f 58 e8 be 80 2e 9b be 89 78 f8 3d
       -0.50593853 -0.4537973 -0.30308914 0.12132365
000160 6d cb 18 bf 78 0d 1f bf 67 d0 e5 be be 89 16 bf
       -0.59685403 -0.62129927 -0.4488556 -0.5880393
000170 ee 53 31 bf 31 71 23 bf 93 33 4e 3f 80 37 d6 be
       -0.6926869 -0.6384459 0.80547446 -0.41839218

dense1.batch_norm1.running_var f4 [96]
000000 90 f3 ae 3e 35 32 2b 3e fa d8 06 3e 7a 2f 02 3e
       0.34170198 0.16718371 0.13168707 0.12713423
000010 e8 a2 a1 3e 21 76 d7 3d 45 44 56 3d 2d 98 f4 3d
       0.315696 0.10520578 0.0523112 0.11943088
000020 90 9b 92 3d 1a 3a 3f 3e 8d 99 09 3e c3 ca a1 3d
       0.071585774 0.18674508 0.13437481 0.07900002
000030 73 7f a9 3e 0e 63 46 3e ec b0 c9 3d f2 55 b6 3d
       0.3310505 0.19373724 0.09848198 0.089031115
000040 50 c1 db 3d 92 81 4f 3d 2b 8a 86 3d 60 cb 30 3d
       0.10730231 0.050660677 0.06569322 0.043162704
000050 c4 4c 75 3d 98 0a fe 3d 17 93 05 3e 2b 26 b5 3d
       0.059887663 0.12404364 0.13044392 0.088451706
000060 1b 26 c6 3d 44 29 a7 3d 37 e2 ad 3d 9a b4 86 3d
       0.09675237 0.08162168 0.08490413 0.06577416
000070 a5 66 18 3e 68 13 01 3e 35 5a 85 3d d4 15 bd 3d
       0.14882906 0.12605059 0.06511346 0.09232679
000080 53 a0 ef 3d 22 23 a0 3d fb 07 0e 3e 60 52 0b 3e
       0.11700501 0.07819201 0.13870232 0.13605642
000090 9f ea d6 3d a3 4e d2 3d 92 ef a3 3e ae 0e 92 3d
       0.10493969 0.10268905 0.32018715 0.07131706
0000a0 15 e0 90 3d a3 b7 f9 3d a6 af 83 3d b0 2f 8e 3d
       0.0707399 0.12193229 0.06429987 0.069426894
0000b0 bd e3 46 3e 12 a2 de 3d b9 d8 c6 3d 4e e2 63 3d
       0.19422813 0.10870756 0.09709305 0.055635743
0000c0 9a 7a 3c 3e a2 c5 ba 3d b6 c5 07 3e 3e f2 ef 3d
       0.18406144 0.09119727 0.13259014 0.11716126
0000d0 ec 58 b1 3d e2 82 a6 3d 53 86 1f 3e 8f 10 8f 3d
       0.086595386 0.08130433 0.15578584 0.0698558
0000e0 97 23 37 3e c7 b3 98 3d 42 99 d3 3e ca 13 f6 3d
       0.1788467 0.07456165 0.41327864 0.12015493
0000f0 2a 99 da 3d 8d e1 1f 3e 1f 55 e8 3d f9 e4 08 3e
       0.10673745 0.15613385 0.113443606 0.13368596
000100 12 72 8e 3d 18 38 ed 3d ed bb 86 3d 4d 02 54 3d
       0.06955351 0.11582965 0.06578813 0.051760007
000110 b6 40 a7 3d 44 3f 94 3d ea 58 88 3d 8b 15 b6 3d
       0.081666395 0.072386295 0.06657584 0.08890828
000120 fc 48 0a 3e 03 51 97 3d 21 c9 c0 3d 41 fc 14 3e
       0.13504404 0.07388499 0.09413362 0.14549352
000130 54 d3 c9 3d 74 e5 17 3d 69 27 cb 3d 67 3e 6d 3d
       0.09854761 0.037084058 0.09919626 0.05792084
000140 94 5d 9f 3d d6 9b 06 3e 35 0c b6 3d 5b c0 ba 3d
       0.077815205 0.13145384 0.08889047 0.0911872
000150 1c ef 92 3d 19 00 90 3d 71 d2 11 3e f2 aa 1b 3e
       0.07174513 0.070312686 0.14240433 0.15201929
000160 a7 d4 cc 3d cd e6 da 3d ad bc b7 3d 0f c2 f1 3d
       0.10001498 0.10688553 0.08971534 0.11804592
000170 24 77 53 3e fe 1e d7 3d a8 2b b1 3e 91 e9 05 3e
       0.20650917 0.10503958 0.3460362 0.1307738

dense2.dense.weight f4 [16, 96]
000000 15 b7 e3 bb 2f 4a f1 bc a3 27 85 bd 57 7c 81 bd
       -0.0069493153 -0.029454319 -0.06501701 -0.06322544
000010 4d 84 91 3b e4 76 ec bc 37 40 a1 3d b3 76 49 bc
       0.0044408203 -0.028865285 0.07873576 -0.0122963665
000020 e1 a0 ea bd 5a 6a 93 bd 1e bb c1 bc 8c ce 18 bc
       -0.114564665 -0.07198019 -0.023648795 -0.009326588
000030 81 fb 15 bc 52 df b0 bc 75 8a 0f bb a0 16 af bc
       -0.0091542015 -0.021590862 -0.0021902595 -0.021373093
000040 b9 1b 7a 3d 1b 66 90 bd fa 3a d5 3d cc 0c 8d 3c
       0.061061595 -0.07050725 0.104116395 0.017218016
000050 bf 70 57 bd 39 d5 60 bd e2 31 64 3d ec ab ac 3d
       -0.052597757 -0.054890845 0.055711634 0.08431229
000060 0d 05 83 3c 69 1e 73 bd a3 ae 13 be 0c f5 2c bd
       0.01599362 -0.059355173 -0.14422087 -0.042225882
000070 8a 5b 9e 3d c0 17 19 bd 31 88 09 3e cb 23 1f bd
       0.077323034 -0.037376165 0.13430859 -0.038852494
000080 a8 d8 df bd cc 6d 85 3d 7c 09 a2 bc f8 a6 f4 bc
       -0.10929996 0.06515083 -0.019779913 -0.029864773
000090 af 41 70 bd a3 7e c0 b9 cb ab 9d ba 1f cc f1 3b
       -0.05865639 -0.00036715445 -0.0012029348 0.0073790695
0000a0 6e 1b 06 3d 1f 25 d5 bd 91 fc e0 b9 d8 b3 83 3d
       0.032741003 -0.10407471 -0.00042912786 0.06430787
0000b0 d6 d8 41 bb 9a 6e d3 bd 7f 02 6f 3c 5a 02 b4 3d
       -0.0029578707 -0.1032383 0.014587997 0.08789511
0000c0 89 a5 6e bc 47 7e 3e bd e3 ef eb bb 25 d5 52 bb
       -0.014565834 -0.046507146 -0.0072002276 -0.00321705
0000d0 1a be 91 3d 17 0f b1 3d dc 44 b0 bd 30 70 1d 3c
       0.07116337 0.08645456 -0.08606884 0.009609267
0000e0 ef c0 59 3a 4e 81 fa bd 8b 97 89 3c e4 38 99 bd
       0.00083066424 -0.12231694 0.016795894 -0.07481554
0000f0 fe b9 fb bd 66 bb 17 3d 47 ce 9e bc b1 f8 c5 bd
       -0.122913346 0.03704395 -0.01938547 -0.09666575
000100 61 ee df 3d ec 5f cc 3d 00 5a 77 bd aa 15 b9 3d
       0.10934139 0.09979233 -0.060388565 0.09037335
000110 3f 2a e9 bd ab 41 97 3d f4 ef ed bd 25 45 c1 3d
       -0.11385011 0.07385572 -0.11618033 0.094370164
000120 38 d1 ba 3b 30 d2 f0 3d 9c 98 2a bc cc db 73 3b
       0.0057012103 0.1175884 -0.0104123615 0.0037209867
000130 44 28 85 bd 24 c5 6e bd 07 f3 d1 3b 16 88 33 3d
       -0.06501821 -0.058293477 0.006407145 0.043830954
000140 46 99 d0 3d a6 f5 97 bc b3 88 ea bd 40 eb e1 bd
       0.101854846 -0.018549751 -0.114518546 -0.110311985
000150 19 5e d7 bd cc df 19 3c a4 37 8d bd 52 2b 87 3d
       -0.105159946 0.009391736 -0.06895378 0.066000596
000160 3d d8 e0 3d b8 ab 25 3d d4 c0 a0 3d 23 c5 18 bc
       0.10978744 0.040446967 0.07849279 -0.009324345
000170 4d 1f f8 3b e7 75 4b bd 00 39 c9 3c 77 7b 20 3c
       0.0075720907 -0.049672987 0.024563313 0.009795061
000180 87 19 2d 3b 52 21 d1 bc 5d 78 a4 bd a5 8e cf bc
       0.002641292 -0.025528584 -0.0803077 -0.025336573
000190 54 f5 24 3c cf 01 1f bd 67 cf c7 3d 8b 17 4a 3b
       0.010068256 -0.038820084 0.09756356 0.0030836787
0001a0 e4 31 03 bc c3 c9 91 bd d5 19 05 bd 1a b5 bb bd
       -0.0080075 -0.07118561 -0.03249534 -0.09165402
0001b0 56 ba 9d bd 56 d0 09 bc 8e c5 e8 bc 6d c9 73 bd
       -0.077015564 -0.008411488 -0.028414514 -0.059518266
0001c0 4b 9a ce 3d b1 fd 82 3b 12 b2 7d 3d 4b 08 c9 bd
       0.10088023 0.0039975275 0.0619374 -0.09816035
0001d0 e5 61 a9 bd f1 64 15 be 4b 85 9f 3d 24 52 61 3d
       -0.08270625 -0.14589287 0.077890955 0.055009976
0001e0 67 08 bc 3d a7 49 88 bd 22 7a 2c 3d 76 af e7 bc
       0.0918129 -0.06654673 0.042108662 -0.028281908
0001f0 e1 5f bb bd 29 69 15 3d ad f8 7b 3d f6 08 51 bc
       -0.09149147 0.03647724 0.061516453 -0.012758484
000200 84 79 a9 3c 4d 09 f9 3d cb 9e 01 bd 1c f9 e1 bc
       0.020687826 0.12159977 -0.031645577 -0.027584605
000210 43 a1 bb bc d6 a6 b2 bb e4 fe df 3b ea 3b 68 bd
       -0.022904044 -0.0054520173 0.0068358053 -0.056697764
000220 16 77 86 3d f4 2c 8d bd 94 e5 06 bb c4 48 92 bc
       0.065656826 -0.0689334 -0.0020583617 -0.017856963
000230 0b f7 6a bc b2 a5 11 be 87 29 dd bb 49 9a 04 bd
       -0.014341126 -0.14223364 -0.006749335 -0.0323737
000240 b5 fb 9b bc 61 6e d6 bd f2 b8 92 bc b0 19 39 3c
       -0.019040922 -0.10470272 -0.017910454 0.011297628
000250 0f 13 03 be 14 c4 40 bd d4 bb 0a be 37 e8 d0 bd
       -0.12800239 -0.047061995 -0.13548213 -0.102005415
000260 64 6f 2e 3d 9b cd a3 bd ce 83 01 bd 4c b2 76 b8
       0.0425867 -0.079982005 -0.03161984 -5.8817022e-05
000270 de 49 dd 3d 4d b8 37 bb 2f 8a 85 bd 01 aa 19 bd
       0.10805105 -0.0028033436 -0.06520497 -0.037515644
000280 76 07 de bd 5d 6c d9 bd 3e 92 88 3c c8 cd 81 bd
       -0.10841267 -0.10616372 0.016671296 -0.06338078
000290 e1 eb a4 3d 54 8c 53 3c 9c 0c 49 bd 42 b1 f7 3c
       0.08052803 0.012911875 -0.04908429 0.03023589
0002a0 96 98 30 bb e5 45 ab 3d 25 82 1d 3c b9 79 58 3d
       -0.0026946417 0.08362941 0.009613548 0.05285046
0002b0 6b bc 68 3d 32 ed 94 3d 6c 22 c9 3d d8 f0 a7 bc
       0.056820314 0.07271804 0.098210186 -0.020500585
0002c0 16 15 e0 bd 31 9f af 3a 24 ae 55 bd 28 23 b8 3d
       -0.10941522 0.0013398883 -0.052168027 0.089910805
0002d0 86 96 48 3d b5 22 e4 3d 2c 5b 5e 3d 30 54 be 3d
       0.048971675 0.11139432 0.054286167 0.09293401
0002e0 2a 32 9a bd b3 13 ac 3d 9e 06 ef bd 96 d9 4e bc
       -0.07529099 0.08402195 -0.11671184 -0.012625119
0002f0 7e 8c 0a bc 85 d9 b8 3d c0 fa 62 3b f1 0d 89 3c
       -0.0084563475 0.090258636 0.0034634322 0.01673028
000300 30 5f c1 3b a8 c8 ee bc 3f 48 f9 bc fa 55 8c bc
       0.00590124 -0.029148415 -0.030429957 -0.01713084
000310 51 03 24 bd 1d 7d a7 bd d8 22 d9 3d 57 e8 54 bb
       -0.040042225 -0.0817816 0.10602349 -0.0032487118
000320 77 01 9f bc 81 73 37 bd 50 1c 49 bc f9 35 9c bd
       -0.019409878 -0.044787887 -0.012274817 -0.07627482
000330 c8 26 35 bd 95 ec 86 3b aa d2 a0 3d 02 b6 9f 3d
       -0.044226438 0.0041175582 0.07852681 0.07798387
000340 b4 e7 09 be 41 79 84 3d ff 11 3a 3b a9 c3 b1 bd
       -0.13467294 0.0646844 0.0028392074 -0.08679897
000350 f1 a6 b6 3d 00 db 5b 3c eb 44 de 3c 9d 0c 12 bd
       0.0891856 0.013418913 0.027132472 -0.03565656
000360 6c d7 03 3d a7 45 f8 3d 85 d7 75 bd 35 00 ba bd
       0.032187864 0.1212266 -0.06001999 -0.09082071
000370 70 5f 28 bc 1d df 45 bd 22 f7 0d be 0e 4a e0 3d
       -0.01027666 -0.04830848 -0.13863805 0.10951625
000380 12 5a 3c bd 0f e2 5b bc cd 39 17 bd 03 52 65 bc
       -0.045984335 -0.013420596 -0.036920357 -0.013996604
000390 a7 49 8c bc 95 b4 1d 3c a7 87 14 3d a8 38 02 bd
       -0.017124964 0.009625574 0.03626218 -0.031792313
0003a0 16 ed 13 3c 6b 84 90 bd 82 61 8b bc 01 47 ff 3d
       0.009028694 -0.07056507 -0.017014269 0.12464715
0003b0 5c d5 c7 bb ab 6e d0 bd 5a f7 eb 38 60 da 96 3d
       -0.0060984325 -0.10177358 0.00011251746 0.073658705
0003c0 fc d3 fb 3b db 12 90 bd 91 18 ac bc e8 5b c9 3b
       0.0076851826 -0.070348464 -0.021007808 0.0061449893
0003d0 46 45 25 3d 64 f1 bd 3d 67 e9 75 bd e0 37 e7 bd
       0.040349267 0.09274557 -0.060037043 -0.11289954
0003e0 ca e4 a8 bd 67 81 13 3d a5 64 b8 3c 98 c1 4d 3d
       -0.08246763 0.03601208 0.022508929 0.050233454
0003f0 c2 30 70 3d cb 7d 76 3c 94 6a 08 bd 10 99 a3 bd
       0.05864025 0.01504464 -0.033304766 -0.07988179

dense2.dense.bias f4 [16]
000000 fc ee 2e 3d ff 82 ee 3c 97 04 e9 3d ab 41 af bc
       0.042708382 0.029115198 0.113778286 -0.021393618
000010 5b 01 a1 bc b7 a0 6b 3d d7 62 14 3e 59 a8 e0 3d
       -0.019653967 0.057526316 0.1449083 0.1096961
000020 6f 35 85 3d 3c 0d 86 3d 86 48 aa 3c d1 8e b3 bc
       0.06504332 0.06545493 0.020786535 -0.021918686
000030 a2 dc e0 3c b2 0b 63 ba 7b 67 54 3d bd 43 ba bf
       0.027448956 -0.00086611055 0.0518565 -1.4551922
